save31_12_22/save2_NoMCoxa_100.pth (torch, 930331 bytes, 11 tensors)

shared_net.0.weight f4 [256, 114]
0	0xbb150981	-0.002274126
1	0x3d432699	0.04764423
2	0xbdb17d11	-0.08666433
3	0xbd864ebd	-0.06557987
4	0xbd2dd26b	-0.042437
5	0x3d091f51	0.03347713
6	0xbca4051c	-0.020021968
7	0x3d936741	0.071974285
8	0xbbfc081d	-0.007691397
9	0x3cddc159	0.027069734
10	0xbd180f81	-0.03712416
11	0xbcd37710	-0.02581361
12	0xbdb9a944	-0.09065488
13	0xbd78e47a	-0.060764767
14	0xbd3a49ed	-0.045480657
15	0x3af475b9	0.0018650807
16	0x3d13b6c0	0.036062956
17	0x3d694a7f	0.05695581
18	0xbd6bb54d	-0.05754595
19	0xbd6cb192	-0.05778653
20	0x3cbe5705	0.023234854
21	0x3d97a139	0.07403798
22	0xbc96f54e	-0.018427517
23	0x3d9a9a15	0.0754892
24	0xbca2a27d	-0.019852871
25	0x3c4b2882	0.0123997945
26	0x3d9b79d1	0.07591594
27	0xbdb3e8a0	-0.08784604
28	0xbd23c2be	-0.039980642
29	0xbcb658a8	-0.022259071
30	0xbd1a52dc	-0.037676677
31	0x3dc173cb	0.09445914
32	0xbd7b4c4c	-0.06135206
33	0xbd2b8697	-0.0418764
34	0xbd88f874	-0.06688014
35	0xbdd368b3	-0.10322704
36	0xbd59c007	-0.053161647
37	0x3da7aa37	0.08186763
38	0x3d36a09d	0.044586767
39	0x3d2a882f	0.04163378
40	0xbb709cdf	-0.0036714596
41	0xbd441c06	-0.047878288
42	0x3c1a2051	0.009407119
43	0xbdbdcf12	-0.09268011
44	0xbd8ccb6b	-0.068747364
45	0xbd42df69	-0.04757634
46	0x3d7a3861	0.061088923
47	0x3d406502	0.04697133
48	0xbd3a87dc	-0.04553972
49	0xbca4d3a1	-0.020120444
50	0x3d300fed	0.042983938
51	0x3dc0fd90	0.09423363
52	0x3d82b5b7	0.063823156
53	0x3c399cb9	0.0113288695
54	0x3d5a2d1a	0.05326567
55	0xbd46f19a	-0.048570253
56	0xba94d63d	-0.0011355352
57	0xbd681375	-0.05665918
58	0xbd6d66ee	-0.05795949
59	0xbd74de06	-0.05978205
60	0x3d37a108	0.044831306
61	0x3d40d3cc	0.047076985
62	0xbd5d8977	-0.054086175
63	0x3c602a6a	0.013681987
64	0x3d5b9eaa	0.05361811
65	0xbb43ad0b	-0.002985778
66	0x3c37f8de	0.011228768
67	0x3c36a40c	0.01114751
68	0x3d4fb0ea	0.050705828
69	0x3d9611b0	0.073275924
70	0xbd7b9a74	-0.061426595
71	0xbd0ade88	-0.03390363
72	0x3d0d96de	0.034567706
73	0x3d6a1dac	0.057157204
74	0x3d98ee46	0.07467322
75	0x3d9e0bb9	0.0771708
76	0x3c959901	0.018261435
77	0xbda6b5ed	-0.08140168
78	0x3caa5fa3	0.020797556
79	0xbd7e32d1	-0.06206018
80	0xbdbf7a29	-0.09349472
81	0x3dacd07c	0.08438203
82	0x3db50a53	0.0883986
83	0xbdafe739	-0.08589024
84	0x3ca17875	0.019710759
85	0xbc94b95a	-0.018154789
86	0xbcead289	-0.028664844
87	0xbd479847	-0.048729207
88	0x3d674cd0	0.05646974
89	0xbd703aa4	-0.058649674
90	0x3d077558	0.033070892
91	0x3d3b9d07	0.04580405
92	0x3d89c2e5	0.06726626
93	0x3bcd3bee	0.0062632477
94	0xbdc78ea4	-0.097440034
95	0xbd1737b4	-0.036918357
96	0x3d1b2a07	0.037881877
97	0x3c9ea9a8	0.019368008
98	0xbd9afeb4	-0.07568112
99	0xbd5f1c79	-0.054470513
100	0x3dafc827	0.08583098
101	0x3d8ba2bd	0.06818149
102	0xbd177c69	-0.03698388
103	0xbce692ba	-0.028146137
104	0xbdbe9e45	-0.09307531
105	0x390b6c85	0.000132965
106	0xbd8c19db	-0.06840869
107	0xbd99abe8	-0.07503492
108	0xbbfa4088	-0.0076370873
109	0x3c611012	0.013736742
110	0xbd27639f	-0.04086649
111	0x3d56c8b4	0.0524375
112	0xbd49f8b0	-0.049309433
113	0x3db54f12	0.08852972
114	0x3d82613f	0.063662045
115	0xbdb210b4	-0.08694592
116	0xbd55df62	-0.052214988
117	0x3c11bf14	0.008895654
118	0x3ce7edb8	0.028311595
119	0x3c7c172c	0.015386384
120	0x3d0ef2ed	0.03489964
121	0x3c20dfc3	0.009818974
122	0xbd3c9a33	-0.046045493
123	0x3d244db9	0.040113185
124	0xbdcc1e27	-0.099666886
125	0xbd86cb31	-0.065817244
126	0xbc8f7f7b	-0.017516842
127	0xbd51e89c	-0.051247224
128	0xbcd54a20	-0.026036322
129	0xbda4a8bd	-0.08039997
130	0xbc6a42fc	-0.014298197
131	0x3cf6072a	0.030032713
132	0xbd62c4cb	-0.055363458
133	0xbcabbe92	-0.020964894
134	0x3d7a3b8e	0.061091952
135	0xbc2e56f1	-0.010640846
136	0xbbfbdc57	-0.0076861787
137	0xbc6fa42e	-0.014626546
138	0x3c938979	0.018009888
139	0x3d553b60	0.052058578
140	0x3dbb521a	0.09146519
141	0x3d491999	0.049096677
142	0x3dcd9271	0.10037697
143	0xbc542d9f	-0.01295033
144	0xbda05ad9	-0.07829828
145	0xbd33a1d4	-0.043855503
146	0x3d5cd7ee	0.053916864
147	0xbbc92aab	-0.0061391196
148	0xbd27d836	-0.04097768
149	0xbdaab5ad	-0.08335433
150	0xbdba3d89	-0.09093768
151	0xbdadbb35	-0.084829725
152	0x36e2adb4	6.7555466e-06
153	0x3d5a220b	0.053255122
154	0x3d18aba8	0.03727308
155	0xbd98755b	-0.07444259
156	0x3d64fb54	0.055903748
157	0xbd912f0d	-0.07089052
158	0xbc735750	-0.01485236
159	0xbd45897a	-0.04822681
160	0xbcaca3bd	-0.02107417
161	0xbcb6bfbe	-0.022308227
162	0xbda861bf	-0.082217686
163	0xbdadf726	-0.084944054
164	0xbd02ab9c	-0.03190194
165	0xbb8d92df	-0.004320487
166	0xbd163011	-0.036666933
167	0x3ced37f8	0.028957352
168	0xbdb5dae5	-0.088796414
169	0x3c861d30	0.01637134
170	0x3db5d29d	0.08878062
171	0xbd46adac	-0.04850547
172	0x3da9df30	0.08294523
173	0x3d10ff36	0.035399638
174	0xbd8ee062	-0.069763914
175	0x3d8cfe39	0.068844266
176	0xbbe8a2f3	-0.007099503
177	0xbd14eeb3	-0.036360454
178	0x3d935978	0.07194799
179	0xbdb609ec	-0.08888611
180	0x3c8a5289	0.016885059
181	0xbcd12c99	-0.025533961
182	0x3d94e90a	0.07271011
183	0x3cb29e06	0.021803867
184	0x3ce5fb46	0.028073918
185	0x3cc77f53	0.024352705
186	0xbc9c98ce	-0.019115832
187	0xbcacde18	-0.021101996
188	0xbdafe627	-0.0858882
189	0x3d412df8	0.04716298
190	0x3da5f40e	0.0810319
191	0x3da06a9d	0.07832835
192	0xbd824f31	-0.06362761
193	0x3a7c2ee1	0.00096200226
194	0xbd81c788	-0.06336886
195	0xbd71e6db	-0.05905805
196	0xbd379fcf	-0.04483014
197	0x3d144854	0.03620179
198	0xbd5de74d	-0.054175664
199	0xbb315a53	-0.0027061894
200	0x3c9228fb	0.017841807
201	0x3d60dfbb	0.054900866
202	0xbdd55ec2	-0.10418464
203	0xbd8ea4b3	-0.06965008
204	0xbd3a15b1	-0.045430843
205	0x3d912bea	0.07088454
206	0xbd0fba41	-0.035089735
207	0x3da158f5	0.07878295
208	0x3ce3ac4b	0.027792117
209	0x3c3a6bcb	0.011378239
210	0x3b4a6e38	0.003088845
211	0xbca7bfd9	-0.020477222
212	0x3c0726e5	0.008249019
213	0xbce2d078	-0.027687296
214	0x39dc8f75	0.00042068554
215	0x3c31d30d	0.010853541
216	0xbda52540	-0.080637455
217	0xbd58baf8	-0.052912682
218	0x3daa5a60	0.08318019
219	0xbd939112	-0.07205404
220	0xbc1713df	-0.009221046
221	0x3dcc1baa	0.09966214
222	0x3d2d7291	0.042345587
223	0xbb96fbee	-0.004607669
224	0xbd9d5ef5	-0.07684127
225	0x3d4d32c6	0.05009725
226	0xbd8d3914	-0.068956524
227	0xbcd25bac	-0.025678478
228	0xbcf59849	-0.029979842
229	0xba879c84	-0.0010346328
230	0x3c0cc598	0.008592032
231	0x3dafacb0	0.085778594
232	0x3c2833eb	0.010266284
233	0x3d87cec6	0.06631236
234	0x3d7e873b	0.062140685
235	0xbd5a95a1	-0.053365353
236	0x3d385ce0	0.045010448
237	0xbd93903a	-0.072052434
238	0xbd1ce717	-0.038306322
239	0x3c5aebbc	0.0133618675
240	0x3cddc692	0.027072225
241	0x3d97e5ce	0.07416879
242	0xbcc568c5	-0.02409781
243	0xbc12266b	-0.008920292
244	0x3d3630ad	0.044480015
245	0xbda93175	-0.08261386
246	0x3da210a6	0.07913332
247	0xbda5c7ad	-0.08094726
248	0xbbd8647f	-0.006603777
249	0xbc4f0571	-0.012635575
250	0xbd46134e	-0.048358254
251	0x3c92e67f	0.017932175
252	0x3d7ed2ae	0.06221264
253	0xbcc50ea1	-0.024054827
254	0xbd7ea2ab	-0.06216685
255	0xbd1466ea	-0.03623096

shared_net.0.bias f4 [256]
0	0xbd7adbe2	-0.061244853
1	0x3d9cc96a	0.07655604
2	0x3dc06ac9	0.09395368
3	0x3d914588	0.0709334
4	0xbd7ed5e0	-0.062215686
5	0xbdad1d94	-0.08452907
6	0x3da714e9	0.08158285
7	0xbb81ad49	-0.003957425
8	0xbad484ed	-0.0016213931
9	0x3d13805a	0.036011077
10	0xbc37b0fc	-0.01121163
11	0x3b691347	0.0035564469
12	0xbdb41ab6	-0.08794157
13	0xbc1048b5	-0.008806397
14	0xbc3cde3e	-0.011527596
15	0x3d6ab7b1	0.057304088
16	0xbdc5a2da	-0.09650202
17	0x3d649bbc	0.055812582
18	0xbd2fc3bf	-0.042911287
19	0xbcf98a84	-0.030461557
20	0xba91c97f	-0.0011122673
21	0x3c7cca04	0.015429024
22	0xbca2910d	-0.019844556
23	0x3d1db4b7	0.03850242
24	0xbd0bf2aa	-0.03416697
25	0x3d7ce84d	0.061744977
26	0xbc3dd41d	-0.011586216
27	0xbd636ab9	-0.0555217
28	0xbbd12231	-0.0063822498
29	0xbd1f4807	-0.03888705
30	0xbd626f4a	-0.055281915
31	0xbd13e579	-0.036107514
32	0x3d1311a7	0.035905506
33	0xbda03c60	-0.078240156
34	0xbc1d505e	-0.009601681
35	0xbd223872	-0.03960461
36	0xbdab6db8	-0.083705366
37	0xbdce1576	-0.10062687
38	0xbdb48653	-0.08814683
39	0xbd9c9c2f	-0.07646977
40	0xbcc6340a	-0.024194736
41	0x3cfe31da	0.03102963
42	0xbb15c937	-0.002285553
43	0x3ba9b2c6	0.005178782
44	0x3d9b8e91	0.07595552
45	0x3d837a1b	0.06419774
46	0x3bc9ec87	0.0061622295
47	0xbd806209	-0.06268699
48	0x3db2629b	0.08710214
49	0x3a1a92f9	0.00058965344
50	0x3da00dbb	0.07815119
51	0xbd9ebf5d	-0.077513434
52	0xbd8705e8	-0.065929234
53	0x3d09b5a0	0.033620477
54	0x3daeb860	0.085312605
55	0x3caa9fae	0.020828094
56	0x3da05837	0.07829326
57	0xbd85d1ef	-0.06534182
58	0x3d963536	0.07334368
59	0x3d3e9d9f	0.046537038
60	0xbd9e768e	-0.07737456
61	0x3d213901	0.039361004
62	0xbd971354	-0.073767334
63	0x3dadce92	0.08486666
64	0x3dadf3a3	0.08493736
65	0xbc83c4c8	-0.016085044
66	0x3db23a93	0.087025784
67	0xbda3aa77	-0.07991498
68	0x3c122730	0.008920476
69	0x3bdb3893	0.006690094
70	0x3ce2af64	0.027671523
71	0x3cf258a4	0.029583283
72	0xbd0549b7	-0.032541003
73	0x3d9deed4	0.077115685
74	0x3d55aad7	0.05216488
75	0xbd1a9de1	-0.03774822
76	0xbd9f3a9f	-0.07774853
77	0x3d5c8a7d	0.05384301
78	0xbd404202	-0.04693795
79	0x3cb8400e	0.022491481
80	0xbdbcdf29	-0.09222252
81	0xbdcb6a98	-0.099324405
82	0xbd81cb80	-0.06337643
83	0xbdd72fba	-0.1050715
84	0x3da133b2	0.07871188
85	0x3ce3330f	0.027734308
86	0x3dc1b253	0.09457841
87	0xbca2a8a0	-0.019855797
88	0x3d6c76cc	0.05773048
89	0xbcf3777c	-0.02972006
90	0x3d07cad3	0.033152413
91	0xbc55dd18	-0.013053201
92	0xbd3607a8	-0.044440895
93	0x3c9ca8aa	0.019123394
94	0x3db8907f	0.090119354
95	0xbd1516f5	-0.036398847
96	0xbd56e2f0	-0.05246252
97	0x3d364113	0.044495653
98	0xbd015029	-0.031570587
99	0xbd5b5d6b	-0.053555887
100	0x3daccff2	0.084381
101	0xbd393237	-0.045213904
102	0xbdbddf57	-0.09271114
103	0x3d9587de	0.07301305
104	0xbd60e62c	-0.05490701
105	0xbd5f011a	-0.05444441
106	0x3cb1064e	0.021609452
107	0x3d23439f	0.03985941
108	0xbb1808f7	-0.0023198703
109	0xbdbe4843	-0.092911266
110	0x3d93a8db	0.07209941
111	0xbce647fe	-0.0281105
112	0x3dc2b0dc	0.095063895
113	0xbd8dfed1	-0.06933368
114	0xbdc1220a	-0.094303206
115	0x3d1880ce	0.037232213
116	0xbd912da9	-0.07088787
117	0xbd33e9a4	-0.04392399
118	0xbcc34ba4	-0.02383978
119	0xbdc07509	-0.09397323
120	0x3d574b34	0.052561954
121	0x3c0d39c7	0.008619732
122	0x3d111c0c	0.03542714
123	0x3cbcf8e9	0.023067908
124	0xbc97a178	-0.018509611
125	0x3d1457d8	0.036216587
126	0xbca4a4ce	-0.020098116
127	0xbdb14ce3	-0.08657243
128	0xbd0086de	-0.03137862
129	0xbc07f5ed	-0.008298379
130	0xbd9ff370	-0.07810104
131	0xbd41eb25	-0.047343392
132	0xbd4b3277	-0.049608674
133	0xbd67bfeb	-0.05657951
134	0x3d6fe581	0.05856848
135	0xbcef23a3	-0.029191798
136	0xbdbc4c8e	-0.09194289
137	0xbd658ee3	-0.05604447
138	0xbca9d7aa	-0.02073272
139	0xb7d26e07	-2.5085186e-05
140	0x3d2d2c98	0.042278856
141	0x3d865e66	0.06560974
142	0x3c3df407	0.011593825
143	0xbd3e54f3	-0.046467733
144	0x3d65dd95	0.05611952
145	0x3bb5e2ee	0.005550734
146	0xbb490391	-0.0030672292
147	0x3c896862	0.016773406
148	0xbdc06f57	-0.093962364
149	0xbca6fc10	-0.020383865
150	0xbd15ff67	-0.036620524
151	0xbdbca6cc	-0.092115015
152	0x3c8dfca8	0.01733239
153	0xbcbda93a	-0.023151983
154	0x3d4691d0	0.0484789
155	0x3d66b19a	0.056321718
156	0xbc1f7ab2	-0.009733843
157	0xbd44779b	-0.047965627
158	0x3d18c2de	0.037295215
159	0x3d8bbcd2	0.06823124
160	0x3c6e78e2	0.014555188
161	0xbddaf3d9	-0.106910415
162	0x3d751a83	0.059839737
163	0xbdad1451	-0.08451141
164	0x3cc13205	0.023583421
165	0xbdae9872	-0.085251704
166	0x3d9fcec8	0.07803112
167	0x3daf6842	0.085648075
168	0x3da87a8c	0.08226499
169	0x3c03400e	0.008010877
170	0xbbba5b6b	-0.0056871674
171	0xbdd27e82	-0.10278036
172	0x3d0b5aad	0.034022022
173	0x3c335835	0.010946323
174	0x3d4de7f0	0.05027002
175	0xbdc5c11a	-0.09655972
176	0xbb044ac9	-0.0020186177
177	0x3cc5a83b	0.02412807
178	0x3d0db411	0.034595553
179	0x3daa57ac	0.08317503
180	0xbd85f184	-0.06540206
181	0x3dbbab67	0.09163552
182	0xbd8dbab8	-0.069203794
183	0x3d916f1b	0.0710127
184	0x3d8d9c9b	0.06914636
185	0xbd198a33	-0.037485313
186	0xbd988997	-0.07448118
187	0x3da99d23	0.082819246
188	0x3c64bbac	0.01396076
189	0x3cf937d2	0.030422125
190	0x3d87b021	0.06625391
191	0x3c065e83	0.008201244
192	0x3c7ff7dc	0.015623059
193	0xbda0a570	-0.07844055
194	0x3bf1d96b	0.0073806546
195	0xbdc604d5	-0.096688904
196	0xbd9a1639	-0.0752377
197	0xbdaa7783	-0.08323576
198	0x3d0d3abe	0.03447985
199	0x3d38443a	0.04498694
200	0xbc42597c	-0.011862155
201	0x3cb154d7	0.0216469
202	0xbdc15769	-0.094405
203	0x3db698ad	0.08915839
204	0x3d1a32a7	0.037645962
205	0x3bd230d1	0.006414511
206	0x3cfd9c6f	0.030958382
207	0xbcc26b9a	-0.023732949
208	0xbdbfa2b5	-0.09357206
209	0xbd915453	-0.07096162
210	0xbcf8cc04	-0.03037072
211	0x3d055293	0.032549452
212	0x3d2f682d	0.04282396
213	0x3d37d24d	0.044878293
214	0xbd4937ff	-0.049125668
215	0x3cdb42e2	0.02676529
216	0x3d98a94a	0.07454164
217	0x3d3c01e6	0.045900248
218	0x3d54fb6a	0.05199758
219	0xbc9205b5	-0.017824987
220	0xbd100065	-0.035156626
221	0xbd36eb4d	-0.044657994
222	0x3d5ba095	0.05361994
223	0x3ca5ee63	0.020255273
224	0x3daaf594	0.083476216
225	0x3dade1eb	0.08490356
226	0x3bc2d7ab	0.00594612
227	0xbcbe0cf2	-0.023199532
228	0xbdc310c2	-0.09524681
229	0x3d088bdf	0.033336516
230	0xbd546b5e	-0.051860206
231	0x3d1bcc9e	0.038036935
232	0x3cd71392	0.026254449
233	0xbb42c338	-0.002971841
234	0x3d025e55	0.031828243
235	0xbd7a29bb	-0.061074954
236	0xbdbe22af	-0.09283959
237	0x3d413bb7	0.04717609
238	0xbc80f50f	-0.015741853
239	0xbd58e8a6	-0.052956246
240	0xbdbbcaab	-0.09169515
241	0xbcc49c19	-0.024000214
242	0x3d2e6260	0.042574286
243	0x3cd67b32	0.026181791
244	0xbd2b9b0a	-0.041895904
245	0x3cfae950	0.03062883
246	0x3c2b51e0	0.010456532
247	0x3c4aaeb3	0.012370753
248	0xbd647275	-0.055773217
249	0xbc99419f	-0.018708048
250	0xbc155983	-0.00911558
251	0x3d15a6d8	0.036536068
252	0x3d38d6a8	0.045126587
253	0xbd9e6bec	-0.07735428
254	0xbc263f44	-0.01014692
255	0x3c92bd25	0.017912457

shared_net.2.weight f4 [256, 256]
0	0xbcf5b84f	-0.029995112
1	0x3bea0cf5	0.007142658
2	0x3d16f895	0.03685816
3	0x3a4b6bae	0.0007759881
4	0xbd81d999	-0.063403316
5	0xbd35663f	-0.044286963
6	0xbd89ddf1	-0.06731785
7	0x3c3d30a1	0.011547239
8	0x3d2d632a	0.0423309
9	0xba883965	-0.0010393081
10	0xbd4415fd	-0.047872532
11	0xbceb60ac	-0.02873262
12	0x3caec58e	0.021334436
13	0xbd4b343c	-0.04961036
14	0xbd065829	-0.03279892
15	0x3bb6459d	0.005562498
16	0x3d0d597b	0.034509163
17	0x3cb8b17f	0.022545574
18	0xbd326b89	-0.043559585
19	0xbd40abe8	-0.047038943
20	0xbd239b5e	-0.03994309
21	0xbccb19dc	-0.024792604
22	0x3c72a4b2	0.014809774
23	0xbcc7d054	-0.02439133
24	0x3c7a1b6a	0.015265325
25	0x3c959797	0.01826076
26	0xbcd664bb	-0.026171079
27	0xbc97723c	-0.018487088
28	0x3bbee921	0.005826131
29	0x3d623bbd	0.055232752
30	0xbd8b6fad	-0.0680841
31	0x3c6a8d8e	0.014315976
32	0xbcb67649	-0.0222732
33	0x3c7709bf	0.015078007
34	0xbd59552b	-0.053059738
35	0x3d37237d	0.04471158
36	0x3bb1cc5e	0.005425974
37	0xbd05363a	-0.032522418
38	0x3d363a0b	0.044488948
39	0xbd06e355	-0.032931644
40	0xbc1d574f	-0.0096033355
41	0x3c70e9cb	0.014704178
42	0x3d344c2a	0.04401795
43	0x3c564429	0.013077774
44	0xbd1b499c	-0.037911996
45	0xbcba98cd	-0.02277794
46	0x3aa1b863	0.0012338277
47	0xbd196d53	-0.037457775
48	0xbd3218ea	-0.04348079
49	0xbd613239	-0.054979537
50	0xbd158902	-0.036507614
51	0xbca341a2	-0.019928757
52	0x3cdac8ea	0.026707131
53	0xbc454204	-0.012039665
54	0xbcd73735	-0.026271442
55	0x3cbefac1	0.023312928
56	0x3c60c4e6	0.013718819
57	0x3d1d9399	0.03847084
58	0x3cd80ae8	0.026372388
59	0x3ca426e0	0.020038068
60	0x3d000c15	0.031261522
61	0x3d3a5704	0.04549314
62	0xbb805dcb	-0.003917431
63	0x3c2d6ee3	0.0105855195
64	0xbc552480	-0.013009191
65	0x3cd05442	0.025430802
66	0xbcd91dca	-0.026503462
67	0x3d2a2c7e	0.041546337
68	0xbd35070c	-0.044196174
69	0x3d27717d	0.040879715
70	0xbd90b59f	-0.070658915
71	0xbccda665	-0.025103757
72	0x3cfdcdf3	0.030981993
73	0x3d25d234	0.04048367
74	0x3d4c48c7	0.049874093
75	0xbd2b0d21	-0.041760568
76	0xbc8f8065	-0.017517278
77	0xbd16a29d	-0.036776174
78	0xbd393224	-0.045213833
79	0x3d6c63f0	0.057712495
80	0x3ce3349a	0.027735043
81	0xbce246bc	-0.02762162
82	0xbd6ba873	-0.057533693
83	0x3d3627ea	0.04447166
84	0xbb685a65	-0.003545427
85	0x3d21bf8d	0.039489318
86	0xbd1ee20a	-0.038789786
87	0xbbc735f8	-0.0060794316
88	0xbca64ae1	-0.020299377
89	0x3cdf23c8	0.027238742
90	0xbcac0d4c	-0.021002434
91	0x3c89782f	0.01678094
92	0x3d6c1d4b	0.057645123
93	0x3d291f36	0.04128953
94	0x3cc86bc2	0.024465445
95	0x3d55b6c4	0.052176252
96	0xbd1541a4	-0.036439553
97	0xbd1eb564	-0.038747206
98	0xbd2bc14c	-0.04193239
99	0xbd8a768b	-0.067608915
100	0xbcd17799	-0.025569724
101	0xbcee9b05	-0.029126653
102	0xbc9cdea5	-0.019149134
103	0xbc40a109	-0.011757144
104	0x3d32f38b	0.043689292
105	0x3ca01b47	0.019544257
106	0x3d18d650	0.03731376
107	0xbcb6fb86	-0.022336733
108	0x3cb3c3d8	0.021943972
109	0xbd43a606	-0.047765754
110	0x3bffceed	0.00780665
111	0x3d0670f7	0.032822575
112	0xbc5968f3	-0.013269651
113	0x3c39dd05	0.011344199
114	0x3cc18b32	0.023625944
115	0x3d346352	0.04404003
116	0xbcb8ca87	-0.02255751
117	0x3c496e8f	0.012294426
118	0xbd318160	-0.043336272
119	0xbd3c52fc	-0.045977578
120	0xbd78f835	-0.060783584
121	0xbcc048ca	-0.023472209
122	0x3d2d28de	0.042275302
123	0xbb0e4c7b	-0.0021713066
124	0xbd880ef3	-0.06643476
125	0x3d17bd9a	0.037046053
126	0xbd6d17ab	-0.0578839
127	0xbd5436c7	-0.051810052
128	0xbd5c43e6	-0.05377569
129	0x398daf21	0.00027024097
130	0x3d1b94b3	0.037983608
131	0xbd79044f	-0.060795125
132	0xbd8778fe	-0.06614874
133	0xbc7ed394	-0.015553374
134	0xbd25ae64	-0.040449515
135	0x3a9119e5	0.0011070339
136	0x3d1c014b	0.03808717
137	0xbd802660	-0.062573195
138	0x3d3288b5	0.043587405
139	0xbd1230f9	-0.035691235
140	0xbd464623	-0.04840673
141	0xbd3b55c9	-0.045736108
142	0x3c0c86ac	0.00857703
143	0xbd4e9128	-0.0504314
144	0xbd6b10c3	-0.057389032
145	0x3c80e958	0.015736267
146	0xbaece593	-0.001807379
147	0x3c965342	0.018350247
148	0xbd6a4cbe	-0.057202093
149	0x3cee21f3	0.029068923
150	0x3d5ad1ba	0.053422667
151	0xbc77166a	-0.0150810275
152	0x3d3c2d90	0.04594189
153	0xbcd519c5	-0.026013264
154	0xbd220be1	-0.03956211
155	0x3d6198ef	0.05507749
156	0x3d26efbe	0.04075598
157	0x3d116a6c	0.035501882
158	0x3d5e3438	0.05424902
159	0xbcce9302	-0.025216583
160	0xbd361bd2	-0.044460125
161	0x3ca93f3d	0.020660037
162	0x3d0e8ee6	0.034804247
163	0x3d5906a3	0.052984845
164	0xbd10770e	-0.03526979
165	0x3d0587d2	0.03260023
166	0xbd1ca38f	-0.03824192
167	0x3d150ca8	0.036389023
168	0xbd384cc4	-0.044995084
169	0xbd739d4e	-0.05947619
170	0x3c491da7	0.012275136
171	0xbd4c7eef	-0.04992574
172	0x3d3ca926	0.04605975
173	0x3d421e23	0.047392022
174	0xbc8dda71	-0.017316075
175	0x3d1e730f	0.038683947
176	0xbd4f2e04	-0.050580993
177	0x3c670ded	0.014102441
178	0xbc0ce2bc	-0.00859898
179	0xbd2756e3	-0.040854346
180	0x3c991881	0.018688442
181	0xbd463ce4	-0.048397914
182	0xbc94d1a7	-0.018166376
183	0xbd3e4ba6	-0.046458863
184	0xbd2591e2	-0.040422328
185	0xbd42891a	-0.04749403
186	0x3caae765	0.02086229
187	0xbd41906e	-0.04725688
188	0xbc5136cb	-0.012769411
189	0xbbff2015	-0.007785807
190	0x3cd72fbf	0.026267884
191	0x3d3644c7	0.044499185
192	0xbd7a6406	-0.061130546
193	0xbcdfff98	-0.027343556
194	0x3ca8f0d3	0.020622646
195	0xbd7b092a	-0.061288036
196	0xbd3744e1	-0.044743422
197	0x3b6b1a69	0.0035873896
198	0xbcd6fe86	-0.026244413
199	0x3c95fce9	0.018309074
200	0x3b5de9e1	0.0033861327
201	0xbd74295f	-0.059609767
202	0x3d6dd72d	0.058066536
203	0xbd541651	-0.051779095
204	0xbbdf05af	-0.0068060975
205	0x3d04e454	0.032444313
206	0xbd871f1b	-0.0659773
207	0xbd34d942	-0.044152506
208	0xbbe99c25	-0.0071292096
209	0xbd81e814	-0.063430935
210	0x3cd2fad8	0.025754377
211	0x3c8bdc97	0.017072959
212	0x3c8d0d07	0.017218126
213	0xbcf3d23b	-0.029763332
214	0x3bec9b72	0.007220679
215	0xbc7dc622	-0.015489133
216	0xbd0bb723	-0.0341102
217	0xbd82b7ba	-0.06382699
218	0xbd5f26ec	-0.05448048
219	0x3ce94f2c	0.028480135
220	0xbd1490e4	-0.03627099
221	0xbc6fc405	-0.014634137
222	0xbbef5b73	-0.007304603
223	0xbd476f63	-0.04869021
224	0x3d6d8710	0.057990134
225	0x3d2d3382	0.04228545
226	0x3d1c1745	0.03810813
227	0x3d2577e6	0.040397547
228	0x3d00f847	0.031486776
229	0x3d05fa49	0.032709394
230	0xbd29e0a8	-0.041474015
231	0xbcfdcaec	-0.03098055
232	0x3d342b7e	0.04398679
233	0x3d119c66	0.035549544
234	0x3cc45d5a	0.023970295
235	0xbd44a66d	-0.04801028
236	0xbc4d0ba1	-0.01251498
237	0xbd40f8ca	-0.047112264
238	0xbd5cd529	-0.053914223
239	0xbd327aca	-0.043574132
240	0xbcd532ab	-0.026025137
241	0x3cdfffff	0.027343748
242	0x3d2ee8a1	0.04270232
243	0xbc59ab23	-0.013285431
244	0xbcf00648	-0.02929987
245	0xbd8b429c	-0.06799814
246	0x3cebd669	0.028788762
247	0x3d2e1ef9	0.042510007
248	0xbcbc7446	-0.023004662
249	0x3c5dc918	0.013536714
250	0xbc5ecc94	-0.01359858
251	0x3d4322ea	0.04764072
252	0x3d5d4eeb	0.05403034
253	0xbd5db1b0	-0.054124534
254	0x3c1eecd7	0.009700022
255	0x3cd2afef	0.025718657

shared_net.2.bias f4 [256]
0	0xbd30a6d0	-0.043127835
1	0x3d29ec02	0.04148484
2	0xbc8f1bb3	-0.017469263
3	0x3cdfffa2	0.027343575
4	0x3d7bd893	0.06148584
5	0x3b2c5df7	0.0026301125
6	0xbd8b66d6	-0.06806724
7	0xbcdeb0ab	-0.027183851
8	0x3b050b16	0.0020300797
9	0x3ce022a9	0.027360277
10	0xbcca79da	-0.024716306
11	0xbd777b50	-0.060420334
12	0xbd168ba2	-0.036754258
13	0x3cbab718	0.022792384
14	0xbd66364f	-0.056204136
15	0xbccb123a	-0.024788965
16	0x3bbeebdf	0.005826458
17	0x3d21a99e	0.0394684
18	0x3d2cf076	0.04222151
19	0x3d78fd25	0.060788292
20	0x3d4136b0	0.047171295
21	0xbd755eed	-0.05990498
22	0x3b929f8a	0.004474585
23	0xbce59d15	-0.028029004
24	0xbc4ac13b	-0.012375171
25	0x3d208f28	0.039199024
26	0x3d53fc7f	0.05175447
27	0xbd0705e7	-0.032964613
28	0x3c88f7fb	0.016719809
29	0xbc6f1f55	-0.0145948725
30	0xbb1f2b0d	-0.0024287135
31	0x3d1f1b48	0.038844377
32	0xbc8c232b	-0.017106613
33	0xbd228a52	-0.039682694
34	0x3b871eb0	0.0041235313
35	0xbd82a930	-0.06379926
36	0x3d2a197c	0.04152821
37	0xbd04553a	-0.03230784
38	0x3824b8d8	3.9272796e-05
39	0xbd268051	-0.040649716
40	0x3d43b6e4	0.04778184
41	0x3d3c9c0a	0.046047248
42	0xbcd0236c	-0.025407515
43	0xbd2febba	-0.042949416
44	0xbcacbc3d	-0.021085853
45	0x3cd37aa5	0.025815317
46	0x3c99f00c	0.018791221
47	0x3d1b26f3	0.03787894
48	0xbcf69454	-0.030100025
49	0xbd2ab451	-0.04167587
50	0xbc62150c	-0.013798963
51	0x3d06a860	0.03287542
52	0x3ccdfbd9	0.025144504
53	0x3d23749c	0.03990613
54	0x3c095c41	0.008383811
55	0x39dff38a	0.00042715325
56	0x3bbb44b3	0.0057149767
57	0xbc945b5f	-0.018109975
58	0xbcbc87e8	-0.023014024
59	0x3cbf5d5b	0.023359945
60	0x3bac12a9	0.005251248
61	0xbcd34cde	-0.02579349
62	0x3d1e15f4	0.038595155
63	0x3d49388c	0.049126193
64	0xbcfb4dcb	-0.030676743
65	0x3d391c43	0.045192968
66	0xbd5be892	-0.053688593
67	0x3d695c24	0.056972638
68	0x3a2c5d8d	0.00065752194
69	0x3d6b1723	0.05739511
70	0xbd469078	-0.04847762
71	0xbd7448ba	-0.05963967
72	0x3c372d01	0.011180163
73	0x3cec5d3b	0.02885305
74	0xbc31b0f7	-0.010845414
75	0x3c294f21	0.010333807
76	0x3d0b8f11	0.034071986
77	0x3be35214	0.0069372747
78	0x3c754111	0.014969126
79	0xbc01ff3e	-0.00793439
80	0xbcaca648	-0.021075383
81	0xbd77646f	-0.060398515
82	0xbce55af3	-0.02799747
83	0xbd3e2f34	-0.046431735
84	0xbd79df3b	-0.061003905
85	0x3be7f719	0.007079017
86	0x3ca83bf9	0.02053641
87	0xbd0e5910	-0.034752905
88	0x3caeb416	0.021326106
89	0xb873fab1	-5.816919e-05
90	0x3a5fe74d	0.00085412414
91	0xbd2bb0c7	-0.041916635
92	0xbcfe4919	-0.031040715
93	0x3d267b8f	0.04064518
94	0x3d1aa8c3	0.0377586
95	0xbcda5397	-0.026651187
96	0xbd3f8abf	-0.046763178
97	0x3ce0687c	0.027393572
98	0xbb390434	-0.0028231265
99	0x3c22206a	0.009895423
100	0x3d474f73	0.048659753
101	0xbc0fdad1	-0.008780197
102	0x3d00291d	0.03128921
103	0xbd16d08c	-0.03681998
104	0x3d54850b	0.051884692
105	0xbd3456db	-0.044028144
106	0x3c1eeed3	0.009700495
107	0xba687573	-0.0008867599
108	0x3ce7bd04	0.028288372
109	0x3c63795c	0.013883915
110	0xbd2582a1	-0.04040778
111	0x3d27a2bf	0.04092669
112	0xbd013564	-0.031545058
113	0xbd192d66	-0.03739681
114	0xbc535624	-0.0128989555
115	0xbd2e4326	-0.042544506
116	0xbd602d6f	-0.05473083
117	0xbc472773	-0.0121554015
118	0xbceb8ba2	-0.028753106
119	0xbd8a6407	-0.0675736
120	0xbc962cf0	-0.018331975
121	0x3d30c753	0.04315884
122	0xbb1815d4	-0.002320637
123	0xbcd65156	-0.02616183
124	0xbd75b3c3	-0.059985887
125	0xbc25c5d2	-0.010117965
126	0xbcba390d	-0.022732282
127	0xbd6deb4a	-0.058085717
128	0xbd0da0a7	-0.03457704
129	0x3b24837e	0.002510279
130	0x3d47838e	0.048709445
131	0xbd847f70	-0.06469619
132	0xbcf0952e	-0.02936801
133	0x3d44e401	0.048069004
134	0x3d094455	0.033512432
135	0x3d242ddf	0.04008281
136	0xbcc006b7	-0.023440702
137	0x3d74beca	0.059752263
138	0x3cdf6bfb	0.027273169
139	0xba9635b4	-0.0011460097
140	0xbd29d160	-0.04145944
141	0xba47441c	-0.00076013966
142	0xbc540c55	-0.012942393
143	0x3cdf8750	0.027286202
144	0xbb40aefd	-0.0029401176
145	0xbd8796a6	-0.06620531
146	0xbd16b4f4	-0.036793664
147	0xbd6b726e	-0.057482176
148	0x3ca94d17	0.020666642
149	0xbc0d1583	-0.008611086
150	0x3c810d27	0.015753342
151	0xbd11a8a4	-0.03556122
152	0xbd1c68ad	-0.038185764
153	0xbcf84847	-0.030307902
154	0x3d41eaed	0.047343183
155	0xbb92c9b1	-0.00447961
156	0xbd524102	-0.051331528
157	0x3d15d21f	0.03657734
158	0xbd17e481	-0.037083153
159	0x3cc7001f	0.02429205
160	0xbd48f848	-0.049064904
161	0xbd4bbd71	-0.049741212
162	0x3d171a3b	0.03689025
163	0x3d1493c9	0.03627375
164	0x3b703aa5	0.0036656049
165	0xbd818510	-0.06324208
166	0x3cb02061	0.021499814
167	0xbd2890a9	-0.041153584
168	0xbd584dbe	-0.052808516
169	0x3cb8d294	0.022561349
170	0xbc4189fa	-0.011812681
171	0x3b34e55e	0.0027602534
172	0xbc3256b0	-0.010884926
173	0xbc01b887	-0.00791753
174	0x3ab6f13d	0.0013957393
175	0xb9bdb074	-0.00036180357
176	0xbd37e5a7	-0.044896748
177	0x3d54ac66	0.051922224
178	0xbcd6613b	-0.02616941
179	0xbc148dbb	-0.009066994
180	0xbd39e51a	-0.045384504
181	0xbd49d717	-0.04927739
182	0x3d28c86d	0.041206766
183	0xbada140d	-0.0016638056
184	0xbcc6b168	-0.024254516
185	0xbd34fcca	-0.04418639
186	0x3cdf9017	0.027290387
187	0x3b918a64	0.0044415463
188	0xbd711ccb	-0.05886535
189	0x3c7df021	0.015499146
190	0x3c9f251b	0.019426873
191	0x3d7418c8	0.059593946
192	0xbd27ec75	-0.040996987
193	0x3c94d24f	0.01816669
194	0x3cfc9153	0.030831015
195	0x3ce79a8b	0.028271934
196	0xbc5748a2	-0.013139876
197	0xbd078a54	-0.033090904
198	0x3cb8e5b1	0.022570463
199	0x3d19317b	0.037400704
200	0xbd2129ed	-0.039346624
201	0x3d180c6e	0.03712123
202	0x3d3a8e3b	0.045545798
203	0x3ce28502	0.027651314
204	0xbd1b3c6b	-0.037899416
205	0x3ceb3250	0.028710514
206	0xbcf8f8f0	-0.03039214
207	0xbce3482a	-0.027744371
208	0xbba06651	-0.0048950096
209	0x3d6e857d	0.058232773
210	0xbc516218	-0.012779735
211	0xbd32c6fa	-0.04364679
212	0xbcfbdb0b	-0.030744096
213	0x3d06e6a1	0.03293479
214	0xbd06670d	-0.03281312
215	0xbd1beff6	-0.03807064
216	0xbb8ce7a8	-0.0043000765
217	0xbd62c11f	-0.055359956
218	0x3cb91fed	0.022598231
219	0xbd06b3d1	-0.03288633
220	0x3d60c68f	0.05487686
221	0x3c9b713d	0.018974895
222	0xbd18846e	-0.03723567
223	0xbcef5753	-0.029216444
224	0xbc75c84e	-0.01500137
225	0xbcdd1069	-0.026985364
226	0x3c26b95f	0.010176032
227	0xbd850929	-0.06495888
228	0x3c1dc9cf	0.009630634
229	0x3d666b8a	0.0562549
230	0xbcbf3150	-0.023338944
231	0x3bc93d59	0.0061413464
232	0x3d1afe0f	0.037839945
233	0xbca3d806	-0.020000469
234	0xbd1aff55	-0.03784116
235	0x3d6f2c3a	0.058391787
236	0xbd0a40c6	-0.03375318
237	0x3d224358	0.039615005
238	0xbc21a6fc	-0.009866472
239	0x3d53c9bb	0.051706057
240	0x3b6337fc	0.003467082
241	0x3c9bbacd	0.019009972
242	0x3d2740c5	0.040833253
243	0xbc085d01	-0.008322955
244	0x3b8db263	0.004324244
245	0x3d719caf	0.058987316
246	0xbd391698	-0.045187563
247	0x3d51cadd	0.051218856
248	0x3d5d4199	0.054017637
249	0xbd381c66	-0.044948958
250	0xbd33f6cb	-0.043936532
251	0x3d07ab37	0.033122268
252	0x3d7aeb3f	0.061259504
253	0xbd1d1fdd	-0.038360465
254	0x3d51f6c0	0.05126071
255	0xbcf836bc	-0.030299537

to_mean.0.weight f4 [256, 256]
0	0xbd5a3c6e	-0.053280286
1	0xbca08728	-0.019595698
2	0x3d86ca0d	0.06581507
3	0x3ccdddc3	0.025130158
4	0x3b15573c	0.0022787591
5	0xbd6d7518	-0.057972997
6	0x3c58ab81	0.0132244835
7	0x3d269712	0.040671416
8	0xbd490765	-0.049079318
9	0x3cd7a2dd	0.026322776
10	0x3c6aecd8	0.0143386945
11	0x3ccde21c	0.025132231
12	0xbb057110	-0.002036158
13	0x3d366ad1	0.04453546
14	0xbd49d5d4	-0.049276188
15	0x3baf2671	0.0053451587
16	0x3cc115ef	0.023570029
17	0x3d4b63a5	0.049655575
18	0x3ae8d013	0.0017762206
19	0x3cd92f4c	0.02651181
20	0xbcc82313	-0.024430787
21	0xbca2228d	-0.019791866
22	0x3d5365ec	0.051610872
23	0xbd0886fc	-0.033331856
24	0xbd07cf38	-0.033156604
25	0xbd334b2a	-0.043772854
26	0x3d1f779f	0.03893244
27	0xbd81d3b3	-0.063392065
28	0x3bdd495f	0.0067531313
29	0xbbae8857	-0.0053263116
30	0xbcaed1f7	-0.021340353
31	0xbcbed6e0	-0.02329582
32	0xbd0ff08a	-0.035141505
33	0xbd4ce4e8	-0.05002299
34	0xb9755c95	-0.0002339951
35	0xbba914b5	-0.005159939
36	0x3b61aa16	0.0034433655
37	0xbd05b009	-0.032638583
38	0x3c7987ef	0.015230163
39	0x3d6ddf18	0.058074087
40	0x3d45b13c	0.048264727
41	0x3d49c488	0.049259692
42	0x3d5b1df0	0.053495347
43	0xbd377b4d	-0.044795323
44	0xba9688c2	-0.0011484849
45	0xbd105617	-0.03523835
46	0x3d12f85f	0.035881396
47	0xbd14fed5	-0.03637584
48	0xbd8063ec	-0.062690586
49	0xbd10b106	-0.035325073
50	0x3d102388	0.035190135
51	0x3c35dbef	0.0110998
52	0x3b30a9f7	0.0026956776
53	0x3d51e0bd	0.051239718
54	0xbd27a0f0	-0.040924966
55	0x3c6a7169	0.014309266
56	0xbd1de877	-0.038551774
57	0xbc944850	-0.018100888
58	0x3da288c0	0.07936239
59	0x3d33e48b	0.043919127
60	0xbd786e5a	-0.060652114
61	0x3d75585a	0.05989871
62	0x3d3b8fe1	0.04579151
63	0xbd94910e	-0.072542295
64	0x3d549277	0.051897492
65	0x3cf4fde3	0.029906219
66	0xba83caa1	-0.0010054895
67	0x3d52ba3d	0.051447142
68	0xbbf52119	-0.007480752
69	0xbcd92cd0	-0.026510626
70	0x3ceb8689	0.028750675
71	0x3d2bc709	0.04193786
72	0x3d1102a8	0.035402924
73	0xbd6b3e0c	-0.05743222
74	0x3d9b4fbf	0.0758357
75	0x3d51b3a0	0.051196694
76	0x3d0fd328	0.035113484
77	0x38aab715	8.1403334e-05
78	0xbd038f14	-0.03211887
79	0xbc9a53dc	-0.018838815
80	0xbd6e53d0	-0.0581854
81	0x3c512678	0.012765519
82	0x3c02c72c	0.007982057
83	0xbd4d459a	-0.050115205
84	0x3d79a9a3	0.060952794
85	0xbd13db4c	-0.03609781
86	0xbd22d5b0	-0.03975457
87	0x3d32e7d1	0.04367811
88	0xbd74cfbe	-0.05976843
89	0x3bf27f8f	0.00740046
90	0xbd65d13b	-0.05610774
91	0x3c8618e7	0.016369296
92	0xbc3c2693	-0.011483806
93	0x3c0a0875	0.008424868
94	0x3d4379b5	0.04772349
95	0x3d581314	0.05275257
96	0x3bf04dc8	0.007333491
97	0x3b901809	0.0043973965
98	0xbae55403	-0.0017496351
99	0xbd52c3c4	-0.051456228
100	0x3c3db9c7	0.011579937
101	0x3c32dd32	0.010916995
102	0x3d2beae5	0.04197206
103	0x3d7ae369	0.06125203
104	0xbd6bc693	-0.057562422
105	0xbd576730	-0.05258864
106	0xbbc799d2	-0.006091335
107	0xbccb719b	-0.024834445
108	0x3d46d09f	0.0485388
109	0x3cf5e36b	0.030015668
110	0xbd7fb86e	-0.062431745
111	0x3d3e79d8	0.046502918
112	0x3c1c5148	0.009540863
113	0xbd3d2a74	-0.046183065
114	0x3c626eed	0.013820392
115	0x3bb033a3	0.0053772493
116	0xbc7ff822	-0.015623124
117	0xbd0c90e7	-0.034317877
118	0xbb31c307	-0.0027124302
119	0xbca39ee1	-0.01997322
120	0x3bc0e89b	0.0058871037
121	0xbb8dc2e2	-0.0043262104
122	0x3d3bb00c	0.04582219
123	0x3cc954d0	0.024576575
124	0xb94a5c82	-0.00019298683
125	0xbd9bb34d	-0.07602558
126	0xbd6a6595	-0.057225782
127	0x3d365b94	0.04452093
128	0x3c8a25c4	0.016863711
129	0x3d3b71d6	0.04576286
130	0xbc96bce7	-0.018400623
131	0x3ca9540c	0.02066996
132	0x3c846016	0.016159099
133	0xbd4f4dfb	-0.050611477
134	0xbccba02c	-0.02485665
135	0xbd4121a3	-0.04715122
136	0xbbfd5d07	-0.007732037
137	0x3ce7769a	0.028254796
138	0x3d783e90	0.06060654
139	0xbd68da2e	-0.056848697
140	0xbd4c1903	-0.04982854
141	0x3c3b650a	0.011437664
142	0x3d652134	0.055939868
143	0xbd14d69b	-0.036337476
144	0x3cc6fb1b	0.024289658
145	0xbbca1fcb	-0.006168341
146	0xbd29d786	-0.041465305
147	0x3c9769de	0.018483099
148	0x3d06dceb	0.032925528
149	0xbd26bece	-0.04070931
150	0xbd3e1f5c	-0.046416625
151	0xbd665771	-0.056235734
152	0x3c2ba3c1	0.010476054
153	0x3d190bd3	0.037364792
154	0xbd89e0b5	-0.067323126
155	0x3c7999d9	0.015234434
156	0x3d3a809e	0.045532815
157	0x3d48377d	0.048881043
158	0x3ca6414f	0.020294813
159	0x3d2190ee	0.039444856
160	0xbd0665cb	-0.03281192
161	0xbd5206c9	-0.051276002
162	0x3cff4a27	0.031163288
163	0xbc5decfc	-0.013545271
164	0x3c92d863	0.017925447
165	0xbcc3e16c	-0.0239112
166	0x3d5c72f1	0.053820554
167	0x3d1706d1	0.036871735
168	0xbd52734c	-0.051379487
169	0x3cfb0589	0.030642288
170	0x3d804b99	0.06264419
171	0xbc844256	-0.016144913
172	0xbc6c33c3	-0.014416638
173	0xbd40d739	-0.047080252
174	0x3bb6fee5	0.005584585
175	0x3d5e01b5	0.054200847
176	0x3d2feb7f	0.042949196
177	0xbc4945ea	-0.012284735
178	0x3d58668f	0.052832182
179	0x3b2edf65	0.0026683446
180	0x3b950613	0.0045478432
181	0x3d59b1d3	0.053148102
182	0xbd6aa9f2	-0.05729098
183	0x3c8e77dd	0.01739114
184	0xbc4bc00e	-0.012435926
185	0x3c2e347c	0.01063263
186	0xb94592e8	-0.00018842111
187	0xbd5ded39	-0.05418131
188	0xbd1cbe79	-0.038267586
189	0x3ce33799	0.027736472
190	0xbc547909	-0.01296831
191	0x3c7d38d2	0.015455442
192	0x3d3460ee	0.04403775
193	0x3b459679	0.0030149503
194	0xbc585d69	-0.0132058645
195	0x3d4936d7	0.049124565
196	0xbcdb2589	-0.026751297
197	0x3d2dbedc	0.042418346
198	0xbc190e7c	-0.009341832
199	0xbcb79a02	-0.022412304
200	0x3b886b70	0.004163198
201	0x3c81a42a	0.01582535
202	0x3bdc46e9	0.0067223203
203	0x3d46adb0	0.048505485
204	0x3ca48bc7	0.020086182
205	0x3d620919	0.055184457
206	0x3d0240f8	0.03180024
207	0xbce474b0	-0.027887672
208	0xbc71788f	-0.014738216
209	0x3cb9a4a2	0.02266151
210	0xbbcc8518	-0.006241452
211	0x3cdaf7da	0.026729513
212	0x3d90a174	0.07062045
213	0xbc97f26f	-0.018548219
214	0xbb2e4403	-0.002659083
215	0x3d9162ca	0.07098921
216	0x3d804a53	0.06264176
217	0xbd3996e8	-0.04530993
218	0xbca6f826	-0.020381998
219	0x3d085c2e	0.033291034
220	0x3bf2d40a	0.007410531
221	0xbd730395	-0.059329588
222	0x3ce201cf	0.027588753
223	0xbd55498d	-0.052072097
224	0x3d40cdd0	0.047071278
225	0x3d792066	0.060821913
226	0x3d5d4152	0.054017372
227	0x3bda67cc	0.0066652056
228	0xbb7774c2	-0.0037758802
229	0xbd238916	-0.039925657
230	0x3ba83861	0.005133674
231	0x3d3fa997	0.046792593
232	0xbd7bad5e	-0.061444633
233	0x3d52dffe	0.051483147
234	0xbd2fca9a	-0.042917825
235	0x3c6d0105	0.014465575
236	0x3c0a2454	0.008431513
237	0xbcf581f6	-0.029969197
238	0xbbcfea15	-0.0063450434
239	0xbc2ec074	-0.010666002
240	0x3b4e525d	0.0031482198
241	0x3c17e4ac	0.009270828
242	0xbc0d3190	-0.008617774
243	0xbcf48b01	-0.029851438
244	0xbc059ce7	-0.008155084
245	0xbd346ce6	-0.044049166
246	0x3c6a6567	0.014306403
247	0xbc2eda11	-0.010672108
248	0x3c21a7a1	0.009866626
249	0xbaa5b1ab	-0.001264145
250	0xbd2bcc6f	-0.04194301
251	0x3c6a65c1	0.014306487
252	0x3d4111c4	0.047136083
253	0x3cf1d812	0.029521976
254	0x3cba256d	0.022722924
255	0x3d651b6f	0.055934366

to_mean.0.bias f4 [256]
0	0xbd7f1f84	-0.062285915
1	0xbd0a650e	-0.03378778
2	0xbd57c2d2	-0.05267603
3	0x3cc7879c	0.024356656
4	0x3d154de7	0.036451247
5	0x3d322a9d	0.04349767
6	0xbad44e09	-0.0016197573
7	0xbce2e04c	-0.027694844
8	0x3ce59bb1	0.028028341
9	0x3cd695cb	0.026194474
10	0xbc9bf1a9	-0.019036131
11	0xbd64636d	-0.055758882
12	0x3d62c17e	0.05536031
13	0x3cdc2bc2	0.026876334
14	0x3d00d53d	0.03145336
15	0xbc0ce03b	-0.008598383
16	0xbcf7e8c4	-0.030262358
17	0xbd666537	-0.05624887
18	0xbd129cd1	-0.035794083
19	0x3cf5d48c	0.030008577
20	0x3ca4e937	0.020130737
21	0x3ce87d38	0.028380021
22	0x3cbb6057	0.022873087
23	0xbd714db3	-0.05891199
24	0xbc050049	-0.008117744
25	0xbc9c07b9	-0.019046651
26	0xbd23900d	-0.0399323
27	0x3c3b85e0	0.0114454925
28	0xbcea19c4	-0.02857674
29	0x3cdc4807	0.026889814
30	0x3d177b76	0.036982976
31	0xbd1891e4	-0.037248507
32	0xbd47fba4	-0.048823968
33	0xbd06c4d0	-0.03290254
34	0xbd2fb73a	-0.042899348
35	0xbcdfe37d	-0.027330155
36	0x3d42413d	0.047425497
37	0xbd5c4c50	-0.053783715
38	0x3d21fa1f	0.039545175
39	0xbce901ee	-0.028443303
40	0xbca6b88d	-0.020351673
41	0x3ce86d6a	0.028372485
42	0x3d25d3ac	0.04048507
43	0x3d26123f	0.040544745
44	0x3cee417f	0.029083965
45	0xbd1deebc	-0.038557753
46	0x3d37c213	0.044862818
47	0xbd27a7bc	-0.04093145
48	0x3bd1898b	0.00639457
49	0xbd09f666	-0.03368225
50	0x3ca11111	0.019661458
51	0xbc1ba13e	-0.009498892
52	0xbcdcf652	-0.026972923
53	0xbd7c431f	-0.06158745
54	0xbc6882db	-0.014191355
55	0x3d722b98	0.059123605
56	0xbcbbb49d	-0.022913272
57	0x3c4aaeaa	0.012370745
58	0x3cf897f4	0.030345894
59	0x3c087e29	0.00833086
60	0x3d071b75	0.03298517
61	0xbc39b181	-0.011333824
62	0xbb79a67a	-0.0038093613
63	0x3d2bc41b	0.041935068
64	0xbc8a43f1	-0.0168781
65	0x3d3eb4b9	0.04655907
66	0xbc89ccde	-0.016821321
67	0xbd62702d	-0.05528276
68	0xbc0868d7	-0.008325777
69	0x3c0515f5	0.008122911
70	0xbd17c1c3	-0.03705002
71	0xbc01f697	-0.007932327
72	0x3ba7ec3d	0.0051245973
73	0xbccef0f1	-0.025261374
74	0x3d3ed58a	0.046590365
75	0x3cf25295	0.029580394
76	0x3d1c12f0	0.038103998
77	0xbd535e97	-0.05160388
78	0xbd52dd99	-0.051480863
79	0xbcdcf650	-0.02697292
80	0x3c142a22	0.009043248
81	0x3d114cd7	0.03547367
82	0xbd795028	-0.06086746
83	0xbd13ece1	-0.036114577
84	0x3d0260b1	0.031830493
85	0x3d3795fb	0.044820767
86	0xbc03f339	-0.008053594
87	0xbd242c6f	-0.040081438
88	0xbd5c27c9	-0.05374888
89	0x3d308c62	0.04310263
90	0x3d3241a8	0.043519646
91	0xbd3fa31f	-0.046786424
92	0x3d64224d	0.055696774
93	0xbc6dd708	-0.0145165995
94	0xbc5ce118	-0.013481401
95	0x3d03e7fa	0.032203652
96	0xbcd2e491	-0.025743755
97	0x3c8dee1b	0.017325452
98	0xbc91d3fa	-0.017801274
99	0xbcc13963	-0.023586934
100	0xbd32bf9e	-0.04363977
101	0x3c007a89	0.007841715
102	0xbc2a5a3f	-0.010397493
103	0x3ce17030	0.027519315
104	0xbc483beb	-0.012221317
105	0x3cb726af	0.022357313
106	0x3c9ace2d	0.01889714
107	0xbbbcc9b5	-0.00576135
108	0xbd33c9eb	-0.043893736
109	0x3be9e050	0.007137336
110	0x3d0546b9	0.03253815
111	0x3cda882d	0.026676262
112	0x3d42aa1a	0.047525503
113	0xbd61c7a1	-0.05512202
114	0x3c802096	0.015640538
115	0xbd007df5	-0.031370122
116	0x3d14e929	0.03635517
117	0x3cd9174d	0.026500368
118	0x3c452eed	0.012035114
119	0x3d7404fc	0.059575066
120	0xbd2f3619	-0.0427762
121	0xbca6aad9	-0.020345138
122	0xb9fd6dde	-0.00048337778
123	0xbc227400	-0.009915352
124	0xbca0ed00	-0.01964426
125	0x3d509136	0.050919734
126	0x3cdf300a	0.027244586
127	0xbd44aa79	-0.048014138
128	0xbc8df48f	-0.017328529
129	0xbd67e1a0	-0.056611657
130	0x3ca7ba13	0.02047447
131	0x3d5dffa1	0.054198865
132	0xbd077659	-0.03307185
133	0x3c8615cd	0.016367817
134	0x3d0dcb8b	0.03461794
135	0x3d41a472	0.047275968
136	0x3d342eae	0.04398983
137	0x3c8e4e9a	0.017371465
138	0x3cbf93d3	0.023385918
139	0xbcb0d0e9	-0.021583991
140	0x3cad0117	0.021118684
141	0xbc806e34	-0.015677549
142	0xbb5b4f54	-0.0033464031
143	0x3cbd6aae	0.023122158
144	0x3d60ec3b	0.054912787
145	0xbcb86377	-0.022508366
146	0xbd09a958	-0.033608764
147	0x3c2a67ca	0.010400722
148	0x3b3c366f	0.0028718968
149	0x3cc9e54e	0.024645474
150	0x3d753958	0.05986914
151	0xbbb86bbe	-0.0056280782
152	0x3d67297a	0.05643604
153	0x3ce4b1db	0.02791684
154	0xbd78264a	-0.06058339
155	0xbd619077	-0.055069413
156	0x3d686012	0.056732245
157	0xbc219e89	-0.009864458
158	0x3d60daa1	0.054896
159	0x3d053d5b	0.032529216
160	0xbd837043	-0.064178966
161	0x3a90be6d	0.001104308
162	0xbbc7862f	-0.006088994
163	0x3cdcb605	0.026942262
164	0x3c0d8ba3	0.008639249
165	0x3ca21343	0.019784575
166	0xbd25aa1f	-0.040445443
167	0x3d27f7da	0.041007854
168	0x3bc5794a	0.0060264217
169	0x3c13ce09	0.009021291
170	0xbcd661b3	-0.026169633
171	0xbbaa9391	-0.0052055796
172	0xbb3ef06f	-0.0029135009
173	0xbd0cf8d1	-0.034416977
174	0xbc375f01	-0.011192084
175	0x3c9e17d1	0.019298466
176	0x3cb9f6ff	0.022700785
177	0xbb8a9d2d	-0.0042301626
178	0x3ccd4f9f	0.02506238
179	0x3cdbe430	0.026842207
180	0xbc29dd40	-0.0103676915
181	0x3c600a84	0.013674382
182	0xbd554f5d	-0.05207764
183	0x3d535b7f	0.05160093
184	0x3c2de6d8	0.0106141195
185	0xbd2e249f	-0.042515393
186	0xbd69c92f	-0.05707663
187	0xbd07b898	-0.033135027
188	0x3d29050a	0.04126457
189	0xbb7ea191	-0.0038853625
190	0x3d054711	0.032538477
191	0x3c8cb537	0.017176254
192	0xbc9738ed	-0.018459762
193	0xbc4deafd	-0.012568233
194	0xbd5c1335	-0.053729255
195	0xbbf6d576	-0.0075327707
196	0xbd2dc336	-0.042422496
197	0x3cc43ac6	0.023953807
198	0xbc607d21	-0.013701708
199	0xbd02f808	-0.031974822
200	0xbd5dfea8	-0.054197937
201	0xbbff26c8	-0.0077866055
202	0x3c118a92	0.008883135
203	0x3d67c14e	0.056580834
204	0xbd12b923	-0.03582109
205	0xbc73bbf8	-0.014876358
206	0x3d01735e	0.031604163
207	0x3d852443	0.06501057
208	0x3c9bad35	0.01900349
209	0xbd3ecf00	-0.04658413
210	0x3d63809d	0.055542577
211	0xbce99646	-0.028514039
212	0xb9927f3b	-0.00027942084
213	0xbd6f5487	-0.05843022
214	0x3c4d3955	0.012525876
215	0x3d245246	0.040117525
216	0x3c0c9ff4	0.008583058
217	0xbd80fa16	-0.062977
218	0xbcad48bc	-0.021152847
219	0x3d4fe735	0.050757606
220	0x3d582a3c	0.052774653
221	0x3cb985f3	0.02264688
222	0x3d2baf5d	0.041915286
223	0xbc6518bb	-0.013982947
224	0xbcdcae13	-0.026938474
225	0xbcb84340	-0.022493005
226	0x3d59d24a	0.053179063
227	0xbb9f966e	-0.0048702275
228	0x3cf1195c	0.029431038
229	0x3c838428	0.016054228
230	0x3d81a870	0.06330955
231	0x3ca1b63b	0.019740215
232	0xbd4ce503	-0.05002309
233	0xbca37e3e	-0.019957658
234	0xbce27cef	-0.027647464
235	0xbd1684cb	-0.036747735
236	0xbc1c2bc3	-0.009531918
237	0xbce7f171	-0.02831337
238	0x3cf2bfa7	0.029632403
239	0xbd960472	-0.073250666
240	0x3d7a4863	0.06110419
241	0xbd143dd6	-0.036191784
242	0xbd50e737	-0.051001754
243	0x3d094f84	0.033523098
244	0x3d5d0748	0.053962022
245	0x3c23c75f	0.009996264
246	0xbd0b1c59	-0.03396258
247	0x3cd81565	0.02637739
248	0xbcc1c515	-0.023653546
249	0x3d313059	0.043259
250	0x3d778f8d	0.060439635
251	0xbd1ff622	-0.03905309
252	0x3d6a7d79	0.057248566
253	0xbd017d6a	-0.031613745
254	0x3c9fe227	0.019517018
255	0xbcccdff7	-0.025009139

to_mean.2.weight f4 [17, 256]
0	0x3b84f38a	0.0040573524
1	0xbd4e9c59	-0.050442073
2	0x3d5568d4	0.052101925
3	0x3d3ca4ab	0.046055477
4	0xbd512bd0	-0.051067173
5	0x3d503f23	0.050841462
6	0x3d28d262	0.04121626
7	0xbca29e15	-0.01985077
8	0xbd4b336c	-0.049609587
9	0xbd4a4bb1	-0.04938859
10	0x3d6eaa33	0.058267783
11	0xbd11edad	-0.035627056
12	0xbcf7aa21	-0.030232491
13	0xbcac2cce	-0.021017458
14	0x3cac4fab	0.021034082
15	0xbc88b39d	-0.016687209
16	0x3d248371	0.040164415
17	0x3d49c523	0.04926027
18	0x3cfe676f	0.03105518
19	0xbd55e94e	-0.05222445
20	0xbd6a84b4	-0.05725546
21	0x3c9f5847	0.019451274
22	0x3ce5826f	0.028016297
23	0x3c178961	0.009249062
24	0xbd99d993	-0.07512202
25	0x3c827a5a	0.015927482
26	0xbd163f83	-0.036681663
27	0x3c6a7cd7	0.014311991
28	0x3d119600	0.03554344
29	0x3ca147fb	0.019687643
30	0x3d499f3a	0.049224116
31	0xbc3c3b77	-0.011488787
32	0x3d94f2b6	0.07272856
33	0xbd62200a	-0.055206336
34	0x3d2ec5a4	0.042668954
35	0xbd5265ab	-0.05136649
36	0x3d701c29	0.058620606
37	0x3bff7833	0.0077963113
38	0x3d11ce52	0.035597153
39	0xbc9fc268	-0.01950188
40	0x3d2139e9	0.039361868
41	0x3d5d53c2	0.054034956
42	0xbd8da448	-0.069161
43	0x3d5dc248	0.05414036
44	0x3ca6b21a	0.020348597
45	0x3d04c23d	0.032411803
46	0x3c64261a	0.0139251
47	0x3b8f846d	0.0043798
48	0x3cbca2cf	0.023026852
49	0x3d2f6a2d	0.042825866
50	0xbd445f4a	-0.047942437
51	0xbd0bd09a	-0.034134485
52	0x3d79b6a9	0.060965214
53	0x3b51be2f	0.0032004227
54	0x3d4a9c2b	0.04946534
55	0x3d606c37	0.0547907
56	0xbb027c08	-0.0019910354
57	0xbd74788b	-0.05968527
58	0x3d395144	0.045243517
59	0x3d303bc5	0.04302575
60	0x3c74895a	0.014925325
61	0xb8c864db	-9.555529e-05
62	0xbc38bc53	-0.011275369
63	0x3b9e656a	0.004833867
64	0x3ad52d3a	0.0016264089
65	0x3c451ba7	0.012030519
66	0xbcdc5ad5	-0.02689878
67	0x3d4b1fe2	0.049590953
68	0x377d52b1	1.5099228e-05
69	0xbc7238d1	-0.014784054
70	0xbd7a1ec0	-0.06106448
71	0xbc1edd23	-0.009696278
72	0xbd1b9ef9	-0.037993405
73	0xbd1caa60	-0.03824842
74	0xbc31c7ae	-0.01085083
75	0x3b83b9a1	0.0040199314
76	0xbd494be7	-0.04914465
77	0x3d27b4df	0.040943976
78	0xbd70b082	-0.05876208
79	0x3d194fbf	0.037429567
80	0x3d87ce94	0.066311985
81	0x3d100137	0.03515741
82	0x3d367d7b	0.04455326
83	0x3d114810	0.035469115
84	0x3d549a12	0.051904745
85	0x3c5c2c04	0.0134382285
86	0xbca1109b	-0.019661238
87	0xbce279a9	-0.027645903
88	0x3cd684c3	0.026186353
89	0x3cfcdccc	0.030867003
90	0xbd6f695d	-0.05845009
91	0xbbcad0a3	-0.006189422
92	0x3c8f0dae	0.017462578
93	0xbcfb26f7	-0.030658228
94	0xbcce95a1	-0.025217833
95	0x3c222fd7	0.009899101
96	0x3bc60e81	0.0060442095
97	0xbd487cf2	-0.048947282
98	0xbc7f6a5c	-0.015589323
99	0x3d5beca6	0.053692482
100	0xbb855230	-0.0040686354
101	0xbcdf708e	-0.02727535
102	0x3cd7ab0f	0.026326684
103	0x3cc88f87	0.024482502
104	0x3d2445c5	0.0401056
105	0xbbd019b9	-0.0063507226
106	0x3d63547e	0.0555005
107	0xbc02a30c	-0.007973444
108	0xbd4460a6	-0.047943734
109	0x3d1a5cac	0.037686035
110	0xbd536d74	-0.051618055
111	0xbc2bb5f7	-0.0104803955
112	0x3d5da243	0.054109823
113	0x3cda5562	0.026652042
114	0x3dae4005	0.085083045
115	0x3d3c3e59	0.045957897
116	0x3d6fb03d	0.058517683
117	0xbcac619c	-0.021042638
118	0x3d45499f	0.048165914
119	0xbce19585	-0.027537117
120	0xbc39f2f5	-0.011349429
121	0x3d494a47	0.049143102
122	0x3d4963c6	0.049167417
123	0x3d27a092	0.040924616
124	0x3d24cd7b	0.040235024
125	0xbced7ff7	-0.028991682
126	0x3aa595b6	0.0012633118
127	0xbd2401b0	-0.04004067
128	0x3b91463a	0.0044334205
129	0xbd72699b	-0.059182744
130	0xbd35a980	-0.0443511
131	0xbc782081	-0.015144468
132	0xbd289e4c	-0.04116659
133	0xbd64c4c2	-0.055851705
134	0xbb9cffd1	-0.004791238
135	0x3cc60122	0.024170462
136	0xbd5d3a32	-0.054010577
137	0x3c97ef5e	0.018546756
138	0xbd035425	-0.03206267
139	0xbc1f12ee	-0.009709103
140	0xbd354688	-0.044256717
141	0xbc986ef8	-0.018607602
142	0x3d26a28f	0.04068237
143	0x3d485f9c	0.048919305
144	0x3d5fe3a6	0.05466046
145	0x3d8a7c65	0.067620076
146	0xbbd48f8f	-0.00648684
147	0x3b8c6253	0.004284182
148	0x3d7b6b2c	0.061381504
149	0xbb116eb7	-0.0022191235
150	0x3cf629a4	0.030049153
151	0xbd6bee49	-0.057600293
152	0xbc2a666a	-0.010400394
153	0xbd5c9012	-0.053848334
154	0x3c143a9d	0.009047178
155	0xbb2d0ecb	-0.0026406522
156	0x3d037ab2	0.032099433
157	0x3d2729a3	0.040811192
158	0xbd40fd6d	-0.047116686
159	0xbd37fc16	-0.044918142
160	0xbc0dcdfc	-0.0086550675
161	0xbca128c3	-0.019672757
162	0xbd947807	-0.07249456
163	0x3c168a7c	0.009188291
164	0x3d494a99	0.049143407
165	0x3af79e43	0.001889177
166	0x3c7d9122	0.015476497
167	0x3bc47e63	0.005996512
168	0x3d3fbbb6	0.046809874
169	0x3d81a870	0.06330955
170	0x3c2b1e7b	0.010444279
171	0x3d0bfe3e	0.03417801
172	0x3d196b8e	0.037456088
173	0xbd1208f8	-0.035653085
174	0xbd1356da	-0.0359715
175	0x3981c388	0.0002475048
176	0xbd1be946	-0.038064264
177	0x3c189e82	0.009315135
178	0x3d659452	0.056049652
179	0x3cf4dcdd	0.029890472
180	0x3cbfe726	0.02342565
181	0xbd0cff11	-0.034422938
182	0x3b1895b3	0.0023282587
183	0x3bed8e02	0.0072495947
184	0x3d043371	0.03227562
185	0x3b1c4cd7	0.002384951
186	0xbd707da2	-0.058713563
187	0x3d3fc522	0.04681886
188	0xbc94ab0f	-0.018147973
189	0x3cd88584	0.026430853
190	0xbc8d4097	-0.017242713
191	0xbcfddd7a	-0.030989397
192	0x3d6260e9	0.055268202
193	0xbbfbea6d	-0.007687858
194	0x3d40421c	0.046938047
195	0x3d800437	0.06250804
196	0xbd0fa9a9	-0.03507391
197	0xb982804d	-0.00024891124
198	0x3d655bc1	0.055995706
199	0x3d6e020a	0.058107413
200	0xbd358df7	-0.04432484
201	0x3d6d1f6b	0.05789129
202	0xbd0da352	-0.034579583
203	0x3d2c25df	0.042028304
204	0xbcbfd9d0	-0.02341929
205	0xbd3ff869	-0.04686776
206	0x3c088eb9	0.008334809
207	0x3d49ea95	0.04929598
208	0x3d2e37d5	0.042533714
209	0xbd662142	-0.05618406
210	0x3af65c7f	0.0018795877
211	0x3cb8083f	0.02246487
212	0x3d0ccb5b	0.034373622
213	0xbcd98656	-0.026553314
214	0x3c96a4d5	0.018389145
215	0x3c5abe45	0.013351028
216	0xbb370d1c	-0.0027931398
217	0x3d43c2b1	0.047793094
218	0xbd10e2b0	-0.035372436
219	0x3c5288fd	0.012850043
220	0xbd1a0039	-0.03759787
221	0xbbe9a6e0	-0.0071304888
222	0x3d3e2105	0.04641821
223	0x3d177311	0.03697497
224	0xbc2b31c3	-0.010448876
225	0x3d428898	0.047493547
226	0xbd00a9c1	-0.03141189
227	0x3d85986c	0.06523213
228	0xbb4df685	-0.0031427455
229	0xbd48b2b8	-0.048998564
230	0x3d4a6e30	0.04942149
231	0xbcbb3261	-0.022851171
232	0xbc787d08	-0.0151665285
233	0x3cf1172f	0.02943
234	0x3c4af8ea	0.012388447
235	0x3cf24dae	0.029578056
236	0xbd03e1bf	-0.03219771
237	0x3d1ff8af	0.039055523
238	0xbb56cf41	-0.0032777342
239	0xbd8a6f3e	-0.06759499
240	0xbc3211ba	-0.010868484
241	0x3d83befc	0.06432912
242	0xbd39b4f1	-0.045338575
243	0x3d740dc3	0.059583437
244	0x3d2ca478	0.042149037
245	0x3d06d67f	0.032919403
246	0xbd840e7f	-0.064480774
247	0x3cd8e94c	0.026478432
248	0x3d065515	0.032795984
249	0x3d27527a	0.04085014
250	0xbc973511	-0.018457921
251	0x3cf29964	0.029614158
252	0xbd575290	-0.052568972
253	0x3dad4cd2	0.08461918
254	0xbd074a87	-0.03303006
255	0xbc44c43f	-0.012009679

to_mean.2.bias f4 [17]
0	0x3d4b5421	0.04964078
1	0xbd41995e	-0.047265403
2	0xbd057965	-0.032586474
3	0xbd592b96	-0.053020082
4	0xbd00ff8d	-0.031493712
5	0xba2a0ec1	-0.0006487184
6	0xbba1a314	-0.0049327705
7	0x3d3c6850	0.045997918
8	0x3c560534	0.013062764
9	0x3c6a5e75	0.014304747
10	0xbce1599a	-0.027508546
11	0xbd103577	-0.035207238
12	0x3cb29ee9	0.02180429
13	0x3d7672b8	0.060167998
14	0x3cc45ddc	0.023970537
15	0xbbc8c3fe	-0.0061268797
16	0x3cc88336	0.024476629
