saves/save7_1_23/save6_walk_18dofs_fromSave41800.pth (torch, 282843 bytes, 11 tensors)

shared_net.0.weight f4 [256, 73]
-0.07622983 0.30813065 -0.06207721 -0.13378008 -0.010037546 0.050145626 -0.018235914 0.068423055
0.0024699438 0.055377923 -0.23607086 -0.14248592 -0.17979904 -0.27162626 0.07352319 0.043578323
-0.17078656 0.1303628 0.05193875 -0.17009552 0.066519186 0.28350213 -0.2225026 0.22248499
0.0069406317 0.3194728 0.16359988 -0.3374018 0.31238717 -0.012345399 -0.08499571 0.1123247
-0.16431367 -0.09604387 -0.077028416 -0.08984286 -0.11228413 0.090181835 -0.06820323 0.035072245
-0.05368674 -0.036353216 -0.07615636 -0.158467 -0.04625006 -0.073074736 0.11027973 0.048455015
-0.15073283 0.039545678 0.06435805 0.09426232 0.059571225 0.071394965 0.044058368 -0.031143537
-0.0064992425 -0.19024585 -0.043527976 -0.038693625 0.08094699 0.08624253 -0.06772332 0.05678457
0.09210991 0.020451926 -0.01717875 0.09403802 0.04335041 0.12010568 -0.13882238 -0.16490686
-0.046310034 0.19797122 0.10392544 0.3404609 -0.04907774 -0.27735254 0.0065123616 -0.06800948
-0.3154151 0.16073954 0.29499722 -0.25855047 0.052241553 0.48484018 -0.16838141 0.116941564
0.0064446484 -0.17029828 0.32311958 -0.1272408 -0.18507442 0.14249897 0.13692898 0.04414677
0.17820029 0.23936626 -0.4703161 0.0726624 0.053446032 -0.17338672 0.28699198 -0.007894196
-0.024794469 -0.03800753 -0.1298363 -0.087585896 -0.021070436 0.0122395195 -0.02486429 0.04010256
0.0034589304 0.21263424 -0.0045251246 -0.08738509 0.0053389 -0.0058488157 -0.012236814 0.14029282
0.11242585 -0.021079294 -0.087150924 0.053228114 -0.107861385 -0.047736425 0.040759817 -0.047556527
-0.05496359 -0.070350416 0.07956591 -0.023769569 -0.089766994 -0.0014455438 0.04719055 0.0038192042
-0.0155647 -0.00042207132 0.023628525 0.10234499 0.048595067 0.07009718 0.096426755 -0.10756233
-0.12132053 -0.14101385 0.120226786 -0.1903523 -0.025227651 -0.20687489 -0.1383369 -0.30650085
0.13332468 0.012592392 0.08868836 -0.0613356 0.116340056 -0.18946972 -0.09245828 0.117977686
-0.21341547 -0.13339727 -0.21248125 0.033757858 -0.28064924 -0.34959984 -0.18727338 -0.09829101
0.1414342 -0.34427422 0.11322107 -0.25995928 0.094449945 0.19486153 -0.33703128 0.1773842
0.03626008 -0.16514584 0.01717649 -0.06899858 0.0631772 0.06308915 0.014934997 0.120116495
0.08732071 -0.029291917 -0.10176901 -0.03644356 -0.0720501 0.027981874 0.047494717 0.07030393
-0.0022119617 -0.15283786 -0.11380567 -0.0849755 -0.11949544 0.026032414 -0.042286158 0.015592283
-0.021522464 0.104793556 -0.09733064 -0.22812594 -0.08555292 0.10876186 -0.032319456 0.10588051
0.031225676 0.024150928 -0.00494278 -0.027006183 0.08175931 -0.088332824 -0.11152291 0.17827937
-0.27708238 -0.18539244 0.10489622 -0.04434276 -0.014926022 0.30183116 0.0943639 -0.115062885
-0.4566185 0.14692794 -0.091775365 -0.0107100755 -0.03089124 -0.063695766 -0.1173523 -0.021075344
-0.27469647 0.18666218 0.19747424 -0.09546133 0.27881804 -0.11992463 -0.16712958 0.19214125
0.035385225 -0.06404181 -0.08899065 0.30434847 -0.18203771 0.0583827 -0.11974276 -0.31134218
-0.13335066 -0.03852311 0.09828529 0.091597736 0.10034505 -0.029598422 -0.14993608 -0.22714043
00000000: 631e 9cbd 4dc3 9d3e ac44 7ebd a5fd 08be
00000010: 8574 24bc 8065 4d3d 7c63 95bc 6321 8c3d
00000020: c8de 213b f6d3 623d 8fbc 71be d4e7 11be
00000030: 3d1d 38be 9912 8bbe 5493 963d 2f7f 323d
00000040: ace2 2ebe d37d 053e babd 543d 852d 2ebe
00000050: 363b 883d 3127 913e b9d7 63be 1bd3 633e
00000060: 3d6e e33b f091 a33e ba86 273e eebf acbe
00000070: 36f1 9f3e 5b44 4abc 3b12 aebd 7e0a e63d
00000080: d841 28be a6b2 c4bd 13c1 9dbd 89ff b7bd
00000090: 39f5 e5bd 41b1 b83d 23ae 8bbd eaa7 0f3d
000000a0: a1e6 5bbd 1ce7 14bd def7 9bbd 2c45 22be
000000b0: b470 3dbd 35a8 95bd 57da e13d c478 463d
000000c0: b559 1abe a6fa 213d 27ce 833d 9a0c c13d
000000d0: f500 743d 8637 923d 8c76 343d bb20 ffbc
000000e0: 99f7 d4bb cfcf 42be 644a 32bd 357d 1ebd
000000f0: 89c7 a53d ec9f b03d 86b2 8abd f096 683d
00000100: 1fa4 bc3d cc8a a73c 73ba 8cbc 0197 c03d
00000110: 3390 313d f7f9 f53d 7427 0ebe 58dd 28be
00000120: 97af 3dbd f8b8 4a3e dcd6 d43d e450 ae3e
00000130: be05 49bd 2701 8ebe a665 d53b 8e48 8bbd
00000140: 177e a1be e898 243e e009 973e ba60 84be
00000150: 3dfb 553d f93c f83e 2d6c 2cbe 0f7f ef3d
00000160: a12d d33b ac62 2ebe ee6f a53e 6a4b 02be
00000170: 2684 3dbe 40eb 113e 1c37 0c3e 3ed3 343d
00000180: 237a 363e 6e1c 753e 46cd f0be 06d0 943d
00000190: 3aea 5a3d 4a8c 31be 9df0 923e a856 01bc
000001a0: c51d cbbc c9ad 1bbd cff3 04be 3c60 b3bd
000001b0: e89b acbc 4488 483c 32b0 cbbc 9542 243d
000001c0: 39af 623b cabc 593e 7f47 94bb f4f6 b2bd
000001d0: f0f1 ae3b 6ca7 bfbb eb7c 48bc eca8 0f3e
000001e0: 863f e63d 7cae acbc 2f7c b2bd b905 5a3d
000001f0: 6ee6 dcbd 4587 43bd c4f3 263d a2ca 42bd
00000200: 8021 61bd e113 90bd 74f3 a23d 66b8 c2bc
00000210: c2d7 b7bd 6778 bdba e14a 413d 9d4b 7a3b
00000220: 1503 7fbc 7449 ddb9 9c90 c13c 409a d13d
00000230: 9f0b 473d 1c8f 8f3d 647b c53d a449 dcbd
00000240: e676 f8bd ef65 10be 7639 f63d b7eb 42be
00000250: 38aa cebc 03d7 53be 30a8 0dbe aeed 9cbe
00000260: 4486 083e 5250 4e3c 3ea2 b53d 0a3b 7bbd
00000270: b243 ee3d 5a04 42be c45a bdbd 499e f13d
00000280: 9689 5abe 4b99 08be af94 59be ae45 0a3d
00000290: 42b1 8fbe c0fe b2be 98c4 3fbe cc4c c9bd
000002a0: 20d4 103e b644 b0be 73e0 e73d 6219 85be
000002b0: f96e c13d c889 473e 5d8f acbe 34a4 353e
000002c0: 7385 143d fe1b 29be b6b5 8c3c 214f 8dbd
000002d0: 0c63 813d e234 813d ebb1 743c a3ff f53d
000002e0: 33d5 b23d 9af5 efbc 456c d0bd d845 15bd
000002f0: 018f 93bd 3e3a e53c d289 423d 82fb 8f3d
00000300: 8ff6 10bb 8781 1cbe f212 e9bd a307 aebd
00000310: 06ba f4bd ee41 d53c 4034 2dbd c676 7f3c
00000320: e14f b0bc 019e d63d 4955 c7bd d999 69be
00000330: 5f36 afbd 8abe de3d 6861 04bd e1d7 d83d
00000340: fdcc ff3c 2bd8 c53c 0bf7 a1bb 123c ddbc
00000350: 6d71 a73d d7e7 b4bd 2066 e4bd de8e 363e
00000360: bedd 8dbe 84d7 3dbe d4d3 d63d c1a0 35bd
00000370: 468c 74bc 9d89 9a3e dc41 c13d 17a6 ebbd
00000380: e6c9 e9be 4774 163e b9f4 bbbd 5079 2fbc
00000390: a00f fdbc ed72 82bd 6756 f0bd 33a6 acbc
000003a0: 04a5 8cbe 5f24 3f3e b036 4a3e 3b81 c3bd
000003b0: 3dc1 8e3e 0b9b f5bd 0424 2bbe adc0 443e
000003c0: 19f0 103d 5a28 83bd bb40 b6bd 90d3 9b3e
000003d0: 1868 3abe b322 6f3d b13b f5bd 3e68 9fbe
000003e0: 138d 08be 69ca 1dbd cc49 c93d 9897 bb3d
000003f0: b581 cd3d 6478 f2bc d888 19be 8097 68be

shared_net.0.bias f4 [256]
0.009944102 0.064543605 -0.024769226 0.03961367 -0.02424341 -0.07844112 0.10590099 0.033317726
-0.09464423 -0.09630685 -0.051054794 -0.08373218 0.12469302 -0.05552446 -0.013399537 0.09297732
0.014254617 0.05669517 -0.09027234 -0.08130741 0.014565548 0.060011595 0.1286311 -0.08615839
-0.06564027 -0.0990923 0.07815929 0.07933521 0.058542855 0.06291671 0.028281812 0.02150869
-0.08524476 -0.02809349 -0.08052459 -0.06399685 -0.13799718 0.0516433 0.09081567 -0.07451895
-0.120872214 -0.06429018 0.047073342 0.11451347 0.096081324 -0.0071508125 0.1380608 0.0812433
-0.0064683645 0.0043488364 -0.101641834 -0.019846514 0.020826949 -0.044921722 0.04817264 0.056013193
0.01820753 0.007539166 -0.15982145 0.102846235 0.0073629525 -0.07015731 -0.053813197 -0.031209765
-0.00651651 -0.009303383 0.026777307 0.06945757 0.06300274 0.12714463 -0.14241265 0.017503168
-0.12266291 -0.07410035 -0.102912515 0.04705274 0.016680097 0.13585858 0.10557631 -0.0018943701
-0.03936144 0.078197345 0.08590691 0.035352245 -0.03510692 0.029736003 -0.055886302 0.13126527
0.10066313 -0.009871581 0.008185612 -0.037834737 0.056933954 -0.017633528 -0.10076092 -0.005191512
-0.051810868 0.10144061 -0.06308595 -0.0886837 0.09786085 -0.10399502 0.059490014 -0.029824153
-0.1122315 -0.08390594 0.0066538793 -0.030949876 0.036458913 0.048715368 -0.049951654 0.09477879
-0.0063999123 0.041169073 -0.03322316 -0.04103877 -0.052487887 -0.061210368 -0.079533115 0.032718144
0.08482309 0.04228056 -0.14828055 0.019192286 -0.1198184 -0.041626956 -0.054470472 0.040382363
-0.057309736 0.055488553 0.050351903 -0.008642206 0.10139898 -0.05682973 0.015734974 -0.084421314
0.03499753 -0.033078555 -0.10458555 0.058429487 0.026679212 -0.033160478 -0.10053072 -0.05791161
0.08261348 -0.13247637 -0.07128815 -0.09717726 0.1321902 0.06929435 -0.14705707 -0.13270198
-0.07058229 0.08807772 0.10447306 0.07938225 0.05275678 -0.08949756 0.008312731 0.1011099
-0.11664985 -0.06502742 0.09546678 0.012458743 -0.0771397 -0.062230017 -0.08804242 -0.13648169
0.004375969 -0.04015498 0.08322897 -0.032721605 -0.039018724 -0.10672336 0.13118123 -0.0035306008
-0.12902214 0.07046263 0.07840096 0.10789728 0.10488521 -0.031296965 0.01723319 0.07191804
0.024627997 -0.03657289 -0.011491447 -0.105298415 0.08559097 0.043833565 0.06987251 0.020860877
0.09748202 0.010073317 -0.023584036 -0.034059785 0.059706282 -0.07612757 0.14300238 0.12013538
-0.0785265 -0.060068045 0.017978337 -0.085726194 0.056434695 0.054835316 0.037994694 -0.007249379
-0.070662364 -0.10512747 0.02710943 0.064577796 -0.016010152 -0.037116285 -0.09631202 -0.0014549134
-0.028000316 -0.07671769 -0.023240417 -0.0851052 -0.12821187 -0.119058855 -0.05043546 0.02665008
-0.097202174 -0.03704367 -0.061765682 0.056508828 0.037754424 -0.048445847 -0.11744151 -0.00898376
-0.10160834 -0.034534663 -0.120671 -0.118795864 0.079811186 -0.030268062 0.06255361 0.13101894
-0.13521715 -0.10532841 -0.10233339 0.07686793 0.13558297 0.0153398905 -0.067277804 -0.047702737
-0.046023663 -0.15813376 0.06788053 0.12641548 0.040731687 -0.10074062 0.05965941 -0.02948426
00000000: 96ec 223c 702f 843d d5e8 cabc f241 223d
00000010: 1e9a c6bc bda5 a0bd 9ee2 d83d 2b78 083d
00000020: d6d4 c1bd 873c c5bd d51e 51bd c77b abbd
00000030: 0e5f ff3d 9e6d 63bd bb89 5bbc e56a be3d
00000040: 328c 693c 3239 683d b4e0 b8bd 8084 a6bd
00000050: 56a4 6e3c b8ce 753d dfb7 033e cf73 b0bd
00000060: 686e 86bd e7f0 cabd fa11 a03d 807a a23d
00000070: a2ca 6f3d 7ada 803d 42af e73c fe32 b03c
00000080: ce94 aebd 5224 e6bc 14ea a4bd c810 83bd
00000090: 224f 0dbe ed87 533d 91fd b93d 649d 98bd
000000a0: da8b f7bd 92aa 83bd facf 403d 0a86 ea3d
000000b0: 49c6 c43d 5d51 eabb cf5f 0d3e e362 a63d
000000c0: 93f4 d3bb af80 8e3b 9829 d0bd 2895 a2bc
000000d0: 479d aa3c d7ff 37bd ad50 453d 176e 653d
000000e0: f527 953c 1c0b f73b 3ca8 23be 0ca1 d23d
000000f0: ec44 f13b a3ae 8fbd 3a6b 5cbd 9fab ffbc
00000100: 7388 d5bb 376d 18bc 155c db3c c53f 8e3d
00000110: 9507 813d 3432 023e 9fd4 11be ce62 8f3c
00000120: b136 fbbd edc1 97bd ccc3 d2bd 60ba 403d
00000130: b3a4 883c 831e 0b3e 6438 d83d 834c f8ba
00000140: 7639 21bd ee25 a03d f6ef af3d 84cd 103d
00000150: 46cc 0fbd eb98 f33c 09e9 64bd 676a 063e
00000160: 7928 ce3d 69bc 21bc f21c 063c 99f8 1abd
00000170: 9433 693d 3074 90bc be5b cebd 8f1d aabb
00000180: a237 54bd 18c0 cf3d 3533 81bd cd9f b5bd
00000190: 456b c83d 57fb d4bd cdab 733d c851 f4bc
000001a0: a1d9 e5bd e1d6 abbd c908 da3b 988a fdbc
000001b0: f155 153d c489 473d 1b9a 4cbd 621b c23d
000001c0: 5bb6 d1bb e7a0 283d 0215 08bd 4518 28bd
000001d0: 8afd 56bd b9b7 7abd 42e2 a2bd 7603 063d
000001e0: bab7 ad3d 612e 2d3d dbd6 17be 2439 9d3c
000001f0: 5963 f5bd 0781 2abd 6e1c 5fbd fa67 253d
00000200: 9dbd 6abd f747 633d cc3d 4e3d 0a98 0dbc
00000210: 45aa cf3d 4ac6 68bd a2e6 803c 15e5 acbd
00000220: 9259 0f3d 617d 07bd f330 d6bd c253 6f3d
00000230: 5d8e da3c 48d3 07bd 0de3 cdbd b934 6dbd
00000240: 4231 a93d e3a7 07be 86ff 91bd df04 c7bd
00000250: de5c 073e 32ea 8d3d 2196 16be 07e3 07be
00000260: 738d 90bd 1762 b43d f9f5 d53d 2993 a23d
00000270: 7e17 583d 7f4a b7bd 1f32 083c b512 cf3d
00000280: 1ee6 eebd 192d 85bd 1684 c33d c11f 4c3c
00000290: 6bfb 9dbd e7e4 7ebd 964f b4bd dbc1 0bbe
000002a0: 4a64 8f3b 8c79 24bd f373 aa3d 1707 06bd
000002b0: 19d2 1fbd c791 dabd 5f54 063e a761 67bb
000002c0: 611e 04be b64e 903d af90 a03d 40f9 dc3d
000002d0: 0fce d63d 3f31 00bd 9e2c 8d3c c449 933d
000002e0: a7c0 c93c 74cd 15bd 9f46 3cbc b2a6 d7bd
000002f0: 524a af3d d38a 333d 5219 8f3d 6ee4 aa3c
00000300: a7a4 c73d 8e0a 253c 4f33 c1bc 4682 0bbd
00000310: 938e 743d c5e8 9bbd 376f 123e 8a09 f63d
00000320: 80d2 a0bd e909 76bd 4e47 933c 3791 afbd
00000330: 1128 673d ff9a 603d 53a0 1b3d 338c edbb
00000340: 6eb7 90bd 124d d7bd 9814 de3c 5d41 843d
00000350: b927 83bc 3f07 18bd 3d3f c5bd cbb2 beba
00000360: eb60 e5bc 2a1e 9dbd b062 bebc a34b aebd
00000370: f949 03be 21d5 f3bd 6a95 4ebd 4551 da3c
00000380: ef11 c7bd 1abb 17bd 03fe 7cbd cd75 673d
00000390: 62a4 1a3d 276f 46bd 2d85 f0bd 9f30 13bc
000003a0: 0918 d0bd 3874 0dbd 5b22 f7bd 3f4b f3bd
000003b0: 0c74 a33d baf4 f7bc 1b1c 803d d429 063e
000003c0: 5d76 0abe 6cb6 d7bd 2b94 d1bd ef6c 9d3d
000003d0: 43d6 0a3e 2a54 7b3c f2c8 89bd f263 43bd
000003e0: 4f83 3cbd d1ed 21be f304 8b3d 0f73 013e
000003f0: 45d6 263d 1951 cebd 6d5d 743d fa88 f1bc

shared_net.2.weight f4 [128, 256]
-0.054006767 -0.008059593 0.07501262 0.011545523 -0.0023106132 -0.10948882 -0.04552319 -0.0385965
0.038961243 -0.0111583425 0.022095684 0.114594206 0.08892517 -0.11023453 -0.0072275717 -0.005775215
0.108568095 -0.040652215 -0.18547973 0.071048476 -0.07719283 0.019679591 -0.038968604 -0.090907395
-0.009166536 -0.09461327 -0.05854208 0.042847987 0.032892074 0.077826664 0.030472746 -0.027407805
0.0016780634 -0.1512865 -0.2364411 0.03801155 -0.04773306 -0.11260999 -0.10400682 -0.037658006
0.019922186 -0.08734093 0.17127958 0.029107776 0.008249034 0.06803701 -0.040356558 0.009013478
-0.08287609 0.052362904 0.029951302 -0.018463343 -0.03148217 -0.033851564 -0.24677138 -0.0150352325
-0.014172416 -0.190358 -0.010378216 0.008008427 -0.088438615 0.062461328 0.01940923 0.020150214
0.082736194 0.11652042 0.0828344 0.028600352 0.094424814 0.088617586 0.12717853 -0.06593816
0.050980918 0.10000294 0.094820134 -0.006410838 -0.007801099 0.06486299 1.525047e-05 -0.016606819
0.01884952 0.041162394 -0.010220697 -0.071608424 -0.008478922 0.067055464 0.063953154 -0.07131195
0.04415337 -0.09695941 -0.06289313 0.0042056646 0.12388278 -0.024698457 -0.09690602 -0.019739773
-0.10085911 0.056131534 -0.058859304 -0.12257133 -0.030862795 -0.0033249338 0.044599183 -0.053476132
-0.084685914 0.116395146 -0.040562097 -0.07862626 0.061234336 -0.027542295 0.035881307 -0.017171955
-0.032302797 0.055020116 -0.0028355396 0.0039634504 -0.009845332 0.16244635 -0.021898106 -0.0041392427
-0.013651088 0.0038203716 -0.1520868 0.013606321 0.002914125 -0.01149577 -0.027988108 -0.12180362
0.0049345195 0.036457967 -0.13619621 -0.050589487 -0.057419877 -0.06749235 -0.06752852 0.005786432
-0.0033910545 0.022880726 -0.13584594 -0.07329108 0.0036460657 0.037298102 -0.075369015 -0.0046189404
0.052757826 -0.1420035 0.16865012 -0.096438974 -0.028900955 0.033241145 -0.032178078 0.057251927
-0.06781216 -0.06467862 0.029861027 -0.09111837 0.033811606 0.07274035 -0.013865014 -0.16755646
-0.018070158 0.01327616 -0.062101126 0.03788822 -0.047437582 -0.001014815 -0.009773661 0.054064877
-0.08570008 -0.039836735 0.18877377 -0.039560355 -0.13992779 -0.08007523 -0.13187556 -0.12753946
0.00020764639 0.055070296 0.06280061 -0.092844345 -0.032941323 -0.08707628 -0.05155217 0.06930274
0.02185475 -0.041177582 -0.12154267 -0.05127869 0.015925918 0.08253651 0.0106399385 0.0324013
0.15976702 -0.0019129517 -0.09615971 -0.023575587 -0.049889088 -0.08034318 0.14222805 -0.08476775
0.011983006 -0.05726062 0.023858175 -0.031740498 0.027032232 -0.077547066 -0.11026643 -0.17447937
-0.0070266747 0.024866143 0.13883764 -0.06579727 0.036090497 0.121637754 0.02928081 0.032312453
0.12205512 0.06918103 -0.04791291 -0.06424627 0.059021536 -0.10905838 0.07700674 0.05056985
0.09572349 -0.04950315 0.1025204 -0.0529319 -0.12518933 0.009589342 -0.015496373 0.07117255
-0.09524866 -0.101686984 -0.14349537 -0.08869986 -0.047594693 0.10082563 0.08814947 -0.009795961
0.021662015 -0.118165374 0.009125934 0.03536703 0.15200502 -0.053564355 0.017574208 0.08975149
-0.09321745 -0.04911234 0.049325235 0.05674418 -0.0047888225 -0.039523017 -0.0083149765 -0.0996426
00000000: 3336 5dbd 620c 04bc 37a0 993d 6f29 3d3c
00000010: a86d 17bb ad3b e0bd 8676 3abd 5d17 1ebd
00000020: d395 1f3d 7bd1 36bc 0202 b53c 5eb0 ea3d
00000030: 661e b63d a4c2 e1bd 44d5 ecbb 043e bdbb
00000040: f358 de3d f082 26bd 66ee 3dbe dd81 913d
00000050: 4617 9ebd 1837 a13c 8b9d 1fbd a82d babd
00000060: 3d2f 16bc 9ac4 c1bd d2c9 6fbd 5f81 2f3d
00000070: d7b9 063d 9663 9f3d fba1 f93c 5586 e0bc
00000080: 77f2 db3a d9ea 1abe 9e1d 72be 00b2 1b3d
00000090: be83 43bd 11a0 e6bd 8701 d5bd 483f 1abd
000000a0: da33 a33c cddf b2bd ea63 2f3e 6e73 ee3c
000000b0: f526 073c fd56 8b3d eb4c 25bd 44ad 133c
000000c0: f1ba a9bd 7c7a 563d 6f5c f53c 7040 97bc
000000d0: 73f3 00bd f0a7 0abd a3b1 7cbe 5656 76bc
000000e0: 6c33 68bc 35ed 42be 6509 2abc c735 033c
000000f0: 4e1f b5bd 73d7 7f3d 1b00 9f3c 1012 a53c
00000100: 9871 a93d 42a2 ee3d 15a5 a93d 494b ea3c
00000110: cc61 c13d 237d b53d 173b 023e 960a 87bd
00000120: 5ed1 503d 57ce cc3d 0f31 c23d 0212 d2bb
00000130: 5da0 ffbb e3d6 843d 45dc 7f37 060b 88bc
00000140: 4f6a 9a3c e699 283d b674 27bc 70a7 92bd
00000150: 2deb 0abc 6054 893d dff9 823d 000c 92bd
00000160: 2ada 343d a892 c6bd 1dce 80bd accf 893b
00000170: 41b6 fd3d 6b54 cabc aa76 c6bd 4eb5 a1bc
00000180: 398f cebd 2eea 653d 7416 71bd ad06 fbbd
00000190: f9d3 fcbc 22e7 59bb a2ad 363d ca09 5bbd
000001a0: cf6f adbd 9460 ee3d 7124 26bd ce06 a1bd
000001b0: dbd0 7a3d 61a0 e1bc 47f8 123d 33ac 8cbc
000001c0: f04f 04bd c65c 613d 76d4 39bb d5df 813b
000001d0: 514e 21bc 5658 263e a863 b3bc 7ca2 87bb
000001e0: d0a8 5fbc 335f 7a3b a4bc 1bbe 0ced 5e3c
000001f0: e8fa 3e3b c158 3cbc 5147 e5bc 2d74 f9bd
00000200: c0b1 a13b f354 153d 0577 0bbe ec36 4fbd
00000210: 1b31 6bbd 6e39 8abd 654c 8abd 1c9c bd3b
00000220: 743c 5ebb 5c70 bb3c 331b 0bbe a219 96bd
00000230: d5f2 6e3b e5c5 183d 125b 9abd 7b5a 97bb
00000240: 9718 583d 5e69 11be 9eb2 2c3e cc81 c5bd
00000250: b2c1 ecbc de27 083d 29cd 03bd ff80 6a3d
00000260: 1ae1 8abd 3976 84bd 1d9f f43c 459c babd
00000270: 0a7e 0a3d e5f8 943d 152a 63bc ec93 2bbe
00000280: de07 94bc 4084 593c c05d 7ebd ae30 1b3d
00000290: e94d 42bd 8a03 85ba b521 20bc 2273 5d3d
000002a0: 8683 afbd d82b 23bd e94d 413e 0a0a 22bd
000002b0: 3b49 0fbe 7bfe a3bd 630a 07be b499 02be
000002c0: a7bb 5939 6491 613d 9b9d 803d 2d25 bebd
000002d0: 7bed 06bd 0c55 b2bd 5e28 53bd 98ee 8d3d
000002e0: bc08 b33c d3a9 28bd 5deb f8bd 9b09 52bd
000002f0: 1277 823c e708 a93d 2353 2e3c 3ab7 043d
00000300: f799 233e 02bc faba 62ef c4bd 9721 c1bc
00000310: 8058 4cbd f78a a4bd 3ba4 113e b79a adbd
00000320: 5f54 443c 1d8a 6abd 3872 c33c 5302 02bd
00000330: b372 dd3c ffd0 9ebd 5ed3 e1bd b8aa 32be
00000340: 0540 e6bb 15b4 cb3c 742b 0e3e b8c0 86bd
00000350: a1d3 133d 371d f93d 4fde ef3c 105a 043d
00000360: 09f8 f93d c9ae 8d3d 5440 44bd 8c93 83bd
00000370: 91c0 713d 005a dfbd b6b5 9d3d 5522 4f3d
00000380: ad0a c43d d1c3 4abd 37f6 d13d 1fcf 58bd
00000390: a231 00be 9e1c 1d3c 80e4 7dbc eac2 913d
000003a0: bb11 c3bd 4441 d0bd 73f0 12be 46a8 b5bd
000003b0: a7f2 42bd ab7d ce3d b687 b43d 3d7f 20bc
000003c0: 8a74 b13c b000 f2bd f184 153c 05dd 103d
000003d0: 34a7 1b3e 4c66 5bbd c9f7 8f3c a1cf b73d
000003e0: cae8 bebd 052a 49bd 4209 4a3d 966c 683d
000003f0: 8eeb 9cbb e3e2 21bd 8a3b 08bc 6b11 ccbd

shared_net.2.bias f4 [128]
-0.05573629 -0.14358415 -0.041293334 -0.03319155 -0.024541598 0.05488248 0.0028261116 0.026426015
0.046965353 0.03144737 0.0050578946 -0.17039496 -0.1658026 -0.041553445 -0.19350722 -0.10554071
-0.06503358 0.01517077 -0.037119154 0.052104365 0.065773286 0.05921688 -0.07738435 -0.041794345
0.03205743 -0.08977542 0.01387507 -0.0778028 -0.07076181 -6.622345e-05 -0.047167614 0.06802359
0.003077088 0.042318653 0.003839112 -0.0401045 0.019272357 -0.09480875 0.028596923 -0.120993815
-0.10205455 0.032462697 0.012891031 -0.08037227 0.072060615 -0.11650639 0.010995115 0.044666857
-0.028422577 0.026343187 -0.058718976 0.04847307 -0.17611742 0.035287164 -0.122929156 -0.06271963
-0.16231625 -0.031674758 -0.009501508 -0.17037791 0.016002314 -0.010746819 -0.04411268 -0.1263204
-0.11774197 -0.115506805 0.026373696 -0.053592972 -0.03645241 -0.0947938 -0.020352766 0.026572878
0.047567453 0.081420995 -0.13014542 0.067168735 -0.084196664 -0.020323949 -0.0629375 -0.048952647
0.116878115 -0.103918985 -0.01634718 -0.119754136 0.029625595 -0.0579944 0.009717682 -0.07667056
-0.0024995762 -0.107127115 0.04199462 0.034112096 -0.111094445 -0.044341914 -0.098763764 0.04165599
-0.123249575 0.010385836 0.08526385 -0.12215847 -0.043390054 -0.041476034 -0.056879062 -0.03188005
-0.10991743 -0.09094453 -0.08371008 -0.09689321 0.075616635 0.03341686 -0.16430971 -0.08064488
-0.11694171 -0.041151464 -0.021892644 -0.031823196 -0.18949817 -0.16835806 -0.113587745 -0.051749524
-0.03267803 -0.15078714 -0.0522435 -0.08706769 0.086721554 -0.13949719 0.041717276 0.090696506
00000000: bc4b 64bd b907 13be 3323 29bd ddf3 07bd
00000010: 760b c9bc 74cc 603d 4936 393b 5f7b d83c
00000020: be5e 403d f5ce 003d b2bc a53b 047c 2ebe
00000030: 28c8 29be f233 2abd c226 46be ba25 d8bd
00000040: 5330 85bd d28e 783c 410a 18bd 636b 553d
00000050: 25b4 863d 668d 723d b07b 9ebd 8c30 2bbd
00000060: a74e 033d 2ddc b7bd 4354 633c 1357 9fbd
00000070: 91eb 90bd 72e1 8ab8 d432 41bd f44f 8b3d
00000080: f8a8 493b 5356 2d3d 9c99 7b3b 9e44 24bd
00000090: 10e1 9d3c 172b c2bd 1844 ea3c 9bcb f7bd
000000a0: fa01 d1bd 9bf7 043d e734 533c 379a a4bd
000000b0: 8494 933d e79a eebd db24 343c 98f4 363d
000000c0: 77d6 e8bc abcd d73c 4f83 70bd b38b 463d
000000d0: 2058 34be 4689 103d 48c2 fbbd 2673 80bd
000000e0: 3b36 26be 64bd 01bd 37ac 1bbc 8c77 2ebe
000000f0: 4917 833c 6d13 30bc 7faf 34bd 235a 01be
00000100: b422 f1bd d58e ecbd a60d d83c 4e84 5bbd
00000110: 1f4f 15bd 4023 c2bd d8ba a6bc 5daf d93c
00000120: 17d6 423d 0dc0 a63d d744 05be c38f 893d
00000130: 4d6f acbd 697e a6bc 60e5 80bd 9282 48bd
00000140: cb5d ef3d 7ad3 d4bd 85ea 85bc a841 f5bd
00000150: 60b1 f23c 898b 6dbd ea36 1f3c 7405 9dbd
00000160: eecf 23bb 7665 dbbd 8d02 2c3d 20b9 0b3d
00000170: 7c85 e3bd de9f 35bd a844 cabd 799f 2a3d
00000180: 466a fcbd 5a29 2a3c d09e ae3d 382e fabd
00000190: c5b9 31bd c6e2 29bd 05fa 68bd a894 02bd
000001a0: 641c e1bd 2041 babd 3170 abbd f36f c6bd
000001b0: e5dc 9a3d 1ee0 083d ce40 28be 2529 a5bd
000001c0: 237f efbd 708e 28bd 3458 b3bc 0a59 02bd
000001d0: cf0b 42be 0e66 2cbe b1a0 e8bd 4ff7 53bd
000001e0: 66d9 05bd f267 1abe 48fd 55bd 8c50 b2bd
000001f0: 129b b13d 5ad8 0ebe bcdf 2a3d 17bf b93d

to_mean.0.weight f4 [64, 128]
0.037304208 0.050663125 0.022804582 0.0560634 -0.03232366 -0.03442997 -0.01628069 -0.06050508
-0.015641686 -0.078568324 0.012501662 0.038783718 -0.08024191 -0.1271421 -0.036626246 0.09671691
0.0073461127 -0.06703754 0.034278605 0.07096052 -0.0010024327 -0.088654384 0.023993712 0.057048377
0.0064771543 -0.0023136288 0.025647704 0.078220405 -0.064681195 -0.023144534 0.041152555 -0.06525621
0.010934457 0.019341994 0.05006719 0.036327604 -0.05054964 0.009410662 -0.10333583 -0.08648876
0.020994965 -0.030078221 -0.017242746 0.017747259 0.010615779 0.07191231 -0.06964416 -0.0335667
-0.0042014224 -0.039295252 -0.050441593 0.1073943 0.027278664 0.016854186 0.022432974 -0.030833924
0.0044681192 0.07109739 -0.05186782 0.054359935 0.05861064 0.012716437 -0.048089825 -0.058526784
-0.045574788 -0.056115303 0.096729144 0.07718105 0.027854072 0.016612234 -0.026699342 0.0028180878
-0.033902697 -0.07613128 -0.0057893447 0.013045689 -0.088200994 0.0017279701 -0.0323913 0.035415582
0.04656887 0.05033945 -0.109307654 0.06760772 -0.17883249 -0.08010475 0.08005255 -0.029251857
0.034202565 -0.13024954 0.019655501 -0.04451517 -0.017835097 0.018936938 0.027470307 -0.03467226
0.026117502 -0.041541174 -0.016407978 0.061885294 -0.011321349 0.020579863 -0.011373495 0.032179914
-0.07091684 -0.046857774 -0.02359378 -0.041068688 -0.027386174 -0.03297423 -0.055551436 0.02974196
-0.008156829 -0.018408455 -0.070318095 -0.069160126 0.024231605 0.061337274 -0.0504451 -0.039744552
-0.0313824 0.047026243 -0.052369174 0.05684374 0.0026966515 0.016499635 -0.074161105 0.06175552
0.075895675 0.0032711898 0.02680754 0.05120814 0.039842878 -0.00039085775 0.02864637 -0.01490021
0.08971657 0.023021698 0.04705193 -0.0983104 0.0034895414 -0.11123721 -0.07098835 -0.04217823
-0.08760568 0.13104098 0.023875715 -0.040347364 0.024486715 -0.13309334 -0.017606743 -0.051144697
-0.04528139 0.047685873 -0.008741662 -0.04412378 -0.06300423 0.045821335 -0.016080176 -0.011507162
0.07072987 -0.004056367 -0.013929901 -0.04540935 -0.026418692 0.0037314447 -0.024394868 0.06264565
-0.0042986884 -0.03754447 0.018931529 0.03398438 0.004009986 -0.024081234 -0.07653895 0.04056392
-0.02910623 0.029913103 0.018118003 -0.054596998 0.08073107 -0.055919386 -0.015331186 0.03164602
-0.040891424 -0.052483696 0.021750791 -0.08619444 -0.04077736 -0.052401956 0.012456115 0.029130746
-0.07538567 0.08156977 0.014826674 0.060425434 0.04780323 0.034585103 -0.082146175 -0.043418698
0.036943406 -0.0618611 -0.05314302 0.020318009 -0.12422283 0.04452817 -0.07654518 0.03542941
0.02199648 -0.07604298 0.013474115 0.083597794 -0.038815234 -0.016016234 -0.021737218 -0.09757545
-0.016209297 0.012911649 -0.026505975 0.12418864 0.013895922 0.08084632 -0.00015167287 -0.04249109
-0.035693683 -0.004324532 -0.030523 0.04412952 0.07583759 0.09274216 -0.019442143 0.08148689
0.04551343 0.056446254 -0.031637482 0.056284163 -0.022732649 0.0062722834 0.094368435 -0.01978065
-0.08112039 0.09234658 0.0027847418 0.037544277 -0.058793318 -0.021484192 -0.069683746 -0.0043738317
-0.04505719 -0.026697502 -0.061345626 -0.004201676 0.036089607 0.024773208 -0.0797003 -0.012701053
00000000: 4ccc 183d 2384 4f3d add0 ba3c bca2 653d
00000010: d065 04bd 7106 0dbd 155f 85bc 2dd4 77bd
00000020: fe22 80bc 6ee8 a0bd c5d3 4c3c addb 1e3d
00000030: df55 a4bd 8a31 02be 6705 16bd 8413 c63d
00000040: a9b7 f03b fa4a 89bd b967 0c3d c053 913d
00000050: 0f64 83ba 6e90 b5bd 768e c43c 8fab 693d
00000060: 4f3e d43b 40a0 17bb 221b d23c 0532 a03d
00000070: 9377 84bd 9b99 bdbc 958f 283d 0ca5 85bd
00000080: 7026 333c 1a73 9e3c 4113 4d3d 41cc 143d
00000090: 240d 4fbd 2d2f 1a3c bca1 d3bd 0521 b1bd
000000a0: a2fd ab3c 9a66 f6bc a940 8dbc b362 913c
000000b0: ceed 2d3c c346 933d 99a1 8ebd 3c7d 09bd
000000c0: 16ac 89bb 0ff4 20bd d89b 4ebd 8bf1 db3d
000000d0: 8177 df3c ca11 8a3c 5bc5 b73c 6d97 fcbc
000000e0: 4d69 923b 829b 913d 5a73 54bd 86a8 5e3d
000000f0: b611 703d 9a58 503c d6f9 44bd c8b9 6fbd
00000100: a1ac 3abd 29d9 65bd ee19 c63d 1911 9e3d
00000110: 392e e43c 6116 883c 94b8 dabc abaf 383b
00000120: 8edd 0abd b7ea 9bbd 8bb4 bdbb 96bd 553c
00000130: b9a2 b4bd 0e7d e23a bdac 04bd ee0f 113d
00000140: 00bf 3e3d bd30 4e3d b1dc dfbd eb75 8a3d
00000150: dd1f 37be f60d a4bd 97f2 a33d 97a1 efbc
00000160: fd17 0c3d 2360 05be 9304 a13c 8a55 36bd
00000170: e91a 92bc a321 9b3c 6909 e13c 8004 0ebd
00000180: 5ff4 d53c 1427 2abd 066a 86bc 6f7b 7d3d
00000190: 2e7d 39bc 1a97 a83c e557 3abc 16cf 033d
000001a0: d93c 91bd f0ed 3fbd be47 c1bc a437 28bd
000001b0: f858 e0bc fc0f 07bd e789 63bd 69a5 f33c
000001c0: 38a4 05bc 54cd 96bc ef02 90bd d3a3 8dbd
000001d0: 5c81 c63c cb3c 7b3d 859f 4ebd 2fcb 22bd
000001e0: d58a 00bd 979e 403d 0f81 56bd fbd4 683d
000001f0: 4eba 303b 3e2a 873c c7e1 97bd 5bf3 7c3d
00000200: 316f 9b3d 7561 563b 7c9b db3c a0bf 513d
00000210: 4932 233d 0aec ccb9 cbab ea3c 0320 74bc
00000220: 52bd b73d 0098 bc3c 86b9 403d f756 c9bd
00000230: cab0 643b 56d0 e3bd 5762 91bd 14c3 2cbd
00000240: 9b6a b3bd 9b2f 063e 0197 c33c 4743 25bd
00000250: 5d98 c83c 9f49 08be 043c 90bc 1a7d 51bd
00000260: fb78 39bd 4352 433d 3039 0fbc 23bb 34bd
00000270: 5d08 81bd 27af 3b3d 93ba 83bc 8988 3cbc
00000280: d2da 903d 46eb 84bb 3d3a 64bc 28ff 39bd
00000290: 036c d8bc 418b 743b bfd7 c7bc 5d4c 803d
000002a0: 03dc 8cbb 3bc8 19bd 4b16 9b3c 3533 0b3d
000002b0: 3366 833b 0246 c5bc 74c0 9cbd 5a26 263d
000002c0: 3070 eebc 530c f53c 356c 943c 1aa1 5fbd
000002d0: 5556 a53d ba0b 65bd a82f 7bbc 429f 013d
000002e0: c47d 27bd 25f9 56bd b72e b23c b686 b0bd
000002f0: 2906 27bd 6fa3 56bd bc14 4c3c 9aa3 ee3c
00000300: cd63 9abd 0d0e a73d 94eb 723c a980 773d
00000310: 52cd 433d 1ca9 0d3d 413c a8bd ced7 31bd
00000320: f851 173d 1162 7dbd 7fac 59bd f471 a63c
00000330: 8a68 febd 2c63 363d b8c3 9cbd 6e1e 113d
00000340: f631 b43c 6cbc 9bbd 89c2 5c3c 5235 ab3d
00000350: b9fc 1ebd 7a34 83bc 4012 b2bc a3d5 c7bd
00000360: 5cc9 84bc 628b 533c 0f23 d9bc 9d56 fe3d
00000370: b9ab 633c c192 a53d 600a 1fb9 230b 2ebd
00000380: 8a33 12bd ceb4 8dbb 5f0b fabc 28c1 343d
00000390: bd50 9b3d 9aef bd3d 2145 9fbc 99e2 a63d
000003a0: 4a6c 3a3d 3034 673d 4e96 01bd 398a 663d
000003b0: d239 babc ba87 cd3b 3d44 c13d 080b a2bc
000003c0: 7222 a6bd 3420 bd3d 3780 363b 07c8 193d
000003d0: 43d1 70bd 9eff afbc 5ab6 8ebd 5c52 8fbb
000003e0: e38d 38bd b8b4 dabc 8d45 7bbd 37ae 89bb
000003f0: b2d2 133d 2ff1 ca3c e939 a3bd 1418 50bc

to_mean.0.bias f4 [64]
-0.020705847 -0.09260281 0.067287765 -0.04864769 -0.045422483 -0.049646225 0.05838783 -0.02298158
-0.06907322 -0.012648808 -0.032248527 0.013181842 0.0472521 0.035320662 0.0026227022 -0.07039152
0.055429783 0.04919017 -0.0020202023 0.03169018 -0.025900016 -0.020448774 -0.015635258 0.024119115
-0.06107716 0.0119776875 -0.10991594 -0.033820353 -0.010367785 0.058543056 0.06902012 -0.0051968643
-0.039404728 -0.043051258 0.051896427 0.029262964 0.0413122 0.07428657 -0.059994616 -0.011571816
0.076893084 0.009016818 -0.0066771805 0.056285236 0.110672936 -0.0715915 -0.06768456 -0.06968963
0.02898652 0.007842615 -0.07526718 -0.053310234 -0.06483063 -0.04642228 -0.063001804 -0.093000114
0.018336557 0.07320336 0.06305486 -0.09695946 -0.005034364 -0.06466819 0.030974383 0.055018663
00000000: 4f9f a9bc 8ba6 bdbd 2bce 893d cd42 47bd
00000010: ed0c 3abd d759 4bbd 1428 6f3d de43 bcbc
00000020: 4376 8dbd f23c 4fbc 0817 04bd a7f8 573c
00000030: 6b8b 413d 66ac 103d a4e1 2b3b 6e29 90bd
00000040: 570a 633d a27b 493d 5f65 04bb 90cd 013d
00000050: 452c d4bc 3084 a7bc 8315 80bc 7395 c53c
00000060: 0b2c 7abd 103e 443c 9c1b e1bd 3687 0abd
00000070: a4dd 29bc d8ca 6f3d 6c5a 8d3d 754a aabb
00000080: da66 21bd 8456 30bd 5991 543d e2b8 ef3c
00000090: fb36 293d 8f23 983d eabc 75bd b797 3dbc
000000a0: 1f7a 9d3d 47bb 133c 40cc dabb 598b 663d
000000b0: 7ea8 e23d 909e 92bd 349e 8abd 70b9 8ebd
000000c0: 2375 ed3c 507e 003c ae25 9abd d55b 5abd
000000d0: ecc5 84bd 4a25 3ebd 1707 81bd d876 bebd
000000e0: 8c36 963c a5eb 953d e822 813d ae92 c6bd
000000f0: 4ef7 a4bb c270 84bd fdbd fd3c 405b 613d

to_mean.2.weight f4 [18, 64]
-0.02543293 -0.006099475 0.015084719 -0.013717614 -0.0063714813 0.0095707495 0.037240803 -0.022638733
-0.011549588 -0.005570486 0.017914863 0.0077870484 -0.014254918 -0.005924034 0.011273448 -0.0025115483
0.0010204327 0.0048890123 0.0062251543 -0.018797029 -0.014854249 0.031233016 0.0110327145 0.0013082804
0.010551211 -0.00021360922 -0.015774159 -0.0025778671 -0.0030700157 -0.0034678248 0.004849732 -0.0025746934
0.008845632 -0.0002552245 -0.0013392607 -0.0077946414 0.008278252 -0.00054682896 -0.0044587855 -0.00087435986
-0.017101651 0.033026498 0.008441193 -0.0017006958 -0.002247027 0.0031122146 -0.004844313 0.00375959
-0.002234035 -0.014096585 -0.003923743 0.03831982 0.01292692 0.0034536873 0.013267427 -0.02230133
0.004546487 -0.004780237 0.0056302627 -0.0026508083 -0.008751568 0.0057569304 0.007936755 0.0015771461
0.061427757 0.013936965 -0.00081079046 0.0026407808 -0.006906923 0.032375753 -0.005878763 -0.0032947483
0.012583159 -0.002068416 0.00012882687 0.006001951 0.0012759571 0.004246361 -0.0035620877 0.012702909
-0.0016257021 -0.0014000648 -0.003989401 -0.003596099 0.049359243 -0.002244604 -0.009088891 -0.03718853
0.0023731664 -0.0010885872 0.02661507 0.0051994864 -0.02667912 -0.010001228 0.0066593336 0.010521733
-0.004556683 0.010001613 -0.024101008 -0.010364369 0.008037165 -0.010736541 -0.0044593476 -0.00073085405
0.004283186 0.027161773 -0.005361367 -0.0036014 -0.007342685 -0.0049623554 -0.0064893467 0.02297061
-0.0016367957 0.0032091734 -0.0013882256 0.020615472 0.006981203 0.0041337395 0.011011343 -0.009351033
0.008602252 0.001504379 0.005200069 -0.004092641 4.190875e-05 0.004250551 0.0007247661 -0.0022730404
-0.011124576 -0.010520592 -0.00651802 -0.0047659534 0.014321738 0.027813708 0.014515264 -0.019865517
-0.029947406 -0.0089672115 0.01408674 0.004893824 0.010585554 0.010787841 -0.009593745 0.019056235
-0.021145334 0.012482265 0.00016965081 -0.00087864976 -0.028817676 0.026040852 -0.021803452 -0.03610617
0.0066308547 0.0023203955 0.00679328 -0.0052043465 -0.04484683 0.0008359059 -0.002189166 -0.0082214745
0.007633041 -0.031868245 0.011840411 0.0011834457 -0.0014664049 -0.0043326863 0.0017693491 0.006726699
-0.016693832 0.0149374 0.008259253 0.007982354 -0.0050733667 0.00042211852 0.0024167853 -0.0039477083
0.0015247706 -0.017002365 -0.011497507 -0.001978162 0.0048503308 -0.008640783 -0.038550686 -0.021083903
-0.0019856286 -0.0023565914 -0.0046645678 -0.014894408 0.002650264 -0.0016276551 -0.006034476 0.0035652588
-0.025981829 -0.024989437 0.0008363155 0.0022818462 0.014082885 0.0286678 0.016587272 0.02317924
0.032831367 -0.0051471037 -0.011691219 -0.01323837 0.011538605 -0.012223426 0.009815447 -0.0017513407
-0.020893767 0.009189151 -0.00027169773 0.0050544194 -0.04136554 -0.025530394 -0.014134897 -0.0017142817
-0.0113794105 -0.0023068332 0.0019617947 0.0047656777 -0.0062461244 0.0034548277 -0.00029431868 0.0045498596
0.0023897572 0.012323828 0.012637104 -0.0061459052 0.0039216406 9.919508e-05 -0.0011866165 0.001664006
-0.01910005 0.046860583 -0.0037257902 -0.005776824 -0.013371044 0.00017590975 -0.009958959 0.04637136
-5.2505147e-05 0.016134523 -0.017244332 0.0008700524 0.0060797236 0.006134643 -0.04614949 0.018842552
0.011211393 -0.005031301 0.0067851357 0.006778524 -0.0035301999 -0.00750259 -0.009033035 0.00020453402
00000000: b858 d0bc 1bde c7bb e625 773c d8bf 60bc
00000010: dcc7 d0bb a2ce 1c3c d089 183d dd74 b9bc
00000020: 7c3a 3dbc a088 b6bb 31c2 923c 7f2a ff3b
00000030: 768d 69bc 661e c2bb 45b4 383c ca98 24bb
00000040: 0ac0 853a 0234 a03b 61fc cb3b 3afc 99bc
00000050: 3c5f 73bc 62dc ff3c 8fc2 343c 9b7a ab3a
00000060: fdde 2c3c 4afc 5fb9 cf38 81bc 6ff1 28bb
00000070: 5132 49bb 7244 63bb 80ea 9e3b 30bc 28bb
00000080: 45ed 103c a7cf 85b9 228a afba 316a ffbb
00000090: 81a1 073c 1259 0fba 011b 92bb 4c35 65ba
000000a0: c318 8cbc cb46 073d ee4c 0a3c e2e9 deba
000000b0: db42 13bb 4cf6 4b3b 0bbd 9ebb 7463 763b
000000c0: e368 12bb 5df5 66bc be92 80bb 3ef5 1c3d
000000d0: 6fcb 533c 4257 623b 9f5f 593c 47b1 b6bc
000000e0: b2fa 943b 89a3 9cbb 117e b83b 2fb9 2dbb
000000f0: bd62 0fbc a2a4 bc3b 2a09 023c 3eb8 ce3a
00000100: ac9b 7b3d de57 643c 3a8b 54ba f310 2d3b
00000110: 7853 e2bb 709c 043d a3a2 c0bb b4ec 57bb
00000120: 9829 4e3c 438e 07bb b315 0739 04ac c43b
00000130: 043e a73a 0f25 8b3b ea71 69bb dd1f 503c
00000140: 8315 d5ba 6182 b7ba 85b9 82bb 88ac 6bbb
00000150: eb2c 4a3d 351a 13bb 92e9 14bc 0053 18bd
00000160: 2087 1b3b edae 8eba d907 da3c 7460 aa3b
00000170: 2b8e dabc 31dc 23bc 8a36 da3b 5963 2c3c
00000180: 3a50 95bb cedd 233c 7a6f c5bc 50cf 29bc
00000190: 50ae 033c 51e8 2fbc b81f 92bb c996 3fba
000001a0: f859 8c3b 5e82 de3c 68ae afbb 7705 6cbb
000001b0: e89a f0bb 419b a2bb 96a4 d4bb dc2c bc3c
000001c0: c089 d6ba ff50 523b 1ff5 b5ba c7e1 a83c
000001d0: 93c2 e43b 5274 873b ec68 343c 1335 19bc
000001e0: 76f0 0c3c 952e c53a 5765 aa3b 901b 86bb
000001f0: 2dc7 2f38 3548 8b3b 3bfe 3d3a 4af7 14bb
00000200: db43 36bc 905e 2cbc 1d95 d5bb b72b 9cbb
00000210: b9a5 6a3c 93d9 e33c 6ed1 6d3c 02bd a2bc
00000220: 4354 f5bc 36eb 12bc 12cc 663c 5f5c a03b
00000230: 086f 2d3c 7cbf 303c 152f 1dbc d21b 9c3c
00000240: fb38 adbc 6a82 4c3c 4be4 3139 3055 66ba
00000250: 0c13 ecbc a053 d53c 279d b2bc 10e4 13bd
00000260: a447 d93b c711 183b 2a9a de3b 3989 aabb
00000270: 4fb1 37bd b220 5b3a 1c78 0fbb 5db3 06bc
00000280: 971e fa3b 4788 02bd 49fe 413c d91d 9b3a
00000290: 6234 c0ba 35f9 8dbb 81e9 e73a a46b dc3b
000002a0: 81c1 88bc ffbb 743c d151 073c 6bc8 023c
000002b0: 7c3e a6bb ca4f dd39 ee62 1e3b c75b 81bb
000002c0: d0da c73a 8b48 8bbc 0a60 3cbc 0da4 01bb
000002d0: 86ef 9e3b 1292 0dbc 53e7 1dbd 26b8 acbc
000002e0: 5221 02bb 0b71 1abb 3bd9 98bb ad07 74bc
000002f0: 0db0 2d3b 0b57 d5ba dbbc c5bb 1ea7 693b
00000300: d8d7 d4bc a6b6 ccbc 2f3c 5b3a 078b 153b
00000310: e7bb 663c bcd8 ea3c 08e2 873c 64e2 bd3c
00000320: 2f7a 063d 09a9 a8bb 878c 3fbc c0e5 58bc
00000330: 6b0c 3d3c c444 48bc f8d0 203c 3e8d e5ba
00000340: 6829 abbc 188e 163c a772 8eb9 8b9f a53b
00000350: ea6e 29bd 1e25 d1bc 0e96 67bc c0b1 e0ba
00000360: b570 3abc 3d2e 17bb 7491 003b 6729 9c3b
00000370: 4aac ccbb 646a 623b c94e 9ab9 fd16 953b
00000380: 799d 1c3b e2e9 493c db0b 4f3c 9763 c9bb
00000390: 1b81 803b f406 d038 3e88 9bba c71a da3a
000003a0: b577 9cbc e2f0 3f3d 632c 74bb 834b bdbb
000003b0: 3912 5bbc 6a74 3839 e72a 23bc e5ef 3d3d
000003c0: f938 5cb8 8c2c 843c fc43 8dbc 3a14 643a
000003d0: 6b38 c73b 1e05 c93b 3f07 3dbd b25b 9a3c
000003e0: feaf 373c 9ddd a4bb d855 de3b 611e de3b
000003f0: ed5a 67bb 49d8 f5bb 4bff 13bc 2f78 5639

to_mean.2.bias f4 [18]
0.029187301 0.069038615 -0.03399056 0.07150757 0.090874426 0.024275351 0.041213766 0.11721971
0.10880037 0.07648546 0.07130748 0.06880029 -0.0548083 0.06980571 -0.016528187 0.0042086076
0.06704119 -0.06031607
00000000: 351a ef3c 1e64 8d3d af39 0bbd 9072 923d
00000010: 5f1c ba3d 1add c63c c4cf 283d e310 f03d
00000020: bad2 de3d 69a4 9c3d a809 923d 2be7 8c3d
00000030: ab7e 60bd 4cf6 8e3d 1f66 87bc 5ce8 893b
00000040: e44c 893d fc0d 77bd

to_value.0.weight f4 [64, 128]
-0.19365822 0.5188989 -0.016098212 -0.09172557 -0.2604626 -0.099370144 0.053681515 0.13249741
-0.054406337 0.31487116 -0.23486793 0.4088391 0.38072664 0.14590245 0.35676238 0.21867098
0.1945618 0.27562636 0.14067528 -0.1981867 0.0048792465 -0.40368927 -0.09422333 -0.04283867
-0.019046076 0.107992664 -0.19790572 0.091232754 0.2522717 -0.214016 0.045869134 -0.070209555
-0.023873363 -0.19515908 0.13019416 0.14295165 0.2995477 -0.33665678 -0.26562175 0.31331554
0.10604702 0.05916772 0.21317545 -0.32905537 0.5231392 -0.07775152 0.075140476 0.0049788514
-0.032154255 -0.4231132 0.034452647 0.0811716 0.22661294 0.3766604 0.1536831 -0.11160312
0.47036713 0.16202013 -0.076133035 0.23312674 0.029254252 -0.35707656 0.16227756 0.42281845
-0.11065185 -0.006440201 0.054441325 0.24882378 -0.20274141 0.114559904 0.18580495 -0.2892661
-0.1422086 -0.17492506 0.1119101 0.20841584 0.038971703 0.24832135 -0.22298662 0.013260065
-0.24233149 0.19615251 -0.035560217 0.070666604 -0.1649183 -0.07342883 -0.2538319 -0.057516403
-0.20729797 -0.10961621 0.5306539 0.3067414 -0.015471288 0.13905212 -0.39622208 -0.05902018
0.069098115 -0.16918173 0.33745164 0.69029015 -0.23013005 -0.21500413 0.17266819 0.27075326
0.72545075 0.59794635 0.087282024 -0.023137918 0.04020431 -0.18136093 0.3668187 -0.1553075
0.0030910799 -0.045471437 0.039462566 -0.071503475 0.5158033 0.27488562 0.28610125 -0.26041734
0.51678735 0.7134303 0.5202348 0.3020313 0.087285876 1.0927674 0.4380502 -0.056984503
-0.35148603 -0.10332005 0.48419276 0.123910435 -0.30389428 0.5945402 0.5037127 1.2402956
-0.06675583 -0.18550105 -0.21358706 -0.17636377 -0.37538648 0.14305244 -0.02262849 -0.18067276
-0.21722771 0.5174959 -0.13030025 0.19259126 0.94471246 0.53051555 -0.19406275 0.115927584
0.41664317 -0.07392986 -0.55183846 -0.4186051 0.020141937 -0.079486735 1.2794946 0.12913151
1.0273651 -0.32301122 0.11260717 0.72210866 0.9648407 -0.35294735 0.5297964 -0.05408315
-0.19264318 0.4928531 0.10373695 -0.23156577 0.48708174 0.03465651 0.14940475 0.56469995
-0.1772669 -0.8382729 -0.0026680084 0.5341933 -0.0186953 0.26736444 -0.019026015 -0.040768035
-0.0330078 0.922918 -0.36384448 -0.090711534 0.6435815 -0.032210305 -0.20768958 -0.084030725
-0.39929038 -0.13147523 0.9063669 -0.18937263 -0.45459285 -0.15276995 0.17022938 -0.24852037
0.14605463 0.31721947 -0.054255478 0.7118951 -0.15745148 -0.26045933 -0.3587897 0.07201484
0.16020532 -0.069292285 0.016948465 0.055686686 0.20084035 1.1744728 0.5334207 0.64972293
0.88492805 -0.035173338 0.20318274 0.069227375 -0.11599027 -0.40172642 -0.28577715 0.8221975
-0.06831025 0.051095672 0.8347438 -0.13330433 -0.4093876 -0.37480345 0.361233 -0.1190921
-0.17727034 -0.12109694 0.059002314 0.11481539 0.56788456 0.39091834 -0.13564159 -0.25421458
-0.48228702 1.0235714 0.13020198 -0.050231133 -0.09740841 -0.24854013 -0.05903379 -0.6165644
0.4207609 -0.14841269 -0.18690684 0.08686825 0.8613583 -0.075011455 0.61170214 0.78563553
00000000: 574e 46be 8fd6 043f 66e0 83bc 9eda bbbd
00000010: 5b5b 85be 9382 cbbd 26e1 5b3d 67ad 073e
00000020: 2ed9 5ebd cb36 a13e 3881 70be 5c53 d13e
00000030: 9aee c23e 7467 153e 8fa9 b63e 49eb 5f3e
00000040: 353b 473e e61e 8d3e 2e0d 103e 74f1 4abe
00000050: 16e2 9f3b 5cb0 cebe 29f8 c0bd 9a77 2fbd
00000060: 8406 9cbc 422b dd3d cca7 4abe 3dd8 ba3d
00000070: c229 813e 0327 5bbe 46e1 3b3d 07ca 8fbd
00000080: 1292 c3bc c8d7 47be 9e51 053e eb61 123e
00000090: 515e 993e 475e acbe 93ff 87be e56a a03e
000000a0: 2e2f d93d da59 723d aa4a 5a3e f279 a8be
000000b0: 73ec 053f 303c 9fbd 40e3 993d a225 a33b
000000c0: 2eb4 03bd 4ba2 d8be 381e 0d3d 4c3d a63d
000000d0: 390d 683e a2d9 c03e 1a5f 1d3e 2d90 e4bd
000000e0: f6d3 f03e 9be8 253e a3eb 9bbd c7b8 6e3e
000000f0: 9da6 ef3c bdd2 b6be 172c 263e a97b d83e
00000100: 709d e2bd 5208 d3bb defd 5e3d a9cb 7e3e
00000110: 729b 4fbe 629e ea3d a743 3e3e b01a 94be
00000120: 229f 11be 8e1f 33be 1f31 e53d f66a 553e
00000130: cba0 1f3d f447 7e3e 9b56 64be be40 593c
00000140: bf25 78be 34dc 483e 97a7 11bd a7b9 903d
00000150: 58e0 28be db61 96bd 41f6 81be 5296 6bbd
00000160: eb45 54be 777e e0bd efd8 073f 350d 9d3e
00000170: 497b 7dbc ae63 0e3e 9fdd cabe 25bf 71bd
00000180: 5083 8d3d fa3d 2dbe 76c6 ac3e dbb6 303f
00000190: 36a7 6bbe 0b2a 5cbe eecf 303e 2ca0 8a3e
000001a0: 24b7 393f 0313 193f ebc0 b23d bb8b bdbc
000001b0: 46ad 243d aeb6 39be a9cf bb3e ee08 1fbe
000001c0: b793 4a3b 4240 3abd 80a3 213d 6a70 92bd
000001d0: af0b 043f cfbd 8c3e dd7b 923e 6c55 85be
000001e0: 2d4c 043f 5ea3 363f 1c2e 053f d9a3 9a3e
000001f0: f0c2 b23d cddf 8b3f 1e48 e03e 9568 69bd
00000200: faf5 b3be 7699 d3bd 1de8 f73e c1c4 fd3d
00000210: 0898 9bbe c933 183f 51f3 003f 02c2 9e3f
00000220: 48b7 88bd fdf3 3dbe 91b6 5abe b498 34be
00000230: a832 c0be 577c 123e 625f b9bc 4802 39be
00000240: f170 5ebe 9c7a 043f 6e6d 05be a536 453e
00000250: add8 713f decf 073f 63b8 46be 716b ed3d
00000260: 4152 d53e 8a68 97bd 4945 0dbf 6853 d6be
00000270: b400 a53c f1c9 a2bd 7bc6 a33f 0d3b 043e
00000280: b380 833f ba61 a5be 979e e63d 1ddc 383f
00000290: cdff 763f 84b5 b4be bda0 073f 4b86 5dbd
000002a0: 4144 45be 3e57 fc3e 0a74 d43d 941f 6dbe
000002b0: c762 f93e fcf3 0d3d 8ffd 183e 2d90 103f
000002c0: 7485 35be 0e99 56bf c1d9 2ebb e4c0 083f
000002d0: e326 99bc fee3 883e 72dc 9bbc 62fc 26bd
000002e0: 3033 07bd 5b44 6c3f d349 babe f8c6 b9bd
000002f0: c2c1 243f f4ee 03bd 94ac 54be 4d18 acbd
00000300: ca6f ccbe 71a1 06be a907 683f e6ea 41be
00000310: 65c0 e8be ba6f 1cbe 9c50 2e3e 207c 7ebe
00000320: 588f 153e 976a a23e fe3a 5ebd c23e 363f
00000330: f63a 21be ed5a 85be 49b3 b7be 847c 933d
00000340: dd0c 243e 1de9 8dbd 82d7 8a3c b917 643d
00000350: 18a9 4d3e 2055 963f 428e 083f 3e54 263f
00000360: a58a 623f eb11 10bd 230f 503e 15c7 8d3d
00000370: 4f8c edbd 16af cdbe 6251 92be 897b 523f
00000380: 3fe6 8bbd b249 513d c5b1 553f ee80 08be
00000390: 409b d1be 3de6 bfbe 88f3 b83e 8fe6 f3bd
000003a0: 5b86 35be ac01 f8bd 69ac 713d 5524 eb3d
000003b0: e260 113f 7326 c83e a1e5 0abe 6a28 82be
000003c0: 53ee f6be 6304 833f ab53 053e 29bf 4dbd
000003d0: 0f7e c7bd 4e81 7ebe 6acd 71bd 2ad7 1dbf
000003e0: f96d d73e 7ff9 17be 8264 3fbe fbe7 b13d
000003f0: fa81 5c3f 9b9f 99bd 8398 1c3f 691f 493f

to_value.0.bias f4 [64]
-0.16638136 0.008897026 0.25604874 0.30663556 0.41722757 -0.16548231 -0.21936834 0.4066134
0.2675294 0.42337587 -0.10768217 -0.19006437 0.26156184 0.42392784 0.3108631 0.27159908
-0.09465053 -0.100819714 0.43818644 -0.120222606 -0.120958604 0.26779738 0.29282868 -0.23581657
0.38504127 -0.1321364 0.29040322 0.2933098 -0.25575903 0.25396362 0.36122853 0.3569489
0.26601812 0.39878893 -0.22553946 -0.14282098 0.32948294 0.10589221 -0.14679363 0.3317098
0.33302733 -0.09605268 0.3650219 -0.17742656 0.42873943 -0.21090929 0.05949314 0.33737788
0.28954685 -0.2487126 0.2664968 -0.036897637 -0.2125986 -0.24833998 -0.25486004 0.39320138
0.3898222 -0.081677504 -0.10864517 -0.14426552 -0.1679471 0.37640125 0.44922978 -0.24633513
00000000: e05f 2abe d5c4 113c d218 833e 56ff 9c3e
00000010: da9e d53e 3274 29be 18a2 60be a22f d03e
00000020: 9df9 883e b9c4 d83e 7888 dcbd 3ca0 42be
00000030: 6feb 853e 120d d93e 7329 9f3e 090f 8b3e
00000040: 23d8 c1bd 917a cebd f959 e03e 4537 f6bd
00000050: 25b9 f7bd bd1c 893e a4ed 953e e679 71be
00000060: 2124 c53e c44e 07be bbaf 943e b42c 963e
00000070: d9f2 82be 8507 823e f2f2 b83e 02c2 b63e
00000080: 8733 883e 102e cc3e d1f3 66be aa3f 12be
00000090: fdb1 a83e 04de d83d 1251 16be ded5 a93e
000000a0: 8f82 aa3e 44b7 c4bd 27e4 ba3e 4faf 35be
000000b0: bc83 db3e 9bf8 57be 14af 733d cbbc ac3e
000000c0: 7c3f 943e 84ae 7ebe 4572 883e fa21 17bd
000000d0: 73b3 59be d64c 7ebe 047d 82be b151 c93e
000000e0: c796 c73e 8946 a7bd 5c81 debd 57ba 13be
000000f0: 53fa 2bbe aab7 c03e 7201 e63e 473f 7cbe

to_value.2.weight f4 [1, 64]
-0.47491786 0.78539777 0.3272824 0.4118149 0.39451745 -0.50599575 -0.47334614 0.35082862
0.36740237 0.3863676 -0.49369937 -0.5320856 0.3348036 0.3608296 0.4241464 0.39178845
-0.601439 -0.59384197 0.37000063 -0.4857373 -0.47233334 0.3696642 0.43869087 -0.3736175
0.33039483 -0.6773321 0.406432 0.3122546 -0.40447894 0.40361807 0.4443938 0.35816857
0.36335096 0.4493364 -0.519451 -0.4891051 0.38919178 -0.4101242 -0.46862978 0.3437826
0.40829548 -0.7946701 0.33436054 -0.5158003 0.43818805 -0.54982895 -0.9609089 0.33070356
0.3816098 -0.49888206 0.31997505 -0.44367948 -0.4997153 -0.4503358 -0.4298074 0.46696988
0.39529887 -0.6080982 -0.49609965 -0.4318823 -0.57925934 0.44379506 0.35387453 -0.57448065
00000000: 6f28 f3be d40f 493f 8f91 a73e 67d9 d23e
00000010: 31fe c93e f088 01bf 6d5a f2be cf9f b33e
00000020: 2a1c bc3e f9d1 c53e 2ac6 fcbe c336 08bf
00000030: 616b ab3e a8be b83e b829 d93e 7f98 c83e
00000040: e8f7 19bf 0706 18bf b970 bd3e 8fb2 f8be
00000050: add5 f1be a044 bd3e 179c e03e cb4a bfbe
00000060: 8329 a93e a365 2dbf db17 d03e d6df 9f3e
00000070: dd17 cfbe 07a7 ce3e 9687 e33e df61 b73e
00000080: 2309 ba3e 6c0f e63e befa 04bf fc6b fabe
00000090: 2544 c73e cdfb d1be 3ef0 efbe 4604 b03e
000000a0: 1b0c d13e 806f 4bbf 4e31 ab3e 7d0b 04bf
000000b0: 2f5a e03e 97c1 0cbf 20fe 75bf fa51 a93e
000000c0: 5c62 c33e 786d ffbe c5d3 a33e f529 e3be
000000d0: afda ffbe 6a92 e6be b70f dcbe ad16 ef3e
000000e0: 9d64 ca3e 53ac 1bbf c600 febe ad1f ddbe
000000f0: 574a 14bf 1b39 e33e 0b2f b53e 2a11 13bf
