saves/save7_1_23/save5_walk_18dofs_fromSave43600.pth (torch, 282843 bytes, 11 tensors)

shared_net.0.weight f4 [256, 73]
-0.083246246 0.32628787 -0.03174684 -0.115587465 0.014402798 0.05654009 0.0009805417 0.066052385
0.019539893 0.057757452 -0.25629812 -0.11261495 -0.25150615 -0.32708642 0.037974697 0.047243156
-0.09356763 0.1508982 0.1544214 -0.140888 0.044277363 0.29741475 -0.26105636 0.26385117
0.027499318 0.39102978 0.16787824 -0.3352931 0.33421794 -0.0315363 -0.16807029 0.077972256
-0.12146976 -0.08350454 -0.085157484 -0.076215275 -0.07085054 0.08980067 -0.022892158 0.0070296978
-0.16099152 -0.14224835 -0.08785986 -0.1651425 0.03644181 -0.06378558 0.16409585 0.028309502
-0.20606251 0.016945064 0.07892101 0.100921504 0.054474343 0.081145115 0.054751135 -0.046543133
0.010632524 -0.18047348 -0.06779118 -0.036069077 0.07733383 0.09840847 -0.041451845 0.057882156
0.094839856 0.012976527 0.00021074478 0.041715883 0.062266722 0.14755966 -0.16368909 -0.22762349
-0.007266006 0.20585123 0.10617675 0.26278615 -0.058272686 -0.18058786 -0.012294659 -0.095919654
-0.39254352 0.19048287 0.3719919 -0.2697633 0.049012598 0.34161222 -0.19350024 -0.017400138
0.09334436 -0.23991375 0.17401811 -0.19084322 -0.1322038 0.09158893 0.17427863 -0.019603368
0.2122826 0.25721648 -0.45007667 -0.013217557 0.024548339 -0.17846492 0.3033539 -0.100639835
-0.026937872 -0.057406537 -0.0664715 -0.113977164 -0.009094061 0.00749118 -0.027774038 0.02977234
0.121243015 0.16800831 0.017637277 -0.081464045 0.019775024 0.036455408 0.038004376 0.09831083
0.023074916 -0.049916122 -0.09243626 0.07039037 -0.08856095 -0.05981338 0.04027989 -0.042780753
-0.059129525 -0.073485926 0.12559131 -0.044782124 -0.08554517 -0.010516829 0.03660828 0.0072685326
-0.010259243 -0.009513001 0.016902914 0.14892565 0.046061475 0.25016186 0.119916566 -0.15238808
-0.13866834 -0.043765627 0.16291292 -0.2159427 -0.10085905 -0.21005256 -0.13270943 -0.2774852
0.060118776 0.029375581 0.07222651 -0.07814538 0.07120868 -0.17824198 -0.0876104 0.02184777
-0.20709652 -0.12720424 -0.24228498 -0.1118695 -0.22517972 -0.3596274 -0.22444907 -0.08185544
0.110283494 -0.31572726 0.09255015 -0.15920047 0.17211312 0.24396017 -0.29062298 0.20777655
0.010116174 -0.13394114 0.07075164 -0.0054185637 0.093843676 0.030428594 -0.0036472932 0.13206778
0.11335245 -0.01989489 -0.091929406 -0.10533979 0.0061533786 0.033404823 0.040031854 0.0805001
-0.070478946 -0.019185776 -0.0996141 -0.07643365 -0.11973205 0.00784393 -0.0064880326 -0.0215621
-0.040175643 0.12355404 -0.11661023 -0.24460581 -0.067067064 0.09177516 -0.010054284 0.14026803
0.030753149 0.04536534 0.0075982646 -0.024099257 0.060695894 -0.06644941 -0.07150663 0.1501324
-0.31524852 -0.18670002 -0.024583563 -0.0645543 -0.013108474 0.2537818 0.07836891 -0.12922223
-0.47653896 0.13146089 -0.088777006 0.00047642327 -0.033870712 -0.072374985 -0.126761 -0.008355688
-0.33832365 0.056847684 0.2210138 -0.191033 0.21915847 -0.2538709 -0.16998163 0.14552811
0.0025843743 -0.050556332 -0.09271398 0.3322839 -0.1676346 0.032791607 -0.15115575 -0.3167551
-0.030792357 -0.05747323 0.1721011 0.0804541 0.13510796 -0.02387047 -0.08813547 -0.23501165
00000000: 027d aabd 340f a73e f908 02bd 1fb9 ecbd
00000010: b7f9 6b3c 9596 673d 8585 803a 7946 873d
00000020: 2012 a03c 1493 6c3d 8239 83be aba2 e6bd
00000030: 6ac5 80be df77 a7be 5b8b 1b3d 0a82 413d
00000040: 63a0 bfbd 0f85 1a3e a520 1e3e f244 10be
00000050: 2e5c 353d bf46 983e 2ea9 85be 8017 873e
00000060: 4046 e13c 0e35 c83e 46e8 2b3e 8aab abbe
00000070: 9d1e ab3e 352c 01bd 9e1a 2cbe ebaf 9f3d
00000080: 23c5 f8bd 6e04 abbd 0c67 aebd c116 9cbd
00000090: 171a 91bd 6ae9 b73d 5688 bbbc 6159 e63b
000000a0: f6da 24be 8da9 11be dfef b3bd 1e1b 29be
000000b0: 0244 153d 04a2 82bd be08 283e 54e9 e73c
000000c0: 0d02 53be 60d0 8a3c 57a1 a13d efaf ce3d
000000d0: 7d20 5f3d 692f a63d ba42 603d 03a4 3ebd
000000e0: 0a34 2e3c 0ace 38be 1ad6 8abd 2bbd 13bd
000000f0: 3361 9e3d 618a c93d 69c9 29bd d715 6d3d
00000100: 663b c23d 809b 543c 5ffb 5c39 46de 2a3d
00000110: 640b 7f3d e119 173e 1d9e 27be 2216 69be
00000120: ad17 eebb aaca 523e 3273 d93d e88b 863e
00000130: 57af 6ebd 06ec 38be 8a6f 49bc 8671 c4bd
00000140: 77fb c8be f10d 433e b975 be3e 6a1e 8abe
00000150: 6fc1 483d cce7 ae3e ed24 46be bc8a 8ebc
00000160: 542b bf3d f3ab 75be ce31 323e 686c 43be
00000170: 6f60 07be fa92 bb3d 1976 323e 3e97 a0bc
00000180: 9c60 593e e1b1 833e 7370 e6be 748e 58bc
00000190: 9919 c93c 82bf 36be 3451 9b3e 421c cebd
000001a0: d0ac dcbc 1e23 6bbd 3622 88bd dc6c e9bd
000001b0: 42ff 14bc 9378 f53b 6186 e3bc 1fe5 f33c
000001c0: 424e f83d 5f0a 2c3e 0d7c 903c 9fd6 a6bd
000001d0: 3bff a13c 4452 153d 7aaa 1b3d 3057 c93d
000001e0: 9b07 bd3c d974 4cbd 394f bdbd d428 903d
000001f0: 715f b5bd e0fe 74bd 87fc 243d df3a 2fbd
00000200: cd31 72bd ca7f 96bd 029b 003e 766d 37bd
00000210: 4e32 afbd c74e 2cbc 90f2 153d df2c ee3b
00000220: 6216 28bc 6bdc 1bbc fb77 8a3c f77f 183e
00000230: f5aa 3c3d 3715 803e d196 f53d 9f0b 1cbe
00000240: 13ff 0dbe 9643 33bd a5d2 263e 1520 5dbe
00000250: 318f cebd 0518 57be fbe4 07be 8a12 8ebe
00000260: 1b3f 763d 0fa5 f03c 7eeb 933d af0a a0bd
00000270: dbd5 913d 1185 36be 156d b3bd 18fa b23c
00000280: 1c11 54be d441 02be 8e19 78be d61b e5bd
00000290: 8395 66be 1521 b8be fad5 65be d3a3 a7bd
000002a0: 50dc e13d 01a7 a1be ef8a bd3d 7305 23be
000002b0: 6c3e 303e b2d0 793e 89cc 94be 60c3 543e
000002c0: 4fbe 253c de27 09be 3ce6 903d 358e b1bb
000002d0: 1d31 c03d 6345 f93c 6d07 6fbb c73c 073e
000002e0: 5425 e83d 9cfa a2bc 7c45 bcbd 63bc d7bd
000002f0: 48a2 c93b 7fd3 083d 71f8 233d 3ddd a43d
00000300: 4457 90bd 7d2b 9dbc 7a02 ccbd 3f89 9cbd
00000310: 1436 f5bd d483 003c 9099 d4bb 00a3 b0bc
00000320: 378f 24bd e709 fd3d 58d1 eebd f279 7abe
00000330: 755a 89bd 9df4 bb3d b9ba 24bc 6ca2 0f3e
00000340: 07ee fb3c 02d1 393d ddfa f83b ce6b c5bc
00000350: 429c 783d a116 88bd 1172 92bd 4fbc 193e
00000360: 4168 a1be 4a2e 3fbe 7863 c9bc 0b35 84bd
00000370: edc4 56bc b0ef 813e e17f a03d d552 04be
00000380: eafc f3be af9d 063e b8d0 b5bd 73c8 f939
00000390: 04bc 0abd 5639 94bd a3cd 01be 4ce6 08bc
000003a0: c238 adbe 1ed9 683d 7151 623e 289e 43be
000003b0: 146b 603e 5efb 81be aa0f 2ebe 5205 153e
000003c0: 9b5e 293b 2814 4fbd d4e0 bdbd 1e21 aa3e
000003d0: 68a8 2bbe 7e50 063d 93c8 1abe b92d a2be
000003e0: 4140 fcbc 0d69 6bbd 453b 303e 1fc5 a43d
000003f0: be59 0a3e 018c c3bc 5f80 b4bd e5a6 70be

shared_net.0.bias f4 [256]
0.018066695 0.07617409 -0.04770858 0.046862997 -0.03998609 -0.08791627 0.099302866 0.058349013
-0.060992952 -0.09367189 -0.051521122 -0.06306474 0.12377104 -0.050286278 -0.016445514 0.07946359
0.027656136 0.032852203 -0.107141405 -0.043084502 0.009365824 0.05023399 0.10554694 -0.087022774
-0.058672708 -0.07059192 0.06902189 0.08522254 0.05036389 0.060569257 0.024855956 0.007801241
-0.09379692 -0.027117673 -0.09012239 -0.058594696 -0.14443228 0.050070543 0.07223993 -0.0748633
-0.113553636 -0.07437129 0.045817826 0.10943714 0.09869768 -0.00091563095 0.14138904 0.07774529
-0.0064088376 0.04524387 -0.094005115 -0.040041976 0.028183235 -0.045562387 0.05125567 0.0631454
0.010647216 0.01156473 -0.14065059 0.10106243 0.0062982524 -0.07216232 -0.04854556 -0.0372847
-0.011787962 -0.003529592 0.026068825 0.06528478 0.057475064 0.13985871 -0.12889053 0.0075558205
-0.12119246 -0.13672571 -0.09946277 0.03685818 0.0067515257 0.1400547 0.09812377 0.0008111578
-0.045198593 0.07703532 0.097570926 0.023572147 -0.03704881 0.030023294 -0.047302842 0.12126606
0.0958963 0.0003057667 0.024573905 -0.04653481 0.05074447 -0.00906053 -0.110530175 -0.004813994
-0.07446627 0.11131344 -0.067904614 -0.08298368 0.07892251 -0.11400434 0.06470304 -0.038262878
-0.118828416 -0.06790512 -0.013343822 -0.041380867 0.033167068 0.036806457 -0.050678696 0.08560527
-0.010223999 0.05045572 -0.04257391 -0.045368526 -0.06796175 -0.05225348 -0.09620679 0.022743287
0.06625299 0.028741492 -0.15287763 0.014308089 -0.12375658 -0.05544574 -0.06058263 0.03331998
-0.0655476 0.055310156 0.04010891 -0.004627408 0.083162434 -0.06803789 0.026769845 -0.08774996
0.03794384 -0.02502335 -0.09903244 0.047859147 -0.015775373 -0.027425835 -0.101014726 -0.06607827
0.08629576 -0.12452354 -0.06927382 -0.11230215 0.13189809 0.06918806 -0.1358102 -0.13749312
-0.07430999 0.07025199 0.09963274 0.08671265 0.041591313 -0.09324642 -0.020432435 0.11868193
-0.13924563 -0.05246213 0.09121459 0.004059152 -0.06787147 -0.05894761 -0.102552064 -0.1381905
-0.00072643784 -0.042273086 0.08480594 -0.045397546 -0.049915917 -0.10325124 0.13595282 0.00077732577
-0.12378871 0.07164335 0.07843061 0.096058376 0.09622007 -0.034426574 0.0066955355 0.06551796
0.02169388 -0.048188366 -0.0053540193 -0.10896938 0.07249153 0.034427192 0.063816264 0.013759792
0.09685737 -0.001249082 -0.030219823 -0.027221838 0.07254255 -0.080782264 0.1532022 0.11342595
-0.08941855 -0.06999224 0.01185354 -0.08196229 0.059603535 0.042738743 0.03505561 -0.016715305
-0.0875781 -0.106672 0.022501733 0.05779091 -0.0028709446 -0.029767554 -0.0942339 -0.0058575203
-0.015782492 -0.087951094 -0.029799534 -0.07392755 -0.111794055 -0.13093382 -0.0453432 0.03781847
-0.090823844 -0.057681307 -0.049321856 0.043729525 0.035072498 -0.05697999 -0.12643531 -0.023390144
-0.09196855 -0.05058908 -0.12399606 -0.12833767 0.08311548 -0.028500682 0.05408633 0.12323991
-0.14051117 -0.1094725 -0.116341256 0.07341884 0.14753923 0.008020175 -0.072318 -0.04345744
-0.065633155 -0.15519121 0.071072705 0.13600878 0.01182247 -0.09563443 0.058960147 -0.042174697
00000000: 9b00 943c 2901 9c3d 126a 43bd 6af3 3f3d
00000010: 74c8 23bd 720d b4bd 4d5f cb3d 60ff 6e3d
00000020: bfd3 79bd 0cd7 bfbd d007 53bd 1628 81bd
00000030: ac7b fd3d fcf8 4dbd beb8 86bc cfbd a23d
00000040: 1f8f e23c 0890 063d f46c dbbd 6079 30bd
00000050: 1d73 193c 28c2 4d3d fe28 d83d ff38 b2bd
00000060: cb52 70bd 7f92 90bd 595b 8d3d 2889 ae3d
00000070: 5e4a 4e3d 7817 783d b89e cb3c 8da1 ff3b
00000080: 9918 c0bd e225 debc 1692 b8bd fe00 70bd
00000090: 0ee6 13be c516 4d3d 87f2 933d ee51 99bd
000000a0: cf8e e8bd fa4f 98bd 79ab 3b3d 9420 e03d
000000b0: 0222 ca3d f406 70ba 4ac8 103e ec38 9f3d
000000c0: 3a01 d2bb a351 393d c185 c0bd 0e03 24bd
000000d0: 87e0 e63c a09f 3abd 77f1 513d 6052 813d
000000e0: a971 2e3c fe79 3d3c b506 10be d2f9 ce3d
000000f0: 9261 ce3b d7c9 93bd b6d7 46bd d7b7 18bd
00000100: 4c22 41bc ba50 67bb 4a8e d53c 07b4 853d
00000110: f96a 6b3d 1f37 0f3e e1fb 03be d196 f73b
00000120: c133 f8bd d301 0cbe 23b3 cbbd 9af8 163d
00000130: e73b dd3b 806a 0f3e 1df5 c83d e1a3 543a
00000140: 2922 39bd b2c4 9d3d 44d3 c73d 601a c13c
00000150: 7ec0 17bd 69f3 f53c a0c0 41bd 575a f83d
00000160: 4865 c43d 504f a039 374f c93c 499b 3ebd
00000170: 6fd9 4f3d 9e72 14bc a55d e2bd b5be 9dbb
00000180: c681 98bd 4df8 e33d 9311 8bbd 59f3 a9bd
00000190: 20a2 a13d 1b7b e9bd 0783 843d 89b9 1cbd
000001a0: 505c f3bd d711 8bbd 0ca0 5abc fc7e 29bd
000001b0: 31da 073d 5ec2 163d 7794 4fbd d151 af3d
000001c0: 8f82 27bc a8aa 4e3d fb61 2ebd 59d4 39bd
000001d0: 882f 8bbd bf07 56bd 1108 c5bd 2150 ba3c
000001e0: a6af 873d 4773 eb3c f48b 1cbe 7a6c 6a3c
000001f0: 1774 fdbd 131b 63bd 7e25 78bd 887a 083d
00000200: d23d 86bd e78c 623d 3e49 243d 83a1 97bb
00000210: 1151 aa3d 7357 8bbd 6f4c db3c 40b6 b3bd
00000220: 006b 1b3d c5fd ccbc 85d1 cabd f407 443d
00000230: 5b3b 81bc 25ac e0bc cfe0 cebd 0b54 87bd
00000240: d5bb b03d 3306 ffbd 6fdf 8dbd abfe e5bd
00000250: 4b10 073e 78b2 8d3d d411 0bbe ffca 0cbe
00000260: d62f 98bd 46e0 8f3d 400c cc3d 6796 b13d
00000270: a75b 2a3d fbf7 bebd ec61 a7bc 830f f33d
00000280: 6896 0ebe 88e2 56bd b7ce ba3d a302 853b
00000290: 3200 8bbd 0d73 71bd d106 d2bd cf81 0dbe
000002a0: 6b6e 3eba 8b26 2dbd bdae ad3d c7f2 39bd
000002b0: a274 4cbd 6375 d3bd 3737 0b3e 73c5 4b3a
000002c0: ef84 fdbd c0b9 923d 3aa0 a03d 41ba c43d
000002d0: 070f c53d e102 0dbd 3966 db3b 482e 863d
000002e0: 5db7 b13c 2a61 45bd c570 afbb 572b dfbd
000002f0: 7076 943d 8703 0d3d 1ab2 823d c070 613c
00000300: 285d c63d 3db8 a3ba 908f f7bc 5500 dfbc
00000310: 3091 943d 2c71 a5bd 0ae1 1c3e dd4b e83d
00000320: 1321 b7bd 1758 8fbd 5a35 423c d8db a7bd
00000330: d622 743d d20e 2f3d 7996 0f3d 89ee 88bc
00000340: 265c b3bd d976 dabd 8e55 b83c 29b6 6c3d
00000350: 7526 3cbb 16db f3bc b4fd c0bd 71f0 bfbb
00000360: 494a 81bc b41f b4bd 271e f4bc 5467 97bd
00000370: 48f4 e4bd 8413 06be cbb9 39bd 8ae7 1a3d
00000380: da01 babd 3c43 6cbd b705 4abd bb1d 333d
00000390: 2ea8 0f3d da63 69bd 4278 01be b09c bfbc
000003a0: 025a bcbd 7f36 4fbd a5f1 fdbd f36a 03be
000003b0: 7338 aa3d 437a e9bc a189 5d3d 3565 fc3d
000003c0: 29e2 0fbe 1e33 e0bd 5344 eebd 9e5c 963d
000003d0: 8614 173e 0d67 033c 761b 94bd 6e00 32bd
000003e0: ad6a 86bd 72ea 1ebe 918e 913d e345 0b3e
000003f0: 09b3 413c fcdb c3bd 3280 713d 60bf 2cbd

shared_net.2.weight f4 [128, 256]
-0.05385428 -0.06575958 0.04604404 -0.057505347 -0.010646924 -0.16278385 -0.07718295 -0.06332832
0.04233093 -0.015764924 0.025875404 0.030583015 0.10166614 -0.06276934 0.0052849166 0.04512194
0.09378239 -0.015043544 -0.20131436 0.06876341 -0.019154603 0.11893666 -0.049349 -0.116644725
-0.035801727 -0.117928766 -0.12475445 0.047408268 -0.0018558588 0.012418062 0.07622694 -0.021673264
-0.055670373 -0.1363185 -0.23898411 0.00022496437 -0.010064323 -0.06346859 -0.21867189 0.0014829453
0.033293247 -0.074519366 0.13957924 0.02171899 0.04220771 0.03565306 0.048314434 0.055137366
-0.10017609 0.043543812 0.0365515 -0.018050447 -0.065465756 -0.02829616 -0.3194672 -0.039081793
0.015570757 -0.2512037 -0.008119977 0.07855643 -0.057677794 0.03295256 0.010632876 -0.015244656
0.055178136 0.09811185 0.08784455 0.057410724 0.098864734 0.11602838 0.059177678 -0.0765464
0.03751568 0.13066083 0.09890897 -0.12127186 -0.0510778 0.041321415 -0.08035339 -0.054305647
0.025250986 0.08631469 0.023173975 -0.10449333 -0.07723016 0.0874525 0.07535931 -0.014752958
0.014652277 -0.045409564 -0.059694033 -0.017384237 0.1447217 0.0047186967 -0.13906248 -0.043886922
-0.10619778 0.05136114 -0.08814457 -0.12360834 -0.03145728 -0.03990613 0.087286316 -0.06905311
-0.093595736 0.14670505 -0.032683294 -0.12763338 0.07045046 -0.01232914 0.003998686 -0.040336974
-0.042611033 0.050688084 -0.022784172 -0.04951236 0.022912508 0.16890645 -0.048575487 -0.051594224
0.0043692384 -0.026315657 -0.15141925 -0.024856063 -0.044531643 -0.028352372 -0.022002447 -0.12659656
0.00029387834 0.014461669 -0.123462774 -0.020263018 -0.07129457 -0.08562136 -0.026871182 0.017057043
-0.022882678 -0.00095861 -0.087579876 -0.13898885 -0.013235359 0.05400172 -0.00043063937 -0.01158658
0.06638507 -0.1401437 0.12424315 -0.07197597 -0.06910015 0.06307423 -0.03466578 0.07770699
-0.036533266 -0.105256744 -0.03876807 -0.1344116 -0.011390763 0.039904084 -0.026276903 -0.12368372
-0.0094129015 -0.031656306 -0.03358928 0.030060263 -0.02232531 0.019892462 -0.060705367 0.14090508
-0.05414989 -0.07669695 0.15169658 -0.005171862 -0.1315492 -0.065349355 -0.19079152 -0.07684789
0.015837962 0.063350566 0.027499996 0.0065466864 -0.093974255 -0.052711476 -0.12534866 0.03266084
0.00860131 -0.07470563 -0.15980136 -0.01367643 0.00016581395 0.0803877 0.020774858 0.04133017
0.19168673 -0.08226836 -0.09527312 -0.13140355 -0.061417717 -0.08257665 0.10662317 -0.101178065
0.030486204 -0.044861317 0.019966738 -0.002985154 0.07193736 -0.096251145 -0.16345698 -0.15965375
0.03554972 -0.0123458505 0.059102304 -0.083746284 -0.019945692 0.07921936 -0.0048205727 -0.05669525
0.12204167 0.0731657 -0.05175711 -0.10347732 0.040161695 -0.14662254 0.018978221 0.0018025028
0.06785657 -0.1032143 0.06477921 -0.013431542 -0.14141107 0.010941617 -0.045075074 0.04981682
-0.11299813 -0.110896684 -0.16695684 -0.0948645 -0.07883207 0.061112575 0.106169984 0.037671257
-0.04780366 -0.076298386 0.03386212 0.06306097 0.15335503 -0.110164575 0.055291522 0.108174406
-0.08877256 -0.04583115 0.05639342 0.06616493 0.02548846 -0.08226077 -0.013995576 -0.16511987
00000000: 4e96 5cbd f5ac 86bd ad98 3c3d ba8a 6bbd
00000010: 7070 2ebc cfb0 26be 1812 9ebd 47b2 81bd
00000020: 3263 2d3d 7125 81bc a8f8 d33c 3b89 fa3c
00000030: 5636 d03d 368d 80bd 182d ad3b c9d1 383d
00000040: fb10 c03d 3279 76bc 5a25 4ebe d5d3 8c3d
00000050: 1dea 9cbc 1095 f33d 2d22 4abd 6ee3 eebd
00000060: d5a4 12bd a384 f1bd 437f ffbd 2c2f 423d
00000070: 4a40 f3ba 2175 4b3c df1c 9c3d 218c b1bc
00000080: 9e06 64bd 1497 0bbe 40b8 74be 6ae4 6b39
00000090: d5e4 24bc d2fb 81bd 86eb 5fbe 635f c23a
000000a0: 805e 083d 9c9d 98bd dced 0e3e 06ec b13c
000000b0: fee1 2c3d f108 123d 5be5 453d b8d7 613d
000000c0: 1f29 cdbd ff5a 323d 07b7 153d 88de 93bc
000000d0: e912 86bd 59cd e7bc 3491 a3be 3b14 20bd
000000e0: 7d1c 7f3c c59d 80be a709 05bc 32e2 a03d
000000f0: 8d3f 6cbd 43f9 063d 8435 2e3c b9c4 79bc
00000100: 7802 623d deee c83d d8e7 b33d 8227 6b3d
00000110: 9879 ca3d 4aa0 ed3d 4b64 723d 5cc4 9cbd
00000120: 0baa 193d f4cb 053e c990 ca3d 625d f8bd
00000130: f536 51bd a540 293d 5190 a4bd 996f 5ebd
00000140: 28db ce3c c2c5 b03d 59d7 bd3c 9900 d6bd
00000150: d92a 9ebd 4c1a b33d fb55 9a3d 64b6 71bc
00000160: 1b10 703c 61ff 39bd bb81 74bd 6369 8ebc
00000170: ed31 143e 4c9f 9a3b 6566 0ebe c6c2 33bd
00000180: 397e d9bd 0f60 523d 2485 b4bd 5f26 fdbd
00000190: 59d9 00bd 9c74 23bd 2bc3 b23d b86b 8dbd
000001a0: 1faf bfbd d939 163e ebde 05bd 53b2 02be
000001b0: 5548 903d 2900 4abc 6907 833b 6238 25bd
000001c0: e888 2ebd 4f9e 4f3d dfa5 babc 79cd 4abd
000001d0: 03b3 bb3c d0f5 2c3e 17f7 46bd 7754 53bd
000001e0: d42b 8f3b ef93 d7bc a60d 1bbe f19e cbbc
000001f0: d066 36bd 3c43 e8bc 7a3e b4bc 87a2 01be
00000200: af13 9a39 a3f0 6c3c 0dda fcbd a1fe a5bc
00000210: e302 92bd 405a afbd f420 dcbc 36bb 8b3c
00000220: 7474 bbbc 3a4b 7bba 145d b3bd 1853 0ebe
00000230: 1fd9 58bc e830 5d3d 70c7 e1b9 a4d5 3dbc
00000240: e5f4 873d d581 0fbe 3173 fe3d 2368 93bd
00000250: 6184 8dbd 102d 813d b4fd 0dbd d824 9f3d
00000260: e8a3 15bd d990 d7bd 45cb 1ebd 32a3 09be
00000270: 53a0 3abc 7772 233d a942 d7bc e44d fdbd
00000280: 9238 1abc 0baa 01bd ea94 09bd f140 f63c
00000290: 92e3 b6bc 84f5 a23c 31a6 78bd 6c49 103e
000002a0: 46cc 5dbd 4a13 9dbd 5956 1b3e b978 a9bb
000002b0: d5b4 06be e2d5 85bd da5e 43be 6d62 9dbd
000002c0: 9dbe 813c f1bd 813d ac47 e13c 9685 d63b
000002d0: 9375 c0bd fde7 57bd 665b 00be 5fc7 053d
000002e0: 82ec 0c3c 44ff 98bd f8a2 23be 1b13 60bc
000002f0: 58de 2d39 4ea2 a43d 0930 aa3c d349 293d
00000300: 8749 443e 507c a8bd 8e1e c3bd a78e 06be
00000310: 2591 7bbd f21d a9bd 405d da3d 7236 cfbd
00000320: 34be f93c 80c0 37bd 4991 a33c 93a2 43bb
00000330: e553 933d 521f c5bd 4461 27be 467c 23be
00000340: 959c 113d 4046 4abc 4215 723d 2c83 abbd
00000350: 2665 a3bc c33d a23d e5f5 9dbb 4739 68bd
00000360: fcf0 f93d e6d7 953d 43ff 53bd ebeb d3bd
00000370: 9780 243d 3824 16be 3778 9b3c f541 ec3a
00000380: 63f8 8a3d 0562 d3bd f6aa 843d f80f 5cbc
00000390: 10ce 10be 7844 333c a4a0 38bd b90c 4c3d
000003a0: 906b e7bd cd1d e3bd bcf6 2abe 5248 c2bd
000003b0: b572 a1bd 2e51 7a3d a66f d93d 2d4d 1a3d
000003c0: c5cd 43bd 5442 9cbd 02b3 0a3d 1c26 813d
000003d0: 1a09 1d3e f79d e1bd 5d79 623d 8b8a dd3d
000003e0: 63ce b5bd 72b9 3bbd c9fc 663d 7b81 873d
000003f0: 2dcd d03c 5678 a8bd b34d 65bc 2f15 29be

shared_net.2.bias f4 [128]
-0.062508725 -0.15173313 -0.069188654 -0.037583508 -0.034414362 0.0452275 -0.0008443084 0.018547667
0.0339804 0.033536337 -0.017923078 -0.16370453 -0.15694076 -0.058603834 -0.20793764 -0.0925755
-0.07196533 0.010523523 -0.045782596 0.062082298 0.06152068 0.048648886 -0.099393696 -0.05206871
0.034995675 -0.08764133 0.024549851 -0.087651365 -0.079746075 -0.002563933 -0.05101729 0.06520362
-0.0069838595 0.049160518 0.008247562 -0.052821107 0.017603032 -0.10067616 0.004523925 -0.13129935
-0.10600076 0.024687173 0.0009250115 -0.09758729 0.07980466 -0.11618863 -0.004310106 0.042755317
-0.036305267 0.0037064399 -0.06503948 0.044699233 -0.18870255 0.03575392 -0.15871687 -0.078435205
-0.15799892 -0.034202695 -0.01785343 -0.18595597 0.003648093 -0.028185148 -0.047746856 -0.12747094
-0.120614685 -0.10231711 0.021172099 -0.041658618 -0.018244032 -0.10514069 -0.022269975 0.023162816
0.03769959 0.06846255 -0.13610564 0.06616515 -0.04880721 0.002999667 -0.060356986 -0.047598165
0.10705549 -0.1059344 -0.026178187 -0.12530941 0.014665709 -0.078530595 -0.0064743366 -0.06967598
-0.0067355204 -0.109711885 0.050865576 0.015456255 -0.09751492 -0.03733795 -0.09191084 0.058253843
-0.13027562 0.008358343 0.087639675 -0.102459356 -0.032531135 -0.06900704 -0.066240914 -0.025834134
-0.10963695 -0.10322875 -0.09401338 -0.103137575 0.06130235 0.014618611 -0.14656095 -0.072169065
-0.1051425 -0.044549555 -0.015720056 -0.03626379 -0.18783605 -0.16570179 -0.12251722 -0.034555767
-0.03578402 -0.13255224 -0.043760575 -0.09305565 0.0824385 -0.1301807 0.031711172 0.09476603
00000000: 9304 80bd ee5f 1bbe c8b2 8dbd 2af1 19bd
00000010: 13f6 0cbd 7940 393d 9454 5dba 47f1 973c
00000020: 082f 0b3d 665d 093d 6bd3 92bc 29a2 27be
00000030: 14b5 20be 930a 70bd 9bed 54be 3998 bdbd
00000040: 8f62 93bd db6a 2c3c 8886 3bbd 024a 7e3d
00000050: 1cfd 7b3d 0e44 473d ec8e cbbd 0046 55bd
00000060: a057 0f3d 4c7d b3bd c51c c93c 8f82 b3bd
00000070: e951 a3bd a807 28bb 82f7 50bd 7a89 853d
00000080: dcd8 e4bb 8a5c 493d c820 073c f25a 58bd
00000090: 3c34 903c 4d2f cebd 6f3d 943b 5673 06be
000000a0: ed16 d9bd c13c ca3c 797c 723a d8db c7bd
000000b0: a070 a33d 4ef4 edbd ca3b 8dbb 3320 2f3d
000000c0: d5b4 14bd bee7 723b 6b33 85bd 8b16 373d
000000d0: 3e3b 41be b472 123d ad86 22be a3a2 a0bd
000000e0: 78ca 21be 2018 0cbd 5b41 92bc 3e6b 3ebe
000000f0: d814 6f3b 8ae4 e6bc 3592 43bd be87 02be
00000100: d504 f7bd a28b d1bd 1c71 ad3c 3aa2 2abd
00000110: 8274 95bc 0154 d7bd 866f b6bc f2bf bd3c
00000120: e36a 1a3d 1836 8c3d 475f 0bbe 9881 873d
00000130: 12ea 47bd 1096 443b e338 77bd 4bf6 42bd
00000140: e93f db3d 22f4 d8bd a373 d6bc 1c51 00be
00000150: 7148 703c a6d4 a0bd ac26 d4bb 48b2 8ebd
00000160: a4b5 dcbb a0b0 e0bd 6c58 503d 3b3c 7d3c
00000170: e7b5 c7bd aeef 18bd c03b bcbd 959b 6e3d
00000180: f966 05be 6ef1 083c 6e7c b33d 36d6 d1bd
00000190: 5e3f 05bd 9053 8dbd 51a9 87bd 1ba2 d3bc
000001a0: 5689 e0bd 9869 d3bd 168a c0bd cb39 d3bd
000001b0: 2c18 7b3d e682 6f3c 1314 16be 60cd 93bd
000001c0: f354 d7bd 9879 36bd 59c7 80bc 5789 14bd
000001d0: 1858 40be bbad 29be 4fea fabd 598a 0dbd
000001e0: 4492 12bd c6bb 07be 4a3e 33bd f693 bebd
000001f0: 84d5 a83d 174e 05be 93e3 013d b114 c23d

to_mean.0.weight f4 [64, 128]
0.032383386 0.033292074 0.020954367 0.038862247 -0.03412972 -0.06770879 -0.015818276 -0.07024631
-0.051610135 -0.05131604 -0.002451624 0.050144505 -0.030848578 -0.1691742 -0.030647624 0.0921011
0.0072797798 -0.062279884 0.017506668 0.0627768 0.0043907873 -0.051927865 -0.008804988 0.061158147
0.0355606 -0.018524762 0.014176976 0.08787447 -0.054114632 -0.03465145 0.03121709 -0.065377
0.0056333747 -0.0341856 0.00020211338 -0.020207692 -0.06838389 -0.0026702909 -0.07915307 -0.08266232
0.016354244 -0.033801693 0.02403753 0.021681292 0.03564131 0.062826216 -0.039051168 -0.034717653
-0.0213634 -0.018294657 -0.059803408 0.10159063 0.018128272 0.029629204 0.010495379 -0.041440964
-0.028207684 0.072209 -0.07089034 0.04205348 0.039633982 0.005448268 -0.03911375 -0.097264886
-0.04940029 -0.071138166 0.1012649 0.058795657 0.041364826 0.0073112035 -0.02772496 -0.0035137008
0.033926364 -0.07053101 0.0030367589 0.0110371355 -0.106394686 2.4306604e-05 0.0021479428 0.039506983
0.045283057 0.07923538 -0.10795773 0.067264624 -0.15346012 -0.07136099 0.08920927 -0.00431065
0.012539184 -0.101863295 -0.02738223 -0.042518485 -0.030603554 0.056300666 0.0018462376 -0.027037427
0.00959437 -0.047774456 -0.011296863 0.05147808 -0.023113444 0.04190426 -0.014895543 0.016967628
-0.074199274 -0.028725423 -0.017832868 -0.04636552 -0.014304811 -0.021418577 -0.07619633 0.044870067
-0.038467597 -0.03413859 -0.06732531 -0.030755222 0.010271343 0.020528493 -0.060831815 0.0013108607
-0.0012819759 0.040580705 -0.050793175 0.031873357 -0.0061623664 0.0132599035 -0.09169938 0.052928768
0.06260923 -0.023520913 0.012641336 0.04432021 0.028796699 -0.030488925 0.008418753 -0.016570523
0.08410974 0.02144082 0.02788953 -0.107983656 -0.036578514 -0.12565364 -0.049285747 -0.043286826
-0.037834704 0.106064476 0.032917693 -0.062033758 0.022118757 -0.07923961 -0.023404226 -0.11635686
-0.033834457 0.014261489 -0.071606174 -0.04276873 -0.07014409 0.051460437 0.013345112 -0.023669332
0.07318945 0.0007317652 -0.0068414933 -0.06343175 -0.052745968 0.043242026 0.0024788694 0.10478457
-0.043121405 -0.029273214 0.030186094 0.024768548 0.015326468 -0.016436009 -0.09661986 0.056680173
-0.073787846 -0.014234145 0.030798705 -0.055564262 0.05615208 -0.061191905 0.037669607 0.0030639705
-0.0314705 -0.0623378 0.01736552 -0.070770115 -0.030891161 -0.09159591 0.021624818 0.0032810238
-0.020125303 0.07511912 0.033634186 0.05510222 0.04340997 0.04139999 -0.08743192 -0.008936838
0.0263232 -0.013412711 -0.045716476 0.008369296 -0.19207832 0.036639147 -0.031565342 -0.017054744
0.015685456 -0.108198345 0.014826964 0.10707325 -0.048735972 -0.017333807 -0.0071496507 -0.09754662
-0.0009043596 -0.014245298 -0.026539953 0.13122866 0.05243753 0.06326897 0.009826584 -0.02387131
-0.024578588 0.027733501 -0.03350242 0.043039188 0.10152829 0.0725225 -0.039856743 0.04999732
0.033704348 0.048700385 -0.039336756 0.0021118282 0.032567635 -0.013039154 0.07559248 -0.028084887
-0.032256898 0.12527195 -0.021708101 0.06746475 -0.07872109 -0.02055312 -0.07142158 -0.046550024
-0.037418198 -0.038333397 -0.03631538 0.009147716 0.041927233 0.03938444 -0.08410969 -0.0014558245
00000000: 71a4 043d 455d 083d 7ea8 ab3c 052e 1f3d
00000010: 9bcb 0bbd e8aa 8abd 5495 81bc 4cdd 8fbd
00000020: 2665 53bd c530 52bd 6dab 20bb 5364 4d3d
00000030: 28b6 fcbc 003c 2dbe ba10 fbbc 809f bc3d
00000040: 388b ee3b 3119 7fbd 256a 8f3c 1f91 803d
00000050: 98e0 8f3b 50b2 54bd cc42 10bc f780 7a3d
00000060: fea7 113d 3ec1 97bc 8c46 683c 88f7 b33d
00000070: 4ea7 5dbd aeee 0dbd fcba ff3c 60e4 85bd
00000080: 2c98 b83b 3306 0cbd 66ee 5339 9a8a a5bc
00000090: da0c 8cbd 0c00 2fbb 011b a2bd dd4a a9bd
000000a0: 56f9 853c a573 0abd 5bea c43c f79c b13c
000000b0: 9ffc 113d 08ab 803d 1ef4 1fbd 1934 0ebd
000000c0: 4c02 afbc adde 95bc 6bf4 74bd c00e d03d
000000d0: be81 943c f2b8 f23c cff4 2b3c 00be 29bd
000000e0: cd13 e7bc 50e2 933d f42e 91bd 4540 2c3d
000000f0: 3e57 223d 6287 b23b bd35 20bd d032 c7bd
00000100: f557 4abd e3b0 91bd f963 cf3d b7d3 703d
00000110: 2a6e 293d d292 ef3b 751f e3bc 1e46 66bb
00000120: 5ff6 0a3d 9072 90bd 5c04 473b 1ad5 343c
00000130: 75e5 d9bd 09e6 cb37 80c4 0c3b 13d2 213d
00000140: ba7a 393d 2946 a23d f118 ddbd 09c2 893d
00000150: a624 1dbe b625 92bd 5ab3 b63d 5a40 8dbb
00000160: 2671 4d3c b49d d0bd b350 e0bc dd27 2ebd
00000170: 4eb4 fabc 879b 663d 74fd f13a 987d ddbc
00000180: b431 1d3c 26af 43bd 7a16 39bc aeda 523d
00000190: 6858 bdbc cda3 2b3d 700c 74bc b2ff 8a3c
000001a0: caf5 97bd 9451 ebbc 3c16 92bc c6e9 3dbd
000001b0: ba5e 6abc 0376 afbc d20c 9cbd adc9 373d
000001c0: 3390 1dbd e8d4 0bbd dae1 89bd 60f2 fbbc
000001d0: 2349 283c 5f2b a83c c82a 79bd 30d1 ab3a
000001e0: f907 a8ba f437 263d 810c 50bd a38d 023d
000001f0: aded c9bb 1140 593c e2cc bbbd d6cb 583d
00000200: 4539 803d eeae c0bc 9b1d 4f3c 1c89 353d
00000210: 0ee7 eb3c e9c3 f9bc cfee 093c e8be 87bc
00000220: ba41 ac3d a9a4 af3c 9578 e43c 8926 ddbd
00000230: 5ad3 15bd 59ab 00be dadf 49bd 874d 31bd
00000240: 90f8 1abd 5538 d93d b4d4 063d 1c17 7ebd
00000250: 6532 b53c 6048 a2bd 38ba bfbc 814c eebd
00000260: 0096 0abd 05a9 693c 42a6 92bd 442e 2fbd
00000270: b4a7 8fbd 2ec8 523d 75a5 5a3c 30e6 c1bc
00000280: 5ae4 953d eed3 3f3a 9b2e e0bb 81e8 81bd
00000290: 280c 58bd 8d1e 313d 8774 223b 4b99 d63d
000002a0: 12a0 30bd 61ce efbc d448 f73c 69e7 ca3c
000002b0: de1b 7b3c cfa4 86bc a2e0 c5bd 7829 683d
000002c0: 151e 97bd 5536 69bc 914d fc3c 5a97 63bd
000002d0: b9ff 653d 5da4 7abd 724b 1a3d e5cc 483b
000002e0: 36e7 00bd ec55 7fbd 2342 8e3c ecef 90bd
000002f0: 760f fdbc a396 bbbd 8826 b13c 7206 573b
00000300: d2dd a4bc 0ed8 993d 00c4 093d deb2 613d
00000310: a7ce 313d 0993 293d 820f b3bd d16b 12bc
00000320: c0a3 d73c fdc0 5bbc 3341 3bbd 5f1f 093c
00000330: 2eb0 44be ee12 163d a94a 01bd 64b6 8bbc
00000340: c97e 803c 1897 ddbd cbec 723c 3849 db3d
00000350: 5f9f 47bd a1ff 8dbc 9e47 eabb 86c6 c7bd
00000360: 8c12 6dba 1c65 69bc 516a d9bc ce60 063e
00000370: bcc8 563d 2993 813d aeff 203c c48d c3bc
00000380: 0959 c9bc 5e31 e33c d539 09bd dc49 303d
00000390: 10ee cf3d ad86 943d d340 23bd fdc9 4c3d
000003a0: 920d 0a3d 0e7a 473d 941f 21bd 9966 0a3b
000003b0: a465 053d 2da2 55bc 3bd0 9a3d 4712 e6bc
000003c0: cf1f 04bd 4a47 003e 30d5 b1bc f52a 8a3d
000003d0: 8638 a1bd 045f a8bc 7a45 92bd 3dab 3ebd
000003e0: d343 19bd 7b03 1dbd 70bf 14bd 4de0 153c
000003f0: e4bb 2b3d 9451 213d b341 acbd 5dd1 beba

to_mean.0.bias f4 [64]
-0.017211495 -0.09876742 0.058002457 -0.06724857 -0.044735275 -0.053759206 0.05282113 -0.021954058
-0.08010387 -0.014681156 -0.014674784 0.0023942378 0.0553079 0.04492145 0.012165347 -0.0622061
0.07261402 0.047056865 0.009397979 0.009847158 -0.035622958 -0.014337194 -0.018662661 0.005323104
-0.048188403 0.009369725 -0.13641389 -0.032598585 -0.0059788525 0.064720534 0.057173293 0.0027889323
-0.041672215 -0.041431777 0.044665735 0.026453964 0.03793082 0.06458413 -0.06046794 -0.012683259
0.07009454 0.015936695 0.004675743 0.05468164 0.11246105 -0.06320582 -0.071317166 -0.05083499
0.022218915 -0.002020934 -0.083972804 -0.06591068 -0.05317225 -0.06682283 -0.07720113 -0.08899783
0.0048910785 0.06709154 0.05648251 -0.08245053 0.005424716 -0.057988036 0.02796338 0.04799695
00000000: 1fff 8cbc 9346 cabd fc93 6d3d 9eb9 89bd
00000010: 563c 37bd 9d32 5cbd f85a 583d ffd8 b3bc
00000020: 7f0d a4bd 3b89 70bc 816e 70bc a5e8 1c3b
00000030: 898a 623d 8eff 373d 2a51 473c d3cb 7ebd
00000040: a9b6 943d b3be 403d fbf9 193c f955 213c
00000050: 61e9 11bd 8de6 6abc 70e2 98bc 6f6d ae3b
00000060: 3461 45bd 7a83 193c 15b0 0bbe 1886 05bd
00000070: 40ea c3bb 338c 843d 8b2e 6a3d 85c6 363b
00000080: 7cb0 2abd 5eb4 29bd 6bf3 363d fcb5 d83c
00000090: 595d 1b3d af44 843d 3bad 77bd 72cd 4fbc
000000a0: ba8d 8f3d ac8d 823c fa36 993b dbf9 5f3d
000000b0: fb51 e63d 0e72 81bd bc0e 92bd 5a38 50bd
000000c0: 7104 b63c a571 04bb eff9 abbd 2efc 86bd
000000d0: 25cb 59bd 68da 88bd a01b 9ebd 7f44 b6bd
000000e0: 5745 a03b 4a67 893d 345a 673d d3db a8bd
000000f0: d1c1 b13b dd84 6dbd 7513 e53c 7398 443d

to_mean.2.weight f4 [18, 64]
-0.014594221 0.0055892714 -0.00019580487 0.00062234316 0.014017216 0.017289115 0.015502082 -0.0020301898
-0.012027799 0.0072889696 0.004906125 -0.00033703638 0.013270486 -0.0021672233 0.0060656364 -0.009849965
-0.009691273 0.003936926 0.0050314534 0.0017922692 -0.015087975 0.0083164135 -0.0032418268 0.016675021
-0.011175348 -0.0014960532 -0.0216862 -0.000703267 -0.0029394308 -0.019428274 -0.005778982 -0.009246271
-0.0022134904 -0.012861476 -0.0065592784 -0.017595971 -8.9934176e-05 -0.012758146 0.0025509796 0.013505202
-0.006564556 0.032066308 -0.0004003736 -0.006796272 -0.0003274282 0.01080949 -0.0036941615 0.042622853
-0.0036226616 -0.025151469 0.014117876 0.006394802 -0.00693788 0.0018312639 0.022846112 -0.011134686
-0.0011978335 0.0047870073 -0.0017066206 -0.007221301 0.0038294594 0.006851529 0.018922053 -0.0043490725
0.08357787 -0.007948202 -0.0015094988 -0.003914092 -0.012196872 0.014623321 -0.008140195 -0.0040652817
0.023509065 0.0014777912 -0.030524941 0.0011921086 -0.0069853747 0.0049662967 -0.011701394 0.00052530156
0.0067846007 0.008919259 0.0016264946 -0.0027413021 0.04802474 -0.017253801 -0.007245131 -0.027261194
-0.0025025087 -0.0010815475 0.028846292 0.00065477187 -0.03216545 -0.013150204 -0.006931193 0.0009900356
0.002079654 0.02651309 -0.004104698 -0.015978813 -0.00395625 -0.008523318 0.0018968862 -0.0027365168
0.0067965756 0.053605508 0.0030542447 0.0004009516 0.0020165842 -0.009698826 -0.000820951 0.017501386
0.014185857 0.038162347 0.007018694 -0.0002649228 -0.018990166 -0.0022625835 0.016100476 -0.011597004
0.000662121 0.0010345208 0.00011708517 0.0009764003 0.0012368317 0.0009630547 -0.0045224996 -0.0012301091
0.011848863 -0.008161079 -0.003217332 -0.00419467 -0.014457599 0.021918954 0.014144736 -0.0012178387
-0.02582932 0.009782842 -0.0052935663 -0.0049094255 -0.009233991 -0.004073196 -0.01096531 0.02595263
-0.013713407 0.0062437556 0.0036031452 -0.006976257 -0.042016108 0.030889245 -0.010053196 -0.028262695
0.010544358 0.0016284329 0.001572358 0.0010467538 -0.04907244 -0.00813081 0.0012659732 -0.0018209007
-0.00030968897 -0.013529313 0.0036984787 -0.024011245 0.0005549925 0.008194066 -2.5977379e-05 -0.0027091969
-0.024467845 0.031802256 -0.011031529 -0.0013287292 -0.0019130848 0.006040939 -0.009577344 -0.0059155687
0.005331999 -0.015865393 0.009044075 -0.014753032 0.0016114326 0.0045090034 -0.03520165 -0.0014918048
0.0008541976 0.0009600515 0.0023675498 -0.0027117883 0.003394193 -0.0152866 0.0027262717 -0.006639698
-0.014601774 -0.008192986 0.00607041 0.0069447774 0.01689887 0.033802435 0.007705734 -0.01674191
0.009422219 -0.00080184976 -0.009239956 0.007982271 0.012221279 -0.008316533 0.00223171 0.0059652883
-0.008176055 -0.009438007 0.017633539 0.0049966844 -0.031111527 -0.034329534 -0.003629644 -0.017418401
0.008211248 0.006486415 -0.006487822 0.0018506156 -0.0063938117 0.005940061 0.010180187 0.010637002
0.003616292 0.04044012 -0.0060628452 0.00803522 -0.004699105 -0.0055200187 0.0010825495 0.0054103937
-0.023403548 0.030561863 -0.010059525 0.0013756482 0.002032671 -0.005932734 -0.0013850193 0.06335537
0.0018729003 0.018056236 -0.0033773386 0.022784343 -3.8253176e-05 -0.0068804626 -0.057107903 0.010332012
0.0067777657 -0.0046207746 0.0029521734 -0.0033897397 0.004259475 0.0012088224 -0.011177643 -0.00030296273
00000000: 991c 6fbc 3526 b73b f850 4db9 be24 233a
00000010: 77a8 653c e7a1 8d3c 72fc 7d3c ef0c 05bb
00000020: 3f10 45bc 4fd8 ee3b 8fc3 a03b 42b4 b0b9
00000030: 746c 593c f907 0ebb 3fc2 c63b bf61 21bc
00000040: 25c8 1ebc 5401 813b e4de a43b 93ea ea3a
00000050: 8e33 77bc 9141 083c d474 54bb 0e9a 883c
00000060: cf18 37bc 3717 c4ba 42a7 b1bc 735b 38ba
00000070: 77a3 40bb 0b28 9fbc 9d5d bdbb ac7d 17bc
00000080: 3510 11bb f1b8 52bc 37ef d6bb 6d25 90bc
00000090: 0b9b bcb8 8b07 51bc 562e 273b ec44 5d3c
000000a0: 7d1b d7bb f657 033d 3ce9 d1b9 43b3 debb
000000b0: abaa abb9 4a1a 313c bf19 72bb 4d95 2e3d
000000c0: 2d6a 6dbb 740a cebc aa4e 673c 7d8b d13b
000000d0: 2857 e3bb 0507 f03a c527 bb3c 426e 36bc
000000e0: 9f00 9dba 54dc 9c3b afb0 dfba aaa0 ecbb
000000f0: abf7 7a3b ca82 e03b 6c02 9b3c aa82 8ebb
00000100: e02a ab3d 2d39 02bc 60da c5ba c941 80bb
00000110: 64d5 47bc a796 6f3c 745e 05bc 0e36 85bb
00000120: 1596 c03c 72b2 c13a 710f fabc 8740 9c3a
00000130: 92e5 e4bb 51bc a23b 34b7 3fbc 64b4 093a
00000140: 5b51 de3b 1522 123c 1a30 d53a 6ba7 33bb
00000150: 97b5 443d d857 8dbc 9068 edbb de52 dfbc
00000160: 2101 24bb b6c2 8dba 0f4f ec3c ffa4 2b3a
00000170: ebbf 03bd f473 57bc 101f e3bb 15c4 813a
00000180: ce4a 083b fb31 d93c b480 86bb 00e6 82bc
00000190: 6ea3 81bb 63a5 0bbc f0a0 f83a 2257 33bb
000001a0: cfb5 de3b 7391 5b3d b929 483b d036 d239
000001b0: ab28 043b d3e7 1ebc 1735 57ba 115f 8f3c
000001c0: cc6b 683c 1f50 1c3d 13fd e53b 56e5 8ab9
000001d0: 4491 9bbc da47 14bb 25e5 833c 5c01 3ebc
000001e0: 3092 2d3a c298 873a 9f8b f538 1df5 7f3a
000001f0: 2f1d a23a 8275 7c3a 7a31 94bb 9d3b a1ba
00000200: bc21 423c 0cb6 05bc e0d9 52bb 7173 89bb
00000210: 91df 6cbc 618f b33c 53bf 673c e39f 9fba
00000220: 0398 d3bc 3748 203c a775 adbb 3fdf a0bb
00000230: 2a4a 17bc 7278 85bb d8a7 33bc 9c9a d43c
00000240: 33ae 60bc 6b98 cc3b bf22 6c3b 1699 e4bb
00000250: 1519 2cbd 710b fd3c 29b6 24bc 2b87 e7bc
00000260: 3ec2 2c3c 2471 d53a 9417 ce3a 3b33 893a
00000270: 2f00 49bd 1737 05bc 03ef a53a 4aab eeba
00000280: c05d a2b9 0daa 5dbc 2d62 723b 3bb3 c4bc
00000290: eb7c 113a 6740 063c ffe9 d9b7 c88c 31bb
000002a0: ca70 c8bc 1543 023d 96bd 34bc c128 aeba
000002b0: 79c0 faba 12f3 c53b 4bea 1cbc 63d7 c1bb
000002c0: 0db8 ae3b 24f8 81bc 9a2d 143c b3b6 71bc
000002d0: b536 d33a 43c0 933b 9b2f 10bd aa88 c3ba
000002e0: 3bec 5f3a f7ab 7b3a e528 1b3b 42b8 31bb
000002f0: 1c71 5e3b a674 7abc 40ab 323b d391 d9bb
00000300: 473c 6fbc e03b 06bc 4aea c63b 0491 e33b
00000310: 806f 8a3c 6c74 0a3d 6280 fc3b 5426 89bc
00000320: a75f 1a3c 3a33 52ba 2f63 17bc 12c8 023c
00000330: c23b 483c 1142 08bc e141 123b 7778 c33b
00000340: dcf4 05bc dfa1 1abc 3674 903c 3abb a33b
00000350: 9add febc 209d 0cbd 52df 6dbb 09b1 8ebc
00000360: 7888 063c fe8b d43b cc97 d4bb 5b90 f23a
00000370: 2e83 d1bb d8a4 c23b cdca 263c d246 2e3c
00000380: 50ff 6c3b 8aa4 253d d5aa c6bb 28a6 033c
00000390: f3fa 99bb 46e1 b4bb 55e4 8d3a ac49 b13b
000003a0: ccb8 bfbc df5c fa3c b5d0 24bc 184f b43a
000003b0: 8f36 053b 6167 c2bb 8989 b5ba 76c0 813d
000003c0: 1b7c f53a acea 933c 5756 5dbb 3ba6 ba3c
000003d0: 0972 20b8 8175 e1bb fae9 69bd 9947 293c
000003e0: 0518 de3b de69 97bb 4079 413b 6526 5ebb
000003f0: 1193 8b3b 5971 9e3a 6f22 37bc f8d6 9eb9

to_mean.2.bias f4 [18]
0.04214535 0.08136242 -0.017382748 0.069223076 0.10442817 0.046115708 0.0525126 0.120908454
0.111620106 0.0788042 0.06483093 0.069038846 -0.038191114 0.08618971 -0.014050657 -0.01500893
0.07481502 -0.037483558
00000000: 9aa0 2c3d 57a1 a63d 4466 8ebc d4c4 8d3d
00000010: 70de d53d d3e3 3c3d 7417 573d da9e f73d
00000020: 1599 e43d 1964 a13d 14c6 843d 3d64 8d3d
00000030: 496e 1cbd 3b84 b03d ba34 66bc 04e8 75bc
00000040: 9e38 993d 5c88 19bd

to_value.0.weight f4 [64, 128]
-0.22965734 0.73622423 -0.26440415 0.283947 -0.31880188 -0.3527178 0.043849807 -0.11879029
-0.15791662 0.12958819 -0.35928595 0.3170654 0.3355672 0.052233744 0.8561411 0.24211384
0.17656381 0.31999362 0.18277979 -0.0031161339 -0.14391112 -0.6578698 -0.04116147 -0.18634766
0.024496531 0.085452944 -0.43752897 0.27718392 0.26754272 -0.16139933 0.2178255 -0.1559189
-0.43868306 -0.18924388 -0.0437461 0.04037511 0.034826588 -0.3178015 -0.4854174 0.4098548
0.056552045 -0.26261055 -0.1355646 -0.36435553 0.66887593 0.058139697 0.10300873 0.009520122
-0.14185382 -0.4855788 0.0057342183 0.11819273 0.2885729 0.71343166 0.004504935 -0.08141672
0.43121096 0.09893042 -0.060383588 0.2328929 0.16430977 -0.38770607 0.1686007 0.56433433
-0.18022057 -0.020026917 0.15775645 0.25291154 -0.20396735 -0.0006044888 0.029775128 -0.3002522
-0.2170367 -0.022898866 0.107501864 0.19925101 0.06358728 0.53456944 -0.25737825 -0.11590268
-0.25895306 0.26140675 0.030907337 -0.02393847 -0.16604054 -0.22730193 -0.28408617 0.060028814
-0.015481512 -0.03222732 1.3690718 0.28729782 0.03325636 0.16824888 -0.45245647 0.055933025
0.07316197 -0.501114 0.36821127 0.72147995 -0.26890394 -0.22082922 0.34307015 0.23997246
1.0328997 0.7569982 0.036902435 -0.00733791 0.03759424 -0.056113303 0.55690956 -0.21776903
0.02339361 0.05590973 -0.09167895 -0.09613404 0.5895892 0.42187715 0.26181066 -0.2673034
0.10692935 0.9756025 0.4473344 0.33218572 0.14037658 1.2707618 0.35143244 -0.018727405
-0.4097371 -0.1884662 0.49370798 0.1746488 -0.43794218 0.64078665 0.5451814 1.2898759
-0.15745828 -0.34154725 -0.25771707 -0.2953004 -0.45736793 0.13825656 -0.15200834 -0.2619788
-0.36886573 0.4845861 -0.16762854 0.21443436 0.9537709 0.6118845 -0.25475922 0.049283557
0.5398485 -0.06445216 -0.7259647 -0.51193553 -0.010592525 -0.25907105 1.2099997 0.15617514
1.112133 -0.5038488 0.15848672 0.762077 1.0359557 -0.3613225 0.73547375 -0.04927362
-0.28365168 0.50582093 0.27387923 -0.33952257 0.61135787 0.00034965208 0.21473531 0.62282526
-0.17039467 -0.98293686 -0.060637973 0.5766077 -0.0400992 0.31657335 -0.13188381 -0.075865306
-0.059741374 0.9416637 -0.38641912 -0.14620909 0.7144465 -0.082633086 -0.2188069 -0.14488487
-0.47500464 -0.15779679 0.96952635 -0.19327487 -0.52150166 -0.15695016 0.21687867 -0.31609276
0.2287821 0.38222075 -0.121211216 0.7555059 -0.08706547 -0.2791502 -0.40718362 0.087186284
0.19357452 -0.09614908 -0.034302983 0.003956902 0.09727656 1.2100223 0.3739657 0.70486104
0.835498 -0.0895293 -0.11172165 0.07427584 -0.14475486 -0.536942 -0.29395407 0.9215081
-0.087239556 0.20242736 0.8868125 -0.19676231 -0.43542314 -0.45533708 0.35665533 -0.15147226
-0.36992672 -0.18278418 0.03158889 0.076182544 0.6085548 0.43178838 -0.24989356 -0.26284733
-0.58594257 0.98281926 0.24273893 -0.06768994 -0.13417166 -0.30608705 -0.123097025 -0.69758624
0.8455239 -0.2621232 -0.19904418 0.06986349 0.90610224 -0.1378918 0.60089517 0.8273598
00000000: 4b2b 6bbe 3179 3c3f fb5f 87be 8061 913e
00000010: 003a a3be 6d97 b4be db9b 333d 5348 f3bd
00000020: e5b4 21be c4b2 043e 54f4 b7be 6556 a23e
00000030: 77cf ab3e 0df3 553d 102c 5b3f b1ec 773e
00000040: 25cd 343e 34d6 a33e a02a 3b3e 0d38 4cbb
00000050: 705d 13be 286a 28bf ee98 28bd ecd1 3ebe
00000060: f3ac c83c f401 af3d cc03 e0be 0deb 8d3e
00000070: 5cfb 883e de45 25be a60d 5f3e 34a9 1fbe
00000080: 119b e0be 26c9 41be 1c2f 33bd 5f60 253d
00000090: 53a6 0e3d e1b6 a2be a188 f8be 7dd8 d13e
000000a0: 1ea3 673d e474 86be 72d1 0abe cf8c babe
000000b0: 743b 2b3f e423 6e3d 3ef6 d23d 49fa 1b3c
000000c0: 2142 11be c99d f8be 1ce6 bb3b 080f f23d
000000d0: d4bf 933e 75a3 363f 229e 933b cfbd a6bd
000000e0: afc7 dc3e 089c ca3d c854 77bd 7a7b 6e3e
000000f0: d240 283e 6981 c6be a9a5 2c3e 3778 103f
00000100: be8b 38be 7d0f a4bc e88a 213e 9f7d 813e
00000110: d1dc 50be 8f76 1eba f8ea f33c a8ba 99be
00000120: de3e 5ebe 6796 bbbc f029 dc3d 7508 4c3e
00000130: 0c3a 823d 8bd9 083f 15c7 83be 625e edbd
00000140: 7f95 84be 1bd7 853e 6231 fd3c 9c1a c4bc
00000150: 8806 2abe d6c1 68be be73 91be c6e0 753d
00000160: 2ba6 7dbc cb00 04bd bf3d af3f b318 933e
00000170: d237 083d 6f49 2c3e 60a8 e7be 071a 653d
00000180: f1d5 953d 0249 00bf 3086 bc3e e9b2 383f
00000190: c7ad 89be 0e21 62be e4a6 af3e 57bb 753e
000001a0: 0f36 843f a2ca 413f 0227 173d da72 f0bb
000001b0: 6bfc 193d 10d7 65bd a091 0e3f d8fe 5ebe
000001c0: f5a3 bf3c 9a01 653d 2cc2 bbbd ece1 c4bd
000001d0: 51ef 163f 4800 d83e 0c0c 863e fedb 88be
000001e0: c6fd da3d 16c1 793f 0409 e53e 3f14 aa3e
000001f0: e1be 0f3e 53a8 a23f f4ee b33e 376a 99bc
00000200: 10c9 d1be 49fd 40be 4bc7 fc3e 23d7 323e
00000210: f539 e0be 980a 243f 0291 0b3f a71a a53f
00000220: be3c 21be 48df aebe 7ef3 83be 9d31 97be
00000230: 212c eabe 2193 0d3e 13a8 1bbe 1622 86be
00000240: f8db bcbe ab1b f83e d1a6 2bbe ae94 5b3e
00000250: 542a 743f 76a4 1c3f cd6f 82be 8edd 493d
00000260: 8333 0a3f 7eff 83bd d3d8 39bf 350e 03bf
00000270: 458c 2dbc f6a4 84be 45e1 9a3f 60ec 1f3e
00000280: 605a 8e3f 3cfc 00bf 584a 223e 7a17 433f
00000290: 329a 843f 43ff b8be 0248 3c3f 23d3 49bd
000002a0: cb3a 91be 7b7d 013f e639 8c3e e7d5 adbe
000002b0: f381 1c3f 8251 b739 93e3 5b3e 7a71 1f3f
000002c0: f17b 2ebe c0a1 7bbf 865f 78bd 909c 133f
000002d0: 0f3f 24bd e715 a23e 8d0c 07be 455f 9bbd
000002e0: 5fb3 74bd df10 713f bad8 c5be d6b7 15be
000002f0: f7e5 363f 893b a9bd ea0e 60be b35c 14be
00000300: cf33 f3be 7b95 21be e132 783f d9e9 45be
00000310: 2281 05bf 8bb7 20be 7115 5e3e e9d6 a1be
00000320: db45 6a3e 70b2 c33e 963d f8bd d668 413f
00000330: 624f b2bd c6ec 8ebe 5f7a d0be b98e b23d
00000340: 6638 463e cfe9 c4bd 4981 0cbd e6a8 813b
00000350: ef38 c73d 03e2 9a3f 6f78 bf3e c671 343f
00000360: 32e3 553f 235b b7bd 52ce e4bd ee1d 983d
00000370: 9e3a 14be 0875 09bf 2681 96be f4e7 6b3f
00000380: a7aa b2bd 1e49 4f3e 2506 633f 0f7c 49be
00000390: c8ef debe f121 e9be 879b b63e 8b1b 1bbe
000003a0: 0967 bdbe c72b 3bbe 5a63 013d 9805 9c3d
000003b0: 3fca 1b3f 5e13 dd3e 19e4 7fbe ed93 86be
000003c0: 5500 16bf 0b9a 7b3f 8e90 783e 06a1 8abd
000003d0: 4c64 09be 71b7 9cbe 4b1a fcbd 0395 32bf
000003e0: 4174 583f 0335 86be 3dd2 4bbe 9714 8f3d
000003f0: 51f6 673f 8233 0dbe 44d4 193f dacd 533f

to_value.0.bias f4 [64]
-0.1695232 0.023079446 0.26022264 0.32183385 0.42118704 -0.10102515 -0.14529333 0.41593727
0.2836752 0.43862125 -0.07852358 -0.11820969 0.27699727 0.44162548 0.32742685 0.27829197
-0.10616956 -0.047082845 0.451948 -0.063775815 -0.11193061 0.2846432 0.30768958 -0.14321546
0.391793 -0.08546431 0.29875854 0.3049638 -0.2943207 0.26808998 0.3741248 0.37892827
0.28114268 0.41402394 -0.17649429 -0.11700633 0.34261256 0.14696719 -0.1315422 0.3492796
0.3516527 -0.028397033 0.38110083 -0.14394613 0.43392602 -0.15680255 0.05100559 0.3441387
0.30543202 -0.24465166 0.2682503 0.0009356129 -0.16009533 -0.24885772 -0.24765334 0.40485856
0.4058574 -0.09204178 -0.07877788 -0.11637898 -0.11971369 0.39222074 0.4653103 -0.1301855
00000000: 7d97 2dbe 1b11 bd3c e73b 853e 68c7 a43e
00000010: d4a5 d73e 46e6 cebd c6c7 14be bbf5 d43e
00000020: e03d 913e f792 e03e f9d0 a0bd ec17 f2bd
00000030: 96d2 8d3e bc1c e23e 7ea4 a73e 497c 8e3e
00000040: 6d6f d9bd f1d9 40bd ba65 e73e e59c 82bd
00000050: e03b e5bd c1bc 913e 7d89 9d3e 13a7 12be
00000060: 1899 c83e ea07 afbd e1f6 983e 3724 9c3e
00000070: 34b1 96be 1743 893e 498d bf3e e302 c23e
00000080: eff1 8f3e f2fa d33e ebba 34be 04a1 efbd
00000090: ea6a af3e 917e 163e 00b3 06be c7d4 b23e
000000a0: d30b b43e e5a0 e8bc a61f c33e 9d66 13be
000000b0: 8d2b de3e d990 20be 3deb 503d f332 b03e
000000c0: 9661 9c3e f785 7abe 1a58 893e eb43 753a
000000d0: 08f0 23be 8fd4 7ebe d698 7dbe 9f49 cf3e
000000e0: 8bcc cf3e 6780 bcbd 4c56 a1bd 1a58 eebd
000000f0: 732c f5bd 28d1 c83e 273d ee3e 594f 05be

to_value.2.weight f4 [1, 64]
-0.83822346 0.8484638 0.39357507 0.47750115 0.46103302 -1.0308901 -0.8728275 0.41785458
0.43225688 0.45052242 -0.66522473 -0.90524966 0.4010944 0.42396796 0.48856005 0.4587256
-0.9558322 -1.0911703 0.43501565 -0.8799241 -0.8504592 0.43574932 0.50483745 -0.82865465
0.39803743 -0.93262756 0.47256476 0.37703434 -0.53929234 0.4703794 0.50958717 0.42307058
0.42944345 0.51462203 -1.0386254 -0.7493679 0.45514235 -0.83130753 -0.632373 0.40678433
0.47393426 -1.2281456 0.39935505 -0.8974489 0.50443166 -1.4466137 -1.4372766 0.39765018
0.4468998 -0.92300904 0.3897505 -0.70289063 -0.81097186 -0.67482644 -0.6244796 0.5313037
0.46078244 -0.8761449 -0.9128898 -0.70842874 -0.9496184 0.5083887 0.42042765 -0.98313934
00000000: d095 56bf ec34 593f ac82 c93e 087b f43e
00000010: 850c ec3e 35f4 83bf 9f71 5fbf 09f1 d53e
00000020: c650 dd3e e0aa e63e 2b4c 2abf 71be 67bf
00000030: 3f5c cd3e 5412 d93e 8b24 fa3e 15de ea3e
00000040: 6bb1 74bf 78ab 8bbf 5fba de3e b542 61bf
00000050: b2b7 59bf 891a df3e 073d 013f b622 54bf
00000060: 90cb cb3e aec0 6ebf 02f4 f13e a50a c13e
00000070: 100f 0abf 92d5 f03e 4e74 023f b59c d83e
00000080: 03e0 db3e 45be 033f adf1 84bf 93d6 3fbf
00000090: 6b08 e93e 92d0 54bf 32e3 21bf 0946 d03e
000000a0: 83a7 f23e e033 9dbf 4478 cc3e 36bf 65bf
000000b0: 6f22 013f a32a b9bf aef8 b7bf ce98 cb3e
000000c0: 0dd0 e43e 524a 6cbf 618d c73e a4f0 33bf
000000d0: da9b 4fbf 6dc1 2cbf e5dd 1fbf 8503 083f
000000e0: adeb eb3e 084b 60bf 25b3 69bf 965b 35bf
000000f0: 311a 73bf c325 023f 4b42 d73e 05af 7bbf
