save30_12_22/save1_400.pth (torch, 932379 bytes, 11 tensors)

shared_net.0.weight f4 [256, 115]
000000 5b b7 10 3d 32 70 16 3d ca 09 f4 bd c0 df 9b bd
       0.03533111 0.03672809 -0.119159296 -0.07611036
000010 b4 1f 15 bd 34 4b 2f 3d 31 6e 3c bd 6f 7f 0c 3e
       -0.036407188 0.04279633 -0.046003524 0.13720487
000020 b8 81 8e bc 75 0c 1e bd b8 8a 18 3d b0 97 38 be
       -0.01739584 -0.0385861 0.037241668 -0.18026614
000030 24 b2 1a be 16 47 d3 ba 0a 32 d0 bd 0c 1d 89 bd
       -0.15107018 -0.0016119208 -0.10165794 -0.066949934
000040 fb 52 74 bc 78 e5 94 bc fd 98 4e bd 1d 03 45 be
       -0.014912362 -0.018175825 -0.05043887 -0.19239469
000050 fb 00 1a 3e 83 bf fd 3b ff af 71 bd e1 19 f8 3c
       0.15039437 0.0077437772 -0.059005734 0.030285778
000060 51 72 4f bb 68 85 20 3e 42 cc e7 3d dd 60 0e bd
       -0.0031653831 0.1567589 0.11318256 -0.034760345
000070 91 50 0e be 1a 59 41 3d 8a 48 c3 bd 5e 5b 88 3c
       -0.13897921 0.047204114 -0.0953532 0.01664513
000080 8d c8 7d bb 0a ba 89 3c bd 25 01 be 69 21 09 bd
       -0.0038724274 0.016812343 -0.12612052 -0.033479128
000090 67 c2 76 3c f7 1e 0f 3e a8 20 12 bd 7a ea c3 3d
       0.015060998 0.13976656 -0.035675675 0.09566207
0000a0 09 1f 7f 3d f4 58 b0 bd c6 8b 52 bd ab 62 ca bc
       0.062285457 -0.086107165 -0.05140283 -0.024705252
0000b0 a2 5c 02 be 1d 85 fc bd d7 9e fd 3d 0c 18 ff 3c
       -0.12730649 -0.12330077 0.12383812 0.031139396
0000c0 97 bd 79 bd c6 55 6c 3d bb 32 fa 3d 93 00 1d 3e
       -0.060971823 0.057698987 0.12216707 0.1533225
0000d0 fd 43 db 3d 8d 67 8d 3d 6b af 4c 3d 42 9d 7e bd
       0.10706327 0.06904516 0.04997198 -0.06216169
0000e0 9d 36 18 3d fc 98 91 bd f4 9a 4f bd 22 ad 5b bd
       0.03716146 -0.071092576 -0.050684884 -0.05363191
0000f0 02 fc ad 3c 30 24 ac 3c 49 e1 e3 bc 8d 42 b1 3c
       0.02123833 0.02101335 -0.027817385 0.02163818
000100 ea ee 88 3d 52 b3 53 bc 2d 7c 3f 3c ca 2b ac bb
       0.06686194 -0.012921171 0.011687321 -0.0052542435
000110 b7 48 9f 3d 8e 44 95 3d 35 d5 86 bd 9b a9 3b bd
       0.07777541 0.072884664 -0.06583635 -0.045816045
000120 8b 16 52 3d 3b d6 93 3d 3f 05 58 3d 43 91 95 3d
       0.05129103 0.072185956 0.052739378 0.07303097
000130 98 4d 01 3d 44 8d c8 bd 47 47 f3 3b de f7 57 bd
       0.03156814 -0.09792569 0.0074242684 -0.05272662
000140 52 52 c6 bd cb 9f f2 3c c5 1e cf 3d b6 0f 89 bd
       -0.0968367 0.02961721 0.10113291 -0.0669245
000150 ae db a7 3c 92 31 4c 3b c7 90 06 bd c5 69 66 bd
       0.020490494 0.0031157476 -0.032852914 -0.056253213
000160 5b 9d 36 3d 24 d6 89 bd 5e 8c 07 3d 15 95 15 3d
       0.04458366 -0.06730297 0.03309285 0.03651913
000170 63 80 a2 3d c1 7a 6f 3c f6 8c bd bd 46 e9 45 bd
       0.07934644 0.014616669 -0.09255402 -0.04831817
000180 6e 57 6c bc c7 e7 5b bd c2 8d 24 be a3 15 6e bc
       -0.014425142 -0.053687837 -0.16069701 -0.014531526
000190 49 b9 62 3d 44 9a ec 3d 40 bf 0a bd 4d 56 f4 bc
       0.055352483 0.11552861 -0.033873796 -0.029826308
0001a0 fa 21 1f be 5a 9d 27 3d 04 70 ec bb e4 a2 17 be
       -0.15540305 0.040921547 -0.0072155017 -0.14808232
0001b0 74 39 8b bd 2e 1c 9d 3d 74 99 ef bd 13 5e 98 3d
       -0.06798068 0.076713905 -0.11699191 0.07439818
0001c0 88 e3 e1 bc 38 57 1b 3e e0 b0 d4 3d 32 18 7e bd
       -0.027574316 0.1516999 0.10385299 -0.062034793
0001d0 02 b3 b4 bd b1 33 14 bd 0d c6 4e 3c c7 3f 82 3c
       -0.088232055 -0.03618211 0.012620461 0.015899552
0001e0 37 36 1f 3d 98 d3 33 bd cb 7c 90 3d 7f d2 a0 bc
       0.038870063 -0.043902963 0.07055052 -0.019631622
0001f0 b3 66 52 be d1 42 17 bd 00 1f 75 3e fa 9d 91 bd
       -0.20546989 -0.036928955 0.23937607 -0.0711021
000200 af aa 14 bc 23 a0 d2 bd 2a 4d 39 bd 0c ff 49 3b
       -0.009073897 -0.1028445 -0.045239605 0.0030822186
000210 66 a9 bd bd bb d8 a2 bc e7 3b bf 3a 04 a4 c8 3d
       -0.09260826 -0.019878736 0.0014589996 0.097969085
000220 7e 42 f2 bb e5 43 54 bd 4b 42 a0 3c 71 8a 9a 3d
       -0.0073931804 -0.05182256 0.019562861 0.07545937
000230 e7 40 8b 3e d7 1a b9 3d 1d 23 cb 3d 56 be 3e bd
       0.27197954 0.090383224 0.09918807 -0.046568237
000240 14 40 5d bd 2e 0f 87 bd 41 f2 12 3d 46 81 9f 3c
       -0.054016188 -0.06594692 0.035875563 0.019470822
000250 e2 ac bd bc e5 16 c7 bd e4 07 9e bd ff 94 43 bd
       -0.023153726 -0.09721164 -0.07716349 -0.047749516
000260 4e 5a 81 3b f1 8f a6 3c 3d 2b 8f 3d 85 f6 93 bd
       0.0039475327 0.020332308 0.06990669 -0.07224754
000270 08 fb 52 3d 7d 17 c9 bd ef 81 5c 3b ca 3e 7d bd
       0.051508933 -0.09818933 0.0033646782 -0.06182746
000280 6b a8 43 bd da 36 ed 3b 87 fd e1 bd f3 63 7f bd
       -0.047768038 0.007239205 -0.11034685 -0.06235118
000290 77 c4 f1 3b 1c 93 bc 3c ee fe 93 bc c9 34 80 3d
       0.0073781568 0.023019366 -0.018065896 0.06260068
0002a0 6f 9e 6a bd aa 48 51 bd cb 75 d8 3d 45 34 bc bc
       -0.05728 -0.05109469 0.10569342 -0.022974143
0002b0 bb 02 a9 3d 02 81 da 3c aa a8 78 bd 3f 5e 66 3d
       0.08252474 0.026672844 -0.060707726 0.056242224
0002c0 07 87 b0 bb 0d 20 4e bd f4 dc a7 3d c9 4c d6 bd
       -0.0053871903 -0.050323535 0.0819644 -0.10463864
0002d0 d6 82 21 3d a7 fa 01 bd 1a ef ae 3c 37 ee 9e 3c
       0.039431415 -0.03173318 0.021354247 0.019400699
0002e0 34 d0 73 3d 16 15 17 3d f4 4a 62 bc 68 ac 2e 3c
       0.05952473 0.036885343 -0.0138118155 0.010661222
0002f0 b7 48 7f bd 6d e4 d9 3d 9c 5c 77 3d 78 82 b2 3d
       -0.062325206 0.10639272 0.060391054 0.08716291
000300 18 fd 66 bd af 85 9d bc e4 8b a8 bb 91 08 2d bd
       -0.056393713 -0.019228784 -0.0051436294 -0.042244498
000310 a6 da fe bc 4a ed 9e 3c 30 3a 43 bd 23 89 25 3c
       -0.03111012 0.019400258 -0.047662914 0.010103497
000320 7e 98 4e bc 53 7e 3a 3d c2 25 78 bd b0 1d 6a bd
       -0.012609599 0.04553063 -0.060582884 -0.05715722
000330 f1 9b 22 bd dc 84 93 3d 4a 2e 89 bd cf d3 70 3d
       -0.0396995 0.07203075 -0.06698282 0.058795746
000340 2d 28 0c 3d ca bf 1b 3c f4 97 3e 3c 13 af 29 bd
       0.034218002 0.009506175 0.011632908 -0.04142673
000350 c7 69 ae bc a9 c1 27 bd ca 00 da 3b 2b 3e e7 bc
       -0.021290673 -0.040956173 0.006652926 -0.028227886
000360 4d f7 6b bd 99 7f 46 bd 86 27 9c 3d 05 40 cd bd
       -0.05760889 -0.04846153 0.07624726 -0.100219764
000370 78 94 32 3c e2 bc ef 3d 8b 7a d7 3b 01 94 bf bc
       0.0108996555 0.117059484 0.0065758876 -0.023386003
000380 85 ac 86 bd 20 39 9f 3c c0 79 79 bd 45 b0 86 bd
       -0.06575874 0.019436419 -0.060907125 -0.065765895
000390 bd 58 e8 bb c7 3e a7 3b 22 31 63 3c cc 2f cb 3c
       -0.0070906566 0.005103919 0.013866695 0.024803065
0003a0 63 6b 92 3d 39 70 e0 3d 14 c2 97 3d 07 43 b7 bd
       0.07149389 0.10958905 0.07410064 -0.08948331
0003b0 35 c5 f3 3d f4 83 39 3c c6 a8 b4 bd 44 fa 4b bd
       0.11902849 0.011322964 -0.088212535 -0.04979922
0003c0 53 2b 02 3d 11 98 9f 3e a8 e7 29 bd 0f f2 3e 3c
       0.0317796 0.31170705 -0.04148069 0.011654391
0003d0 d1 7d 16 3d b1 77 b6 bd c0 57 62 3d 4e 08 a9 bd
       0.03674108 -0.08909548 0.055259466 -0.08253537
0003e0 19 f2 23 bc fd 23 f2 bc 93 91 2d 3c 2c 7e d3 3c
       -0.010006451 -0.029558176 0.01059379 0.025817
0003f0 84 bc 49 3d 1e be c1 bb 54 9c 1c bd 90 d7 3f 3d
       0.049252048 -0.0059125563 -0.038235024 0.046836436

shared_net.0.bias f4 [256]
000000 95 8b c7 3c 2f e2 be 3a b0 fb 0c 3d 8a 98 14 ba
       0.02435855 0.0014563258 0.034419715 -0.0005668482
000010 57 c1 d2 bd 9d d1 0f bd e2 9b 98 bd 0a cf 4e 3d
       -0.10290783 -0.035112012 -0.07451607 0.050490417
000020 3e 3f bb 3d da ed bc 3c 06 5b 9c bc 6e ba 16 bd
       0.09142922 0.023062635 -0.019086372 -0.036798887
000030 da 90 c2 3d e4 b5 86 bd fa 20 97 bd 47 b2 3e 3d
       0.095002845 -0.06577662 -0.07379337 0.046556737
000040 2d a1 9f 3c 35 cd 7d 3d 28 00 c9 bc 66 8c 94 bd
       0.019486034 0.06196328 -0.024536207 -0.072533414
000050 ec 32 a4 bd 03 a0 d4 bc 6e a4 84 3c d4 51 01 bd
       -0.08017525 -0.025955206 0.016191687 -0.031572178
000060 fe 26 4b 38 49 27 76 3c cf bd a3 3c 68 cd ec 3c
       4.8435286e-05 0.015024015 0.019987969 0.02890654
000070 96 11 ba 3c 41 63 95 3d 2e 65 a3 bd fe 13 5d 3d
       0.022713464 0.07294322 -0.07978283 0.053974144
000080 31 4b 84 3b 29 d0 e1 3c 50 6f ab bd 80 59 85 3d
       0.004037284 0.027565079 -0.083708405 0.065112114
000090 85 37 aa bc bc b8 94 bc 6f df 81 3d fa df ef bc
       -0.020778427 -0.018154494 0.06341445 -0.029281605
0000a0 76 40 58 bd ab 1b 87 3a 9d 61 4a 3d ba 2b 32 3d
       -0.05279585 0.0010307928 0.049409498 0.043498732
0000b0 a1 b6 77 bd 0a 81 8b 3c ed e2 c1 39 5b c4 b7 bd
       -0.060476903 0.017029304 0.00036980901 -0.08972999
0000c0 e0 07 93 bd 80 20 4d bd fc c8 eb bc 7d 0f 40 bd
       -0.071792364 -0.050079823 -0.02878236 -0.04688977
0000d0 c2 c8 0c 3d 19 31 f7 ba 4d 68 dd 3a a4 bc 5d 3d
       0.034371145 -0.0018859237 0.0016892046 0.05413498
0000e0 34 4a dd 3c d6 c8 62 3d 44 6e 38 3d f5 db 9e 3d
       0.027012922 0.055367313 0.045027032 0.07756797
0000f0 cd c1 db 3c ea 66 64 3d d5 87 42 3c 4c 70 0e 3d
       0.02682581 0.05576221 0.011873205 0.034775063
000100 6b b4 e3 bb 46 ad ab 3d ef ab 02 3d a4 d5 b5 3d
       -0.0069489977 0.08382659 0.03190225 0.08878639
000110 2f 4b 09 bd 06 a9 8f 3d 2d a0 8c bd f0 03 38 bd
       -0.033518966 0.070146605 -0.068664886 -0.04492563
000120 48 f2 7b 3d d2 06 cf 3d da e7 8f 3d 55 00 0c 3c
       0.061510354 0.10108723 0.07026644 0.008545001
000130 af 1c 06 bd d0 15 8f bd f3 69 35 bd 17 2a bd 3d
       -0.0327422 -0.06986582 -0.044290494 0.092365436
000140 8d f5 4e 3d d7 8d f8 bc dd be 6a bd c5 12 7c 3d
       0.050527144 -0.030341072 -0.057310928 0.061541338
000150 5f 8b c8 3c 6b cb 43 3d 91 e2 89 bc a9 51 2e bb
       0.02448052 0.047801416 -0.016831668 -0.0026598966
000160 e9 c1 98 bc 13 9e 7f 3d 99 98 d5 3b 41 c2 f7 3c
       -0.018647151 0.06240661 0.006518435 0.030243995
000170 e0 07 d3 3d f9 70 38 3d 3e 37 95 3d 07 a0 c3 3d
       0.103042364 0.045029614 0.07285927 0.09552007
000180 18 2d 42 bd f6 52 47 bd 58 a0 82 b9 51 a1 5b bd
       -0.047406286 -0.048663102 -0.00024914998 -0.05362064
000190 4f 98 38 bd 35 c6 d2 bc 0d 63 05 bc 82 a4 d6 3b
       -0.045067128 -0.025729278 -0.008141291 0.0065503726
0001a0 2d 62 92 3d 60 a7 84 3d c8 29 90 3d ef 3b b7 bc
       0.07147632 0.06477237 0.07039219 -0.022367446
0001b0 9e 40 8f 3c 41 5d 04 be 9a 1f 52 3d fb b6 2f 3d
       0.017486867 -0.12926199 0.05129967 0.042899113
0001c0 d3 61 c5 bc 25 df 03 bc d1 fa a2 3c 15 16 a4 3d
       -0.024094498 -0.008048807 0.01989499 0.08012024
0001d0 f6 8d 08 3c 74 fe 0e ba 1d dc a2 bd c1 54 b8 bd
       0.008334627 -0.00054547866 -0.079521395 -0.090005405
0001e0 58 63 96 bd fd 04 b2 bc 17 1f 98 3d 21 4e 0d 3d
       -0.07343167 -0.021730894 0.07427805 0.034498338
0001f0 64 c8 c5 bd a7 25 86 3d 0e 97 ac bd 14 69 b5 bd
       -0.09657362 0.0655015 -0.08427249 -0.08857933
000200 c0 18 04 bd 7a 2f 26 3d 84 68 72 3d 0c d5 e4 bd
       -0.032250166 0.04057262 0.059181705 -0.11173448
000210 6d bf b9 bd b5 42 a0 3c c7 0e 27 3c aa 82 4c 3b
       -0.09069715 0.019563058 0.010196394 0.0031205812
000220 4c be 0c 3d 0e 8a 38 bc d0 f6 88 3d bb 8f cc bc
       0.03436117 -0.011263384 0.06687701 -0.02497088
000230 ba e4 d8 3b 8b b1 a9 bd cf 0d 52 bb be 56 97 bd
       0.006619063 -0.08285817 -0.0032051688 -0.07389592
000240 5e 7d 9a bd da 24 2f 3d 78 c2 92 3c 55 0d 52 3d
       -0.07543443 0.042759754 0.017914996 0.051282246
000250 7e 41 90 bd dc 3b 4a 3d a8 7c fa 3d b4 f5 26 3d
       -0.07043742 0.049373493 0.122308075 0.040761665
000260 82 bc c5 3d 1c 1a 9d bd 83 db 58 bd b4 75 c5 3d
       0.09655096 -0.076709956 -0.052943718 0.09641591
000270 ea 4f 43 3d ab b3 03 3e 74 f4 27 3d fa 20 96 bc
       0.047683634 0.12861507 0.041004613 -0.018326271
000280 4c 91 39 bd 90 15 93 3c bc 35 9e 3d 49 52 20 3d
       -0.04530458 0.017954618 0.07725093 0.039140973
000290 73 df 83 bc b4 28 b4 3d d4 02 b0 bd aa 4a b3 3c
       -0.01609776 0.08796826 -0.085942894 0.021886189
0002a0 11 63 82 bc 8a fc 28 bd 35 c3 0d 3d 37 e0 9a bd
       -0.01591638 -0.041256465 0.034609992 -0.07562297
0002b0 e7 2a 98 3d 83 e5 94 3d 8c 58 39 3b 34 ac 86 3d
       0.07430058 0.072703384 0.0028281538 0.06575814
0002c0 56 a6 aa bd c1 97 ac ba 17 09 ef 3c 76 1a 94 bc
       -0.08332507 -0.0013167785 0.029179139 -0.018079024
0002d0 dc 89 dd 3c 0a b7 d3 bc d1 4c 13 bd 20 90 a0 bd
       0.027043276 -0.025844116 -0.03596193 -0.0783999
0002e0 91 68 9e bd 0c 9f 5c bd 00 09 19 3d 33 78 ee bc
       -0.07734788 -0.053862616 0.0373621 -0.02911005
0002f0 f6 9d d0 3b 4c ff d3 bc 92 8f 4a 3d 3a 49 b8 3d
       0.0063664867 -0.025878571 0.049453326 0.08998342
000300 5b c6 9b bd fc 25 74 3d 96 c1 63 3d 4c f2 42 bd
       -0.07606193 0.059606537 0.05560454 -0.047594354
000310 05 d0 8c bd 74 fe 3a 3c 62 f1 8d bd e0 c7 1c 3d
       -0.06875614 0.011413205 -0.06930806 0.038276553
000320 cc 8d 30 3d 00 5b ed bd db b4 c3 3d 40 49 89 bd
       0.043103978 -0.115896225 0.0955598 -0.067034245
000330 5d 16 0a bd e5 ef f5 3c 3b 5c bc bd df 39 5d bc
       -0.033712734 0.030021617 -0.09197279 -0.013502567
000340 ce 00 47 38 25 a6 c8 bd d0 e5 2f 3d 75 93 94 3d
       4.7446047e-05 -0.097973146 0.042943776 0.07254688
000350 7e 3c a4 3c 4f 05 6a bd cd c0 8f 3c 66 13 12 3c
       0.020048376 -0.05713397 0.01754799 0.008915758
000360 30 4e 92 bb 5e 99 c0 bd fd 38 98 bd 02 05 2b 3d
       -0.004464887 -0.094042525 -0.07432745 0.041752823
000370 1b 9d 15 bd a9 83 e7 bc f7 5a fe 3a 98 e6 87 bb
       -0.03652678 -0.028261023 0.0019405772 -0.004147362
000380 c2 2e b3 3d 7e d3 77 3d 1d db 74 3d 7c a2 f5 3d
       0.08749153 0.06050443 0.059779275 0.11993882
000390 ac c8 e4 3c 6d 11 51 3d 86 45 93 bd 18 a5 2a bd
       0.027927719 0.05104201 -0.07190995 -0.041661352
0003a0 a7 89 7a 3d 26 68 af 3d b6 17 fc 3c e9 74 ad bc
       0.06116643 0.085647866 0.030773025 -0.021173911
0003b0 d8 8b b1 bc a8 d1 ce bd 78 1b 49 bd 05 af 80 bd
       -0.021673128 -0.100985825 -0.049098462 -0.06283382
0003c0 30 0b e1 bb 26 ff ef 3c b8 77 a9 3d d9 60 4b 3b
       -0.0068677887 0.029296469 0.08274788 0.0031033067
0003d0 ff 97 0f 3c eb e7 b6 bd da e7 c1 3d 3c 74 96 3d
       0.008764266 -0.089309536 0.0946805 0.07346389
0003e0 85 5e 19 bd 4d e1 54 3d 30 d3 cf bc b4 8f 86 3d
       -0.037443656 0.051972676 -0.025369257 0.06570378
0003f0 6f 60 81 3d 0b b4 a4 bd aa 68 2c 3c 80 9e 79 3d
       0.063172214 -0.08042153 0.010523001 0.060942173

shared_net.2.weight f4 [256, 256]
000000 2a b5 3c 3d e8 98 3b bd a7 69 34 3d 65 c8 d1 b9
       0.04607121 -0.04580012 0.04404607 -0.00040012892
000010 97 6c ee 3c bb 83 2e 3d fc 84 b0 3c cb 09 5d 3d
       0.029104514 0.042606097 0.021547787 0.053964417
000020 52 9f b2 3c 42 61 80 bd 68 9f 46 bd 9b fe b7 3c
       0.021804485 -0.062685505 -0.048491865 0.022460273
000030 17 1c 5f 3d de a2 d3 bc 5b f3 79 bd 9c a5 d1 3c
       0.054470148 -0.025834497 -0.061023097 0.025591664
000040 63 0d f9 bc 77 3d 8a bb 5e dd 93 bd 5a ff 33 3d
       -0.030401891 -0.004218753 -0.07219957 0.043944694
000050 da 0b 2a 3c 64 c0 30 bd 5f 14 74 bc ad 60 6b bb
       0.010378802 -0.043152228 -0.014897435 -0.0035915778
000060 52 74 84 3d 34 41 a0 bc 12 32 db bc 3e 48 29 3d
       0.06467499 -0.019562341 -0.026757274 0.04132866
000070 ee 56 9a bc 11 0e 81 3c 0d d5 d9 bc 46 64 6f bc
       -0.01884028 0.015753778 -0.026590848 -0.014611309
000080 83 f3 82 bc 5f 55 3f 3d 81 b6 a4 3c e1 60 25 bd
       -0.015985256 0.046712276 0.020106556 -0.040375594
000090 e7 d7 7f b9 1b ac b7 bc 24 64 4d bd 57 05 33 3d
       -0.00024399125 -0.022420933 -0.05014433 0.043706264
0000a0 6f c2 aa 3c a4 a1 58 3d fe eb f1 3c cb f4 44 bd
       0.020844666 0.052888528 0.029531475 -0.048085015
0000b0 b9 94 9e bb 5f fe d5 bc de 1c b6 3c 0a 0c ed b8
       -0.0048395065 -0.02612227 0.022230562 -0.00011303283
0000c0 aa f2 34 3d ea fe 78 bc ac d1 aa bb 9f 33 02 bd
       0.044176735 -0.015197495 -0.005212983 -0.03178751
0000d0 6c ba 64 3d 56 b0 5a bd 4e 7a 82 bd 71 08 64 bc
       0.05584185 -0.053390823 -0.06370984 -0.013918028
0000e0 10 d3 50 bd b1 d7 1f 3d ce c5 4b bd 2f 55 52 3d
       -0.050982535 0.03902406 -0.049749188 0.05135077
0000f0 07 27 01 bc 1d b0 1e bd 38 58 b8 bc 11 ad 79 bd
       -0.00788284 -0.038742173 -0.022503003 -0.060956065
000100 4b 1e 37 bd 3f 0d 7d bd bb 01 2e 3c 72 06 7c 3c
       -0.044706624 -0.06178021 0.01062053 0.015382396
000110 94 6e 2e 3d 41 82 85 bd 3c 1f 47 bd ae 72 4a 3d
       0.042585924 -0.065189846 -0.04861377 0.049425773
000120 2e c5 2d bc b6 0c 03 3d 89 ea 72 bd ca 6b 1d bd
       -0.010606093 0.031994544 -0.0593057 -0.038432874
000130 03 0b 1e 3d f0 89 c1 bc 5c 5d 29 bd d0 0d 37 bd
       0.03858472 -0.023625344 -0.0413488 -0.044690907
000140 c8 e5 61 3d cb 48 c0 3c b2 f6 2f 3d f9 6f c3 bc
       0.055150777 0.02347221 0.042959876 -0.023857104
000150 21 09 9e ba 60 22 65 bd 23 5e e3 bc 06 cc 50 bc
       -0.0012057164 -0.055940986 -0.027754849 -0.0127439555
000160 b6 53 49 bd 76 b2 81 3c 63 bb f6 3b 85 18 bd 3c
       -0.0491521 0.015832167 0.0075296625 0.02308298
000170 6c e7 19 bd 8f a5 18 bd 90 5b c0 3c 6c 4f 56 bb
       -0.037574217 -0.037267264 0.02348116 -0.0032701148
000180 76 f5 06 3b 3d d0 27 3c ce 7b 99 bc 69 d4 6b 3d
       0.0020593083 0.010242519 -0.018735792 0.057575617
000190 ad d6 4f 3d f5 0c 08 bd 23 1d 4f bd b9 3a 0a bd
       0.05074184 -0.03321548 -0.050564896 -0.03374741
0001a0 37 e0 32 3d 3e 2d f5 bb 4a f4 a1 3c 83 15 37 bd
       0.04367086 -0.0074822 0.019769806 -0.04469825
0001b0 fd 3d 54 3d 8a 2f 4f 3d 31 31 77 bb f0 59 4e bd
       0.05181693 0.050582446 -0.003771853 -0.05037874
0001c0 cc a7 a3 3c 03 bc 80 bd 12 36 1f bd 39 7e c3 bc
       0.019977473 -0.062858604 -0.038869925 -0.023863899
0001d0 a6 0d ee 3b 7e 07 52 3d b6 82 5a bc 88 64 fd 3c
       0.0072648106 0.051276676 -0.013336828 0.030931726
0001e0 c0 f8 08 bc 93 ad 2a 3d e6 68 16 bd dd 84 17 3d
       -0.008360088 0.04166944 -0.036721133 0.036991943
0001f0 c6 0c 6b bc 4f bc 3a 3c c8 31 f1 3a fa cc 58 3d
       -0.014346307 0.011397435 0.0018401677 0.052929856
000200 99 3d 11 bd 0c 95 71 bc eb 2b d2 3b 50 9a 2e bd
       -0.035459135 -0.014745008 0.006413927 -0.042627633
000210 bd d1 92 bd 87 39 e0 bc 98 26 ab 39 3f 4c df 3c
       -0.07168911 -0.027371181 0.00032644416 0.027258037
000220 97 26 84 bd 8f b4 e6 bc 9e c6 2a bc da 4d 77 3d
       -0.06452673 -0.028162269 -0.010423331 0.06037698
000230 61 54 d2 bb 2e 96 91 3c 3b 3c fe 3c 76 0a 1c 3d
       -0.00641875 0.017771807 0.03103458 0.038095914
000240 93 0d c3 3b 65 cf 1b bc d2 24 5a 3c 7d fb 22 bb
       0.005952546 -0.009509896 0.013314443 -0.0024869137
000250 da 8e 0b bd 5a f5 8b ba 85 39 06 bc 2a 03 81 bb
       -0.03407178 -0.0010677979 -0.008192425 -0.0039371448
000260 60 6c 27 3d 93 d7 75 3d 02 81 7b 3d 43 98 7f bd
       0.04087484 0.06002004 0.06140233 -0.062401067
000270 0d 66 64 bd b0 5d b3 3c 01 85 9c bc 1e c2 3a 3d
       -0.055761386 0.02189526 -0.01910639 0.04559528
000280 a0 5e 1a 3d ea ae 4d bb 93 87 86 bd 7d 84 1b 3d
       0.037687898 -0.0031384774 -0.065688275 0.037968148
000290 7b 0c 04 3d 47 71 f1 bb bc 70 8d bc 5f b9 83 3c
       0.032238465 -0.00736824 -0.01726567 0.016079603
0002a0 49 9e 99 3c 4b 71 12 3c e4 b3 a9 3c 46 23 a5 3c
       0.018752234 0.008938144 0.020715661 0.020158421
0002b0 1a c3 09 3d 8d d3 0e bd 56 0c c0 3b 95 be b2 bb
       0.03363333 -0.03486972 0.0058608456 -0.005454848
0002c0 30 63 6f 3d ff b5 9f bb b4 f4 d5 3c 6b 65 68 bd
       0.058444202 -0.0048739905 0.02611766 -0.056737345
0002d0 49 19 55 3d cb 56 48 bd 20 dc 32 38 4a e6 58 3d
       0.052026067 -0.048910897 4.2643514e-05 0.052953996
0002e0 16 92 4a bb f0 04 40 bd 3c 87 4b bd 8d 29 42 bc
       -0.0030909828 -0.04687971 -0.049689516 -0.011850727
0002f0 43 0d 68 bd e7 bd 61 bd ca 36 62 3c d4 52 1c bd
       -0.056653272 -0.055112746 0.013807008 -0.03816493
000300 3b fb 0f bb f9 ee f7 bc d0 aa 8f bd 61 ff 2b bc
       -0.0021969813 -0.030265318 -0.07015002 -0.010497899
000310 53 98 07 3c 5a 26 0c 3d 3d d1 15 3d 86 35 c0 3c
       0.008276063 0.034216262 0.0365765 0.023463022
000320 93 53 63 bd 6d 3e 86 bc 7c a8 fd bc 1b 6c 93 bc
       -0.055499624 -0.016387189 -0.030964129 -0.017995885
000330 dd 68 51 3d c2 23 b1 bc 04 5b e7 3b 19 22 1f 3d
       0.051125396 -0.021623496 0.0070604105 0.038850877
000340 0a c7 e6 3c 9e e1 19 3d 3e b5 2e 3c 34 98 8d bc
       0.028171081 0.03756868 0.010663329 -0.01728449
000350 3b b0 80 3d 90 4a 52 3d df af 2d 3d 46 23 cd bc
       0.06283613 0.05134064 0.042404052 -0.025041234
000360 12 6a b2 3c 1e 46 51 3d c0 bd 3d 3d 97 20 86 bd
       0.021779094 0.05109226 0.046323538 -0.06549185
000370 86 73 04 bc 3d 5d 47 3d 40 6c d5 3a 80 aa 6e 3c
       -0.008084184 0.048672903 0.0016282871 0.014567018
000380 cb 02 71 bd 1b a2 c7 39 c5 27 07 bd 2c c2 40 3d
       -0.058840554 0.00038077016 -0.03299691 0.047060177
000390 18 8e 63 3b ff 9b 12 3d 3b 26 03 bd d1 8e 1f bd
       0.0034722146 0.0357933 -0.03201888 -0.03895456
0003a0 c4 30 b5 3c 73 a2 7c bd 9d 9d 23 bc b4 98 84 bc
       0.02211798 -0.06167836 -0.009986308 -0.016186096
0003b0 ac e1 db 3c 45 6e 1d bd 12 bc 3c bd 93 9d 0e 3d
       0.026841007 -0.03843524 -0.046077795 0.034818243
0003c0 ce eb 23 bd 41 fa 2b 3d 95 0c 5f bd 7a bb 40 3d
       -0.040019803 0.041986708 -0.05445536 0.04705379
0003d0 ce 3a dc 3c bf 9e 56 3d 25 5f 0c bd 35 aa 0a bd
       0.026883509 0.052397486 -0.034270424 -0.03385373
0003e0 77 5f 11 3d e1 85 62 bd 46 99 22 3c 00 f6 08 3c
       0.035491433 -0.055303458 0.009924239 0.008359432
0003f0 04 64 af bc 7f 90 d3 3c 11 aa bd bc 41 4b e2 3c
       -0.021409996 0.025825737 -0.023152383 0.027623774

shared_net.2.bias f4 [256]
000000 68 c8 6a bd d2 2b 00 bd 0f 43 81 3d cd 77 86 ba
       -0.05732003 -0.03129179 0.063116185 -0.0010259092
000010 d6 0d 4a 3c 9a d1 8c bd 1c a1 15 3d 43 13 5c 3d
       0.0123324 -0.06875916 0.0365306 0.053729307
000020 15 10 04 bd 7f 4b 14 3d ff f0 27 b9 64 5c 94 3c
       -0.0322419 0.03620481 -0.00016016139 0.018110462
000030 73 97 2d 3d f0 d8 7a 3d 23 d4 2b bd 15 33 ee 3c
       0.04238076 0.061242044 -0.041950356 0.029077092
000040 b6 71 5a bb 9d 5c 86 3d 2a dc 05 3d 14 59 05 3d
       -0.0033331937 0.06560633 0.032680668 0.032555655
000050 65 40 85 3c a4 2f dd bc 37 92 a6 3c 43 a5 55 3c
       0.016266057 -0.027000256 0.020333393 0.01303989
000060 7c 87 6f bd f7 d6 02 bd 0f 74 5e 3d 79 ca 8e bd
       -0.058478817 -0.031943288 0.0543099 -0.06972212
000070 ff 01 60 3b c9 c4 0b bb a9 7e ce bb da 14 14 3c
       0.0034180877 -0.002132701 -0.00630172 0.0090381745
000080 f7 0d 10 bd 16 4d 59 bd 83 35 9f 3b 57 35 c0 bc
       -0.035169568 -0.05305203 0.004858674 -0.023462934
000090 fb 32 64 3c 3c 64 27 3c e2 50 06 3d c5 8b 71 3d
       0.01392817 0.010216769 0.03279198 0.058971185
0000a0 f8 a2 22 3d b7 15 a4 3c 93 49 03 3d e4 0b 92 bd
       0.0397062 0.020029886 0.032052588 -0.07131174
0000b0 10 4d 0a bd 62 11 97 bc 95 24 5e 3d a4 1c c7 bc
       -0.0337649 -0.018440906 0.054234106 -0.02430565
0000c0 24 fc b6 bd 4a 94 7e bd a3 2d 3d 3d 88 b1 a5 3c
       -0.08934811 -0.06215314 0.0461861 0.020226255
0000d0 80 38 85 bc 18 4d 69 3d 0b 02 a0 bd 4e 53 96 bb
       -0.016262293 0.056958288 -0.0781289 -0.0045875674
0000e0 c0 f0 71 bd fc d5 c4 bc 84 40 36 3d 36 78 d1 3c
       -0.059067488 -0.024027817 0.04449512 0.025570016
0000f0 d0 08 5b bd 52 1c 29 3d 80 2f c9 3c c5 2e 47 bd
       -0.0534752 0.041286774 0.024558783 -0.048628587
000100 cb 4e 2f 3d 71 5e c3 3c 09 d2 d4 3c 59 6c 53 3d
       0.042799752 0.023848744 0.025979059 0.051617
000110 e5 da 30 bc f1 11 b3 bc e5 14 b9 3c 96 a3 c5 3c
       -0.010794376 -0.021859141 0.022592971 0.024125855
000120 20 67 ae 3c ca 59 76 bd 54 fd 0a 3d e6 aa a5 3c
       0.021289408 -0.060144223 0.033933 0.020223092
000130 48 a5 eb 3c 36 cb 7b 3c 16 e1 b2 bc 1b ac f9 bc
       0.028765336 0.0153682735 -0.021835845 -0.030477574
000140 a4 52 9f bc a3 35 9d ba e1 de 3f bc 90 85 5f bd
       -0.019448586 -0.0011994134 -0.011710853 -0.054570735
000150 d1 31 8f 3d a6 1b dc 3a 50 aa 60 bb e5 18 ea 3c
       0.069919236 0.0016792908 -0.0034281202 0.028576324
000160 99 d7 86 bc 06 25 81 3d ed 6f 45 bd a2 67 53 3c
       -0.016460227 0.0630589 -0.048202444 0.012903126
000170 8a 69 70 bc 42 a9 b6 bb 02 04 19 3d 83 73 4f 3d
       -0.0146736 -0.0055743763 0.037357338 0.05064727
000180 c6 0f df 3a c4 b9 39 3d 0d 06 9a bc 2f a9 79 bd
       0.0017018251 0.045343176 -0.018801713 -0.06095236
000190 ca 72 89 3c f6 e2 5c 3c 35 03 1b 3d b2 a7 6d 3d
       0.016778369 0.013481846 0.037844855 0.058021255
0001a0 f0 5f 6a bb 73 fa 17 3c 0a c9 38 bc 9b 48 ca bc
       -0.003576275 0.00927602 -0.0112784 -0.024692824
0001b0 d7 27 9b 3d d0 76 fa 3c f8 5f 51 bd fc ac 98 3d
       0.07575958 0.030574232 -0.051116914 0.07454869
0001c0 c8 22 ea 3c a7 93 cc bc 6f a2 c5 3c 71 2d 42 3a
       0.028581038 -0.02497275 0.024125306 0.0007407284
0001d0 a6 d3 8c bb 90 b1 36 bd f0 6c 5a bc 34 02 8f bb
       -0.0042976914 -0.04460293 -0.013331637 -0.0043642763
0001e0 b9 1c 73 3d 9d c0 4c bb 60 f8 e9 3c e8 fb 02 3d
       0.059353564 -0.0031242736 0.028560817 0.031978518
0001f0 a6 26 04 3c e9 0d 93 bd e9 33 16 bc 44 7e 2c 3d
       0.008065855 -0.071803875 -0.00916765 0.042112604
000200 49 19 40 3b 4d 5c 53 3d 0b 0a 8c 3c 4e 75 30 3d
       0.0029311946 0.051601697 0.017094633 0.04308062
000210 84 c2 79 3c 87 c5 77 bd a9 b4 5c bd 48 9a 17 bd
       0.01524413 -0.06049111 -0.05388323 -0.03701237
000220 f7 04 86 bd 4d ae 2b 3d 28 e2 57 3d 7d 51 d6 bc
       -0.06543916 0.041914273 0.052705914 -0.026161904
000230 d6 d3 6e bd 0e 7f b1 bc 99 93 37 3d 26 76 0f bd
       -0.05830749 -0.02166703 0.044818494 -0.035024785
000240 d2 e1 f4 3b 39 ba d4 bc b4 29 da bc cf ee 7a bb
       0.007473209 -0.025967704 -0.026631214 -0.0038289314
000250 fa f1 27 3d 5d 45 c7 bc 64 11 56 bd 05 30 83 bd
       0.04100225 -0.024325067 -0.05226268 -0.064056434
000260 97 64 f6 3a b3 84 0f 3d 9e fd a2 bd 2c 57 2b 3d
       0.0018798289 0.03503866 -0.0795853 0.04183118
000270 a2 d6 68 3d ec cb 38 3d c1 ef 9c 3c 48 44 28 3d
       0.056845315 0.04511635 0.019157292 0.041080743
000280 b0 ae 96 bc c1 1e 65 ba db 62 44 3c b7 a1 cb 3c
       -0.018393844 -0.00087402394 0.01198646 0.024857385
000290 b1 39 b2 3c a4 7c 0f bd 29 1b 64 3d 8a 25 b8 3c
       0.021756025 -0.035030976 0.055689964 0.022478838
0002a0 f4 d0 87 bd 6d bd 91 3c 28 f2 64 3d ab d8 14 bd
       -0.066316515 0.01779052 0.055895 -0.036339443
0002b0 34 68 b1 3b 80 d1 1e bd 2e e8 9a bc 88 00 59 3d
       0.0054140333 -0.038774014 -0.01890954 0.052979022
0002c0 4d b3 49 3d 7f 09 51 bd b6 8c 63 3d a8 b0 3b ba
       0.04924326 -0.051034447 0.055554114 -0.0007159808
0002d0 ff 53 6e 3c 8e 4f 73 3d da be 97 bd fb 59 08 3c
       0.014546393 0.05940204 -0.07409449 0.008322234
0002e0 2a 25 b0 bb 6a f6 24 3b d6 9c f1 bc 09 00 ed bc
       -0.005375524 0.0025171288 -0.02949373 -0.02893068
0002f0 b1 4b 1f bd aa db d5 3d 03 70 1b bd 12 40 f8 3b
       -0.038890544 0.10442288 -0.03794862 0.007575997
000300 9f 79 59 3d 80 61 d5 bc 3c 50 cd bc de c2 04 3d
       0.053094503 -0.026047468 -0.025062673 0.032412402
000310 72 56 04 bd 81 7d 03 3c 0a e1 5d 3c 97 cf df bc
       -0.032309003 0.008025528 0.013542423 -0.027320666
000320 9d 90 de 3c 18 46 54 3d b7 f0 0b bc 09 99 49 3d
       0.027168566 0.05182466 -0.008541278 0.04921821
000330 85 00 b6 3c a5 f3 1c 3d 6f 0e 99 3c 4f b6 c0 bc
       0.022217045 0.038318295 0.01868364 -0.023524432
000340 2c 15 0f bd 5f 3e 47 3c 5f 08 f3 bb 64 cd d3 3c
       -0.0349323 0.0121608665 -0.0074167694 0.025854774
000350 45 c2 8e 3d 4b 87 e4 bc 55 9a 65 bc 88 dd 71 3d
       0.06970648 -0.027896544 -0.014013846 0.05904916
000360 57 85 04 3d bf c0 8a bd 2a ac 5b bd 14 fb 3c 3d
       0.032353725 -0.06775045 -0.053630985 0.046137884
000370 81 80 48 3c 59 e9 a5 bd 7c a3 76 3c 66 1c 29 bd
       0.012237669 -0.08101148 0.015053626 -0.04128685
000380 29 f9 3b 3d ce f8 5b 3d 2e be 80 3d 95 4f 89 3b
       0.045891915 0.053704076 0.06286274 0.004190395
000390 bc ba 5d bc 7d 15 ec ba cd 02 02 bc 73 b1 df 3c
       -0.0135332905 -0.0018011775 -0.007935238 0.027306294
0003a0 27 64 93 bb 84 83 86 3d 31 cb 4e bd 7c df 61 3d
       -0.004498023 0.06568053 -0.050486747 0.055144772
0003b0 1a 84 4a bc 04 80 6a bc 06 f6 59 3c 74 1f a4 bc
       -0.012360597 -0.014312748 0.013303285 -0.02003453
0003c0 66 6e 19 39 92 cb 8d bc 90 cc 24 3c d8 7a 37 bd
       0.00014632344 -0.017308984 0.010058537 -0.044794887
0003d0 2a 16 66 bd f1 29 31 bd 0d db c7 3c 77 54 27 ba
       -0.05617348 -0.04325289 0.024396444 -0.00063831307
0003e0 a1 82 50 bc f1 6c e0 bb 91 ab 39 bd 0f 3f 74 bc
       -0.012726457 -0.0068489243 -0.045329634 -0.014907612
0003f0 c2 9c e4 3c d1 7d 0b 3d 79 99 d2 bb 88 43 40 3d
       0.02790678 0.034055535 -0.006426987 0.046939403

to_mean.0.weight f4 [256, 256]
000000 b5 59 bc bc d7 40 41 3c f1 e3 4c 3c 55 83 21 bd
       -0.022991994 0.011795244 0.012505517 -0.03943189
000010 74 ea 97 bc 6e 0b 60 3d 37 9f 4d 3c 3d 47 69 3d
       -0.018544413 0.0546984 0.012550167 0.056952704
000020 2f 44 08 bd f3 d5 9c 3c db 39 4a b9 45 91 4e bd
       -0.03326815 0.019144988 -0.00019285774 -0.05043151
000030 0c f7 e4 3b 5c 1f 1f bd e8 75 3c bd dc 24 2c 3d
       0.006987458 -0.038848266 -0.04601088 0.04202734
000040 17 a4 30 bd 4e 61 b5 bb 7f 3c 8f 3c 9c 58 04 3a
       -0.04312524 -0.0055352813 0.017484901 0.0005048604
000050 51 95 31 3d 95 92 7b bd 4c bc 68 3d 86 3a 4a 3d
       0.04335529 -0.06141909 0.0568202 0.04937222
000060 52 e2 41 3b db a2 1d 3d e8 bb 5b 3d 83 75 f6 bc
       0.002958436 0.03848539 0.053646 -0.03008533
000070 a9 dc a3 bc 72 37 bc bc 9c 61 2e 3c 72 70 3d 3d
       -0.02000268 -0.022975657 0.010643389 0.046249814
000080 00 84 36 bd 9c 37 56 3d d9 26 10 3c 38 75 1d bd
       -0.04455948 0.052299127 0.0087983245 -0.038441867
000090 3e d3 67 bd 99 f1 13 bd e4 3d 3b 3d 8c 7e 50 3d
       -0.05659794 -0.036119077 0.04571332 0.050901935
0000a0 b4 3e 62 bd 05 3b e9 ba aa bd a3 bb d1 83 7b 3d
       -0.05523558 -0.0017794078 -0.004996975 0.061405007
0000b0 50 64 85 bc 2b 25 31 bc b6 ba 63 3b 4c ce 48 3d
       -0.016283184 -0.010812084 0.003474874 0.049024865
0000c0 76 79 63 bd 66 70 0d 3d 15 60 f1 bc 90 08 2a bc
       -0.055535756 0.03453102 -0.02946476 -0.010378018
0000d0 6a 0d 6d 3d da b9 8b 3d 9b f7 a0 bc 5d 4c fe bb
       0.05787412 0.06822558 -0.019649317 -0.007760568
0000e0 da 73 94 bc c4 7a bd 3c ec 32 6e bd 43 68 42 3b
       -0.018121649 0.023129828 -0.05815403 0.0029664196
0000f0 35 d8 a1 bc 91 f7 a2 3c 72 42 73 bd e4 b9 f8 3b
       -0.019756416 0.01989344 -0.05938954 0.0075905193
000100 24 44 52 bd e3 db 0a bd 40 fb 51 3d 6a 01 a1 3c
       -0.051334515 -0.033901107 0.051265 0.019653995
000110 e4 d2 50 3d 12 8b 62 bd 5b ff 02 bd 61 80 67 bd
       0.05098237 -0.05530841 -0.031981807 -0.056518916
000120 86 c6 d5 bc 50 97 40 bd 75 9e 40 3d 3d 6b 1f bc
       -0.02609564 -0.047019303 0.047026116 -0.009730157
000130 c7 61 84 bd 9d a6 36 3c 81 d3 3e 3d 84 06 89 bc
       -0.06463962 0.011148122 0.046588425 -0.01672674
000140 e3 8c 3c 3c 36 4d 17 3d f1 96 61 3b ec 5b bb 3c
       0.011508199 0.03693887 0.0034422243 0.02287098
000150 bd 63 3e bd 93 8b 59 bd d8 57 db 3c ea 48 2d 3d
       -0.046481837 -0.053111624 0.026775286 0.042305864
000160 df 8c 2c bc 2b 69 47 3d 01 5b bb ba 2a bf 18 3d
       -0.010531633 0.04868428 -0.0014294089 0.037291683
000170 0f 18 4a bc 3d 8d 74 bd 19 72 4e 3c 8e 02 3e bd
       -0.012334838 -0.059705008 0.012600445 -0.046389155
000180 6b f3 c0 3c c2 2d 3c bb 24 68 64 bd 92 36 99 bc
       0.02355357 -0.0028713797 -0.05576338 -0.018702779
000190 fe 4e 1f bd 5b f9 61 bc 63 ee 7d bc 68 bb 40 bd
       -0.038893692 -0.013792361 -0.01549873 -0.047053725
0001a0 20 f6 2c 3d 62 88 9b bc 89 9b 22 bd e7 e3 16 3b
       0.04222691 -0.01898593 -0.03969911 0.0023024024
0001b0 1d 24 3e bd 9e fc a4 3c ab 7a c9 3c 8b b6 55 bd
       -0.04642116 0.020139989 0.024594625 -0.05217604
0001c0 48 a1 e4 3c e9 3e 29 3d 77 1a 38 bd 83 f1 11 3c
       0.027908936 0.04131976 -0.044947114 0.008907679
0001d0 3e 10 82 bd 15 6d 34 b9 a0 5a 87 bd e6 ff a2 bc
       -0.06350754 -0.00017206774 -0.06609082 -0.019897413
0001e0 45 8b 2d 3c eb 3a 25 3d 52 34 ab bb 30 80 9a 3c
       0.0105922865 0.04033939 -0.005224743 0.018859953
0001f0 22 0a 06 bd 12 cd 33 bc 75 7a 4e ba de cb 9f 3c
       -0.032724507 -0.010974186 -0.0007876524 0.019506391
000200 38 9e 0c 3d 30 d1 2c 3c 34 27 ac 3c 56 3a 15 3d
       0.034330577 0.010547921 0.021014787 0.036432587
000210 ba 56 a8 bc 4e cf ab bb 99 5d 6f bc fa 0b 59 bd
       -0.020549167 -0.0052432185 -0.014609718 -0.052989937
000220 0c 25 c2 bc 9e 42 6e 3a 6f 5d 27 bd 85 33 9d 3c
       -0.023699306 0.0009088906 -0.04086059 0.019189605
000230 b8 44 82 bd d8 51 46 bc 6a c8 09 bd 96 af fa bc
       -0.06360763 -0.012104474 -0.033638395 -0.030601304
000240 1f 81 eb 3b 7f 40 37 bd 55 7f 26 3d 5f 2a 0d bd
       0.0071870233 -0.044739243 0.040648777 -0.034464236
000250 f9 09 51 3d ec f8 6e bb 26 ae d8 3b c0 65 1b 3d
       0.0510349 -0.0036464287 0.006612557 0.037938833
000260 70 b2 e6 bb 1d 21 15 bd 54 de 65 bd d4 b6 8e 3d
       -0.0070403144 -0.036408532 -0.05612023 0.069684654
000270 16 b7 0b bd 43 96 0b bc 93 00 d0 3b 24 af 63 3d
       -0.03411015 -0.008519712 0.0063477247 0.05558695
000280 dc 7e 2b 3d 1b 50 f0 3c e6 47 7b 3d 05 35 d6 3c
       0.04186903 0.029335072 0.061347865 0.026148329
000290 7c 95 57 3d f5 d5 68 bb ba 21 33 bd 43 21 70 bd
       0.052632794 -0.003552792 -0.043733336 -0.05862547
0002a0 f6 f2 98 3b 91 44 54 bd 5f a4 29 3d e7 ba ff 3c
       0.004667635 -0.051823203 0.041416522 0.031217052
0002b0 99 13 1d bd 58 dd 1b bd 7d 53 34 3d 1a ce 27 bd
       -0.038348768 -0.038052887 0.044024933 -0.04096804
0002c0 f0 0a 17 bc 15 f0 61 3d 2e c7 c6 3c b3 4e 20 3c
       -0.009218916 0.0551606 0.024264898 0.009784388
0002d0 20 ea 83 bd 84 08 c9 3c 3b bd 37 3c 11 7d 1c bd
       -0.0644114 0.024540193 0.01121455 -0.03820521
0002e0 bd aa b1 bc 8d 7c 44 3d 8a 30 6d bd d5 37 46 bd
       -0.02168786 0.047970343 -0.05790762 -0.04839309
0002f0 37 20 0b 3d 83 5b 5f bb 60 16 83 3d 47 d4 9e bc
       0.03396627 -0.0034081645 0.06400752 -0.019388331
000300 01 7e 14 3d c5 b1 24 3d bb fd 4f bc 68 b8 d3 3c
       0.03625298 0.040208597 -0.012694771 0.025844768
000310 52 28 8b 3d cc 81 07 bd 0f a0 5c bc 7e e8 98 bc
       0.067948 -0.03308277 -0.013465895 -0.018665548
000320 1f 8f 61 3d 6c ba 2d bd 6f c8 e7 bc fc c6 20 bc
       0.05506813 -0.042414114 -0.028293816 -0.009813067
000330 74 cc 38 3d ab d4 5d bc 76 6f e9 3c 04 10 d0 3b
       0.045116857 -0.0135394735 0.028495532 0.0063495655
000340 e1 15 82 bd c2 4e 13 3d ce 01 8e bc 9b 5f 7f 3d
       -0.06351829 0.03596378 -0.017334845 0.062347036
000350 30 ef 5e bd 22 9c 55 3d 42 7c 7f bd cf 89 76 ba
       -0.054427326 0.052150853 -0.06237436 -0.00094046904
000360 94 b8 99 bc fe 3d 8e 3a 66 cc d2 3b 05 da 18 3d
       -0.018764772 0.0010852215 0.0064330576 0.037317295
000370 54 2c 3f bd 9b 32 59 3d c7 f7 c5 bb e0 7d 3d bc
       -0.046673134 0.053026777 -0.0060415003 -0.0115656555
000380 46 20 4b ba 65 4d 10 bd 1e 68 82 3c e1 0c 13 3d
       -0.00077486446 -0.03523006 0.015918788 0.035900954
000390 7f 9c f6 3c 9f 2b 60 bb 73 b0 88 bd 19 cd 57 bd
       0.03010392 -0.0034205688 -0.0667428 -0.05268583
0003a0 84 2e ac bc ea 23 4c bd 78 3f 0e bd 49 ee 68 3d
       -0.021018274 -0.049838938 -0.034728497 0.05686787
0003b0 cb 29 54 3d f0 f3 5f bd 66 04 f1 3a 25 23 44 bd
       0.05179767 -0.054675996 0.0018388152 -0.04788508
0003c0 06 fe 43 3d 32 78 24 3d 45 37 c7 bc 28 63 aa b9
       0.047849678 0.04015369 -0.024318347 -0.00032498804
0003d0 e4 65 80 bd 5d c5 31 bc 68 13 4d 3d e3 b7 35 bd
       -0.06269434 -0.010850278 0.050067335 -0.04436482
0003e0 63 97 41 3c 2f 84 43 bd b8 ed 2d 3d 65 79 77 bc
       0.011815879 -0.047733482 0.042463034 -0.015104626
0003f0 b1 c1 02 bd 9a eb 68 3d 96 77 27 bd c8 f2 9e 3c
       -0.031923 0.056865312 -0.04088553 0.019402876

to_mean.0.bias f4 [256]
000000 ac fb af 3b ca 6c 89 bd 3b 92 2e 3d 7f 70 38 3d
       0.005370578 -0.06710203 0.042619925 0.04502916
000010 d1 40 1a bd 23 8b 25 3d fe e6 f8 3c 6b 6f 94 bb
       -0.03765947 0.040415894 0.030383583 -0.0045298836
000020 41 06 67 bd a4 c3 49 bd 49 18 8a 3d 4a ba 41 bd
       -0.05640245 -0.049258843 0.06742913 -0.0472968
000030 23 62 07 bd 00 97 1f bc 0f aa 72 3c 50 0a 2c bd
       -0.033052575 -0.009740591 0.014811053 -0.042002022
000040 2b 55 80 3d 72 ed f4 3c 1d 11 8d 3c dc ae a4 bc
       0.062662445 0.029898379 0.017220074 -0.02010291
000050 3a 0f 22 bd 01 de 94 3c da 4c a6 3c 8d c2 c1 bc
       -0.039565302 0.018172266 0.020300318 -0.02365234
000060 28 9e 69 bd ab 3e f2 ba df 2e 26 bd e4 67 f4 3b
       -0.057035595 -0.0018481811 -0.040572044 0.007458674
000070 25 b9 03 3d 65 6d 8e 3c d1 81 50 3d 4f d8 43 bb
       0.03215899 0.017386148 0.050905053 -0.0029883569
000080 4b a6 4e 3d e7 14 61 bd 26 68 d9 3c b4 66 3b bd
       0.050451558 -0.054951575 0.02653892 -0.045752242
000090 7a 34 82 3d fc bd 40 bb 4e b8 de 3c 8b 1b d1 bc
       0.06357665 -0.0029410115 0.027187493 -0.025525829
0000a0 e2 48 09 3d d5 74 90 3d d8 d3 18 bd 69 b6 6d 3d
       0.033516772 0.07053534 -0.037311405 0.058035288
0000b0 b7 63 14 3b 33 c4 f7 3c 00 7a 8b 3b 41 dd b9 3b
       0.0022642442 0.030244922 0.004256487 0.0056721275
0000c0 ce 98 51 b7 7e 8a 36 3d 00 b7 85 bc de c7 5c bd
       -1.2492948e-05 0.04456567 -0.016322613 -0.053901546
0000d0 7b 87 65 3d 4d 5a dc bb d5 54 23 3d dc 2f 39 3d
       0.056037407 -0.006724632 0.039875824 0.045211658
0000e0 bf 09 06 bc 71 9c 63 bd 77 71 07 3d c3 64 ec 3c
       -0.008181035 -0.055569116 0.033067193 0.02885664
0000f0 db cf 6a 3c d3 ad 21 3d 5a 13 72 bb 64 43 60 3c
       0.014331783 0.039472412 -0.0036937804 0.013687942
000100 e4 49 d6 bb 9a ba 9d 3a d7 c0 f4 bc 86 b7 81 3d
       -0.00653957 0.0012033761 -0.02987711 0.063338324
000110 dd 13 3e bc d2 9d 05 bd 7d 3d 7d bd 3d bd 85 bb
       -0.011601415 -0.032621212 -0.061826218 -0.004081397
000120 bf d0 2f bd c7 eb b2 bc ca f7 61 bb 81 f8 fe 39
       -0.042923685 -0.021840943 -0.003447997 0.00048631805
000130 94 81 21 bd 88 fb 2b 3d 04 95 3a bd ae e4 3a 3d
       -0.039430216 0.041987926 -0.04555227 0.045628242
000140 2e 97 47 3d d0 93 5e 3d 02 c9 17 3d 6b 24 31 3d
       0.04872816 0.054340184 0.03705693 0.04324762
000150 2c ec 0b 3d 9f 84 3e 3b 7a e3 e8 bc 99 81 32 bd
       0.034160778 0.0029070748 -0.028428782 -0.043580625
000160 4b fa 16 3d 3a 4b 2c 3d 00 c6 99 bd 44 78 c5 bc
       0.03685979 0.04206393 -0.07508469 -0.024105199
000170 41 33 ac 3c ec 27 21 bd 09 d1 30 bd 23 b0 ce 3b
       0.021020534 -0.039344713 -0.0431681 0.006307618
000180 54 3b 79 ba 32 a4 79 bd a7 b8 a8 bc 93 e6 76 3d
       -0.0009507437 -0.060947604 -0.020595862 0.060278486
000190 e2 03 4b 3c 0f ad 94 bc e2 2d 72 3c ec 32 44 3c
       0.012391062 -0.018148927 0.014781447 0.011975031
0001a0 56 52 79 3d 56 97 72 3a e2 b6 59 3d 4b 53 cb bc
       0.060869537 0.0009254118 0.053152926 -0.02481999
0001b0 56 f2 36 bd 85 71 36 3d 0b 58 5f bd 9b 99 dd bc
       -0.044664703 0.044541854 -0.054527324 -0.027050784
0001c0 24 05 5f 3d bd e7 fe 3c 7f 4a 68 3d e0 64 28 3d
       0.05444826 0.03111636 0.05671167 0.041111827
0001d0 10 51 4d 3d f1 19 07 bd 24 fb 3e 3d 78 c6 18 bd
       0.050126135 -0.032983724 0.046626225 -0.03729865
0001e0 05 4d b7 bc 10 89 84 3d 30 0a 59 3d d8 8a 68 3d
       -0.022375593 0.06471455 0.05298823 0.056773037
0001f0 41 89 b7 3c cc 13 07 bd 7a 48 5c bc 07 68 5f bd
       0.022404315 -0.032977864 -0.013445014 -0.054542568
000200 72 4c 17 bc 2a bb c9 bc cb d0 ff bc fa 9d 91 bb
       -0.009234535 -0.02462538 -0.03122749 -0.004443881
000210 80 93 2c bd 94 8f b7 bc 3f 89 cc 3b b2 a4 79 3c
       -0.042132854 -0.02240733 0.006241947 0.01523702
000220 18 2f 75 bd 5e e6 9f 3c 4b 47 2b bd 77 77 54 bc
       -0.059859365 0.019519027 -0.041816037 -0.012967936
000230 8b 0f 0a bd 28 c0 62 bc f9 34 51 3d 34 06 89 3d
       -0.03370623 -0.013839759 0.05107591 0.06690636
000240 e6 54 53 3d ea e0 7d 3d 82 de a0 bc d7 ef 66 bb
       0.051594637 0.061982073 -0.01963735 -0.003523817
000250 49 81 69 3d 65 87 da bb 13 d7 84 3c 96 42 6b bd
       0.05700806 -0.0066689723 0.016215837 -0.05743655
000260 b3 19 19 bc ac 6a 84 bd 2a d7 21 3c 0c 00 52 bb
       -0.009344506 -0.064656585 0.009877959 -0.0032043485
000270 1f 5f 80 3d f4 0b 44 3d f1 7d 32 bd 54 c0 46 bd
       0.06268143 0.047862962 -0.04357714 -0.048523262
000280 2c 68 31 bc c7 a2 16 bc 7d 8f 9b bd 79 51 00 bd
       -0.010828059 -0.009194083 -0.075957276 -0.0313277
000290 38 a4 50 3d a5 94 07 bc ac cc 8a 3c 4d 1b ef bb
       0.05093786 -0.008275186 0.016943298 -0.0072969557
0002a0 f6 2f 7b 3d 14 99 76 3d f0 d4 f3 3c 26 75 35 3d
       0.061325036 0.06020458 0.029764622 0.044301175
0002b0 d3 76 01 3d 40 67 65 bc 76 5c 32 bd a9 8e 09 bc
       0.03160746 -0.0140016675 -0.04354521 -0.008395829
0002c0 81 41 19 bd 5b d7 f5 3b d3 c1 42 3d e4 e2 d6 3c
       -0.037415985 0.007502479 0.047548126 0.026231237
0002d0 8e 90 0c 3c cc d1 fa bb 25 a9 ad 3a 03 54 d6 ba
       0.008579386 -0.0076544043 0.0013249262 -0.0016351942
0002e0 59 ec ac 3c 10 37 19 bc 1c 06 70 bd 87 87 4e 3d
       0.021108793 -0.009351507 -0.058599576 0.050422218
0002f0 01 69 b5 bc c3 9c 15 3d a5 df 8d bc 3f c5 0c bd
       -0.022144796 0.036526453 -0.017318556 -0.034367796
000300 67 ef 40 3d 0b ea 1e bc 79 df 5e 3d d5 6a 81 3d
       0.047103312 -0.009699355 0.05441234 0.06319205
000310 59 11 f6 bc a0 71 bd bb 97 7c 39 3d b2 d9 29 3d
       -0.030037569 -0.0057813674 0.045284834 0.041467376
000320 1d 9a 02 bc 5f 07 36 3d 5a c6 14 bc 09 a9 04 3d
       -0.007971314 0.044440623 -0.009080494 0.032387767
000330 ef 69 c0 bc c7 b3 41 bd 30 48 b0 3b 6c 2c 25 3d
       -0.023488013 -0.04729059 0.005379699 0.040325567
000340 7d 76 85 3d 17 9f 94 bd fd c8 15 3d 3b 25 0a 3d
       0.065167405 -0.072569065 0.03656863 0.033726912
000350 d1 7d c8 3c bc 8d a9 bc e4 aa 2c 3c 50 67 11 3c
       0.024474056 -0.020697467 0.01053879 0.008874729
000360 13 5b 87 bb bf 84 55 3d ca 11 05 3c d2 d8 ad 3b
       -0.00413073 0.05212855 0.008121917 0.005305388
000370 9c 72 3e bd 59 91 29 bc 4d 7a fa 3c a6 d9 c4 3c
       -0.04649602 -0.010349595 0.030575896 0.024029564
000380 80 21 8f bc 74 0d 5e 3d b2 2a 2e bd fa 92 83 3d
       -0.017472029 0.05421205 -0.042521186 0.06424518
000390 eb 3a db bc 50 75 30 bc fd 45 6a 3d cd dd 9b bc
       -0.026761493 -0.010770157 0.057195652 -0.019026661
0003a0 4c cc 85 bc 6e 54 4b 3c cb 17 c9 3c a2 db a7 3c
       -0.016332768 0.012410266 0.024547478 0.020490471
0003b0 b6 76 1a bd da 72 4c 3d e5 80 6f bc cc d0 9f bd
       -0.037710868 0.04991422 -0.014618133 -0.07803497
0003c0 c7 df 9d bc f0 26 80 3d 54 46 5a bd 26 36 59 3d
       -0.019271744 0.06257427 -0.053289726 0.053030156
0003d0 00 70 3b 3d 16 30 fc 3c dd 41 88 bd 14 80 01 3d
       0.04576111 0.030784648 -0.066531874 0.031616285
0003e0 ef a0 41 3d bf e0 2d 3d c3 1f e3 bc 12 00 5f 3d
       0.04727262 0.042450663 -0.027725106 0.054443426
0003f0 ab 23 83 bd 59 70 84 3d d7 0c a1 bb 5c 9c da bc
       -0.064032875 0.06466741 -0.0049148607 -0.026685886

to_mean.2.weight f4 [18, 256]
000000 9b 36 03 3d 19 f6 57 bd 00 35 5f bd a0 f4 70 3d
       0.032034498 -0.05272493 -0.054493904 0.058827043
000010 f3 52 5d bc f2 50 15 bd cb 22 52 bd 9c d2 f8 bc
       -0.013508546 -0.03645415 -0.051302712 -0.030373864
000020 4c 2b 23 3b 34 f0 d5 bb 51 86 3b 3d e1 ad 24 3d
       0.0024897633 -0.0065288786 0.04578239 0.040204886
000030 3e a8 ae 3b a6 f7 b3 bd 57 4f d3 bc dd b7 a3 bc
       0.0053301146 -0.087874696 -0.025794668 -0.019985134
000040 48 1b 1f 3d db 24 1b 3b b2 ca 37 bc b8 39 a7 bc
       0.038844377 0.002367309 -0.01121776 -0.020413265
000050 3f f1 08 3a 74 04 11 3d 8f 74 ce bb 68 8f a0 3c
       0.0005223937 0.035404637 -0.006300516 0.019599631
000060 be 4b 27 bd 3f 27 69 bd fb a3 ec 3b fa 2b f3 3c
       -0.040843718 -0.056922194 0.0072216964 0.029684056
000070 cf 60 46 bd e9 e1 7a bd 0f 8b d5 3c 14 6c a6 bd
       -0.048432168 -0.0612506 0.026067285 -0.08126083
000080 db d3 c9 3c 6f 69 2f 3d 52 03 80 bd 7e 67 f1 3c
       0.024637153 0.04282516 -0.06250633 0.029468294
000090 49 3b 57 3d c9 0b 29 bd 0f 93 15 3d 45 eb 08 3d
       0.052546773 -0.041271005 0.0365172 0.033427496
0000a0 54 ca 3e 3d a6 f2 82 bd 3b 5e 13 3d 74 1a 1b 3c
       0.046579674 -0.06393938 0.035978537 0.009466756
0000b0 31 ca 15 3d ff 55 a0 3d bc 27 43 bd 99 94 6e bd
       0.036569778 0.078289025 -0.047645316 -0.058247183
0000c0 fe e2 db 3b 07 2d 56 3d 94 82 6b bd 72 b3 b5 bc
       0.006710409 0.052289035 -0.057497576 -0.022180293
0000d0 44 ba 05 3b fd 25 f6 3c 01 c5 83 bd ab e7 9a 3c
       0.0020405212 0.030047411 -0.0643406 0.018909296
0000e0 6f 14 f3 3c 7f 51 2c bd 39 b5 55 3d 25 f6 83 bd
       0.02967283 -0.04206991 0.05217478 -0.06443433
0000f0 dd 5b 2e bd 28 8c 5b bd 0a 2b 0d 3d ac 76 11 3d
       -0.042568076 -0.05360046 0.034464873 0.035513565
000100 d1 6a 30 3d 01 b0 ce 3b 32 cf 1b bd 15 db 82 3d
       0.043070618 0.0063076024 -0.038039394 0.06389443
000110 96 50 fc 3c a7 5f 52 3d c7 f1 35 3d ce 1c 93 bd
       0.030800145 0.051360752 0.04442003 -0.071832284
000120 7f 79 62 3d cd 2b 3c bd 05 7d aa bd 5c d2 48 3c
       0.05529165 -0.04594021 -0.08324627 0.012257185
000130 a6 8d 55 bd a2 3a 89 3c f0 d3 ed 3c a0 07 82 3d
       -0.05213704 0.016751591 0.029031724 0.063491106
000140 2d 16 78 bc 9b 3e 2d 3b 84 45 e9 37 64 35 29 bc
       -0.015142006 0.002643502 2.7808135e-05 -0.010327671
000150 86 db 5b bd 54 a8 16 bd 17 4e a9 bd f5 55 16 ba
       -0.05367615 -0.036781624 -0.082668476 -0.00057348545
000160 3c 5b 04 3d ff 65 d2 3c f8 d0 a2 b9 56 97 eb bc
       0.03231357 0.025683401 -0.00031054742 -0.028758686
000170 8e 82 6e 3d c2 9b 59 bd 26 ff ae bc 0b 0c 40 3c
       0.058229975 -0.053127058 -0.021361899 0.011721621
000180 2f 2a 44 3c 4e 80 ae 3c 28 27 a6 bd 2c 5b 57 3c
       0.011972948 0.021301415 -0.08112937 0.013144296
000190 8e 10 53 3d 47 03 e9 3c 80 68 78 3d 54 d1 0a 3d
       0.05152946 0.028443946 0.060646534 0.033891037
0001a0 38 1f 12 3d 73 a7 c7 3c 75 70 09 bd 61 00 88 bd
       0.035674304 0.024371838 -0.033554513 -0.06640697
0001b0 b5 d9 27 bd 9e 66 95 3c 2c 98 d5 3c b2 e3 e8 bc
       -0.040979106 0.018237408 0.026073538 -0.028428886
0001c0 7e aa 4b bd b2 ec 0b bd bd 0e e2 bc 9c 3d 60 bd
       -0.04972314 -0.034161277 -0.027594918 -0.054746255
0001d0 88 f1 00 3d 9b 4c 1b 3d e9 97 60 bd e0 b6 22 bd
       0.031480342 0.037914854 -0.054832373 -0.039725184
0001e0 3c 74 f3 3c 5d 01 28 3d fe c5 18 3d 16 3f 2f 3d
       0.02971851 0.041016925 0.037298195 0.042784773
0001f0 3a 5c ea bc 34 06 5b bc ff 61 bb 3c 68 20 f6 bb
       -0.02860843 -0.013368178 0.022873877 -0.0075111873
000200 5a 41 45 bc fa 8f 86 bc 61 2d 16 bd 30 17 c1 bb
       -0.012039507 -0.016426075 -0.03666437 -0.0058926567
000210 e0 4b 76 bd 3c 37 31 bb fe 2f 23 bc ca 9f 9c 3c
       -0.060130954 -0.002704098 -0.009960173 0.019119162
000220 ce 1f 95 bd 52 a0 d7 3c 43 10 89 bc 8a 6e f1 3c
       -0.07281457 0.026321564 -0.016731387 0.029471654
000230 43 1d 81 bd ec 1f 7e 3b 88 8c 36 3d 31 ab 48 bb
       -0.06304409 0.003877635 0.044567615 -0.0030619616
000240 9d 92 84 bd 39 ae 42 bc f2 60 43 bd 5a 63 72 3c
       -0.06473277 -0.011882358 -0.047699876 0.014794195
000250 d0 9a f7 bc 63 f3 b5 3c 75 95 67 bd af 93 13 3c
       -0.030225188 0.022210782 -0.056539018 0.0090073785
000260 f4 6f 8f bc 97 cd f4 3c c0 96 a7 3d 5c 70 ad 3b
       -0.017509438 0.02988319 0.0818305 0.0052929353
000270 64 16 2c bd 4a ad ec bb b0 6c a9 3c a1 86 f5 bc
       -0.04201354 -0.007222806 0.020681709 -0.029971423
000280 1f 8c 25 bd 0a 7a b5 3c 7a 2f 2d 3d da 0c 3e 3d
       -0.040416833 0.02215292 0.042281605 0.046398975
000290 0f a0 5c 3d 93 a8 f9 bc 98 69 3a 3c d7 dd 66 bc
       0.05386358 -0.03047589 0.011377715 -0.014090977
0002a0 62 0e 70 bc 56 66 1b bc 8c 28 a1 bc 4b c3 50 bd
       -0.014651867 -0.009484848 -0.019672655 -0.050967496
0002b0 83 f4 01 bb 6e 85 a5 bc d3 18 67 bd f9 a0 21 bd
       -0.0019829578 -0.020205226 -0.05642016 -0.039460156
0002c0 01 12 ba 3c 09 1a 6b bd 13 24 62 bb 5c 54 e1 3c
       0.022713663 -0.057397876 -0.0034506365 0.027506046
0002d0 1e 5f 59 bd e9 90 4a bd 24 0c 24 bd 9a ed 51 bd
       -0.053069226 -0.049454603 -0.04005064 -0.051251985
0002e0 e6 c7 48 3c 83 09 1f 3c 67 43 27 bd 62 53 8e 3c
       0.012254691 0.009706858 -0.040835764 0.017373744
0002f0 d2 6d 18 bb 0f 39 27 bd 44 41 81 3c f6 66 37 bd
       -0.0023258817 -0.0408259 0.015778191 -0.044775926
000300 9f a8 01 bd af 18 25 bc 77 5d 98 3c 96 20 02 bd
       -0.03165495 -0.010076686 0.018599255 -0.031769358
000310 9f 50 95 3c ab 7a be bd 97 d7 ba 3c a6 c8 22 bd
       0.01822692 -0.09300741 0.02280788 -0.039742135
000320 db c6 2e bd 78 c2 00 3c 8d d8 fc 3c cf d8 34 bd
       -0.042670112 0.007858865 0.030864978 -0.044152077
000330 af 2f 12 bd c0 c6 75 bd c8 b3 dc 3b 0d f3 e0 bc
       -0.035690006 -0.060003996 0.006735299 -0.027459646
000340 f8 80 9b 3c e9 c9 69 3c b9 9a bb bd e2 4d 89 3d
       0.018982396 0.014269331 -0.091603704 0.06704308
000350 28 26 93 bc 80 8d ac bd c0 c0 f5 bc 6c 84 6a bd
       -0.01796253 -0.084254265 -0.029999137 -0.057255194
000360 c6 80 dd 3c 8e f2 f2 3c f1 05 6e bd 25 85 0e bd
       0.027038943 0.029656675 -0.058111135 -0.034794945
000370 ee d0 0a bd e7 a9 ab bd 2c 3e 58 bd 61 02 09 bd
       -0.033890657 -0.08382016 -0.052793667 -0.033449534
000380 7f 37 08 bd 89 c3 ea bb 01 c8 cc bc 86 1b db bc
       -0.03325605 -0.007164423 -0.024997713 -0.026746523
000390 59 2d 43 bc 9f b7 a8 bd 9e 0a 54 bd 9b ea 69 bd
       -0.011912667 -0.08238148 -0.051767938 -0.057108503
0003a0 1e 3c f7 bc a8 9b d9 bb ad 26 80 bd b3 ab c8 bb
       -0.030180033 -0.00664087 -0.06257377 -0.0061239838
0003b0 de c5 44 3d 4f cf 54 3d 95 3e 21 3d c3 7f 89 bd
       0.048040263 0.051955517 0.039366324 -0.06713822
0003c0 86 da 65 3d c5 67 24 bd 4a 5d 3c bd 74 a4 88 bd
       0.056116603 -0.040138025 -0.045987405 -0.06671992
0003d0 c6 65 01 bd de fb b8 3b 9f d5 4e bd a0 51 15 3d
       -0.0315912 0.0056452593 -0.050496694 0.036454797
0003e0 ad c5 02 3c a4 95 18 3d f1 5f 5b ba 6b 14 16 bd
       0.0079817 0.037252083 -0.00083684834 -0.036640566
0003f0 9b dc 05 3d 6f 24 fa 3c f9 21 aa bd e4 a5 26 bd
       0.03268109 0.030534951 -0.08307261 -0.04068555
