save9_1_23/save1_stand_verystill7800.pth (torch, 282843 bytes, 11 tensors)

shared_net.0.weight f4 [256, 73]
0	0xbd3a4ce5	-0.04548349
1	0x3e969764	0.29412377
2	0xbe126bbf	-0.14298914
3	0xbd6f4865	-0.05841865
4	0xbd2ecb92	-0.04267461
5	0x3df9128a	0.12161739
6	0x3d9b5dca	0.07586248
7	0x3d9798d2	0.07402195
8	0xbc8cd5ed	-0.017191852
9	0x3d4bd395	0.049762327
10	0xbe36b3a3	-0.17841963
11	0xbd6cf9df	-0.057855483
12	0xbea9a1b6	-0.33131188
13	0xbec0f3f1	-0.37686113
14	0xbef555cd	-0.47917023
15	0x3d40071d	0.046881784
16	0x3b6dabcf	0.0036265736
17	0x3e8a00e7	0.26953813
18	0x3db10b1e	0.086446986
19	0xbc88ea84	-0.016713388
20	0x3df4caf5	0.119527735
21	0x3d247b8f	0.040156897
22	0xbf00fddd	-0.50387365
23	0xbe9e7646	-0.3094961
24	0x3db49426	0.088173196
25	0x3e6b0748	0.22951996
26	0x3dc9f0ba	0.09860368
27	0xbec7bfd3	-0.39013538
28	0x3c2640cd	0.010147286
29	0x3d08ac7b	0.033367615
30	0xbe14237b	-0.1446666
31	0x3cd14199	0.025543975
32	0xbd092b5c	-0.033488616
33	0xbe1a05eb	-0.1504132
34	0xbd7cfddd	-0.06176554
35	0xbd4e8af4	-0.050425485
36	0xbde816e1	-0.11332489
37	0x3dbb8bf3	0.091575526
38	0x3b13e94d	0.0022569478
39	0xbc24abcd	-0.010050726
40	0xbcedc380	-0.029023886
41	0xb8fb02f7	-0.00011969165
42	0xbb9e92fc	-0.0048392992
43	0xbdf09c61	-0.11748577
44	0xbcb29202	-0.021798138
45	0xbe0355f7	-0.12825762
46	0x3a3d2c3d	0.000721637
47	0x3d8d4b6c	0.06899151
48	0xbdeec2d9	-0.11658258
49	0x3c16a31a	0.00919416
50	0x3e097e6a	0.1342713
51	0x3dd341a8	0.10315257
52	0x3d71517b	0.058915596
53	0x3dcb2eaf	0.099210136
54	0x3d5f8808	0.05457309
55	0xbd63b6d3	-0.055594277
56	0x3c69ef13	0.014278191
57	0xbe6cbc95	-0.23118813
58	0xbdb04bcd	-0.08608208
59	0xbd4f74ad	-0.05064838
60	0x3d8d8a87	0.069111876
61	0x3d8b31aa	0.06796582
62	0xbd8f2de4	-0.06991175
63	0x3cfc0aeb	0.030766925
64	0x3d783625	0.06059851
65	0xbcbe9fc8	-0.023269549
66	0x3d1ac5f0	0.037786424
67	0x3cfde2a8	0.030991867
68	0x3b85e75d	0.0040864185
69	0x3e0a1971	0.13486268
70	0xbdffb313	-0.124853276
71	0xbe3bce99	-0.1834053
72	0x3d780e6f	0.06056064
73	0x3e180f64	0.14849621
74	0x3dd49f53	0.10381951
75	0x3eb68e6c	0.35655534
76	0xbdbbd865	-0.09172133
77	0xbe0147fb	-0.12625115
78	0xbdab0185	-0.08349899
79	0xbcfd5c25	-0.030927727
80	0xbdf52904	-0.11970714
81	0x3d2bd168	0.041947752
82	0x3dcbd2c0	0.09952307
83	0xbe529910	-0.20566201
84	0xbd1ec857	-0.038765278
85	0x3e6a50ba	0.22882357
86	0xbd211b06	-0.039332412
87	0x3da63e20	0.08117318
88	0xbd23ee40	-0.040022135
89	0xbe540797	-0.2070602
90	0x3ea084a1	0.31351188
91	0xbd6baa0f	-0.057535227
92	0xba6a5e32	-0.0008940428
93	0x3de69258	0.112583816
94	0x3de4510a	0.111482695
95	0x3d2eff8b	0.042724174
96	0x3ece7a2a	0.4032758
97	0x3e969207	0.29408285
98	0xbefe0f87	-0.4962122
99	0xbd0e160a	-0.034688987
100	0x3dced61e	0.10099433
101	0xbe056ee4	-0.13030583
102	0x3e287e7e	0.16454503
103	0xbe1b1338	-0.1514405
104	0x3bdee1cc	0.0068018194
105	0xbc9f7d3b	-0.019468894
106	0xbda8dfc8	-0.08245808
107	0xbe3e5a68	-0.18589175
108	0x3d06c351	0.032901112
109	0xbbad1f37	-0.005283262
110	0xbdcd8198	-0.10034484
111	0xbd2804f6	-0.041020356
112	0xbd8c5a12	-0.06853117
113	0x3e8f3a6f	0.2797427
114	0xbd01c24c	-0.031679437
115	0xbc298d22	-0.01034859
116	0xbdb4f60e	-0.08835994
117	0x3dd3ddb0	0.10345018
118	0xbc68fde7	-0.014220691
119	0x3b77a8ad	0.0037789748
120	0x3df1f759	0.11814756
121	0x3bdfbdb9	0.0068280366
122	0xbd2a6c54	-0.041607216
123	0x3da44142	0.080202594
124	0xbdf5a322	-0.11994006
125	0xbda32192	-0.079653874
126	0x3d09e637	0.033666816
127	0xbd48a7e3	-0.048988234
128	0xbd1065ed	-0.035253454
129	0xbd769042	-0.06019617
130	0x3d2b4ca4	0.041821137
131	0x3c4e46c2	0.012590112
132	0xbda051a2	-0.0782807
133	0x3c015069	0.007892706
134	0x3d4c34cb	0.049855035
135	0x3b9f97b6	0.0048703803
136	0xbbc39993	-0.005969235
137	0xbc2c1ffa	-0.010505671
138	0x3d2dc504	0.042424217
139	0x3e17418b	0.14771096
140	0x3e2b6ad2	0.16739967
141	0x3e0ffd10	0.1406138
142	0x3e363f38	0.17797554
143	0xbd9e92d5	-0.0774285
144	0xbd4a96c9	-0.049460206
145	0x3d55fb86	0.052241825
146	0x3db223ab	0.086982094
147	0xbded3c82	-0.115838066
148	0xbdb69ac9	-0.08916242
149	0xbe18ddc0	-0.14928341
150	0xbe5c3fc4	-0.215087
151	0xbe7e3e4e	-0.24828455
152	0xbcbc451d	-0.022982175
153	0xbca45311	-0.02005914
154	0x3d343631	0.043996993
155	0xbceadfd7	-0.028671188
156	0x3d9cd129	0.07657082
157	0xbe38a896	-0.1803306
158	0x3d720a58	0.059091896
159	0xbdd09dc3	-0.10186341
160	0x3e4c9358	0.19978082
161	0x3ce22a5c	0.02760809
162	0xbe668a5b	-0.22513716
163	0xbe76b8b0	-0.2409389
164	0xbe19b672	-0.15011004
165	0xbde7329c	-0.1128895
166	0xbdf737d3	-0.120711945
167	0x3e2505c8	0.16115487
168	0x3df3107c	0.118683785
169	0x3d9caa07	0.07649618
170	0xbdac5d21	-0.084162004
171	0xbea5f6f6	-0.3241498
172	0x3d340375	0.04394861
173	0x3dd6b4f8	0.10483736
174	0xbe626663	-0.2210937
175	0x3e27ef15	0.16399796
176	0xbc8c0222	-0.01709086
177	0xbe2dd0cb	-0.1697418
178	0xbb268bdc	-0.0025412953
179	0xbe3f8ebf	-0.18706797
180	0x3e2a0eb4	0.16607171
181	0x3c32934e	0.010899378
182	0x3d4925a9	0.04910818
183	0x3db4207b	0.08795258
184	0x3e37d7e7	0.17953454
185	0xbdc1ad35	-0.09456865
186	0xbcc984c5	-0.024599442
187	0xbd895a7d	-0.067067124
188	0xbe465b97	-0.19370876
189	0x3d5e4d1c	0.054272756
190	0x3e2b4028	0.16723692
191	0x3e700d0e	0.2344248
192	0xbd8b4494	-0.068001896
193	0xbb695eaa	-0.0035609403
194	0xbe24c4b7	-0.16090666
195	0xbd93d866	-0.07219009
196	0xbe0c74f4	-0.13716489
197	0x3ca558e1	0.020183982
198	0xbd23d909	-0.040001903
199	0xbc952af8	-0.018208966
200	0xbc226e92	-0.009914057
201	0x3dc5a577	0.096507005
202	0xbdb5a6de	-0.08869718
203	0xbe6ac814	-0.22927886
204	0xbd78df23	-0.060759675
205	0x3de7dd97	0.11321562
206	0xbd259ce4	-0.040432826
207	0x3dbd68e9	0.09248526
208	0x3d64afa5	0.05583157
209	0x3d33e1b7	0.04391643
210	0x3c7d278e	0.015451325
211	0x3b1a5c84	0.0023553679
212	0x3d5dd3ea	0.054157175
213	0xbc64fbd1	-0.013976053
214	0xbe3bb5a5	-0.1833101
215	0x3e29053e	0.16505906
216	0xbe031025	-0.12799127
217	0xbe306628	-0.1722647
218	0x3e0bf508	0.13667691
219	0xbd8b758e	-0.06809531
220	0xbd242033	-0.04006977
221	0x3e6ff0ba	0.23431674
222	0xbccb331a	-0.02480464
223	0xbe4f3a4a	-0.2023708
224	0xbe6cb230	-0.23114848
225	0x3eaeb5f6	0.341232
226	0xbd8b8842	-0.068130985
227	0xbd23990b	-0.039940875
228	0xbd5f445a	-0.054508545
229	0xbca656fa	-0.020305146
230	0x3c0e6cf3	0.008692968
231	0x3e069076	0.13141045
232	0xbe66dfd7	-0.22546326
233	0x3e181b6a	0.14854208
234	0x3e729b38	0.23692024
235	0xbdc5a5fe	-0.09650801
236	0x3a4db862	0.00078476046
237	0xbd889991	-0.066699155
238	0xbd9fcbf2	-0.07802571
239	0x3dc59a94	0.09648624
240	0x3cb4a8de	0.022053178
241	0x3e0a2993	0.13492422
242	0x3db0ae8f	0.086270444
243	0x3dd68cb8	0.10476059
244	0xbdb92547	-0.09040313
245	0xbe18ff6b	-0.14941184
246	0x3dc67461	0.09690166
247	0xbe131c1f	-0.14366196
248	0xbdf60b43	-0.12013867
249	0xbe159965	-0.14609297
250	0xbcf69a03	-0.030102735
251	0x3d61b04f	0.05509978
252	0xbdd2de1f	-0.102962725
253	0xbd432157	-0.047639217
254	0xbdee84c9	-0.116464205
255	0xbdd556db	-0.10416957

shared_net.0.bias f4 [256]
0	0x3c8d9b76	0.017286044
1	0x3d416122	0.047211774
2	0xbd0a1e34	-0.03372021
3	0x3ca1af1c	0.019736819
4	0xbc5bcafc	-0.013415094
5	0xbd98d832	-0.07463111
6	0x3dd7e28d	0.10541258
7	0x3d47a1f0	0.04873842
8	0xbe3a3b99	-0.18186797
9	0xbdbb2307	-0.0913754
10	0xbd7a685d	-0.061134685
11	0xbe261bd2	-0.1622155
12	0x3ddae5a6	0.10688333
13	0xbd7b4676	-0.061346494
14	0x3a54af23	0.00081132556
15	0x3da102e9	0.07861883
16	0xbd0f42f2	-0.034975953
17	0x3d9d9061	0.07693554
18	0xbd0924fd	-0.03348254
19	0xbdfe5133	-0.12417831
20	0x3cf9f8f1	0.030514212
21	0x3dbe2bd0	0.092857
22	0x3df55aea	0.11980231
23	0xbdc136a3	-0.09434249
24	0xbde18aab	-0.11012777
25	0xbddb9243	-0.107212566
26	0x3dd4406b	0.10363849
27	0x3dc8766b	0.097882114
28	0x3d888cb6	0.066674635
29	0x3db3b8c5	0.08775476
30	0x3cbeeaf9	0.023305403
31	0x3d546fce	0.051864438
32	0xbda5c2bc	-0.08093783
33	0xbb0eeada	-0.0021807463
34	0xbd7d699a	-0.061868288
35	0xbdcbfe19	-0.09960575
36	0xbe045589	-0.12923254
37	0x3d5840a0	0.052796006
38	0x3dd6c8ac	0.10487494
39	0xbd95918c	-0.073031515
40	0xbe2829df	-0.16422223
41	0xbd84e39d	-0.06488726
42	0x3caae333	0.02086029
43	0x3daf17fd	0.08549497
44	0x3de56347	0.11200576
45	0xbccb0152	-0.024780903
46	0x3e156b71	0.14591767
47	0x3da24bde	0.07924627
48	0x3bbeb0d6	0.0058194203
49	0xbdce20bd	-0.10064838
50	0xbdeedfa8	-0.11663753
51	0x3c1b4d61	0.009478898
52	0x3c6e8c5d	0.014559832
53	0xbd790637	-0.060796943
54	0x3d6bc61c	0.05756198
55	0x3d47cf91	0.048781935
56	0x3c9d4fe7	0.01920314
57	0x3c447a09	0.011991986
58	0xbe4a88bb	-0.19778721
59	0x3dc09a56	0.09404437
60	0x3d0adf4f	0.03390437
61	0xbd57fd82	-0.052732
62	0xbdc1c8b3	-0.094621085
63	0xbc431bc0	-0.011908472
64	0xbbedcdb0	-0.007257186
65	0xbd051530	-0.03249091
66	0xbc7e9ccf	-0.015540316
67	0x3dae53a6	0.085120484
68	0x3d4f2d4b	0.050580304
69	0x3db8f213	0.09030547
70	0xbe539bff	-0.20664977
71	0x3bb118a2	0.005404548
72	0xbe275cc7	-0.16343985
73	0xbd59161a	-0.052999593
74	0xbdc85107	-0.0978108
75	0x3d5ffc45	0.054683942
76	0x3c37d194	0.011219401
77	0x3e198c6b	0.14994971
78	0x3dd294e0	0.10282302
79	0xbb0a163d	-0.0021070384
80	0xbd66d61c	-0.056356534
81	0x3da10750	0.07862723
82	0x3d57d417	0.0526925
83	0x3d919db1	0.071101554
84	0xbccfba9e	-0.02535754
85	0x3cae5b74	0.021283843
86	0xbdbec1ba	-0.09314294
87	0x3df9fc14	0.12206283
88	0x3df8da9c	0.121510714
89	0x3b1724ca	0.00230627
90	0xbc43538a	-0.011921773
91	0xbc55d867	-0.013052083
92	0x3d8c6e7e	0.06857012
93	0x3a1e029d	0.0006027611
94	0xbd9531e1	-0.07284904
95	0xbc109088	-0.008823521
96	0xbd2da75f	-0.042395946
97	0x3d8b688f	0.06807052
98	0xbd57378e	-0.052543215
99	0xbdabefa0	-0.08395314
100	0x3df3d673	0.11906137
101	0xbdd6d272	-0.10489358
102	0x3d80d9da	0.06291552
103	0xbbfe95e6	-0.007769334
104	0xbdb8a752	-0.09016289
105	0xbdb52e9f	-0.08846783
106	0x3bf431a9	0.007452209
107	0xbc7a8016	-0.015289327
108	0x3d3adb4d	0.045619298
109	0x3d5a91ab	0.053361576
110	0xbd83c972	-0.06434907
111	0x3dfee110	0.12445271
112	0x3ca44e32	0.020056818
113	0x3d5615c1	0.05226684
114	0xbd6a31be	-0.057176344
115	0xbd4330d8	-0.047654003
116	0xbd2b50d6	-0.041825138
117	0xbd9e02e9	-0.07715399
118	0xbda36388	-0.079779685
119	0x3d2646de	0.040594928
120	0x3db97761	0.09055973
121	0x3d8949bb	0.06703516
122	0xbe019792	-0.12655476
123	0x3cc3f340	0.023919702
124	0xbdeb666c	-0.11494145
125	0xbd70b62b	-0.05876748
126	0xbd909d03	-0.070611976
127	0x3d7bd82e	0.061485462
128	0xbd466c13	-0.04844291
129	0x3cea857d	0.028628105
130	0x3d941f17	0.072324924
131	0xbb806626	-0.003918427
132	0x3dc627a6	0.09675531
133	0xbd182bc4	-0.037151113
134	0x3cc9f7fa	0.024654377
135	0xbd7f6e25	-0.0623609
136	0x3d091ae0	0.033472896
137	0xbd9f7fea	-0.077880695
138	0xbdefce55	-0.117092766
139	0x3da60549	0.08106477
140	0x3d23df5a	0.040007927
141	0xbc0d0556	-0.008607229
142	0xbdb1b841	-0.08677722
143	0xbd1d2bf6	-0.038372003
144	0x3d59fb53	0.053218197
145	0xbe0ea21c	-0.13929027
146	0xbd8fe379	-0.07025809
147	0xbd8d8c97	-0.06911581
148	0x3e00aa59	0.12564982
149	0x3d8da140	0.069155216
150	0xbe172913	-0.14761762
151	0xbe03fb93	-0.12888937
152	0xbd63a255	-0.055574734
153	0x3dc0ca3f	0.094135754
154	0x3daf955d	0.08573411
155	0x3d89236e	0.06696211
156	0x3c5ade68	0.01335869
157	0xbdbb5ac3	-0.09148171
158	0x3caae348	0.02086033
159	0x3df163e9	0.117866345
160	0xbddf7e34	-0.10912743
161	0xbe13bc9d	-0.14427419
162	0x3db00b50	0.08595908
163	0x3ad404f4	0.0016175793
164	0xbd85d072	-0.065338984
165	0xbd6e5499	-0.058186147
166	0xbdb845e8	-0.089977086
167	0xbe0e4607	-0.13893901
168	0xbbb646a5	-0.0055626207
169	0xbd4d812d	-0.05017202
170	0x3d9e0ec7	0.07717662
171	0xbd00aa55	-0.03141244
172	0xbba633b5	-0.005072082
173	0xbdd163c8	-0.1022411
174	0x3e011863	0.12606959
175	0xb9e2ceb3	-0.00043260082
176	0xbe96abd1	-0.2942796
177	0x3d9173f4	0.071021944
178	0x3d3b53d1	0.04573423
179	0x3dedc6d0	0.11610186
180	0x3dba7ad5	0.091054596
181	0xbc9ca8d1	-0.019123467
182	0x3ce5f2db	0.028069904
183	0x3de5d970	0.112231135
184	0x3c6528ff	0.013986825
185	0x38922076	6.967869e-05
186	0xbc9439a1	-0.018093886
187	0xbde1f0cc	-0.110322565
188	0x3db42780	0.087965965
189	0x3d0ee19c	0.034883127
190	0x3dbe8c61	0.09304119
191	0x3d7eb66a	0.062185682
192	0x3d605404	0.054767624
193	0x3c7b32da	0.015331948
194	0xbc558917	-0.013033173
195	0xbc78da11	-0.01518871
196	0x3d4a3dd5	0.049375374
197	0xbd28647a	-0.041111447
198	0x3e1b9f37	0.15197454
199	0x3e13e160	0.14441442
200	0xbd5b88b1	-0.053597156
201	0xbd631ed1	-0.05544931
202	0xbc0049a2	-0.007830055
203	0xbda898b3	-0.0823225
204	0x3d468b65	0.04847278
205	0x3d7e21f5	0.062044103
206	0x3d94ccee	0.0726565
207	0x3c11e708	0.00890518
208	0xbd8a25e7	-0.067455105
209	0xbdfea05c	-0.1243293
210	0x3c9fda6d	0.019513333
211	0x3db2371c	0.087019175
212	0xbd256b41	-0.04038549
213	0xbd373a42	-0.044733293
214	0xbe06af23	-0.13152747
215	0x3b5e9241	0.0033961686
216	0xbd6818c5	-0.056664247
217	0xbdab1451	-0.083534844
218	0x3cc2d21d	0.02378183
219	0xbdfa1535	-0.12211076
220	0xbe434b15	-0.1907161
221	0xbdbab55b	-0.09116622
222	0xbd4892ba	-0.048968054
223	0x3c678ca1	0.01413265
224	0xbdafedfd	-0.085903145
225	0xbc1fd288	-0.009754784
226	0xbda94554	-0.082651764
227	0x3d89eb30	0.067343116
228	0x3dab092e	0.0835136
229	0xbc39bb8a	-0.011336217
230	0xbdfc3468	-0.12314683
231	0xbd23c9ba	-0.039987303
232	0xbddd79e1	-0.10814262
233	0xbc8a681e	-0.01689535
234	0xbdb68401	-0.089118965
235	0xbdb6acea	-0.089196995
236	0x3db11b64	0.086478025
237	0xbd3376e4	-0.043814555
238	0x3d34ea7d	0.044168938
239	0x3de842e2	0.11340882
240	0xbde9be89	-0.11413295
241	0xbdc9990e	-0.09843646
242	0xbdacbf2b	-0.084349
243	0x3dc8da9f	0.09807324
244	0x3e0305cd	0.12795182
245	0x3c253a22	0.010084661
246	0xbdc0abd6	-0.09407775
247	0xbd317bd2	-0.043330975
248	0xbd140fc2	-0.03614784
249	0xbe241812	-0.16024807
250	0x3d083593	0.033254217
251	0x3db0eaea	0.08638556
252	0x3db2594d	0.08708439
253	0xbdce27e6	-0.10066204
254	0x3d0d94f9	0.0345659
255	0xbc90b23c	-0.017663114

shared_net.2.weight f4 [128, 256]
0	0x3b31386e	0.0027041691
1	0xbcd79f2b	-0.026321014
2	0x3dae4090	0.08508408
3	0xbd2ce525	-0.042210717
4	0x3cf1c3a8	0.029512241
5	0xbd83cbee	-0.06435381
6	0x3d7bd750	0.061484635
7	0xbce98534	-0.028505899
8	0x3c33dd9d	0.01097813
9	0x3d8e5bcf	0.06951105
10	0x3b8ba421	0.004261509
11	0x3d6f38b0	0.05840367
12	0x3c938d80	0.018011808
13	0xbcaf3f13	-0.02139238
14	0xbd8e701a	-0.069549754
15	0x3d945c20	0.07244134
16	0x3d8127fb	0.06306454
17	0x3e0a08f3	0.13479976
18	0xbc662f3d	-0.014049348
19	0x3d325dd2	0.043546505
20	0x3d6f7867	0.058464434
21	0x3d374c7c	0.044750676
22	0x3dad549c	0.084634036
23	0x3c2012cf	0.009770109
24	0x3ca65697	0.020304961
25	0xbd2c2fd3	-0.042037796
26	0x3cbcc421	0.02304274
27	0x3de19004	0.11013797
28	0x3cd13d09	0.0255418
29	0x3d87118d	0.065951444
30	0x3e2de55b	0.16982023
31	0x3d0296d5	0.031882126
32	0xbd203f0e	-0.039122634
33	0xbd3c57a9	-0.045982037
34	0xbd0fedfd	-0.035139073
35	0xbe03f2a6	-0.12885532
36	0x3c9ae19c	0.018906407
37	0xbd8005ee	-0.06251131
38	0xbd957e6b	-0.07299503
39	0x3c93d5d9	0.018046306
40	0xbc2e0971	-0.010622368
41	0x3d2820e0	0.041046977
42	0x3c5659d4	0.01308294
43	0xbcc4849d	-0.023989016
44	0x3d511739	0.051047537
45	0x3d526c0c	0.051372573
46	0xbcd2367d	-0.025660748
47	0x3cc1c01a	0.023651171
48	0xbb6173e6	-0.0034401356
49	0x3cd9ad2e	0.026571836
50	0x3da9176f	0.08256423
51	0xbc83a804	-0.016071327
52	0x3da6fcba	0.081536725
53	0xbd3067f8	-0.043067902
54	0xbd86d74e	-0.06584035
55	0xbd26cae6	-0.040720843
56	0x3d668dac	0.056287453
57	0xbdbce448	-0.09223229
58	0xbd20d5bf	-0.039266344
59	0xbd47017d	-0.048585404
60	0xbce86c76	-0.02837203
61	0xbcc6bed1	-0.02426091
62	0xbba83431	-0.005133175
63	0x3db5c8b7	0.08876174
64	0x3cba2f08	0.022727504
65	0xbd8add31	-0.0678047
66	0xbcf57b7f	-0.029966114
67	0x3db8fe82	0.090329185
68	0x3db9933d	0.090612866
69	0xbda14ef5	-0.07876388
70	0x3d9d0f22	0.07668902
71	0xbd1d9315	-0.038470346
72	0x3d0a1818	0.033714384
73	0x3cfc0481	0.030763866
74	0xbc889aab	-0.016675314
75	0x3da7c264	0.08191374
76	0xbd4c307f	-0.049850937
77	0x3d4a3614	0.04936798
78	0xbd83dd7a	-0.06438728
79	0x3dc9dd9f	0.09856724
80	0xbc87abbc	-0.016561382
81	0x3d5460aa	0.05185
82	0xbdaf77dd	-0.08567784
83	0xbc4ac2f0	-0.012375578
84	0x3d353adc	0.044245586
85	0x3dc325dd	0.09528706
86	0xbcc3c629	-0.023898201
87	0x3d4c0516	0.049809538
88	0x3ca5c139	0.020233737
89	0xbdae55f1	-0.08512486
90	0xbd9027b9	-0.070388265
91	0xbca579d2	-0.02019969
92	0x3c83a913	0.016071832
93	0xbba8ae16	-0.005147706
94	0x3d8bee60	0.06832576
95	0xbcff970e	-0.031199958
96	0xbd5f58aa	-0.054527916
97	0xbd8ed183	-0.06973555
98	0xbb1d6ab2	-0.0024019894
99	0xbc0bd396	-0.008534333
100	0x3b545592	0.0032399637
101	0xbd2a6241	-0.04159761
102	0x3ce649d6	0.02811138
103	0xbddb72c9	-0.10715253
104	0xbe0403b4	-0.12892038
105	0x3d9a8c4a	0.07546289
106	0x3c3811ae	0.011234684
107	0xbc8fd258	-0.017556354
108	0x3c8df43a	0.01732837
109	0x3d30d69a	0.04317341
110	0x3c077477	0.0082675135
111	0xbce050da	-0.027382303
112	0xbd578548	-0.05261734
113	0x3d899924	0.067186624
114	0xbcfbb250	-0.030724674
115	0xbcd15240	-0.025551915
116	0xbbf6e6b5	-0.0075348266
117	0xbcf052c9	-0.02933635
118	0xbd75b31a	-0.059985258
119	0x3d100285	0.035158653
120	0xbcd1a880	-0.025593042
121	0x3d538365	0.05163898
122	0x3a3141ce	0.000676182
123	0xbd2d3137	-0.042283263
124	0x3d621182	0.055192478
125	0x3d2ce66e	0.042211942
126	0xbcc9d907	-0.02463962
127	0xbd45f853	-0.048332524
128	0x3d80a6b4	0.06281796
129	0x3d33c5fb	0.04388998
130	0xbda26e73	-0.07931223
131	0xbda5cc34	-0.08095589
132	0xbcf06777	-0.02934621
133	0xbd87d181	-0.066317566
134	0xbc9b4cd1	-0.018957527
135	0x3d7e88cc	0.06214218
136	0xbc3e22c9	-0.011604973
137	0x3c83d126	0.01609094
138	0xbcbb5a20	-0.022870123
139	0xbd09935d	-0.033587802
140	0x3d0932eb	0.033495825
141	0x3d4f7b98	0.050654978
142	0xbd85620c	-0.065128416
143	0x3dbece09	0.09316642
144	0xbd931772	-0.07182206
145	0xbe0d4609	-0.13796248
146	0xbd7aa2a9	-0.06119028
147	0x3ca2b650	0.019862324
148	0xbb93a4e0	-0.0045057386
149	0x3cf91b01	0.030408384
150	0x3cbee856	0.023304146
151	0x3cfe004b	0.031006
152	0x3d451658	0.04811701
153	0xbd652b8f	-0.055949744
154	0xbc2b545c	-0.010457125
155	0xbce24f16	-0.027625602
156	0xbc5e0bcd	-0.013552618
157	0xbd2c2f60	-0.042037368
158	0x3c1c3908	0.009535082
159	0x3d837415	0.06418625
160	0xbd15a052	-0.036529846
161	0xbd3ab4ae	-0.045582466
162	0xbdddb962	-0.108263746
163	0x3c3d0792	0.011537449
164	0x3b9edca5	0.00484808
165	0xbcfa1a7b	-0.030530205
166	0xbdaffedd	-0.08593533
167	0x3ce0fc6b	0.027464112
168	0xbe0a5a74	-0.13511068
169	0x3ba0581e	0.004893317
170	0x3d2aed3c	0.04173015
171	0x3d5521b7	0.052034106
172	0xbdafba55	-0.08580462
173	0x3d7dcfb5	0.061965663
174	0xbd2f586c	-0.042808935
175	0xbd9cccab	-0.07656225
176	0xbcb6761f	-0.022273121
177	0x3ad763d1	0.0016432946
178	0x3da331f3	0.079685114
179	0x3d82983f	0.06376695
180	0xbd7ac521	-0.061223153
181	0x3ca87cd2	0.020567331
182	0xbb8e4f7c	-0.0043429714
183	0xbd059089	-0.032608543
184	0x3d24c7e9	0.04022971
185	0xbd279b60	-0.04091966
186	0xbda2bfa0	-0.07946706
187	0xbc9616ca	-0.018321414
188	0xbd1d8210	-0.038454115
189	0x3dbfc638	0.09363979
190	0x3d85bdaf	0.0653032
191	0x3d01dcb9	0.03170464
192	0x3b709441	0.003670946
193	0xbd298a3a	-0.04139159
194	0xbcd06969	-0.025440888
195	0x3d08b39c	0.033374414
196	0xbdccc0d8	-0.099977195
197	0xbd260fb5	-0.040542323
198	0xbcc46dec	-0.023978196
199	0xbd63de60	-0.055631995
200	0x3dc79f6e	0.09747206
201	0xbcb72a5c	-0.022359066
202	0x3c90e427	0.017686917
203	0x3c326ea4	0.010890637
204	0x3d2e0015	0.042480547
205	0xbc32ce57	-0.010913453
206	0xbdc02cfb	-0.09383579
207	0xbd57775f	-0.052604076
208	0x3d9d2deb	0.07674774
209	0x3d451d0d	0.048123408
210	0x3d49a091	0.049225394
211	0x3dbc4d44	0.09194425
212	0x3cae404e	0.021270897
213	0x3d23ef66	0.04002323
214	0xbc704ae3	-0.014666292
215	0x3ca506d6	0.020144861
216	0x3c2dc645	0.010606353
217	0xbd4f2008	-0.050567657
218	0x3db15618	0.08658999
219	0xbd11befb	-0.035582524
220	0x3c903b4e	0.017606404
221	0xbdbcc6ce	-0.092176065
222	0x3d5fc902	0.054635055
223	0x3b1b7b09	0.0023724458
224	0x3d3c552f	0.045979675
225	0x3c3bac78	0.011454694
226	0x3c9e5afb	0.019330492
227	0x3c9379d3	0.018002426
228	0xbd90806b	-0.07055744
229	0xbb4307bf	-0.0029759256
230	0xbbc450aa	-0.005991061
231	0xbc8400a8	-0.016113594
232	0xbd8ba4fd	-0.068185784
233	0xbd810139	-0.06299061
234	0xbd7b4e1b	-0.061353784
235	0x3a48d429	0.0007661009
236	0x3d5ce364	0.053927794
237	0x3c4290a0	0.011875302
238	0x3d1d5c4a	0.03841809
239	0xbdd6122c	-0.10452685
240	0x3d5228ee	0.051308565
241	0x3c9c0d3c	0.01904928
242	0x3c9969c7	0.018727196
243	0x3dd721b1	0.10504473
244	0x3de12ecb	0.10995253
245	0xbd165e2f	-0.036710914
246	0x3c607895	0.013700624
247	0x3d97dd2c	0.07415232
248	0xbd0511a8	-0.03248754
249	0x3c42fe9b	0.011901523
250	0x3b625543	0.0034535683
251	0x3cb254b9	0.021768915
252	0x3d8d5ec0	0.06902838
253	0x3d3df989	0.046380553
254	0xbd73e539	-0.059544776
255	0xbd95f3fc	-0.07321927

shared_net.2.bias f4 [128]
0	0xbce5455f	-0.02798718
1	0xbe3371f4	-0.17523938
2	0xbc68fad6	-0.01421996
3	0xbd082fbb	-0.033248644
4	0xbbbf0b0c	-0.0058301743
5	0x3d80bb3e	0.062857136
6	0x3c5f9ad9	0.013647758
7	0x3d627c18	0.055294126
8	0x3d3079b2	0.043084808
9	0x3d223816	0.03960427
10	0x3cbda651	0.023150595
11	0xbe650bca	-0.22367778
12	0xbe60aca6	-0.2194086
13	0xbd22968e	-0.03969436
14	0xbe5a2e3c	-0.213067
15	0xbe241142	-0.16022208
16	0xbde362eb	-0.111028515
17	0x3cb0df2d	0.021590794
18	0xbc87ca39	-0.01657592
19	0x3d3a8c3a	0.045543887
20	0x3d83a29f	0.06427502
21	0x3d6572ee	0.05601781
22	0xbd946156	-0.07245128
23	0xbc58871f	-0.013215809
24	0x3cf07c2c	0.029356085
25	0xbdab590f	-0.08366596
26	0x3c800bde	0.015630659
27	0xbdd27664	-0.102764875
28	0xbdb9906d	-0.0906075
29	0x3c176d03	0.009242299
30	0xbcb3c4f3	-0.021944499
31	0x3d958aca	0.073018625
32	0xbb390c9a	-0.002823627
33	0x3d60b8ed	0.05486386
34	0x3d050959	0.032479618
35	0xbd0dccc4	-0.034619108
36	0x3cb0b3f3	0.021570181
37	0xbd6af73e	-0.057364695
38	0x3d3dbe6b	0.046324175
39	0xbddf9dee	-0.109187946
40	0xbdfdf1af	-0.12399613
41	0x3c334c8f	0.010943546
42	0x3bc26bce	0.0059332615
43	0xbd88fb7d	-0.066885926
44	0x3db23542	0.08701564
45	0xbdf5d57f	-0.12003612
46	0x3d22da83	0.03975917
47	0x3d368be0	0.04456699
48	0xbc69af12	-0.014262931
49	0x3d14a531	0.03629035
50	0xbcc46eaa	-0.02397855
51	0x3d894fc9	0.06704671
52	0xbe5f2003	-0.21789555
53	0x3d0830d1	0.03324968
54	0xbdcb19c3	-0.09917023
55	0xbd8966d3	-0.06709065
56	0xbe23270a	-0.15932861
57	0xbcce0dee	-0.025153127
58	0x3c69f4d5	0.014279564
59	0xbe5b3b17	-0.2140926
60	0x3cc37b20	0.023862422
61	0x3b3deef0	0.002898153
62	0xbd9a00ff	-0.07519721
63	0xbe239b00	-0.15977097
64	0xbdc94087	-0.09826761
65	0xbe1c18d4	-0.15243846
66	0x3d43e2fe	0.0478239
67	0xbd911e1a	-0.070858195
68	0xbca71273	-0.02039454
69	0xbdee7cea	-0.11644919
70	0x3b928db2	0.004472458
71	0x3d194fa2	0.03742946
72	0x3d97e579	0.07416815
73	0x3dc5869f	0.096448176
74	0xbe31f29d	-0.17377706
75	0x3d4c1e38	0.049833506
76	0xbd5c07d1	-0.05371839
77	0xbb88dc45	-0.004176649
78	0xbd1a1830	-0.037620723
79	0xbd5dff1c	-0.05419837
80	0x3df432d0	0.11923754
81	0xbe147b6a	-0.14500204
82	0xbc925359	-0.017862009
83	0xbddcd2ad	-0.10782371
84	0x3d83132f	0.06400143
85	0xbd3864cb	-0.045018
86	0x3d14903e	0.036270373
87	0xbdaf2d12	-0.08553518
88	0xbbf6f265	-0.00753622
89	0xbdbb3358	-0.091406524
90	0x3d00b17a	0.031419255
91	0x3d0a71c6	0.03379991
92	0xbe2cf8b9	-0.16891755
93	0xbd96c0b6	-0.073609754
94	0xbd9f6e41	-0.07784701
95	0x3d36d22c	0.04463403
96	0xbe23d715	-0.16000016
97	0x3d2c6838	0.04209158
98	0x3d835aff	0.064138405
99	0xbdc7c402	-0.097541824
100	0xbb05219a	-0.0020314218
101	0xbd2ee35a	-0.042697288
102	0xbd528ebf	-0.051405665
103	0xbdee14d8	-0.116250694
104	0xbe11a15c	-0.1422171
105	0xbdedc7e8	-0.11610395
106	0xbd6d23d9	-0.057895515
107	0xbdb4b1af	-0.08822953
108	0x3dad72c1	0.08469153
109	0x3d189683	0.037252914
110	0xbe57eec6	-0.21087179
111	0xbd206aea	-0.03916446
112	0xbe057867	-0.13034211
113	0xbd090f30	-0.03346175
114	0xbc9fcdc2	-0.019507293
115	0xbc2c0550	-0.0104993135
116	0xbe4f3588	-0.20235264
117	0xbe612788	-0.21987736
118	0xbde6d3c5	-0.112708606
119	0xbcf5125a	-0.029915977
120	0xbcb168da	-0.021656442
121	0xbe2dcd49	-0.16972841
122	0xbd9d53cf	-0.07682001
123	0xbd865172	-0.06558503
124	0x3da7500a	0.08169563
125	0xbe350d47	-0.17680846
126	0x3d89f8ef	0.067369334
127	0x3d9da34f	0.07697164

to_mean.0.weight f4 [64, 128]
0	0x3be0e745	0.006863507
1	0x3d4c6b47	0.049906995
2	0x3dc13b9f	0.094352
3	0x3da37746	0.07981734
4	0x3c95a293	0.018265998
5	0x3cc91be9	0.024549441
6	0xbc84113a	-0.016121496
7	0xbd030f11	-0.03199679
8	0xbd76c164	-0.060243025
9	0xbd08d38f	-0.033404883
10	0x3d722d7e	0.059125416
11	0x3d181cc9	0.037136827
12	0xbd56ab2a	-0.05240933
13	0xbde875a0	-0.1135056
14	0xbd633319	-0.055468652
15	0x3db8ef6a	0.090300396
16	0x3cda1f6a	0.026626308
17	0xbd335ce8	-0.043789774
18	0x3cd9a6bc	0.026568763
19	0x3d5794ab	0.052632015
20	0xbc9a881e	-0.018863734
21	0xbd836de2	-0.06417443
22	0x3d36d926	0.044640683
23	0xbc2d9be8	-0.010596253
24	0xbd76dea7	-0.06027093
25	0xbd349fc1	-0.044097666
26	0x3c4b242f	0.012398764
27	0x3d8bb768	0.06822091
28	0xbd4f363a	-0.050588824
29	0xbc053de9	-0.008132436
30	0x3d0c6ccd	0.034283448
31	0xbd3ba56e	-0.045812063
32	0x3bfea93d	0.0077716396
33	0xbd06ea5d	-0.03293835
34	0xbc6b3614	-0.014356155
35	0x3c8cd77f	0.0171926
36	0x3b0a985b	0.002114794
37	0x3d14e474	0.036350682
38	0xbd72a4cd	-0.059239198
39	0xbd82a955	-0.06379954
40	0x3ca6d7c7	0.020366563
41	0x3c8cb56d	0.017176354
42	0x3d9830c3	0.074311756
43	0x3d90cf2b	0.07070764
44	0x3c925844	0.017864354
45	0x3d4a752e	0.049428158
46	0xbd6b7f00	-0.057494164
47	0xbd2bcee2	-0.041945346
48	0xbd1d0d0f	-0.03834253
49	0x3d17212e	0.036896877
50	0x3d5915a3	0.05299915
51	0x3db48118	0.08813685
52	0x3d196078	0.037445515
53	0xbcaef1df	-0.021355567
54	0x3ccb9a86	0.024853956
55	0xbc38976c	-0.011266571
56	0x3bd7748e	0.0065751737
57	0x3d7c3161	0.06157053
58	0xbd9961fd	-0.07489393
59	0x3d91be06	0.07116322
60	0x3cabe5e5	0.020983646
61	0x3d59940a	0.053119697
62	0xbd62b731	-0.055350486
63	0xbd8618c2	-0.06547691
64	0xbdbc7920	-0.0920279
65	0xbd1e9f67	-0.038726237
66	0x3dbafe59	0.09130544
67	0x3d6378eb	0.05553524
68	0x3cef4aee	0.029210534
69	0xbcec8374	-0.028871275
70	0x3bd16049	0.006389652
71	0xbce94ba9	-0.02847846
72	0x3cd06947	0.025440825
73	0x3a03bbef	0.00050252577
74	0x3ade3502	0.0016953053
75	0x3cd98c2c	0.026556097
76	0xbcac116b	-0.0210044
77	0xbd5cda38	-0.053919047
78	0xbd1699e7	-0.036767866
79	0xbd850072	-0.064942256
80	0x3d69f2ef	0.057116445
81	0x3da8cdee	0.08242403
82	0xbd9879ec	-0.0744513
83	0x3d57644a	0.052585877
84	0xbdfe35c8	-0.12412602
85	0xbe00e06c	-0.1258561
86	0x3d9ec5bc	0.077525586
87	0x3ca14823	0.019687718
88	0x3d195220	0.037431836
89	0xbdaa72b8	-0.08322662
90	0xbd4183d0	-0.047244847
91	0xbd6d7aa0	-0.057978272
92	0xbcc6c740	-0.024264932
93	0x3cd9cc80	0.026586771
94	0xbd07e073	-0.033173036
95	0xbc2cd1ac	-0.010548037
96	0x3ca3841b	0.019960454
97	0xbd84393a	-0.064562276
98	0xbc51830b	-0.012787591
99	0x3d61e2b4	0.05514784
100	0x3b970325	0.004608529
101	0x3cdbde4a	0.026839394
102	0xbcb8681e	-0.022510584
103	0x3c90e3b4	0.017686702
104	0xbd73bd75	-0.059506852
105	0xbd3d04b4	-0.046147063
106	0xbdccfc8c	-0.10009107
107	0xbc95a0e3	-0.018265193
108	0xbd177c58	-0.036983818
109	0xbd662e28	-0.05619636
110	0xbd6e0157	-0.058106747
111	0xbd4f41fc	-0.050600037
112	0x3c810747	0.01575054
113	0x3c70df57	0.014701686
114	0xbdd87347	-0.105688624
115	0xba79c738	-0.0009528282
116	0x3d1b4db1	0.03791589
117	0x3d64f4df	0.05589759
118	0xbd7c7ccc	-0.061642453
119	0xb9ac56a9	-0.00032870963
120	0xbd14b8e3	-0.036309134
121	0x3d3f9d53	0.046780895
122	0xbcff9526	-0.03119905
123	0x3d0e68c4	0.03476788
124	0xbce7c681	-0.028292896
125	0x3d80af9b	0.06283494
126	0xbd4d3761	-0.05010164
127	0x3ca7e97a	0.020497072
128	0x3dc8386e	0.09776388
129	0x3cb79983	0.022412067
130	0x3da74540	0.08167505
131	0x3d4bcd55	0.049756367
132	0xbc3f2977	-0.011667601
133	0x3c92c983	0.017918354
134	0x3c90c834	0.01767359
135	0xbcd4664f	-0.02592769
136	0x3db05927	0.086107545
137	0x3db449ee	0.088031635
138	0x3ca66b33	0.020314788
139	0xbd6ed91b	-0.058312517
140	0x3c121a73	0.008917439
141	0xbcee75e6	-0.029108953
142	0xbd9c5d9f	-0.07635044
143	0xbd665d85	-0.05624153
144	0xbbffd706	-0.007807615
145	0x3d9b06ec	0.075696796
146	0xbd84f1db	-0.06491443
147	0x3ce263ef	0.027635543
148	0xbd4f86ae	-0.05066555
149	0xbdcc1164	-0.099642545
150	0xbcd901c8	-0.026490107
151	0x3c48000f	0.012207045
152	0xbd6ee706	-0.05832579
153	0x3d050fa7	0.03248563
154	0xbccd3d8e	-0.025053766
155	0xbd84df14	-0.06487861
156	0xbd69ba34	-0.057062343
157	0x3dc05a69	0.09392244
158	0xbccd7897	-0.025081916
159	0xbc6efc00	-0.014586449
160	0x3c803259	0.015649008
161	0xbd3fda73	-0.04683919
162	0xbcaf3804	-0.021389015
163	0xbbe0ce22	-0.0068605104
164	0xbd204bed	-0.03913491
165	0x3c4c28ac	0.012460869
166	0xbcaa3dbc	-0.02078139
167	0x3d68fb83	0.056880485
168	0xbc44bd17	-0.012007973
169	0xbdb4f0ef	-0.08835017
170	0x3dd941db	0.10608264
171	0x3d6ebe2f	0.058286842
172	0xbc2dda05	-0.010611062
173	0x3c4f7a7e	0.012663482
174	0xbd150da0	-0.036389947
175	0xbce1c476	-0.0275595
176	0xbcb2978e	-0.021800783
177	0x3d36e1c8	0.044648916
178	0x3d4075f7	0.0469875
179	0xbc8d75d4	-0.017268099
180	0x3db8217b	0.08990761
181	0xbd55603b	-0.052093726
182	0x3c978a8f	0.018498687
183	0x3c967f82	0.018371347
184	0x3ae45c3d	0.0017422509
185	0x3a51a85d	0.00079978054
186	0x3ba2508d	0.00495345
187	0xbd87e030	-0.06634557
188	0xbca2c2af	-0.019868223
189	0x3c0a1bf8	0.00842952
190	0x3c9378e4	0.018001981
191	0x3d1390c7	0.036026742
192	0xbdd31e06	-0.10308461
193	0x3ac572d3	0.0015064128
194	0x3d25a3a9	0.04043928
195	0x3d92fb59	0.07176847
196	0x3cde5c44	0.027143605
197	0x3bb2f5f7	0.00546145
198	0xbb8ea268	-0.0043528564
199	0x3c0daf36	0.008647731
200	0x3d88d060	0.066803694
201	0x3cb445d2	0.02200595
202	0xbd4c74e7	-0.049916174
203	0xbd201e2e	-0.03909128
204	0xbdb640aa	-0.088990524
205	0x3d3c9873	0.046043824
206	0x3cfeafd3	0.031089699
207	0x3cb5031d	0.022096211
208	0x3d00216a	0.031281866
209	0xbd42deef	-0.047575887
210	0x3c0cf7dc	0.008604016
211	0x3d9530bf	0.07284688
212	0x3d1bb1f9	0.038011525
213	0xbd259093	-0.04042108
214	0x3c8ce358	0.01719825
215	0xbccb956c	-0.024851523
216	0xbd41f390	-0.04735142
217	0xbc2bbe36	-0.010482362
218	0xbbd5271f	-0.0065049077
219	0x3d89b0d1	0.06723178
220	0xb96b4786	-0.00022437991
221	0x3db6d4ef	0.089273326
222	0xbd183cd6	-0.037167393
223	0xbd59d94c	-0.053185746
224	0xbbd19395	-0.006395767
225	0x3d66a864	0.056312934
226	0xbb0c980e	-0.0021452936
227	0x3d8e425b	0.0694625
228	0xbc035e3c	-0.008018073
229	0x3bffeeb8	0.00781044
230	0xbdbf0f8e	-0.09329139
231	0x3d95627c	0.07294175
232	0x3da854df	0.08219313
233	0x3d8686fa	0.065687135
234	0xbc6b8f49	-0.014377424
235	0x3d1230bd	0.03569101
236	0x3cbed64a	0.02329554
237	0xbd0e77b6	-0.034782134
238	0x3d760a52	0.060068436
239	0x3d704634	0.0586607
240	0xbdbeb1f7	-0.09311288
241	0x3c576833	0.013147402
242	0x3ccf5fc9	0.025314229
243	0xbd133db5	-0.03594752
244	0xbd063a0e	-0.03277021
245	0xbd109da8	-0.035306603
246	0xbd703951	-0.05864841
247	0xba222fc4	-0.0006186927
248	0xbd1601dd	-0.03662287
249	0xbbaf0226	-0.0053408323
250	0xbc8f7155	-0.017510096
251	0xbddf43e1	-0.10901619
252	0xbd00205e	-0.031280868
253	0x3d2f56b9	0.042807315
254	0xbd8580ab	-0.06518682
255	0xbd45fdc6	-0.04833772

to_mean.0.bias f4 [64]
0	0xbbb85895	-0.005625794
1	0xbdb63a46	-0.088978335
2	0x3db8ea9f	0.090291254
3	0xbcce6d35	-0.025198558
4	0xbcf8d03e	-0.030372735
5	0xbd263e0a	-0.04058651
6	0x3d854a40	0.06508303
7	0xba811fb1	-0.0009851364
8	0xbd75c3a7	-0.06000104
9	0xbce0ce53	-0.027442133
10	0xbd0f54e9	-0.034993086
11	0x3c8e25bb	0.017351976
12	0x3d36933a	0.044574
13	0x3d0f1636	0.03493329
14	0x3c933d65	0.017973611
15	0xbd8544fb	-0.065072976
16	0x3d44e843	0.048073065
17	0x3d6cfacb	0.057856362
18	0x3a87aca4	0.0010351134
19	0x3d2408f3	0.040047597
20	0x3c45b55b	0.012067164
21	0xbcecf19e	-0.028923806
22	0xbc6c1472	-0.014409171
23	0x3d678792	0.056525774
24	0xbd53fa71	-0.05175251
25	0x3c380a91	0.011232988
26	0xbdb43800	-0.08799744
27	0xbc694bfc	-0.0142393075
28	0xbac0af9d	-0.0014700774
29	0x3d735d05	0.059414882
30	0x3da7f52e	0.08201061
31	0xbb74fe1c	-0.0037382906
32	0xbcaa0116	-0.020752471
33	0xbcf449f8	-0.029820427
34	0x3d8fa057	0.07013004
35	0x3cbeccd6	0.023291033
36	0x3d1b0a9c	0.037851915
37	0x3d90b33d	0.07065437
38	0xbd94e581	-0.07270337
39	0xbc163fbb	-0.009170468
40	0x3d9689c9	0.07350499
41	0x3be13688	0.0068729557
42	0xbc80b29f	-0.015710173
43	0x3d6ea12c	0.058259174
44	0x3dcf9919	0.10136623
45	0xbd8fe9b0	-0.07026994
46	0xbd765d12	-0.060147353
47	0xbd690d1b	-0.056897264
48	0x3ce5495f	0.027989088
49	0x3c817a97	0.015805526
50	0xbdb3d90b	-0.08781632
51	0xbd309581	-0.043111328
52	0xbd64edcb	-0.05589084
53	0xbd21f26a	-0.039537825
54	0xbd29ec09	-0.041484866
55	0xbdbb0754	-0.09132257
56	0x3d1515f8	0.036397904
57	0x3d95ffe3	0.07324197
58	0x3d76c04d	0.060241986
59	0xbdadc7d6	-0.08485381
60	0x3c5148b2	0.01277368
61	0xbd9dbb4a	-0.07701738
62	0x3d141d26	0.03616061
63	0x3d5137a1	0.051078442

to_mean.2.weight f4 [18, 64]
0	0x3c97fc2e	0.018552866
1	0xbc9ea4a5	-0.019365618
2	0xbc80a4fc	-0.01570367
3	0x3c75d2f5	0.015003909
4	0x3952f86d	0.00020119706
5	0x3ae68622	0.0017587582
6	0x3b1a6cbb	0.0023563344
7	0x3b6aa866	0.003580594
8	0xbca7e477	-0.020494683
9	0xbb6c4f5b	-0.0036058042
10	0x3c75d61d	0.015004662
11	0xbc25e149	-0.010124513
12	0xbb383abb	-0.0028111178
13	0xbbc82858	-0.006108325
14	0xbc9a425c	-0.01883047
15	0xbcdb789c	-0.02679091
16	0x3b94071d	0.0045174495
17	0xbb434759	-0.0029797165
18	0x3c79d053	0.015247422
19	0x3b5f8f41	0.0034112486
20	0xbc8d985f	-0.01728457
21	0x3ca445b3	0.020052766
22	0xbc1cacee	-0.009562714
23	0x3c33d79f	0.010976701
24	0xbb8448a6	-0.0040369807
25	0x3c0f5074	0.008747209
26	0x3bab9589	0.005236332
27	0x3a4fbb03	0.000792429
28	0x3b5c2a75	0.0033594642
29	0xbc454a43	-0.012041631
30	0x3a430e8a	0.0007440826
31	0x3c973321	0.018456997
32	0xbb32f103	-0.0027304299
33	0xbc1ce3ee	-0.009575827
34	0x3b499ceb	0.0030763696
35	0xbba1b1df	-0.004934534
36	0xbbde9085	-0.0067921304
37	0x3ba25462	0.004953907
38	0x3b861bfb	0.004092691
39	0xbc432303	-0.011910203
40	0x3b231ec5	0.0024890166
41	0x3ce8cbea	0.028417546
42	0x389d8f92	7.5130854e-05
43	0x3b4d9a1c	0.0031372374
44	0x3bdd2777	0.0067490893
45	0xbbd28e8e	-0.0064256852
46	0x3b8d5a2a	0.004313727
47	0x3bc7d767	0.006098676
48	0xbafed32a	-0.0019441594
49	0x3c4d1c3c	0.012518939
50	0x3c10c66f	0.008836373
51	0xbbfe956f	-0.0077692787
52	0xbb7106c4	-0.0036777714
53	0x3b5dd32a	0.0033847787
54	0x3d1f872f	0.03894728
55	0xbd02cdb3	-0.03193445
56	0xbc1a1115	-0.009403487
57	0xbc295aa9	-0.0103365565
58	0xbbc045c0	-0.00586769
59	0xbb3c7316	-0.002875512
60	0xbc8bd79a	-0.01707058
61	0xbc075b49	-0.00826151
62	0x3b25d14a	0.0025301748
63	0x3c261f97	0.010139368
64	0x3cedba94	0.029019631
65	0xbb168353	-0.002296646
66	0x3b66e8c5	0.0035233956
67	0x3b80a1af	0.003925524
68	0x3bee24d5	0.0072675743
69	0x3a852333	0.0010157585
70	0xbb82223d	-0.0039713667
71	0x3c1bb2ae	0.00950305
72	0xbac02a37	-0.0014661019
73	0x3c0967bd	0.00838655
74	0x3c610525	0.013734137
75	0xba763c07	-0.00093931
76	0x3d183904	0.03716375
77	0x3bcc6904	0.006238105
78	0x3baa69b4	0.005200589
79	0x3b8a2829	0.0042162132
80	0x3acd9b5c	0.001568656
81	0xba2015c5	-0.00061067595
82	0x3ba13f1a	0.0049208524
83	0xbaa01e14	-0.0012215995
84	0x3cb6191f	0.022228776
85	0x3b88f065	0.004179048
86	0x3a400f7f	0.0007326528
87	0x3b9704bf	0.00460872
88	0xb751dcb5	-1.2508758e-05
89	0xbbb4dfb6	-0.0055198325
90	0x3d121081	0.03566027
91	0x3be11368	0.0068687685
92	0x3b839fe4	0.004016863
93	0x3bec11cf	0.0072042714
94	0x3b96ae87	0.004598442
95	0xbadba685	-0.0016758001
96	0x3a96e5a4	0.001151253
97	0x3b82fbfc	0.003997324
98	0xbbfe0e60	-0.0077531785
99	0xbc3b03fd	-0.011414525
100	0x3bce4613	0.0062949746
101	0x3b762f78	0.0037564915
102	0x3b802b1a	0.003911388
103	0xbac3e6fc	-0.0014946158
104	0x3b096086	0.0020962073
105	0xbc257ae5	-0.010100101
106	0x3c04c3c0	0.008103311
107	0xba6915e4	-0.00088915066
108	0xb9a83b7e	-0.00032087782
109	0x3bcd5323	0.006266014
110	0xbb791c8c	-0.00380114
111	0x3cc512d0	0.024056822
112	0x3bbc2249	0.005741392
113	0x3bb0b6cd	0.0053928853
114	0xbbd52472	-0.0065045888
115	0x3c238450	0.009980276
116	0x3b1dbbbb	0.0024068195
117	0x3b670c91	0.0035255293
118	0x3c59a54e	0.013284041
119	0x3b82c868	0.0039911754
120	0x3baf1e33	0.005344176
121	0x3b8a9228	0.004228849
122	0x3b7e059f	0.0038760675
123	0xbb5f6a92	-0.003409062
124	0xbbf985f6	-0.0076148463
125	0xb97e079e	-0.00024226165
126	0xbaaeadbc	-0.0013326923
127	0xbb801ef2	-0.003909939
128	0x3c7d526f	0.015461548
129	0xbc8c1c74	-0.017103411
130	0x3c7be726	0.015374934
131	0x3b271f77	0.0025500932
132	0xbc03acb3	-0.00803678
133	0xbc2fe860	-0.010736555
134	0xbc7b0439	-0.015320831
135	0x3b8efc3b	0.0043635643
136	0x3c2e39b3	0.010633874
137	0xbb06ce79	-0.0020569845
138	0x3b9011f3	0.004396671
139	0x3b6e95e8	0.003640527
140	0x3c2b7021	0.010463745
141	0x3beb3d1a	0.0071789147
142	0x3b73a830	0.0037179105
143	0xbc873eeb	-0.016509494
144	0xb9e19a2e	-0.00043030217
145	0xbb2167e0	-0.0024628565
146	0xbc60abef	-0.013712867
147	0x3ba81dbd	0.005130498
148	0xbc968454	-0.018373646
149	0xbca1d904	-0.019756801
150	0xbb07f021	-0.0020742493
151	0x3afc6aa8	0.001925786
152	0xbbbc0013	-0.0057373135
153	0xbb949a7d	-0.004535018
154	0x3c0b1d93	0.008490938
155	0x3c887902	0.016659264
156	0xbcf8564b	-0.030314585
157	0xbc4489a0	-0.011995703
158	0x39c4d6e9	0.00037544154
159	0xbc8ee74d	-0.017444277
160	0x3c237be3	0.009978267
161	0xbc3953e9	-0.01131151
162	0xbc095893	-0.008382934
163	0xbbb82046	-0.0056190817
164	0x3c05af0f	0.008159413
165	0x3931bac6	0.00016949614
166	0xbc3c69bf	-0.011499821
167	0xbc58470f	-0.013200535
168	0x3b71c76c	0.0036892546
169	0x3babfb2f	0.0052484493
170	0x3b12e4b5	0.0022414152
171	0xbc033ebc	-0.0080105625
172	0xbbbfab5d	-0.0058492855
173	0xbb444a06	-0.0029951348
174	0x3bf6d4e2	0.007532702
175	0x3c040819	0.008058571
176	0xbbc78a61	-0.006089494
177	0x3bda26b2	0.006657445
178	0x3ad305f1	0.0016099793
179	0x398814da	0.00025955477
180	0xbaaf8a24	-0.001339261
181	0x3d0741d1	0.03302175
182	0xbd80f649	-0.06296975
183	0x3cc00a02	0.023442272
184	0xb9465767	-0.00018915311
185	0x3bf54420	0.007484928
186	0xba712a69	-0.000919974
187	0xbb39dbf3	-0.002835986
188	0x3c2bc7da	0.01048466
189	0x3a5f2bc2	0.00085132953
190	0xbc08dfcb	-0.008354138
191	0xbc3bfdd1	-0.011474089
192	0xbc5c83f1	-0.013459192
193	0xbc9155bd	-0.017741079
194	0xbbb31425	-0.005465048
195	0xbc58fd83	-0.013244036
196	0x3c455c00	0.01204586
197	0xbc128b1e	-0.008944301
198	0x3b94e27b	0.0045436
199	0xbb19aff8	-0.0023450833
200	0x3d10028c	0.03515868
201	0x3b677020	0.0035314634
202	0xbc5aa326	-0.013344562
203	0xbb843b14	-0.004035363
204	0x3c3aee72	0.011409389
205	0xbae0cc37	-0.0017150705
206	0x3ae2170d	0.0017249301
207	0xbc0c7c6e	-0.008574588
208	0xb9f983f7	-0.00047591302
209	0x3af5a8e6	0.0018742352
210	0x3b2d81c4	0.0026475051
211	0x3a0ec4f5	0.0005446219
212	0xbcefc109	-0.029266851
213	0x3c45c864	0.012071703
214	0x3c3eebcc	0.011652898
215	0x3cb09f2a	0.02156027
216	0x3c587d98	0.013213538
217	0x3be6179f	0.007021859
218	0x3cff7485	0.03118349
219	0xbc112ddb	-0.00886103
220	0x3bb3e195	0.005489538
221	0x3c0b41c4	0.008499566
222	0x3bf54608	0.007485155
223	0x3b155be3	0.0022790364
224	0x3b8723b1	0.004124128
225	0x3c138ded	0.009006006
226	0x3aaf8556	0.0013391178
227	0x3b87dcde	0.0041462025
228	0x39ecd23b	0.00045170062
229	0xbb085e81	-0.0020808282
230	0x3c66c5a3	0.014085206
231	0x39e5e938	0.00043852045
232	0xbc10052d	-0.0087902965
233	0x3cd16208	0.02555944
234	0xbbbc2b65	-0.0057424777
235	0xbc0410f1	-0.00806068
236	0x3be3ae74	0.0069482867
237	0xbacbcc94	-0.001554864
238	0xba33c054	-0.0006856967
239	0x3cb7da74	0.022443034
240	0x3c71e4e0	0.014764041
241	0xbc956b86	-0.018239748
242	0xbb86660d	-0.004101521
243	0xbb8e05be	-0.0043341806
244	0x3bb33dac	0.0054699983
245	0xbcedeb3f	-0.029042838
246	0x3c249678	0.01004564
247	0x3984083d	0.0002518314
248	0x3ab9cf46	0.0014176152
249	0x3b1418e4	0.0022597844
250	0x3af30063	0.0018539544
251	0xbbf5aad9	-0.0074971733
252	0xbb83a673	-0.004017645
253	0xbbffcf14	-0.007806668
254	0xbba6caad	-0.005090079
255	0xbbb354b0	-0.005472742

to_mean.2.bias f4 [18]
0	0x3cc71e35	0.024306396
1	0x3d934070	0.07190025
2	0xbd4e58a6	-0.05037751
3	0x3cdcbce2	0.026945535
4	0x3dd3d6f9	0.10343737
5	0x3df2943b	0.11844679
6	0x3d5c92fd	0.053851116
7	0x3dbfafc0	0.093596935
8	0x3e30b120	0.17255068
9	0x3d200e85	0.039076347
10	0x3d2caf73	0.04215951
11	0x3d7bff02	0.06152249
12	0x3b7efb3c	0.0038907072
13	0x3d1f47c2	0.038886793
14	0x3d7f5d48	0.06234482
15	0x3d7a1d5b	0.06106315
16	0x3deb99d6	0.11503951
17	0xbd8b7ff1	-0.06811512

to_value.0.weight f4 [64, 128]
0	0x3db4a634	0.08820763
1	0x3ed4724a	0.41493446
2	0x3de13f81	0.109984405
3	0x3e45db60	0.19321966
4	0xbd4b08ae	-0.049568824
5	0xbcdc126a	-0.02686425
6	0xbe631679	-0.22176541
7	0x3c8bfdf6	0.017088871
8	0xbdeedc7d	-0.116631486
9	0xbb833a3b	-0.0040047443
10	0x3ce55104	0.027992733
11	0x3e9165e0	0.28398037
12	0x3e85ff07	0.26171133
13	0x3da7fac8	0.082021296
14	0x3eb2bdb2	0.3491035
15	0x3eca6522	0.39530283
16	0x3ec22214	0.37916625
17	0x3c1920f2	0.009346234
18	0x3d3f66fa	0.046729065
19	0xbccf53c2	-0.025308494
20	0xbe24d41d	-0.1609654
21	0xbe8cfbfb	-0.27535996
22	0x3e7984e2	0.24367097
23	0x3dbd85ef	0.092540614
24	0xbc992bf3	-0.018697714
25	0x3e8e968c	0.27849233
26	0x3d023a3b	0.031793814
27	0x3eb16eb7	0.3465478
28	0x3e691f39	0.22765817
29	0x3d598d41	0.053113226
30	0xbcfbd61d	-0.030741746
31	0xbe8dc10d	-0.2768635
32	0x3c1b5b24	0.009482179
33	0xbd8685cd	-0.06568489
34	0x3cd33806	0.02578355
35	0x3c629a38	0.013830714
36	0xbc662e9f	-0.014049201
37	0xbb1b3356	-0.0023681722
38	0xbe0bb6ff	-0.13644026
39	0x3e192a54	0.14957553
40	0x3ea3eac0	0.32015038
41	0xbd27b72a	-0.040946163
42	0x3e3e6fc4	0.18597323
43	0xbb6986e1	-0.0035633373
44	0xbd7b1e69	-0.0613083
45	0x3e2578a6	0.16159305
46	0xbe309a3f	-0.1724634
47	0xbd8d743b	-0.06906935
48	0x3d230cd2	0.03980715
49	0xbb6d220b	-0.0036183621
50	0x3dcd8185	0.100344695
51	0xbe740038	-0.23828208
52	0x3e642dd7	0.22283112
53	0x3d7f1fdd	0.062286247
54	0x3bcd4e66	0.0062654493
55	0x3d890044	0.06689504
56	0x3e9f903f	0.3116474
57	0x3dc8d89a	0.098069385
58	0x3c51df39	0.012809568
59	0x3e9c8275	0.3056828
60	0x3d6f9c36	0.058498584
61	0xbb7eff11	-0.0038909356
62	0x3e354b30	0.17704463
63	0x3ea47583	0.32120904
64	0x3e2d60c5	0.16931446
65	0x3dd36a97	0.10323065
66	0x3d696886	0.056984447
67	0x3ea415ba	0.32047826
68	0x3d48800f	0.04895025
69	0x3ea0306b	0.3128694
70	0x3c77f357	0.0151337
71	0xbd8009dc	-0.062518805
72	0xbdc2f9f0	-0.09520328
73	0xbc1b058f	-0.0094617745
74	0x3e950421	0.29104713
75	0xbe07fdf9	-0.13280477
76	0x3e39e85b	0.18155043
77	0xbd451b6f	-0.048121866
78	0x3dc36fa3	0.095427774
79	0x3e119e95	0.1422065
80	0xbedd7969	-0.4325669
81	0x3ec3f460	0.3827238
82	0xbd82784f	-0.06370603
83	0x3e492a85	0.19645126
84	0xbd7b00b2	-0.06127996
85	0x3d9396ee	0.07206522
86	0x3d87da00	0.06633377
87	0x3e4ff7d1	0.20309378
88	0x3d8d1ecb	0.06890639
89	0x3e38c02d	0.18042059
90	0x3dd947e7	0.106094174
91	0xbe029ee4	-0.12755924
92	0x3e7baa6a	0.24576727
93	0x3ea4ca55	0.32185617
94	0xbd0e0be1	-0.034679297
95	0x3cf3a991	0.029743942
96	0x3e6d6889	0.23184408
97	0xbe93d185	-0.28870788
98	0x3d372a7a	0.044718243
99	0x3e591bc9	0.21202005
100	0xbdbe658b	-0.092967115
101	0x3e222434	0.15834123
102	0xbe31ebc4	-0.17375094
103	0x3eb5750d	0.35440865
104	0x3e85a425	0.26101795
105	0x3e3b65a2	0.18300489
106	0x3d9c9830	0.07646215
107	0xbd42936c	-0.047503874
108	0xbdee28f8	-0.11628908
109	0xbe2241f7	-0.15845476
110	0x3e50b5e9	0.20381893
111	0x3e347fdb	0.17626898
112	0x3e9f7747	0.3114569
113	0x3db9e016	0.09075944
114	0x3cd51420	0.026010573
115	0x3db9df9a	0.09075852
116	0x3eac7224	0.33680832
117	0x3eb4b8be	0.35297197
118	0x3e53522c	0.20636815
119	0x3e0502ea	0.12989393
120	0x3dcdd56a	0.10050471
121	0x3ea0c912	0.31403404
122	0x3e85035f	0.25979134
123	0x3df2bf40	0.11852884
124	0xbdacf061	-0.08444286
125	0x3ed906f0	0.42388105
126	0xbd81c617	-0.06336611
127	0xbd83fe56	-0.06444995
128	0x3d5ebfe4	0.05438222
129	0x3d09c9ed	0.033639837
130	0xbd2dd261	-0.04243696
131	0xbda522a3	-0.08063247
132	0x3d98da1b	0.07463475
133	0x3aab8ff7	0.001308917
134	0x3dfb1f6d	0.12261853
135	0x3ccc03dd	0.024904186
136	0xbc25bbd4	-0.0101155825
137	0xbbe88821	-0.007096306
138	0x3d294e2b	0.041334312
139	0xbd27adc8	-0.040937215
140	0x3cdfee44	0.027335294
141	0xbdb0ff76	-0.08642475
142	0x3db96ced	0.09053979
143	0x3d447595	0.047963697
144	0xbd8570e8	-0.06515676
145	0xbd203295	-0.03911074
146	0x3d0b4391	0.033999983
147	0xbc857d07	-0.01629497
148	0x3db0e681	0.08637715
149	0x3d068d87	0.032849815
150	0x3d510a91	0.051035468
151	0xbdb1a59c	-0.086741656
152	0xbca12aae	-0.019673672
153	0x3c4e0e0c	0.012576591
154	0xbd27ccd9	-0.040966842
155	0xbd801cec	-0.062555164
156	0x3ddcbe0e	0.107784376
157	0x3d82e4eb	0.06391319
158	0x3cf5a9d6	0.02998821
159	0x3d116111	0.03549296
160	0xbb87fdd8	-0.0041501336
161	0xba4bd789	-0.00077759527
162	0xbda926bf	-0.08259343
163	0xbc046717	-0.008081219
164	0x3b9c4e7a	0.0047700973
165	0xbd49dd32	-0.049283214
166	0x3decab49	0.115561076
167	0xbd840e3d	-0.06448028
168	0xbd8f38a6	-0.06993227
169	0x3d83096f	0.06398284
170	0xbdcdd877	-0.10051053
171	0x3cc79673	0.024363732
172	0x3df1610a	0.11786087
173	0x3c9cb6d8	0.019130155
174	0xbcc53a92	-0.02407578
175	0x3dad70a1	0.08468748
176	0x3c2beba9	0.0104931975
177	0xbde6319d	-0.11239932
178	0x3b363160	0.0027800426
179	0x3df231b4	0.11825886
180	0x3d926a16	0.071491405
181	0xbd9e6242	-0.07733585
182	0xbe26485a	-0.16238537
183	0xbd4d67f6	-0.050147973
184	0x3d594c93	0.053051542
185	0xbd6b503f	-0.057449576
186	0xbcee34cd	-0.029077912
187	0x3ca4946a	0.0200903
188	0x3e0acadc	0.13553947
189	0xbdf8c10c	-0.12146196
190	0x3c6999da	0.0142578725
191	0x3be3d82a	0.006953259
192	0xbdfb5e62	-0.122738615
193	0x3cf02079	0.02931236
194	0xbd40d80e	-0.047081046
195	0xbd8adac7	-0.0678001
196	0xbd143e4a	-0.036192216
197	0xbd3d6a8b	-0.046244185
198	0x3d71dcb9	0.05904839
199	0x3d14d2ea	0.036333956
200	0xbd660277	-0.056154694
201	0x3de1afd0	0.11019862
202	0x3d9fdb8d	0.07805548
203	0x3c75764d	0.014981818
204	0xbd3d8b50	-0.046275437
205	0xbd046b27	-0.03232875
206	0xbd86506f	-0.0655831
207	0xbd882c69	-0.066490956
208	0xbca78510	-0.020449191
209	0x3d5c2d78	0.0537543
210	0xbd77cfef	-0.060501035
211	0xbc0900fd	-0.008362052
212	0x3c5cb9cb	0.013472031
213	0xbd80065b	-0.06251212
214	0x3bb2f723	0.00546159
215	0xbdbb0f3a	-0.091337636
216	0xbcbcbcf0	-0.023039311
217	0xbd3a40d9	-0.045472
218	0xbd2264ba	-0.03964684
219	0x3d4a6806	0.04941561
220	0x3d83a4a2	0.064278856
221	0x3c9865e6	0.018603276
222	0x3d034cf2	0.032055803
223	0xbc3cc5bd	-0.011521754
224	0x3d13a51b	0.03604613
225	0x3c3f93cc	0.011692952
226	0xbd4f2131	-0.050568763
227	0xbc30c32c	-0.01078872
228	0xbcbb8ab1	-0.022893282
229	0xbda6edb9	-0.08150811
230	0x3d1487a0	0.036262155
231	0xbba10a21	-0.0049145375
232	0xbcf009a2	-0.029301468
233	0xbcd4631a	-0.025926162
234	0xbadfd5c1	-0.0017077253
235	0xbd63d67b	-0.055624466
236	0x3e1bf20a	0.1522905
237	0x3e035f3a	0.12829295
238	0xbc8168a5	-0.015796969
239	0xbba20040	-0.0049438775
240	0xbd20dc35	-0.039272506
241	0xbdd6fe88	-0.10497767
242	0x3b8912b7	0.004183139
243	0x3aec21f5	0.0018015491
244	0x3d2af361	0.04173601
245	0xbcdf6405	-0.027269373
246	0xbc05b3b4	-0.00816052
247	0xbd9d103d	-0.07669113
248	0x3cee0004	0.029052742
249	0xbd02e463	-0.031956088
250	0xbd99dd57	-0.0751292
251	0xbd6e211d	-0.058137048
252	0x3e0855b2	0.1331394
253	0x3d87b126	0.06625585
254	0xbb5c37bd	-0.0033602559
255	0x3d0f2416	0.034946524

to_value.0.bias f4 [64]
0	0xbe893e46	-0.26805323
1	0xbd46d25a	-0.04854045
2	0x3e6160aa	0.2200953
3	0x3e88f11a	0.26746446
4	0x3ec7176a	0.3888505
5	0xbeb4c246	-0.3530447
6	0xbeb9ce19	-0.36290053
7	0x3ebbfb81	0.3671532
8	0x3e6adbf2	0.22935465
9	0x3ec3a4ac	0.38211572
10	0xbe8200d2	-0.2539125
11	0xbea89fc0	-0.3293438
12	0x3e5df6a3	0.21676116
13	0x3ec45771	0.38347962
14	0x3e89363d	0.26799193
15	0x3e7764ef	0.24159597
16	0xbe7fe575	-0.24989875
17	0xbe95b655	-0.2924067
18	0x3ecae609	0.39628628
19	0xbe85411c	-0.26026237
20	0xbe956e25	-0.29185596
21	0x3e65dcdd	0.22447534
22	0x3e81885b	0.25299343
23	0xbec27022	-0.37976176
24	0x3eb5be47	0.35496733
25	0xbec56ef9	-0.38561228
26	0x3e820d45	0.2540075
27	0x3e862272	0.26198155
28	0xbec7e396	-0.39040822
29	0x3e5a915e	0.21344516
30	0x3ea75299	0.32680205
31	0x3ea33dfc	0.31883228
32	0x3e62fc8f	0.22166656
33	0x3eb71371	0.3575702
34	0xbeb2143c	-0.34781063
35	0xbe920250	-0.2851739
36	0x3e951af5	0.2912213
37	0x3dfe2f43	0.12411358
38	0xbeaa1d5e	-0.3322553
39	0x3e92e3be	0.28689378
40	0x3e94a706	0.2903368
41	0xbe8e15ea	-0.27751094
42	0x3ea41fb1	0.3205543
43	0xbe9afd95	-0.30271593
44	0x3ec88756	0.39165753
45	0xbea679b3	-0.32514724
46	0xbe7a9f8e	-0.24474928
47	0x3e9cb9bf	0.30610463
48	0x3e814f69	0.25255898
49	0xbead0bc3	-0.33798036
50	0x3e77d04d	0.24200554
51	0xbe57920c	-0.21051806
52	0xbebe2b65	-0.37142482
53	0xbeac9c71	-0.33713105
54	0xbec44391	-0.383328
55	0x3ebaeee9	0.365104
56	0x3eb4efa9	0.35339096
57	0xbe88a023	-0.26684675
58	0xbe7cf1e4	-0.24701649
59	0xbea32c88	-0.31869912
60	0xbead3cea	-0.33835536
61	0x3eaf838c	0.3428005
62	0x3ed01e84	0.40648282
63	0xbebede6b	-0.37279066

to_value.2.weight f4 [1, 64]
0	0xbeb2a80f	-0.34893844
1	0xbb3e9369	-0.0029079563
2	0x3e46430a	0.19361511
3	0x3e91c33e	0.2846927
4	0x3e854826	0.26031607
5	0xbe7e7c39	-0.24852075
6	0xbe9203d7	-0.28518555
7	0x3e5f6bf8	0.2181853
8	0x3e70dfd5	0.23522885
9	0x3e82963d	0.25505248
10	0xbe88e3c1	-0.26736262
11	0xbeb1b7f9	-0.34710672
12	0x3e509d26	0.20372447
13	0x3e6ab505	0.22920616
14	0x3e94f169	0.2909043
15	0x3e84e997	0.25959465
16	0xbe9e3637	-0.30900738
17	0xbeb21be6	-0.3478691
18	0x3e73c818	0.23806798
19	0xbea29851	-0.31756833
20	0xbe972905	-0.29523483
21	0x3e7840e6	0.24243507
22	0x3e9e8901	0.309639
23	0xbe5a972f	-0.21346734
24	0x3e4b293a	0.19839945
25	0xbea698ee	-0.3253855
26	0x3e8d87df	0.27642724
27	0x3e353e31	0.17699505
28	0xbe950d3a	-0.29111654
29	0x3e8a57ff	0.2702026
30	0x3ea021c2	0.31275755
31	0x3e67a4d1	0.22621466
32	0x3e6fe0ce	0.234256
33	0x3ea3d84c	0.3200096
34	0xbec0ff31	-0.37694696
35	0xbead9bb4	-0.33907855
36	0x3e852263	0.26002797
37	0x3a3381e8	0.00068476656
38	0xbeb937c3	-0.36175355
39	0x3e5b111f	0.2139325
40	0x3e8d8566	0.27640837
41	0xbeb73822	-0.35785013
42	0x3e5037b0	0.20333743
43	0xbec943de	-0.3930959
44	0x3e9fa595	0.31181017
45	0xbe8f5be0	-0.27999783
46	0xbebd0d5b	-0.36924252
47	0x3e4a721d	0.19770093
48	0x3e7ef9e9	0.2490002
49	0xbe9765a0	-0.2956972
50	0x3e353722	0.17696813
51	0xbeaa6174	-0.33277476
52	0xbea9bb8b	-0.33150896
53	0xbea4a7fb	-0.3215941
54	0xbe8e96e0	-0.27849483
55	0x3eaca0ca	0.33716422
56	0x3e87d078	0.26526237
57	0xbeb83f87	-0.35985968
58	0xbeaaa953	-0.3333231
59	0xbe9ed41a	-0.31021196
60	0xbe96a384	-0.29421628
61	0x3e9e7ffe	0.30957025
62	0x3e686e04	0.22698218
63	0xbe91f6e3	-0.28508672
