saves/save2_1_23/save10_Standing_16500.pth (torch, 942043 bytes, 11 tensors)

shared_net.0.weight f4 [512, 67]
0	0xbda424ae	-0.080148086
1	0x3be49bda	0.0069765868
2	0xbeba2cac	-0.36362207
3	0xbe59b0c9	-0.21258844
4	0xbd640a25	-0.055673737
5	0x3d97d558	0.07413739
6	0xbda6346a	-0.08115466
7	0x3d387ced	0.045041014
8	0xbd03fbab	-0.03222243
9	0x3dac7501	0.08420754
10	0xbe768a49	-0.24076189
11	0x3cf25990	0.029583722
12	0xbe6cf25a	-0.23139325
13	0x3d8970ec	0.06710991
14	0xbd1a592b	-0.037682693
15	0xbd19f857	-0.03759035
16	0x3e7e593c	0.24838728
17	0x3ee3396f	0.44379756
18	0xbd082490	-0.033237994
19	0xbeff03bb	-0.49807534
20	0x3ea1d0ee	0.31604713
21	0xbedddaf0	-0.433311
22	0xbd7fcb97	-0.062450018
23	0x3d53f888	0.05175069
24	0xbe9e0c2e	-0.30868667
25	0x3d0b0d56	0.033948265
26	0x3de7ff85	0.11328033
27	0xbf037a59	-0.5135856
28	0xbd9f2c77	-0.07772153
29	0x3e37d43c	0.17952055
30	0xbcb024d4	-0.021501936
31	0x3cba83e6	0.022767972
32	0xbda649aa	-0.08119519
33	0xbda14593	-0.07874598
34	0xbd07d64b	-0.03316335
35	0x3d14b830	0.036308467
36	0x3d43728c	0.047716662
37	0x3cfe67d7	0.031055374
38	0x3cde8368	0.027162269
39	0xbccb9b2d	-0.024854267
40	0x3e1288bc	0.14309973
41	0xbb80fd1c	-0.003936423
42	0xbac25e48	-0.0014829123
43	0xbd8becb4	-0.06832257
44	0xbc8c20d4	-0.017105497
45	0xbd6fe863	-0.05857123
46	0x3c96063a	0.018313516
47	0xbcc86f58	-0.024467155
48	0xbdd84f80	-0.105620384
49	0x3d14ce15	0.036329348
50	0x3d2d7ebb	0.042357188
51	0x3dc2de5f	0.0951507
52	0x3e48be4c	0.19603842
53	0x3d810189	0.06299121
54	0x3dda873d	0.10670326
55	0xbe0d307c	-0.13788027
56	0xbb9fa761	-0.004872248
57	0xbe34efa2	-0.17669538
58	0xbd371480	-0.044697285
59	0xbd680c57	-0.056652393
60	0x3dad0f7c	0.08450219
61	0x3dd4354d	0.10361729
62	0xbc57a3a7	-0.013161576
63	0x3d3b2048	0.045685083
64	0x3e25adb4	0.16179544
65	0x3e0bb2fb	0.13642494
66	0xbd4f4506	-0.050602935
67	0x3dc60568	0.09669
68	0x3e203a22	0.15647176
69	0x3e633807	0.22189341
70	0xbe2a8fd5	-0.1665643
71	0xbbfe964a	-0.0077693807
72	0x3d967e23	0.073482774
73	0x3e7edd48	0.248891
74	0x3da21912	0.07914938
75	0x3d2b3829	0.041801605
76	0x3d52a03d	0.051422346
77	0xbefc5a69	-0.49287727
78	0xbdadb92f	-0.084825866
79	0xbe3681d6	-0.17822966
80	0xbc53f72e	-0.01293735
81	0x3d02a4ac	0.031895325
82	0x3e167007	0.14691173
83	0xbe8431f1	-0.25819352
84	0x3dd558a7	0.104173
85	0xbd629130	-0.055314243
86	0xbc101858	-0.0087948665
87	0xbc0f2535	-0.008736898
88	0x3ce887ae	0.02838501
89	0xbd915ee9	-0.07098181
90	0xbdaf1de0	-0.0855062
91	0x3a9494b4	0.0011335821
92	0x3e1eaa5a	0.15494671
93	0x3cd938c6	0.02651633
94	0xbe86053c	-0.2617587
95	0xbd8ab7b9	-0.067733236
96	0xbdce236f	-0.10065352
97	0xbca7bd28	-0.020475939
98	0xbd9c8765	-0.07643012
99	0xbdceafc4	-0.100921184
100	0xbcc0ffe7	-0.023559524
101	0xbce6b803	-0.028163916
102	0xbc1d2de2	-0.009593459
103	0xbc68ffca	-0.014221141
104	0xbd57026b	-0.05249254
105	0xbcfc1690	-0.030772477
106	0xbdd4bb5b	-0.10387298
107	0xbae7bf2d	-0.0017680876
108	0xbb915f11	-0.0044363816
109	0xbc7fb8f8	-0.015608065
110	0xbd8055b1	-0.06266344
111	0x3c8fc2d2	0.017548952
112	0xbd880847	-0.06642204
113	0x3d20a3b4	0.03921862
114	0x3d6a21fb	0.057161313
115	0xbdf70ff1	-0.120635875
116	0x3d6e9bec	0.058254167
117	0xbcea8a7e	-0.028630491
118	0xbcbb5dff	-0.02287197
119	0x3d2b6e78	0.041853398
120	0x3d0304f1	0.031987134
121	0xbc919900	-0.017773151
122	0xbd18f624	-0.037344113
123	0x3ceaba1d	0.028653199
124	0xbe22d6ef	-0.15902303
125	0xbc9f91ac	-0.019478641
126	0xbde28221	-0.11059976
127	0xbd13d2fa	-0.036089875
128	0x3c6d072b	0.014467041
129	0xbe0c8e6a	-0.13726202
130	0x3c8d5962	0.017254535
131	0x3d3639f1	0.04448885
132	0xbdbee95e	-0.09321855
133	0x3c61ad64	0.01377425
134	0x3e8e208e	0.27759212
135	0x3d804167	0.062624745
136	0xbda411d6	-0.080112144
137	0xbc2753c2	-0.0102128405
138	0x3d37c2f3	0.044863652
139	0x3d65ab02	0.05607129
140	0x3ddef090	0.108857274
141	0x3d811a82	0.06303884
142	0x3dd42f29	0.103605576
143	0x3bb7a880	0.0056048036
144	0xbf46e7ce	-0.77697456
145	0xbe0cda06	-0.13755044
146	0x3e12555a	0.14290372
147	0x3d344f0b	0.044020694
148	0xbcdca826	-0.026935648
149	0xbd37a0f7	-0.044831242
150	0xbe13f195	-0.14447625
151	0xbdb9b06a	-0.090668514
152	0x3c9f3375	0.019433716
153	0x3e451f2b	0.19250171
154	0xbd16fe3f	-0.03686356
155	0xbdbfa09f	-0.09356808
156	0x3cec6fac	0.028861843
157	0xbd6c121c	-0.057634458
158	0x3b817fc6	0.0039519994
159	0xbd19516d	-0.03743117
160	0xbda4c7f2	-0.08045949
161	0xbcb4d4b0	-0.022074074
162	0xbdc519f5	-0.096240915
163	0xbe0b9be3	-0.13633685
164	0x3d881e22	0.066463724
165	0xbd44a217	-0.048006143
166	0xbc8d28c3	-0.01723135
167	0xbc197642	-0.009366574
168	0x3ce2ba45	0.02767671
169	0x3ce2c451	0.027681502
170	0x3da7fb76	0.08202259
171	0x3c4e7e85	0.012603407
172	0x3d1d5da5	0.038419385
173	0xbdeb15b0	-0.11478746
174	0xbd98c8b7	-0.07460158
175	0xbd1b9523	-0.037984025
176	0x3d2080cb	0.039185327
177	0xbc5c9c4b	-0.0134649975
178	0x3d042304	0.032259956
179	0xbd3c0797	-0.045905676
180	0xbc32eb84	-0.010920409
181	0xbd0dad80	-0.03458929
182	0x3e067aea	0.13132825
183	0x3d449f33	0.048003387
184	0x3d8c8568	0.06861383
185	0x3d63745b	0.055530887
186	0xbd0d4bc8	-0.0344961
187	0x3c3862c1	0.0112540135
188	0xbdbc93be	-0.09207867
189	0x3d5cea2b	0.053934257
190	0x3d98edfe	0.074672684
191	0x3d11f1ae	0.035630874
192	0xbd273096	-0.04081782
193	0xbcb8b425	-0.022546837
194	0xbda57643	-0.08079197
195	0xbd260d71	-0.040540162
196	0xbe0e10b1	-0.13873555
197	0x3cd9fce4	0.026609845
198	0xbd250b74	-0.040294126
199	0xbce2b992	-0.027676377
200	0x3b978cdf	0.0046249474
201	0x3e980a15	0.29695192
202	0x3b890a00	0.0041821003
203	0xbe5613d5	-0.20906003
204	0xbe16fa57	-0.14743935
205	0xbdab83e7	-0.08374768
206	0x3d86421f	0.0655558
207	0x3da3448c	0.07972059
208	0x3cbac3ef	0.022798507
209	0x3d7c315a	0.061570503
210	0x3ca69830	0.02033624
211	0xbed6c973	-0.4195057
212	0x3dbce062	0.09222485
213	0x3db0e8f3	0.086381815
214	0x3dde42a2	0.10852553
215	0x3e609cc0	0.21934795
216	0xbd9bc3de	-0.07605718
217	0xbe70fcb3	-0.23533897
218	0xbdbba7d2	-0.091628686
219	0xbdb41a9e	-0.08794139
220	0x3d631476	0.055439435
221	0x3ce244d4	0.02762071
222	0xbcf092d8	-0.029366896
223	0xbd9f1a91	-0.07768739
224	0xbdd1596d	-0.10222135
225	0x3e499fbf	0.19689845
226	0xbdb21a32	-0.086964026
227	0x3cbaaa3e	0.022786256
228	0xbdd12322	-0.10211779
229	0xbc456f29	-0.012050428
230	0xbd9a2427	-0.07526427
231	0xbd258efb	-0.04041956
232	0xb9dde9a5	-0.00042326484
233	0x3d8aaa38	0.06770748
234	0x3c9fa70b	0.019488832
235	0x3b2cfd44	0.0026396075
236	0x3d5d58d7	0.054039802
237	0x3d245dd7	0.040128555
238	0x3cb07523	0.02154023
239	0xbd1a1571	-0.037618104
240	0x3e1af362	0.15131906
241	0x3c7d92ac	0.015476864
242	0x3c0cd75a	0.008596266
243	0xbd19d9f9	-0.03756139
244	0x3cde0df9	0.027106272
245	0xbcbf71af	-0.023369638
246	0x3dc136e5	0.094342984
247	0xbd19e555	-0.037572224
248	0x3dcd7d7d	0.100337006
249	0xbd6d2410	-0.05789572
250	0x3c5df81a	0.013547922
251	0x3d20ed36	0.039288722
252	0x3dc060da	0.09393473
253	0xbb1aa0bb	-0.0023594338
254	0xbe11836b	-0.14210288
255	0xbdab0aac	-0.08351645

shared_net.0.bias f4 [512]
0	0x3ce53f2c	0.027984224
1	0x3d88ffde	0.06689428
2	0x3c20eeed	0.009822589
3	0x3d42d899	0.047569845
4	0xbd96ad86	-0.07357316
5	0x3ac42d18	0.0014967052
6	0xbe1af9ec	-0.151344
7	0xbd9309e1	-0.071796186
8	0xbd82a3de	-0.063789114
9	0x3dcb8bc5	0.09938768
10	0x3c8a7a35	0.016903976
11	0xbd807a51	-0.0627333
12	0xbe00c98e	-0.12576887
13	0xbc451746	-0.012029475
14	0xbd5f1be0	-0.054469943
15	0xbdea59dd	-0.11442921
16	0xbdce90ee	-0.10086237
17	0xbe3eb6db	-0.18624441
18	0x3da51192	0.08059992
19	0xbcf27895	-0.029598514
20	0x3c1b49d1	0.009478048
21	0x3df3ceeb	0.11904701
22	0x3dc6b9a4	0.09703377
23	0xbe1ce036	-0.15319905
24	0x3db8aecc	0.09017715
25	0x3cd32c7f	0.025778053
26	0xbe305faa	-0.17223993
27	0x3e3491af	0.17633699
28	0xbd80d909	-0.06291396
29	0xbd6a7732	-0.05724258
30	0xbd86c4f7	-0.06580537
31	0x3df2beb6	0.118527815
32	0x3db5973c	0.08866736
33	0xbc36325a	-0.011120403
34	0xbe171d9d	-0.1475739
35	0x3ceb58a7	0.028728796
36	0x3c73f29b	0.014889385
37	0x3de498d2	0.11161961
38	0xbdae0bfc	-0.084983796
39	0xbe1a4cc3	-0.15068345
40	0xbe070514	-0.13185531
41	0xbe19dcf5	-0.15025695
42	0xbd17acf0	-0.03703016
43	0x3d76994c	0.06020479
44	0x3c1bb673	0.0095039485
45	0xbdc2c5e8	-0.09510404
46	0xbc82d0d8	-0.015968725
47	0x3cc4c604	0.024020202
48	0xbe42f947	-0.19040404
49	0xbe054451	-0.13014342
50	0x3cac666f	0.021044938
51	0xbdc9058a	-0.098155096
52	0x3db51082	0.08841039
53	0x3e029fe0	0.127563
54	0x3c8587da	0.01630013
55	0xbe415d37	-0.18883215
56	0xbd878143	-0.066164516
57	0x3d237b9b	0.0399128
58	0xbd0edc93	-0.034878325
59	0xbde356c7	-0.11100536
60	0x3dde955d	0.108683325
61	0x3dac11bf	0.08401822
62	0xbcca72b7	-0.024712903
63	0xbc7437ab	-0.01490585
64	0xbd8a3a2a	-0.06749375
65	0xbdc35d64	-0.09539297
66	0x3d344baa	0.04401747
67	0xbcc53f5d	-0.024078066
68	0x3d8537ca	0.065047815
69	0xbcc301b0	-0.023804516
70	0x3be49911	0.0069762548
71	0xbd4302ff	-0.04761028
72	0xbcf533aa	-0.029931862
73	0xbdc2d614	-0.095134884
74	0xbc003438	-0.00782495
75	0x3d93bb47	0.07213455
76	0xbda5bd92	-0.08092798
77	0x3d80b75a	0.062849715
78	0xbd00dabe	-0.03145861
79	0x3dc08ff0	0.09402454
80	0xbd94b954	-0.07261911
81	0xbdb3f32e	-0.08786617
82	0x3c46ca37	0.012133173
83	0xbe721f69	-0.23644795
84	0x3c47f8d5	0.012205322
85	0xbc0e4305	-0.008682971
86	0xbdb69c6c	-0.08916554
87	0xbdf9cf26	-0.121977136
88	0xbe3fbe0c	-0.18724841
89	0xbe3de776	-0.18545327
90	0xbe18b1c1	-0.14911558
91	0xbd1bff04	-0.038085
92	0xbd968c10	-0.073509336
93	0xbe4cc259	-0.19996013
94	0xbd8253e1	-0.06363655
95	0xbdf90e6b	-0.12160953
96	0xbe055300	-0.13019943
97	0x3e26a833	0.162751
98	0xbd1b065f	-0.037847873
99	0x3cd2ae98	0.025718018
100	0x3e09c96b	0.13455741
101	0xbdb498b7	-0.088181905
102	0x3dbaf67a	0.09129043
103	0x3d0b6a8b	0.034037154
104	0xbd67126c	-0.056414053
105	0xbdfffb5b	-0.12499114
106	0x3dcc82d2	0.099858895
107	0x3d817069	0.06320269
108	0xbe61c383	-0.22047238
109	0xbbb8becb	-0.0056379787
110	0x3dac1fe4	0.0840452
111	0xbe02bd49	-0.12767519
112	0x3ddb6a8e	0.10713683
113	0x3dabed57	0.08394878
114	0xbda158f2	-0.07878293
115	0x3cf9743b	0.03045093
116	0x3b822b6d	0.003972462
117	0x3d5701db	0.052492004
118	0xbd36ed58	-0.044659942
119	0xbe005ca4	-0.1253534
120	0xbcf297d9	-0.029613422
121	0xbe22c6c2	-0.15896133
122	0x3da2326b	0.07919773
123	0xbddc656e	-0.10761534
124	0xbd98fb61	-0.07469822
125	0xbdb558c1	-0.08854819
126	0xbd8f2486	-0.06989388
127	0xbe2903d1	-0.16505362
128	0x3da7ccb2	0.081933394
129	0xbdea12ca	-0.11429365
130	0xbd8f4eb2	-0.06997432
131	0xbdcc5382	-0.09976865
132	0xbd3fca8e	-0.04682403
133	0x3d6e4f4b	0.05818109
134	0x3d787b5b	0.060664516
135	0x3d6024e3	0.054722678
136	0xbcc4b492	-0.024011884
137	0xbb4b8437	-0.0031054148
138	0xbbe7a9c1	-0.007069797
139	0xbe1b3200	-0.15155792
140	0xbd8445de	-0.064586386
141	0xbc33ecc6	-0.010981744
142	0xbdc66ab0	-0.09688318
143	0xbdda127e	-0.10648058
144	0xbdf179f6	-0.1179084
145	0xbdccc89b	-0.099992
146	0xbcd672ee	-0.02617785
147	0xbdcc06f1	-0.099622615
148	0x3dc85b86	0.09783082
149	0x3d01d59f	0.031697866
150	0x3d80216e	0.06256376
151	0xbd90ebd6	-0.07076232
152	0x3d140c2b	0.036144417
153	0x3d697bc1	0.057002787
154	0x3aee8d71	0.0018200112
155	0xbe117409	-0.1420442
156	0xbd467bf9	-0.048458073
157	0xbe10594a	-0.14096561
158	0xbd17d051	-0.0370639
159	0x3c19642e	0.009362264
160	0x3dc0246f	0.09381949
161	0xbd82b702	-0.06382562
162	0x3cb56974	0.02214501
163	0x3c31e8bb	0.01085871
164	0xbcca591e	-0.024700698
165	0x3d616b91	0.055034224
166	0x3d02d923	0.03194536
167	0x3d38fa68	0.04516068
168	0x3ddd6655	0.10810534
169	0x3d8be3a0	0.068305254
170	0xbd05d665	-0.032675166
171	0xbdd153b8	-0.10221046
172	0xbe212435	-0.15736468
173	0x3c9a40ba	0.018829692
174	0x3d5dca48	0.05414799
175	0xbdb2b8ea	-0.08726676
176	0xbddfe790	-0.10932839
177	0xbd519a7c	-0.05117272
178	0x3d0680c6	0.03283765
179	0x3d3106e8	0.043219477
180	0xbd8ebdd8	-0.069698036
181	0xbd0122ed	-0.03152745
182	0x3d87708e	0.06613265
183	0xbd117d31	-0.035519782
184	0x3d765f8d	0.060149718
185	0xbdeb26da	-0.1148202
186	0xbe0b2285	-0.13587387
187	0xbdb754b0	-0.089517
188	0x3d89069a	0.06690712
189	0xbc26d005	-0.010181432
190	0x3dd4e58b	0.10395344
191	0x3d65bdc6	0.056089185
192	0x3d8455e2	0.06461693
193	0xbd89bb25	-0.06725148
194	0xbd0aa18b	-0.033845466
195	0x3e5b6dc1	0.21428587
196	0x3da5fd0d	0.08104906
197	0x3e397a13	0.18112974
198	0x3d0cfbaa	0.034419693
199	0xbd8cb29e	-0.06870006
200	0xbdf4ce28	-0.11953384
201	0xbd92a41c	-0.07160208
202	0xbe2504b2	-0.16115072
203	0xbaebdfdb	-0.0017995791
204	0xbd3e94ec	-0.04652874
205	0x3d3bbb50	0.045832932
206	0x3d8ca81a	0.06868
207	0xbda208bc	-0.07911822
208	0x3d8d4e48	0.068996966
209	0xbcf5c3d5	-0.030000607
210	0xbda1b7fb	-0.078964196
211	0x3d36fb78	0.044673413
212	0x3d10f636	0.035391055
213	0xbdbf181a	-0.09330769
214	0x3c166172	0.009178506
215	0xbe7cdd85	-0.24693878
216	0x3e230f6c	0.15923852
217	0xbd5bc696	-0.053656183
218	0x3d2044d0	0.039128125
219	0xbe35c060	-0.17749166
220	0xbe397567	-0.18111192
221	0xbda62ce7	-0.08114033
222	0xbe12cb6f	-0.14335416
223	0xbd9c6c6e	-0.07637869
224	0xbddf4d71	-0.10903443
225	0x3d89b683	0.067242645
226	0xbddbd9a5	-0.10734872
227	0x3e216fd6	0.15765318
228	0xbdb03525	-0.086038865
229	0xbe04fc9a	-0.12986985
230	0xbe139b62	-0.14414743
231	0xbe0bb805	-0.13644417
232	0xbe418fcb	-0.18902509
233	0xbe26b20c	-0.16278857
234	0xbdac6866	-0.0841835
235	0x3e1abdfe	0.15111539
236	0xbcaca07b	-0.021072617
237	0x3d168d83	0.03675605
238	0xbe33c4ac	-0.17555493
239	0x3d9d2956	0.076739
240	0xbd98ef4e	-0.07467519
241	0x3d343e97	0.044005003
242	0xbd038e48	-0.03211811
243	0xbda856bd	-0.08219669
244	0xbde7a076	-0.11309902
245	0xbdd4bff4	-0.10388175
246	0xbc89d7a2	-0.016826455
247	0xbd89157d	-0.06693552
248	0xbdc70f09	-0.097196646
249	0xbd7ef571	-0.06224579
250	0x3e1cae11	0.15300776
251	0xbdbf6984	-0.093462974
252	0xbb0e9dd5	-0.0021761556
253	0xbe19f056	-0.15033087
254	0x3dc17f34	0.0944809
255	0xbe16418d	-0.14673443

shared_net.2.weight f4 [256, 512]
0	0x3e09afba	0.1344594
1	0x3cf3d387	0.02976395
2	0x3be2312f	0.006902836
3	0x3dbce42f	0.0922321
4	0x3c73884f	0.0148640415
5	0xbc923ad9	-0.017850326
6	0x3d0367f9	0.032081578
7	0x3d87f336	0.06638186
8	0xbd90ee52	-0.07076706
9	0x3e002ea0	0.12517786
10	0xbe9a162f	-0.3009505
11	0x3ba6b16c	0.0050870683
12	0xbdb4f29d	-0.08835337
13	0x3d9ac7d2	0.07557644
14	0x3d58b008	0.05290225
15	0xbadb5a93	-0.0016735367
16	0x3c7c8055	0.015411456
17	0xbd06f7fd	-0.032951344
18	0x3c5586d7	0.013032637
19	0xbd9561ed	-0.072940685
20	0xbb2f3dce	-0.002673972
21	0x3e63409e	0.22192618
22	0xbd3d1f5b	-0.04617248
23	0xbe25ebc7	-0.16203223
24	0x3cee922d	0.029122436
25	0x3c7db308	0.015484579
26	0xbdca43e6	-0.09876232
27	0xbc969e38	-0.018385991
28	0xbd0659d9	-0.03280053
29	0x3b93ac39	0.0045066145
30	0xbdd4ae92	-0.10384859
31	0x3d7fb39b	0.062427144
32	0x3db0d1ed	0.0863379
33	0xbd9b959e	-0.075968966
34	0xbbcc0739	-0.006226447
35	0x3cae5858	0.02128236
36	0x3d99d3e9	0.07511122
37	0x3d5c251a	0.05374632
38	0x3d9ebac3	0.07750466
39	0x3d80a5db	0.062816344
40	0x3d12fc0e	0.03588491
41	0x3d0e7237	0.034776893
42	0xbc3c3886	-0.011488086
43	0xbe10776e	-0.14108059
44	0xbe167079	-0.14691342
45	0xbe0a7fdb	-0.13525335
46	0xbe1a9c74	-0.15098745
47	0x3d0dbfe3	0.034606826
48	0x3d859dd7	0.06524246
49	0x3d11516b	0.035478037
50	0x3dad0d29	0.08449776
51	0xbc3aa07d	-0.011390802
52	0x3e3dedcf	0.18547748
53	0xbc4ca726	-0.012491023
54	0x3df1dfc6	0.118102595
55	0xbd132dbe	-0.035932295
56	0xbe466000	-0.19372559
57	0xbccfa0b3	-0.025345182
58	0x3ce11f9e	0.027480897
59	0xbd513f72	-0.051085897
60	0xbd99a112	-0.07501425
61	0x3dd6d6d8	0.10490197
62	0xbda7a86b	-0.0818642
63	0x3d67258c	0.056432292
64	0xbd5a81bb	-0.053346377
65	0x3e3e2929	0.18570389
66	0x3dd60113	0.10449424
67	0xbe09d192	-0.13458851
68	0xbc8224c1	-0.015886666
69	0xbe1fb3cd	-0.15595932
70	0xbe0a8187	-0.13525973
71	0xbd9532c9	-0.07285077
72	0x3d79c6d1	0.06098062
73	0xbc334d0e	-0.010943664
74	0x3d3641e7	0.044496443
75	0xbdd57580	-0.10422802
76	0x3d69ee3e	0.05711197
77	0xbd3916c4	-0.045187727
78	0xbdd53ea5	-0.10412339
79	0x3e2a6bc2	0.16642669
80	0xbd170c3d	-0.036876906
81	0x3e140b8d	0.14457531
82	0xbdf68751	-0.12037528
83	0xbdf69c78	-0.12041563
84	0x3d6f1873	0.058372926
85	0xbd9af918	-0.07567042
86	0x3d92cfa3	0.0716851
87	0xbe10a018	-0.14123571
88	0x3d34a81a	0.044105627
89	0xbdd70dd6	-0.10500686
90	0xbe170a07	-0.14749919
91	0xbdfa6971	-0.122271426
92	0xbd17f88a	-0.03710226
93	0xbdbb8871	-0.091568835
94	0x3d84bde5	0.06481532
95	0x3a30b352	0.0006740588
96	0x3daa6e87	0.08321863
97	0x3e55f2f7	0.20893465
98	0xbbadc823	-0.005303399
99	0xbcb49ac5	-0.022046456
100	0x3d15b1f1	0.03654665
101	0xbdcd4ae9	-0.100240536
102	0x3cc63f90	0.02420023
103	0x3dac92c1	0.084264286
104	0xbe269770	-0.16268706
105	0x3da57431	0.080788024
106	0xbd4c2f86	-0.04985001
107	0x3dd76969	0.10518152
108	0xbd03bfb4	-0.032165244
109	0x3d148280	0.036257267
110	0x3d898f83	0.06716826
111	0xbdbc04d3	-0.09180608
112	0x3d5fff12	0.054686613
113	0xbca070d4	-0.01958505
114	0x3e8e6ce5	0.27817455
115	0xbde80341	-0.11328746
116	0x3e2558fb	0.16147225
117	0x3bf85f86	0.0075797467
118	0x3ddd0ab6	0.107930586
119	0x3d618b1c	0.055064306
120	0x3db9fd0b	0.09081467
121	0x3d4d7d6c	0.05016844
122	0xbcbe38df	-0.023220478
123	0x3d559b32	0.05214996
124	0xbdfd227c	-0.12360093
125	0x3dab793b	0.08372732
126	0x3d7ed517	0.062214937
127	0xbc905e9e	-0.017623242
128	0xbcf8c0dc	-0.0303654
129	0xbd8ff8bc	-0.07029864
130	0x3d57f8bd	0.05272745
131	0x3e41f461	0.1894088
132	0x3d20a44a	0.03921918
133	0xbdf3df5f	-0.11907839
134	0x3ce21e42	0.027602319
135	0x3bd7eea7	0.006589729
136	0xbd884a35	-0.06654779
137	0xbd622191	-0.055207793
138	0x3db20f48	0.08694321
139	0x3be56e3d	0.007001667
140	0x3d7450b3	0.059647273
141	0xbd30b881	-0.043144707
142	0x3d75f361	0.060046557
143	0x3ab8448f	0.0014058518
144	0xbe0f9f33	-0.14025573
145	0xbd6d1983	-0.057885658
146	0x3dc42521	0.09577394
147	0xbc857f30	-0.016296
148	0x3de02354	0.10944238
149	0x3b4150f1	0.0029497708
150	0x3dae63c2	0.08515121
151	0x3e0faf77	0.14031778
152	0xbc9d1ad8	-0.01917784
153	0x3ce6c698	0.028170869
154	0x3d844e69	0.06460268
155	0x3d289c0a	0.041164435
156	0x3dacb9bb	0.08433863
157	0x3d1d24ff	0.03836536
158	0xbdc8cdb5	-0.098048605
159	0x3d540eb4	0.051771834
160	0x3d9fb0b1	0.07797373
161	0xbda55f7f	-0.08074855
162	0x3d6bd8d6	0.057579838
163	0xbd1e7240	-0.038683176
164	0xbda8386b	-0.08213886
165	0x3b6916c7	0.0035566555
166	0x3b2a5212	0.002598886
167	0xbe577bfc	-0.2104339
168	0x3d75de26	0.06002631
169	0xbca31c88	-0.019911066
170	0xbd685df3	-0.056730222
171	0x3df1bdf6	0.1180381
172	0xbddb8fb7	-0.10720771
173	0xbdaee9ff	-0.08540725
174	0xbd2cc35d	-0.0421785
175	0x3d37cc6a	0.04487268
176	0x3daf8154	0.08569589
177	0xbc90992b	-0.017651161
178	0xbdb036a7	-0.08604174
179	0x3dd269fc	0.10274121
180	0x3db6c8cc	0.08925018
181	0xbdde0b0e	-0.10841952
182	0x3c42dbf1	0.011893258
183	0x3e2a9ad5	0.16660626
184	0xbdced7db	-0.10099765
185	0x3d173378	0.03691432
186	0xbd9c8abf	-0.07643651
187	0x3d464314	0.048403814
188	0x3e0096d5	0.12557538
189	0x3ceddb2d	0.029035175
190	0xbcd01dd1	-0.025404843
191	0x3e8454a1	0.25845817
192	0xbdbb7107	-0.09152418
193	0xbdf33de0	-0.11877036
194	0x3d5673bf	0.052356478
195	0x3e0678b3	0.1313198
196	0x3e6a4e18	0.22881353
197	0x3d552428	0.052036434
198	0xbcdac4ef	-0.026705233
199	0xbdb5f29f	-0.08884167
200	0x3e372f69	0.1788918
201	0x3de8d6d9	0.11369104
202	0xbde22ef0	-0.11044109
203	0xbc94dcc0	-0.018171668
204	0x3d5777f6	0.052604638
205	0xbd96a993	-0.073565625
206	0x3d4dcde3	0.050245177
207	0x3e482455	0.1954511
208	0x3e848e17	0.25889656
209	0x3cc33855	0.023830572
210	0xbdc25818	-0.09489459
211	0xbd44a489	-0.048008475
212	0x3dc6e9ca	0.097125605
213	0x3d28fbd9	0.041255806
214	0x3d8fd2ae	0.07022606
215	0xbdd0d5c9	-0.10197026
216	0xbd96dcfc	-0.07366368
217	0xbdef4fad	-0.11685119
218	0xbc5b49d0	-0.0133842975
219	0xbd3ceadf	-0.046122428
220	0xbd4e5b68	-0.05038014
221	0xbc80c3dc	-0.015718393
222	0xbcee8d67	-0.02912016
223	0xbe179218	-0.14801824
224	0x3df40c7b	0.11916443
225	0x3c6b3eb6	0.014358213
226	0xbdf0b2f8	-0.117528856
227	0x3c65e20f	0.014030947
228	0x3d0460eb	0.03231899
229	0xbda4f641	-0.08054782
230	0xbd3053a2	-0.04304851
231	0x3dbdbd95	0.092646755
232	0xbc0ebc9f	-0.008711963
233	0x3dcd7328	0.1003173
234	0xbb63f152	-0.003478129
235	0xbb26ba53	-0.0025440648
236	0xbd54530c	-0.051837012
237	0x3dbf219e	0.09332584
238	0xbc966aba	-0.018361438
239	0x3d8abbf8	0.067741334
240	0xbc168b5d	-0.0091885
241	0x3dd2c201	0.102909096
242	0xbc5e1308	-0.013554342
243	0xbd9e3d4d	-0.07726536
244	0x3d5848e5	0.052803893
245	0x3c9f54b6	0.019449573
246	0x3b407ef0	0.0029372536
247	0x3d821205	0.06351093
248	0xbd8bbfc6	-0.06823687
249	0xbd0620f8	-0.032746285
250	0x3dc72922	0.09724642
251	0xbc17d773	-0.009267676
252	0x3dc2463f	0.09486055
253	0x3d568a7e	0.05237817
254	0xbdae0b65	-0.08498267
255	0x3db79332	0.08963622

shared_net.2.bias f4 [256]
0	0x3d0044ad	0.031315494
1	0xbd6bb711	-0.057547633
2	0xbd34f732	-0.044181056
3	0xbd1d8eab	-0.038466137
4	0x3b03a2a9	0.0020085967
5	0x3d81f05e	0.063446745
6	0xbd15d125	-0.03657641
7	0xbd93b537	-0.07212298
8	0x3c14796c	0.009062152
9	0xbdde1190	-0.108431935
10	0xbce09b10	-0.02741769
11	0xbc746ef9	-0.014919036
12	0xbe045fb6	-0.12927136
13	0xbdbf7bda	-0.09349795
14	0xbd6f70f1	-0.05845732
15	0x3c573ef8	0.0131375715
16	0xbd25674b	-0.04038171
17	0xbcbbc886	-0.022922765
18	0xbd51ec18	-0.051250547
19	0xbd0202f9	-0.031741116
20	0xbcc1a64b	-0.023638865
21	0xbdd49b0c	-0.10381135
22	0xbe11080a	-0.14163223
23	0x3cd050e1	0.025429191
24	0x3939ff3b	0.00017738056
25	0xbd152219	-0.03640947
26	0x3c9a7128	0.018852785
27	0xbdd102c5	-0.10205606
28	0xbd3bbe24	-0.04583563
29	0xbc1cfd4b	-0.009581874
30	0xbe08d8a8	-0.13363898
31	0xbd86f63f	-0.065899365
32	0xbcf7094e	-0.030155804
33	0xbdfcac59	-0.1233756
34	0xbcead52b	-0.0286661
35	0xbe1caa11	-0.1529925
36	0xbd0ac34f	-0.033877667
37	0xbd94ddff	-0.07268905
38	0xbd4706f0	-0.0485906
39	0x3d5a4bb2	0.053294845
40	0xbe0be3df	-0.13661145
41	0xbe1223b6	-0.14271435
42	0xbe28fe64	-0.16503292
43	0x3cb23e4f	0.021758227
44	0xbe1f5f40	-0.15563679
45	0xbda9e7eb	-0.08296188
46	0xbb7a891a	-0.0038228692
47	0xbdb17078	-0.0866403
48	0xbc6721cb	-0.014107178
49	0xbd3e82e3	-0.046511542
50	0xbd9a3e7b	-0.075314485
51	0x3e0fb158	0.14032495
52	0xbd843d54	-0.0645701
53	0xbd14a11a	-0.03628645
54	0xbc138d66	-0.00900588
55	0xbdba7f70	-0.09106338
56	0xbd421327	-0.047381546
57	0xbe04a906	-0.12955102
58	0xbcf8f1a9	-0.03038867
59	0xbd50e473	-0.050999116
60	0xbe050ff7	-0.12994371
61	0xbd761ed4	-0.060087994
62	0x3c852ff3	0.016258216
63	0xbdfd6154	-0.123720795
64	0xbd9d615c	-0.076845855
65	0xbd87fa30	-0.06639516
66	0xbdaee860	-0.08540416
67	0xbd769ca5	-0.06020798
68	0xbe151b56	-0.14561209
69	0x3dab152e	0.08353649
70	0xbe08a9b4	-0.13345987
71	0xbdb663e7	-0.089057736
72	0x3dab4e31	0.08364523
73	0xbd2d993c	-0.042382464
74	0xbd78b09a	-0.060715295
75	0xbc63105c	-0.013858881
76	0x3c817b07	0.015805734
77	0xbd37b11c	-0.04484664
78	0xbdd87e34	-0.10570946
79	0x3ca3fd32	0.020018194
80	0xbd834c9f	-0.06411099
81	0xbc69ddb2	-0.014274048
82	0xbd9f0d85	-0.077662505
83	0x3df3ba95	0.11900822
84	0xbdeaa48e	-0.114571676
85	0x3cb15a64	0.021649547
86	0x3d60cee3	0.054884803
87	0xbd1459b7	-0.03621837
88	0x3d0ddb33	0.034632873
89	0xbd8e90eb	-0.06961235
90	0xbd666528	-0.056248814
91	0xbd4d5e08	-0.050138503
92	0x3c74ee0d	0.014949334
93	0xbe0baea6	-0.13640842
94	0xbdba1f6d	-0.09088025
95	0xbd65db01	-0.05611706
96	0xbe186cfa	-0.14885321
97	0xbdda1000	-0.10647583
98	0xbcff7c26	-0.031187128
99	0xbd714491	-0.05890328
100	0x3d1ebcc1	0.03875423
101	0xbdc054b9	-0.093911596
102	0xbd9c8ea1	-0.07644392
103	0xbd74014e	-0.059571557
104	0x3d09153f	0.033467527
105	0x3c8484f3	0.016176676
106	0x3c52602c	0.012840312
107	0xbd0eb967	-0.034844782
108	0xbe0e8a5d	-0.13919969
109	0xbd3eb8ba	-0.046562888
110	0xbd6fe8c2	-0.058571585
111	0xbd2e3945	-0.042535085
112	0xbccc7c73	-0.024961686
113	0xbe01e2a8	-0.12684119
114	0x3c13f497	0.009030483
115	0xbd1a684b	-0.037697118
116	0x3caa561b	0.020793011
117	0xbdc72c60	-0.09725261
118	0xbd44eaf3	-0.048075628
119	0x3c92cd2c	0.0179201
120	0xbce9b9f4	-0.028531052
121	0xbd568240	-0.05237031
122	0xbdc4dde9	-0.096126385
123	0xbdd89cb4	-0.10576764
124	0xbd1a1f52	-0.037627526
125	0xbd2709b1	-0.040780727
126	0xbdc1de19	-0.0946619
127	0xbd1ef9e1	-0.03881252
128	0xbc77c63c	-0.015122946
129	0x3c199b95	0.009375473
130	0xbcd63f70	-0.026153296
131	0xbe031cc8	-0.12803948
132	0xbd108cc9	-0.035290513
133	0xbd83470a	-0.06410034
134	0x3d347104	0.044053093
135	0xbdc5cfc9	-0.096587725
136	0xbda2b6ad	-0.07944999
137	0xbdfe47e1	-0.124160536
138	0xbcb0a68f	-0.021563796
139	0xbdc6292b	-0.09675821
140	0xbdd880b4	-0.10571423
141	0xbda60c2c	-0.0810779
142	0xbda7e6bd	-0.08198307
143	0xbdc4acee	-0.09603296
144	0xbe1c5de8	-0.15270197
145	0xbd30bd08	-0.043149024
146	0x3dfbb726	0.12290792
147	0xbccaf919	-0.024776982
148	0xbd103f6f	-0.035216745
149	0xbd21aaf5	-0.039469678
150	0xbcad19ff	-0.02113056
151	0x3c6d4203	0.01448107
152	0xbe165520	-0.1468091
153	0xbd43d34b	-0.047808927
154	0xbb3593fa	-0.002770661
155	0xbdf7d6b0	-0.12101495
156	0xbe20e7fb	-0.15713494
157	0xbd900965	-0.07033042
158	0xbd9d69a6	-0.076861665
159	0xbc4cab1a	-0.012491966
160	0xbd25c106	-0.040467285
161	0xbd84650d	-0.064645864
162	0x3cf19676	0.02949069
163	0x3d269191	0.040666167
164	0xbdf5bc65	-0.11998824
165	0xbd464e66	-0.04841461
166	0xbd4671be	-0.048448317
167	0xbcb035ea	-0.021510083
168	0xbc7c412f	-0.0153964
169	0xbdfa1369	-0.122107334
170	0xbcb5aec3	-0.02217806
171	0xbdcd19d9	-0.10014696
172	0xbd13e486	-0.03610661
173	0xbe043fe3	-0.12914996
174	0xbd4707da	-0.048591472
175	0xbd42a112	-0.04751689
176	0xbe0e3f87	-0.13891421
177	0xbc719eae	-0.014747305
178	0x3e063595	0.13106377
179	0xbe053512	-0.13008526
180	0xbdc06f41	-0.0939622
181	0xbddf8e7f	-0.10915851
182	0xbc70a2a5	-0.014687215
183	0xbe14f637	-0.14547049
184	0x3d376488	0.04477361
185	0xbd6b239b	-0.057407003
186	0xbde58047	-0.112061076
187	0x3da41629	0.08012039
188	0xbd25fc6d	-0.040523935
189	0x3c481dd4	0.012214143
190	0x3caf4956	0.021397274
191	0xbccc600c	-0.024948142
192	0x3ccfc0c0	0.025360465
193	0xbd2637e3	-0.04058064
194	0xbdbf0cf5	-0.09328643
195	0xbd563790	-0.052299082
196	0xbd602187	-0.054719474
197	0xbc80e688	-0.015734926
198	0xbe03b048	-0.12860215
199	0xbd0a964d	-0.033834744
200	0x3a270039	0.00063705776
201	0xbda815fb	-0.082073174
202	0xbc380979	-0.011232727
203	0x3c00fc8a	0.00787271
204	0xbcbf6e3d	-0.023367995
205	0xbd895b3d	-0.067068554
206	0xbc0fc955	-0.008776029
207	0xbe0addff	-0.13561247
208	0xbda2b644	-0.07944921
209	0xbdaa7696	-0.083234
210	0xbe0105e0	-0.12599897
211	0xbe097ae2	-0.13425782
212	0x3a988cb7	0.0011638616
213	0xbdde3a3c	-0.10850951
214	0xbd2595c3	-0.040426027
215	0xbdc2c7cd	-0.09510765
216	0xbdb0dd94	-0.08636013
217	0xbd837d46	-0.064203784
218	0x3cc558a4	0.024090119
219	0xbce3b068	-0.027794078
220	0xbe0590f7	-0.13043581
221	0xbdd1fa64	-0.10252836
222	0xbd865796	-0.065596744
223	0x3a4c032c	0.0007782455
224	0x3ca952ac	0.020669304
225	0xbd1bba6a	-0.038019575
226	0xbccd0cc3	-0.0250305
227	0xbd474606	-0.048650764
228	0xbd8ff0bb	-0.070283376
229	0xbdb8c6a8	-0.09022266
230	0xbcadfe71	-0.021239491
231	0xbe2fe776	-0.17178139
232	0x3daf0c03	0.08547213
233	0xbd8d2eb9	-0.06893677
234	0xbd840781	-0.06446744
235	0xbd867d32	-0.06566848
236	0xbbc93f1e	-0.0061415574
237	0xbdb25f1c	-0.08709547
238	0x3db48b3c	0.08815619
239	0xbc42858a	-0.0118726585
240	0xbb8fbb76	-0.0043863608
241	0xbcfd7d9f	-0.03094369
242	0xbd9ce7e1	-0.07661415
243	0x3be96f4f	0.0071238647
244	0xbda7188d	-0.081589796
245	0xbddce37e	-0.10785578
246	0x3d960ac3	0.073262714
247	0xbdb3d9c2	-0.087817684
248	0xbe152a56	-0.14566931
249	0x3acf3990	0.0015810002
250	0xbb25dbbd	-0.0025307976
251	0xbd7b37fe	-0.061332695
252	0xbd5c0354	-0.05371411
253	0xbdfbd72f	-0.122969024
254	0xbcf75553	-0.030192053
255	0xbdde73c8	-0.10861927

to_mean.0.weight f4 [128, 256]
0	0x3db5fe02	0.08886339
1	0xb9cc0857	-0.00038916126
2	0x3aaf1c90	0.0013359953
3	0x3b4f8e5c	0.0031670546
4	0x3d1eb65f	0.03874814
5	0xbd895961	-0.06706501
6	0x3d31caa6	0.04340615
7	0xbd15ceca	-0.036574163
8	0xbc6768a2	-0.0141240675
9	0xbcedfcc1	-0.029051187
10	0x3d1bbc5f	0.03802144
11	0xbcc96150	-0.024582535
12	0x3cf48af9	0.029851424
13	0xbc74ea79	-0.014948481
14	0x3d7b54ed	0.06136029
15	0xbce7da29	-0.028302269
16	0xbccbb21e	-0.024865206
17	0xbbba56be	-0.00568661
18	0x3c8c2e40	0.017111897
19	0x3acd75b0	0.0015675332
20	0x3d0dddd0	0.034635365
21	0x3d40a3e0	0.047031283
22	0x3d14bf01	0.036314968
23	0x3d3d3499	0.04619274
24	0xbd5faab8	-0.05460617
25	0xbd9a51de	-0.07535146
26	0xbd65e478	-0.056126088
27	0xbd5b40ca	-0.053528585
28	0xbd36c749	-0.044623647
29	0xbd91a680	-0.071118355
30	0xbc60c3d3	-0.013718563
31	0x3b218759	0.0024647324
32	0x3d5ef176	0.054429494
33	0xbcf2e6fa	-0.029651154
34	0x3c8bacd0	0.017050177
35	0x3d298907	0.041390445
36	0x3d3e54dd	0.04646765
37	0xbd31f854	-0.043449715
38	0xbccec32f	-0.025239555
39	0x3bd449e0	0.006478533
40	0x3cb812c8	0.022469893
41	0x3a509cdc	0.0007957944
42	0x3d7a6fc5	0.061141748
43	0xbd88723a	-0.06662412
44	0xbc8d3823	-0.017238682
45	0xbd208300	-0.03918743
46	0xbd020fd5	-0.03175338
47	0x3d3f6c13	0.046733927
48	0xbd7a3ac6	-0.061091207
49	0xbdabfb4f	-0.08397543
50	0xbc984db8	-0.018591747
51	0x3caf5f60	0.021407783
52	0x3b8ef3c9	0.0043625575
53	0xbc9d9258	-0.019234821
54	0x3d957628	0.07297927
55	0xbbf6c72a	-0.0075310664
56	0xbcd95af2	-0.026532624
57	0xbc323d61	-0.010878892
58	0xbcfe02db	-0.031007221
59	0x3cd8c309	0.026460188
60	0xbd1e877a	-0.03870342
61	0xbd77ad69	-0.06046811
62	0xbcbddd6f	-0.023176877
63	0xbb7a9d1c	-0.0038240617
64	0x3cc56c01	0.024099352
65	0x3d7d1210	0.061784804
66	0xbd687184	-0.056748882
67	0xbcb5ca42	-0.02219117
68	0x3cfc3c84	0.030790575
69	0x3d2a30bd	0.041550387
70	0xbd61e80f	-0.05515295
71	0xbc1129e5	-0.008860086
72	0x3dd69a72	0.10478677
73	0x3d3286aa	0.043585457
74	0xbd82bc9f	-0.06383633
75	0xbd1eceb6	-0.038771354
76	0xbd9d6966	-0.07686119
77	0x3c2a7662	0.010404201
78	0xbceac5cd	-0.028658772
79	0x3ba4507c	0.0050144773
80	0x3bbf1ce1	0.0058323
81	0xbd434439	-0.047672484
82	0x3d5cad0f	0.05387598
83	0x3d905764	0.070479184
84	0xbd8373b8	-0.06418556
85	0xbbca8a16	-0.006181012
86	0xbd4de8e6	-0.050270937
87	0xbd015321	-0.03157342
88	0x3d99d732	0.075117484
89	0x3bfc2dec	0.007695904
90	0xbd27fc5a	-0.041012146
91	0xbc938119	-0.018005894
92	0x3d6aa8f6	0.05729004
93	0xbd2fbc83	-0.04290439
94	0xbd0499f2	-0.032373376
95	0x3b35bb07	0.0027729885
96	0xbd172d09	-0.036908183
97	0xbb4289dd	-0.0029684224
98	0xba175644	-0.00057730475
99	0xbc2a8693	-0.010408062
100	0x3d663a51	0.05620796
101	0xbd29e9d3	-0.041482758
102	0xbd5fbf54	-0.054625824
103	0x3d0163f5	0.031589467
104	0xbc2f94bb	-0.010716612
105	0xbd9dd7d9	-0.07707185
106	0xbcbd1c2f	-0.023084728
107	0xbd6cb932	-0.057793804
108	0xbc008322	-0.0078437645
109	0xbd162b53	-0.03666241
110	0x3c265b00	0.010153532
111	0xbccf1318	-0.02527766
112	0xbd58aac3	-0.052897226
113	0x3ce6dbda	0.028181005
114	0x3d94218f	0.07232963
115	0xbcc5847f	-0.02411103
116	0x3c6c2a5a	0.014414394
117	0x3ca3080a	0.019901294
118	0xbd17bdc6	-0.037046216
119	0x3d802d83	0.06258681
120	0xbd28ec8f	-0.041241225
121	0x3d158497	0.0365034
122	0xbcd54c53	-0.02603737
123	0xbd2738df	-0.04082572
124	0xbc5310e2	-0.012882443
125	0xbc859f0b	-0.01631119
126	0x3c229d3f	0.009925186
127	0xbd801179	-0.06253333
128	0xbd4ba06d	-0.04971354
129	0x3db65fca	0.08904989
130	0xbc9479cf	-0.01812449
131	0x3cc4c214	0.024018325
132	0x3cae86d7	0.021304531
133	0xbc4e26ae	-0.012582464
134	0xbc85869f	-0.016299544
135	0x3cd1e767	0.025623037
136	0xbc804fae	-0.015662994
137	0xbc32f288	-0.010922082
138	0x3c4dab84	0.0125531
139	0xbc4ec851	-0.012621001
140	0xbcaa980d	-0.020824457
141	0xba87b3f8	-0.0010353317
142	0xbd62d7cb	-0.055381577
143	0x3a126901	0.0005585105
144	0x3ce81a40	0.02833283
145	0x3c10afd1	0.00883098
146	0xbd956dbd	-0.072963215
147	0xbc877b5b	-0.016538313
148	0xbd983d87	-0.074336104
149	0xbc964b79	-0.018346535
150	0xbd692355	-0.05691846
151	0x3d457983	0.048211586
152	0x3d126248	0.03573826
153	0xbd4e0989	-0.050302062
154	0x3c5bd2ea	0.013416985
155	0xba819f10	-0.0009889323
156	0x3d08fd6f	0.033444818
157	0xbcb5cdba	-0.022192825
158	0xbd37cbed	-0.044872213
159	0x3c1e3be1	0.009657831
160	0xbd0c7232	-0.034288593
161	0xbd17da31	-0.037073318
162	0x3cc259c3	0.023724442
163	0x3cce7fe1	0.025207462
164	0xbcbb686e	-0.022876944
165	0x3da21eff	0.07916068
166	0x3be82996	0.0070850356
167	0x3c57600b	0.013145457
168	0x3c2438fe	0.010023354
169	0x3cc80081	0.024414303
170	0x3b658e5c	0.003502748
171	0xbda8c770	-0.08241165
172	0x3c692841	0.014230789
173	0xbc604483	-0.0136882095
174	0xbc55edfb	-0.013057227
175	0xbd27453d	-0.040837515
176	0x3d771f6c	0.0603327
177	0x3b428005	0.0029678356
178	0x3d3111d5	0.043229897
179	0x3cf833ac	0.030298077
180	0x3d0ff085	0.035141487
181	0x3c9fb057	0.019493265
182	0xbcf0e8c8	-0.029407874
183	0x3c0bd255	0.008534034
184	0xbc478536	-0.012177756
185	0x3c7d3bb0	0.015456125
186	0x3d814143	0.06311276
187	0xbb83eab2	-0.0040257806
188	0xbbbda743	-0.0057877614
189	0x3dec6852	0.11543335
190	0x3d36356f	0.044484552
191	0x3d7e8b64	0.062144652
192	0xbd5eaece	-0.054365925
193	0xbc97456c	-0.01846572
194	0xbd8c576f	-0.06852614
195	0xbd2b0ba3	-0.041759145
196	0xbd02ca47	-0.031931188
197	0x3c47e8cc	0.012201499
198	0xbd7b9a1c	-0.061426267
199	0xbceb507e	-0.028724905
200	0x3ce025a1	0.027361693
201	0xbcc3d8d8	-0.02390711
202	0x3c0bd9ee	0.008535845
203	0x3d090949	0.03345612
204	0x3d378300	0.044802666
205	0xbd0b6102	-0.03402806
206	0x3cd4c188	0.02597119
207	0x3cc8a836	0.024494272
208	0x3a0574ca	0.000509095
209	0xbc35d482	-0.011098029
210	0xbcd5fbd3	-0.026121056
211	0x3c89a45c	0.016802005
212	0xbd0b5509	-0.034016643
213	0x3c8dd1ff	0.017312048
214	0x3d2d13a0	0.042255044
215	0xbd9978b5	-0.07493726
216	0xb9918427	-0.00027755016
217	0x3db113af	0.086463325
218	0xbd1a9b35	-0.037745673
219	0xbd722039	-0.05911276
220	0x3ac2e39d	0.001486886
221	0x3d0f997b	0.03505848
222	0xbda23eb2	-0.079221144
223	0x3d259cb0	0.040432632
224	0x3d597a57	0.053095188
225	0x3cce006b	0.025146684
226	0x3c51284c	0.012765955
227	0xbd05ec17	-0.032695856
228	0xbd029e8a	-0.031889476
229	0x3d63ed73	0.05564637
230	0xbbef8546	-0.0073095886
231	0xbda9e331	-0.082952864
232	0xbd8c5db2	-0.068538085
233	0xbc4c84c1	-0.012482823
234	0x3c80d555	0.015726725
235	0x3b8171d4	0.003950337
236	0x3c6b5820	0.014364272
237	0xbd5e529e	-0.05427801
238	0x3d0b65ba	0.03403256
239	0xbc4e0f76	-0.012576928
240	0xbb6c8be9	-0.0036094135
241	0x3d17a2dc	0.03702055
242	0xbcdb50ce	-0.02677193
243	0x3d3f293f	0.046670195
244	0x3d2006b5	0.039068896
245	0x3d92af4d	0.07162342
246	0x3d65fabb	0.05614732
247	0xbcf4d090	-0.029884607
248	0x3c1a4bba	0.009417469
249	0xbdaa0200	-0.08301163
250	0x3c1f79f6	0.009733668
251	0xbd91a83c	-0.07112166
252	0x3bd08bf3	0.0063643395
253	0x3d4be4a2	0.049778588
254	0xbd9bf908	-0.07615858
255	0xbd1ddb83	-0.03853942

to_mean.0.bias f4 [128]
0	0x3d658c34	0.05604191
1	0x3c987370	0.018609732
2	0x3c93e3b5	0.018052915
3	0xbd9291d7	-0.07156723
4	0xbd07294d	-0.032998372
5	0xbcda5d1c	-0.026655726
6	0xbb24eafe	-0.002516448
7	0x3d65bfaf	0.056091007
8	0x3b841806	0.004031184
9	0x3b0983e9	0.0020983166
10	0xbd97bedd	-0.07409451
11	0xbdbcda43	-0.092213176
12	0xbcb3c22b	-0.021943172
13	0x3d22b66f	0.039724763
14	0x3ae965fd	0.0017806884
15	0xbd3bf4a9	-0.045887623
16	0x3c3a51fe	0.0113720875
17	0xbaddf775	-0.001693471
18	0x3d996fa3	0.07491996
19	0xbda37d67	-0.07982903
20	0x3cb1d55b	0.021708181
21	0xbd24ead6	-0.04026302
22	0x3d285dad	0.04110496
23	0x3d04d1fa	0.03242681
24	0xbdc97385	-0.09836487
25	0x3d42f737	0.047599044
26	0x3a257c03	0.00063127297
27	0xbc9036df	-0.01760429
28	0x3d25d098	0.040482134
29	0xbd43a00c	-0.047760054
30	0xbcb696b5	-0.02228866
31	0x3d261855	0.04055055
32	0xbd003d0a	-0.03130821
33	0x3c63d4ee	0.013905747
34	0xbdaefc19	-0.085441776
35	0xbd548d82	-0.051892765
36	0x3c77eff9	0.0151328975
37	0xbd73edd8	-0.059552997
38	0xbd07aec2	-0.033125646
39	0xbd95f5d7	-0.07322281
40	0x3c85b6f4	0.01632259
41	0x3d607765	0.054801363
42	0xbde3b1c5	-0.11117891
43	0xbcfc7c83	-0.03082109
44	0x3d09ae86	0.033613704
45	0x3ce49b1c	0.027905993
46	0xbb99e6c2	-0.004696698
47	0x3d02f676	0.031973325
48	0xbd55954c	-0.052144334
49	0xbc8814dd	-0.01661151
50	0x3d40aaa7	0.047037747
51	0xbb48b9a1	-0.0030628222
52	0x3da11daf	0.0786699
53	0xbd4ff5f5	-0.050771672
54	0xbd9613fa	-0.07328029
55	0xbd556878	-0.052101582
56	0xbba85218	-0.0051367395
57	0xbd895d0c	-0.067072004
58	0x3d05f8ff	0.032708164
59	0xbd37882e	-0.044807605
60	0x3d46929a	0.048479654
61	0xbcc2dba1	-0.023786368
62	0x3c7c6a3a	0.015406186
63	0x3aacda48	0.0013187611
64	0xbdc4fe63	-0.09618833
65	0x3cbb731b	0.022882035
66	0x3d936553	0.071970604
67	0xbde22d46	-0.110437915
68	0xbc3d2d3f	-0.011546432
69	0x3c0547fa	0.008134836
70	0xbd49db36	-0.04928132
71	0xbd106277	-0.035250153
72	0x3cdd2423	0.02699477
73	0xbcc4f1af	-0.024041025
74	0xbda85136	-0.08218615
75	0x3d1109eb	0.03540985
76	0xbd50cc50	-0.050976098
77	0xbd0ebee9	-0.034850035
78	0xbcf03708	-0.029323116
79	0xbd1b8238	-0.037965983
80	0x3d02b7a0	0.0319134
81	0x3d1b105e	0.037857406
82	0xb90e4c91	-0.00013570699
83	0xbd1643be	-0.036685698
84	0x3c3a895e	0.01138529
85	0xbd13f71e	-0.03612434
86	0x3b4d3308	0.0031310935
87	0xbc56eb0b	-0.013117562
88	0x3d355fbd	0.044280756
89	0xbc2c743b	-0.010525758
90	0x3c299d15	0.010352393
91	0xbca6cd83	-0.020361667
92	0xbda5c1a8	-0.080935776
93	0xbda7a1dd	-0.0818517
94	0x3ce9c87f	0.028537987
95	0x3ca1e457	0.019762201
96	0x3cf49e40	0.029860616
97	0xbd3da7f7	-0.046302762
98	0xbd4772b3	-0.04869337
99	0x3d40be43	0.047056448
100	0xbdc23835	-0.09483377
101	0x3d86b9ab	0.06578382
102	0xbd791bd5	-0.06081756
103	0x3d16fac6	0.03686025
104	0xbce238a3	-0.027614897
105	0xbd86a7ae	-0.06574951
106	0xbd5fd43d	-0.054645766
107	0xbd86ecf5	-0.06588165
108	0x3dd0d519	0.10196895
109	0x3d8dea80	0.06929493
110	0x3c545c84	0.012961511
111	0xbd5d5a65	-0.054041285
112	0x3d1584a7	0.03650346
113	0xbd4cd089	-0.050003562
114	0xbd131c09	-0.03591541
115	0x3d0d2b2b	0.034464996
116	0x3c92ced2	0.017920885
117	0xbd495801	-0.049156193
118	0xbd466e3b	-0.048444968
119	0x3d0e71e0	0.03477657
120	0x3cf1ad25	0.029501507
121	0xbda9bb0d	-0.0828763
122	0xbb2fc2f7	-0.002681909
123	0x3d89ee8a	0.06734951
124	0x3d164737	0.03668901
125	0xbc6c1992	-0.014410393
126	0x3d4ccd61	0.050000552
127	0x3cc5e369	0.02415629

to_mean.2.weight f4 [18, 128]
0	0x3bfc9ca7	0.007709104
1	0xbcd87dcb	-0.02642717
2	0xbc2b64b1	-0.010461018
3	0xbc70052f	-0.014649673
4	0xbc5f818e	-0.013641728
5	0xbb16ec6f	-0.002302911
6	0xbb3fb720	-0.0029253438
7	0x3bf6f010	0.007535942
8	0xbb1ac086	-0.0023613288
9	0x3cc451fc	0.023964874
10	0x3b71fcef	0.0036924442
11	0xbc4dc125	-0.012558256
12	0x3bf4fef3	0.0074766814
13	0x3cb81e3a	0.02247535
14	0x3a36d6df	0.00069747673
15	0x3d0ba917	0.034096804
16	0x3bc7be94	0.0060957167
17	0xbbe158d7	-0.0068770456
18	0xbc58e08f	-0.013237133
19	0x3cf2dee7	0.029647304
20	0xbc8f8aa2	-0.01752216
21	0xbc365c24	-0.0111303665
22	0xbcfb540b	-0.030679723
23	0x3bc316a7	0.005953628
24	0x3c0f4ec3	0.008746806
25	0x3b2f84f2	0.0026782122
26	0xbb88c9de	-0.004174455
27	0xbc26c90f	-0.010179772
28	0x3bac6d5a	0.005262059
29	0xbbd9c2f9	-0.006645557
30	0xbb772acc	-0.0037714718
31	0xbc2a6918	-0.010401033
32	0x3c5c1fce	0.013435317
33	0xbbc22659	-0.0059249816
34	0xbb553d57	-0.0032537782
35	0x3d08e7ea	0.033424295
36	0x3c220c42	0.009890618
37	0x3c01a5ef	0.007913097
38	0xbac7e884	-0.001525179
39	0x3bad8bfd	0.005296229
40	0x3b4c370a	0.0031160736
41	0xbcb96ac6	-0.022633921
42	0xbb958425	-0.004562872
43	0x3bed5583	0.00724286
44	0x3c8b022b	0.016968807
45	0xbda259d1	-0.07927287
46	0x3b8c928a	0.0042899298
47	0xbc7c8aed	-0.015413982
48	0xbc1b738b	-0.009487997
49	0x3c9e6c1f	0.019338666
50	0x3b99740f	0.0046830247
51	0xbae718aa	-0.0017631252
52	0xbaf2175f	-0.00184701
53	0xbba352b9	-0.0049842265
54	0xbc831ae0	-0.016004026
55	0x3c9e3073	0.019310212
56	0xbc2eaebd	-0.010661778
57	0x3c0f4628	0.008744754
58	0xbcaa1342	-0.020761136
59	0x3b56e47e	0.003279
60	0xbd8d9e41	-0.0691495
61	0xbca2f182	-0.01989055
62	0xbbc7ea57	-0.0061009335
63	0xbc3aa450	-0.011391714
64	0xbd27029a	-0.040773965
65	0xbbe75b0b	-0.0070604137
66	0xbafc93a5	-0.0019270076
67	0xbca858cc	-0.020550154
68	0xbbd02f1f	-0.0063532735
69	0x3ccc98a4	0.024975128
70	0x3b9a64a4	0.0047117043
71	0x3cd1d3b0	0.025613636
72	0xbd0482c5	-0.032351274
73	0xbc8ac6d7	-0.016940517
74	0x3c6cc8d8	0.014452182
75	0x3cb8cb7a	0.022557963
76	0xba875cfe	-0.0010327396
77	0xbc359252	-0.011082249
78	0xbc07775c	-0.008268204
79	0xbbc578d1	-0.0060263653
80	0x3c975151	0.018471392
81	0xb9e31c4b	-0.00043317894
82	0xba11b3c4	-0.0005558098
83	0xbc6281bd	-0.013824877
84	0x3a03b565	0.00050242833
85	0xbafa211f	-0.0019083357
86	0x3bf15ba0	0.007365659
87	0xbb4c614f	-0.003118593
88	0xbc4ff452	-0.012692528
89	0x3bff2fd0	0.007787682
90	0xbd2850f9	-0.041092847
91	0x3a57966f	0.00082240155
92	0xbc6d2161	-0.01447329
93	0x3ba23d03	0.004951121
94	0xbbbf20ce	-0.005832768
95	0xbd7adc24	-0.0612451
96	0xbbbb9b9d	-0.0057253377
97	0xbccc379a	-0.024928857
98	0xbccf6c4d	-0.025320197
99	0xbb53a825	-0.0032296267
100	0xba608970	-0.00085654017
101	0xbc03ad5c	-0.008036938
102	0x3b94bd2d	0.004539153
103	0xbb170f23	-0.0023049794
104	0x3c348e57	0.011020265
105	0x3b8c9100	0.0042897463
106	0x3c2a8a57	0.010408959
107	0xbbb169f6	-0.005414243
108	0xbb7ed793	-0.0038885816
109	0xbc42b656	-0.011884293
110	0x3c878e8e	0.016547468
111	0xbc1b1566	-0.009465551
112	0x3b57c802	0.003292561
113	0xbaf33a44	-0.0018556793
114	0x3b8c5024	0.0042820144
115	0xbb117205	-0.0022193205
116	0x3b444f12	0.0029954356
117	0x3b73016d	0.0037079707
118	0xbcc69fd6	-0.024246138
119	0xbb8f3a82	-0.0043709883
120	0x3ca4cd8a	0.02011754
121	0x3b9c21d5	0.0047647753
122	0xbc90f079	-0.017692791
123	0x3bd4fd78	0.0064999424
124	0xbd057120	-0.032578588
125	0xbcc13305	-0.023583898
126	0xb9df8485	-0.0004263261
127	0x3cc5d726	0.024150442
128	0x3cc8ff24	0.024535723
129	0xbcaf8069	-0.021423535
130	0x3d286b0d	0.041117717
131	0xbc59c8b6	-0.013292482
132	0x3c3397b7	0.010961465
133	0x3b427604	0.0029672394
134	0x3b0f635f	0.0021879298
135	0x3c58caf8	0.013231985
136	0x3be94359	0.007118624
137	0x3a314ca2	0.00067634333
138	0x3b8606dc	0.004090173
139	0x3d43520e	0.047685675
140	0xbbe21675	-0.0068996497
141	0x3bca8b6d	0.0061811716
142	0xbbe6d0b3	-0.007043922
143	0xbbb72e19	-0.005590212
144	0x3cc65b7d	0.024213547
145	0x3c38826f	0.011261567
146	0x3b1a8262	0.002357625
147	0x3bd0f157	0.006376426
148	0x3be26159	0.0069085774
149	0xbc8b09a3	-0.016972369
150	0x3cf13cd9	0.02944796
151	0x3cfd69c9	0.030934231
152	0xbc64baa5	-0.013960515
153	0xbbdf65e9	-0.0068175686
154	0xbc87a8b7	-0.016559942
155	0xbc421340	-0.01184541
156	0x3ca53a26	0.020169329
157	0xbc06cdba	-0.00822776
158	0xb9f9ebe7	-0.00047668742
159	0xbcaf17f8	-0.021373734
160	0xbbdfa705	-0.00682533
161	0x3c69db93	0.014273542
162	0x3cb0856f	0.021548001
163	0x3c5c674d	0.013452363
164	0x3c8b1aa0	0.01698047
165	0x3c206419	0.00978949
166	0x3c8c68bc	0.017139785
167	0x3d3cbb23	0.046076905
168	0x3cb16a5d	0.021657163
169	0xbc09ad6d	-0.008403164
170	0x3c0de173	0.008659708
171	0x3a813cfa	0.0009860091
172	0xbd8f0fe0	-0.0698545
173	0x3c8e889c	0.017399125
174	0x3c701664	0.014653776
175	0x3c0a96be	0.008458791
176	0xbabade73	-0.0014256969
177	0x3c430c91	0.0119048515
178	0xbb04ad85	-0.0020245027
179	0x3ce72a89	0.028218525
180	0x3c9e09e7	0.019291831
181	0xbc909555	-0.017649332
182	0x39e8679a	0.00044327677
183	0x3b917c5e	0.0044398746
184	0xbceee345	-0.029161105
185	0x3bd185e1	0.0063941334
186	0x3c97e5c4	0.018542178
187	0xb7a6d4af	-1.988778e-05
188	0x3c8f47e2	0.017490331
189	0x3c627505	0.013821845
190	0x3c66a019	0.014076256
191	0x3c130169	0.008972504
192	0x3bc1c313	0.0059131472
193	0x3b37380a	0.0027956986
194	0x3c30a102	0.010780575
195	0xbcdbd053	-0.026832735
196	0x3c0dde98	0.0086590275
197	0x3a06c778	0.00051414175
198	0x3c32fbfb	0.010924335
199	0x3cafe347	0.021470679
200	0x3bb4bad6	0.0055154366
201	0x3ce44e12	0.027869258
202	0x3cbecc0b	0.023290655
203	0x3cfc2c2d	0.030782783
204	0x3d23d81f	0.04000103
205	0x3c8148a1	0.015781702
206	0x3c97c8f7	0.018528445
207	0xbb3685dd	-0.0027850785
208	0x3c374092	0.011184828
209	0x3cbae8e5	0.02281613
210	0x3c6eb8f6	0.014570465
211	0x3be710bc	0.0070515554
212	0x3ce2d4bc	0.02768933
213	0x3cc26290	0.023728639
214	0x3baf6e6e	0.0053537404
215	0x3c63d6e6	0.013906216
216	0xbbb66d66	-0.0055672405
217	0xbb9aefaf	-0.0047282795
218	0x3d1fe6af	0.039038356
219	0xbcbeec0a	-0.023305912
220	0x3c141919	0.009039187
221	0x3aadc645	0.0013257941
222	0x3c53cb6e	0.012926919
223	0x3af3638a	0.0018569094
224	0x3b4ee8f5	0.0031571959
225	0xbc1edd28	-0.009696282
226	0x3bae688a	0.0053225206
227	0xbc8bca4d	-0.017064238
228	0x3c91c8aa	0.01779588
229	0xbc8cb498	-0.017175958
230	0xbd012eed	-0.031538893
231	0xbb5da769	-0.0033821708
232	0xbcbdb011	-0.023155244
233	0xba71fb2a	-0.0009230847
234	0x3ca597f6	0.020214062
235	0x3d0c33c5	0.03422906
236	0xbd36cf39	-0.044631217
237	0x3a90ab52	0.0011037386
238	0xbaad289d	-0.0013210956
239	0x3d0d7a17	0.034540262
240	0x3c05f74e	0.008176638
241	0x3ca66387	0.02031113
242	0x3bc57361	0.006025717
243	0xb88342ed	-6.259033e-05
244	0x3c0f5682	0.008748652
245	0xbad1a821	-0.0015995541
246	0xbd62b67c	-0.055349812
247	0x3cb31b12	0.021863494
248	0xbb193776	-0.0023379005
249	0xbc96f5c9	-0.018427746
250	0xbc80c17b	-0.015717259
251	0x3c811efd	0.015761847
252	0xbb99e168	-0.00469606
253	0x3c8c8c24	0.017156668
254	0xbca59eb3	-0.020217275
255	0x3cae2145	0.021256099

to_mean.2.bias f4 [18]
0	0xbc0be07d	-0.008537409
1	0x3d2d2449	0.042270932
2	0xbbc90701	-0.006134868
3	0xbdc2828e	-0.094975576
4	0x3d7104a7	0.058842327
5	0xbd93dec2	-0.07220222
6	0xbdc2129f	-0.09476208
7	0xbd0d2334	-0.0344574
8	0x3d1ba886	0.038002513
9	0x3c408275	0.011749853
10	0xbc98ad2c	-0.018637262
11	0xbc0fb74d	-0.00877173
12	0x3d3f3d9a	0.046689607
13	0xbdff231d	-0.12457869
14	0xbdaadf26	-0.083433434
15	0x3d120b2a	0.035655178
16	0x3e005c3b	0.12535183
17	0x3d0705a7	0.032964375
