saves/save2_1_23/save10_Standing_40800.pth (torch, 942043 bytes, 11 tensors)

shared_net.0.weight f4 [512, 67]
000000 ef 44 53 be 88 aa 9e 3e a7 a6 81 be ce 68 14 be
       -0.20631765 0.3098948 -0.25322458 -0.14493105
000010 8b c3 80 3d 29 66 e7 bd 26 86 2c be ab da 57 bd
       0.06287297 -0.112987824 -0.16848049 -0.052698772
000020 e3 4f 9e be 4e 62 3a 3e 78 77 af be a6 de b3 3d
       -0.30920324 0.18201563 -0.34270835 0.08782701
000030 ba be 18 be 79 da a3 3e 12 04 30 3e 68 b6 8a 3d
       -0.14916506 0.3200262 0.17189053 0.067730725
000040 7e 32 07 3f 4f c9 0c 3f dc 77 2b be d5 d5 1e bf
       0.5281142 0.5499467 -0.16744941 -0.6204503
000050 1a e7 04 3f 72 0e 61 be 0d df 1f be cd 68 ba bc
       0.51915133 -0.21978167 -0.15612431 -0.022755051
000060 23 43 50 bd 37 c3 08 bd 09 2f 51 3e bd 04 0c bf
       -0.050845277 -0.033389296 0.20428099 -0.5469473
000070 18 27 ac be c0 69 d0 3e e4 a3 8e bd 34 55 b4 bc
       -0.33623576 0.4070568 -0.069648534 -0.022013284
000080 c5 4b 8d bd 6e 8b f3 bd d2 81 3e 3d 25 04 77 3c
       -0.068992175 -0.118918285 0.046510525 0.015076672
000090 5e 0e f7 3c 99 61 20 3d 0d 5c dc bd a3 07 7a be
       0.030158218 0.039155576 -0.10759745 -0.24416976
0000a0 dc cc a6 bc 75 4a 60 3d 5e 29 51 3d bb fc a3 3c
       -0.020361356 0.054758508 0.05106484 0.020017972
0000b0 52 5b d5 bc 01 f0 45 3d 0f d6 a8 bc ce 1a d9 bc
       -0.026044521 0.04832459 -0.020609884 -0.02650204
0000c0 51 1d 99 bd 39 16 16 3e 8b b7 33 3c b8 59 10 bd
       -0.07476295 0.14656915 0.010969053 -0.035241812
0000d0 48 3c c2 3e 95 1c 85 3d 71 c4 ba 3c d3 c3 0d be
       0.37936616 0.06499592 0.022798749 -0.13844232
0000e0 48 98 d7 3c 82 3e 25 bd 24 05 c0 bc 19 21 b9 bd
       0.02631773 -0.040342815 -0.023439951 -0.09039516
0000f0 25 eb 6b 3e d7 ae 00 3d b7 a8 da 3d b3 f1 31 3e
       0.2303892 0.03141674 0.10676711 0.17377357
000100 44 d8 76 3c 89 0b 27 3e d1 a9 87 be 95 ac 4c 3e
       0.01506621 0.16312994 -0.26496747 0.1998771
000110 8f e7 42 3e a3 9c a3 3e 1a 6d 5f be cc 0b d5 bc
       0.19033645 0.31955442 -0.21818963 -0.026006602
000120 46 38 23 3d 4b 68 0d 3f c8 20 8a 3d 43 9a fa 3c
       0.03984859 0.55237263 0.06744534 0.030591136
000130 3f 22 81 3d 21 4b 4c bf 83 04 11 3e b6 ed b0 be
       0.0630536 -0.7980214 0.14161877 -0.3455636
000140 39 57 91 3c 96 14 72 3d f0 dc 29 3e e2 72 8a be
       0.017741786 0.059101664 0.16588187 -0.27040774
000150 a8 cd 66 bd c7 5f 72 bc d1 1f 91 bd e3 ef 09 bd
       -0.056348473 -0.014793343 -0.070861466 -0.03367604
000160 ed 29 b0 3d 53 01 c7 bc 2a 37 89 bd 44 ac 03 be
       0.08601747 -0.024292624 -0.06699975 -0.12858683
000170 5e cb 32 3e dd 8d da 3c 4b 90 76 be ad ec 47 3c
       0.17460391 0.026678974 -0.24078481 0.012202424
000180 6f 1b c7 bd 92 27 d7 3c 4d 7d a2 bd 7c 70 4b bd
       -0.097220294 0.026263986 -0.079340555 -0.04966782
000190 ec 2c bb 3b 99 c3 86 3c 64 8c a5 bb 15 1d 40 3b
       0.005712142 0.01645069 -0.0050521363 0.002931421
0001a0 6f 4c 33 bd 85 5f c3 bc aa cb 5e bd cc 2c 70 3d
       -0.043774065 -0.023849258 -0.054393448 0.05863647
0001b0 53 d0 07 bd e8 fa 38 3d 7c 53 85 3d 1f 5d 54 3c
       -0.033157658 0.045161158 0.06510064 0.012961655
0001c0 c2 6c 5f bc c4 d8 96 bd da 9a 1b 3d cd 9a 2e be
       -0.01363677 -0.073655635 0.037989475 -0.1705124
0001d0 6b 78 80 3d d0 04 65 3d 9f 34 3d bb 37 8a 2a 3d
       0.06272968 0.055912793 -0.0028870476 0.04163572
0001e0 9e d0 23 bc 1d db fa bc a6 77 98 bd ff b5 65 3d
       -0.009998469 -0.03062206 -0.07444696 0.056081768
0001f0 3b c1 de bd c6 0c a2 3b c2 54 d0 bd 44 fd 12 be
       -0.108766995 0.0049453704 -0.10172416 -0.14354426
000200 8a 63 df bd 1b e1 dd bd c3 31 48 3c 14 8b 0c 3d
       -0.109076574 -0.10833951 0.012218895 0.034312323
000210 85 e1 96 bd 3b d9 84 3d 8e 71 c5 3e b9 fe 85 3d
       -0.07367233 0.06486746 0.38563198 0.06542725
000220 26 57 8b bd fa 4d fc 3a 2c b5 0c 3d 16 06 90 3c
       -0.068037316 0.0019249313 0.034352466 0.017581027
000230 3f 10 1d 3d 02 e9 5d 3d 4a 9e b9 3d dd 01 6c 3c
       0.03834557 0.05417729 0.09063394 0.014404741
000240 ce ee 8a bf 24 7b 8a bd 9e 0a 40 3e b1 ea 58 3d
       -1.0854127 -0.067617685 0.1875405 0.052958194
000250 67 16 2f bd b2 40 80 bd 63 98 c8 bd f7 8c 03 be
       -0.042745974 -0.0626234 -0.097946905 -0.12846743
000260 fa 32 d1 3d b3 42 a3 3d 2e 9d d5 bd 9d 29 ca bd
       0.10214801 0.07971706 -0.1043037 -0.09871218
000270 c4 b9 26 3d a8 92 8b bd 7e da 5c bb ae b6 70 3c
       0.040704504 -0.06815082 -0.0033699567 0.014691992
000280 29 43 c7 bd 75 d7 ca bc 3c a1 c2 bd f0 db 51 be
       -0.09729607 -0.024760941 -0.09503409 -0.20494056
000290 07 5a 1f 3d e7 93 c3 bc f2 e8 aa 3c c7 d5 07 3d
       0.038904216 -0.023874236 0.02086303 0.03316286
0002a0 17 c1 e8 3c 03 f3 ca 3c 6f c1 04 3e 63 95 01 3d
       0.028412385 0.02477408 0.12964414 0.031636607
0002b0 be d8 27 3d 67 c6 7c bd 38 be 97 bd c2 09 49 bd
       0.040978186 -0.06171265 -0.07409328 -0.04908157
0002c0 0b b2 8c 3c c6 d6 b8 3c 33 9d be 3c 9b c0 1d bd
       0.017174741 0.02256335 0.023268318 -0.03851376
0002d0 5a f7 17 bd 2e 12 18 bd 37 e4 14 3e 78 c6 85 3d
       -0.037101127 -0.037126713 0.14540182 0.065319955
0002e0 8a ac b4 3d bf e8 95 3d 2f c1 51 bc 12 6d 13 bc
       0.08821972 0.073197834 -0.012802406 -0.008998172
0002f0 f3 10 a6 bd 45 fa 76 3d 78 f0 ab 3d e1 ca 06 3d
       -0.081087016 0.06029727 0.08395475 0.032908324
000300 b7 a8 fe bc 8e f6 af bc d0 f2 8b bd 72 2a 15 bd
       -0.031086309 -0.021479871 -0.06833422 -0.036417432
000310 4d 46 17 be d2 46 16 3d c8 6d e4 bc ea 80 1c bd
       -0.14772911 0.036688633 -0.027884379 -0.03820888
000320 eb 73 4a 3c e0 05 1c 3f 25 42 14 3e d9 62 c3 be
       0.012356739 0.60946465 0.14478357 -0.38161352
000330 37 02 fd be 00 48 76 3c 06 00 34 3e b4 0e f6 3c
       -0.49415752 0.015031815 0.17578134 0.030036308
000340 2d 01 58 3c 68 2b 81 3d 9d f2 f3 3c 34 18 39 bf
       0.013183874 0.06307107 0.029778773 -0.72302556
000350 c5 9b d3 bd 9b e4 e1 3d 12 3b 0c 3e be 5f 34 3e
       -0.10332445 0.11029931 0.13694409 0.17614648
000360 f8 16 e4 bd 72 3a 4f be 61 77 ad bd 61 cc 85 be
       -0.111371934 -0.20237139 -0.08470035 -0.2613249
000370 0e 96 c6 bc 36 ee 44 be 3e f1 a8 bd c7 19 6d be
       -0.024241474 -0.19231495 -0.08249138 -0.23154365
000380 ea 70 fb bd 80 b3 e2 3e ed 10 14 3f fb 6a 2e 3d
       -0.12277396 0.44277573 0.57838327 0.042582493
000390 f1 dd f5 bd 8a de 35 bd e2 1d e2 bd 67 57 ae bc
       -0.120052226 -0.044401683 -0.11040856 -0.021281911
0003a0 3c 1e 60 bd a5 52 13 bc 4b 50 92 3d b8 52 02 bd
       -0.054716334 -0.008991872 0.07144221 -0.031817168
0003b0 70 dc 91 3c 28 89 b3 bc 1c a7 8c 3d d5 24 67 bb
       0.017805308 -0.021915987 0.06867811 -0.0035269756
0003c0 83 ed 58 3d c3 3f 50 3d 18 f9 46 bc 89 aa c3 bd
       0.052960884 0.050842058 -0.0121443495 -0.095540114
0003d0 11 1d 2c bd a7 35 70 bd 71 0a f0 3c 20 fa e2 bc
       -0.042019907 -0.058644917 0.029301854 -0.02770716
0003e0 3b 68 80 3d 05 e1 ef bc e2 b9 89 3d e6 25 43 bd
       0.062698804 -0.029282102 0.067249075 -0.047643565
0003f0 f0 c2 ae 3d 2f 94 8b bd b5 40 35 be ef 85 d3 bd
       0.08533275 -0.06815373 -0.17700465 -0.1032828

shared_net.0.bias f4 [512]
000000 a9 81 fa bd d6 5a c6 3d e3 90 1c 3d 35 81 a3 3c
       -0.12231762 0.09685294 0.038224112 0.019959072
000010 11 79 06 be f2 a5 0e bd 51 94 0f be de d4 e6 bd
       -0.1313212 -0.034826227 -0.14021422 -0.1127107
000020 ba 62 17 3d 4c 1b 94 3d 9f 20 8f bd 4c a5 dc bd
       0.036959387 0.07231769 -0.06988644 -0.107737154
000030 49 20 d1 be f4 63 05 bc 3b a3 be bc 8a eb 1d be
       -0.40844944 -0.008141506 -0.023271194 -0.15421882
000040 4a 03 11 be b2 1d 76 be 39 cd 02 bc 60 c8 6c bb
       -0.14161411 -0.24034765 -0.007983499 -0.0036130175
000050 90 76 0b be 3a e0 21 3e ad bc 36 3d 0b c2 ed bd
       -0.13619447 0.15808192 0.04461353 -0.116092764
000060 50 d2 c8 3d d5 a8 dc 3b 03 3c b2 be 04 99 77 3e
       0.09805739 0.0067339935 -0.3481141 0.24179465
000070 c9 ac f1 bd 9a 3e 8b bd b3 2c 44 be 5e 9c ac 3d
       -0.11800534 -0.0679905 -0.19157676 0.08428262
000080 d3 b7 54 3d 45 65 8c be 88 68 60 be e4 48 09 3d
       0.05193312 -0.27421013 -0.21914876 0.03351678
000090 b5 2b b1 bd 05 b7 0c 3e 10 e0 10 bd 5e 85 24 be
       -0.086509146 0.13741691 -0.035369933 -0.160665
0000a0 51 80 2e be d2 f2 39 be 04 8b 48 be 7d 27 95 3d
       -0.17041136 -0.18159035 -0.1958428 0.072829224
0000b0 49 82 9c bc e9 73 aa bd a7 0c f0 bc 1c b7 4f 3d
       -0.019105094 -0.08322889 -0.029302908 0.050711736
0000c0 63 33 a9 be 07 61 39 be a4 01 bd bc 3a 1b e8 bd
       -0.33047017 -0.18103419 -0.023072071 -0.11333318
0000d0 d7 b4 71 3d 22 46 2f 3e 07 35 b5 3c 0c de 68 be
       0.059010353 0.17116597 0.022120012 -0.22740954
0000e0 03 fc 95 bd 2c 1e 71 3d 2c dd f7 bc 30 ff 27 be
       -0.07323458 0.058866665 -0.03025683 -0.1640594
0000f0 6b 72 c3 3d e8 19 6e 3d 12 2d ba bd b8 bd 31 bd
       0.09543308 0.058130175 -0.09090628 -0.04339382
000100 be 66 06 bd 62 eb 0c be b8 41 26 bd 91 a2 b7 bc
       -0.032812826 -0.13761666 -0.040590018 -0.022416385
000110 5e d7 b7 3d d1 54 7a bc c5 0f 6b be 36 c7 a0 bd
       0.08976625 -0.015279011 -0.22955234 -0.078504965
000120 25 be 60 bd 66 d8 19 bd 49 9a 36 be 27 48 a3 3d
       -0.054868836 -0.03755989 -0.17832293 0.07972746
000130 c3 97 a8 bd 8c 43 f2 3d 10 f4 84 bd 40 c9 a3 3d
       -0.08232071 0.1182929 -0.06491864 0.0799737
000140 37 63 5b be 5a 83 be bd 6f e0 02 3c 76 53 cb be
       -0.21424566 -0.09302397 0.007988079 -0.39712113
000150 95 7f 5b 3d 59 b4 b6 3c 37 9d 75 bd a6 ca a8 be
       0.05358847 0.022302793 -0.059964385 -0.32967108
000160 52 07 b5 be 63 a2 a4 be 1f f5 47 be 36 1a 9a bd
       -0.35357147 -0.3215514 -0.195271 -0.075245306
000170 d6 70 c5 bd 2c 87 d1 be d9 8a 41 bc f7 b9 2c be
       -0.09640662 -0.4092344 -0.011812889 -0.16867815
000180 1e 51 3d be 4b b9 76 3e 37 ba 13 bd 41 9f 27 3d
       -0.18487975 0.24094121 -0.03606626 0.04092336
000190 04 07 f9 3d 64 0e a9 bd f4 93 f4 3d 2d 8c fc bd
       0.12159541 -0.08254698 0.11942282 -0.12331424
0001a0 cb c0 b8 bb 72 c8 4e be 8b 74 90 3d 72 60 66 3d
       -0.005638217 -0.20193651 0.07053479 0.05624432
0001b0 7f af 84 be 01 ce 14 3b 5e 86 ac 3d 4b 8a b1 bd
       -0.25915143 0.0022705796 0.08424066 -0.086689554
0001c0 18 20 af 3d 5e 45 36 3e 25 54 b7 bd 00 6d 20 3d
       0.08551043 0.17799899 -0.08951596 0.03916645
0001d0 9a 54 6d 3d 9b 1d 2e 3c e0 28 e9 bd ab 88 2f be
       0.05794201 0.010627176 -0.113847494 -0.17141978
0001e0 2b 9f c8 3a ff 9d 5b be fd 16 77 3d cd 62 8d bd
       0.0015306225 -0.2144699 0.060324658 -0.069036104
0001f0 db ef e9 bd 47 63 15 be aa 7d 44 bd 6c 20 80 be
       -0.11422702 -0.14588653 -0.047971405 -0.25024736
000200 d7 73 5a 3d 74 4b 70 be d7 9e a6 bd a9 cd d1 bd
       0.05333313 -0.23466283 -0.08135765 -0.10244305
000210 24 01 40 bc 63 5e 7f 3d 24 7e b6 3d 9b 21 11 3d
       -0.011719022 0.062345874 0.08910778 0.03543244
000220 eb 17 87 bc 20 e4 49 3a 34 e3 b5 3c 5c a1 63 be
       -0.016490897 0.0007701535 0.022203065 -0.22229522
000230 f8 04 92 bd 07 a2 3c 3d 91 05 e1 bd fb 01 10 be
       -0.07129854 0.04605296 -0.1098739 -0.14063255
000240 db 5f 32 be ba 7d 12 be 6f 92 58 bd 8c ab 24 be
       -0.17419378 -0.14305773 -0.052874025 -0.16081065
000250 04 24 01 3e 9c c0 18 3d 1f 37 5a 3d 6f 88 53 bd
       0.12611395 0.03729306 0.053275224 -0.051643785
000260 08 a3 d0 3a 2a d7 21 3d 63 ec 91 bc 0a 31 4d be
       0.0015917728 0.039511837 -0.017812913 -0.20038238
000270 1d 87 12 be 8c 21 6e be ce b5 91 bd f8 4b 50 3d
       -0.14309354 -0.23254985 -0.071147546 0.0508537
000280 23 93 d2 3d 18 8a e4 bd 97 0b d8 3d 87 a0 52 3d
       0.1028197 -0.11159152 0.105490856 0.051422622
000290 37 39 c1 3c f6 35 a9 3c 52 dc 9b 3d 0b aa c5 3d
       0.023586852 0.020655613 0.07610382 0.09651574
0002a0 aa b7 14 3e c1 fa 3b 3d c8 05 c5 bd b1 2c 81 bd
       0.14523187 0.045893434 -0.09620243 -0.06307352
0002b0 ca ee 85 be 96 7f 87 3d a7 8a 3e 3d ff d2 aa bd
       -0.26158744 0.06616132 0.046518948 -0.083410256
0002c0 84 f1 ca bd c2 b9 8f bc 95 13 93 3d e3 e4 87 3d
       -0.09909347 -0.01754463 0.07181469 0.066354536
0002d0 89 5e c1 bd 68 b0 6b bb bb e7 e8 3d 3c 41 3e 3c
       -0.09441859 -0.00359633 0.11372324 0.011612233
0002e0 7d 58 c3 3d 65 98 0c be c5 e5 2a be 39 ea f7 bd
       0.09538362 -0.13730009 -0.16689213 -0.12105221
0002f0 07 11 a6 3d f3 e1 59 be f6 1d 3f 3e 71 c0 ec 3d
       0.081087165 -0.21277599 0.18663773 0.11560143
000300 e7 cd d1 3d e1 9a ab bd 39 ae 9e bd a8 be 63 3e
       0.10244351 -0.0837915 -0.07748074 0.22240698
000310 21 e6 22 3b 83 ea ea 3d 5d a9 01 3d f0 f5 04 be
       0.0024856406 0.11470511 0.031655658 -0.12984443
000320 72 db 35 be 10 0b 98 3c 2b 4a dc bd 33 9f c3 bc
       -0.17759493 0.018559963 -0.10756334 -0.023879623
000330 3d 9f a4 bd 73 c1 c8 3d af 07 d6 bc 91 22 fc bd
       -0.08038185 0.098025225 -0.02612671 -0.123112805
000340 29 06 e5 bb 31 39 dd 3c 45 65 e2 bd 7a 33 82 3d
       -0.0069892597 0.02700481 -0.11054472 0.063574746
000350 b6 71 a6 3c e3 b6 d7 bd c3 a3 82 3e 41 97 86 be
       0.020317893 -0.1053293 0.25515565 -0.26287273
000360 ea 81 6f 3e 6d ac 0b 3d 08 e0 40 bd 40 62 94 be
       0.23389402 0.034099985 -0.047088653 -0.2898121
000370 4d 99 8d be ca 1e 22 bd af d3 22 be 8a f1 e7 bd
       -0.27656022 -0.039580144 -0.15901063 -0.11325367
000380 0b df a3 be fc 5f 5f 3d c8 48 32 be 0a 37 4c 3e
       -0.32006106 0.054534897 -0.17410576 0.1994287
000390 2f 04 5b be 0e bb 19 3b ca 1e 75 be 45 c8 2c be
       -0.21388315 0.002345744 -0.23937526 -0.16873272
0003a0 64 54 a0 be 6d 53 a8 bd ae 96 94 bd d6 86 48 3e
       -0.31314385 -0.08219037 -0.07255302 0.19582686
0003b0 17 2b 5b bc 71 c9 cf 3c 19 4a 81 be dc 97 f1 3d
       -0.013376973 0.02536461 -0.25251845 0.11796543
0003c0 eb 19 4d bd 6e 6d c6 3d 6f 2e 2a bd 8f f0 e4 bd
       -0.050073545 0.09688841 -0.04154819 -0.111786954
0003d0 50 ac 0e be 72 13 0b be 4f 1c 2f 3b f3 19 24 bd
       -0.1393292 -0.13581637 0.0026719754 -0.04006381
0003e0 29 f8 fb bd f4 c1 db bd 3d 41 4e 3e f9 0e 1a be
       -0.12303192 -0.10730353 0.20142074 -0.15044774
0003f0 d4 4f 87 3c 7c 1e 65 be 96 80 3d 3d 46 54 46 be
       0.016517557 -0.2237491 0.046265207 -0.19368085

shared_net.2.weight f4 [256, 512]
000000 21 44 18 3e af 18 1b bd 1d 69 31 bd a7 1f 8d 3d
       0.14869739 -0.037865337 -0.043313134 0.06890803
000010 dc 2e bb bc 48 dd 4f bd e5 68 9b 3c 32 b4 26 bb
       -0.022849493 -0.05074814 0.018970916 -0.0025436995
000020 11 f1 57 be 3c 0e 93 bd 31 8e 93 be 00 0d 77 bd
       -0.21088053 -0.07180449 -0.2881942 -0.060315132
000030 a8 a6 d6 bd 72 b0 ca 3d 37 f6 87 3d 83 03 7c bd
       -0.10481006 0.098969355 0.06638759 -0.061526787
000040 d9 70 20 be e3 4b c0 bc 0a 0c a2 3a a4 34 0d be
       -0.15668048 -0.023473686 0.0012363207 -0.13789612
000050 23 22 f4 3c 8e 02 3c bc 46 ce aa bd a6 58 dc 3c
       0.029801434 -0.011475218 -0.08340125 0.02689774
000060 a4 b1 1a be d2 4f 9e 3c af 12 ef bd c1 61 17 be
       -0.15106827 0.01932517 -0.116734855 -0.14783384
000070 bb 02 a7 bd 63 37 64 bd 33 4d 0e be 5c 29 af 3c
       -0.08154818 -0.055716883 -0.13896637 0.021382026
000080 f2 00 42 3c d3 d8 b8 bd d7 99 fc 3b cd 5e 11 bd
       0.011841046 -0.09025731 0.007708769 -0.0354908
000090 dd 65 ac 3d 43 a3 08 bd 32 43 65 bd 0d 9b 5e 3e
       0.084178664 -0.033358824 -0.055972286 0.21738835
0000a0 05 c2 a4 3d 6f 5c 1f 3d fc 56 59 bc 9e 16 88 be
       0.08044819 0.03890651 -0.013265368 -0.26579756
0000b0 2e 72 9f bd a2 fa fc bd c2 2f b0 be c1 88 3e 3e
       -0.0778545 -0.12352492 -0.34411436 0.18606855
0000c0 b4 76 79 3e 03 2a a8 3c 0e bc d8 3d c6 e5 25 bd
       0.24361688 0.020527845 0.105827436 -0.040502332
0000d0 7c 32 01 3e ee 32 0b be ea cf e0 3d 26 d7 49 be
       0.12616915 -0.13593647 0.109771565 -0.19710979
0000e0 91 a2 41 be b4 16 16 3e 97 8b ef bb 53 24 56 bd
       -0.1890967 0.14657098 -0.0073103416 -0.052280735
0000f0 31 ee 57 be fa 3a 25 bd 44 92 8b be ba 74 a3 3b
       -0.21086957 -0.040339448 -0.2726003 0.00498828
000100 a7 c7 61 be 23 f3 13 3d a4 26 61 3e 07 32 87 be
       -0.22048818 0.036120545 0.21987396 -0.26405355
000110 b0 97 06 3d 69 43 08 be d1 55 29 be 68 7d 3e be
       0.032859504 -0.13306965 -0.16536643 -0.18602526
000120 8c 85 87 3e 6d 69 bc bd cc ee 3d 3d 3c 78 e2 3b
       0.26469076 -0.09199796 0.046370313 0.0069113057
000130 ea 81 3f be bd 51 e9 bd f1 af 00 be ec 17 66 3e
       -0.18701902 -0.113925435 -0.12567116 0.22470063
000140 4f ac 0a bd 91 af dc 3d 54 3b 06 be 49 95 13 be
       -0.033855733 0.10775674 -0.1310857 -0.14412417
000150 db 91 3b bc d4 df 34 be 2c 58 df 3d e6 72 1d be
       -0.011448349 -0.17663509 0.10905489 -0.15375862
000160 d3 3b 99 3d 35 09 e0 bd 94 b6 cd be c7 34 bd bd
       0.07482114 -0.10939256 -0.4017836 -0.09238582
000170 69 76 88 3e 94 da d6 bd 05 53 45 be b2 42 90 be
       0.2665284 -0.10490909 -0.1926995 -0.28175884
000180 ed 25 81 3e b7 a1 43 3d ce 8a b4 bd db 3b 6b be
       0.25224248 0.047761645 -0.088155374 -0.22972052
000190 00 66 95 3a f0 c3 43 be e2 f7 b1 bd d5 a5 b4 3d
       0.0011398196 -0.19117713 -0.08689858 0.088206924
0001a0 7d 95 0e 3e 50 bf 12 3c 32 9b 7e bd 3a cd ca 3d
       0.13924213 0.008956745 -0.062159725 0.09902425
0001b0 59 d4 57 bd 15 f6 54 bd 23 58 0d be 74 e1 64 3d
       -0.052692745 -0.051992495 -0.13803153 0.05587907
0001c0 cf 9a 53 3d dc 7b 50 be 89 33 a0 3e de ba c1 bc
       0.05166131 -0.20359749 0.31289318 -0.023648676
0001d0 18 5a 12 3e 67 dd c9 bd e2 0b dc 3d 91 29 8f be
       0.1429218 -0.09856682 0.10744454 -0.279614
0001e0 4d ad fe 3d 8e b6 9b be 79 3a 6b 3d 3e 4c a9 3d
       0.12435398 -0.30412716 0.05742881 0.08266495
0001f0 c9 c2 42 be a0 59 ad 3d 3c 13 c1 3c 79 fe 32 bb
       -0.19019617 0.0846436 0.023568742 -0.0027312322
000200 14 b7 7a bd db fd b0 bd 52 1e bc 3c ac a9 ad 3d
       -0.061209753 -0.08642169 0.022963677 0.08479628
000210 3a d9 5e bd e7 c4 8f be d9 0c 4d bd 28 24 7e 3d
       -0.054406382 -0.28079912 -0.05006108 0.0620462
000220 53 e9 d3 3d 3d d5 2c 3d 82 44 f4 3d a7 4d 8c bd
       0.103472374 0.042195547 0.11927129 -0.068507485
000230 bc dc 1e 3e f0 9d 62 be dd 1d 24 bc 34 c8 d9 bd
       0.15513891 -0.22130561 -0.010016886 -0.10633889
000240 3b 2a 21 be d1 1d 15 be c4 d7 2c 3d f9 d7 9e bd
       -0.15738766 -0.14562155 0.042197958 -0.07756037
000250 cc 64 33 3e 06 f4 b3 3d 95 09 50 3d ed 14 c1 3d
       0.1751892 0.08786778 0.050790388 0.094278194
000260 3c 66 d6 bd ea 52 64 bd 82 af e4 3c f3 a9 80 bc
       -0.104687184 -0.055743136 0.02791572 -0.015706038
000270 0d a2 fb bb bf 68 bf 3d e0 76 0e be 32 0a 6e bd
       -0.00767923 0.093461506 -0.13912535 -0.05811519
000280 bd dd fb 3c 23 40 2e bc 64 7c 8b bd f6 4a b8 bb
       0.030745381 -0.010635409 -0.06810835 -0.0056241704
000290 93 25 28 be f0 3f 73 3d 31 11 27 be bb d1 a6 bd
       -0.16420583 0.059387147 -0.16315152 -0.08145472
0002a0 8d 48 9d bc 0f 48 94 bd b6 74 a5 bd a2 db 22 be
       -0.019199634 -0.072403066 -0.080789015 -0.15904096
0002b0 19 fc 5e bd 43 10 05 be f0 44 3c 3b f4 81 d9 bc
       -0.054439638 -0.12994485 0.0028727613 -0.026551224
0002c0 20 a1 6c bc 02 2d 83 bb 27 fb 7f bd 97 b7 f8 bc
       -0.014442712 -0.004003168 -0.062495377 -0.03036098
0002d0 fa cb 14 3b 16 5f c0 3c 0d e4 41 be a1 93 4f 3d
       0.0022704587 0.02348284 -0.1893465 0.0506779
0002e0 f0 af 4d bd 9d ca dc ba 47 87 ad bd 54 c4 7a 3d
       -0.050216615 -0.0016845051 -0.08473068 0.06122239
0002f0 be 1d 0a 3e 09 48 e2 3c 3c 15 3a bd 78 66 93 3e
       0.13487908 0.02762224 -0.045430407 0.28789115
000300 f6 1c c4 3c 73 e3 15 be c8 a6 9b 3d 15 20 61 3d
       0.02393959 -0.14637546 0.076001704 0.054962236
000310 80 70 7b 3e a8 88 30 3d 6c 46 fb 3b 72 15 4a be
       0.24554634 0.043099076 0.007668307 -0.19734743
000320 1f 10 09 3d cb 39 cf 3b a5 dd 46 3d db 26 ec bd
       0.03346264 0.006324028 0.04855122 -0.115308486
000330 5f 0e 46 be 91 3c 13 be af bd 3d 3d 39 7e fb 3d
       -0.1934142 -0.14378573 0.046323474 0.122799344
000340 6c 56 8a 3e e3 00 3a bd c8 a5 c5 bd 67 ff c7 bd
       0.2701906 -0.045411002 -0.09650761 -0.09765511
000350 d7 dd 5a be ec 8a f5 bd 4d e4 c0 bc af 26 b9 bd
       -0.21373688 -0.11989388 -0.023546362 -0.090405814
000360 d2 72 8c bd c6 55 47 be a7 a5 ea 3d 52 cf e1 bc
       -0.06857838 -0.19466314 0.11457377 -0.027564678
000370 91 22 c5 bd e2 fb b5 3d c6 43 3f 3d 64 a2 a1 be
       -0.09625734 0.088859335 0.046695493 -0.31569207
000380 40 3e 2e 3e 34 92 92 bd b7 9c a5 bd c4 b2 ad bd
       0.17015934 -0.07156792 -0.080865316 -0.084813625
000390 72 b2 6a 3d d5 11 62 be 31 51 83 bd 59 01 04 be
       0.057299085 -0.22077115 -0.064119704 -0.12891139
0003a0 9b 01 bf bc 88 c2 a6 bd d5 eb 86 bd 3a 7f 3c be
       -0.023316195 -0.08142573 -0.0658795 -0.18407908
0003b0 ee f5 8d 3d d7 9c e5 bb a6 04 31 be 6b cb c3 3d
       0.06931673 -0.007007222 -0.1728693 0.09560283
0003c0 0c ff 11 be b9 55 5e 3d 7f 81 7a bd e9 95 61 be
       -0.14257449 0.05428097 -0.061158653 -0.22029842
0003d0 21 7e 78 3d c5 91 b8 bc 38 f7 0b be 3a d8 b7 bd
       0.06066716 -0.022530446 -0.13668525 -0.08976789
0003e0 2b 81 03 bd b7 a0 63 bd a3 8c f6 bc a4 57 6a 3d
       -0.032105606 -0.05557319 -0.030096358 0.057212487
0003f0 6b 4a 04 bd ce de 31 3e 73 d0 cb bd 61 8b 90 3e
       -0.032297533 0.1737015 -0.09951868 0.28231338

shared_net.2.bias f4 [256]
000000 b4 84 48 3d eb ec ff bc 3b c8 e3 bd 78 cc bc 3c
       0.04895468 -0.031240901 -0.11122175 0.023046717
000010 d4 b0 80 3d 9e 46 4c 3e a9 ce 05 bd 4e 81 1f be
       0.06283727 0.19948813 -0.03266779 -0.1557667
000020 a0 bd 03 be bc 70 6a be e9 2e 17 be 5f 6d 30 3d
       -0.12865305 -0.22894567 -0.14763989 0.043073054
000030 80 6e 72 be 93 2e 04 be eb 87 b4 bd 84 e4 4c bd
       -0.23674965 -0.12908392 -0.08814987 -0.050022617
000040 41 cb 09 be f2 dc 59 3d d6 61 b6 bd e0 b8 d1 bd
       -0.13456441 0.053189225 -0.089053795 -0.1024034
000050 ad af a4 3d e4 fc 68 bd b7 be 86 be 7a 70 2e 3e
       0.0804132 -0.0568818 -0.2631738 0.17035094
000060 72 1e c4 3d 67 c0 2f bd e7 28 89 ba 8f 68 80 be
       0.095761195 -0.0429081 -0.001046446 -0.25079772
000070 9c ed b4 3c 8a bf e5 bd a1 14 70 be 21 46 00 bd
       0.022085957 -0.11218174 -0.2344537 -0.03131688
000080 51 de d5 bd 30 1b 83 be 30 2f ad bd 7b 23 6e be
       -0.10442794 -0.2560668 -0.08456266 -0.23255722
000090 f4 af dc bc 17 f5 19 be 3c 26 a0 bd 03 b6 54 3e
       -0.02693937 -0.150349 -0.07819793 0.20772557
0000a0 59 af 8b be aa 1c 66 be 3c ff 86 be 1c 1e 06 3d
       -0.27282217 -0.22471872 -0.26366603 0.03274356
0000b0 da 3b 5b be f9 48 4f be a8 64 ec bc 38 b4 3e be
       -0.2140955 -0.2024268 -0.02885659 -0.18623435
0000c0 b4 ad 05 be eb 08 7b bd 9b 7d 31 be dd 47 df 3e
       -0.13054544 -0.0612878 -0.17333071 0.43609515
0000d0 0f 1b 11 be cf a6 9c 3c d9 6b 91 bd 85 1b 18 be
       -0.14170478 0.01912251 -0.071006484 -0.14854248
0000e0 4f d3 25 be 49 fe 56 be c3 47 e9 bd ee 33 0b be
       -0.16193889 -0.2099544 -0.113906406 -0.13594028
0000f0 87 5d 7c be 1c 15 5e bd 84 d6 5f bc e2 68 63 be
       -0.24645053 -0.05421935 -0.013661984 -0.22207978
000100 1f 33 4c bd 0c db 34 be 3a 2e 12 be bc 1d 10 bd
       -0.04985344 -0.17661685 -0.14275447 -0.035184607
000110 15 ab 13 be b0 32 00 3e 4f 64 67 be 21 5f a1 bd
       -0.14420731 0.12519336 -0.22596858 -0.078794725
000120 ac cc 17 3d f1 fa 2c bd 07 b4 fc bd a2 8a 91 bd
       0.037060425 -0.042231504 -0.12339025 -0.0710652
000130 db 58 9b 3d 5e a0 74 bc f9 7c 7d be da c4 9c bc
       0.07585307 -0.014930813 -0.24754705 -0.019136835
000140 b0 62 db bd 85 9f 53 3d a4 46 15 be d8 03 94 3e
       -0.107121825 0.0516658 -0.14577729 0.28909183
000150 80 c0 5d be 79 9a 2e 3e 15 82 26 3e 76 53 ea bd
       -0.21655464 0.17051114 0.1626056 -0.114417
000160 1b 16 48 3e a1 0c a2 bd c2 c0 2b be bc fb c9 bc
       0.19539683 -0.07912565 -0.1677275 -0.02465617
000170 ea 5d f4 bc 08 b4 5f be 50 58 5a be 70 6a a1 bd
       -0.029829938 -0.2184602 -0.21322751 -0.078816295
000180 33 6f 6d be 21 d4 72 be a6 d6 ca bd f6 ef b9 bd
       -0.2318695 -0.23713733 -0.09904222 -0.09078972
000190 a1 cf 83 3d df 68 e2 bd 60 4c 62 be d2 dd 09 be
       0.064360864 -0.11055159 -0.22099447 -0.13463524
0001a0 ff 7b e9 3c 02 c7 3c 3e fd e9 d4 bd 0a 1a 07 bd
       0.028501509 0.1843529 -0.10396192 -0.032983817
0001b0 9d bb 7c be 56 dd 18 be 7d 9b f6 bd 31 8b 2c bd
       -0.24680944 -0.14928183 -0.12041376 -0.04212493
0001c0 8b c5 94 bc 3e 47 47 be 4a 27 60 3d f1 94 e6 bd
       -0.018160602 -0.1946077 0.05472497 -0.11258877
0001d0 35 a5 06 3e d0 27 21 be 0d 35 36 bd b6 b4 0a 3e
       0.13148959 -0.15737844 -0.044484187 0.13545498
0001e0 50 af 06 3d 5d db 1c be 9a 58 ed bd fc 1f 10 be
       0.032882035 -0.15318055 -0.11589165 -0.14074701
0001f0 98 8e 34 3d fb db 14 be aa bf 46 be 26 69 ea bd
       0.0440813 -0.14537041 -0.19409052 -0.11445837
000200 75 cc a0 3d 17 86 8f 3c 5d 02 d4 bc 8d 75 8f be
       0.07851497 0.017519994 -0.025880033 -0.28019372
000210 88 3a dd bd a9 9b 30 be 6b 37 5b 3e a1 8c 20 be
       -0.108021796 -0.1724688 0.21407859 -0.15678646
000220 0a a3 3e be 32 b3 67 be a1 a3 8b 3c 94 94 36 be
       -0.18616882 -0.22626951 0.017045798 -0.17830116
000230 80 23 4c be 2a a5 5a be 74 01 38 be 0d ee 2e be
       -0.19935417 -0.21352068 -0.17969304 -0.17082997
000240 5a ac 24 be 6a 29 19 3d 2d 3a ab 3e df 8d a5 bd
       -0.16081372 0.03739301 0.33442822 -0.080837004
000250 36 70 d0 bd 47 21 b4 bd 32 96 b4 bd 06 d7 33 3e
       -0.101776525 -0.0879541 -0.0881771 0.17562494
000260 44 ad 7d be 56 53 bf 3b e9 c3 25 3c 70 1a 59 be
       -0.24773127 0.005838792 0.010117509 -0.21201491
000270 ea 28 8b be ef 5d 43 be dd e4 52 be 5c 2c f9 bd
       -0.27179652 -0.19078802 -0.20595117 -0.12166664
000280 c2 51 e1 bd 11 11 17 be d1 61 c4 3d 0b 60 37 3c
       -0.11001922 -0.14752604 0.095889695 0.011192332
000290 5b 8d 43 be 95 6c 31 be b1 4c e6 bd e6 e9 0f be
       -0.19096892 -0.17326577 -0.112450965 -0.14054069
0002a0 ee a1 b4 3d c9 e4 7d be 1a 3d 10 3d 7c e5 5e be
       0.08819948 -0.24794306 0.03521452 -0.21767229
0002b0 49 dc 02 be 61 a3 7c bd 46 80 08 be 8f c9 1b be
       -0.12779345 -0.061679248 -0.13330182 -0.15213607
0002c0 8e 30 55 be bf 89 0c bd 7d 73 22 3e 37 7d 62 be
       -0.20819303 -0.034311052 0.15864368 -0.22118078
0002d0 41 3d 55 be d8 2f 72 be b1 ed c5 bd b5 49 f8 bd
       -0.20824148 -0.23651063 -0.09664477 -0.121234335
0002e0 28 49 a6 bd cc 9b 05 bd 47 e0 49 be 9a 55 47 3e
       -0.08119422 -0.032619283 -0.19714461 0.19466248
0002f0 80 24 f7 bc 33 f8 2e bd 91 06 b6 3d 73 86 15 be
       -0.030168772 -0.04271717 0.08887971 -0.1460207
000300 4c 66 48 3e 8a 25 e3 bc 8b 72 54 be 56 6a 48 3d
       0.19570273 -0.027727861 -0.2074682 0.048929535
000310 cd 5d cc bd 41 3a 9e bd dd 73 42 be af db 99 bd
       -0.099788286 -0.07725955 -0.18989511 -0.075126044
000320 9a 34 e5 bd d4 ae 53 be ae 6e ad bd de 31 f7 bc
       -0.111916736 -0.2067216 -0.08468376 -0.030175146
000330 1d 7b b5 bd 75 29 27 be 4e 2f e8 bd e6 d4 48 be
       -0.088613726 -0.16324408 -0.11337148 -0.19612464
000340 6c 4f 8d bd fb 35 27 be 00 5a 63 be 20 fa 42 be
       -0.06899914 -0.16329186 -0.22202301 -0.19040728
000350 8c a2 0b bc 23 42 80 be 0e b9 9f bd dd 3b 20 be
       -0.008522641 -0.25050458 -0.07798968 -0.15647836
000360 3b b3 3b be a6 8e 33 be 7b 05 db 3d 25 8a 6c bd
       -0.1833009 -0.17534885 0.10694405 -0.057748932
000370 11 a7 7f be 8d 7a 1d be d8 80 9f bd 89 9c 3a 3d
       -0.24966075 -0.1537878 -0.07788247 0.04555944
000380 23 a5 d8 3d 12 f5 05 be d3 ac df bd 6e e5 b4 bd
       0.10578372 -0.13081768 -0.109216355 -0.08832823
000390 ee 0a 19 be 1c a1 b7 bd 5b 46 37 bd 84 22 a3 be
       -0.14945576 -0.08966276 -0.04474483 -0.3186227
0003a0 69 62 0f 3e e1 18 36 be 52 96 98 bd 66 d1 52 be
       0.14002384 -0.17782928 -0.07450546 -0.20587692
0003b0 26 1c d5 bd a3 ec 28 be 26 b1 56 3e 9f a0 3c bd
       -0.104057595 -0.1649652 0.20966014 -0.046051618
0003c0 fe da c2 bc 40 49 89 3b b4 48 df bd 62 79 01 bd
       -0.023786064 0.0041896403 -0.10902539 -0.0316099
0003d0 03 d2 29 be 9c 70 32 be 71 a6 59 3e 4a 44 e0 bd
       -0.1658402 -0.1742577 0.21254899 -0.10950525
0003e0 fa 5a 7d be da a3 83 bd 16 4e d1 bd 93 0a ec 3c
       -0.24741736 -0.064277366 -0.10219972 0.028813636
0003f0 42 3c 2a be 58 20 55 be 9b 69 88 bc ea 6b 3c be
       -0.16624549 -0.2081312 -0.01665192 -0.18400541

to_mean.0.weight f4 [128, 256]
000000 0b 97 a6 3d 44 83 c9 3b dc 75 11 bd 2d 20 26 bd
       0.08134278 0.0061496813 -0.03551279 -0.04055803
000010 4c 26 a7 bb 0c df 9e bd 82 cd 1c 3d 9d 62 87 bd
       -0.005101001 -0.077573866 0.038281925 -0.06610606
000020 d6 26 8d bc 7c 85 31 bc f3 f3 22 3d a4 2c 29 bd
       -0.017230432 -0.010835048 0.03978343 -0.04130234
000030 6e 1a 22 3d d1 91 03 bc 8c 34 16 3d 98 a7 af bc
       0.039575987 -0.008030371 0.036671206 -0.02144222
000040 62 f3 b8 bc 2b 24 8a bc aa 18 b4 3c aa e6 f5 bc
       -0.022576991 -0.01686295 0.021984417 -0.030017216
000050 0f ca 04 3d f8 13 42 3d 44 3b 5e 3d 1b ce 22 3d
       0.03241926 0.047382325 0.05425574 0.03974734
000060 8c 10 61 bd 9a 45 8c bd 37 1c 4f bd 8e 00 19 bd
       -0.05494742 -0.06849213 -0.050564017 -0.037354045
000070 3a cc 30 bd b2 b0 9c bd d2 49 3a 3b 44 e4 a2 3b
       -0.043163516 -0.076508895 0.0028425348 0.004971059
000080 e5 0f 77 3d 7e 52 b0 bc 49 64 5f ba 3c 8e 3f 3d
       0.060317893 -0.02152371 -0.00085217186 0.046766505
000090 b5 92 4d 3d 5f 4c 00 bd 72 96 57 bc 1e 78 9f bc
       0.05018874 -0.031322833 -0.013158428 -0.019466456
0000a0 d2 1b 00 3d cd 1f 1e 3c b0 35 8e 3d a1 09 97 bd
       0.03127653 0.009651137 0.06943834 -0.073748834
0000b0 a0 78 bf ba 02 92 02 bd 9c d2 5e bd c7 52 64 3d
       -0.0014608093 -0.031877525 -0.05440007 0.055743005
0000c0 16 47 9d bd f3 b5 9e bd 7b e0 30 bc 5e 6a c9 bc
       -0.07679574 -0.07749548 -0.010795708 -0.024586853
0000d0 61 d8 a0 3b 99 54 3d bc e1 9e 97 3d c6 4a bc ba
       0.004908607 -0.011555814 0.074033506 -0.0014365546
0000e0 a8 f3 12 bc 87 eb fb 3b 90 3a e0 bc e4 7a 04 3d
       -0.008969225 0.007687989 -0.027371675 0.03234376
0000f0 ba 6a fb bc 2e bc 5c bd e0 49 a8 bc 33 bc 3b 3c
       -0.03069054 -0.0538904 -0.020543039 0.011458444
000100 7a 94 07 3c d5 4a a1 3d 29 0b 4d bd f8 ab 09 bd
       0.008275146 0.07875601 -0.05005947 -0.033611268
000110 d9 3f 31 3c 0b 10 1d 3d 00 98 43 bd 7d b4 7f bb
       0.010818445 0.038345378 -0.04775238 -0.0039017492
000120 dd 68 f3 3d e8 78 5d 3c 54 62 48 bd 6b 8f 46 bd
       0.118852355 0.013517596 -0.048921898 -0.048476618
000130 b3 fc 91 bd 04 67 b1 3c 83 47 a4 bc a6 37 26 3c
       -0.07128277 0.021655567 -0.02005363 0.010145104
000140 4e 28 d4 bc 8b cb 9b bd 43 89 81 3d 1e b2 14 3d
       -0.025898125 -0.07607182 0.06325009 0.03630268
000150 6b c7 67 bd 9b c6 ca bc 84 23 80 bd c3 f5 7e bc
       -0.056586664 -0.024752906 -0.06256774 -0.015561524
000160 7c a6 7d 3d 9c a4 f9 bb dd 39 a9 bc c4 9d 44 bd
       0.06192635 -0.0076185 -0.020657474 -0.04800202
000170 9b 72 83 3d 17 35 13 bd e3 68 d9 bc 1a df 91 3c
       0.06418344 -0.035939302 -0.026539272 0.017806578
000180 b7 44 e7 bc 62 9a 6e 3c b8 7a 8a 3b 52 14 74 bc
       -0.028231008 0.014563175 0.004226055 -0.014897423
000190 70 9b 9c 3c a9 7b 51 bd ff 45 37 bd a0 55 20 3d
       0.019117087 -0.051143322 -0.044744488 0.03914416
0001a0 2c 1d 61 bb d9 4f ab bd 8f 99 07 bd 4a 39 65 bd
       -0.0034349663 -0.08364839 -0.03310543 -0.05596284
0001b0 df 12 32 3b bd f9 e1 bc fb 9a 8d 3c 80 21 32 bd
       0.0027171893 -0.027584905 0.017285815 -0.04348898
0001c0 0d 38 b2 bd ce c5 0e 3d 70 d0 9a 3d aa a2 a6 bc
       -0.08702097 0.03485661 0.075592875 -0.020341236
0001d0 39 01 a4 bb 53 0a d1 3c 98 4a ef bc 2c 62 6a 3d
       -0.0050050286 0.025517618 -0.029210374 0.05722253
0001e0 2a ff 1e bd 24 87 3f 3d 9c aa 98 bc 65 d8 6d bd
       -0.038817562 0.04675974 -0.01863604 -0.058067698
0001f0 dd bc 54 bd 16 05 12 bc cf 94 4e 3c 56 c1 90 bd
       -0.051937927 -0.008912345 0.012608721 -0.07068126
000200 5a a2 c2 bd 49 80 c5 3d 02 cf 3f bc 7f 5f 3f 3c
       -0.09503622 0.09643609 -0.011707069 0.011680483
000210 c4 71 14 3d 00 9f 59 bc 2a bf 19 bd 6f 67 24 3c
       0.036241308 -0.013282537 -0.037535824 0.010034426
000220 2c 73 60 bc 58 11 d5 bc 57 d5 5a 3c 2e 23 27 bb
       -0.013699334 -0.026009247 0.013356528 -0.0025503146
000230 e1 09 77 bb 68 bc 31 3c 45 57 36 bd df a8 89 bc
       -0.0037695097 0.010848142 -0.04451682 -0.016804157
000240 60 98 dc 3c b0 2b ae bb 85 42 bc bd 19 73 e4 bc
       0.026928127 -0.0053152665 -0.09192375 -0.027886914
000250 9c 43 63 bd 0c f6 60 bc f2 4d e2 bd 43 57 33 3d
       -0.0554844 -0.013730537 -0.11050023 0.04378439
000260 5d a3 32 3d 28 a0 56 bd f1 4d 88 bc 28 bf 41 3c
       0.043612827 -0.05239883 -0.016638728 0.01182536
000270 b3 08 82 3c 65 76 83 bc 8f 33 17 bd 40 f1 60 3c
       0.015873289 -0.016047666 -0.036914404 0.0137293935
000280 a4 87 c0 bc 2e bf 18 bd 28 9b e0 3c 86 35 03 3d
       -0.023502178 -0.0372917 0.027417734 0.032033466
000290 c2 83 53 bb e2 ff b0 3d 4f e9 ce bc fe 11 a5 3b
       -0.0032274579 0.08642556 -0.025257735 0.005037545
0002a0 26 39 d9 bc 6f 64 fd 3b 48 35 2b 3c 35 22 db bd
       -0.026516508 0.00773292 0.010449715 -0.10699884
0002b0 d1 3d ec 3c 48 4b c7 bc f9 dc c4 3a 7c 3b 05 bd
       0.02883807 -0.02432789 0.0015019468 -0.03252743
0002c0 32 6c 89 3d 6f a0 3c bc 22 c1 fe 3c ba 1d 1e 3d
       0.0671009 -0.01151286 0.031097952 0.03860257
0002d0 92 07 40 3d 1a 43 a5 3c 04 1a 98 bc c7 6a 71 3c
       0.04688222 0.020173598 -0.018567093 0.01473493
0002e0 30 b0 39 bb e1 f1 71 3c 5a 1e 8e 3d a5 67 1d bd
       -0.0028333776 0.014767141 0.06939383 -0.03842892
0002f0 ea ce a1 3b 0f 3a ce 3d fc d9 32 3d fc 2d 4b 3d
       0.004937996 0.100696675 0.043664917 0.0496044
000300 ce 6b af bd 95 70 c4 bc 49 b3 80 bd cb 88 69 bd
       -0.08565484 -0.023979465 -0.06284196 -0.05701522
000310 5a 99 52 bd c3 cf ee 3c c9 05 6b bd 8a 37 c9 bc
       -0.05141578 0.029151803 -0.057378564 -0.024562616
000320 d4 44 23 3d 4c ef 4b bc a5 94 99 3c 93 bd 6a 3a
       0.03986056 -0.01244719 0.018747637 0.00089546404
000330 64 90 81 3c af 90 ac bc 36 1b c6 3c 62 16 1b 3d
       0.015815921 -0.021065084 0.024182897 0.037863143
000340 a2 3f df bb 41 3e f0 bb fd ee 8a bc 8d d2 f5 3c
       -0.0068130055 -0.00733164 -0.016959662 0.030007625
000350 e6 0b ce bd 04 a6 0b 3d 2d 3b 3c 3d 5a 55 82 bd
       -0.10060863 0.03409387 0.045954872 -0.06363936
000360 20 46 86 3c 48 ad b3 3d 8c 44 0d bd f1 81 97 bd
       0.01639086 0.08773285 -0.0344892 -0.07397831
000370 23 8f 8b 3c c6 8c 6c bc 47 26 b6 bd b6 21 35 3d
       0.017036026 -0.01443786 -0.088940196 0.044221602
000380 7b 38 2b 3d 04 b6 13 3d 93 53 f9 3c 68 99 e4 bc
       0.04180191 0.036062256 0.03043536 -0.027905181
000390 89 32 ed bc d6 8f 8e 3d 0c 81 13 bd ff 05 a7 bd
       -0.028954761 0.06961028 -0.03601174 -0.081554405
0003a0 c5 37 a7 bd ae ee 09 bc a6 8f b2 3c 3d 82 a0 3a
       -0.08164934 -0.008418722 0.021797013 0.0012245845
0003b0 70 51 ae 3c 36 91 5f bd da ed 20 3d 95 2a 9f bb
       0.021279067 -0.054581843 0.039289333 -0.004857371
0003c0 b3 5f 0d bd c5 2d e6 3c 90 be 11 bd 70 37 54 3d
       -0.034515094 0.028097996 -0.035582125 0.05181068
0003d0 e1 e1 53 3d c7 c2 a9 3d 7c e2 c7 3c 9f e9 4b bd
       0.051729087 0.08289104 0.024399988 -0.049783345
0003e0 f3 99 66 3c 3d e0 8a bd 65 dc 35 bc 36 87 9c bd
       0.01407479 -0.06781051 -0.011099909 -0.07642977
0003f0 d9 f8 62 3c c4 71 89 3b d9 0c 87 bd bf b0 a4 bc
       0.013853275 0.00419447 -0.06594247 -0.02010381

to_mean.0.bias f4 [128]
000000 a5 5c 4b 3d 2c 4c 6a bb ae 3a 5a bc 2e 2b 8e bd
       0.0496489 -0.0035750968 -0.013319654 -0.069418296
000010 10 a0 74 bd 23 28 d9 bc 49 44 a6 ba e2 aa 0b 3d
       -0.05972296 -0.026508396 -0.0012685145 0.034098513
000020 de c2 bf 3b ba 1f 62 bc 1b c9 97 bd be 31 bf bd
       0.0058520874 -0.0138015095 -0.07411405 -0.093356594
000030 9d 88 6e bd b5 f5 22 3d 76 e8 b3 bc 5a 88 3d bd
       -0.058235753 0.039785106 -0.021961432 -0.046272613
000040 9e 11 1f 3d 57 ac ef bc 69 0f 38 3d 9a 6c a5 bd
       0.03883516 -0.029256983 0.04493657 -0.08077355
000050 f0 73 af 3c 7f ea 69 bc 6f a8 27 3d bb ad ae 3a
       0.021417588 -0.0142771 0.040932115 0.0013326922
000060 2d 1a b4 bd 82 f6 83 3c ec d9 f9 ba e7 61 88 bc
       -0.08794055 0.016108755 -0.0019062138 -0.016648246
000070 be 35 5c 3c 68 0d 4c bd b4 47 5a bd d3 05 28 3c
       0.0134405475 -0.049817473 -0.053291038 0.010255295
000080 cc 9e 04 bd 50 7a 0f 3c 79 c3 b8 bd 54 95 5e bd
       -0.032378003 0.008757189 -0.090216585 -0.05434163
000090 0d b3 79 3c 19 0a 97 bd e6 de 84 bd 0c ea 9c bd
       0.015240443 -0.07374973 -0.06487827 -0.076618284
0000a0 ab e1 3b 3d 2b 96 75 3d 9a 8d a7 bd 23 8a 42 bd
       0.04586951 0.059957664 -0.08181305 -0.04749502
0000b0 75 83 35 3d 98 df b9 ba 1e 52 0e bc 75 92 85 3c
       0.04431482 -0.0014181016 -0.00868657 0.016305188
0000c0 e1 76 67 bd ef 6e ae bc 18 67 36 3d 0b f7 09 bd
       -0.056509856 -0.021293132 0.04453191 -0.033682864
0000d0 52 ac 65 3d 43 45 48 bd 5c c8 99 bd ed 85 57 bd
       0.05607254 -0.048894178 -0.07508919 -0.052617956
0000e0 80 5a d4 3c f5 59 ad bd 7d 76 af 3c 10 5b 7d bd
       0.02592206 -0.084644236 0.021418804 -0.061854422
0000f0 8c ef 43 3d c1 75 a7 bc 6e b2 5e bc 5c a5 69 ba
       0.04783587 -0.020441892 -0.013592346 -0.0008912885
000100 ba 2d d1 bd ec 11 a8 3c 2a 32 8a 3d b3 95 e1 bd
       -0.102138 0.020516358 0.06747849 -0.11014881
000110 ed e9 9d bc 42 10 0a bb 49 e1 2e bd 58 00 12 bd
       -0.019276584 -0.002106682 -0.042695317 -0.03564486
000120 f4 10 b0 3c 20 3c 58 bd cd 70 d4 bd 35 40 09 3d
       0.021492459 -0.052791715 -0.103730775 0.0335085
000130 81 4d 33 bd 41 d5 7a bd 99 b5 43 3b 66 3f 39 bd
       -0.043775085 -0.06123853 0.002986288 -0.045226477
000140 49 e5 f0 3c f4 1e dd 3b ac ca 27 38 24 f2 63 bc
       0.029406207 0.0067480747 4.0004656e-05 -0.013912711
000150 e2 8f 98 3b c0 c9 27 bd a3 77 53 3a 8f d4 2c bd
       0.004655824 -0.04096389 0.00080668385 -0.0421949
000160 b8 34 2a 3d 48 13 d5 bc be 45 28 3c fd d9 ed bc
       0.041554183 -0.02601017 0.010270534 -0.029034609
000170 94 d6 a1 bd b4 21 a7 bd 7e 42 da bb 77 e9 32 bc
       -0.07902256 -0.08160725 -0.0066607585 -0.01091992
000180 83 25 bd bb dd bb f4 bc 99 de a9 bc e3 9f 95 3c
       -0.005772294 -0.029874736 -0.020736026 0.018264716
000190 0a dc bf bd e7 31 92 3d de 72 39 bd 45 e4 cb 3c
       -0.09368141 0.07138424 -0.04527556 0.02488912
0001a0 e6 02 d5 bc 00 6c a1 bd 8f 10 8a bd 7c 65 8d bd
       -0.026002359 -0.078819275 -0.067414396 -0.06904122
0001b0 49 3c 99 3d e1 d9 24 3d 3b 3b 87 3c ac cf 71 bd
       0.074822016 0.040246848 0.016507735 -0.059035942
0001c0 a4 b6 0f 3d d0 35 62 bd 56 8d 13 bd d0 2a 0e 3d
       0.03508629 -0.0552271 -0.03602346 0.034708798
0001d0 87 5c 95 3c a7 21 5f bd ca 94 04 bd a0 36 0d 3d
       0.018232597 -0.054475453 -0.03236846 0.034475923
0001e0 7f 49 e6 3c 1c 49 a7 bd 28 73 25 bd 33 f7 e3 3c
       0.028111218 -0.081682414 -0.040393025 0.027827835
0001f0 0c 3d 19 3d 21 a3 71 bc a4 d1 b7 3c 17 ea 86 3c
       0.037411734 -0.014748366 0.022438832 0.016469045

to_mean.2.weight f4 [18, 128]
000000 07 07 c2 bc ff c8 bd 3b 9f a6 d9 3c 5f 50 76 bd
       -0.023684992 0.005791783 0.026568709 -0.06013524
000010 aa 47 13 bd d5 7a 36 bd 81 84 e8 bc 0e c2 10 bd
       -0.035957016 -0.044550736 -0.028383495 -0.035341315
000020 c1 ea e5 bc 27 ec 1a 3b bb 06 ae bc c3 d5 1a bd
       -0.028066041 0.0023639293 -0.021243444 -0.037801515
000030 2d 58 b1 bc fa ba 01 bb ae 18 d5 bc 30 3c 1a 3c
       -0.02164849 -0.0019795285 -0.026012745 0.009413764
000040 df b0 d9 bc 95 4b 10 bd 35 09 19 bd 29 d8 76 3b
       -0.026573597 -0.03522833 -0.037362296 0.0037665463
000050 22 68 32 bd 69 ca 33 bd 7b 09 62 bd d6 c0 2f 3d
       -0.04355634 -0.043894205 -0.055184823 0.042908512
000060 6f 6c 55 bc de e1 20 3d b4 a4 f7 bc 88 8a 11 bd
       -0.013026341 0.039277904 -0.030229904 -0.035532504
000070 0c e0 bb bc e7 67 12 bd 0b d8 e5 3c 64 a6 db bc
       -0.022933982 -0.03574362 0.028057119 -0.02681274
000080 82 8f 40 bc c8 8e f6 bc 50 21 d7 bc 50 f3 f3 3b
       -0.011752965 -0.03009738 -0.026261002 0.0074447766
000090 ce 0d 64 bc 5b e5 8e bc 2c 41 c3 bc 49 91 b6 bc
       -0.013919307 -0.01744335 -0.023834787 -0.022286074
0000a0 4b ca db bc 71 85 57 bd ce 57 d3 3b 81 25 05 bd
       -0.02682986 -0.052617494 0.006449676 -0.03250647
0000b0 95 f8 a9 bc d2 b4 7d bd dd 75 a2 bc 09 f8 28 bd
       -0.020748416 -0.06194002 -0.019831592 -0.04125217
0000c0 39 a4 2e bd 9e 4a f7 bb ee 78 c3 bc ec 4a c3 bc
       -0.042637084 -0.007546737 -0.023861375 -0.023839436
0000d0 03 73 d7 bc 2b 6b f1 bc b0 06 2c bd 30 8a 2c bc
       -0.026299959 -0.029470047 -0.041998565 -0.010530993
0000e0 8e 63 bb 3c 52 8d 9f bc b5 c0 46 bd da 03 ab bc
       0.02287462 -0.019476566 -0.048523623 -0.02087586
0000f0 cd 4f d0 bd 3c 2c 35 bd 8f 13 16 bd 14 ab 1a bd
       -0.10171471 -0.04423164 -0.036639746 -0.03776081
000100 8e 38 7d bd 6f ad 01 bd 72 0a eb bc 11 97 3b bd
       -0.061821513 -0.03165954 -0.028691504 -0.045798365
000110 9e ff 00 bd 3e 2e 2b bb ff 1e 93 bc 20 ca df 39
       -0.031493776 -0.0026120092 -0.017959116 0.0004268447
000120 92 2d 69 bd db e6 27 bd b5 ce dc bb 81 2a 1e bb
       -0.056928225 -0.040991645 -0.0067385086 -0.002413422
000130 6c 57 e4 bc 29 76 15 bd 4b ca 03 bd 62 58 24 bd
       -0.027873717 -0.03648964 -0.032175343 -0.04012335
000140 4d 9e d1 bb 43 46 06 3d e0 58 d0 bc 34 47 66 bd
       -0.0063970448 0.03278185 -0.025433004 -0.05622025
000150 c1 c3 d8 bc 4c 98 df bc f9 3b 08 bd 63 69 00 3d
       -0.02646053 -0.0272943 -0.03326032 0.031350505
000160 1f 51 54 bd bf fb b8 bc 3d 13 87 bd 18 ce bc bc
       -0.051835176 -0.02258098 -0.06595466 -0.023047492
000170 39 ac 2b bd 05 11 b5 bc 55 d5 c2 3c ca 0f 24 bd
       -0.04191229 -0.022102842 0.023783365 -0.04005412
000180 86 bc 8b 3a 1c 89 49 3b 1f 6b 46 bd 54 96 4f bd
       0.0010661043 0.003075189 -0.048442002 -0.050680473
000190 6c 37 e2 bc 81 cf 04 bd b6 37 8a bc 2c 44 f4 3c
       -0.027614318 -0.032424454 -0.016872268 0.029817663
0001a0 05 a2 64 bc 10 8d ae bc 30 0a 98 bc db 01 24 bd
       -0.013954644 -0.021307498 -0.018559545 -0.040040832
0001b0 ff 0b f5 3c 20 6e d1 bc 9f d6 11 bc 8b 13 0b bd
       0.029912947 -0.025565207 -0.008901267 -0.033954185
0001c0 2a 89 ad bc 3c 42 da bc b0 55 a4 bc 92 4d d6 bc
       -0.021183569 -0.026642911 -0.02006039 -0.026160035
0001d0 1f 64 af bc ea aa 13 bd c6 9b 66 bd ef 67 ed bc
       -0.021410046 -0.03605167 -0.0563009 -0.028980223
0001e0 75 51 8f bb f4 17 a3 bc c2 b6 0b bc a1 a7 c0 bc
       -0.004373724 -0.019908883 -0.00852746 -0.023517432
0001f0 2f de 6d bd 45 8b 47 bd bf 28 16 3d 3a 2c 31 b8
       -0.05807322 -0.048716802 0.036659952 -4.2241278e-05
000200 04 9f 58 3d ab 4d 14 3c b1 28 0d 3d 1d ee cb 3b
       0.052886024 0.009051721 0.034462634 0.0062234537
000210 81 fe 22 3d 26 cf de 3c f3 1f f6 3c 5a fb 9c 3c
       0.039793495 0.027198385 0.030044531 0.019162823
000220 9e 7c 1d 3d 05 fe c3 bc f1 b4 09 3d 7b 59 91 3d
       0.038448922 -0.023924837 0.033619825 0.07097145
000230 cc 1e 19 bd 1d 5a 16 3d 1c fb 0a bd bf a8 cc 3c
       -0.037382886 0.036707032 -0.033930883 0.024982808
000240 8d c0 ff bb 56 af 6d bc a1 e2 fb 3c 2a a9 02 3d
       -0.0078049363 -0.014507135 0.030747714 0.03189961
000250 f3 b8 13 3d 93 91 48 3c f2 8a 74 3d b3 80 03 3d
       0.036065053 0.012241739 0.05970282 0.03210516
000260 5d 2a 39 bc 21 12 c7 bc 6b ff 4f 3c 16 74 6f 3c
       -0.011301604 -0.024300637 0.012695174 0.014615079
000270 7f 5a 31 bc 52 fd 9a 3c 2e 9d bb 3c 78 9f cc 3b
       -0.010824799 0.01891962 0.022902098 0.006244596
000280 76 0b c0 3c fd 7b 37 3d fb 12 54 3d c6 62 fa 3c
       0.023442965 0.04479598 0.051775914 0.030564677
000290 56 03 46 3d db 49 57 bc 2c ce 3b 3d 08 15 86 3c
       0.048343025 -0.013140167 0.045850918 0.01636745
0002a0 ce 50 46 3d a9 56 a7 3c 94 2a d4 3c 9a ba b9 bb
       0.048416905 0.020427065 0.02589921 -0.0056679966
0002b0 e3 f8 28 bd b7 74 9c bc d8 6f 0c 3d 2c e0 18 3d
       -0.041252982 -0.019098623 0.03428635 0.037323162
0002c0 65 a2 ce 3c cc 35 2a 3d a1 7b dd 3c 3b 21 57 3d
       0.02522392 0.04155521 0.02703649 0.052521925
0002d0 65 6f 3b 3d 04 3a 57 3c 59 d5 c0 3c 66 3e cb 3c
       0.04576053 0.013136391 0.023539232 0.024810027
0002e0 61 c8 5d bd 94 cd 1b bc 2b a9 35 3d 44 20 f8 3c
       -0.054146174 -0.009509463 0.044350784 0.030288823
0002f0 53 1d f1 3c f0 10 33 3d dd fe 76 bc 53 e8 21 3d
       0.029432928 0.043717325 -0.015075413 0.039528202
000300 1e 90 fa 3c 2d 18 08 3d c4 c5 17 3d dd 57 3b ba
       0.030586299 0.03322618 0.03705384 -0.00071465765
000310 5a 4a 0f 3d 83 55 93 3c ef af cb 3c 05 f4 41 3d
       0.034983017 0.017985111 0.024864165 0.047351856
000320 ea e9 13 3d 46 d0 2f 3d 05 c6 ed bb 04 00 6f 3d
       0.03611175 0.042923234 -0.007256272 0.058349624
000330 6b 13 8d 3d 7a ee 78 3c 34 b2 40 bc 9c e9 d5 3c
       0.06888469 0.015193576 -0.011761237 0.02611237
000340 7d 00 24 3d 7d cc ec bb e9 8c 36 3d 0f 74 c0 bc
       0.04003953 -0.0072265253 0.044567976 -0.023492841
000350 3c 56 68 3d 81 86 52 3d 16 72 f2 3c ed 0a 6f bc
       0.056722865 0.051397804 0.029595416 -0.014590007
000360 69 fa 8c 3c 83 24 8c bc b1 af 88 3d 37 58 f7 3b
       0.017209249 -0.017107254 0.066741355 0.007548358
000370 14 97 17 3d e4 0e eb 3c 46 e2 c9 3c 3f b9 b3 3c
       0.037009314 0.028693624 0.024644028 0.021938918
000380 cb 92 1a bd 63 87 0a bd 0b 83 c0 bc a4 54 5d bd
       -0.03773765 -0.03382052 -0.023499986 -0.054035798
000390 48 2e 2c 3d 8b 91 64 3c 7b 51 90 bc 64 f9 0d bd
       0.042036325 0.013950716 -0.017616978 -0.034661666
0003a0 4c 07 cc 3b da 58 bd 3c e3 55 3e bc 3c d3 75 3d
       0.006226456 0.023113657 -0.011617157 0.060015902
0003b0 cf 82 8c bc 54 2d f1 3c 46 7e ea 3c 1f 6d 83 3d
       -0.017152218 0.02944056 0.028624665 0.064172976
0003c0 00 94 1d 3d 6b e0 4e 3d c4 c2 16 3d cd 74 03 3d
       0.038471222 0.05050699 0.036806837 0.03209381
0003d0 8e 5f 21 3d 8e e5 b5 3c c1 93 aa bd 96 9f 54 3d
       0.03939777 0.022204187 -0.08328963 0.051910006
0003e0 08 55 e5 3c f2 5f 45 3c c5 78 65 bd df 4e 74 bc
       0.027994648 0.012046801 -0.056023378 -0.014911382
0003f0 79 5d cf 3c bc 72 2f 3d 71 b4 2d 3c 4e a5 50 3d
       0.025313126 0.04283403 0.010602103 0.050938897

to_mean.2.bias f4 [18]
000000 8e a3 56 3c dd 3d d6 3c ba 7c ec bb 25 e5 94 bd
       0.013100518 0.026152546 -0.007217017 -0.07270268
000010 d2 90 70 3d e1 db ce bd 48 83 8a bd 1f d4 ac bc
       0.05873186 -0.10100532 -0.06763321 -0.021097241
000020 05 e2 82 3d 03 9f 7f bc a2 62 93 3b 70 56 a9 3b
       0.06390766 -0.015601876 0.004497842 0.005167775
000030 2b 02 46 3d e7 ff 1a be f5 88 af bd 72 18 03 3d
       0.04834191 -0.15136681 -0.08571044 0.032005735
000040 b6 2d d0 3d 20 fb 72 3d
       0.10164969 0.059321523
