saves/save2_1_23/save8_AllDofs_bigNN_NewObs_1500.pth (torch, 942043 bytes, 11 tensors)

shared_net.0.weight f4 [512, 67]
00000000: 2ce8 2c3c e0b4 d53d e06d 26be 8f7a b7bd
00000010: dbbd f2bd 0946 a93c 4fac 2fbd 891d 293e
00000020: c166 c8bc b52c 13bd 9811 a63d c473 26bd
00000030: ddae d4bd 7c47 b4bd 4c61 40bc e3b8 c43c
00000040: 490c 653d ecbd 4c3d d43c bdbd 5d9c 21bb
00000050: fa6f 1cbd 53a2 583d 9eda ee3d 17fe db3d
00000060: 819f fe3d f3d6 053d 58f3 103e 5afc 8fbe
00000070: f59a 833d 1b21 0fbd 9161 32bb 0be7 873d
00000080: b5d3 bdbd bab4 0a3c cc77 8bbd bda1 81bd
00000090: db79 59bd f71f 073e d6c3 4d3d 1dab ce3d
000000a0: dccd 0abd bad1 81bd 24d0 cf3c f44f fabd
000000b0: 3e4d 85bd 7241 98bd 7be8 723d 00a2 373d
000000c0: 326e 2dbd 29ee 97bc 329a 043e 9f6f 1a3e
000000d0: de99 2e3d da73 353d c214 c73d 82eb 83bd
000000e0: c762 7f3c 7954 b3bd efb8 8ebd c98a 01bd
000000f0: 7ee3 3a3d 9f7a 4c3d e817 54bd 2e38 47bb
00000100: 32e2 a83d 2ff7 1ebc 142e 9c3c d633 3f3d
00000110: d5b4 303e 3727 063e 8bc0 d2bd f642 4ebd
00000120: 77c9 963d 6f52 e53d 90ce e73d d457 c63d
00000130: 3bcd 8e3c 634a 4dbe fb16 e9bc a66e 95bd
00000140: e1d2 bfbc 71b1 373e a703 f33d 9522 fcbd
00000150: f252 203d 1cbd 0bbd b06a a3bc 7918 dcbc
00000160: 546f 7e3d 78a2 493d 7a87 b93d b2d5 963d
00000170: 6262 b73d ebd9 24bc 40a1 5dbe 04cc 83bd
00000180: 87ec 833d e3c9 a83c ba1c b6bd ac05 8cbd
00000190: 521a b93d 9085 963d 57cc 31bd 4333 b0bc
000001a0: 4c95 b7bd 8183 b9bc 7822 7ebd 42e6 4abd
000001b0: 2d7e 483c 4335 e13b 8b0b 33bd a48f 8c3d
000001c0: 5e6d b6bd eb76 073e 71f1 893d ada8 d5bd
000001d0: 8227 04bd e043 14bc 8556 b33c 6555 913c
000001e0: 56a8 613d ca2e 863c e7ad 93bd 00e6 0d3d
000001f0: 3035 eabd 289c 4bbd dbe9 b2bc 09db 97bd
00000200: 24ed 37bd 16a8 c3bd 1257 bebc e5be b13c
00000210: fb2e a2bd 28b1 5a3a 7f62 083e c45a 073d
00000220: 4136 063e 80b5 c53d ba40 bd39 ced8 db3c
00000230: 8d36 333e 6d64 893d 6ea6 063e ecb3 d53a
00000240: 413c 83be 1936 24bf 6d04 b53d c7fa 673d
00000250: bf0f e23d 4570 00be 04db 29be 4af8 7dbd
00000260: 6cac 01bd 7193 713d 4760 433d 80c0 e7bd
00000270: 935f 8e3d e1e0 34be 7093 ac3c f0dc 44bd
00000280: 4c3e 853c 2def ba3c ba06 48be b5c4 d3bd
00000290: 4f81 1e3d 74d7 2bbc 8367 21bd c345 ca3c
000002a0: 746d 70bd d9c9 87bc abdf 443d 75f3 07bd
000002b0: b3dd c63d 8a87 ab3d 8609 d3bd 76e1 633d
000002c0: 5bd3 183c f5fd fdbc 6c96 3e3d bcab 71bd
000002d0: ff08 353d 0c00 c4bc 206a 753d dc93 343d
000002e0: 35e3 543d 3e48 ff3c cf6f 26bd e49a 01bd
000002f0: 840d e2bd 851e 813d 0448 bd3d 57c2 d03d
00000300: a14c b9bd e102 47bd d473 abbd ae91 8ebd
00000310: 83c4 ccbd b947 b93d 90cd c9bd f2b7 c93a
00000320: b5c9 3dbc 5e24 a33c 9fca 3cbe b89b a7bd
00000330: c869 c9bd 2fab bd3d 20c3 92bd c0c4 ea3d
00000340: b6b0 213d e1bf 193d f97b 7a3b b48a e13d
00000350: 0fbe 2b3e d1e0 f4bc de57 eabd e81b b4bd
00000360: 7a44 d2bd c236 acbd 649b 613d efa0 5dbd
00000370: 040a c4bc a913 c53d a987 af3c 56e8 e4bd
00000380: 0540 fbbd 41d7 c63d 50a1 dcbd 342b 9bbd
00000390: 0560 74bd b676 31bd a406 6bbc 7d2b af3d
000003a0: e1eb a53c a465 a53d 0a5b 373d 7c56 90bd
000003b0: c8bc 133d 3adf 53bd 0b11 2cbd e590 c53c
000003c0: c639 7e3d c4e6 c23d fb84 b3bc 0836 ae3b
000003d0: bac0 703d bdab b9bd 7fe2 ad3d 4108 a3bd
000003e0: dd97 5a3c 34d2 19bd 69a8 95bd aa7a edba
000003f0: 1c08 b13d a5f3 ebbc b1f1 9fbd dc5f 65bd
0.010553401 0.1043489 -0.16252851 -0.08958923 -0.11852618 0.020663278 -0.042888936 0.16515173
-0.02446306 -0.035931308 0.081088245 -0.040637746 -0.10384915 -0.08802697 -0.011741947 0.024013942
0.05591992 0.04998581 -0.09240118 -0.002465985 -0.038192727 0.05288918 0.11662792 0.10741823
0.12432767 0.032675695 0.14155328 -0.28122216 0.0642604 -0.03494368 -0.0027218799 0.06635865
-0.092688955 0.00846594 -0.06809959 -0.06329677 -0.053094726 0.13195787 0.05023559 0.10091231
-0.03388773 -0.0633883 0.025367804 -0.12222281 -0.065088734 -0.07434358 0.059303742 0.04483223
-0.04234142 -0.01854618 0.12949446 0.15081643 0.042627208 0.044299938 0.09720756 -0.06441404
0.015587515 -0.08756346 -0.06968867 -0.031626496 0.04562711 0.049921628 -0.05178061 -0.0030398476
0.08246268 -0.009702488 0.01906494 0.046680294 0.17256482 0.13100897 -0.10290631 -0.050356828
0.07362645 0.111973636 0.113186955 0.09684721 0.017431846 -0.20047908 -0.02845334 -0.07296495
-0.023415985 0.17938782 0.11865931 -0.123112835 0.039141603 -0.034115896 -0.019948334 -0.026867138
0.06211789 0.049227208 0.09059043 0.07364978 0.08954312 -0.010061721 -0.21643543 -0.06435397
0.064415984 0.02060408 -0.08892198 -0.06837019 0.09038223 0.07349694 -0.043407764 -0.021508818
-0.08964023 -0.022645714 -0.06204459 -0.049535997 0.012237114 0.0068728044 -0.04371218 0.06863335
-0.08907579 0.13228957 0.067355044 -0.10432563 -0.03226424 -0.009049386 0.021891842 0.017740915
0.05509218 0.016379733 -0.072109036 0.034643173 -0.11435926 -0.04970947 -0.021840027 -0.074148245
-0.04490389 -0.09553544 -0.023234878 0.02169747 -0.07919117 0.00083424384 0.13318823 0.033045545
0.13106634 0.09653759 0.00036097114 0.026836779 0.17501278 0.06708608 0.13149425 0.0016304231
-0.25631908 -0.64145046 0.08838735 0.056635644 0.110381596 -0.12542827 -0.16587454 -0.062004365
-0.031658575 0.0589785 0.04769924 -0.11316013 0.06951823 -0.1766391 0.021066397 -0.048062265
0.016265057 0.022819126 -0.19533816 -0.10340253 0.038697537 -0.01048838 -0.039405357 0.024691468
-0.058698133 -0.01657574 0.04806487 -0.033191163 0.097102545 0.083754614 -0.10304551 0.05563494
0.009327735 -0.031004885 0.046530172 -0.05900167 0.044198032 -0.023925804 0.05991566 0.044086322
0.051974494 0.031162377 -0.040633973 -0.031641856 -0.11037734 0.06304649 0.092422515 0.101933174
-0.09047819 -0.04858673 -0.08371702 -0.0696138 -0.09998419 0.09046883 -0.09853661 0.0015389903
-0.011583735 0.019914802 -0.18436669 -0.08183998 -0.09834629 0.09261166 -0.071661234 0.11463308
0.039475165 0.037536506 0.0038220866 0.11012784 0.1677172 -0.029892357 -0.114425406 -0.08794385
-0.10266967 -0.08408882 0.055079833 -0.054108556 -0.023930557 0.096228905 0.021426992 -0.11177127
-0.1226807 0.09709025 -0.107729554 -0.075766 -0.059661884 -0.043326102 -0.014344845 0.085532166
0.020254077 0.08076027 0.044764556 -0.070477456 0.036068708 -0.051726557 -0.04200844 0.024116943
0.062066816 0.09516671 -0.021913996 0.0053164996 0.05877755 -0.090659596 0.08490466 -0.07960559
0.013341871 -0.03755398 -0.07307512 -0.0018118222 0.08644125 -0.028802702 -0.07809771 -0.05599962

shared_net.0.bias f4 [512]
00000000: a122 513d 9965 c93d 425a d2bc 63a6 883d
00000010: 6ef3 22bd ac66 723d 707d bbbd 0a97 cd3b
00000020: f7ab 14bd 9ee6 a63d f527 713d 9585 8cbd
00000030: 8c9f 1fbd a8e8 7bbd daf3 88bb 9c3a 80bd
00000040: dc2a 94bd 9346 84bd 8b6c 923b cf2d 6ebd
00000050: 28a7 9b3c 1b6a a83d 2b01 e63d d98d 58bd
00000060: 0345 d6bc 20a4 ff3c ff1a 853d eb8d 113e
00000070: d167 2439 215c 97bd 4662 6fbc aa2e e43d
00000080: d3e1 e33d 79d1 5fbc f90c abbd 9f0d 443d
00000090: 672e b33c 7f36 a33d 97f9 d9bd 2f07 ebbd
000000a0: 58a0 b2bd 66c1 ddbd 778e 493d 2f57 a63d
000000b0: 3d72 fabc bc50 a5bd 36c2 2c3d 605e 673d
000000c0: 1446 8abd fcf2 7ebd 276f 593c 989e 84bd
000000d0: 13a7 943d 3a57 ec3d 554b c13a 2b3b bdbd
000000e0: c1f1 93bc 42c0 993d c5fa b9bd ab0a 79bc
000000f0: ae92 db3d f4aa de3d b658 313d 2fa5 dbbc
00000100: 8d37 2abd 10dc 28bd bc81 833d 80ac 993d
00000110: 33ee 893d 8b0d 0b3d 51e3 d83d 5161 7dbd
00000120: 1059 5a3d 07a2 3cbd b083 babb 4a1b ce3d
00000130: fa0c 48bd ef73 1e3d db8a bbbb 10ca 443d
00000140: 761c e5ba 7dba 7dbd 9527 4a3d 2a15 eebd
00000150: d700 99bc c6b4 1fbd 4bf2 ffbc 635e 493c
00000160: f145 9abd 75ca dfbd e5dd 0ebd b7ce a239
00000170: b44d a2bd 661e 43bd e5ea 24bd 35b9 87bd
00000180: 0498 a6bd 0475 b23d 35af cfbd dcbd b43d
00000190: 8196 953d b31d a1bd 7c29 2c3d a0a1 e03d
000001a0: 5c06 e63c e67f 56bd 8387 b43d 03da 803d
000001b0: c27b 9dbd b4bb cf3c d599 e23d a77e 03be
000001c0: 7734 d73d a21a 2b3d ef58 d6bd 2bf7 8e3d
000001d0: 503c 5dbc 8083 853d 5041 52bc a3be a2bb
000001e0: bdc6 51bc 40db a1bd 1e68 ea3d d5e9 f5bd
000001f0: 4c57 65bc 7c55 88bd 5bc2 65bd 9ebc 3dbd
00000200: ea6a 823d 7e94 883d be6b 8dbd 8fa1 ecbd
00000210: ef34 24bd 3592 ab3d c0ab 2e3d 8d16 893d
00000220: 2b2c 3ebd 8913 41bd 1411 50bd 34da a3bd
00000230: 8af6 8abd f689 17bc 2528 9ebd f287 55bd
00000240: c5a2 b43c a6c3 8cbd 7b28 f3bc cb2d ddbd
00000250: 3cf2 3b3d 349c 293d a2d8 0b3d 0973 3abd
00000260: 58e6 ba3c 63a0 0d3d 2009 b2bc 7d33 d6bd
00000270: 298b 2dbd a387 98bd ad4d 38bd f4be 833c
00000280: ce1a d43d 8942 ea3c 3c68 4e3c 8ac2 233c
00000290: 548b 46bd 42f2 e03d 9792 b53c 68d3 3f3d
000002a0: 8c77 783d cfa9 653d 8002 b93d 490c 76bd
000002b0: 00be d5bd 7e8b dfbb 25e6 813d aa3c aabd
000002c0: 7b0c 0dbe 2132 8ebd 8f00 883d 0aff a63d
000002d0: 8e0d 41ba 720c 2bbd 8c85 a73d c7be f2bc
000002e0: 6ad8 753d 5453 8fbd 1dce d9bd 5484 babd
000002f0: 7d80 373d ad6a 743d 31c6 8c3d e3f4 fb3c
00000300: d4de bf3d 6bc7 1c3d 58d7 6b3c 5999 c23d
00000310: a58d 873d 942b da3d c80e 4a3d f071 ee3c
00000320: 74df acbd 1f8b 86bd 927a d7bd edd3 79bc
00000330: 68e5 a7ba 60c8 45bc e21c d53d 5a17 9bbb
00000340: d6ab 483d dc1c e03a 7b87 1b3b 85fa 353d
00000350: 655a 3d3d 703b 31bd 01bf 373d c201 00be
00000360: b8ef 0b3e a651 b43b aa01 d03d 30ad 07be
00000370: 798b 7abd 99fb babd 63d9 76bd 0272 8bbc
00000380: 0828 31bd e445 b23d 6371 e4bc b23d 133e
00000390: 8765 74bd d493 eabd 21c1 c0bd 3f1b bfbd
000003a0: 4b7d 96bd 162c efbd 53ea 70bd 4ce5 d43d
000003b0: ec9f c6bc fe2c 03bb 2a9a 00be 2edc 0c3d
000003c0: 7312 a4bd 1459 8bbc 989a 8cbc 2a9d dbbd
000003d0: d687 14bd 78ca 93bd 87f1 dc3c 1498 39bd
000003e0: 2d0f 19bd 9bed 5d3d 6a62 b43d aac9 10bd
000003f0: 5ade 12bd 9504 b8bd c59f 7dbc ba55 87bd
0.051058415 0.09833831 -0.025677804 0.06672361 -0.039782934 0.059179947 -0.09154785 0.006274109
-0.03629681 0.081494555 0.058875997 -0.06861416 -0.038970515 -0.061501175 -0.00417946 -0.06261179
-0.07234737 -0.064587735 0.0044685057 -0.058149155 0.019000605 0.08223363 0.112306915 -0.05286965
-0.026155954 0.03120619 0.0649929 0.14214294 0.00015678933 -0.07390619 -0.014610833 0.11141713
0.11127057 -0.013660782 -0.08352084 0.047864553 0.021872712 0.07969379 -0.106433086 -0.114759795
-0.087219894 -0.108279034 0.04920813 0.08122098 -0.030572051 -0.080720395 0.0421774 0.056486487
-0.067516476 -0.062243447 0.01327113 -0.06475562 0.072584294 0.11540075 0.0014747182 -0.09239801
-0.018059613 0.075073734 -0.090810336 -0.015200297 0.10721336 0.108724505 0.043297492 -0.026812164
-0.041556884 -0.041225493 0.06421229 0.07503605 0.06734886 0.033948462 0.10590232 -0.061860386
0.053307593 -0.04605296 -0.005691968 0.10063799 -0.0488405 0.03868478 -0.00572334 0.048044264
-0.0017479795 -0.061945427 0.049354155 -0.116251305 -0.018677158 -0.03899076 -0.031243464 0.01229057
-0.075328715 -0.109272875 -0.034879584 0.00031053062 -0.07924977 -0.047636412 -0.040263075 -0.06627122
-0.081344634 0.08713725 -0.1014084 0.08825275 0.07304097 -0.07866993 0.04203175 0.109683275
0.028079204 -0.052368067 0.08814909 0.062915824 -0.076896206 0.025358059 0.110644974 -0.12841283
0.10508054 0.041773446 -0.104661815 0.06980737 -0.013503149 0.06519222 -0.0128329545 -0.0049665733
-0.012803731 -0.07903147 0.1144564 -0.120074905 -0.013997864 -0.0665693 -0.056093555 -0.046322457
0.063680485 0.06668948 -0.06905316 -0.11554252 -0.040089544 0.08377496 0.042644262 0.06693754
-0.04642884 -0.04713777 -0.050797537 -0.08000603 -0.06785305 -0.009249201 -0.07722501 -0.0521316
0.02205027 -0.068732545 -0.029682389 -0.1079975 0.04588531 0.041408733 0.034142144 -0.045519862
0.022814915 0.034576785 -0.021732867 -0.10459039 -0.04236904 -0.07447746 -0.044995952 0.016082264
0.10356675 0.02859618 0.012598094 0.009995112 -0.048472717 0.10983707 0.022164626 0.046832472
0.060660884 0.056070145 0.0903368 -0.06007031 -0.1043663 -0.0068220487 0.06342725 -0.08312352
-0.13774292 -0.06943155 0.066407315 0.081541136 -0.00073643855 -0.041759916 0.08179769 -0.029631985
0.06002084 -0.069983155 -0.10635016 -0.09107271 0.04480027 0.059672046 0.068737395 0.03075642
0.09368673 0.038276117 0.014394604 0.09501905 0.066188134 0.10652843 0.049330503 0.029107064
-0.08441058 -0.06569504 -0.10521425 -0.015248281 -0.0012809457 -0.012071699 0.104058996 -0.0047330083
0.048992 0.0017098445 0.0023731876 0.044428367 0.046228785 -0.043269575 0.04485989 -0.1250067
0.13665664 0.0055028973 0.101565674 -0.1324966 -0.061168168 -0.0913002 -0.06026591 -0.017022137
-0.043251067 0.08704737 -0.027886098 0.14379004 -0.059667137 -0.11453977 -0.094118364 -0.09331369
-0.073481165 -0.116783306 -0.05881722 0.103952974 -0.024246179 -0.002001583 -0.12558809 0.034389667
-0.080113314 -0.01701025 -0.01716356 -0.10723336 -0.036262356 -0.07216352 0.026970638 -0.04531105
-0.03736799 0.054181676 0.088078335 -0.03534857 -0.035856582 -0.08985249 -0.015479987 -0.06608148

shared_net.2.weight f4 [256, 512]
00000000: 2e88 193d 3109 13bd 0f14 a13a c191 21bd
00000010: 3b19 ba3c a659 ccbc 1f76 8e3c 7848 933b
00000020: 16f0 d33c fa49 303d 3585 89bb c97e c7bc
00000030: dd5a 3a3d 7bc0 2bbd 8bcd 4ebd b01a c3bc
00000040: 26c8 3dbc a2aa cfbc 094c 813c de62 683d
00000050: 1dcc f0bc 36e3 393d 108e 56bd d28f b63c
00000060: a7a0 29bc 5c94 0a3d 234c 59bb 93a6 56bc
00000070: 0085 3bbb 97e8 953c efba 22bd 7842 aebb
00000080: 4af3 293c 9c24 9c3c 1847 2fbc 0245 e13c
00000090: 6366 77bd 3fc7 b03c 2ed9 403b 4d5e 46bd
000000a0: 3982 76bb 2119 98bc 2760 cfbc 10ea 5c3b
000000b0: 20a7 72bb eacf 353d 52e5 fabc a2ee 19bd
000000c0: 04dc 053d 196b 8bbc f3e2 113d a96d 18bd
000000d0: 81a3 d83a eb8b 66bd 0a33 cc3c 352d 0abd
000000e0: 3dce c63c 7548 56bc f86f d7bc 040e ad3d
000000f0: b5e6 e4bc 669d e9bc 49bf 5eba 6913 9b3c
00000100: aeef dfbc 9e74 2bbb 0997 5ebd f0bf 513d
00000110: 0c0d 81bc 55d2 29bd 50bd 58bc 3e8a 993a
00000120: 5ccd 403c a8d7 78bd 0514 19bc dc9a 053c
00000130: 2c4e 433d 273e bd3b ed75 55bd 6095 223d
00000140: 7a26 0ebd 7975 e53c 13d5 273d 1b05 5ab8
00000150: 7221 a93c 5299 2a3d ba28 98b6 c49e b4bc
00000160: f322 203d 86f2 9fbc 7492 2dbc 6295 d1bc
00000170: 1120 4fb9 c8fe 79bd 643a 2bbc 8e18 823d
00000180: 0a3a b5bc 9175 5a3d d7e4 403d 292c df3c
00000190: 7c01 44bd de9e 063d c66f 103d 8968 ef3c
000001a0: 395b 0abd 12b5 c0bc 9550 76bc ea50 3e3c
000001b0: 04d8 a23c bab3 84bd 2a7e 833d 499f 73bc
000001c0: c288 07bd fc0b 733b 4273 613d 1a06 c8bc
000001d0: 1c42 5fbd 0608 c13c b2c7 81bc ab63 1cbd
000001e0: 162a 52bc 701b bcbb 6ba8 b13b a06b 62bd
000001f0: 6824 963c bfaa 703b a865 4f3c d1f9 83bc
00000200: a34a 1d3c ea75 86bc 54f9 113d 07e5 893d
00000210: 6a8c 84bc 68b3 8c3c c72e 443d b20e 583d
00000220: fde0 59bd b634 f0bb 2cf0 be39 81ee 253d
00000230: 2201 05bd 1fa7 f9bc 75cb 3dbc ab5a 54bc
00000240: 8e42 58bd 7127 1d3c 7bd4 853c 7749 e7ba
00000250: bfee 983c 0936 acbc 2c0a 023d 1c5d 1d3d
00000260: 3f55 673d 2e76 41bd 4bc1 5dbc 6a68 e9bc
00000270: c06e 163d 7091 42bb f64c dbbc 76a0 78bd
00000280: 42cc 09bd 09e5 d83c 2522 4abd 274c 98b8
00000290: c3b5 ac3c 7db5 333d a98d a73b 6e3c b9bc
000002a0: 09f7 6c3d 6130 843c 0ac9 11bc c436 333c
000002b0: 4f45 b3bd 9dbc e2ba 71f4 6a3c 43d5 9fbd
000002c0: 6524 923c b058 75bd 7d78 a0bc 138e a93c
000002d0: 8954 b3bc 91c3 0f3b 74d2 e63c 9d49 bf3c
000002e0: e106 0fbd e9d5 5b3c 1ee8 e43c c6ee b9bc
000002f0: f7c5 f33c 11a7 52bc bb26 19bc c884 ab3c
00000300: f8be 08bd cfee 96bb e63f 8e3d 0713 19bd
00000310: df04 543d e0f2 b33c 6b50 68bc 37da 58bd
00000320: 562b 3339 e8f8 b3ba b8a7 d53c b841 953a
00000330: b741 5ebc d7aa 8dbc a00a d5bc f86e 6d3d
00000340: 52a0 753c 4f11 91bc a974 463c cb59 8fbc
00000350: 644f 423d 3e2f 0d3d 1bf9 6cbd 9c91 163c
00000360: 836e e4bc 82b3 16bd 1954 f6bc 37e6 6ebb
00000370: 355c ba3b 24d6 08bb f597 4ebc d7c6 29bd
00000380: c3d5 143d 6632 11bd 42c7 78bd c36b 68bd
00000390: 0c8a a5bb c59f 013d dd22 493d 8a0e b43c
000003a0: 66e3 69bb 2e2e d63c 2062 2ebd e3f4 97bc
000003b0: d6c6 9bbc de18 f23c 640d e33c 4629 3c3c
000003c0: e47d 503d 9eba 053c 00cc 4c3d dd09 4bbd
000003d0: 0b97 5a3c f888 a23c eb8b 39bc bc57 043c
000003e0: 9719 8c3c 6831 023d 1887 90bc e61d 4b3b
000003f0: 0b7c 1cbd 4e4d 0a3d 8842 353d 59ee 6a3d
0.037483387 -0.035897437 0.0012289303 -0.039445642 0.022717109 -0.024945091 0.017390309 0.004494723
0.025871318 0.0430393 -0.0041967877 -0.024352448 0.04549681 -0.04193161 -0.05048899 -0.023816437
-0.011583364 -0.025349919 0.015783327 0.056734912 -0.029394204 0.0453827 -0.052381575 0.022285376
-0.010353244 0.033832893 -0.0033156953 -0.013101238 -0.002861321 0.018299384 -0.039729055 -0.0053179823
0.010372946 0.019060425 -0.010698102 0.027498726 -0.060400378 0.021579383 0.0029426324 -0.048429776
-0.003761424 -0.01856667 -0.025314404 0.0033708848 -0.0037025884 0.044387735 -0.030626927 -0.037581094
0.032680526 -0.017018842 0.035616826 -0.037213955 0.001652822 -0.05628578 0.024926681 -0.03373452
0.024268264 -0.013078799 -0.026298508 0.08449939 -0.027942041 -0.028517436 -0.00084971316 0.018930154
-0.027335968 -0.0026162039 -0.054343257 0.051208436 -0.015753292 -0.041460354 -0.013228729 0.0011714173
0.0117677115 -0.06075254 -0.009343152 0.008154597 0.047681972 0.0057752314 -0.052114416 0.039693236
-0.034704663 0.028010117 0.040974688 -5.1980005e-05 0.02064583 0.041650124 -4.534694e-06 -0.022048362
0.03909583 -0.019524824 -0.010593999 -0.025583927 -0.00019753004 -0.061033994 -0.010450933 0.0635234
-0.022122402 0.053334776 0.04709324 0.027242737 -0.047852978 0.03286635 0.035262845 0.029224651
-0.033778403 -0.023523841 -0.015033861 0.011615971 0.019878395 -0.064795926 0.06420548 -0.0148695195
-0.033089407 0.0037086 0.05504156 -0.024416972 -0.054506406 0.023563396 -0.015842292 -0.03818099
-0.012827417 -0.0057405755 0.0054216883 -0.05527842 0.018327907 0.0036722866 0.012658514 -0.016110333
0.009600314 -0.016413648 0.03563817 0.067331366 -0.016180236 0.017175391 0.047896173 0.05274839
-0.05319308 -0.0073305024 0.00036418566 0.04051066 -0.032471783 -0.030475197 -0.0115841525 -0.01296107
-0.052797846 0.009591923 0.01633667 -0.0017645796 0.01866853 -0.02102186 0.031747982 0.038418874
0.05647778 -0.047231846 -0.013534854 -0.028492171 0.036726713 -0.0029688738 -0.026770096 -0.060699902
-0.03364206 0.0264764 -0.04934897 -7.262109e-05 0.021082764 0.043874253 0.0051133228 -0.022611823
0.05785278 0.01613635 -0.008898029 0.01093835 -0.08753454 -0.0017298643 0.014340506 -0.07804348
0.01783962 -0.059899032 -0.019588703 0.02069763 -0.021890895 0.0021936635 0.028176524 0.023350531
-0.03491867 0.013417699 0.027942713 -0.022696864 0.029757483 -0.012857215 -0.009347613 0.020937338
-0.033385247 -0.004606105 0.069457814 -0.03737166 0.051762458 0.021966398 -0.014179329 -0.05294248
0.00017086914 -0.0013730796 0.026080951 0.0011387384 -0.013565472 -0.017293377 -0.026006043 0.057967156
0.014991837 -0.017708449 0.012112775 -0.017498871 0.047438994 0.03446888 -0.057854753 0.009189989
-0.027884727 -0.036792286 -0.030069398 -0.0036453137 0.0056872615 -0.002087959 -0.012609472 -0.041449394
0.03633667 -0.035448454 -0.060736902 -0.056743395 -0.005051857 0.03164651 0.049105514 0.021979589
-0.0035688519 0.026145067 -0.042574048 -0.018549388 -0.01901571 0.029552873 0.027716346 0.01148445
0.05090131 0.008162169 0.049999237 -0.049569953 0.0133416755 0.019840702 -0.011324863 0.008077558
0.017102046 0.0317854 -0.017642543 0.0030993163 -0.038204234 0.03376513 0.044252902 0.057356212

shared_net.2.bias f4 [256]
00000000: 2aaa b9bc ac4e 21bd 4451 f93c 2f9b c73c
00000010: 7b52 d93c 9242 31bc f732 1e3d c2d0 493c
00000020: cc9f 913c 7336 65bd fe96 6eba 3664 d43c
00000030: e3a8 a0bb a803 0e3d 8542 28bd ac21 e03c
00000040: f347 4dbb b3c4 dabb 2b87 4bbd 6934 203d
00000050: 6106 973c 1024 29bd a3f6 00bd 70bb 9f3c
00000060: 405c 2b3d 3cfb b33a c87f 7e3b e325 1cbd
00000070: a5c2 413c 50b8 ff3c b181 9abc c516 253d
00000080: ad21 373c c0b5 13bd 81f7 04bd ddd1 f3bc
00000090: 5e7c fbbc 5e86 8e3a 7627 ddbb 8aef dabc
000000a0: e9a5 8abc 0fbd abbc 7278 dcbc 898a 9e3c
000000b0: 3ef6 09bd 24e0 003d 07e3 0b3d e093 a1bb
000000c0: 2639 e83c d38f 093c 91ad c53b 6345 46bd
000000d0: a67c 48bc b4c7 743c 6584 33bc 24f6 913b
000000e0: 9bf2 38bc d1bf 27bc 0b8d 4fbb b541 9ebc
000000f0: 57ea 32bc 9725 a43c 9eed 213d 9822 99bc
00000100: 2b9c a83c 69c1 003b 4f42 093d 47f4 f93c
00000110: 5c09 0fbd 1697 b13b 8524 e43a be6f da3c
00000120: 7af1 413c 3dc6 b53b fc01 bb3a 7c43 243b
00000130: 7bd8 d4bc 79d8 12bd d503 7abc a67a 483c
00000140: f2d0 17bd 818b 42bb ffdf 82bc 3c8d c3bc
00000150: 43fc 0f3b 8039 803b d6d1 ae3c 99da 5538
00000160: 2fba 13bc e35e 9cbc 68ef cf3c 3e81 0b3c
00000170: 4b2b 3dbc 7988 19bd 342a f6bc df8f 19bd
00000180: e9d4 68bc 3cfe fbbc 7cc8 87bc c9e1 52bd
00000190: 65b3 213d f503 3cbd 5ef2 003d 576c 0e3d
000001a0: 0468 12bd 564a c33b 2f4d c3bc 4071 5239
000001b0: 96a1 48bd d5e8 293d e6aa f63c 2b34 56bd
000001c0: 413d 76bb ea0c c93b 3961 c2bd abe4 973c
000001d0: 4bf2 2c3b a495 f6bb 8a1a 32bd 5ee4 283c
000001e0: 2c7a 9abb c51c d5bc 450f cf3c cfcd db3c
000001f0: cf72 45bc 5be0 b33c 2d1d e6bc 6a4a 323c
00000200: 3f49 b03a 2e55 c53c 7f5a b6bc 0f2a 0dbd
00000210: c48c b5bb 81ba 473d 3a9d 32bb 4f8f cb3c
00000220: e9b2 d8bb bcc0 63bb 2ef4 f2bb 26cd babc
00000230: 3a3b f23b 189c 40bd 9247 8cba 9f68 2abd
00000240: f68e d0bc 9069 cebb af6c 983c 4fa0 253d
00000250: b0eb ca3c 1c5c d93c 6632 66bc 59d1 af3c
00000260: 8b2f 00bd d9bc b3bc 07ae 183d 3507 c3bc
00000270: 644e a2bc e3ff 203c 515a db3c 3754 993c
00000280: fc03 0d3d 7959 94bc 9f80 793c f955 333d
00000290: 36ac d6bb f989 c539 e67c 963c b9b2 2cbd
000002a0: 6d39 b0bc d96c b9bc 83e6 01bc d40a 883c
000002b0: b5bd a23c 16b2 98bc dbf9 dfbb e16d c33c
000002c0: ba8e 5abc f35a f23a 4fd1 353d 43df dbbc
000002d0: 4eb7 09bc 69c1 723c 53f0 a63c 73e8 8dbc
000002e0: 5607 2a3c 9d61 97bc 91f0 e93c 8fb3 303c
000002f0: 29cb adbc e127 623b b9eb 24bd b719 5d3c
00000300: 2991 223d 6092 b13c 1067 753c 6f87 30bd
00000310: 427e 1b3d ce00 9b3c b7f1 95bb fc21 e33c
00000320: 9250 a13c ad5e 87bc b33f 4a3d c011 e63c
00000330: 7849 bcbb 7fe9 70bc 835a 22bd c22b cbbc
00000340: 1b24 9cbc 9867 643c d9ea d637 b834 72bd
00000350: 4019 a53c a6c6 5b3b 858c 20bc f732 973c
00000360: 21d9 1bbd fb02 0dbb 75ae 2bbc 989f 72bd
00000370: 3114 29bd 6812 b03c c272 8fba ef99 b83c
00000380: 5624 073c 6ec4 1c3d a24b e53c 763e ffbb
00000390: 4b5f c2bc e2df 0dbd 7f17 fdbb 4210 6ebd
000003a0: 1019 8ebd d4bf 01bd 3d46 dcbc 93a6 843c
000003b0: fbdf 1abb dbb7 3d3c c8df c9bc 2d36 c83c
000003c0: 6650 9dbb cc6a f8bc fd05 613b bd75 1b3d
000003d0: f7c6 13bb 5d96 ebbc f6f0 e4bc 71a6 633c
000003e0: 9a75 3ebc 251e 1e3d 48fe ef3c 3d69 5ebc
000003f0: 6252 103d eb49 e73b 1db1 573c b148 e8bc
-0.022664148 -0.039381668 0.030434258 0.02436599 0.026528588 -0.010819094 0.038622823 0.012317838
0.017776392 -0.05596013 -0.0009101479 0.02592669 -0.0049029454 0.034671456 -0.041079063 0.027359806
-0.0031323403 -0.0066762804 -0.049689453 0.039112482 0.018435659 -0.041294158 -0.03148521 0.019498557
0.041836023 0.001373149 0.0038833488 -0.03812207 0.011826192 0.031215817 -0.01886067 0.040304918
0.0111774625 -0.036062002 -0.0324626 -0.029763157 -0.030698951 0.0010873785 -0.006749089 -0.02672555
-0.016924815 -0.020964174 -0.026912902 0.019353168 -0.0336821 0.031463757 0.034152057 -0.004930958
0.028347563 0.008396107 0.0060326536 -0.048406016 -0.01223675 0.014940191 -0.010956858 0.004454391
-0.01128831 -0.010238604 -0.0031669762 -0.01931844 -0.010920129 0.020037455 0.03953325 -0.018693253
0.02058228 0.0019646531 0.033510502 0.030511988 -0.034921035 0.005419622 0.0017405903 0.026664611
0.011837358 0.0055473135 0.0014267559 0.0025064638 -0.025982132 -0.035850976 -0.015259703 0.012236273
-0.0370645 -0.0029685202 -0.01597595 -0.023871057 0.0021970428 0.0039131045 0.021340292 5.0986742e-05
-0.009016558 -0.019088214 0.025382712 0.0085147 -0.011545966 -0.037483666 -0.03004942 -0.03749072
-0.014210918 -0.030760877 -0.01657509 -0.051484857 0.039477725 -0.04590221 0.03148114 0.03477129
-0.03574373 0.0059597893 -0.023840515 0.0002006935 -0.048982225 0.04148181 0.030110788 -0.052295845
-0.0037573131 0.0061355727 -0.094912 0.018541655 0.0026389535 -0.007525163 -0.04348234 0.010308353
-0.004714271 -0.026014695 0.025275836 0.026831536 -0.012051298 0.021957567 -0.028090084 0.0108819995
0.0013449563 0.024088468 -0.022259949 -0.03446394 -0.005540462 0.04876185 -0.002725436 0.024848608
-0.0066131246 -0.003475233 -0.0074143624 -0.0228029 0.0073923143 -0.047023863 -0.0010702482 -0.04160368
-0.025458794 -0.006299205 0.018606512 0.040436085 0.024770588 0.026533179 -0.014050102 0.02146213
-0.03129534 -0.021940636 0.03727534 -0.023807148 -0.01981277 0.009826633 0.026776465 0.018716915
0.034427628 -0.01810907 0.01522842 0.04378316 -0.006551291 0.00037677566 0.018370103 -0.04216263
-0.021511758 -0.02263491 -0.007928493 0.016606726 0.01986585 -0.018639605 -0.006835205 0.023856105
-0.013339693 0.001849024 0.044389065 -0.026839858 -0.00840552 0.01481662 0.020378267 -0.017322754
0.010377726 -0.018479163 0.028557094 0.010784998 -0.021215038 0.0034508633 -0.040263865 0.0134949
0.039689217 0.021676242 0.014978185 -0.04309791 0.037962206 0.018921282 -0.004575934 0.027726166
0.01969174 -0.016524637 0.049377155 0.028084636 -0.005746063 -0.014704107 -0.0396371 -0.024801139
-0.019060185 0.013940714 2.5620147e-05 -0.059132308 0.020153642 0.0033535152 -0.0097991275 0.01845692
-0.038048867 -0.002151667 -0.0104786055 -0.05923423 -0.04127902 0.021493152 -0.0010944235 0.022534339
0.008248409 0.038273267 0.027990166 -0.0077894283 -0.02372708 -0.03463734 -0.007723748 -0.058120973
-0.06938374 -0.031677082 -0.026888961 0.01619271 -0.0023632038 0.011579479 -0.02464284 0.024439896
-0.004800844 -0.030324362 0.0034335845 0.03795408 -0.0022549012 -0.028758222 -0.02794693 0.013894663
-0.011624718 0.038602967 0.029296055 -0.013574895 0.035234816 0.0070583723 0.013164786 -0.028354974

to_mean.0.weight f4 [128, 256]
00000000: a4de f4bc 0862 78bd 0570 af3c bc1e 053c
00000010: 39e4 693c 4322 d8bb 6286 333d ff03 3ebc
00000020: e075 1ebd 8b11 97bc 4fd3 8f3c 2ee6 a5bc
00000030: 596e 603d 74bd 52bd 4798 253d 6f07 123d
00000040: da26 24bd ad4a 90bd d9d2 20bd 33ba 7d3c
00000050: a467 da3c 58ba 713d 2d55 8e3c d779 513d
00000060: 63a3 52bd f04c 86bd e7e4 efbc 85fb 5fbb
00000070: 19ed 4fbd 2384 23bd 7731 20bc 5681 8c3b
00000080: 79f2 bebc 5250 b5bc 0255 393d de35 63bc
00000090: b04e 96bb 0076 49bd 9b00 2c3b ee47 d13c
000000a0: d9e7 4f3d baee 04bd dad8 d13c ba6b 54bd
000000b0: 10f6 853d d50b f03c 1f6a b1bc dc20 17bc
000000c0: b182 adbd 6ed5 79bd 50ba 3a3c 002f 27bb
000000d0: b09b a3bc 7622 4dbd 9ab2 a03d 37a0 43bd
000000e0: 4437 53bd 61b3 6fbd 2aff 84bd 8a4a 083d
000000f0: e68c 183d 61b0 0ebd a95b b6bd 202d 3e3c
00000100: 176e 7f3d 0a80 9d3c 0abc 35bd c952 edbb
00000110: 62f7 153d a18d 723d 3393 fcbc 2d6b 223c
00000120: 1225 9bbc 8da0 7abc cb95 5ebd 816a 9cbc
00000130: d7d6 16bd 8ba0 29bc 228c 82bb 7dc1 333d
00000140: 2106 b5bb 3289 89bd 7063 e33c 7a86 e43c
00000150: a392 27bd 2ba5 0bbd 65d4 08bd da3e 8c3d
00000160: aaae 2f3d e00c 5b3d ab8c 65bd 6554 76bd
00000170: dbcc 7e3c 500a 3a3d 5581 633c 86b3 a43d
00000180: 6a6b 25bd 0a67 15bd 67b4 08bd a18c 99bc
00000190: 09a1 4e3d 1a0f aabc 2e03 61bd bcb9 6b3d
000001a0: df1b 473d 68d5 e0bc 416e 273d 6c49 5bbd
000001b0: fe55 54bc 4b05 c7bc d8e4 273c 39f2 babc
000001c0: 8bd6 06bd 66df 3f3d 9d5d 9a3d 82b8 523c
000001d0: 72a0 06bd 2a28 993c acf7 1f3d 181e 62bd
000001e0: f759 64bd a72c 45bc 47fd 4b3c 7963 80bd
000001f0: cada 5abc fef5 7dbd 14d4 afbb 7bd6 41bd
00000200: e015 90bc 7800 7b3b b58a c5bc 0509 863d
00000210: 9ab9 8bbc b3ab d53c 853b 483d 3f2c 4b3d
00000220: ed44 95bc 9b71 0ebc 403c bd3c 7852 66ba
00000230: ad53 6e3d b1c9 133d d6be 42bd 8846 b83c
00000240: 043a de3c 27f2 8d3c c7b1 21bd 926e 50bc
00000250: c5ce 0d3c e33d 323b 0a31 6dbc 652d 503d
00000260: d123 873c ef3d 0fbd dd5c f43c eea8 93bd
00000270: d8a0 e53c 014c 84bc ce3c 1abd f9b5 1bbd
00000280: c369 fb3c 66d9 04bd 5cbb 18bd c259 afbc
00000290: 73b0 68bc ce3a 703a a31e 213d 5121 103b
000002a0: 59a7 ea3c 9a81 0d3d 268c 82bb 589a 03bd
000002b0: 0a54 50bd 0fd8 63bd 19e6 733d 61fd 72bd
000002c0: 414a 3d3d 194b 37bd 10c8 ee3c 90a9 a739
000002d0: 3e4b 13bd 1924 683c 9d02 1abd 4bd0 7fbc
000002e0: ef5c 553d 4d43 8f3c 6920 f03b 2f19 78bd
000002f0: b6b8 db3c 8fa7 5c3d ef55 273d 30fe e33c
00000300: d6ff 85bc f610 3bbd 69ff 16bd 9de5 a5bb
00000310: 0465 ebbc 0afe af3c 14d0 82bb 2bac bcbc
00000320: cf45 5b3d dce5 3dbd 104c bf3c c5e0 aa3c
00000330: 1770 8f3c 53a2 5abc 83a1 013d aca8 503d
00000340: f972 bf3b 7877 6e3d 3c17 77bb 9993 373d
00000350: 6e39 423d 73af 44bd 7769 f23c 7f48 4bbd
00000360: 8072 983c 551a 183d 62b2 93bc 885e 583d
00000370: 35d9 353d bed7 183d df40 3cbd 9013 163d
00000380: 4b40 073d 6d51 74bd 3287 153d ede1 d0bc
00000390: 34ba 91bd 7ebb 0f3d 676e bd3c aa3b 48bd
000003a0: f968 b0bc 18de 31bd a4bf 4e3d 99d8 3abd
000003b0: fa77 153c d587 883b 384b fbbc c114 74bd
000003c0: cd31 b7bc 4e0a 613d 42e2 01bd 3fa0 923c
000003d0: 90da 81bb d045 c33c 9711 2a3d 5e1d 41bd
000003e0: a6df 94bb bcd4 5bbd f604 4ebd deb3 82bd
000003f0: 8006 ffbc ca19 183d da3d d53b 83f4 62bd
-0.02989132 -0.060640365 0.02141572 0.008125003 0.014275604 -0.006595881 0.04382933 -0.011597632
-0.038686633 -0.018440982 0.017556814 -0.02025136 0.054792736 -0.051450208 0.040428426 0.03565162
-0.040076114 -0.07045493 -0.03926358 0.015486288 0.026660748 0.059015602 0.0173746 0.051141586
-0.05142535 -0.065576434 -0.029283954 -0.0034177017 -0.050763223 -0.039920937 -0.009777418 0.004287879
-0.02330898 -0.022133026 0.045247085 -0.013867823 -0.004587017 -0.0491848 0.0026245478 0.025546994
0.050758217 -0.03245423 0.025616098 -0.05186055 0.06541073 0.029302517 -0.021657048 -0.009224143
-0.08472193 -0.060994558 0.011396959 -0.0025510192 -0.019971699 -0.050081693 0.078465655 -0.047760215
-0.051566377 -0.05852068 -0.06493981 0.03327421 0.037243746 -0.034836177 -0.089042015 0.011607438
0.06236085 0.019226093 -0.04436878 -0.007242535 0.036612876 0.0592171 -0.030831909 0.009913248
-0.018938575 -0.015297067 -0.054342072 -0.019093754 -0.03682598 -0.010353218 -0.0039839903 0.043885697
-0.0055244123 -0.06715621 0.027757376 0.027896155 -0.040911328 -0.034093063 -0.03340568 0.068479255
0.042891182 0.053479075 -0.056042355 -0.06013908 0.015551771 0.04541999 0.013885816 0.08042054
-0.04038564 -0.03647522 -0.03337517 -0.018743815 0.050446544 -0.020759154 -0.054934673 0.057550177
0.048610564 -0.02744551 0.04087663 -0.053536817 -0.012959955 -0.024294516 0.010247432 -0.022820579
-0.032919448 0.04684391 0.075373866 0.012861373 -0.032867856 0.01869591 0.039054558 -0.05520448
-0.05574986 -0.012034572 0.012450523 -0.06268973 -0.013357827 -0.062002175 -0.005365858 -0.047323685
-0.017588556 0.003829984 -0.024113992 0.06544689 -0.017056275 0.02608285 0.048884887 0.049602743
-0.018221343 -0.008694078 0.023100019 -0.00087860925 0.05818527 0.03608102 -0.047545277 0.02249457
0.027127273 0.017327381 -0.039476182 -0.0127216745 0.008655255 0.0027197532 -0.014477024 0.05082454
0.01649657 -0.034971174 0.029829437 -0.07209955 0.028030798 -0.016149523 -0.037655644 -0.03801534
0.03069008 -0.03243389 -0.037288055 -0.021405105 -0.014202225 0.0009164036 0.039335858 0.0021992514
0.02864425 0.034547426 -0.003983992 -0.032129616 -0.050861396 -0.05562597 0.05954561 -0.059323672
0.046213392 -0.044749353 0.029148132 0.00031979056 -0.03596043 0.014168763 -0.03760015 -0.015613626
0.05209058 0.017488146 0.0073280823 -0.060570892 0.026821475 0.053870734 0.040853437 0.027831167
-0.016357344 -0.045670472 -0.03686467 -0.0050627724 -0.028734691 0.02148344 -0.00399209 -0.023031315
0.05353337 -0.04636179 0.0233517 0.020859132 0.017509503 -0.013344365 0.03164817 0.050942108
0.005842563 0.058219403 -0.0037703058 0.044818494 0.04741805 -0.048018884 0.029591305 -0.049629685
0.018609285 0.037134487 -0.018029395 0.052824527 0.044396598 0.037315123 -0.045960303 0.03663975
0.0330203 -0.059647966 0.036505885 -0.025498355 -0.071155936 0.035090916 0.023123933 -0.048885025
-0.02153443 -0.043424696 0.05047573 -0.04561672 0.009122843 0.004166583 -0.030675516 -0.059590105
-0.022362614 0.054941468 -0.031709917 0.017898677 -0.0039628223 0.023837 0.04152068 -0.047147147
-0.0045432625 -0.053669676 -0.0502977 -0.06381963 -0.03113103 0.03713397 0.0065076174 -0.055408966

to_mean.0.bias f4 [128]
00000000: d326 2b3d d999 56bc de0d 9a3c 6409 62bd
00000010: 71dd 15bd 3863 a5bc 5675 ec3c 2e01 823c
00000020: 29b3 e3ba c6cf 8b3d 74f0 2dbd eb37 50bd
00000030: 5b8b 09bd 35c7 3d3d 923e 253c c6f0 90bd
00000040: ecb4 683d 7709 e0bb 9c90 ea3c 54ea 6ebd
00000050: 12ba 973c 69d2 53bd 42d1 a03c 4bb5 7f3c
00000060: df6f 5bbd 3a84 e43c cc56 a8bc 7058 3f3d
00000070: 2830 113d 3ba8 30bd 5ab1 8ebb 4fee 613d
00000080: 4e5a fdbc 336a b7ba a289 40bd 4c1a e3bc
00000090: 6d24 ea3c 1d59 24bc abbf 70bc 7d76 3ebd
000000a0: 6b21 95bc 3ece b43d 2531 65bd e915 f4bc
000000b0: 75c9 f53c 8f5e 963c 9fb6 ee3c e49c 463d
000000c0: f0d0 aebd a165 df3b b485 223d 05ad 68bc
000000d0: f806 323d f08a 1dbd bc6f 08bd 21d5 02bd
000000e0: 236d cc3c c78f 7bbd 2762 ec3b 605e 53bc
000000f0: 31b3 553d b3c8 15bd 9eaf 12bc 560b 4c3d
00000100: 6dd0 59bd 64b7 ff3c 5d13 243d 27f0 30bd
00000110: 9d64 f6bc 9229 213d 5255 c33a 6c1c 43bc
00000120: 2723 153d 6578 87bc d975 35bd 0b36 6e3c
00000130: 7665 85bd 4827 febc 7023 863c 6061 08bd
00000140: 7a73 553d ad96 f23c ca15 173d 6a9c 8bbc
00000150: 30f1 dc3c d531 31bc af0d 6c3a ea77 debc
00000160: db86 f63c 8150 ad3a cdda 213c 2ac3 89bc
00000170: cb86 6cbd 618b 1bbd 8101 b23c 9044 063d
00000180: 7554 973c 0186 55bc 295d babc 53ec 653d
00000190: 2672 30bd 2d9b 313d 9328 f9bc 04bb 563d
000001a0: 22b5 a53b 2c25 11bd 467a e6bb 4fc5 6dbd
000001b0: 162c 843d 8aa6 883d 3d47 253d 3184 61bd
000001c0: 4031 d03b 2cdb 2fbd c55c 7dbc 24e3 903d
000001d0: d584 d53a 0374 84bd 7414 c6bb 0aa6 d53c
000001e0: 4ddc dd3c b584 25bd f41a 283c 7c35 183d
000001f0: 22f1 ed3b 478d 09bc 00f0 1c3d c97e 713d
0.041785073 -0.013098204 0.01880544 -0.055184737 -0.036588136 -0.020188913 0.028864544 0.015869703
-0.001737212 0.06826739 -0.042465642 -0.050834578 -0.033580165 0.046332557 0.010085719 -0.07077174
0.056813166 -0.006837066 0.028633408 -0.05832894 0.018521342 -0.051714335 0.019631032 0.015607188
-0.053573485 0.027895082 -0.0205492 0.0467152 0.035446316 -0.043129187 -0.004354638 0.05515891
-0.03092685 -0.0013993442 -0.047006257 -0.0277225 0.028581822 -0.010031012 -0.014694135 -0.046499718
-0.018204411 0.088284 -0.05595507 -0.029795604 0.030003289 0.018355636 0.029139815 0.048489466
-0.085359454 0.006817535 0.03967829 -0.014201407 0.043463677 -0.03846258 -0.033309683 -0.031941537
0.024954384 -0.061416414 0.007213849 -0.012900919 0.052172843 -0.036568355 -0.008953003 0.0498155
-0.053177286 0.031215377 0.04005753 -0.043197777 -0.030077273 0.039346285 0.0014902747 -0.011908632
0.036410477 -0.0165369 -0.04430184 0.014539252 -0.06513493 -0.03102459 0.01637432 -0.03329599
0.05211208 0.029612863 0.036886014 -0.017042357 0.026970476 -0.010815104 0.00090047246 -0.027156789
0.030093601 0.0013222845 0.009878826 -0.016816694 -0.057745736 -0.03797472 0.021729233 0.03278023
0.01847289 -0.013032437 -0.0227495 0.05613358 -0.04307761 0.043360878 -0.030414855 0.052424446
0.005056993 -0.03543584 -0.007033619 -0.058049496 0.06453721 0.0667239 0.04035114 -0.05505771
0.0063535273 -0.042933628 -0.0154640125 0.07074574 0.0016290197 -0.0646744 -0.0060449187 0.02608015
0.027082587 -0.040409762 0.010260332 0.03716038 0.0072614113 -0.0083955 0.03831482 0.058958802

to_mean.2.weight f4 [18, 128]
00000000: 2c97 763d 2515 2abd ebc5 183c 3cda 95bd
00000010: 5f9b dcbb baa7 d83c 5da5 8ebc bbfe 7a3d
00000020: 6252 413d 824c 243d 33fe cdbd 5fd4 9abd
00000030: 7bca 883d 6abf d43c ee78 64bd 4aa9 ad3d
00000040: 9f76 83bb 3ae8 3c3c 05eb 92bd 828f 623d
00000050: 86c7 a6bd ef98 b13b 2dde 083d 4df1 4ebc
00000060: dfd3 9f3c 836d 40bd b32a f8ba 607e a2bd
00000070: f8eb 07bd c499 21bc 7cc2 03bd bf9c a5bc
00000080: 96f0 053c 042e c03c 8dad 813d 5d36 913d
00000090: 7086 803d 3aa8 52bd 6991 563d a515 343d
000000a0: b9c5 1abd a89d 5d3c 9b9a 8abd 52fb edbc
000000b0: ba6e b3bd a7dd 593d 0151 143d 49b0 8bbd
000000c0: 244e 693d 672a 253d b4f3 653d 518e 8c3d
000000d0: 9e74 a03c 5c2a 88bd 482b 34bd 8a95 9a3d
000000e0: 3dcd 89bd d232 ce3a c3cf a03d e01f bbbb
000000f0: 6831 3cbd c091 b23d 0df0 85bc 75b7 7dbd
00000100: b4c7 bfbd 6003 cd3c 2d2e 9a3d 967d 94bd
00000110: db38 1abd bfd9 72bd 438d 8b3d da45 a23d
00000120: 1d87 52bc a5c3 473c cc7e a13d 8197 92bb
00000130: 795b 93bd 51ff 8abd 2b6a 333d ed93 f3bb
00000140: 530d f53c 1562 3cbd 77f9 74bb d200 133d
00000150: 4847 cdbc 0fc8 12bd 1685 45bd 26c2 c23d
00000160: 448c 39bd 3342 6bbd 777f ea3c 445b d5ba
00000170: eb3b 6f3c 9603 89bd a0d4 613d 85ce b5bd
00000180: 8dfc 71bd ac42 38bd 8c74 33bd f726 093d
00000190: d8d3 443b 0586 24bd 6716 19bd 794d 8eba
000001a0: 612c cebd dc40 73bd 642a 54bd 6cc7 c7bc
000001b0: 351a 173c 7a60 683c 32ab 16bb 1baa 93bd
000001c0: f765 6abd fcd7 e5bc a04a b3bd acec 7a3c
000001d0: 43e1 963d 06cb 9b3c d213 86bd 521b 853d
000001e0: 2c96 193d b95a 64bd 1ab6 623d 617c 23bd
000001f0: d4b7 b53c 051d 2cbd 2ad0 9cbd 237b 5fbd
00000200: 156c 033d d256 213c 8193 583d 8341 bcbd
00000210: 4962 6ebc 9ac9 bb3d 494d 96bd f2ac d33d
00000220: da2f 553d 6889 bdbc cf97 a7bc bff5 893d
00000230: bfb3 793d 6f5b 843d e337 573d 36b2 ef3c
00000240: 98e3 e33d 4356 e63b 317f 5f3d 6da6 a23b
00000250: ed5f 833c 8c0d 25bb 03ca a6bc fb4f c3bd
00000260: 1a55 89bd d9e9 bcbc 0445 c8bd c18c a63c
00000270: b505 6cbd abf5 35bd 68d8 c5bd a5c9 083c
00000280: 4725 81bd e473 83bd d2b0 1d3d 498f 013e
00000290: 25d9 943d c7f2 193b 763e d3bb eb5b 933d
000002a0: e268 f13c 26c8 593b 7b13 8f3d 4326 233d
000002b0: de91 243d 735e 8ebd b232 cfbc 7038 cdbb
000002c0: 7201 2cbc 7347 ad3c 129f e6bb 1c08 babd
000002d0: c3a2 0bbd f3cb b3bc 2207 6f3c 5e3c 443d
000002e0: 2bf5 10bb 409b 053c 2ffd 713d 80a5 b03c
000002f0: d392 87bc 1c69 5cbd 97ed ba3c 5dec 1cbd
00000300: 2aa8 47bc d9a4 ad3d 2577 8abc 27d5 58bd
00000310: a4b4 e43c 12fe 92bd 2343 8f3d ccf4 713d
00000320: 9ba8 a63b 0c89 8e3d 02c2 15bd 6606 6bbd
00000330: 6055 86bd 199b 9abd 5f3d 7fbd 87b3 383d
00000340: eebf 0b3d 5695 7b3d ca54 7f3d 9fc1 b0bb
00000350: ee40 b7bd 2c2e 983d 89cb 6dbd 2e58 42bd
00000360: a3c5 a2bd 4384 2ebd 9236 36bc 89d1 4dbc
00000370: 9fa2 b53d 3a3a bebd be66 dcbc 9061 56bd
00000380: 8c71 7dbd 503d 32bd 3289 b3bd 185c e13d
00000390: 1854 cb3d 238c 5abd 8c4a 58bd 8e95 633d
000003a0: 1503 15bc dc1f 55bb 790e a4b9 7d09 943d
000003b0: cf35 523b 190b b63d 5df0 7b3d d666 96bd
000003c0: 7b9d 70bd 9b0f 9cbd f713 10bd 3b8e 83bd
000003d0: 81bd 00be ac28 853c e348 5b3c 39ea 243d
000003e0: 1683 ac3d cf52 afbc aaaf 653d 60ba b5bb
000003f0: 3d46 79bd 6f7b 5a3c 40ec d23d dbef d5bc
0.060202762 -0.04152407 0.009324531 -0.073170155 -0.006732389 0.026447166 -0.017412836 0.061278086
0.047197707 0.040112026 -0.1005825 -0.07560038 0.06679245 0.02597018 -0.05577939 0.08479555
-0.0040119435 0.0115299765 -0.07173733 0.05531264 -0.08143525 0.0054198424 0.03341501 -0.012630773
0.019510208 -0.04697944 -0.0018933624 -0.0793426 -0.03318402 -0.009863321 -0.032167897 -0.020216344
0.008175036 0.023459442 0.0633193 0.07090447 0.06275642 -0.051429965 0.052384768 0.043965954
-0.03778622 0.013526358 -0.0676777 -0.029050503 -0.08761354 0.0531899 0.036210064 -0.06820733
0.056959286 0.04032364 0.056140617 0.06863082 0.019586857 -0.066487044 -0.04398659 0.075480536
-0.06728599 0.0015731698 0.078521274 -0.005710587 -0.045945555 0.08719206 -0.016349817 -0.061942536
-0.09364262 0.025026023 0.075283386 -0.07250516 -0.037651878 -0.05928969 0.06814053 0.079234794
-0.012849596 0.012192641 0.07885513 -0.004473627 -0.071951814 -0.06786979 0.04380242 -0.0074334056
0.02991358 -0.045991976 -0.0037380138 0.035889454 -0.025058404 -0.035835322 -0.048222624 0.09509687
-0.045299783 -0.05743618 0.028625233 -0.001627781 0.014601688 -0.06690137 0.055134416 -0.08877281
-0.05907874 -0.04498546 -0.04381232 0.033484425 0.0030033495 -0.040166873 -0.03737488 -0.0010856829
-0.10067058 -0.059388027 -0.05179824 -0.024387084 0.009222557 0.014183158 -0.0022990224 -0.072101794
-0.057226148 -0.028057091 -0.08754468 0.015315216 0.07367184 0.019017708 -0.06546749 0.064993516
0.03749673 -0.055750582 0.055349447 -0.03991354 0.022182383 -0.042019863 -0.07656892 -0.05456079
0.032085497 0.00984736 0.052875046 -0.09192183 -0.0145498 0.09169312 -0.0733896 0.10335721
0.052047588 -0.02313681 -0.02045813 0.067363255 0.060962435 0.06462752 0.052543532 0.029259782
0.111273944 0.007029326 0.05456466 0.004963687 0.016036952 -0.0025185077 -0.020359999 -0.095367394
-0.06705685 -0.023060726 -0.09778789 0.020330789 -0.05762263 -0.04442374 -0.09660417 0.008348857
-0.06305938 -0.06418589 0.038498707 0.12652315 0.072679795 0.0023490654 -0.006446655 0.07195266
0.029468957 0.003323087 0.069861375 0.03983141 0.040178172 -0.069516085 -0.025292728 -0.0062628314
-0.010498391 0.021152234 -0.0070380056 -0.09083578 -0.03409077 -0.021947837 0.014589103 0.047909133
-0.0022118788 0.00815469 0.059079345 0.021563292 -0.016549503 -0.053811178 0.02281837 -0.03831135
-0.0121860895 0.08478708 -0.016902516 -0.052937653 0.027918167 -0.07177366 0.06995227 0.059071347
0.0050860173 0.06959733 -0.036561973 -0.05737915 -0.06559253 -0.07549114 -0.062314387 0.045093086
0.034118585 0.061421715 0.06233672 -0.005394175 -0.08947931 0.074306816 -0.058055434 -0.047447376
-0.079478525 -0.042606603 -0.011121409 -0.012562164 0.08868908 -0.092884496 -0.02690446 -0.052339137
-0.061875865 -0.043515503 -0.08766402 0.110038936 0.09928149 -0.0533563 -0.05280547 0.05556255
-0.009094973 -0.003252021 -0.000312913 0.07228372 0.003207553 0.088888355 0.061508525 -0.07343833
-0.058743935 -0.07620164 -0.03517529 -0.06423613 -0.1257229 0.016254745 0.013384077 0.040262435
0.0842344 -0.02140179 0.05607573 -0.0055458993 -0.060858 0.013335093 0.10298967 -0.026115349

to_mean.2.bias f4 [18]
00000000: 677b 3fbd 3ff4 623d 5503 723d 92a4 0ebd
00000010: d783 09bc 8949 4cbd 1eb2 6dbd e385 fcbc
00000020: a456 8b3c 833e 79bd ff97 8ebd 694c d2bb
00000030: 42c1 893d ffef 7bbd e0a1 abbd 9c3a 6a3c
00000040: 1247 663d 0d7e 453d
-0.046748545 0.055408712 0.05908521 -0.034824915 -0.0083932495 -0.049874816 -0.058031194 -0.03082556
0.017009087 -0.06085063 -0.06962585 -0.0064178 0.06726314 -0.061508175 -0.083804846 0.0142962
0.05622012 0.048215915

to_value.0.weight f4 [128, 256]
00000000: d336 59bc 29f1 0e3e 3ea6 05be 9829 19bd
00000010: 657a 973d b7c9 163d dc73 24bc 7790 2bbd
00000020: 949b 94bd 14e8 0d3e 0a82 063b be7f 803d
00000030: 3d6f b0bb 4289 ca3a d338 8ebd 9c66 e43c
00000040: 906e d73c 1d77 e6bc 1ace f53d 6ad7 653d
00000050: d5ef 96bd 3c6d 3b3e c933 823c a8a7 e63a
00000060: c89f c63c dfd4 14bd 7e43 173d 5556 09bd
00000070: 9855 1fbd 02ec 503c b7fe e83b fd20 e9bd
00000080: f913 5fbd c180 9b3c edda 973d 738e 823d
00000090: 2a7e 8f3d 280b c13a 23e9 a23d abfc 0f3b
000000a0: a1de 173c d24b 20bc 3a44 e43d 9731 9abc
000000b0: f5d8 393e 0a7d 173d ba05 51bc 30b9 a23d
000000c0: 99fc e73c b11f 40bc 017a ed3d 4201 9f3d
000000d0: 2744 253e f24b 4f3c 4553 82bd c274 d8bd
000000e0: de89 e5bb f16e fc3d 8c46 223d 2592 e63d
000000f0: 2515 a53d e59a c1be 5926 833d ec99 c1bd
00000100: 42e8 09bd 0a6a fb3d 5af7 ab3d 4b92 8dbd
00000110: 3cba 5cbd 2ac7 9a3d 8cad 1e3d 05d9 4b3d
00000120: 79e0 263d 8346 72be e926 883d 4138 4e3c
00000130: 7e6c 0bbd 2173 01bd 7a19 313c e7cf dd3a
00000140: 399b 0fbc ba7f ca3b b272 573d 0443 f03d
00000150: 1b5f 603d aab9 2b39 cc1b 2d3d bea3 253e
00000160: 19f2 043d 9b03 273d efb9 813c 0f95 0e3d
00000170: 2de1 873d 82fe a4bd 12c7 4a3d b67a fa3d
00000180: 665c 72bb 3715 e2bc 6833 58bd b6b3 8abd
00000190: 8dc2 63bd 4897 26bd b91c 2fbc c10d 28be
000001a0: 7772 fdbc 5e69 013c 55e8 e93c 4267 8b3d
000001b0: af8b 8fbc c9b6 403d 2542 09bd 8faa 34bd
000001c0: 3aa8 72bd f43f 4f3d 2adc 46be 2543 bcbd
000001d0: 83dc 4e3d 79e1 a4bd c932 0a3e f14c 053e
000001e0: 2229 733e 90d8 6c3b 6f73 22bd a435 203d
000001f0: f7e1 4d3c c314 2d3e 2624 bcbd 363b 03bd
00000200: 48ff 24bd 076d 8d3c 60a7 de3d 8e0b 843d
00000210: ddb2 6fbc 19ec 45bd beb6 763d 5c39 0ebc
00000220: a8d3 2f3b c35c ecbd 4ff2 16bc a2a9 9b3e
00000230: 63f9 643d e063 0e3d f85b 9c3c 83f0 68bd
00000240: f6df 113d c1de 4abe a304 13bd 8d32 cbbb
00000250: 8b53 e43c e922 4fbe 8a9c d7bc 71c6 2a3d
00000260: a932 b7bd e86e 82bd 0c17 a63d 3c4a 933d
00000270: 6096 453d 1adf 33bb 9be7 883d f8d4 09be
00000280: 173a d6bb 8751 8abc 9521 25bd c3e0 e83d
00000290: 4d79 bebc 48e7 a33c 66a3 87bc c8e7 c4bd
000002a0: dd6e f5bd 7150 073d f447 53be 5cb7 133e
000002b0: 5d1f 61bd 2725 1ebd 118a 07be 704f 073e
000002c0: bf53 463e 7aad fb3c f927 843d 4854 0a3c
000002d0: 5371 04bb 2696 813d 62ef 2d3c b3d5 69bd
000002e0: c40e 28bd da34 f1bd 61ae 6a3d 48af 3c3d
000002f0: 6cf4 80bc a6c5 b0bb 3000 b43d 45cb 953b
00000300: a588 283c 92c9 2fbd b0de bf3d 4212 683d
00000310: c336 21be b63f 293d dbcc b33c 4440 85bd
00000320: 6d39 863c 5510 8abd 39fa 513c 3f63 d1bc
00000330: 4a3c 6f3c fdac ecbc e472 92bd c19d bd3d
00000340: 23ac 8abc d64a 23ba 02b1 c4bc c979 34be
00000350: ccc6 89bc a751 693d a205 ea3c 7761 053d
00000360: 0ae7 c039 788c bcbb 9ebc a2bd 5cd8 dc3c
00000370: da24 5fbd 658a 7d3a 0c72 25bc ec09 65bd
00000380: 34b6 19bd 007d 433d 90da 2dbd 6a29 babc
00000390: 9e74 4abd b959 aa3d ab15 f43b 67d1 b0bd
000003a0: b0f6 02be 464b 38bb 0cec 24bd c089 ffbc
000003b0: aa03 26bd 9b02 86bd 7762 6dbe f221 5cbb
000003c0: bc7b 533c 76ef ff3d 3cbd 70bc 6e23 efbc
000003d0: 5a55 72ba a214 aa3d feb5 7dbd 2ea6 5c3d
000003e0: 196d ce3d b4ca 283d 4d35 83bd 044d 26bd
000003f0: 7480 4fbc 3a74 83bd b878 d6bc f7aa b1bd
-0.0132577 0.13959183 -0.13051698 -0.037393183 0.07396392 0.036813464 -0.010037389 -0.04188582
-0.07256237 0.13858062 0.0020524287 0.06274365 -0.0053843544 0.0015452283 -0.06944432 0.02788096
0.026297837 -0.02813297 0.120022014 0.056113638 -0.07369963 0.18303388 0.015893834 0.0017597573
0.024246112 -0.036335822 0.0369296 -0.0335296 -0.038899988 0.012751581 0.0071104425 -0.11383245
-0.054462407 0.018982293 0.07414804 0.06374826 0.07006486 0.0014728056 0.079546236 0.002197067
0.009269387 -0.009783702 0.11145826 -0.018822474 0.18149169 0.03698448 -0.012757713 0.07945478
0.02831869 -0.011726306 0.11595536 0.07763912 0.1613928 0.012652384 -0.06363539 -0.10569145
-0.0070049604 0.12325848 0.03961806 0.112583436 0.080606736 -0.37813488 0.064037986 -0.094531864
-0.033668764 0.12276085 0.08396788 -0.06912669 -0.053888544 0.07557519 0.038739726 0.049767513
0.040741418 -0.2365971 0.066480465 0.012586654 -0.034039013 -0.031603936 0.010809297 0.0016922922
-0.008765035 0.006179777 0.052599616 0.11731532 0.0547782 0.00016376996 0.042262837 0.16175744
0.032457445 0.040774923 0.01583573 0.034810122 0.06634746 -0.08056356 0.049506254 0.122304365
-0.0036981343 -0.027598007 -0.0527834 -0.067725584 -0.05560546 -0.040671617 -0.010688 -0.16411497
-0.03093837 0.007898657 0.028553167 0.06806804 -0.017522661 0.047049318 -0.033510346 -0.04410797
-0.059242465 0.0505981 -0.19419923 -0.09192494 0.050503265 -0.08050818 0.13495935 0.13017632
0.2374616 0.0036139823 -0.039660867 0.039113656 0.012566081 0.16902451 -0.09186582 -0.03203889
-0.040282518 0.017263902 0.10871768 0.064475164 -0.014630047 -0.048320863 0.06023287 -0.008680668
0.0026829038 -0.115411304 -0.009213044 0.30402857 0.055901896 0.034763217 0.019086823 -0.056869995
0.035613976 -0.19811536 -0.035893094 -0.0062010945 0.027871868 -0.20228161 -0.02631976 0.041693155
-0.089452095 -0.0636881 0.081098646 0.071918935 0.048239112 -0.0027446211 0.066848 -0.13460147
-0.0065376866 -0.016884578 -0.04031523 0.11370995 -0.0232512 0.020007744 -0.016557407 -0.09614521
-0.11984036 0.0330357 -0.20632917 0.14425415 -0.05496155 -0.03860965 -0.13236262 0.13213897
0.19367884 0.030722369 0.06452937 0.008442946 -0.0020209148 0.06327467 0.010616155 -0.057088565
-0.041029707 -0.11777659 0.057295207 0.0460656 -0.01574155 -0.0053946553 0.08789098 0.0045713508
0.010286485 -0.04291684 0.09368646 0.056658037 -0.15743546 0.041320525 0.021948269 -0.06506398
0.016384805 -0.06741396 0.012816005 -0.02556002 0.014601776 -0.028891081 -0.0715082 0.09258605
-0.016927784 -0.0006229108 -0.024010185 -0.17624582 -0.016818427 0.056962635 0.028567139 0.032563653
0.0003679323 -0.00575405 -0.07946132 0.026958637 -0.054478504 0.00096718065 -0.010097992 -0.055917665
-0.037527278 0.04772663 -0.042444766 -0.022724826 -0.04942762 0.083178945 0.007448872 -0.0863369
-0.12789416 -0.0028121038 -0.040264174 -0.031193614 -0.040530838 -0.06543466 -0.23182093 -0.003358957
0.012907919 0.124968454 -0.0146935545 -0.029191699 -0.0009244286 0.08304717 -0.06194114 0.05386942
0.100794025 0.041208938 -0.06406651 -0.04060079 -0.012664903 -0.06418653 -0.02618061 -0.08675187
