saves/save2_1_23/save9_AllDofs_bigNN_NewObs_22500.pth (torch, 942043 bytes, 11 tensors)

shared_net.0.weight f4 [512, 67]
000000 2a a8 c2 be ed 4f be 3d 66 57 da bc 0f 79 a8 bd
       -0.38018924 0.092925884 -0.026653003 -0.08226215
000010 0a fb 85 bd 49 31 d9 bd 34 b9 46 be dd 3e 31 3d
       -0.065420225 -0.106051035 -0.19406587 0.04327284
000020 26 fe 22 be 39 3f b0 3d 13 bd 82 3e 32 0a c6 be
       -0.15917262 0.08605809 0.25534877 -0.38679653
000030 6f 69 9d be bf bd 41 be 2c d7 aa 3e 29 96 a3 3e
       -0.30744502 -0.18920039 0.33367288 0.319505
000040 ca 32 2b 3f 06 f0 52 3e 6c e7 0b be cc a6 0c be
       0.6687437 0.20599374 -0.13662499 -0.13735503
000050 26 09 c3 be d6 26 c0 bd aa 4b 67 3d fa 50 cc bd
       -0.38092917 -0.09382407 0.056468643 -0.099763826
000060 30 0d 3d 3e 84 7d b4 3e ff bb 95 3c 85 cf b8 3c
       0.18462062 0.3525201 0.01827812 0.02255989
000070 3b 5a 3d be 2c a5 eb be 2d 90 d3 bc 74 9a 1a 3d
       -0.18491451 -0.46024454 -0.025825584 0.037744954
000080 21 34 0a 3a 54 24 4f bd 60 81 bb bd 6e 87 9f 3c
       0.000527205 -0.050571755 -0.09155536 0.019473758
000090 44 f0 f9 3c 89 76 fa 3c 89 9b e7 3c a1 d4 00 bd
       0.030510075 0.0305741 0.028272407 -0.03145278
0000a0 d5 7f 80 3b 8e e0 9c 3d 5c 02 87 3c 61 a2 54 bd
       0.0039214888 0.07660018 0.016480617 -0.05191267
0000b0 37 e4 a2 3c bf 4a a4 3b 1a b0 b3 3d e8 f9 ea 3d
       0.019884212 0.0050137932 0.08773823 0.11473447
0000c0 60 e4 53 be 19 cd 1d be 08 c1 4d 3e 31 9b 20 3e
       -0.20692587 -0.1541027 0.20093167 0.15684201
0000d0 b8 de 0d 3e 97 55 37 bd 21 54 ce 3d d7 1b f0 bd
       0.13854492 -0.04475936 0.1007464 -0.1172406
0000e0 1e 43 6f be 11 2b 9d bd 72 dc cd bd 0e dd 04 be
       -0.23365447 -0.0767423 -0.10051812 -0.1297495
0000f0 cc a0 a3 3d 6b 2f 80 3d df dd 50 bc e7 65 3f 3e
       0.07989654 0.06259044 -0.012748211 0.18691216
000100 df ed 3d 3d d9 c5 15 be 5e 7d b7 3d 38 85 09 be
       0.04636943 -0.14626254 0.08959459 -0.13429725
000110 88 43 41 3e 94 11 45 3e 4e 67 49 bd 38 1d f7 bd
       0.18873417 0.19244987 -0.049170785 -0.1206612
000120 8d 4b 1f 3e 40 4f fe 3e 61 7f 01 3e 41 41 95 3d
       0.15556164 0.49669838 0.12646247 0.07287837
000130 6d 0a 8a 3b 24 3b 01 bf a1 7d 2a bd bd 1e 80 be
       0.0042126686 -0.50480866 -0.041623715 -0.2502345
000140 bd 77 06 be 34 8d 04 3b bb 8d 01 be 96 c6 33 be
       -0.13131614 0.0020225765 -0.12651722 -0.17556223
000150 4f 01 dd 3d 97 75 55 3b a2 3c b9 bc 10 a2 81 bd
       0.10791265 0.003257131 -0.02261192 -0.06329739
000160 e4 f3 34 bd 0e 7c e5 3d ab 57 75 3d fc a6 10 be
       -0.044177905 0.11205302 0.05989806 -0.141262
000170 43 9f fb 3c fe 6d 85 bc 5c ad 52 be d5 70 4e be
       0.03071559 -0.0162878 -0.20573944 -0.2016023
000180 a4 e1 e4 3c 1b 38 36 3c a0 3f bf 3b e6 49 42 3c
       0.027939625 0.011121775 0.005836442 0.011858439
000190 00 6a 54 3d 97 81 d2 3c 2c 3c c6 3b 2a 63 e6 bb
       0.051858902 0.025696559 0.0060496535 -0.0070308642
0001a0 c1 c4 05 3b 46 68 ec bb db 42 fd 3b fa 5b b4 bd
       0.0020411464 -0.007214579 0.007728917 -0.08806606
0001b0 e1 4f be 3c 7e ff 2c bb 9a 27 29 bd 05 4f c6 3c
       0.023231449 -0.0026397402 -0.041297533 0.024207601
0001c0 3d 91 c2 bc fd 51 85 3d c8 34 49 3d d7 61 13 be
       -0.023750896 0.06509779 0.0491226 -0.14392792
0001d0 c2 28 c3 3c e2 71 26 3c b6 49 03 bd 11 9a 2d 3d
       0.023823146 0.010158988 -0.032052718 0.042383257
0001e0 e7 92 b1 3d da 21 04 bc f0 aa ab ba 04 55 ee bc
       0.086705975 -0.0080647115 -0.0013097208 -0.029093273
0001f0 9c db 01 be 49 35 9d ba aa 8f 99 bd 37 84 2c 3c
       -0.1268143 -0.001199403 -0.07498105 0.010529569
000200 af 8b 1f bb 3b cc 46 be 0d f4 7c 3d ad 02 0f 3d
       -0.0024344733 -0.19413845 0.061756182 0.03491466
000210 d5 8c 49 be 8e 98 77 bd 32 35 b0 bd 0a 5a b9 3d
       -0.1968263 -0.06044822 -0.08603896 0.09050377
000220 f7 14 d4 3d 22 b0 3b 3e 00 84 0e 3d 9e ec 4a 3e
       0.10355561 0.18328908 0.034793854 0.19816825
000230 94 97 29 3e c2 1e f6 3d 58 52 f0 3d 3a 3b 52 bd
       0.16561729 0.12017585 0.11734456 -0.051326014
000240 24 c6 75 bf f2 13 60 bf 9d 2e 55 3e 7a cc 98 3d
       -0.96005464 -0.87530434 0.20818563 0.07460876
000250 b4 8e 8e 3d 20 bf 53 be ab 6a 15 be 8c 79 29 be
       0.06960812 -0.20678377 -0.14591472 -0.16550273
000260 01 28 b9 bd 79 d4 bf 3d 5b db 14 3e cd 2f ca bd
       -0.09040833 0.09366698 0.14536802 -0.098723985
000270 ee b7 b4 3d 03 ef 97 3d fb fc 9c bd 6b 24 ea bd
       0.08824144 0.07418635 -0.0766544 -0.114327274
000280 f8 c0 f0 bd 83 6b 17 3e a8 d9 82 bd d0 08 8a be
       -0.11755556 0.14787106 -0.06389171 -0.26959848
000290 4e d4 58 bb e6 93 0d bd 92 68 e1 bb e1 b2 84 bc
       -0.0033085528 -0.034564875 -0.006878921 -0.016198577
0002a0 c0 95 2e 3c bd 92 12 3c c3 3a 0a bc 21 0b ba bd
       0.01065582 0.008946118 -0.008436861 -0.09084154
0002b0 61 47 f6 bc 70 c1 ba 3c 68 fe 0b 3d 15 50 2f bb
       -0.030063333 0.022797316 0.034178168 -0.0026750613
0002c0 b6 20 e9 ba d0 1f a0 3c 80 f5 e8 ba 0a a7 6a 3c
       -0.0017786238 0.01954642 -0.001777336 0.014322052
0002d0 ac c8 f9 bc 2e 6b 9d 3c 83 92 00 3e a2 33 25 3d
       -0.030491196 0.019216146 0.1255589 0.040332444
0002e0 5d 6b 06 3d 5b 47 bd 3d 69 1a a9 bc 9f 34 08 bd
       0.032817233 0.092421256 -0.020642476 -0.03325331
0002f0 c2 a3 1b be 07 e4 e0 3b 54 d6 05 3e a7 b8 0a 3e
       -0.15199187 0.0068631205 0.13070041 0.13547002
000300 2d b4 0e be 75 c2 8a bb 75 38 b2 bd 61 ad 49 bd
       -0.13935919 -0.004234607 -0.087021746 -0.049237613
000310 c3 31 b9 bd ac e6 ce 3e 5a 3c 82 bd 0f 9b 19 be
       -0.090426944 0.40410364 -0.063591674 -0.15000556
000320 34 30 db 3d 50 d7 9b 3c fa 79 0d bc 5c 2e 47 3c
       0.107025534 0.019023567 -0.0086350385 0.012157049
000330 13 50 94 3b 4f 55 6e 3c 97 4a 1b bd 30 b9 e7 3d
       0.004526147 0.014546706 -0.03791293 0.113146186
000340 bd e8 89 3c 5f b9 1c bb 39 a2 d8 3c 83 ba 69 3d
       0.016834611 -0.00239142 0.026444541 0.057062637
000350 ce 23 04 3f eb e2 d5 3c e3 f2 ac 3d 89 cd b8 3d
       0.51617134 0.02610918 0.084447645 0.09023578
000360 b6 36 7b be 95 90 b8 3d 21 80 95 3b 38 9c ab be
       -0.2453259 0.09011952 0.0045623933 -0.33517623
000370 ec 20 1a bd 07 e1 3f bd fc 59 33 3e f8 c6 7a bc
       -0.037629053 -0.046845462 0.17514795 -0.015306227
000380 47 30 d1 be 4a 21 c4 3e c9 e9 47 be 91 72 8a 3f
       -0.40857145 0.38306648 -0.19522776 1.0816213
000390 24 70 06 be 28 91 7b 3e e2 3f 03 3e 9a f5 fc 3c
       -0.13128716 0.24567091 0.12817338 0.03087883
0003a0 9b 1e 82 3d d4 45 8e 3c af 1e 06 3c b4 f4 99 bc
       0.06353494 0.017367281 0.0081860265 -0.018793441
0003b0 ce 62 2a 3c dc 76 8a 3c 62 16 87 bc 62 c2 0c 3c
       0.010399533 0.01690238 -0.016490165 0.008591266
0003c0 a6 33 14 3b 4b 9a 9e 3d 6c 62 9d 3c ad 2d 91 3c
       0.0022613793 0.07744273 0.01921197 0.017721975
0003d0 cd 20 a4 bd 7a 7c 0c be a1 0b c8 bb bb 9a 1d bd
       -0.08014069 -0.13719359 -0.006104902 -0.03847764
0003e0 9b 31 05 bd 3b e8 1f be 7a 69 28 be 72 9b 8c bd
       -0.03251801 -0.15615933 -0.16446486 -0.06865586
0003f0 69 fb d0 3d 10 f7 d9 3d b4 f8 23 3c c3 4f 30 3d
       0.10204203 0.106428266 0.010008026 0.043044817

shared_net.0.bias f4 [512]
000000 1f d6 59 3d c5 77 10 3d e8 33 9d 3d 49 80 65 3e
       0.053182717 0.03527047 0.07675916 0.22412218
000010 5f 4c 4a bc fe 77 94 bd d1 61 f8 bd 0e 29 a8 3e
       -0.01234731 -0.07249449 -0.12128032 0.32843822
000020 f9 f8 6c 3e 3f bb b0 3c f6 8b b6 3d ae 87 65 bd
       0.2314185 0.02157366 0.08913414 -0.056037597
000030 a9 ba ff bd 22 e3 1a 3e 3c 5e 02 3d e0 6d f0 bd
       -0.124867745 0.15125707 0.03182815 -0.11739707
000040 b3 64 51 be 90 c6 3c 3d 6d f9 f4 3b 9b 04 b7 bd
       -0.2044857 0.0460878 0.007476023 -0.08936425
000050 1a 53 2a bc ae 77 9f 3d 76 7a 91 bc ec dd eb bd
       -0.0103957895 0.07786499 -0.01775859 -0.115169376
000060 77 f3 ce 3c a1 46 1f 3e 7b 97 8d 3e b3 01 04 3e
       0.025262577 0.15554287 0.27654633 0.12891273
000070 c0 f2 2a 3d f4 db 09 3e 83 55 77 be 8e 9f 92 3e
       0.04173541 0.13462812 -0.24153714 0.28637356
000080 e2 20 94 3e a0 e0 06 bc 05 f8 1c 3d e0 98 fd bd
       0.28931338 -0.008232266 0.038322467 -0.12382674
000090 96 12 84 bd f8 37 a8 3d 1a c3 9b 3b d5 0a 92 be
       -0.064488575 0.082138 0.0047534825 -0.2852389
0000a0 f4 f4 47 be 6c b7 a5 bd d4 4b 9f 3b 68 ca 58 3c
       -0.19527036 -0.080916256 0.0048613343 0.013231851
0000b0 48 5b b3 bd b2 d2 38 be 79 22 14 3e ea 66 97 bd
       -0.08757645 -0.18049124 0.14466275 -0.07392676
0000c0 1b e8 f6 bd 12 01 a7 be 92 08 b9 3c 66 55 d2 bd
       -0.12055989 -0.32618004 0.022587094 -0.10270195
0000d0 12 97 fb 3c 74 e1 7c 3e b3 ce 6b bd f4 b8 6a bd
       0.030711684 0.24695379 -0.05757017 -0.05730529
0000e0 16 bf 3b be 12 46 81 3d 9c a1 b6 bd 46 92 a1 3d
       -0.18334612 0.06312193 -0.08917543 0.078892276
0000f0 36 50 7b bd 35 b4 82 3e df ea c0 bd 70 31 39 bc
       -0.061355792 0.25528112 -0.09419798 -0.011303291
000100 4a 2d c2 bd 18 3d 38 bd 5a 9c 93 3d 43 48 e9 3d
       -0.094812945 -0.04498014 0.07207556 0.11390736
000110 21 76 ad 3e ec 29 2c be c6 e5 1a 3e 25 01 28 be
       0.33879188 -0.16812867 0.15126714 -0.16406687
000120 9d 12 06 bd db da 2e bd d7 12 80 3e 7a fa 02 3e
       -0.032732595 -0.042689186 0.25014374 0.12790862
000130 dc 02 b9 bd 44 37 6b 3e 58 98 5e 3e 50 df 24 bc
       -0.090337485 0.22970301 0.21737802 -0.0100630075
000140 6f d9 a2 bd ed 90 b2 3c dc 7e 98 be 37 04 8e be
       -0.079516284 0.021797622 -0.29784286 -0.2773759
000150 37 6a c3 3c ba b6 08 3d 60 3d 08 bd cf 94 23 3d
       0.023854358 0.033377387 -0.033261657 0.039936837
000160 01 c8 81 bd a3 54 3b be 65 53 8d 3d 59 fe 35 3c
       -0.06336976 -0.18294005 0.06900672 0.0111080045
000170 ee 81 69 be 77 52 e0 3c ac c0 28 3e 88 36 82 be
       -0.2280347 0.027383072 0.16479748 -0.2543223
000180 60 57 78 bd 80 ed cb 3d 21 26 8f be 1a 0e 1c bd
       -0.060630202 0.09957409 -0.27958778 -0.038099386
000190 5f 49 92 3d 43 26 93 be 8f 1e 9d 3d 4e a0 0a 3e
       0.07142901 -0.2874013 0.07671844 0.13537714
0001a0 9c c1 9e bd 31 2b 47 be f3 57 f7 3c 70 fa 15 3d
       -0.07751772 -0.1945007 0.030193305 0.03661579
0001b0 3f dd b3 3d 38 68 16 3d 3d 44 02 3e e7 aa a4 be
       0.08782434 0.036720484 0.12721343 -0.32161638
0001c0 e0 6d 0d 3e 0f 4f 2a 3c 21 35 9d 3a df c0 09 3e
       0.13811445 0.010394826 0.0011993983 0.1345248
0001d0 ea f2 09 be 35 9e 20 3e 63 48 bf bd 0c b7 0b 3e
       -0.1347157 0.15685351 -0.093399785 0.13644046
0001e0 5e 71 59 be 15 48 39 be 2c 00 a0 3e 6f 78 fd bd
       -0.21234652 -0.18093903 0.3125013 -0.123764865
0001f0 b3 33 56 be a0 d1 6f 3d ee f8 11 be e8 b7 77 be
       -0.20918159 0.058549523 -0.14255115 -0.24191248
000200 30 53 1a 3e f5 ba ce 3d a8 6e a0 bc 0e e3 d7 bd
       0.15070796 0.10094253 -0.019584015 -0.10541354
000210 67 de cc 3b e6 45 13 3e 80 de c5 3c cf 6d 05 bc
       0.0062520984 0.14382133 0.024153948 -0.008143856
000220 d5 13 5e be f9 db 99 bd 35 4f 06 3e 73 9e b0 be
       -0.21687253 -0.075126596 0.13116153 -0.34495887
000230 a6 bb 1f bd 35 21 78 be d4 35 73 3e b0 4c 81 bd
       -0.038997315 -0.24231417 0.23751003 -0.06313455
000240 a6 2d 39 bd 5c b1 33 be fe a8 19 bd 6e 98 88 be
       -0.04520955 -0.17548126 -0.03751468 -0.26678795
000250 e6 cb 6d 3e fb ac b8 bb de 01 8d bd bb 45 6f be
       0.23222312 -0.0056358553 -0.06885122 -0.23366444
000260 82 df d5 3d 89 2c 81 be 0b 7e 96 bd 21 61 50 be
       0.10443021 -0.2522929 -0.073482595 -0.20349552
000270 e9 97 fd b9 03 e8 63 be 8e e7 1d be e2 95 9f 3b
       -0.00048369102 -0.22256474 -0.15420362 0.0048701623
000280 50 47 38 3d e6 1a 73 3e 09 f7 11 3e 80 21 13 be
       0.044989884 0.2374073 0.14254393 -0.14368248
000290 01 d1 77 be 05 b6 a5 3c e6 d2 fd 3c 2f fd ef 3d
       -0.24200822 0.020228395 0.030984353 0.11718213
0002a0 6a 2f 01 3e 4a be 62 bc 10 c2 ff bd 13 c2 1c 3e
       0.12615743 -0.013839314 -0.12488186 0.15308408
0002b0 1d 3c c6 bd c7 a0 3f bc 46 fa 7c 3d 51 15 66 bd
       -0.096794344 -0.011696047 0.061762117 -0.056172673
0002c0 ff 28 a4 bd c1 d3 78 be 03 7e 39 3e 16 36 83 3d
       -0.08015632 -0.24299528 0.18114476 0.064068004
0002d0 0c 37 cd 3c 33 87 e6 3b 37 ad b7 bd 6d 7b fe bd
       0.025050662 0.00703516 -0.08968585 -0.12425885
0002e0 85 03 8a 3e df 6b db 3d 16 e8 08 be 4f c5 f6 bd
       0.2695581 0.10713934 -0.13369784 -0.120493524
0002f0 cb df 30 bd e0 76 38 3e b3 14 55 be 24 58 81 3d
       -0.043182176 0.18014097 -0.20808677 0.063156396
000300 43 23 ef 3d d8 76 1c 3e 2e be 01 3e 98 cc 3b be
       0.116766475 0.1527971 0.12670204 -0.18339765
000310 a5 64 d0 3d d9 89 0b 3e 95 5d 0e 3e 4d 86 d6 3d
       0.101754464 0.13626803 0.13902886 0.104748346
000320 a7 68 82 be f0 20 16 be 70 0f db bd f1 c6 bc bc
       -0.25470468 -0.14661002 -0.10696304 -0.023044081
000330 81 fd c5 3d c0 20 fb 3d 08 82 16 be 77 b3 ee bc
       0.09667493 0.12262106 -0.1469804 -0.02913831
000340 62 a0 75 be 99 4f fc bc c3 05 dc 3d d9 ee 3f 3e
       -0.23986962 -0.030799674 0.107432865 0.18743457
000350 cb a2 88 be b6 5b dd be 4a 20 a7 bd 56 7d 8b be
       -0.266867 -0.43234032 -0.081604555 -0.2724406
000360 51 09 2f 3e da 2b 0e be 06 2a 5c 3e 94 62 00 bc
       0.17093398 -0.13883916 0.21500406 -0.007836003
000370 20 8b 32 3c 72 29 f2 bd ea ff 04 3d 70 29 f3 bd
       0.010897428 -0.11824311 0.03247062 -0.11873138
000380 f9 0a 86 bd 29 be bb 3e 52 26 84 bd 51 6a 55 3e
       -0.065450616 0.36668518 -0.064526215 0.20841338
000390 2d 43 50 bd 86 72 b7 be 3a b0 36 be c7 6c 6d bd
       -0.050845314 -0.35829562 -0.17840663 -0.057965066
0003a0 61 30 1a be 92 df 14 be 0f ac c7 3c 2d 32 81 bc
       -0.15057518 -0.1453841 0.024374036 -0.015770996
0003b0 b2 73 8a be b5 b8 40 be 5e 84 7e be ff df 95 bd
       -0.27041394 -0.1882046 -0.24855182 -0.073181145
0003c0 b3 d0 5a be b4 76 e8 bd b5 75 bf bd 6e 03 a9 be
       -0.21368675 -0.11350766 -0.09348623 -0.3301043
0003d0 f5 c8 13 3c 6f 31 01 be ea 19 bf bd b5 fe f1 3c
       0.00902008 -0.12616514 -0.093311146 0.0295404
0003e0 56 fe 43 3c 4e c1 0f be 6f 72 94 ba 4f 9b ba 3c
       0.011962494 -0.14038584 -0.0011325608 0.022779135
0003f0 69 87 95 bd ad b5 35 be f5 05 dc 3d 03 3f d4 bc
       -0.07301218 -0.17745085 0.10743324 -0.025908953

shared_net.2.weight f4 [256, 512]
000000 b3 9b e2 bd f8 9c 19 3d 34 8c b0 bd 77 f4 a0 3c
       -0.110648535 0.037503213 -0.086204916 0.01964782
000010 86 6b 83 bd 6d 34 54 be 70 20 e5 3c 23 cd 7c be
       -0.06416993 -0.20723124 0.027969569 -0.24687628
000020 ee b9 1f 3c 3f 31 dc bb 92 bd 81 bd c7 02 79 bd
       0.009748919 -0.006719738 -0.06334986 -0.060793664
000030 a9 39 be 3d 8d dc bf bd e7 16 24 3c 23 54 d9 3c
       0.092883416 -0.093682386 0.010015226 0.026529377
000040 fd 08 43 3d cb c8 8d be 51 27 ba 3d ef 09 34 bd
       0.047615994 -0.27692255 0.0908953 -0.043954786
000050 fe 58 d8 bc a7 38 cc bc 9b 63 9d bb 4a 16 24 bd
       -0.026409622 -0.024929358 -0.0048031337 -0.04006032
000060 f8 b4 d5 bd 86 ad 4d bd 35 b8 6c bc f9 4b 90 bd
       -0.10434908 -0.050214313 -0.014448215 -0.07045741
000070 1d cf a8 bd f1 fb 5e bc 1d 7b 86 3c 19 90 33 be
       -0.08242629 -0.013609872 0.016416127 -0.17535438
000080 d1 f7 0b be fd f4 9f bd f5 da 93 b9 29 9d 72 3e
       -0.13668753 -0.078104 -0.0002820116 0.23692764
000090 fb 74 17 be 7c 79 c0 3c 9b b2 d8 bd d2 12 0c 3d
       -0.14790718 0.023495428 -0.10580941 0.034197636
0000a0 a5 05 af 3d 26 06 cc 3d 3c 4c 49 39 eb a9 02 3d
       0.085459985 0.0996211 0.00019197253 0.031900328
0000b0 c9 05 bc bd 1d d5 ad bc 59 3b 46 be d4 5b c8 3c
       -0.09180791 -0.021219784 -0.19358577 0.02445785
0000c0 71 e6 b9 3c 9a 4f 5d 3d 26 58 8b 3c 8e 58 34 bd
       0.02269289 0.054030992 0.017009806 -0.044029765
0000d0 4e 15 a1 3d 8f ff a3 3d c7 69 0d 3d 8a a1 ba 3c
       0.07865392 0.08007728 0.034524705 0.022782106
0000e0 97 b9 e2 3d 0f 76 49 3e f2 f1 8c bd 09 dd 2e 3e
       0.11070555 0.19673942 -0.06882085 0.17076506
0000f0 e3 a9 3d bd e2 94 07 3d e8 96 9f bd 60 cd 08 3e
       -0.046304595 0.03310097 -0.07792455 0.13359594
000100 e7 6f a5 3d c3 97 38 3d cb 19 0a be 62 7c e3 bc
       0.08077984 0.045066606 -0.13486402 -0.027769271
000110 6d 80 ad bd 5a a9 68 bd 2e e5 e5 bd c9 ae a2 3d
       -0.08471761 -0.05680213 -0.11225353 0.07943494
000120 22 a1 61 3c 37 4a 1a 3d 5f c5 89 be 10 eb 21 3b
       0.013771327 0.037668433 -0.26908395 0.0024706759
000130 d3 7b 69 bd c4 e7 22 3e 2e 08 62 3d 1c 48 02 3e
       -0.057002854 0.15908724 0.055183582 0.1272282
000140 32 22 83 bd e3 18 c9 bd 21 a8 15 3d ce d0 11 be
       -0.064030066 -0.098192 0.036537293 -0.14239809
000150 e7 b4 34 be 33 4a 5c 3d 52 b2 0c bd e2 8b 11 be
       -0.17647134 0.0537817 -0.034349747 -0.14213517
000160 2f 7f 97 3e e5 02 8b 3d 7a a8 a6 bd af 31 dd bc
       0.2958922 0.067876615 -0.08137603 -0.02700123
000170 2b 8b ca 3d 9a 78 18 39 40 96 95 bd 6d 85 8a 3d
       0.098898254 0.00014540777 -0.073040485 0.0676373
000180 47 4c d2 be 58 7e e2 bd f6 00 53 3d 67 bf 1f 3e
       -0.4107382 -0.110592544 0.05151459 0.15600358
000190 d3 22 b6 bd 25 55 2d bd 5a 3e 0b 3e a5 b5 29 3e
       -0.08893361 -0.04231753 0.13598004 0.16573198
0001a0 42 d3 01 be a9 89 a3 3d e7 cb 2d bd 6b 50 14 3d
       -0.12678245 0.07985241 -0.042430785 0.036209505
0001b0 fd b8 55 bd 95 62 2f 3e ca 39 95 3c ff 06 48 bc
       -0.05217837 0.1712745 0.018216033 -0.012208699
0001c0 90 7b 57 3c be 36 2f 3e 8c ba 87 bd a8 21 39 be
       0.013152018 0.17110726 -0.06627378 -0.18079245
0001d0 7a 13 44 3d 09 62 67 bd bd e9 cd 3b 6c 00 3f be
       0.047870137 -0.056489978 0.0062839673 -0.18652505
0001e0 b7 27 17 be e6 b7 61 bd 90 53 9d bb 77 db a1 be
       -0.14761244 -0.05510702 -0.004801221 -0.3161275
0001f0 64 85 02 3d 05 f5 20 bd ab 7b 5d 3d 07 ec 83 bd
       0.031865492 -0.03929617 0.054073017 -0.06441503
000200 17 30 bd 3d e5 38 8a be 68 54 5a bd 07 24 1e 3e
       0.09237688 -0.26996532 -0.053303152 0.15443431
000210 e5 db 4a bd 42 ce 4f bd 42 e8 6f 3e 1a 5c b9 3c
       -0.049526114 -0.050733812 0.23428443 0.022626925
000220 2d e4 a7 bd 33 63 67 3d 0b c6 17 3d ac c6 4a 3d
       -0.08197818 0.056491088 0.037054103 0.049505875
000230 b6 f4 38 be 68 ed 8b 3c 25 8d 45 be 09 6f 0f be
       -0.180621 0.017080978 -0.19292124 -0.140072
000240 a0 46 04 bd bb f0 4f bc 5f b4 3e bd c7 02 e1 bc
       -0.032293916 -0.012691672 -0.046558734 -0.027467145
000250 07 5c f6 bd 2d 1e f4 bc 93 7b 8e 3c 51 f5 50 3d
       -0.120292716 -0.029799545 0.01739291 0.051015202
000260 62 27 02 be f2 2c 12 3e 6a 36 2f 3d d7 24 bb bd
       -0.12710336 0.14274958 0.042776503 -0.09137886
000270 34 05 99 3c d0 c7 3e 3c 31 37 53 bd 16 70 ba 3c
       0.018679239 0.011644319 -0.051566307 0.022758525
000280 24 6f 80 bd 47 db 1f 3d 31 aa a4 be 6b d8 27 bd
       -0.062711984 0.03902748 -0.32161096 -0.040977877
000290 d2 ad c5 3d cb 8c 0b bd d5 32 95 3d 0b 7c d4 bd
       0.09652294 -0.034069818 0.07285086 -0.10375222
0002a0 0e 46 99 3d bc 29 58 be f3 b7 b3 3d 82 25 32 3c
       0.07484065 -0.2110967 0.0877532 0.0108732
0002b0 da 7b 86 bd c6 ea ab 3d e8 c1 d8 3d 0e 19 be bd
       -0.065665916 0.08394389 0.1058386 -0.092821226
0002c0 bf 58 32 bd e0 ec 84 3d 4a 57 c4 bd 1d 2d 2e bd
       -0.043541666 0.06490493 -0.095869616 -0.042523492
0002d0 78 ec 0a be 0b 59 55 bd 4c a8 03 3e 90 18 89 bc
       -0.13566768 -0.05208687 0.12857169 -0.016735345
0002e0 aa 27 52 3d 14 cb bb bd 54 8a 0d 3e 4a 5e c5 bc
       0.051307358 -0.091695935 0.13822299 -0.024092812
0002f0 b8 95 9e 3d 6c e6 df bc 77 cd e1 3d fb bd 15 be
       0.077434 -0.027331553 0.110255174 -0.14623253
000300 de df 6d be 28 fc d2 bc dc b6 4b bd 86 a8 02 3b
       -0.2322993 -0.025755003 -0.049734935 0.0019936874
000310 9d c4 f1 3d ad 76 e0 3d bc e4 8c bd ba 05 24 be
       0.11805079 0.109601356 -0.06879565 -0.1601781
000320 8f d4 39 3d 1b c3 e6 3d a5 f2 ee bc 7d b8 1a be
       0.045368727 0.11267682 -0.029168436 -0.15109439
000330 b4 ea 96 bd 5b 79 53 3d ea f2 e6 3c bc 19 40 3c
       -0.07368985 0.051629405 0.028192002 0.011724886
000340 33 1a 38 3d 09 55 0e 3e a9 3b 03 be 6e cc 05 be
       0.04494686 0.13899626 -0.12815727 -0.13066265
000350 01 5d 57 3e 57 12 ad 3c a6 10 9f bc c0 5b a6 3c
       0.21031572 0.02112691 -0.019417118 0.020307422
000360 33 8f 0e bd fe d3 23 3e fe ec e1 bd 6a 74 a1 bc
       -0.034804534 0.15998837 -0.11031531 -0.01970883
000370 fb 0e 25 3e 8f 25 2b bc 15 44 f0 bd d9 f7 9c bd
       0.16118996 -0.010445966 -0.117317356 -0.07664461
000380 ff 6d dd bd f7 7c 07 be 25 74 fb 3b 1b b9 90 bd
       -0.10811996 -0.13231264 0.0076737576 -0.07066556
000390 6d 28 9f 3d c3 e5 50 3d f0 fe b8 3c 16 3e 4c 3c
       0.077713825 0.051000368 0.022582501 0.012465974
0003a0 94 82 c7 3d e5 e7 16 3d c1 7b 28 be 87 13 b9 3c
       0.09741703 0.036842246 -0.16453458 0.02259232
0003b0 e0 85 bb bc 1c 36 8e bd ed 9b 3b 3d 38 b1 32 3e
       -0.022890985 -0.06943914 0.045803 0.17450416
0003c0 91 3a a7 3c 65 9a 25 3e 2e 05 15 3c 1f 15 d3 3c
       0.020413669 0.16172178 0.009095473 0.025766907
0003d0 47 a0 9e 3d f3 5b 93 3d 92 62 cc bd 34 5f 94 3d
       0.07745414 0.07195272 -0.09979738 0.07244721
0003e0 e9 ef ce 3d 39 e8 13 3b b7 73 c3 3d e3 75 12 3d
       0.10104353 0.0022568835 0.09543555 0.035756957
0003f0 fe 73 0f bd a6 9c b0 3d 24 71 8a 3d 15 43 97 3c
       -0.03502273 0.08623628 0.06759861 0.018464604

shared_net.2.bias f4 [256]
000000 73 58 ee bd c6 60 2b be 69 f0 12 3d ea fa 60 b9
       -0.11637964 -0.16736135 0.035873804 -0.00021455777
000010 1d 12 48 bd 09 88 65 bc 1c a9 0d 3d 9e 7e b3 bd
       -0.0488454 -0.014009484 0.034585103 -0.08764385
000020 e3 a4 26 bd 55 7a 53 bd 43 65 cf 3c 78 ea 36 3b
       -0.040684592 -0.051630337 0.02531684 0.002791075
000030 ac f0 5b bd 1d cc 07 3d 3c 34 5c bd 21 64 73 bd
       -0.05369632 0.033153642 -0.053760752 -0.059421662
000040 76 ec 6c bc 6f 29 91 bc 3e a4 15 bc 1e e3 55 3d
       -0.014460674 -0.017719952 -0.009133397 0.05221855
000050 8b f7 91 3c c2 21 09 be 6f d7 9c bd 75 ce 40 3e
       0.017818233 -0.13391784 -0.07658278 0.18828757
000060 c9 ca fc 3a 61 d1 76 bd 0f 72 cf bd 1b e2 6d bd
       0.0019286509 -0.060258273 -0.10129177 -0.05807696
000070 32 50 1a 3d fb 24 0d 3d 79 aa 27 3d 68 a4 f2 bd
       0.037674136 0.034459095 0.04093406 -0.11847764
000080 4d 89 37 3c 78 1b 90 3d d7 5f 27 3c 8d 50 44 bd
       0.011202169 0.07036489 0.010215721 -0.04792838
000090 b7 23 a2 bd 04 32 07 3d 36 52 07 bc ca b5 7c bd
       -0.07916968 0.033006683 -0.008259347 -0.061696805
0000a0 4f b2 09 bd 22 63 96 3c 41 23 04 be 82 5a 13 bd
       -0.033617314 0.018357817 -0.12904073 -0.035974987
0000b0 d7 f7 29 be 96 0c c2 bc b7 a3 d6 3c e4 36 68 3d
       -0.1659845 -0.023687642 0.026201112 0.056692973
0000c0 ff 66 0e bd 6d ac 48 bd 5b b5 4f 3d 9c 10 87 bd
       -0.034766193 -0.048992563 0.050710063 -0.06594965
0000d0 1b 8a 22 be 00 84 05 be bf 0a 08 be 88 8d 0f be
       -0.15872996 -0.13038635 -0.1328535 -0.14018834
0000e0 0a b6 f4 bd 36 71 91 3b 23 c6 ba bd 2d ba 65 bd
       -0.11948784 0.0044385446 -0.09119823 -0.056085754
0000f0 2e 23 fb bd f6 b3 75 3d dd 79 a5 bc f6 6e 17 bd
       -0.12262569 0.059986077 -0.02019971 -0.036971055
000100 fe 55 95 bd af 6b e3 bd d7 ef 5b bc d2 3e 6f 3c
       -0.07291792 -0.111045234 -0.0134238815 0.01460238
000110 ea 11 65 bd 67 c5 7d 3d 2d 0c b5 3d 8d a6 53 3d
       -0.055925287 0.061955836 0.08840213 0.051672507
000120 35 8e 3f bd 9e b0 46 bd c4 4c 14 3c 84 a3 9c bd
       -0.04676648 -0.04850828 0.0090515055 -0.07648376
000130 47 77 fc bc f3 0d 79 bd 96 15 b8 bc 69 85 b7 3c
       -0.030818595 -0.06080432 -0.02247123 0.022402482
000140 b9 67 22 bd f1 57 46 bc fd d9 6b 3b f9 2d 0f be
       -0.0396497 -0.012105928 0.0035988085 -0.13982381
000150 25 52 f1 3d 5c 2c aa bd 18 bc 8d 3d 0d 6c 80 bd
       0.11783246 -0.08309242 0.06920642 -0.06270609
000160 06 be 6a bd 82 5e d7 3c 8e 0b e7 3d ec c3 8e bd
       -0.057310127 0.026290182 0.11281501 -0.06970963
000170 42 8e bf bc c1 27 1f bd a0 92 e3 bd b0 8c fe bd
       -0.023383263 -0.03885627 -0.11111951 -0.12429178
000180 ab f3 eb bd 09 58 4e bd 71 d7 62 bd 03 19 f5 bd
       -0.11521085 -0.050376926 -0.055381242 -0.11967661
000190 2f 76 6e 3d 10 8d 7d bd 90 74 ad 3d a6 97 7d 3d
       0.058218177 -0.061902106 0.08469498 0.0619122
0001a0 4f e2 ad bb 00 0b 70 bc 43 d8 44 bc a8 ea ba 3d
       -0.005306519 -0.01465106 -0.012014451 0.091267884
0001b0 76 a7 58 be 90 97 97 bd cc ca 62 3c 1b ba 6d bd
       -0.21157631 -0.07401955 0.013842296 -0.058038812
0001c0 69 7c 93 3b 8d ce 64 bc 96 40 05 bc 0f 86 83 3d
       0.004500915 -0.013965261 -0.008133074 0.06422054
0001d0 2d aa f8 bc 1b 3a 1b be a6 89 33 be e8 fd 98 bd
       -0.030354584 -0.15158884 -0.17532977 -0.07470304
0001e0 95 5b cc bd 11 fd d3 3c bc 01 0c 3d 87 08 1a 3d
       -0.099784054 0.025877507 0.03418134 0.03760579
0001f0 62 e4 0e bd d7 c9 4e bd ea e0 02 be 05 53 e0 bc
       -0.03488577 -0.05048546 -0.1278111 -0.027383337
000200 1e 3c 0c bd 51 1a 04 3d e8 83 69 bd ad 85 8d be
       -0.03423702 0.03225166 -0.05701056 -0.2764105
000210 cf 54 c5 3c 37 38 18 3d 97 7d 59 3d ad bc 9a bc
       0.024088291 0.037162986 0.053098287 -0.018888796
000220 07 62 ca bd 6e 60 4a bd 80 4c 0b be 15 a0 f9 ba
       -0.098819785 -0.04940837 -0.13603401 -0.00190449
000230 aa 95 36 bd 9a 6a c1 bd af d2 07 bd f7 83 45 bd
       -0.044576325 -0.09444161 -0.033159908 -0.048221555
000240 65 cd 71 bd 9c 81 2a bd 6b 72 80 3c 15 5d d6 bc
       -0.05903377 -0.04162751 0.015679559 -0.026167432
000250 bb 8f e7 3b 44 1a a4 bc 3f b6 03 3c 3f 16 df bc
       0.0070666946 -0.020032056 0.008039056 -0.027232287
000260 af ea 70 bc d6 c7 f1 3b b1 c9 2a 3d 01 74 95 bd
       -0.01470439 0.0073785586 0.041696254 -0.072975166
000270 42 25 fd bc 74 75 89 bc 91 84 23 3d 9c 3b 7e bd
       -0.030901555 -0.016779639 0.039921347 -0.062068567
000280 18 6f ed bb 37 ce 6b 3c bb 46 d6 bd 4d a6 24 3d
       -0.0072459094 0.014392427 -0.104627095 0.04019766
000290 4b 31 32 3d 7e 77 37 bd 48 75 02 3e f1 30 11 bd
       0.04350404 -0.04479169 0.12740052 -0.035447065
0002a0 0f 6d 85 bd 23 be 1d 3d 73 15 e7 39 a0 74 46 bd
       -0.06514942 0.038511407 0.00044075734 -0.048451066
0002b0 d6 0e 6f bd 39 bb 2a be f0 45 07 3d 17 e4 07 be
       -0.058363758 -0.16672982 0.033025682 -0.13270603
0002c0 eb de a2 3b f1 53 19 bd e6 75 99 bd 18 ac ce bd
       0.0049704215 -0.03743357 -0.074931905 -0.10091418
0002d0 55 00 22 bb 2a b2 96 3d bb d4 41 3c ee 51 58 3c
       -0.0024719436 0.07358201 0.011830504 0.013203127
0002e0 8e 33 48 bd 70 a8 c9 3b 18 9d 5b 3d fb 8e e7 3d
       -0.04887729 0.0061541125 0.053616613 0.11306568
0002f0 c4 e0 fa 3c 7e 27 81 3c 04 72 11 3d bc bb b4 bc
       0.030624755 0.015765902 0.035509124 -0.022062175
000300 a6 96 c2 bc 96 6f c9 3d 55 b7 08 bd a6 f4 11 be
       -0.023753475 0.098357365 -0.033377964 -0.14253482
000310 f5 6e 1d 3d f1 9a 02 3d bd 83 21 bd 7a 2a 02 3d
       0.038435895 0.031886045 -0.039432276 0.03177879
000320 49 64 1c 3c 51 a8 00 3d 47 28 0e be 4b 8c b0 3d
       0.009545394 0.03141052 -0.13882552 0.08620509
000330 40 d9 2a bd c6 25 38 bc 74 52 89 bc 99 43 2b 3d
       -0.041711092 -0.011239475 -0.01676295 0.041812513
000340 1f 3a 69 bd 2f 71 7a bd 79 59 5d bd 3a 10 52 bd
       -0.056940194 -0.061143097 -0.054040406 -0.051285006
000350 0c 09 00 bd dc 9d 4c 3d 04 96 37 3d 45 f5 33 be
       -0.031258628 0.049955234 0.0448208 -0.17574032
000360 3f 10 93 bd b8 55 53 bc a0 16 8a bc 2a dd 13 be
       -0.07180833 -0.012898855 -0.016856492 -0.14439836
000370 3a e6 0a be 34 9e 15 bc 95 63 9c bd ef 78 a1 bc
       -0.13564387 -0.009131957 -0.07636181 -0.019710986
000380 b0 65 a5 bc 30 ee 1a bd d1 3b 14 3b b1 4a b1 bc
       -0.02019009 -0.03782481 0.0022618661 -0.021642061
000390 af a5 87 bd 8a c7 87 bd 62 b2 2f bb 9f b3 fa bd
       -0.066233985 -0.06629856 -0.0026809205 -0.12241291
0003a0 53 2e df bd 64 b9 2b be 10 3d 77 bd be 8e 9a 3b
       -0.108975075 -0.1676994 -0.060360968 0.004716723
0003b0 53 b6 38 bc ae a4 09 bd 93 83 30 3b 10 d0 f8 bc
       -0.011273938 -0.033604316 0.0026933893 -0.03037265
0003c0 fe 49 08 3d 0c ac 2a 3d e7 3a 06 3c b5 07 9f 3d
       0.03327369 0.041667983 0.008192754 0.07765142
0003d0 6b 0c 66 bc 7c c2 3a 3d 2a 24 94 3b 92 45 02 3c
       -0.014041047 0.04559563 0.0045209127 0.007951157
0003e0 ef cc 09 be 38 15 db 3a 33 17 1b bd bc 6c 44 be
       -0.13457082 0.0016714698 -0.03786392 -0.19182104
0003f0 2e 80 0a bc 58 38 3b bb 83 97 9d 3c ba 83 e7 bd
       -0.008453412 -0.002856752 0.019237285 -0.11304422

to_mean.0.weight f4 [128, 256]
000000 97 7e 07 3a 4e a9 d3 bc 5b bc 2f 3d 95 02 19 3d
       0.00051687047 -0.025837567 0.04290424 0.037355978
000010 d6 74 55 3d f7 60 a8 bc 3a 0a a4 3d 6e 4c ae 3b
       0.052113377 -0.020554049 0.08009763 0.0053191697
000020 39 45 a9 bd 5d 03 73 bd 6d 21 1e 3d 39 8d ae bc
       -0.08265156 -0.05932938 0.038606096 -0.021307575
000030 1e 7d 74 3d 6f dc 05 bd 00 5d 99 3d fe de 67 3d
       0.059689634 -0.032680925 0.074884415 0.056609146
000040 ca 3f 01 bd f6 a8 4f bd 03 1c ce bc 20 df 5d 3d
       -0.031554975 -0.050698243 -0.025159841 0.054167867
000050 18 c1 51 3d bd d5 4c 3d 4f ee 0e bd 87 57 df 3c
       0.05120954 0.050008524 -0.034895238 0.027263416
000060 9e 4f c2 bc 00 4a 06 bd c1 7a 1f bd af 1c 19 bd
       -0.023719605 -0.032785416 -0.038935427 -0.03738087
000070 41 ff 7e bd a0 91 df bc 3e 4d 22 bd bc 2e 1b 3c
       -0.062255148 -0.02729112 -0.039624445 0.009471592
000080 30 4f bc bc d8 9c b3 3c 20 a2 cd bb fd 18 17 3c
       -0.022986978 0.021925375 -0.0062754303 0.009222266
000090 8a f5 e1 3c 55 dc c5 bd 78 ba 76 3c 03 b8 3e 3d
       0.027582902 -0.096611656 0.015059106 0.046562206
0000a0 9b 1e 87 3d 46 48 62 bc 1c 98 53 3d c6 44 8a bd
       0.065976344 -0.013811177 0.051658735 -0.06751399
0000b0 5a eb ae 3d ac 7f 86 3c 7e 7b 7d bb 76 b8 98 3c
       0.085409835 0.0164183 -0.0038678343 0.018642645
0000c0 55 79 65 bd 2d 90 02 bc 24 e0 ac bc b4 f8 7f bd
       -0.056023914 -0.0079689445 -0.021102972 -0.06249304
0000d0 eb e7 93 3c 5a 0b 2e 3a 10 10 b5 3d 5b b2 f2 bc
       0.018054923 0.0006639265 0.08840954 -0.029626062
0000e0 e4 9c 03 bd bd 80 e2 bd 61 34 a0 bc 42 11 44 3d
       -0.032132044 -0.11059711 -0.019556226 0.04786802
0000f0 36 69 22 3d c4 4a 05 bc e3 63 5d bd f7 1d b3 3b
       0.03965112 -0.008135501 -0.054050338 0.0054662186
000100 c2 b7 b8 3d bf d3 7a 3d c1 47 93 bd 23 12 3a 3c
       0.09019424 0.061237093 -0.0719142 0.011356863
000110 35 4c 8d 3d 49 8b 76 3d 54 f4 02 bc 0e 9c 02 bd
       0.06899301 0.060191426 -0.007992823 -0.031887107
000120 f6 60 93 3c 0c fd 98 3b 52 75 03 bd e4 74 e5 37
       0.01799057 0.0046688374 -0.032094307 2.7353359e-05
000130 99 14 87 bc 07 83 8c 3c e4 20 15 bd 55 80 1b 3d
       -0.016489314 0.017152322 -0.03640832 0.037964184
000140 ad b6 16 3d 9c 6e 47 bd f3 e3 a2 3a 70 4f 51 3d
       0.036795307 -0.04868947 0.0012427553 0.051101148
000150 f1 04 c4 bc d8 be 07 bd 5e 49 69 bc 14 98 af 3d
       -0.023928137 -0.033140987 -0.0142386835 0.085739285
000160 ce fa ab 3d 3c 6e 68 3d 12 91 1d bd b0 b7 3d bd
       0.083974466 0.056745753 -0.038468428 -0.046317756
000170 6a 13 8e 3c eb 56 5e bc 57 0e 3a 3d d6 37 d5 3d
       0.017343242 -0.013570528 0.04542383 0.104110405
000180 fb b4 61 bd b2 c0 94 bd d0 02 b5 3c a1 80 7e 3c
       -0.055104237 -0.07263316 0.022096068 0.015533597
000190 fa 88 b5 3c cc 9b d4 bc fd c4 2d bd 01 ad 74 3d
       0.022160042 -0.025953196 -0.04242419 0.059735302
0001a0 d4 60 b9 3d fb c9 8a bd e4 00 6c 3c 4d 32 c6 bd
       0.090516716 -0.06776806 0.014404509 -0.09677563
0001b0 2a 93 91 3c 78 7f 59 bb ab ed b6 3c f8 9c 68 bd
       0.017770369 -0.003318755 0.022330126 -0.056790322
0001c0 2b dc 0e bd aa c6 3f 3d 1e 94 c5 3c d7 6b 76 3d
       -0.034877937 0.04682032 0.02411848 0.060161438
0001d0 68 09 a4 3b 85 81 0a 3d d9 77 29 3d 4a 5d 3c bd
       0.005006004 0.033814926 0.04137406 -0.045987405
0001e0 f4 33 29 bd b0 27 49 bd 21 cd 04 bc ea 2e 93 bd
       -0.041309312 -0.049110115 -0.008105547 -0.071866825
0001f0 a1 d9 88 3c 8f e6 26 bd 94 a8 d2 3c d9 94 2f bd
       0.016705336 -0.04074722 0.02571515 -0.04286656
000200 4f da 73 bd ce 03 bc 3c c5 9f fd bc 53 f1 99 3d
       -0.059534367 0.022951033 -0.030959973 0.07516732
000210 fe 65 df bc f7 71 6b 3c 24 4e bb 3b 2d c8 80 3d
       -0.027270313 0.014370433 0.005716102 0.062881805
000220 84 f5 e9 bc 51 cc b8 3c 35 ab c5 3c dd c4 0e bd
       -0.028559454 0.022558363 0.02412949 -0.034855712
000230 59 ce bd 3c 27 62 7d 3d 11 d5 7f bc 6b 30 62 3c
       0.023169683 0.061861183 -0.015614764 0.013805489
000240 b6 f4 06 3d 69 95 1f 3d 6c d3 f8 bc 4e 9a 31 bd
       0.03294822 0.038960848 -0.030374251 -0.043360047
000250 1b f4 df bc ea 58 28 bd 1e fa 5a bd a2 65 28 3d
       -0.027338078 -0.04110042 -0.053461187 0.04111255
000260 11 ff 1c 3d 82 01 ff bc 20 e6 38 b8 c8 2b 13 bd
       0.038329188 -0.031128649 -4.408334e-05 -0.035930425
000270 ea 4a 44 bb d8 e1 6d bd de 5e 9e bb 58 de 86 3c
       -0.0029951879 -0.05807671 -0.0048330864 0.016463444
000280 b1 b3 5c 3d 77 63 0b bd b4 c5 07 bb 47 73 b7 3c
       0.053882305 -0.034030404 -0.0020717205 0.022393836
000290 29 57 44 bd f9 c3 af 3c 6d ef 8d 3d 62 02 4c 3d
       -0.047934685 0.021455752 0.069304325 0.04980696
0002a0 6f 67 5d 3d cd 53 b7 3c d1 49 1e bb a8 1b 1d 3c
       0.05405372 0.022378827 -0.0024152885 0.009589113
0002b0 6f 9d 8e bd ad e1 9a bd 2a e1 95 3d 71 06 0c bd
       -0.06963622 -0.075625755 0.07318337 -0.03418583
0002c0 56 90 4f 3c 21 0f 18 bc 33 70 8e 3d a0 00 0b bd
       0.01266869 -0.009280951 0.06954994 -0.033936143
0002d0 4d e0 89 bd a5 f9 8d bc 74 18 74 3c b5 5a 04 bd
       -0.06732235 -0.017330954 0.014898408 -0.032313067
0002e0 21 e3 b2 3d 54 14 67 3d f2 f3 16 3c 12 db 80 bd
       0.08734728 0.05641587 0.0092134345 -0.06291784
0002f0 12 a9 8f 3d 80 98 1e 3d 6c 78 61 3d 20 92 78 3d
       0.070146695 0.038719654 0.055046484 0.06068623
000300 f6 d8 f7 bb 08 7a 80 bb 8b 5b 82 bc ff fd c3 3c
       -0.0075637056 -0.0039207973 -0.015912792 0.023924826
000310 5d d1 b1 bc 98 45 1b 3d 4f 1f 11 3c 18 86 f2 bc
       -0.021706278 0.037908167 0.008857562 -0.029604957
000320 0a 40 98 3d 07 63 df bd 9e e3 1f 3d 39 53 da bc
       0.074340895 -0.1090756 0.039035432 -0.026651012
000330 a5 27 25 bc 7e 8a 1f 3c 8d 5d 5f 3d 14 c9 73 bb
       -0.010080253 0.009737609 0.054532576 -0.003719871
000340 c1 11 94 3c 8e e6 a0 3d 81 22 0d 3d e4 14 d1 3d
       0.018074872 0.07856475 0.034456734 0.10209063
000350 b8 19 e2 3c be 4b d1 bc e5 55 5a 3a bf 09 da bc
       0.027600154 -0.025548812 0.00083288393 -0.026615975
000360 f1 f0 ac bc 34 58 8b 3d ec f6 de 3c d5 c6 a0 bb
       -0.021110984 0.06803933 0.02721735 -0.004906515
000370 f8 5d 9d 3d 52 27 3b 3c 0f b8 a6 bd aa 66 94 3d
       0.07683939 0.011422949 -0.08140575 0.07246144
000380 c6 d7 68 3c 4d 87 ab bd 0a 91 60 3d 58 0e 72 bd
       0.014211601 -0.08375416 0.05482582 -0.05909571
000390 52 79 01 bd 70 72 ee 3c 3c fb 1a bd 9f 64 82 bc
       -0.03160984 0.029107302 -0.037837252 -0.01591712
0003a0 a6 ad 0b 3c 5f 02 68 bc 11 5d a0 3d e6 4a 03 bd
       0.008525288 -0.014160722 0.07830251 -0.03205385
0003b0 02 f5 6f 3a bb 54 ec bb fc 14 9e bd cb ed 6c bd
       0.00091536355 -0.007212249 -0.07718846 -0.057843965
0003c0 c6 68 a0 bd cf e6 4f 3d d6 52 d9 b9 02 6a 61 3b
       -0.07832484 0.050757226 -0.00041451183 0.003439546
0003d0 f5 74 3c 3c 27 ca a1 3d 11 83 86 3d 84 c8 f5 bc
       0.011502494 0.078998856 0.06567968 -0.03000284
0003e0 99 d6 97 3c c1 3d cd bd 10 e7 cc bc 96 6c 8f bd
       0.018534945 -0.10021544 -0.025012523 -0.07003133
0003f0 c2 3c 07 bd fd 47 57 3c 67 e7 9f 3c de 3a f5 bc
       -0.033016928 0.013139722 0.01951952 -0.029935297

to_mean.0.bias f4 [128]
000000 26 1c 00 3d 39 27 83 bb 2a b3 c6 3c 62 22 37 bd
       0.031276844 -0.0040024784 0.024255354 -0.044710524
000010 05 09 f4 bc ec 40 dc bc e2 a6 61 3d 1a 94 26 3c
       -0.029789457 -0.026886426 0.055090792 0.010167146
000020 3b 1d 95 bc f7 b2 95 3d f6 de 66 bc 5a 02 28 bd
       -0.018202415 0.073095255 -0.014091244 -0.041017868
000030 29 26 26 bd fd e7 85 3d e8 f5 c6 3a 2b a9 40 bd
       -0.040563736 0.06538389 0.0015179487 -0.04703633
000040 ae 8d 19 3d 4c 07 08 bd d4 f6 5e 3c 59 cb 22 bd
       0.037488632 -0.033210084 0.013608653 -0.03974471
000050 ce c3 84 bb 83 c1 11 bd ab e4 90 3c aa a7 b8 3c
       -0.004051662 -0.035584938 0.017687162 0.022540886
000060 72 af 1f bd 6a 4c 51 3d c8 9c 07 bc 2d d4 3d 3d
       -0.038985677 0.051098265 -0.008277126 0.046344925
000070 08 19 61 3d 0c 70 59 bd f1 23 83 3c 6c 88 47 3d
       0.054955512 -0.05308537 0.01600835 0.048714086
000080 4a 41 17 bd 29 b4 10 bd d3 80 6b bd 15 74 99 bc
       -0.0369275 -0.035328064 -0.057495903 -0.01873211
000090 51 89 a0 3c 48 23 2b bd 0a e1 31 3b 8a fd 82 bd
       0.019596728 -0.041781694 0.002714219 -0.06396015
0000a0 f3 30 99 3c 1e 53 75 3d 82 65 87 bd d9 d8 26 bd
       0.018700099 0.05989372 -0.06611158 -0.040734146
0000b0 41 e5 6f 3d e5 8e b4 3c 94 a1 23 3d 5e 90 40 3d
       0.058568243 0.022040794 0.039949015 0.04701268
0000c0 bc 0c be bd ae 74 f0 3b 95 d0 11 3d 9c ef 3f bc
       -0.09279773 0.007338128 0.03559931 -0.011714842
0000d0 a9 03 7f 3d 14 ed 48 bd 2f 03 85 bc 25 ca d8 bc
       0.06225935 -0.04905422 -0.01623687 -0.026463578
0000e0 6b 3b db 3c da fc 96 bd 45 01 92 3c ed 94 e7 3b
       0.026761731 -0.07372446 0.017822871 0.007067314
0000f0 58 0b f2 3c e0 dd f9 bc 08 37 07 3c 54 00 3a 3d
       0.029546425 -0.030501306 0.008252867 0.04541047
000100 7e 36 62 bc ec 98 ed 3c 5d 30 33 3b c5 50 8d bd
       -0.013806937 0.029003583 0.002734206 -0.06900171
000110 0a a5 09 bd d4 e4 1d 3d fa c8 80 3b 02 a5 f5 bc
       -0.03360466 0.038548306 0.0039302083 -0.029985908
000120 c1 48 5a 3b 83 92 aa bc 2d bb 5a bd 58 de 09 3d
       0.0033307525 -0.020821815 -0.05340116 0.03365931
000130 f6 df 81 bd 50 83 91 bc 57 b1 3b 3c ec 1b e1 bc
       -0.06341545 -0.01776281 0.011455855 -0.027479135
000140 d5 95 d0 3c bc f4 ee 3c d4 8c 1c 3d 82 bd fa bc
       0.02546207 0.029169433 0.03822024 -0.030607942
000150 06 ba 5f 3d b2 88 03 3b 7c 9f d2 3c 03 44 f0 bc
       0.054620765 0.002007049 0.025710814 -0.029329306
000160 90 5b d4 3b e7 bc 6f 3d a3 41 d4 3c 16 6a 4d bc
       0.0064806417 0.05852976 0.025910204 -0.0125375
000170 cd 83 20 bd ff 1d 92 bd 07 09 4b 3c 34 21 64 3d
       -0.039188195 -0.071346276 0.012392289 0.055695727
000180 06 ce f1 3c d8 4f 88 bc af 56 92 3a 8f 9f 81 3c
       0.029517185 -0.016639635 0.001116475 0.015823154
000190 f2 74 0b bd 9a 44 7a 3d e0 3c 8f bc 94 4e 15 3d
       -0.034047075 0.06110058 -0.017485082 0.03645189
0001a0 62 55 fb bc 61 37 57 bd 4c 43 25 bc 52 4a 76 bd
       -0.030680362 -0.052543048 -0.010086846 -0.06012947
0001b0 c2 37 20 3d f8 2b 56 3d db 96 3c 3d 0c e5 8b bd
       0.039115675 0.052288026 0.046042304 -0.068307966
0001c0 30 58 30 3d b4 c9 a6 bc 47 79 ef bc ea 39 ab 3d
       0.043052852 -0.020359851 -0.029232634 0.083606556
0001d0 89 1e 4f 3b e2 58 4b bd d5 92 95 bc bd ad 9f 3c
       0.0031603894 -0.049645312 -0.018258492 0.019492025
0001e0 2a 2a 5a 3d 97 81 1e bd 7f f6 32 3c a3 fe 21 3d
       0.053262867 -0.038697805 0.010923027 0.03954948
0001f0 44 f3 bd bc 79 89 a6 bc ab b3 12 3d 78 e4 88 3d
       -0.023187287 -0.020329224 0.035815876 0.06684202

to_mean.2.weight f4 [18, 128]
000000 47 ad e0 3d 32 2e 6f bc 63 b6 0c bc c3 7a e5 bd
       0.1097055 -0.014598416 -0.008588406 -0.112050556
000010 c1 a5 12 bd a5 97 60 bc 2d 44 30 bc 41 1d 77 3c
       -0.035802606 -0.01370803 -0.010758442 0.015082658
000020 63 1a ca 3b 37 86 72 3c 41 c2 72 bd f4 56 94 bd
       0.0061676963 0.014802507 -0.059267286 -0.072431475
000030 d6 ce f8 3c 74 11 5d 3d 81 3b c5 bd 3f 9f f7 3d
       0.030372065 0.053971723 -0.0963049 0.12090921
000040 44 de 89 bc 09 02 96 bc 6c 4a 3a bd ef 5a de 3c
       -0.016829617 -0.018311517 -0.04548113 0.02714297
000050 e9 ad b4 bd 0e f0 01 bc 8c 04 cf 39 c3 33 16 3d
       -0.08822233 -0.007930769 0.00039485504 0.036670458
000060 e0 7b 54 bb 90 03 8f bc d0 1f 13 bd 86 55 c8 bd
       -0.0032422468 -0.017457753 -0.03591901 -0.09781937
000070 6f e9 a7 bc 63 d3 bc bc 5e 1c 86 bc 94 f3 e2 bc
       -0.020497052 -0.023050016 -0.016370948 -0.027704038
000080 d1 db 17 bd 66 0e 22 3a d7 be b1 3d c4 8a 4c 3d
       -0.037074868 0.0006181955 0.08678978 0.049937025
000090 a8 59 88 3d ee 54 ae bd 99 6f d6 3d b0 ef 14 3d
       0.066577256 -0.08512293 0.10470504 0.036361396
0000a0 a0 d3 b7 bc c6 91 e8 3c 56 7c d1 bd bc b8 08 bd
       -0.022439778 0.028389823 -0.10228793 -0.0333793
0000b0 f9 91 05 be 38 f7 15 3d 13 c3 85 3d 42 b4 dd bc
       -0.13043965 0.03661272 0.06531348 -0.027063493
0000c0 2d a3 40 3d c1 dc 75 3b f8 d3 2f 3d 88 ef d3 3d
       0.047030617 0.0037515613 0.04292676 0.10348421
0000d0 bd 50 57 bc 5a 50 e7 bd a3 fa b6 3c 48 c3 ca 3d
       -0.013141808 -0.11294623 0.02233631 0.09900528
0000e0 77 a8 e6 bd 03 1c c5 3c 76 b2 cd 3d e7 5c 73 3c
       -0.11262601 0.024061209 0.10043804 0.014853693
0000f0 b0 1f ac bc 83 14 fe 3c 58 be 5d 3b 53 1d 84 bd
       -0.021011204 0.03101564 0.0033835378 -0.06450906
000100 b8 e7 cb bd 79 ce a9 3c 61 e1 94 3d c9 da 39 bd
       -0.09956306 0.020728337 0.0726955 -0.045374665
000110 db 0a 28 bd a9 1e 22 bd 62 71 58 3d 03 e3 02 3e
       -0.041025978 -0.03958002 0.052842505 0.1278191
000120 cf 47 75 bd 83 b3 15 bc ce ff 56 3d 39 9d dc 3c
       -0.059882935 -0.009137037 0.052490048 0.026930438
000130 ae 2f f3 bd 5c 06 8a bd 0e 22 c2 3c 67 7f 34 bd
       -0.118743286 -0.06739494 0.02369788 -0.044066813
000140 c1 7a 99 3c 17 c5 f5 bb 93 7c 05 bc e1 82 ce 3d
       0.018735291 -0.0075003016 -0.008147377 0.10083557
000150 7a 99 86 3b 9f 63 06 3d 15 0a ab bd 1d ab 96 3d
       0.0041076513 0.03280985 -0.08351532 0.07356856
000160 be 4e 69 bd b5 2a 46 3c f1 04 f3 bb 00 5d c7 bc
       -0.05695986 0.012095143 -0.0074163605 -0.024336338
000170 b7 23 42 3d a3 a7 94 bd 1a 8e 13 3c cc f3 d7 bd
       0.04739734 -0.07258537 0.009006048 -0.105445474
000180 94 95 c3 39 21 dd 59 bd 26 89 cd bd ff 08 80 3d
       0.00037304743 -0.0531894 -0.100359246 0.06251716
000190 65 99 40 3d 26 30 c0 bd 80 9c 50 bb d3 91 0b bd
       0.04702129 -0.093841836 -0.0031831563 -0.034074616
0001a0 72 29 27 bd 38 fb 36 bd 2d f2 9b bd 89 25 d6 3c
       -0.04081101 -0.044673175 -0.07614551 0.026140945
0001b0 54 03 81 bd 7f 8c 06 bd 85 28 f0 bc 2b 53 98 bc
       -0.06299463 -0.03284883 -0.029316196 -0.018594345
0001c0 93 4b c0 bc 5a dd 32 bb 4e a6 a7 bd 7f 99 47 3d
       -0.023473537 -0.002729258 -0.08186017 0.04873037
0001d0 2e c0 e8 3d ae 26 33 3d f7 13 68 bd 5d a6 fc 3d
       0.1136478 0.04373806 -0.056659665 0.12336419
0001e0 89 50 f7 3c e9 0f 8c bd 1a 63 83 3c d8 49 33 bc
       0.03018977 -0.06838972 0.016038466 -0.010942899
0001f0 88 11 86 3d 11 23 88 bc 8b 73 aa bd 3c 18 b6 bd
       0.065463126 -0.016618283 -0.08322819 -0.08891341
000200 16 f4 6e 3d 1b 95 50 bd c5 b3 92 3d 6e 63 8d bd
       0.058338247 -0.050923448 0.071631946 -0.0690373
000210 b4 dc 92 3b d1 74 90 3d 12 70 26 bd f9 82 78 3d
       0.0044818763 0.07053531 -0.040634222 0.06067178
000220 67 9f 88 3d 2b 87 f4 3b 29 e6 42 ba 89 38 96 3d
       0.066710286 0.0074624023 -0.0007434809 0.07335002
000230 50 af 21 3d 59 d6 c1 3d b5 ec 1c 3d cf e5 8c 3d
       0.03947383 0.09464712 0.03831168 0.0687977
000240 fe 19 02 3e 0b 95 b6 bc 66 fe 93 3c d7 e3 36 3d
       0.12705228 -0.022287866 0.018065643 0.04465088
000250 16 d1 99 3d 0b 5b d4 3c 87 47 bc 3b 48 9a e0 bd
       0.07510583 0.025922319 0.0057458314 -0.10966927
000260 7f 42 8c bc bd 69 6b 3d 61 37 da bb 1b a3 45 bc
       -0.017121552 0.057473887 -0.0066594337 -0.012062813
000270 69 a8 b3 bd 52 59 1c bd 11 de f6 bd a9 83 20 3c
       -0.08772356 -0.03817112 -0.120540746 0.009797015
000280 c0 30 87 bd 24 26 a5 bd 16 32 d3 bb d9 e1 71 3d
       -0.06601095 -0.08063915 -0.0064451797 0.059053276
000290 e1 c6 73 3d cb 85 12 3d 03 b8 41 3b 7e 89 9b 3d
       0.059515838 0.035772126 0.0029559142 0.07594584
0002a0 8e 11 9e ba bb 51 4d bd ae 6d 83 3d 3b fe 92 3c
       -0.0012059675 -0.050126772 0.06417404 0.017943492
0002b0 a2 82 2f 3d 85 cd c4 bd cd 67 0d bd ff f4 c2 3c
       0.04284919 -0.09609512 -0.03452282 0.023798464
0002c0 28 be 23 3d f9 67 0a bc 63 3c 10 bd 44 80 75 bd
       0.03997627 -0.008447641 -0.03521384 -0.059936777
0002d0 4d 49 cd 3c 64 6f d2 3c 36 eb 82 3b 73 4b bf 3a
       0.025059367 0.02568788 0.0039953245 0.0014594629
0002e0 e5 af 0a bd 47 68 1f bd 97 5e 97 3d 94 62 13 3c
       -0.033859152 -0.038917806 0.073910885 0.008995671
0002f0 67 64 07 bb 16 ab 85 bd af 72 4a 3b 7f 27 88 bc
       -0.002065921 -0.06526773 0.003089111 -0.016620396
000300 b1 ba d8 3b ed 9e 17 3d d8 2a 13 bd 76 78 3b bd
       0.006614052 0.037016798 -0.03592953 -0.045769177
000310 a0 c4 6a 3c be 06 b3 bd c7 a5 52 3d f0 0d db 3d
       0.014329106 -0.0874152 0.05142763 0.10696018
000320 57 94 02 3d 94 05 51 3d 15 0c 12 bd d4 50 e6 bd
       0.03187975 0.05103071 -0.035656054 -0.112458855
000330 01 69 8a bd f7 09 d3 bd 40 92 f7 bb ac 6f 57 3d
       -0.06758309 -0.10304635 -0.007555276 0.052596733
000340 a6 ab 16 3b 22 27 63 3d 74 35 0f 3c 1a 58 8c 3b
       0.0022990494 0.05545724 0.008740772 0.0042829635
000350 ac 04 e4 bd a4 ae bf 3d a9 2f 53 3c 5b ce a8 bd
       -0.111337036 0.09359482 0.012889781 -0.08242484
000360 af 91 88 39 c7 04 4a 3b f8 18 93 3d 61 98 a0 3c
       0.00026048484 0.0030825601 0.07182497 0.01960391
000370 f6 2e a4 3d 08 70 e7 bc 92 fd 53 bd d4 4c 29 bd
       0.080167696 -0.028251663 -0.051755495 -0.041333035
000380 06 ab 51 bd 31 c7 b8 bc 9e 8a 82 bd 4e 80 ca 3d
       -0.05118849 -0.02255592 -0.063740954 0.098877534
000390 7d e0 e5 3d 15 a1 7b bd e6 b7 95 bd 90 31 94 3d
       0.11224458 -0.061432917 -0.073104665 0.07236016
0003a0 c9 d2 91 3c 97 71 68 3c 98 eb 94 3c 33 0c ac 3d
       0.017800706 0.014187238 0.018178746 0.08400764
0003b0 b6 67 a6 bc 63 6f ae 3d 0d 04 52 3d 33 99 13 bd
       -0.020313125 0.08517339 0.051273394 -0.036034774
0003c0 93 ee cd bc d1 87 42 bd 30 e0 0e ba 1b da e0 bc
       -0.025138175 -0.047492806 -0.00054502767 -0.02744775
0003d0 2a 24 ac bd 11 52 b4 bc ab c7 1b 3d ac 4c a2 3b
       -0.08405335 -0.022011789 0.038032215 0.0049529877
0003e0 c2 0d aa 3d bf 9d a3 3c 9b 32 cb 3c 08 46 3f bd
       0.08303405 0.01997268 0.024804404 -0.046697646
0003f0 7e a7 4c bd 39 71 01 3c 2c e3 7b 3d 04 28 0b bd
       -0.04996442 0.00790053 0.061495945 -0.03397371

to_mean.2.bias f4 [18]
000000 ac b1 50 bd b2 33 6b 3d 27 02 40 3d ba 32 8d bc
       -0.05095069 0.057422347 0.046877053 -0.017236102
000010 d6 0a a7 3b a1 14 82 bd e3 1b 8b bd 6c e0 a4 bc
       0.0050977273 -0.06351591 -0.06792428 -0.020126544
000020 78 32 28 3d 13 06 ad bd b3 0e d2 bd 4e 97 b1 ba
       0.041063756 -0.08448424 -0.1025671 -0.0013549121
000030 cb ef 41 3d 52 6b a3 bd 52 5c 58 bd d5 c1 81 3d
       0.047347825 -0.07979454 -0.05282242 0.06335799
000040 98 e3 84 3d 30 f4 33 3d
       0.064887226 0.043934047
