saves/save2_1_23/save9_AllDofs_bigNN_NewObs_28800.pth (torch, 942043 bytes, 11 tensors)

shared_net.0.weight f4 [512, 67]
00000000: 14c9 e3be c8e3 41bd 4e74 3ebd b00d 79bd
00000010: 5a8c a8bc cf07 c0bd e97d 8abe 06b4 1fbc
00000020: 75f0 38be eb6b 0e3e 6651 853e e7da c0be
00000030: c93b b9be 0356 83bd 202b 693e 23d8 ad3e
00000040: 3cd4 3b3f 8bbb 123e 149f 6dbe 4834 62be
00000050: 6599 b0be dab1 31bc e449 a3bb c861 37bd
00000060: 1d18 343e 3380 ad3e e9c5 923d 1152 bf3c
00000070: 5a42 0bbe 038c 07bf 9ef0 263d 28db 9e3d
00000080: cc8a b4bc b174 6d3b a1f4 e4bc 84fc 8a3c
00000090: 9f3b 27bd 249b b33d 0822 863c 3260 5d3d
000000a0: 6d8b 58bd 1b7d 063c 8ba5 53bc df50 8cbc
000000b0: e283 99bc 1e23 ae3c 28ac b03d 8cd5 9b3d
000000c0: 546d 75be cf37 3cbd 1837 b93d c371 fd3d
000000d0: c880 463e 5d5d 1dbe 0ed8 9b3d 178e a5bd
000000e0: ebdb 1bbe 1f89 93bd f59e 2dbe 7dda 8abd
000000f0: ebcd 033e 3e34 5b3c 34b7 d3ba eed5 6d3e
00000100: 1936 c73d 34d3 46be d16f dd3d 939e 3bbe
00000110: 1afc fb3d 7c16 043e ab2a 0cbd 4756 1bbe
00000120: 4a96 7c3e 9ae7 393f 88e1 d13d dd0e a83d
00000130: b10a e73c fab6 0fbf 0e05 bebd fb31 58be
00000140: 91b9 e2bd e4b2 c23d 56b4 04be 5b07 78be
00000150: c70f 0c3d 9793 dbbc e413 64bd 4617 9cbd
00000160: 3c12 35bd 3f74 973d ca6d 803d 2064 29be
00000170: 68db 023d 3fff 26bd c423 53be f93b 5dbe
00000180: 46ee 01bc 15d7 9abc 696c a13c d83c 96ba
00000190: 795c 43bc eb32 313d 98a2 063c f3c5 edba
000001a0: 29a4 503d 184b 78bb 2e93 813c 885d b2bd
000001b0: 63fd 403d 4b3f aa3c 5d13 f2bc c6d8 c03c
000001c0: 665e bbbb 5c78 0b3d 7f7c 523c 8fd2 02be
000001d0: 0075 1d3d e329 733c 4127 58bd 7a6d 943c
000001e0: 8845 433d b132 52bd 88e8 fdbc da66 85bd
000001f0: 5165 a1bd 8ba2 c23c ea1c a9bd ff5c be3d
00000200: bfbb 743d f64b 60be 5fd6 873d c996 343d
00000210: 553c 7fbe 1b6d b4bd ef75 01be 355b 0d3e
00000220: 4447 ef3d d0b3 013e c0df 893d 5593 6e3e
00000230: f552 6f3e 8e73 cc3d 1836 b43d 3a99 fdbc
00000240: 7eeb 80bf b7d5 83bf c674 7d3e 57f7 433d
00000250: 613c 0b3d 1889 89be a975 57be 4a8e a1bd
00000260: a454 f6bc 4343 bc3d 1d59 143e e0bc 86bb
00000270: c901 353d 5ccd 9bbc 55d3 4dbd ab5c f0bd
00000280: 4847 00bd 5323 273e 8f8a 37be 6eea 88be
00000290: ec1e 2abd 72d5 d73b 43c8 babb 8c5d 813a
000002a0: 9fb8 493c 8f9e 11bc 1492 2cbc a664 2bbd
000002b0: 8d5a fbbc d37b 9abc 89e1 b23c 5777 aabc
000002c0: f33e bb3b a8c0 723a 27ce 733b 3ad8 03bb
000002d0: 820d 8a3c 888b b8b9 aa99 0e3e b4ea 973c
000002e0: a624 62bd 4f33 d63d 695e 28bd 055f c43b
000002f0: 40de 37be 6d50 7e3d ac97 e53d c29f 143e
00000300: bf92 e6bd e103 62bb 0110 81bd 297b 983c
00000310: 1f19 3abd 9731 aa3e c35f b7bd cd83 0abe
00000320: 0e6b 0a3e d41a 40bd b124 0ebd a9b4 d2b9
00000330: ef1b e6bc f0b3 c4bc 4356 403d b03d 6a3d
00000340: 10af 7f3d 7636 9dbc 9e70 9cbc a88c 73bc
00000350: e954 fe3e 4449 863d 4b91 be3d de65 053d
00000360: 2b1a a6be 7f08 d23d f264 cdbd 4d65 cfbe
00000370: b4d0 e9bd a8a0 81bd 1c96 9d3e 8677 3fbc
00000380: 0e44 c1be df56 cc3e 5f65 12be d8c4 ac3f
00000390: b3fe 09be 0b6a 643e 609e bc3d 11a6 2d3b
000003a0: 5529 b83d ac1a c33b 7b9e ddbb 3bd5 40bc
000003b0: 679f 923c 2151 00bc d069 1bbc 027d 9d3c
000003c0: 4218 fb3b 3bb0 ee3c 2bc7 95bc ff80 093d
000003d0: d122 6fbd d4fe a4bd 4523 1cbc 371c 46bc
000003e0: cd4c 2ebd c577 f3bd 2030 10be 56e8 a9bd
000003f0: f545 fc3d 6d65 d13d 069b 803d b2bb 1b3d
-0.44489348 -0.04733637 -0.046497636 -0.06080407 -0.020574737 -0.09376489 -0.27049187 -0.009747511
-0.18060477 0.13908355 0.26038665 -0.3766701 -0.36178425 -0.0641289 0.22770357 0.33953962
0.7337072 0.14329354 -0.23205215 -0.22090256 -0.3449203 -0.010845626 -0.0049831737 -0.044770986
0.17587323 0.3388687 0.071666546 0.023354562 -0.1359953 -0.52948016 0.040756814 0.077566445
-0.02203884 0.0036232884 -0.02794868 0.016966112 -0.040828343 0.08769825 0.01637365 0.054046817
-0.05286734 0.008208538 -0.0129178865 -0.017128406 -0.018739644 0.02125698 0.08626586 0.0760909
-0.23967487 -0.04595166 0.090437114 0.12375214 0.19385064 -0.15367647 0.076095685 -0.08083742
-0.15220611 -0.07203888 -0.16955169 -0.067799546 0.1287152 0.013379155 -0.0016152621 0.23226139
0.09727115 -0.19416505 0.10812343 -0.1832221 0.12303944 0.12899202 -0.03422038 -0.15169631
0.24666706 0.7261902 0.10248095 0.0820596 0.02820334 -0.56138575 -0.09278308 -0.21112816
-0.1107055 0.09506777 -0.12959418 -0.24221556 0.034194734 -0.026803775 -0.05568303 -0.076216266
-0.044206843 0.07395219 0.062709406 -0.16542101 0.031947523 -0.040770765 -0.20619112 -0.21604909
-0.007930344 -0.018901387 0.019705014 -0.0011462225 -0.011923903 0.04326145 0.008217476 -0.0018140659
0.050937805 -0.0037886556 0.015817251 -0.08709246 0.04711665 0.020782134 -0.029550249 0.023540866
-0.0057180403 0.03405033 0.012847065 -0.12775634 0.038441658 0.01484153 -0.05277181 0.018118609
0.047673732 -0.051317874 -0.030994669 -0.06513758 -0.07880653 0.023759147 -0.08257468 0.09295081
0.05974936 -0.21903977 0.06632685 0.044089112 -0.24925359 -0.08809873 -0.12642644 0.13804324
0.11683515 0.1266625 0.0673213 0.2329839 0.2337149 0.09982978 0.0879938 -0.030956853
-1.0071867 -1.0299596 0.24751577 0.047843304 0.03399313 -0.26862407 -0.21040978 -0.078884676
-0.030069657 0.09192517 0.14487119 -0.004111871 0.044191156 -0.019018821 -0.05025037 -0.11736425
-0.03131798 0.16322069 -0.1792395 -0.26741356 -0.041533396 0.006586724 -0.0057001426 0.0009869798
0.0123120835 -0.008887901 -0.010532875 -0.041844033 -0.030682826 -0.018857872 0.02183606 -0.020808859
0.0057142912 0.00092602754 0.0037201734 -0.0020117895 0.016852144 -0.00035199174 0.13925806 0.018544532
-0.055210732 0.10459005 -0.04110566 0.0059927725 -0.17955875 0.06208842 0.1121057 0.14514068
-0.11258458 -0.0034487175 -0.06301881 0.018613415 -0.045434114 0.3324096 -0.08953812 -0.1352684
0.135174 -0.046900585 -0.03470296 -0.00040188924 -0.028089492 -0.024011582 0.046957266 0.057187736
0.062422812 -0.019191008 -0.019096669 -0.014865078 0.49674156 0.06556943 0.09305056 0.03256785
-0.3244184 0.10255527 -0.100290194 -0.40506974 -0.1141676 -0.06329471 0.30778587 -0.011686211
-0.37747234 0.39910027 -0.14296483 1.3497572 -0.13476066 0.22306077 0.09209895 0.0026496688
0.089922585 0.0059541073 -0.006763277 -0.011769588 0.017898275 -0.007831843 -0.009485677 0.019224647
0.007662804 0.029136768 -0.018283447 0.033570286 -0.058382813 -0.08056417 -0.009529893 -0.012091688
-0.04255371 -0.118880786 -0.14080858 -0.08296268 0.12318031 0.102244236 0.062795684 0.038020797

shared_net.0.bias f4 [512]
00000000: af54 a63c 2ce8 7d3c 3467 c03d cc5b 813e
00000010: 75eb 7abb 2859 20be ee3b e7bd 6687 c43e
00000020: 5af0 8d3e 384c 883c 1c3b cd3d 0190 8dbd
00000030: 455e 52be 15ce 4d3e 8fa1 f23c cb1e 24be
00000040: 9cb0 3abe 0ea3 c83d b6e8 d33b 4c40 98bd
00000050: fce5 40bd 692d 8f3d bb27 8cbd efe8 32be
00000060: ef12 323d ef58 263e 691c ae3e be46 123e
00000070: 6f19 1fbc 0bcc 5d3e a5c0 a0be 9e05 a63e
00000080: a16f aa3e 5fb7 ef3b b539 dc3d 8f4e 2bbe
00000090: ec86 a8bd 94ae a83d 7b0f 173c 1b14 9abe
000000a0: 5835 70be bd25 eabc 00f7 27bd a306 703c
000000b0: b5d7 00be 56f3 6dbe a4e2 4c3e 38f3 c4bd
000000c0: 4392 1dbe f95b e1be ccc5 c13c fff4 07be
000000d0: 8e3a b9bc 8718 9c3e 2abb e8bd 7200 23bd
000000e0: 8829 6dbe efd4 d73d e862 ccbd 4390 163e
000000f0: dc3a 14be 415f 8f3e 3a54 09be b86a 4cbc
00000100: 5bdb cbbd c456 a4bd 8b55 d63d 8891 d73d
00000110: 67da c83e 54c3 71be bf7d 0b3e 2782 58be
00000120: f941 9abd 2556 58bd 76fa aa3e 7ca8 c93d
00000130: 96f2 bdbd 693c 973e c9fb 993e f5d5 82bd
00000140: 4964 0ebe a699 093e db3e debe 11da b9be
00000150: 235c 723d a269 243d 26a1 20bd fb4c ad3d
00000160: 638c 1cbd 89b9 5ebe d316 d63d ac87 90bc
00000170: 3a17 93be dbd3 793d eb72 733e 1a1e 9fbe
00000180: 7cd4 6fbc a5e2 8a3d f34a abbe 5c3f 7fbd
00000190: 3265 7a3c 128b b8be ab9e 613d 2c50 243e
000001a0: 5d55 38be d546 69be 7c85 e43b 260c b53d
000001b0: b640 073e 196b 673d 53ec f23d 1621 d9be
000001c0: 383c 173e b838 f43c 9ca3 d23b 5044 1e3e
000001d0: 4d6d 38be 7650 033e 0100 07be aa71 1b3e
000001e0: cbf9 8fbe 5650 70be 10d5 dc3e 8b26 21be
000001f0: 251a a0be 9db1 8a3d 4d0e 2bbe 174a 9dbe
00000200: 3ce7 313e f6d6 b43d f86f edbd 60cb f4bd
00000210: 15ce dd3c bc31 f83d 96fb e23c 9911 a3bd
00000220: 57f0 74be 7159 52bd dd58 223e d7be d1be
00000230: ac39 3fbd 9026 90be b0be c93e 8398 d7bd
00000240: 8e10 6ebd f72c 95be a5d0 1abd e0df 8cbe
00000250: a390 b63e a7d5 39bd 9019 10be 4a98 94be
00000260: 45dc 173e c60f c8be f9a9 10be e19a 54be
00000270: d355 bdbb 6c3e 8ebe 62c3 24be 19fe 243d
00000280: 7b69 423d ab05 9c3e c7ab 1a3e ef9f 51be
00000290: 1eb5 91be b484 33bc 6c0d e13d e896 103e
000002a0: f4c3 133e 8bcd 9abd 3ca6 01be d39c 7c3e
000002b0: a042 a6bd 696f eebc ad78 473d de76 4bbd
000002c0: 6285 34bd 6bbe a0be 3012 333e 659d 313d
000002d0: c7ac f33c c2d7 493d bbf6 0dbe 5471 25be
000002e0: b6e1 ba3e e48d e63d 0558 fbbd e88d 0fbe
000002f0: 21ce 5fbd 8d73 513e d25d a3be 2374 e53d
00000300: bb80 c93d 39a2 3a3e d862 443e 1ea6 92be
00000310: 5692 1d3e bb26 423e 84a2 273e 58be ec3d
00000320: 06a5 8abe 4fa3 6abe 3e43 bdbc 28dc 71bd
00000330: c48f 103e ba66 393e 999e 50be 5859 dcbc
00000340: 6b7c 6fbe 1b2a 4fbd 900a 113e a9bf 853e
00000350: f938 bebe c40f f5be 881c adbd 9585 a2be
00000360: f00c 333e 878b 33be 20f6 853e 6e14 19bc
00000370: efca 653d 28ef 01be 345c 483b f86b 2abe
00000380: fd89 75bd 7b01 cd3e 3323 88bd fdbe 883e
00000390: a148 51bd c34c d9be 624d 7fbe ce8e 3abd
000003a0: 6c5e ecbd e751 17be 8992 953d 1365 ddbc
000003b0: 75bb abbe 5ded 6fbe 7264 8fbe 8cb6 e9bd
000003c0: 23fa 92be 676f cebd f114 0fbe ff45 c2be
000003d0: cf0f b53c 1150 1fbe ff0c 74bd 5937 563d
000003e0: 4fa0 14bc 0529 57be 47bb 0e3c 2f96 ff3c
000003f0: 0ebc dbbd ed2e 58be 272e 3f3e 06a9 bf3c
0.020304052 0.015497249 0.093946844 0.25265348 -0.0038287316 -0.1565901 -0.112907276 0.3838455
0.27722436 0.016637906 0.1002104 -0.06912232 -0.20543773 0.20098145 0.029618053 -0.16027372
-0.18231434 0.09796725 0.0064669503 -0.07434139 -0.04709433 0.06991083 -0.068435155 -0.1747167
0.043475088 0.16244863 0.3400605 0.14284799 -0.009710654 0.21659867 -0.31396976 0.3242616
0.3328829 0.0073155607 0.10753194 -0.16729186 -0.08228859 0.08236423 0.009219999 -0.30093464
-0.23457849 -0.028582448 -0.041007042 0.01465002 -0.12582286 -0.23237357 0.20008332 -0.09616703
-0.15387826 -0.44015482 0.023653887 -0.13277052 -0.022610929 0.30487463 -0.11363824 -0.039795347
-0.23160374 0.10538661 -0.09979802 0.14703469 -0.14475578 0.2800236 -0.13411036 -0.012476616
-0.09953948 -0.08024362 0.10465535 0.10525805 0.39229128 -0.23609668 0.13622187 -0.21143399
-0.075321145 -0.05281653 0.33394212 0.09846589 -0.09274785 0.29538277 0.3007491 -0.06388465
-0.13905443 0.13437518 -0.4340733 -0.36299184 0.0591699 0.0401398 -0.039216183 0.084619485
-0.03821982 -0.21750464 0.10453572 -0.017642818 -0.28728658 0.060993057 0.23774306 -0.31077653
-0.014638063 0.0678151 -0.3345562 -0.062316284 0.015282916 -0.36043602 0.05508296 0.16046208
-0.18001314 -0.22780927 0.0069739204 0.08840208 0.13208279 0.05649862 0.118614815 -0.42408055
0.14769065 0.029812202 0.006428195 0.15455747 -0.18010445 0.12823662 -0.13183595 0.15180078
-0.28120264 -0.23468146 0.43131304 -0.15737359 -0.31269947 0.06772158 -0.16704674 -0.3072059
0.17373365 0.08830063 -0.11593622 -0.11952853 0.027075807 0.12118861 0.027707856 -0.07962341
-0.23919807 -0.05135483 0.15854211 -0.40965912 -0.04668586 -0.2815442 0.39403296 -0.10527136
-0.058121257 -0.29135868 -0.037796635 -0.27514553 0.35657224 -0.04536977 -0.14072251 -0.29022437
0.1483012 -0.39074534 -0.1412734 -0.20762207 -0.0057780533 -0.27782 -0.16090158 0.04028139
0.047463875 0.30473074 0.1510459 -0.20471166 -0.28458494 -0.010956932 0.10988888 0.14120066
0.14430219 -0.075587355 -0.1266107 0.24669199 -0.081181765 -0.029105859 0.04869907 -0.049673907
-0.044072516 -0.31395277 0.17487407 0.043362994 0.029745473 0.04927803 -0.13863651 -0.16156512
0.3650033 0.11257532 -0.12272648 -0.14018977 -0.05463994 0.20454235 -0.31907517 0.11203792
0.098390065 0.18225946 0.19178331 -0.28642362 0.15387854 0.18960087 0.16370589 0.11559743
-0.27079028 -0.2291386 -0.023103353 -0.059047848 0.14117342 0.18105593 -0.20373 -0.026898071
-0.23387305 -0.050577264 0.14164186 0.26122788 -0.37152842 -0.4786359 -0.084527075 -0.3174254
0.17485404 -0.17533694 0.2616434 -0.00934325 0.056101736 -0.12688887 0.0030572535 -0.1664275
-0.05994605 0.40040192 -0.06647339 0.26708212 -0.051094655 -0.42441377 -0.24931863 -0.045546345
-0.11541447 -0.14777337 0.0730334 -0.027025735 -0.33541456 -0.2343039 -0.2800632 -0.11411771
-0.28706464 -0.10079842 -0.13972832 -0.37944028 0.022102265 -0.15557887 -0.059582707 0.052298877
-0.009071424 -0.21011741 0.008711643 0.031199543 -0.10729228 -0.21111651 0.1866995 0.023396026

shared_net.2.weight f4 [256, 512]
00000000: 9778 c4bd e746 ad3d 79b0 cabd ec8d 403d
00000010: 16d8 10bd 05f6 6dbe 47dd aa3c 7276 86be
00000020: 1d38 ba3c 99af b5bc 8bb5 54bd 072b 5dbd
00000030: 15f1 db3d 59ef e3bd ff07 063d db37 503d
00000040: 3e58 603d 519b 73be ce17 0a3d 2ba9 97bd
00000050: 40dd 953d 86cb 76bd 1a59 ec3c c4f9 35bc
00000060: 54ce a5bc e63e 7bbc 40b3 863c d224 32bd
00000070: 084b c6bd 0353 7dbc f21c 163c 072b 7ebe
00000080: 3bd0 0bbe a738 43bd 5f42 96bd ca6d 873e
00000090: f428 89bd 9e1d 2abd 08dc 47be fe94 ed3d
000000a0: 7085 c63d 0311 d33d 67ae a53c fd0e 213b
000000b0: a36c 2fbe b9cb dfbc bd43 78be 40be 013d
000000c0: d396 43bd 2fe3 983d 3ca8 193c 7cf8 ebbc
000000d0: d954 8f3d bed5 063d 5505 433d 513b 7dbb
000000e0: 9fa9 bb3d 30b1 653e a503 e4bd 3d0c 303e
000000f0: d056 8fbd 012a bf3d 0faa b4bd 9206 ec3d
00000100: 92ca c53d 04ed f43c 08ab f0bd 6848 003c
00000110: aa54 cbbd 2dd7 06bd f0ed a3bd 6a87 663d
00000120: d7d1 503d b34b 033d 6b6a 8abe ca21 623c
00000130: 7801 dfbd a44b 063e 3b02 8a3d 8b7b 2d3e
00000140: 89ee 26bd eb47 dcbd 1c84 9b3d 96b6 17be
00000150: 30c3 1bbe acf6 0f3e bbde b8bc f62a 33be
00000160: 496a 6c3e 6514 883d a6c4 85bd 562d e8bc
00000170: b8b5 8e3d 26fc 6d3b 754e d4bd e0ce 233d
00000180: 3b7c ebbe 1b70 b8bd fe2f df3c 086d 4c3e
00000190: 0cbc a3bd ed0d c63c 5026 173e 3296 3b3e
000001a0: 5ea9 dfbd 0591 b73d 4043 aebd be54 1f3d
000001b0: 4904 9dbd 1f92 f13d 0376 193d a3ac bcbc
000001c0: 4bd6 c93c a765 343e 7213 acbd 85cd d1bd
000001d0: 9626 f43d 9dfa 49bc 538a 403d 7137 4ebe
000001e0: e392 0bbe de85 f9bc 800f 053d 3dba 9ebe
000001f0: b611 513c 8815 4f3d 3269 2a3d 7f0b 0bbc
00000200: e45c cc3d 6cc9 b2be 2dca 5e3c 4723 343e
00000210: 4a87 a5bd ac6e abbd 9ef7 803e 0189 583d
00000220: 6487 62bd f9c1 983a 0cc4 c73d dc84 7b3d
00000230: cf8c 16be 7afd 023d 0ef7 33be 13e3 1abe
00000240: abc7 393c bc0c c2bb 9bf0 b1bd a46e 80bd
00000250: 47c2 23be 1c5c 75bd 514e e83a 106e 223e
00000260: 2f83 0ebe a2dc 1e3e 40d9 d23d d719 aebd
00000270: 53cb b83c 57a0 5bbc ae6e 4a3c 0983 c1bb
00000280: 1db2 11bd d076 f53c 9a50 83be da8c 373c
00000290: 62b5 c33d 604d d4bd 26ec ac3d 0429 edbd
000002a0: 2bec 863d 0e10 1dbe fb72 0d3e 2046 5d3c
000002b0: 0def 27be b147 df3d 0d6d e63d 8241 31be
000002c0: 8820 6abd e631 a83d 9064 efbd 2592 1bbd
000002d0: 1f9b c9bd 0380 57bd 291a eb3d e7f0 1ebc
000002e0: 9d69 8d3d 1204 fabc f0b3 4e3d 75dd 52bd
000002f0: 9562 c53d 25ee cabd 782b 383e b604 22be
00000300: 8ab8 3abe a049 a4bd 5bae 67bd 6d2f 5abb
00000310: 15e3 003e 0487 cc3d 9d27 89bd 4c2c 22be
00000320: a58a 373d 4f87 013e e2ec 8d3d b18c 3ebe
00000330: 0952 a7bd ebf5 eb3c 64ca 363d 6620 b1bc
00000340: d2fb 563d cec9 373e b0cb 44be b5f1 1ebe
00000350: d486 6c3e 1678 2b3c 93bf 593c 0877 0cbd
00000360: bf96 7cbd e669 283e 289e cabd 1d8e 31bb
00000370: 7da7 163e fbc1 d5bb e962 9dbd c55e 53bd
00000380: dcf1 0bbe 4933 7dbd a3c2 3f3c a515 3cbd
00000390: 64b5 913d 7dd3 303c 9c1d 5d3c 58b1 b23c
000003a0: 1ec0 993d c057 aa3d 5bd8 68be fd98 113d
000003b0: 2065 49bd aa1e 44bd f0ce 7c3b 1b17 d73d
000003c0: 6348 943c ac9f 203e e79c 3c3c 75c4 8b3d
000003d0: 3204 0c3d c114 1e3d 79f1 d4bd 7830 1b3e
000003e0: 3ac2 333e 39a2 efbb dc0f 383e ea14 fc3c
000003f0: 0215 d4ba 5c39 ab3d b3ba 4f3d 285e f03c
-0.09593313 0.08460789 -0.09896941 0.047010347 -0.035362326 -0.2323838 0.020857466 -0.26262242
0.022731835 -0.022178458 -0.051930945 -0.053996112 0.10739342 -0.11129636 0.03272247 0.050834518
0.054771654 -0.23789717 0.03371411 -0.07405313 0.07317591 -0.06025269 0.02885108 -0.011106912
-0.020239986 -0.01533482 0.016442895 -0.043492146 -0.0968228 -0.015461686 0.009162175 -0.24821101
-0.13653652 -0.04766145 -0.07336878 0.2645095 -0.06697264 -0.04153215 -0.19517529 0.11600684
0.0969342 0.10305979 0.020224763 0.0024575584 -0.17131285 -0.027318822 -0.2424459 0.031675577
-0.04775126 0.07465207 0.009378489 -0.02880501 0.06998605 0.032918684 0.047612507 -0.0038640092
0.09163212 0.22430873 -0.11133508 0.17192169 -0.0699898 0.093341835 -0.088214986 0.11524691
0.09657778 0.029898174 -0.117513716 0.007829763 -0.09928258 -0.03292005 -0.08004367 0.056281485
0.05098137 0.032054614 -0.27034315 0.013802001 -0.10888952 0.13114792 0.06738707 0.16941659
-0.04075483 -0.10755905 0.07593557 -0.14815745 -0.15211177 0.14058942 -0.022567144 -0.17496857
0.2308742 0.06644515 -0.06531648 -0.02834193 0.06968254 0.0036313622 -0.10366527 0.039992213
-0.45993218 -0.090057574 0.027244564 0.19963467 -0.079948515 0.024176562 0.14760709 0.18319014
-0.10920976 0.08963207 -0.08508921 0.038899176 -0.07666833 0.117954485 0.03746606 -0.023031538
0.024638316 0.17616902 -0.084021464 -0.10244278 0.11921422 -0.012327817 0.047006916 -0.20138337
-0.13630252 -0.03045934 0.032485485 -0.31001464 0.01276057 0.050557643 0.04160423 -0.008486628
0.09978655 -0.34919298 0.013598007 0.17591582 -0.08082445 -0.08370718 0.25188917 0.052865032
-0.0553049 0.0011654488 0.0975419 0.061406 -0.14702152 0.031980015 -0.17574713 -0.15125684
0.011339108 -0.005921928 -0.0868847 -0.06271103 -0.1599208 -0.059902295 0.0017723535 0.15862298
-0.1391723 0.15513852 0.102953434 -0.08501022 0.02255789 -0.013404927 0.01235549 -0.005905513
-0.035570253 0.02996388 -0.25647432 0.011203015 0.095560804 -0.103663206 0.08443479 -0.11580089
0.06588014 -0.15338156 0.13813393 0.013505489 -0.16399784 0.10902346 0.112512685 -0.17310145
-0.05715993 0.08212642 -0.11689103 -0.03798117 -0.0984404 -0.052612316 0.11479599 -0.00970099
0.0690491 -0.030519519 0.05046457 -0.05148073 0.09637944 -0.09908704 0.17985332 -0.1582211
-0.18234459 -0.08021855 -0.056562763 -0.0033292428 0.12586625 0.0998669 -0.06697009 -0.1583721
0.044809956 0.12649272 0.069299474 -0.18608357 -0.08169944 0.028803786 0.04462661 -0.021621894
0.05248625 0.17948076 -0.19218326 -0.15521891 0.23098308 0.010465642 0.013290304 -0.034293205
-0.0616672 0.16446647 -0.09893447 -0.0027092763 0.14712329 -0.0065233684 -0.07684881 -0.05160405
-0.13666481 -0.061816487 0.01170412 -0.04591908 0.07114676 0.01079261 0.013495829 0.02181308
0.075073466 0.08317518 -0.22738783 0.03554629 -0.049168706 -0.047880806 0.0038575493 0.10502454
0.018100923 0.1568591 0.011512018 0.068245806 0.03418369 0.03859401 -0.1039762 0.15155208
0.1755456 -0.0073130396 0.179748 0.030771691 -0.0016180577 0.0836055 0.05071516 0.029341772

shared_net.2.bias f4 [256]
00000000: e80d 00be bc03 42be 4694 bc3b e9c2 d6bc
00000010: b381 48bd 8424 bcbc 7586 fa3c 4083 b5bd
00000020: a3ee 83bd ebf6 3bbd f851 e03c ab8e c1bb
00000030: 8100 8ebd 3d1c 553c 4638 95bd e0dc 86bd
00000040: b1f0 1bbd 204e d4bc 5d13 fdbc 0b4f 423d
00000050: b887 343b b7b0 16be 6ab0 e7bd 7c3e 403e
00000060: 24d9 94bc c838 8ebd 7e47 e5bd 9332 8cbd
00000070: c7cc 063d f19c e83c 7ffc 6a3d 68e7 01be
00000080: 9aa6 fb3b 16d7 a03d 4a47 edba b752 33bd
00000090: 1083 9fbd a6b4 cc3c 7556 0fbd fd54 bbbd
000000a0: bc35 22bd d683 d33c 2277 08be 8444 40bd
000000b0: 8861 3ebe c031 27bd a54c 1d3c fa8c b03d
000000c0: 8505 16bd 82b4 a8bd 63ed 223d 6a94 8fbd
000000d0: e4aa 49be f28c 16be 9fa8 21be 0fe7 4fbe
000000e0: a275 0dbe 446c 84bc b7e7 05be da38 9abd
000000f0: 8675 23be 895f 843d 9348 02bd ab27 6ebc
00000100: 7984 bfbd 615a 13be 0b98 febc 3b71 3c3c
00000110: 7b4d 54bd dfc1 ad3d d6df d63d 54df 3e3d
00000120: 9a2b bbbd e438 a1bd e30c 55bc c213 b5bd
00000130: c14a 55bd 8bd7 96bd 33bd 03bd db75 633c
00000140: 702c 22bd 6023 86bc 6f15 ecbc f757 1fbe
00000150: 30b3 1e3e aae6 91bd eafe 823d 423e a7bd
00000160: f4e9 79bd dc41 623d b65e 0b3e 84e6 a7bd
00000170: 3ef4 84bd 5420 4fbd 0b24 e0bd 825d f2bd
00000180: be9f 0fbe 1f9a 8dbd 0961 a2bd ce1b 09be
00000190: b3d1 533d edbe 6dbd edc1 b03d 81e1 823d
000001a0: a747 ca3b b880 f9bc 5ff8 873b d611 d03d
000001b0: b573 74be ff9d ccbd 484e 8fbb 17dd 39bd
000001c0: ad1d ddbb ef32 28bc 0fe6 333b e67b 583d
000001d0: 8720 13bd 95b4 2fbe 7343 51be 530c a2bd
000001e0: 557b ddbd 98dd db3c 64f9 f93c 30f8 e53a
000001f0: 946d 0ebd e27f 35bd b465 11be 6dd2 12bd
00000200: 2914 75bd 3bf9 093d 4661 35bd a7a6 95be
00000210: 8a0b 66bb 4e95 c93c fb83 703d 8adb 95bc
00000220: 51e4 e5bd f3e8 24bd 4e21 1bbe 3eb6 3c3b
00000230: 5b30 4bbd 0f1e ccbd d89d 0abd acc1 2bbd
00000240: 602c bfbd 3b1c 47bd 677c a73b 2190 ccbc
00000250: 849a 7fbc 9e4f 30bd cbb3 6e3c 8675 73bd
00000260: 163c e8bb cbf5 af3c 4281 193d 4d2c c2bd
00000270: 9c6d dbbc 60f0 7dbc 9c6a 593d 96aa 9ebd
00000280: 53e6 d1bc 68c3 a93c 1692 13be 34f9 383d
00000290: b90c e23c 7c93 a0bd a02d 003e 6ba5 b8bc
000002a0: 0c43 9dbd 8825 293d 25f8 f6bb 2b3f 5bbd
000002b0: 82a0 a4bd 0d9c 47be 2d1a 213d 8c41 16be
000002c0: 4a0d 543c a83b 00bd e1dd b4bd 2bf3 c5bd
000002d0: a32f dd3b e2d7 813d d082 113d 321d da3c
000002e0: c287 53bd 3dd4 c4ba e3f7 873d 0f08 f23d
000002f0: 86bb 053d 5a72 36bc 85b7 553d 485e a0bc
00000300: 4d5c b4bc e790 d03d 43b8 4abd 71cd 25be
00000310: 5e57 2c3d 1827 073d 1630 1bbd dd69 063d
00000320: 54d7 413c ca2c e33c 7791 1dbe 0aa4 913d
00000330: 29fe 8fbd 80f5 a2bc 1f7b 0cbc c6e2 093d
00000340: 3396 b3bc 9d17 96bd 842a 3ebd bdd6 19bd
00000350: b407 75bd 009f 3e3d a5cf 113d 38b9 5abe
00000360: ef6c b0bd d6d4 8e3c 4366 6dbc e00c 11be
00000370: a98d 21be 0275 34bd c916 e4bd a44a 88bc
00000380: 35ce 5abd be4b 5cbd a6ad 05bc c180 3ebc
00000390: 5022 75bd f07b 2bbd 86d5 2fbd 0d9a 08be
000003a0: 54b8 04be 0cf0 4ebe 6946 a4bd 4117 19bd
000003b0: 07a8 adbc e3c3 37bd 2790 f4ba 136b 53bd
000003c0: d98d f33c 2de4 433d b165 12bb f9c8 b03d
000003d0: 48fe f1bc 1a3a 563d 271d b7bc 808e 953c
000003e0: 5240 13be 7280 a6bc ef13 00bd e22e 85be
000003f0: cb71 4abb 87b0 153c 2457 953c d9d7 00be
-0.12505305 -0.18946737 0.0057549803 -0.026215987 -0.048951816 -0.02296663 0.030581692 -0.088629246
-0.06442001 -0.045889776 0.027382836 -0.0059069 -0.0693369 0.013007221 -0.07286124 -0.06585097
-0.038071338 -0.02591616 -0.030893022 0.047438662 0.0027546715 -0.14715849 -0.11312945 0.18773836
-0.018169947 -0.06944424 -0.11195277 -0.06845584 0.032910135 0.028395148 0.057369705 -0.1268593
0.0076797726 0.078535244 -0.0018102911 -0.043780055 -0.0778867 0.024988484 -0.03499456 -0.091470696
-0.039602026 0.0258197 -0.13326696 -0.04694034 -0.18591893 -0.04081893 0.009600793 0.08620639
-0.036626358 -0.08237554 0.03977717 -0.070107296 -0.19694096 -0.14702204 -0.1578698 -0.20302986
-0.13814405 -0.016164906 -0.13076673 -0.07530375 -0.159628 0.064635344 -0.031807493 -0.014535825
-0.09351439 -0.14389946 -0.03107836 0.011501606 -0.051831704 0.084842436 0.10491912 0.0465997
-0.09139176 -0.07872179 -0.013003561 -0.08841659 -0.052073244 -0.0736533 -0.032162856 0.013883079
-0.03959316 -0.01637429 -0.028818814 -0.155609 0.15498042 -0.07124074 0.06396277 -0.081661716
-0.06101413 0.05523859 0.13610348 -0.08198264 -0.06491898 -0.05056794 -0.10944375 -0.118342414
-0.1402578 -0.06914162 -0.07928664 -0.13389513 0.051713657 -0.05804341 0.086307384 0.06390668
0.0061730924 -0.030456886 0.004149481 0.10159652 -0.23872264 -0.09991073 -0.0043733455 -0.045376863
-0.0067479224 -0.01026605 0.0027450358 0.052852534 -0.035919692 -0.1715873 -0.20435886 -0.07912507
-0.10814539 0.026839063 0.030514427 0.0017545279 -0.03477247 -0.04431141 -0.14198953 -0.03584521
-0.05983368 0.03368495 -0.04428222 -0.29228708 -0.0035102093 0.024607327 0.058719616 -0.018293161
-0.112251885 -0.04026122 -0.15149423 0.0028795148 -0.049606662 -0.09966671 -0.033841938 -0.041932747
-0.09334636 -0.048610907 0.0051112655 -0.02497107 -0.015600804 -0.04304468 0.014569233 -0.05943825
-0.007087241 0.021479508 0.037476785 -0.09481106 -0.026785664 -0.015499204 0.053080186 -0.077473804
-0.025622522 0.02072306 -0.14411196 0.045159534 0.027593957 -0.078406304 0.12517405 -0.022539815
-0.07678804 0.04129556 -0.0075369054 -0.05352704 -0.08038427 -0.19493122 0.039331604 -0.14673442
0.0129426215 -0.031306893 -0.088313825 -0.09665521 0.0067500635 0.063400045 0.035525143 0.02662525
-0.05164314 -0.0015016865 0.066390775 0.11817943 0.03264954 -0.011135662 0.05217697 -0.019576207
-0.022016669 0.10183888 -0.049492132 -0.16191651 0.042075507 0.032996267 -0.037887655 0.032815803
0.011831123 0.027731318 -0.15387522 0.07111366 -0.07030899 -0.019892454 -0.008574276 0.033663534
-0.021922207 -0.073287226 -0.046427265 -0.037558306 -0.0598218 0.046538353 0.035598416 -0.21359718
-0.086145274 0.017435472 -0.014489713 -0.14165068 -0.15776695 -0.0440569 -0.111371584 -0.016637154
-0.05341931 -0.05378317 -0.008159077 -0.011627377 -0.059847176 -0.041866243 -0.04292824 -0.13340016
-0.1296094 -0.20208758 -0.08021242 -0.037375692 -0.021198286 -0.044864547 -0.0018658683 -0.051615786
0.029730724 0.047825027 -0.0022338445 0.086320825 -0.029540196 0.052301504 -0.022352768 0.018256426
-0.14380005 -0.02032492 -0.03126901 -0.2601233 -0.003089058 0.009136326 0.018230028 -0.1258234

to_mean.0.weight f4 [128, 256]
00000000: a06c 7fbc c13e 4dbc a39e 683d 7204 4e3d
00000010: 362b 863d 3e4e 0fbd 36c4 5e3d c511 bfbc
00000020: e5de 8cbd ba61 3abd 5ac3 183c 569e f1bb
00000030: d15e 963d 2c62 9abc 2b14 b53d c6f7 f23c
00000040: cd04 93bc d2b9 17bd 0bb4 40bd 2acc d93c
00000050: 67e8 0e3d 2451 223d 9bbc e7bc ee56 0c3d
00000060: ae8b 2fbd ad84 41bd f692 d3bc 6cea ccbc
00000070: bc40 45bd 0b96 5dbc 79fe 0fbd 79ae b93c
00000080: 722b 50bc 2b5e a2bb e57f 44b9 597e b63c
00000090: b45f c93c e9b4 b7bd 426f 3dbc 377f 773d
000000a0: 4091 a33d a72c f0bc 40f5 853d a684 76bd
000000b0: d1a1 c93d b948 953c 66e1 1f3c 1654 903b
000000c0: 9d1f 3bbd bcfe 15bd fe03 51bd 01ab 50bd
000000d0: b82e 023d e724 5b3c 6d48 d13d 3d8c b8bc
000000e0: 0f0f abbc 1f66 08be acd3 0cbd 871a db3c
000000f0: 7b83 9f3c 7ffe 44bc d62b 23bd fb82 a23c
00000100: 9a19 d43d 1501 993d 00e7 70bd 63bc cc3c
00000110: 308b a93d f9da 043d 0675 b63b c815 c7bc
00000120: d6b7 003d 4a5c a3bc 700f afbc 736c 403c
00000130: 1b66 33bb d6d2 fc3c c4c2 44bd f4ff b13c
00000140: 8cf2 4d3d 4672 1abd f80b 0e3c 4ed2 843d
00000150: 24de 1ebd faf6 9ebc 1eee 23bd 9a06 cc3d
00000160: d036 c83d 6f17 903d 164d 87bd d583 88bd
00000170: 4f0f 073c ac2a b2bb d3c3 723d dabc f03d
00000180: e991 2dbd 74d5 82bd 5f9a 003d b09b ee3c
00000190: 8d76 bcbb a1e6 6dbc b797 febc 4062 4d3d
000001a0: da5f d53d 55bc 6cbd 7ff6 16bc cb2e ddbd
000001b0: 44ae 003d af06 283c 1fd2 133d c629 30bd
000001c0: eb3c c7bc 7611 bd3c 5401 ed3c d41b 943d
000001d0: 8120 943c 3c56 423d a262 623d a027 91bd
000001e0: 8fb6 87bd a126 1dbd 6c8b d5bc 8faf c9bd
000001f0: 1317 39bc 1d67 dcbc db85 203d 6d7f 17bd
00000200: 1149 95bd 4704 dcbb d7ee 16bd 695c a73d
00000210: 0a56 5abd 76f8 c93c 5c1a 52bc b72d 9e3d
00000220: 7b57 9abc ac9e 133d 417e ba3b 87eb d8bc
00000230: 3379 183d 814b 203d d83c cfbb db48 bcbb
00000240: 8025 3a3d 098f 413d 7166 87bc 7161 edbc
00000250: 3024 a0bc 2633 e2bc e67e 39bd 9cae e13c
00000260: dc87 523d a0d4 d0bc 50b3 4e3c 4d5c e9bc
00000270: ec45 01bd a8fe a9bd 109a 07bd 553b b9bb
00000280: 8bb4 8a3d 9a00 a3bc f368 2f3c 23fc 8dbb
00000290: dad0 18bd 413a 103d 25c4 3c3d d411 823d
000002a0: 85c0 863d 7c47 91bb 72ac 403c 49c8 8cbc
000002b0: c51c 6abd 0182 7bbd a811 b23d f0d5 a6bc
000002c0: 912e 36bc 27d6 933b 639f aa3d b5e0 b3bc
000002d0: b91c b6bd ce49 28bd 32fc 823c 09e0 acbc
000002e0: a4e7 ce3d b570 0c3d c5fb 6dbc 2725 5ebd
000002f0: 8269 413d 4cbd 553d ad4e 8c3d 9f2e 983d
00000300: 8b76 f4bc 6be3 c0bc 8c1c 1bbd 0638 34bb
00000310: 5e43 73bc 855c e63c 9e8e ba3c c579 aabc
00000320: 17db b33d e566 04be 1878 583d 9e0e 71bc
00000330: b61c 723b 0693 be3c a820 233d 65ca febc
00000340: cb40 8cbb e952 bc3d ed28 443d 3bc0 ec3d
00000350: c021 1c3d 5054 5bbc 0f4b c6bc 56ed 57bc
00000360: 8a8e 69bc 6f0c a73d 22c8 a23b cd1c 673a
00000370: edba b93d e814 c63c d904 91bd 96ad 9e3d
00000380: 6378 e03c 2b42 e7bd 299d 873d 70ab b4bd
00000390: 51ca debc e0ca 923c 1498 00bd a36c 18bb
000003a0: deac 1cbc b7d3 09ba 825a bc3d 8fbb 71bd
000003b0: 7e1d efbc 43fb 11bd 0545 82bd 022d a4bd
000003c0: dbc8 8ebd 8843 843d e253 4c3c 8224 9ebc
000003d0: 8481 70bc 41b6 ba3d 33d3 813d d98c 86bc
000003e0: 94fd 033d 1b00 b4bd dd5b 37bc 8735 7fbd
000003f0: 185d 6bbd 425a 803c b412 26bc de0d 89bc
-0.015589863 -0.012527169 0.056791913 0.050297208 0.065512106 -0.034986727 0.05438634 -0.023323903
-0.06878451 -0.045503356 0.009323919 -0.0073736114 0.073423035 -0.01884564 0.08841737 0.029659163
-0.017946625 -0.037042446 -0.047046702 0.02658661 0.034889605 0.039628163 -0.028288176 0.03426259
-0.04285782 -0.04724567 -0.025826912 -0.025014125 -0.04815744 -0.013524543 -0.035154793 0.022666203
-0.012705671 -0.0049550734 -0.00018739661 0.022277044 0.024581768 -0.08970053 -0.01156217 0.060424056
0.079866886 -0.029318167 0.06540918 -0.060185097 0.09845317 0.018223153 0.009758329 0.004404555
-0.045684446 -0.036619887 -0.051029198 -0.050944332 0.031782836 0.013375497 0.10218892 -0.022527808
-0.020881204 -0.13320206 -0.034381554 0.026746048 0.019471874 -0.012023567 -0.039836727 0.019837847
0.103564456 0.074709095 -0.05881405 0.024992174 0.08278501 0.03243539 0.0055681495 -0.024302378
0.03142532 -0.019941468 -0.021369666 0.011744606 -0.0027374092 0.030862253 -0.048037305 0.021728493
0.05028014 -0.037706636 0.008669846 0.06485425 -0.03878607 -0.019404877 -0.040022008 0.09962197
0.0977608 0.070357196 -0.066065 -0.0666577 0.008243396 -0.005437216 0.059268784 0.117547706
-0.04237548 -0.06388369 0.03139722 0.029126972 -0.005751437 -0.014520318 -0.031078203 0.050142527
0.10418673 -0.057796795 -0.009214043 -0.10799941 0.031416193 0.0102555 0.03608906 -0.04300859
-0.02432104 0.023079615 0.028931297 0.0723187 0.018081905 0.04744552 0.055269845 -0.07087636
-0.06626617 -0.038366918 -0.026067458 -0.09847938 -0.011297005 -0.026904637 0.039190155 -0.036986757
-0.07289327 -0.006714377 -0.03684887 0.08171923 -0.05330471 0.024654608 -0.012823667 0.07723563
-0.018840542 0.036039993 0.00569132 -0.026479496 0.03722496 0.039134506 -0.006324392 -0.0057459897
0.04544592 0.04725555 -0.01652834 -0.028977128 -0.019548506 -0.02761228 -0.045287035 0.02754908
0.051399097 -0.025492013 0.012615994 -0.028486395 -0.031560823 -0.08300525 -0.03310591 -0.005652825
0.06772717 -0.019897748 0.010706174 -0.0043330356 -0.03730855 0.035211805 0.046085496 0.06351057
0.06579689 -0.0044335704 0.011759864 -0.017185347 -0.057156343 -0.06140328 0.08694774 -0.020365685
-0.011119501 0.004511613 0.08331182 -0.021957735 -0.08892197 -0.04108601 0.015989397 -0.021102922
0.10102776 0.034287173 -0.014525359 -0.05423465 0.04721976 0.05218248 0.06850944 0.07430767
-0.029841682 -0.023545941 -0.03786902 -0.0027499213 -0.014847605 0.028120289 0.022773083 -0.020810017
0.087820224 -0.12929876 0.052848905 -0.014712958 0.0036943383 0.023263466 0.039826065 -0.031102369
-0.004280185 0.09195501 0.047890592 0.115601026 0.038118124 -0.013386801 -0.024205713 -0.013179144
-0.014255175 0.081566684 0.0049677053 0.00088162423 0.090688564 0.02417989 -0.07081003 0.07747953
0.027401155 -0.112919174 0.06621773 -0.088217616 -0.027196081 0.017919004 -0.031395033 -0.0023258112
-0.009562699 -0.0005257683 0.091969505 -0.05901676 -0.029188868 -0.035640012 -0.06360821 -0.08016397
-0.06971904 0.06458193 0.012471171 -0.019304518 -0.014679316 0.091167934 0.06339111 -0.016424583
0.032224253 -0.087890826 -0.0111913355 -0.062306907 -0.057461828 0.015668038 -0.010136295 -0.016730245

to_mean.0.bias f4 [128]
00000000: 3f30 a53c ab8a 943c e5fb b33c dc6a 39bd
00000010: 2d6a 23bd 27fb b3bb 29e2 4e3d 1ad7 ae3c
00000020: d668 34bd e00e 3a3d 40bf 67bc 2fa6 57bd
00000030: 4218 21bd 5c0a 803d a234 283c 4d1e 93bd
00000040: d2bb 793c 011c d9bb 7d1c 663c 83c0 2fbd
00000050: 9d6d 26bc 26c9 32bd 2f84 2b3d 72c0 153d
00000060: 2078 6dbd 4c38 123d 1ca2 863b 5463 3b3d
00000070: 2833 613d 747a 23bd 3129 893c ac63 8d3d
00000080: e890 61bc 89b2 0bbd 8e58 6bbd 22fb 2bbc
00000090: 8005 a13c de4f 1abd 395a f6bb 6fcb 7cbd
000000a0: 4243 463c 3a31 983d c4d1 43bd 124f cabc
000000b0: 90d8 8a3d 1b49 473d eac1 3a3d 74e5 0c3d
000000c0: f90c f1bd 27de 183c 0e4e 323d d7ea 87bc
000000d0: 635f 163d 3a42 97bd 6836 1bbd 6fd9 78bb
000000e0: 5e54 033d 030f 6dbd c7b4 fe3b 7110 e73b
000000f0: d450 263d 9496 ebbc 0c5c ef3c c853 413d
00000100: 9049 06bc 907c 433d 8a21 9ebc 3d44 94bd
00000110: 63a8 0ebd 78ef 713d 4b2c e73c ccc7 65bd
00000120: bacb 213b 3d2b 35bd 588b 03bd 946e 943c
00000130: d5b7 1dbd f563 ca3b 92ed 973b b687 51bd
00000140: 7125 253d 4831 0b3c 8582 1c3d 1336 2ebd
00000150: f7c3 913d 2589 c6bc 2cfa e839 f7ac c3bc
00000160: 7c25 f3bb a25d 083d a07d 0fbb cfc3 ffbc
00000170: 8d3f 2abd 5980 bbbd 6a4b 8f3c 7f5c eb3c
00000180: ac28 b03c 6931 f4bb 0a20 323c 30e4 85bb
00000190: 849b 45bd 7ecd a13d b50b 8cbc 0f94 a63c
000001a0: 412d 52bd cea1 8ebd 8349 8bbc ced5 afbd
000001b0: 1224 733d ee21 053d 012e 6e3d 6899 73bd
000001c0: 39ad 2c3d c672 9cbc 5223 58bd eff2 733d
000001d0: 7174 dfbb ddf5 48bd 2403 0bbd 8d57 6d3c
000001e0: bb3e 593d 2cf1 21bd bc24 0d3d 25a3 3c3d
000001f0: ca9a f3bb fa48 cfbb 4847 713d 02d0 983d
0.020164607 0.018132528 0.021970699 -0.045267925 -0.03989618 -0.005492586 0.050508652 0.021342803
-0.04404529 0.045424342 -0.014144719 -0.05264872 -0.039329775 0.06251976 0.010266455 -0.07183514
0.015242534 -0.006625653 0.014044878 -0.042908203 -0.01015797 -0.04364886 0.041874107 0.036560483
-0.05797589 0.03569822 0.0041086804 0.045749024 0.054980427 -0.039911702 0.016743274 0.069037765
-0.0137674585 -0.03410581 -0.0574575 -0.010496886 0.019655943 -0.037673824 -0.0075180796 -0.061717447
0.012100996 0.07431264 -0.04780747 -0.024695907 0.06779587 0.048653703 0.045595087 0.03439851
-0.117700525 0.009330309 0.04353147 -0.016591473 0.03671206 -0.073856786 -0.037893683 -0.0037971397
0.03206288 -0.057875644 0.007773015 0.0070515205 0.040604427 -0.028758325 0.029218696 0.04719904
-0.00819625 0.047726214 -0.019303102 -0.07239578 -0.034828555 0.059066266 0.028219363 -0.056098744
0.002468808 -0.04423069 -0.03211531 0.018119134 -0.038505394 0.0061764666 0.004636475 -0.051154815
0.04031891 0.008495636 0.03821041 -0.042532038 0.071174555 -0.024235317 0.0004443688 -0.023886187
-0.00742024 0.03329242 -0.0021894947 -0.031221299 -0.041564513 -0.0915534 0.017492015 0.028730629
0.021503769 -0.007452179 0.0108718965 -0.00408604 -0.048244014 0.07900523 -0.017095426 0.020334272
-0.05131269 -0.069644555 -0.017002827 -0.08585702 0.05936057 0.03250306 0.05814934 -0.05947247
0.042157385 -0.019097697 -0.05276806 0.05955785 -0.006819301 -0.0490626 -0.033938542 0.014486206
0.05303834 -0.03953664 0.03445886 0.046054024 -0.007434224 -0.006325838 0.05890587 0.07461549

to_mean.2.weight f4 [18, 128]
00000000: 8378 e13d 6404 7bbc 08df eebb 2f3e e8bd
00000010: 4342 11bd fcbf 83bc b415 64bc 5743 623c
00000020: 2235 383b 1dec 533c 1e96 6ebd 26c2 92bd
00000030: e351 ff3c 26dd 613d fcb2 c9bd 3953 f73d
00000040: 5d54 90bc fcd5 99bc 73ed 34bd 8b74 e13c
00000050: 1725 babd 47ba f1bb 05de b1b8 bbb3 063d
00000060: 6211 71bb 92d7 9abc d01f 14bd f276 c6bd
00000070: 88bc a0bc 5b05 bdbc bac4 7cbc d593 ecbc
00000080: 3c49 17bd 0640 b63a cac8 b33d d731 483d
00000090: 8c26 8b3d 1b42 aebd 693d d83d 4603 0f3d
000000a0: 92c7 bebc 38df e13c 6bba d1bd 8d0a 12bd
000000b0: 94f0 04be be17 143d a1dc 7f3d b3ea f4bc
000000c0: 2fc8 3f3d e971 ab3b 51b9 343d 2e45 d53d
000000d0: c27b 5dbc c76e eabd dbea aa3c 74af c73d
000000e0: 41f4 e4bd 39d3 b03c d31c cf3d 6cf0 823c
000000f0: 8df6 c5bc 00c4 003d 82c1 deb9 a83e 82bd
00000100: a1da c9bd b3c7 a43c 7eae 883d 5c48 36bd
00000110: e6c3 25bd 266b 23bd b149 573d 4097 ff3d
00000120: 6abd 73bd cbb6 26bc 50a4 533d 8648 d43c
00000130: efc4 febd 7cfd 93bd 600b bd3c 8035 3dbd
00000140: 9c4a 9a3c 9fd4 1fbc fde9 e4bb df87 cf3d
00000150: ae34 733b 26ed 043d 51d8 acbd 84d9 973d
00000160: b25e 6fbd 0d87 433c 72a6 fabb 82c4 d2bc
00000170: 16a1 453d a7c5 93bd 7979 243c 66fb dfbd
00000180: 4e92 69ba 3b0a 5fbd 65b6 cebd e5e0 773d
00000190: 5810 443d 4165 c0bd 6b2a 13bb 2314 0dbd
000001a0: 1050 34bd abae 42bd 485c 9cbd 0736 c53c
000001b0: 2b35 84bd 26b6 06bd 5665 e9bc 983d b4bc
000001c0: bc55 c6bc c12e e1ba a8aa adbd e40d 483d
000001d0: dce8 e43d b21d 373d db63 83bd 1efd fc3d
000001e0: 7ab2 fb3c 06ca 89bd a272 5e3c a054 2dbc
000001f0: 9a13 873d c933 a2bc 3e5a b3bd 9b3b b9bd
00000200: c92b ad3d f763 a4bd 0bd4 ce3d 678c ccbd
00000210: 662c 0a3d 8bd9 213d 29d5 92bd fd9e 003d
00000220: 2abd 103d 4c55 c3bc 2982 ee3c 7bbb cf3d
00000230: 333f 8d3d 6ded fe3d 13d9 e93b fa48 523d
00000240: ac4e c63d c723 4bbd 8354 443d fb3b 973d
00000250: e691 323d b4b4 583d 3cb4 c0bc ad4f 10be
00000260: db54 3ebd a32f e23c 0008 06bd d594 903c
00000270: a3cf 6cbd 3145 49bd 63b9 b9bd 4802 a2bc
00000280: d435 2fbd c71c 50bd f8b1 bf3c 2434 f13c
00000290: b5fb b63d e3e6 3b3d 0aef 023d 8e7c 383d
000002a0: 19ed fcbc c6df a2bd bd09 293d 485e 4ebc
000002b0: 004c 923d 319a fcbd dd7d 86bd 16e3 e8bb
000002c0: 14aa 483c 3b13 af3c 9ec2 bbbb 7091 03bd
000002d0: 9cbb 83bb 16b2 b4bb 59cb d8bc aff8 edbc
000002e0: 4530 8abb be17 8fbd 4033 d33d ab93 1f3d
000002f0: 3e5c 07bd b374 11bd 43bd e6bc c69e 553c
00000300: 284e 133d 37f0 193c bcaa 89bd 37f9 83bc
00000310: 85e2 323d 55e6 e4bd 83d5 c13c 7884 9b3d
00000320: 952f 7c3d 4f14 b63c bc35 88bd 78cf 11be
00000330: eeaa cabd 4376 09be 263a 1bbd 0df9 b13c
00000340: cc3c 833c e8ae c83c 7c21 1e3d 664b 053d
00000350: aa6b 0dbe c38d 8b3d 35f8 8fbc f002 58bd
00000360: aaf7 fbbc 7d78 57bc 56de 343d c4af 3fbc
00000370: 051b e13d e24d 2abb 7896 b4bc f68f 94bd
00000380: 5e48 a6bd a77d 59bd 283e bfbd 4f79 8b3d
00000390: aae3 0f3e 69b1 9fbd d208 31bd 4689 2d3d
000003a0: 2404 58bc c33d 89bc aa92 363b 947b 593d
000003b0: 8e88 52bd ba42 973d 89db a43d ae8f 89bd
000003c0: 7cad 5abd 9e0c 94bc 75ef 00bd 8af8 53bc
000003d0: 8959 eabd 1910 ff3b aafc d83b 06d6 d63c
000003e0: 1516 e73d e3ed 483d 9bbb cbbb 70ee a4bc
000003f0: c7e2 bdbc c556 bdbc bd0e f93c 1cb0 85bd
0.11009314 -0.015320871 -0.007289771 -0.113399856 -0.035463583 -0.016082756 -0.01392119 0.01381
0.0028107841 0.012934712 -0.05824863 -0.07165937 0.031166976 0.055142544 -0.09848592 0.1207642
-0.017618353 -0.018778794 -0.04417176 0.027521392 -0.090891056 -0.0073769423 -8.481372e-05 0.032886248
-0.0036784043 -0.01890162 -0.03616315 -0.09690656 -0.019621149 -0.023073843 -0.015427763 -0.028879086
-0.036935076 0.0013904579 0.08778532 0.048875656 0.067944616 -0.08508702 0.10558588 0.03491523
-0.023288522 0.02757226 -0.102406345 -0.035654593 -0.12982398 0.036155455 0.062466267 -0.02989707
0.04682177 0.005232085 0.044122044 0.104135856 -0.013518276 -0.1144691 0.020863941 0.09750262
-0.111794 0.021585094 0.1011292 0.015983783 -0.024165416 0.03143692 -0.00042487314 -0.06359607
-0.09856153 0.020114755 0.06673907 -0.0445026 -0.040470026 -0.039897107 0.052560512 0.124800205
-0.05950681 -0.010175417 0.051670372 0.025913488 -0.12439906 -0.07226083 0.023076713 -0.0461936
0.018834405 -0.009755283 -0.0069859014 0.10133337 0.0037110257 0.032452725 -0.084396966 0.07414535
-0.058439918 0.011934054 -0.0076492364 -0.025728468 0.048249327 -0.072154336 0.010038727 -0.10936622
-0.0008910046 -0.054453116 -0.10093383 0.06051721 0.04786715 -0.09394313 -0.0022455703 -0.034443032
-0.044021666 -0.047529858 -0.07634789 0.024073614 -0.064554535 -0.032888554 -0.028490704 -0.022002026
-0.024210803 -0.0017180071 -0.08479816 0.048841372 0.11177227 0.044706054 -0.0641553 0.12352966
0.030724753 -0.06727986 0.013577135 -0.010579258 0.065955356 -0.019800084 -0.08757447 -0.09044572
0.08455617 -0.08026879 0.10099038 -0.09987717 0.033733748 0.039514106 -0.07169563 0.031401623
0.03533665 -0.023844384 0.0291148 0.10143181 0.0689682 0.12447629 0.007136473 0.051339127
0.09682974 -0.049594667 0.04793216 0.07384487 0.04359617 0.052906707 -0.023523442 -0.14092894
-0.046467643 0.027610606 -0.032722473 0.017649094 -0.057815205 -0.04913825 -0.09068563 -0.019776478
-0.042775944 -0.050808694 0.023400292 0.029443808 0.08934728 0.045874488 0.031966247 0.04504066
-0.030874776 -0.07952838 0.041269053 -0.012595721 0.07143402 -0.12334097 -0.06566975 -0.007107149
0.012247581 0.021371474 -0.0057299873 -0.032121122 -0.0040201675 -0.0055143936 -0.026464151 -0.029049246
-0.00421718 -0.0698695 0.103125095 0.038959187 -0.033046953 -0.035511684 -0.028166419 0.013038343
0.035963207 0.009395651 -0.06722018 -0.016110046 0.043673057 -0.11176745 0.02366138 0.07593626
0.061568815 0.02222648 -0.06650874 -0.142393 -0.098958835 -0.1342402 -0.03789725 0.021725202
0.016020201 0.024497464 0.038606152 0.03254261 -0.13810602 0.06814148 -0.017574409 -0.052737176
-0.030757744 -0.013151285 0.04415735 -0.011699621 0.10991482 -0.0025986363 -0.022044405 -0.07254021
-0.08119272 -0.053098347 -0.09338027 0.06810247 0.1405169 -0.0779751 -0.043221302 0.042367242
-0.013184581 -0.016753083 0.0027858415 0.05309637 -0.05139976 0.07385774 0.080496855 -0.06716858
-0.053388104 -0.018072423 -0.031478364 -0.012937674 -0.11442859 0.0077839014 0.006621917 0.026225101
0.11283509 0.04905499 -0.0062174327 -0.020133227 -0.023179425 -0.023112664 0.030402536 -0.06527731

to_mean.2.bias f4 [18]
00000000: f7fe 52bd c966 f03c 534b 483d f68b 253c
00000010: 81c3 f13c 72d2 63bd 26d7 9ebd 26f9 a7bc
00000020: 1d8d 843c f8ea bcbd d554 98bd 2fa2 f6bc
00000030: ce15 c53c c14d 93bd b482 a3bd 5b2d 493d
00000040: e7d9 113d d6c7 c83c
-0.051512685 0.029345887 0.04889996 0.01010417 0.029512169 -0.05562062 -0.0775588 -0.020504545
0.01618057 -0.09224504 -0.074380554 -0.030106632 0.024058249 -0.07192565 -0.07983914 0.04911552
0.0356082 0.024509352

to_value.0.weight f4 [128, 256]
00000000: 0868 db3d f0c1 3abd b2da b13e 4a4d 8cbd
00000010: da75 083e e61f 843d 0424 51be 19eb e13d
00000020: d69c 043e 6548 293e 2d35 b63d 3e47 cabd
00000030: 8e34 9c3e ef8f 443e f961 c9be 722c d93e
00000040: 6a26 7fbb a018 da3d 77ba d03d 6bc0 743d
00000050: 9404 c93e 4a74 b43d 3036 c2bd 7e45 ddbd
00000060: 3a1b 973e cc99 6c3e 87cb a13d c367 5b3d
00000070: 9058 49be a9a9 1ebe 7579 4e3d b366 653d
00000080: cab5 0ebe ddaf 0d3e 4f8e 72bc c6d9 a7be
00000090: 19db c63d b4d3 8dbe bb31 5e3e 5580 eebe
000000a0: 8fa7 1dbd af88 d7bd 3f63 a03d 63cb 43be
000000b0: 3541 99be 45a7 babd 9b4e 39bf 9a99 713d
000000c0: 526b 4abd 9cd1 43bb f174 96be 0dab 853e
000000d0: 4ae5 0f3f 8016 353e ea29 3a3e 0d86 23bf
000000e0: a31d a43d 6577 cf3d 6acf 863e 2102 b4bc
000000f0: f28b 093e 452d e93d 4256 4abe 8a3d 6dbf
00000100: 19cc 82bd 3060 03bd 70d1 c13d 7ddb df3d
00000110: cacb bab9 55f1 23be 6595 8bbe 4952 78be
00000120: 2111 20be 663c de3c dbd7 083f df6f 473d
00000130: 5508 05bf 6078 073e 7ef8 9f3d 3c22 fa3b
00000140: 0596 bbbe 9787 043d 1e3c 903e 040b 98bd
00000150: 455b 373e 8c6b 3abe 04e9 093e 988d 13be
00000160: 8a90 20be cb79 0a39 6467 453d e916 613d
00000170: e735 a83d 28c3 b6bf 6f37 993f d6a6 55be
00000180: 023e 92be 64d1 b2be 820a 473d 0cc3 7cbe
00000190: bffc 0fbe 6975 bd3c e625 133e 473b a5bd
000001a0: 696a 0cbb 9c0a 69be ed67 823e 1d5d 953c
000001b0: d609 4abf 2f7c 503e 00d1 343f dcd9 2ebd
000001c0: a026 79be 0db6 a93e b017 14bf 0c60 92be
000001d0: 7efa a73e 0df6 31be 1f33 c23e 8bcd 833e
000001e0: 84af 9a3e bf78 9bbe c10e 9cbe 695d 313d
000001f0: e635 31be df82 2d3e d3d3 3ebf e55d 82bd
00000200: 58f4 c2bd ff03 03bd 7de4 8c3e f65d 8abe
00000210: 9f9f bfbb bcc1 e0bd e3db bdbd 92a7 7e3b
00000220: 753f b5bd ca38 b2be 79eb 6fbf 1a8e 77bd
00000230: 1b3d a0be d7c4 55be b38e 403e aefe 2abc
00000240: d967 97bc 5bc7 bb3c b0b8 853c 1e29 0abe
00000250: bf01 9cbe 7d98 cd3e 53ea 7a3e 0a5f 70be
00000260: 7e3f 333e 9e15 58be 08e1 af3d edf2 bdbe
00000270: 30c7 6bbf ee89 5dbe 17f1 d73e 174a 0e3e
00000280: cf39 bf3c f473 45bf fa13 2ebe 6999 01bd
00000290: c53d 0f3d 6fe6 eabe 5e8a 0b3d 2d22 cdbe
000002a0: 6af3 27bf a5a9 90be 060c 7fbe 24eb d9be
000002b0: 295d 3bbe 40bd 1fbf d629 12bf d75b fbbd
000002c0: dcee 2d3e 31d9 fd3d 291e 93be d737 5f3e
000002d0: b3e9 38be cdfa 593d 4b8e e9bd aec7 89be
000002e0: 2684 a5be 0b1a 9c3d 6442 293e 2a6a ac3d
000002f0: c22e 76bd 2e8e 10bd 3471 9e3d 2342 1f3e
00000300: fa4e 87be db11 603d 9c82 f8bd bd49 7d3e
00000310: bcaa 113e d28d 04be 1543 0d3e 094e 333e
00000320: 6314 063e 1926 b03d 7ea4 36be 1125 b9bd
00000330: dc7a 93bd 500c 513d ad82 66bf 1462 9a3d
00000340: b808 fd3d 705a 903e 5815 a2be a7fe 11bf
00000350: 9335 9f3e c3bb 0f3c 89fc f2bb 9a38 213f
00000360: 5a40 69be 4bd7 393e d47a cebd e324 fbbd
00000370: 69a4 19be e629 56be 2201 643d 1c6f 603d
00000380: bc52 c6bc 9857 4c3e dfd3 0bbf f56e 4cbd
00000390: 8f60 d93d 93e0 92bd 19fe a2be 33c1 13be
000003a0: bc75 b23c ca71 8b3e 9a0c 06bf 0ad8 093e
000003b0: 21c7 8abe eff5 babd 1a86 f8bd 6972 04bf
000003c0: e0dc 88be 0afe 923e 9a7a 453e 99e1 22bf
000003d0: 52db 3f3e 7277 52be fe54 d93d 1426 053d
000003e0: 3c9b 18be fd14 a4be de31 54bf 4d95 0abf
000003f0: 34e3 193d 4bbc ff3c e65f 813e 3ce7 75be
0.10713202 -0.04559511 0.34737164 -0.06850679 0.13326207 0.06451397 -0.20423895 0.110311694
0.12950453 0.16531523 0.08896861 -0.098768696 0.30508846 0.19195531 -0.3933256 0.42416722
-0.0038932809 0.10649228 0.10191815 0.059753817 0.39261305 0.08811243 -0.09482992 -0.1080427
0.2951296 0.23105544 0.07900148 0.05356575 -0.1966269 -0.15494408 0.0504088 0.056006145
-0.13936535 0.13836618 -0.014804437 -0.32783335 0.09709758 -0.2770058 0.21698658 -0.46582285
-0.038489874 -0.10524117 0.0783143 -0.19120555 -0.29932562 -0.091139354 -0.7238557 0.058984376
-0.049418755 -0.0029879576 -0.29386094 0.26107064 0.5620924 0.17684364 0.18180051 -0.6387642
0.08013465 0.101301946 0.2633012 -0.021973671 0.13432291 0.113855876 -0.19759467 -0.92672026
-0.06386585 -0.032074153 0.09463775 0.10930536 -0.0003562852 -0.1601003 -0.27262416 -0.2425014
-0.15631534 0.02712841 0.5345437 0.048690673 -0.5196584 0.13229513 0.07811068 0.0076334756
-0.36637893 0.03235587 0.28170866 -0.07423976 0.1790591 -0.18205088 0.13467795 -0.14409482
-0.15680137 0.00013206077 0.048194304 0.05495349 0.08213406 -1.4278307 1.1970042 -0.20864424
-0.28562933 -0.34925377 0.048594005 -0.2468378 -0.14061259 0.023127275 0.14369926 -0.08067947
-0.002142573 -0.22757953 0.25469914 0.018232876 -0.7892126 0.20359872 0.7063141 -0.042688236
-0.2433114 0.33146706 -0.57848644 -0.28588903 0.32808298 -0.17379017 0.37929627 0.25742754
0.30212033 -0.3036556 -0.30480006 0.043301973 -0.17305717 0.16944455 -0.7454197 -0.06365565
-0.09519261 -0.031986233 0.27518073 -0.27024812 -0.0058478857 -0.10974452 -0.09270456 0.0038857204
-0.08849994 -0.34808952 -0.9371868 -0.060438253 -0.3129662 -0.2087587 0.18804435 -0.010436697
-0.018482136 0.022922209 0.016323417 -0.13492247 -0.30470082 0.40155402 0.2450345 -0.23473755
0.17504689 -0.21101996 0.08587843 -0.370994 -0.9210081 -0.21634647 0.42176124 0.1389545
0.023342995 -0.77130055 -0.16999808 -0.031640444 0.034971017 -0.45878932 0.034067504 -0.40065137
-0.65605795 -0.28254429 -0.2490693 -0.4256221 -0.18297257 -0.6239815 -0.57095087 -0.122733764
0.16985649 0.123949416 -0.28733948 0.21798645 -0.18057899 0.053217698 -0.11404093 -0.26910156
-0.32327384 0.07622155 0.16529232 0.08418687 -0.060103185 -0.035291843 0.077364355 0.15552573
-0.26427442 0.05470453 -0.12134287 0.2473516 0.14225286 -0.12944725 0.13795121 0.17510237
0.13093714 0.086010166 -0.17836186 -0.09040273 -0.07201168 0.051037133 -0.90043145 0.07538238
0.123551786 0.28193998 -0.3165691 -0.57029194 0.3109556 0.008772793 -0.0074153584 0.6297699
-0.22778454 0.18148534 -0.10082021 -0.12262895 -0.15004124 -0.2091442 0.055665143 0.054793462
-0.024209373 0.1995529 -0.54620165 -0.049910504 0.1061412 -0.071717404 -0.31834486 -0.14429168
0.021784656 0.27235252 -0.5236298 0.13461319 -0.27105048 -0.09128939 -0.12134953 -0.51737076
-0.26731014 0.2870944 0.1928505 -0.63625485 0.18736008 -0.20553377 0.10611914 0.032507017
-0.14902967 -0.32047263 -0.8288859 -0.54134065 0.037570193 0.031217715 0.25268477 -0.2401399
