saves/save2_1_23/save10_Standing_15300.pth (torch, 942043 bytes, 11 tensors)

shared_net.0.weight f4 [512, 67]
000000 d8 9d 89 bd f3 ef 30 3c 1e 01 bc be a6 49 58 be
       -0.067195594 0.010799396 -0.36719602 -0.21121845
000010 d2 92 94 bd b6 32 ce 3d f6 7f c8 bd 34 74 4b 3d
       -0.07254566 0.10068266 -0.097900316 0.049671367
000020 14 a4 a2 bc bb f2 a2 3d 04 c5 65 be 6f 07 ae 3c
       -0.01985363 0.079564534 -0.22438437 0.021243779
000030 3d 0a 80 be 17 8d 1b 3d 8f b5 28 bd a6 05 d8 bc
       -0.2500781 0.03797635 -0.041188773 -0.02636988
000040 29 a8 39 3e 73 27 c8 3e 80 81 0a bd 3b e0 eb be
       0.18130554 0.39092597 -0.033814907 -0.46069512
000050 89 9e a0 3e e9 c9 c0 be 1e 39 9f bd cd 6d 3a 3d
       0.31370953 -0.37654045 -0.07774566 0.04551487
000060 16 b1 97 be a2 b7 c8 3c 7a ff 16 3e 87 25 cb be
       -0.29627293 0.024501625 0.14745894 -0.3967707
000070 23 bc c3 bd f8 7b 09 3e f0 15 56 3b 7a c6 12 3d
       -0.095573686 0.13426197 0.0032666884 0.035833813
000080 25 ec a7 bd d0 30 80 bd 43 46 dc bc 2e c9 94 3c
       -0.08199338 -0.0625931 -0.026888972 0.018162336
000090 ed 3a 86 3c a8 13 52 3d 7f 53 fc 3c 74 54 03 bd
       0.01638552 0.051288277 0.030801533 -0.032062963
0000a0 43 b9 09 3e b1 19 84 3c 3c 5b 17 bc 12 6d af bd
       0.13449578 0.016125532 -0.009238061 -0.085657254
0000b0 6f cf ca bc 11 ad 87 bd 35 00 49 3c d8 91 f5 bc
       -0.024757115 -0.06624807 0.012268116 -0.02997677
0000c0 d5 c7 b7 bd fa 3f 31 3d e0 f2 3d 3d 1b 83 be 3d
       -0.08973662 0.043273903 0.0463742 0.0930235
0000d0 d5 69 34 3e c0 7c 7f 3d 1d e5 b8 3d a2 00 c0 bd
       0.17618497 0.06237483 0.09028075 -0.09375121
0000e0 19 98 b6 bb bf 3f 2f be 5f 39 82 bd a7 ef 68 bd
       -0.0055723307 -0.17114161 -0.06358599 -0.056869175
0000f0 0c 63 9b 3d 6e 2a c7 3d 43 a1 15 bc 2e 0c 4e 3d
       0.07587251 0.0972489 -0.009132686 0.050304584
000100 b5 f3 24 3e eb 01 e1 3d c3 e4 5e bd 47 49 c8 3d
       0.16108592 0.10986694 -0.054417383 0.097796015
000110 6d 95 1c 3e 7e 66 48 3e 09 b1 2c be 30 69 2b bc
       0.15291376 0.19570348 -0.16864409 -0.01046209
000120 8a 03 af 3d 6e e6 85 3e 22 df 99 3d 20 a3 14 3d
       0.08545597 0.26152366 0.07513262 0.03628838
000130 e5 0f 63 3d 50 ea ee be dc 57 a3 bd f6 46 3c be
       0.05543508 -0.4666314 -0.07975742 -0.18386444
000140 a4 f2 a7 bc e0 d6 f7 3c cf cc 02 3e bb 55 86 be
       -0.020501442 0.030253828 0.12773441 -0.26237282
000150 b1 9a cd 3d a4 a6 92 bd bb 82 81 bb 06 b4 36 bc
       0.10039271 -0.071606904 -0.003952352 -0.011151319
000160 05 86 16 3d 76 1d 9f bd de a4 a8 bd 51 29 44 bb
       0.036748905 -0.07769291 -0.08234571 -0.0029931853
000170 2b 16 10 3e 34 a0 d5 3c 48 d5 8b be 4d 11 b0 bd
       0.14070956 0.026077367 -0.27311158 -0.0859705
000180 90 86 db bd b0 b2 df bb 33 53 8b bd 76 8a e5 bd
       -0.10719025 -0.006826721 -0.06802978 -0.1120805
000190 f9 13 b4 bc a6 f1 b5 bc 80 80 69 bc e9 8a 28 bb
       -0.02198218 -0.022209954 -0.014251828 -0.0025717563
0001a0 31 00 a2 bd 08 0a 05 bd 02 4c eb bd 47 40 86 bb
       -0.07910193 -0.03248027 -0.11489107 -0.004097018
0001b0 12 51 52 bb e2 e2 10 bd 42 3f 87 bd fd dd b6 3c
       -0.0032091779 -0.035372622 -0.06603862 0.02232265
0001c0 fe 55 b3 bd 9f 50 53 3d e9 98 58 3d a6 09 f6 bd
       -0.08756636 0.05159056 0.0528802 -0.12013559
0001d0 b8 ef 63 3d b2 1c 01 bd fe e6 9f bc f1 b9 39 3d
       0.055648535 -0.031521507 -0.019519325 0.045343343
0001e0 86 3b 05 3d 89 b3 3e bc 16 41 0d bd 8c 00 a1 3c
       0.03252747 -0.011639484 -0.0344859 0.019653581
0001f0 62 f4 18 be b8 37 d6 bc a1 17 da bd 54 99 2d bd
       -0.14936975 -0.026149616 -0.10649038 -0.042382553
000200 3b 94 16 3c 02 06 07 be fd 5d 32 3c 09 1d 37 3d
       0.009190614 -0.13185886 0.010886666 0.044705424
000210 4f e5 d0 bd 6b 93 96 3c a6 c2 8b 3e af cc 91 3d
       -0.10199987 0.018380841 0.27296942 0.071191184
000220 8e 38 aa bd 80 ae 2d bc d3 ad 49 3d e3 3b 60 3d
       -0.08311568 -0.010600686 0.049238037 0.054744612
000230 9c 4c f7 3d cd 83 7f 3d 9a 30 d2 3d 1b 48 cd 3b
       0.12075159 0.062381554 0.10263176 0.006264699
000240 37 8a 40 bf 4a 7d 09 be a3 dc 0f 3e 6f 96 25 3d
       -0.752109 -0.134267 0.1404901 0.040426668
000250 09 bd d5 bc a0 dd 3f bd bc 17 11 be d3 f2 b5 bd
       -0.026091116 -0.046842217 -0.1416921 -0.08884206
000260 39 f1 40 3c 09 a0 45 3e cc 79 0b bd f4 78 cd bd
       0.011776262 0.1929933 -0.0340517 -0.100328356
000270 f0 72 c9 3c fc b6 60 bd 8c 19 9b 3b de 42 3e bd
       0.02459094 -0.054862007 0.00473327 -0.04645049
000280 4d 2c a2 bd 8b 99 e1 bc d9 32 c8 bd 58 36 07 be
       -0.07918606 -0.027539035 -0.097753234 -0.13204324
000290 97 ff 81 3d 25 3f 49 bd 0a df b3 bc 5d 2a 21 bc
       0.06347578 -0.049132485 -0.02195694 -0.00983676
0002a0 4d 9f fc 3c 2f f6 e9 3c ef 67 b5 3d 9e 1c aa 3c
       0.03083768 0.028559772 0.088577144 0.020765599
0002b0 f6 85 1b 3d 11 8b e9 bd 76 b1 9e bd 1f 9f 0f bd
       0.037969552 -0.11403478 -0.07748692 -0.03506386
0002c0 fa 03 1b 3d db 4b 96 bc 0a 65 f4 3c a5 9c 37 bd
       0.03784559 -0.018346718 0.029833335 -0.044827122
0002d0 5d a7 80 ba df 59 2b bd fe 46 0a 3e 5c 11 38 3d
       -0.0009815503 -0.041833755 0.13503644 0.04493843
0002e0 9a f4 8a 3d 8a 15 64 3d 7c ff 11 bd 60 22 21 3c
       0.06784935 0.055684604 -0.03564404 0.009834856
0002f0 72 cb be bd d9 28 60 3d 7b 30 95 3d 4c 8a 19 3d
       -0.09316148 0.054726455 0.072846375 0.037485406
000300 20 5b 21 bd 12 df 97 bc 9e 58 a3 bd 7a cf 30 bd
       -0.039393544 -0.018538985 -0.07975887 -0.043166615
000310 c7 c7 07 be 83 0e d5 3c a9 c9 2d bd a3 88 f1 bc
       -0.13259803 0.026007896 -0.042428646 -0.029484099
000320 95 52 ad 3b a0 d1 8c 3e 9e 7e ef 3c f8 f0 6f be
       0.0052893856 0.2750368 0.02923518 -0.23431766
000330 d7 5a 02 be ed 46 ac bd 5d e2 73 3d 4e a0 b3 3d
       -0.12729965 -0.084119655 0.05954205 0.0877081
000340 26 28 c9 3c da 26 7e 3d 04 56 98 3c 72 39 cd be
       0.024555277 0.06204877 0.018595703 -0.4008289
000350 30 f2 98 3d a4 a8 c2 3d d2 a5 bc 3d ea de 5d 3e
       0.074680686 0.09504822 0.09211315 0.21667066
000360 19 4f 8d bd c1 c0 5d be 6d 4b e1 bd 80 b8 a1 bd
       -0.06899852 -0.21655561 -0.110007145 -0.07896519
000370 56 9d 79 3d a0 1e c2 3c 19 96 2e bd bc 09 90 bd
       0.060941063 0.023696244 -0.042623613 -0.07033107
000380 86 9f ec bd 73 4b 3c 3e 3f 89 b1 bd de 8f 6c 3c
       -0.11553864 0.18388157 -0.08668756 0.0144385975
000390 44 bb 7c bd c7 c4 ce bc 5b 26 a9 bd da 31 f5 ba
       -0.061702028 -0.025240315 -0.08259269 -0.0018706874
0003a0 c6 e6 ca 3b 00 81 95 3d ae b9 b2 3b 96 45 df 3b
       0.006192061 0.072999954 0.0054542636 0.006813715
0003b0 1d 52 51 3d 61 59 2b 3d 86 14 53 ba f5 b9 11 bd
       0.0511037 0.041833285 -0.00080520695 -0.035577733
0003c0 89 28 07 3e 67 95 6b 3c c5 30 4d 3c 2c 30 41 bc
       0.13199057 0.014378882 0.012523835 -0.01179127
0003d0 70 37 56 3c e2 bd e5 bc 20 a1 77 3d 47 b7 49 bd
       0.013074741 -0.028044645 0.060456395 -0.049247053
0003e0 28 c0 e0 3d 2d ad 45 bd e5 c2 27 bc 1e 40 15 3d
       0.10974151 -0.048260856 -0.010239338 0.0364381
0003f0 04 a3 c1 3d 9a 68 e7 ba f2 43 0e be 55 0c a5 bd
       0.09454921 -0.0017655075 -0.13893107 -0.08058993

shared_net.0.bias f4 [512]
000000 62 39 df 3c f8 df 88 3d db 0e f7 3b 39 ab 4f 3d
       0.027249042 0.06683344 0.0075396127 0.0507004
000010 33 2f 98 bd 85 b5 44 3c 18 24 1b be 52 7e 91 bd
       -0.074308775 0.012006168 -0.15150487 -0.07104172
000020 00 7d 8b bd 5a 05 bc 3d a3 88 bc 3c 02 ce 82 bd
       -0.06810951 0.09180708 0.023014372 -0.06386949
000030 9b 8b f8 bd fe 47 80 bc 4c b2 6c bd 89 e4 ed bd
       -0.12136003 -0.015659329 -0.057787225 -0.11615855
000040 ac 80 cb bd 5d bd 4f be b1 2e 83 3d 13 33 1a bd
       -0.099366516 -0.2028708 0.0640539 -0.037646364
000050 65 99 1e 3c ad 22 f0 3d 35 3b cc 3d ed 03 16 be
       0.009680127 0.11725364 0.0997223 -0.14649935
000060 a9 88 a5 3d dc e9 c5 3c 90 51 1e be 90 65 30 3e
       0.080827065 0.024159364 -0.15460801 0.17226243
000070 a9 43 75 bd ff 56 83 bd e7 d9 85 bd ea ee f6 3d
       -0.05987898 -0.064130776 -0.06535702 0.12057288
000080 af e0 b3 3d 11 d8 bb bc a0 c8 0f be 68 4e f2 3c
       0.08783089 -0.022930177 -0.14041376 0.029578403
000090 48 9e 54 3c fa 7e da 3d c0 92 b7 bd 25 af 23 be
       0.01297719 0.1066875 -0.08963537 -0.15984781
0000a0 2c 3c 03 be c1 b5 16 be 98 d7 11 bd d9 32 86 3d
       -0.12815922 -0.14717771 -0.035605997 0.06552667
0000b0 e0 40 9f 3b e3 c8 c5 bd bb b8 5d bc 88 f3 e3 3c
       0.0048600286 -0.09657457 -0.013532813 0.027826086
0000c0 67 2b 40 be 84 98 fc bd b1 db c0 3c ff 0d cb bd
       -0.18766557 -0.123337775 0.023542257 -0.09914779
0000d0 5f ca ac 3d 02 94 fb 3d c2 2c 8e 3c a9 15 3d be
       0.08437037 0.122840896 0.017355327 -0.18465294
0000e0 0a 76 7c bd 6b b1 30 3d 55 5f 14 bd 28 2f d3 bd
       -0.06163601 0.04313795 -0.03622373 -0.10311729
0000f0 ef 00 df 3d 6e 31 a8 3d 80 68 80 bc 55 1e 69 bc
       0.1088885 0.08212553 -0.01567483 -0.014228423
000100 5b a4 88 bd 18 c0 ab bd 17 94 33 3d 11 4b 8a bc
       -0.06671973 -0.08386248 0.0438424 -0.016881498
000110 55 a0 67 3d 25 0d 69 bc 95 f6 f3 3b f3 79 35 bd
       0.05654939 -0.014224325 0.0074451664 -0.044305753
000120 c3 78 f0 bc 15 83 cc bd d7 4b 7d bb 89 42 9c 3d
       -0.029354459 -0.099859394 -0.003864994 0.07629878
000130 2a 22 bf bd 95 ef 7e 3d e6 38 08 bd bd f9 c1 3d
       -0.09332688 0.062240202 -0.033257388 0.09471462
000140 7f 1b 93 bd 97 71 c2 bd 0d 8d 82 3c 37 5b 6b be
       -0.07182979 -0.09494322 0.015936399 -0.22984014
000150 bf b3 43 bc 19 cc 4e bc 6c 7a bc bd 14 86 df bd
       -0.01194471 -0.012621903 -0.092030376 -0.10914245
000160 40 45 2e be 96 3c 34 be 24 74 0f be 28 90 1d bd
       -0.17018604 -0.17601237 -0.14009148 -0.038467556
000170 bb c0 90 bd bb 1a 48 be 5b d9 76 bd 73 0f f2 bd
       -0.070680104 -0.19541447 -0.06026588 -0.11819353
000180 1a ff 02 be de 5c 1c 3e c8 42 21 bd cf b7 ba 3c
       -0.12792626 0.15269801 -0.03937033 0.022792725
000190 8c f3 09 3e 63 56 ab bd 81 0a b8 3d 0a b4 08 3d
       0.13471812 -0.08366086 0.089863785 0.033374824
0001a0 57 02 59 bd 55 33 fe bd 4b be bc 3d d3 4a 85 3d
       -0.052980747 -0.124121346 0.09215983 0.06508412
0001b0 c8 cd 5b be 1a 4e 92 ba 36 a4 b2 3d 93 03 03 be
       -0.21465218 -0.0011162192 0.08722727 -0.12794332
0001c0 fd 56 d9 3d 8c 9d 8e 3d 83 26 ac bd 97 32 e0 3c
       0.10612295 0.069636434 -0.08405783 0.027367873
0001d0 6b ed 1c 3a 78 f4 74 3d f0 b1 2b bd c2 9e f7 bd
       0.0005986306 0.059803456 -0.04191774 -0.120908275
0001e0 22 37 e6 bc 46 65 1b be c0 68 a3 3d a5 cc df bd
       -0.028102461 -0.15175352 0.07978964 -0.10927705
0001f0 2e 6b 8b bd 61 62 ad bd 7a 8f 9a bd 93 27 21 be
       -0.06807552 -0.0846603 -0.07546897 -0.15737753
000200 47 cf 91 3d 89 62 d3 bd 0c 10 8d bd 53 ad d1 bd
       0.07119613 -0.103215285 -0.06887826 -0.10238137
000210 33 f1 50 bd 12 73 81 3d 9d 3e 80 3d 2d 1e 6a 3d
       -0.051011276 0.06320776 0.062619425 0.057157684
000220 e6 0b b2 bc 37 ca 5f bb b8 ea 3e bc 32 ae 19 be
       -0.02173419 -0.003414763 -0.011652641 -0.15007856
000230 b7 85 9a bd d4 a0 50 bc c7 e0 cc bd c1 18 d2 bd
       -0.07545035 -0.012733657 -0.100038104 -0.10258628
000240 f0 d9 e8 bd ec c5 c7 bd d3 3b 08 bd 6e c6 c5 bd
       -0.11369693 -0.097545475 -0.033260178 -0.09656988
000250 d0 49 ba 3d bb a3 09 3d ae 59 4a 3d 4e 99 94 bd
       0.0909611 0.03360341 0.04940193 -0.07255803
000260 5e d6 1e 3d e0 98 80 3d f6 96 a1 3b 7f 3f 0c be
       0.038778655 0.062791586 0.004931326 -0.13696097
000270 a8 12 2b bd a9 8f 10 be 62 d1 17 bd 95 86 e5 3b
       -0.04176584 -0.14117302 -0.037064917 0.007004569
000280 35 1d bd 3d e1 60 6d bd 25 5f a7 3c 82 fa 60 3b
       0.092340864 -0.05795372 0.02043111 0.0034329002
000290 74 7e db bc a9 96 72 3d 69 9b db 3c 09 93 40 3d
       -0.026793696 0.059225712 0.026807504 0.047015224
0002a0 c0 d3 d2 3d 22 c2 91 3d 3a 45 f1 bc 6e 88 bf bd
       0.10294294 0.07117106 -0.029451955 -0.09352194
0002b0 ed 78 1b be 5b ff 63 3c a9 87 65 3d b5 f6 bb bd
       -0.15182848 0.013915862 0.05603758 -0.09177915
0002c0 1f 9b db bd cc b0 62 bd ab 16 07 3d 9c 95 3b 3d
       -0.107229464 -0.055344388 0.032980602 0.045796975
0002d0 b1 04 8c bd a8 ac fe bc fa 86 89 3d 71 92 13 bd
       -0.06836832 -0.031088188 0.06715198 -0.03602833
0002e0 fc 6a 75 3d d8 48 ee bd 5a 8b 0c be 47 3a c1 bd
       0.05991648 -0.116349876 -0.13725033 -0.09434944
0002f0 d8 22 7f 3d ee fa 68 bc 2f f7 c3 3d b5 cc 36 3d
       0.06228909 -0.014219983 0.09568631 0.044628818
000300 b9 51 80 3d a7 5f 77 bd b0 78 c3 bc 09 e4 5b 3e
       0.06265587 -0.060393956 -0.02386126 0.21473707
000310 31 4e a5 3d 9c 95 32 3e 5c 02 27 3d dd f7 7f bd
       0.080715545 0.17439884 0.040773734 -0.06249224
000320 3c 82 ea bd 26 ad 8d bd 5e 95 26 be 99 21 ad 3a
       -0.114506215 -0.06917791 -0.16267917 0.0013208865
000330 97 05 32 bd 08 ab 27 3d 1c 64 94 3d 78 70 8d bd
       -0.043462362 0.040934592 0.07245657 -0.06906217
000340 0c 5c 81 3d af 48 10 bd 56 1b a3 bd a0 f4 11 3d
       0.06316385 -0.035225566 -0.07964198 0.035633683
000350 4d 36 10 3d b7 be be bd d3 c1 b5 bb dc 2a 7c be
       0.035208035 -0.0931372 -0.0055467873 -0.24625725
000360 5f 41 1e 3e 25 e2 35 bd 40 71 0c 3d f2 ea 33 be
       0.15454625 -0.04440512 0.03428769 -0.17570093
000370 03 0e 36 be 9e aa b4 bd b8 5e 0d be 8c bd 92 bd
       -0.17778783 -0.08821605 -0.13805664 -0.071650594
000380 b6 ad e3 bd 05 44 8d 3d 31 81 c4 bd 17 a7 20 3e
       -0.11117117 0.06897739 -0.09594954 0.1568874
000390 b6 2b ac bd d9 de 0c be dd 11 12 be 95 d7 07 be
       -0.08406775 -0.13756885 -0.14264627 -0.13265832
0003a0 e1 7a 38 be 22 80 17 be 0e 4d a9 bd 11 4c 18 3e
       -0.18015625 -0.14794973 -0.0826665 0.14872767
0003b0 1b 95 b5 bc 2a 0b 0d 3d 27 19 2a be 3e 29 9c 3d
       -0.022165826 0.034434475 -0.16611157 0.07625054
0003c0 0a ab ad bd 9d c6 09 3d 18 88 01 bd fe 9c a3 bd
       -0.08479889 0.033636678 -0.03162393 -0.07988928
0003d0 85 55 e0 bd 3e 70 d2 bd eb 31 83 bc 60 6e 91 bd
       -0.109538116 -0.10275315 -0.016015014 -0.071011305
0003e0 6c 8c c9 bd 5d c2 5a bd bc ca 15 3e 6a fd b6 bd
       -0.098412365 -0.053408016 0.14628118 -0.08935054
0003f0 6b 1c d6 ba f1 0d 16 be b1 4c b2 3d 1e 22 19 be
       -0.0016335374 -0.14653756 0.08706034 -0.14954421

shared_net.2.weight f4 [256, 512]
000000 06 c4 f4 3d 17 e0 c1 3c 98 08 a0 bb 54 7d 8c 3d
       0.11951451 0.023666425 -0.004883837 0.06859842
000010 bf 8b 16 3d 70 d5 da bc 80 f4 fc 3c 48 93 65 3d
       0.036754366 -0.026713103 0.030878305 0.05604866
000020 29 3c b5 bd 43 94 0b 3e 44 bb 96 be 8d 77 5f 3c
       -0.08849365 0.13630776 -0.29439747 0.013639343
000030 c6 9a a2 bd 11 36 68 3d da da 51 3d ed 4b 1e bc
       -0.07939677 0.056692187 0.051234104 -0.009661657
000040 61 6b 39 3c 90 3a e6 bc 44 39 0d 3c 69 4b 72 bd
       0.011317105 -0.028104097 0.00861961 -0.059153948
000050 96 28 2c 3b 17 b8 59 3e d6 bc 92 bd a2 21 1e be
       0.0026269308 0.21261631 -0.07164924 -0.15442517
000060 6a dd 0b 3d 65 c9 e3 3c a8 7d be bd cd 61 6f bc
       0.034146704 0.027805993 -0.09301311 -0.01461072
000070 ba 4e c4 bc 68 da b1 ba 54 fb d7 bd 05 f0 79 3d
       -0.023963321 -0.0013569118 -0.10545984 0.061019916
000080 fc 7e df 3d fe 1f 96 bd 6f d2 1c 3c 2e 70 a7 3c
       0.10912892 -0.07330321 0.009571656 0.020439234
000090 26 2c b7 3d 7c 8c 5b 3d 22 4f a5 3d 4f 61 81 3d
       0.089439675 0.053600773 0.08071734 0.06317388
0000a0 25 7b 85 3d 21 6e eb 3c 88 f3 d8 3a 97 1e fa bd
       0.065176286 0.028739037 0.001655207 -0.12212866
0000b0 72 2b 08 be e1 3c 04 be 4b 9f 2a be ab 73 09 3d
       -0.13297823 -0.12913848 -0.16662328 0.033557575
0000c0 2f e0 8e 3d a4 d2 15 3d 0e 3e 8f 3d 72 48 66 39
       0.069763534 0.036577836 0.06994258 0.00021961497
0000d0 d6 82 39 3e b0 30 7e ba 40 a4 07 3e 77 bf e1 bc
       0.18116316 -0.0009696586 0.1324625 -0.027557118
0000e0 f7 e5 3c be 1f 09 25 bd 16 b8 cb 3c 4f 8d 23 bd
       -0.184471 -0.0402919 0.024868052 -0.039929684
0000f0 52 3d 88 bd 33 14 fb 3d 6d fc 82 bd 97 10 67 3d
       -0.06652321 0.12259712 -0.06395803 0.056412306
000100 2a 56 39 bd 11 9b 31 3e 27 d8 ec 3d b5 8d fa bd
       -0.045248188 0.1734431 0.11564665 -0.1223406
000110 47 80 18 bc 0e e0 0b be 78 39 12 be 5a ab 93 bd
       -0.009307927 -0.13659689 -0.14279735 -0.07210417
000120 18 82 9d 3d a4 59 3d 3c 39 38 4c 3d a3 70 b8 bd
       0.07690829 0.0115570165 0.049858306 -0.09005859
000130 76 b6 69 3d b6 19 58 bd 98 27 c7 bd 9d 8f 0e 3e
       0.057058774 -0.052758895 -0.09724349 0.13921972
000140 8c fb 03 bd 10 f9 03 3e d0 8c dd bd d5 e1 f5 bd
       -0.032222316 0.12887979 -0.108178735 -0.12005965
000150 3c 01 63 3d 43 ec a3 bd ca 94 95 3d 34 79 0a be
       0.0554211 -0.08004048 0.0730377 -0.13522798
000160 a8 37 11 3d ab ca c9 bd 86 65 0b be 72 86 dd bd
       0.03545347 -0.09853109 -0.13612947 -0.10816659
000170 94 f2 2b bd 06 56 b1 bd 97 0d 1e 3d 5b 85 84 3b
       -0.041979387 -0.08658986 0.03858718 0.0040442175
000180 e0 92 ac 3d 31 51 58 3e f4 c6 ed bb 9d c7 e1 bc
       0.08426452 0.21124722 -0.007256383 -0.027561003
000190 9a c4 09 3d f5 71 c8 bd 02 33 fc 3c 6a 2e 96 3d
       0.03363476 -0.097873606 0.030786041 0.073330715
0001a0 b1 24 20 be df e0 9d 3d bb ca 52 bd fe 75 14 3e
       -0.15638997 0.077089064 -0.05146287 0.14498135
0001b0 21 36 91 bc da e3 1f 3d f8 43 78 3d 73 c9 b4 bd
       -0.017726006 0.039035656 0.060611695 -0.08827486
0001c0 f6 8b 87 3d ae 36 e1 bc a2 86 8d 3e e3 c9 b4 bd
       0.06618492 -0.027491894 0.2764178 -0.08827569
0001d0 bc 59 17 3e 67 0c ef 3c 37 77 ec 3d 4d c0 6c 3d
       0.14780325 0.029180719 0.11546176 0.05780058
0001e0 b3 2a a3 3d 71 2f 17 3d cd 7a 23 bd 0a b9 5a 3d
       0.079671286 0.036910478 -0.039912034 0.053399123
0001f0 d0 72 f7 bd 95 e5 8c 3d 57 dd 8e 3d c1 44 46 bc
       -0.120824456 0.06879727 0.06975811 -0.012101353
000200 ee 5c a3 bc 13 c0 82 bd 14 04 4a 3d e9 f0 38 3e
       -0.019941773 -0.063842915 0.049320295 0.1806065
000210 cb 2b 42 3d 76 c3 f1 bd c7 c2 54 3c 08 24 c7 bb
       0.047405045 -0.11804859 0.012985892 -0.0060772933
000220 5d d4 93 bd 7c 7a ed bd 8f 5b a7 3d 41 15 8d 3c
       -0.072182395 -0.11595628 0.0817176 0.017222049
000230 09 a5 ac 3d 7c 03 15 bd 88 c4 6d 3d 7d 01 f6 ba
       0.084299155 -0.036380276 0.058048755 -0.0018768754
000240 e1 56 0b be 16 13 34 bd 1a 27 a9 3d cb 48 13 bd
       -0.1360736 -0.043963514 0.08259411 -0.035958093
000250 6f 0c d1 3d 06 fe 5d bc 27 3a df 3d f4 1b d3 3d
       0.1020745 -0.013549333 0.108997636 0.10308066
000260 e8 54 42 3b ac d9 18 3d 23 6f 93 3d 7d 87 62 3d
       0.002965266 0.037316963 0.07198932 0.055304993
000270 b3 ef c1 3d 7d 37 55 3d 83 0a de bd 85 61 16 3d
       0.09469547 0.05205487 -0.10841849 0.036714096
000280 8b 4e 9d 3d 51 c8 aa bd 1f a3 77 3d 87 0f 4f bd
       0.076809965 -0.083389886 0.0604583 -0.050551917
000290 86 9a c9 bd ff cd 10 3c 7e a5 44 3c c4 14 60 be
       -0.09843926 0.008838176 0.012002347 -0.21882921
0002a0 0b 58 47 3d a5 42 3d bc a2 a2 75 bd 91 18 c7 3d
       0.04866795 -0.011551534 -0.05996955 0.097214825
0002b0 23 7b d6 bd 86 c4 6b bd cf 7a 35 bd 9a e6 4c 3d
       -0.10472705 -0.057560466 -0.044306573 0.050024606
0002c0 68 bf a7 3d 96 04 86 3b 91 86 99 bd 21 d9 ba 3d
       0.08190805 0.004089902 -0.0749637 0.09123445
0002d0 9d bd a2 3d 9b 21 de bd ff 51 93 3b d2 ca 28 3e
       0.07946322 -0.108462535 0.0044958587 0.1648362
0002e0 8c f8 de bd d2 d9 48 3d 2b 06 88 bd ba 65 42 3d
       -0.1088725 0.049035855 -0.066418014 0.047460295
0002f0 9d 8f 03 3e 91 66 c6 3c 1a b6 c0 bc 5b b4 83 3e
       0.12847753 0.02421883 -0.023524333 0.25723538
000300 f3 7d ca bd ae b5 f9 bd eb d2 45 3d 38 7f 03 3e
       -0.09887304 -0.12192856 0.04829685 0.12841499
000310 6d e1 6e 3e be de 1f 3d 0a 48 43 bd 5a 3b b3 bd
       0.2332818 0.039030783 -0.047676124 -0.08751555
000320 a2 02 2b 3e 35 82 05 3e 91 42 07 be 3b 40 83 bc
       0.16700223 0.13037951 -0.13208987 -0.016021838
000330 6a 4d 9d 3d 0b 7c 79 bd 33 7d 82 3d 33 8b 44 3e
       0.07680781 -0.060909312 0.06371536 0.19193725
000340 9b 4b 81 3e 33 82 41 3c ef 3c cf bd 27 c5 20 bd
       0.25252995 0.011810827 -0.10119044 -0.03925052
000350 c5 7f a6 3d 50 9c 4a 3d f7 9c 82 3d e3 ff d5 bd
       0.08129839 0.049465477 0.06377595 -0.10449197
000360 32 f3 95 bd e9 03 e1 bd da dc 06 bc 8b 2b 90 bd
       -0.073217764 -0.10987074 -0.008231366 -0.07039555
000370 61 56 19 bd 20 d0 36 bc c3 1b c7 bc dd 8b 17 be
       -0.037435893 -0.011158019 -0.02430523 -0.14799447
000380 2b e0 d2 3d d4 3a 92 3c fe cb d6 bd 05 14 2b 3c
       0.10296663 0.017850317 -0.10488127 0.010441785
000390 a2 58 16 3d c3 dd 78 bd 27 1b 4b bc 59 88 06 3e
       0.03670562 -0.060758363 -0.01239661 0.1313795
0003a0 6c 58 2b bb ab e9 d8 3d 51 01 55 3b 24 60 f2 bb
       -0.0026145233 0.10591444 0.0032502005 -0.0073967148
0003b0 c6 14 30 bd fc 4f c2 3d 8d eb 0c bd 84 cf 82 3d
       -0.04298856 0.09487912 -0.034404326 0.06387237
0003c0 71 bc 8e bc 24 c6 d5 3d d8 2b bb bc 21 fb a6 bd
       -0.01742384 0.10438183 -0.022848055 -0.08153368
0003d0 85 b9 cd 3c 4d cb cb 3c db b0 86 bb d6 45 9a 3d
       0.025112877 0.024877215 -0.0041104383 0.075328514
0003e0 4c b8 8b bd c1 d6 d5 bc 41 77 bf 3d 6e 5c 2b 3c
       -0.06822261 -0.02610338 0.09348918 0.010459049
0003f0 6a 02 d3 3d 94 57 97 3d 4d cc c6 bd eb 9e b7 3d
       0.10303195 0.07389751 -0.09706936 0.08965858

shared_net.2.bias f4 [256]
000000 39 77 ce 3c 5a eb 5b bd e9 53 29 bd 80 c9 2e bd
       0.025203334 -0.053691246 -0.04133979 -0.042672634
000010 94 35 a3 3b f0 0b 78 3d 59 33 0c bd 7e da 85 bd
       0.0049807522 0.06055826 -0.034228656 -0.06535815
000020 76 d4 1e 3c 62 7b d7 bd 20 6d d3 bc ef 55 93 bc
       0.009694209 -0.1052158 -0.02580887 -0.017985312
000030 62 af fb bd ef 42 bf bd 69 97 4c bd 18 64 45 3c
       -0.12289311 -0.093389384 -0.049949083 0.01204779
000040 91 ca 19 bd 90 03 ca bc 26 76 50 bd 4c ff e7 bc
       -0.037546698 -0.024659902 -0.050893925 -0.028319977
000050 60 c0 ce bc 08 36 d8 bd 2c d2 0a be 98 60 ae 3c
       -0.025238216 -0.10557181 -0.13556737 0.021286294
000060 b9 5e 92 3a 76 d4 05 bd 2f e4 7a 3c 90 46 cd bd
       0.0011167146 -0.03267332 0.015313192 -0.10023224
000070 15 6c 4d bd b4 d7 03 bc 13 fa 00 be d3 7a 84 bd
       -0.050151903 -0.008047033 -0.12595396 -0.06468739
000080 d9 bf a7 bc ca 31 e1 bd 54 bd db bc ac 74 15 be
       -0.020477222 -0.10995825 -0.026823677 -0.14595288
000090 27 63 f3 bc 63 e9 82 bd 41 26 31 bd c6 8b 3f 3d
       -0.029710365 -0.06392171 -0.043249372 0.046764158
0000a0 96 20 ff bd f0 91 fc bd 1d 80 20 be 92 ff 9e 3c
       -0.12457387 -0.12332523 -0.15673871 0.019408975
0000b0 04 98 0f be c7 9c 8b bd 53 fa b3 3b 83 51 a9 bd
       -0.14022833 -0.06817012 0.0054924875 -0.082675
0000c0 f2 f0 a9 bc 8c 54 1d bd 7c a3 96 bd c5 63 03 3e
       -0.020744774 -0.03841071 -0.07355401 0.12831028
0000d0 12 8e 8c bd b2 aa fc bc b7 1b e9 bb bf 4f b5 bd
       -0.06863035 -0.030843113 -0.0071138996 -0.08853101
0000e0 8f 95 3e bd f4 05 01 be 3f 99 ba bc b8 ea 4c bd
       -0.04652935 -0.12599927 -0.022778152 -0.050028533
0000f0 ae 5a fc bd 52 ca 75 bd e4 bb 54 3c 02 82 e7 bd
       -0.12321983 -0.0600074 0.01298425 -0.11304094
000100 6b e3 90 bd 7b eb 74 bd b2 ee 9e bd 33 e1 6a bd
       -0.070746265 -0.059794884 -0.07760371 -0.057343673
000110 da 3a 0c be df 0e 9e 3d 45 bb 04 be 38 3a bc bd
       -0.13694325 0.0771768 -0.12962063 -0.09190792
000120 6e 88 b2 3d f2 5c 34 bd 3d 06 86 bd 58 ca 0b bc
       0.08717428 -0.044033952 -0.065441586 -0.008532129
000130 dc 26 54 3c a0 6e 47 bd 27 26 cf bd 23 4a b4 3c
       0.012948718 -0.048689485 -0.10114699 0.022008007
000140 95 e1 6e bd ea 8e 93 bc 7f 27 8d bd bd e7 e2 3d
       -0.0583206 -0.018012483 -0.06892299 0.11079357
000150 d9 75 e3 bd 42 75 a2 3c 33 8d 55 3d 64 32 e8 bc
       -0.11106462 0.019831304 0.05213661 -0.02834434
000160 e5 4a 00 3d 7f fc 8b bd ea b4 5b bd b1 c0 41 bd
       0.031321425 -0.06835269 -0.05363933 -0.047302905
000170 90 1c 60 3c cf 14 03 be 4c 64 b7 bd 6f 50 49 bd
       0.013678685 -0.12800907 -0.08954677 -0.049148973
000180 3d 89 13 be da 41 cf bd a4 58 e1 bc 0d cf 71 bd
       -0.14407821 -0.10119982 -0.027508087 -0.05903535
000190 42 68 1a 3d 66 eb bb bd b8 20 7d bd b4 5d 5c bd
       0.037697084 -0.09175758 -0.06179878 -0.0538003
0001a0 c5 57 02 3d 5a 5e 49 3c c7 92 5e 3c 79 ec 1c bd
       0.031821985 0.012290562 0.013584799 -0.038311455
0001b0 a3 b2 06 be ed 48 20 bd f6 a9 53 bd 7e af 31 bd
       -0.13154082 -0.039132047 -0.05167576 -0.043380253
0001c0 4c c6 94 bc f4 91 fe bd e6 40 b9 3b 9d 2a 13 bd
       -0.018160962 -0.12430182 0.0056534884 -0.03592931
0001d0 12 78 c7 3c 7e 32 c4 bd f8 30 5a bd a4 24 8a 3c
       0.024349246 -0.09579943 -0.053269356 0.016863175
0001e0 7e c3 ca bc 69 8b 40 bd 39 4d c4 bd 56 5e cd bd
       -0.024751421 -0.047007952 -0.095850416 -0.10027759
0001f0 15 7b 16 bd d3 5d 1e bd e0 48 bb bd fe d6 1a bd
       -0.036738474 -0.038663696 -0.09144759 -0.03780269
000200 37 72 3e bc a7 5f 05 3c ee 31 d3 bc d6 a6 fc bd
       -0.011623911 0.008140481 -0.025780644 -0.12336509
000210 80 a3 0e bd 2f d6 64 bd 29 a2 26 3d 8f 08 c5 bd
       -0.034823895 -0.055868324 0.04068199 -0.09620773
000220 0a 70 94 bd 90 e0 f8 bd 33 b2 90 bc 83 a6 c2 bd
       -0.07247932 -0.12152207 -0.017663097 -0.09504416
000230 9d db ce bd d8 68 a1 bd 20 80 9e bd 31 d4 b7 bd
       -0.10100482 -0.078813255 -0.07739282 -0.08976019
000240 5c 0c 1f be 5a f4 34 bd da e0 f3 3d a7 b8 99 bc
       -0.15532058 -0.044178344 0.119081214 -0.018764807
000250 32 aa e6 bc 08 d3 03 bd 0c 87 74 bc 83 1e 32 3c
       -0.028157327 -0.032183677 -0.014924776 0.010871532
000260 9a 98 14 be 18 7e 4c bd 5e d0 9d bb e6 8d f0 bd
       -0.14511338 -0.04992494 -0.004816099 -0.11745815
000270 5b a5 1a be c9 97 91 bd a8 62 85 bd 57 38 2c bc
       -0.1510214 -0.07109029 -0.06512958 -0.010511479
000280 66 7d 2e bd e4 08 7c bd 91 c4 e1 3c 9b cd 1f 3d
       -0.042600058 -0.061531916 0.02755955 0.03901444
000290 73 7f e5 bd 04 cd 44 bd 32 1c 36 bd fe 1d a7 bc
       -0.1120595 -0.04804708 -0.044460483 -0.020400044
0002a0 e3 4c 86 bc f4 99 ea bd 6f 0a aa bc f4 1f c1 bd
       -0.016394084 -0.114551455 -0.020756928 -0.09429923
0002b0 79 a2 ae bc f3 f9 09 be 07 38 4a bd dc e4 4a bd
       -0.021317707 -0.13474254 -0.049369838 -0.049534664
0002c0 18 9f 0a be 6c 9b 5d bc 86 c7 05 3e b4 60 03 be
       -0.13537252 -0.013525825 0.13064393 -0.12829858
0002d0 ef d0 be bd c1 6c cc bd 0e 43 4c bc 67 c9 18 be
       -0.09317195 -0.09981681 -0.012467159 -0.14920579
0002e0 7f f2 3b 3d e7 d4 69 bd 36 57 d8 bd f0 07 91 3d
       0.04588556 -0.057087805 -0.10563509 0.07081592
0002f0 58 08 2a bd ed d1 4d 3c c0 02 77 3c 84 5e b9 bc
       -0.041511863 0.012562257 0.015076339 -0.022628076
000300 d7 0a fa 3c 89 cc 36 bd 73 4a a9 bd 77 5e 4c bd
       0.030522747 -0.044628654 -0.08266153 -0.049894776
000310 4d 4b 4a bd b5 91 46 bc a1 fc f5 bd 6d 0a f0 bc
       -0.04938822 -0.0121197 -0.12011076 -0.029301846
000320 30 fd 6e 3b 40 ec a5 bd ba 21 11 bc b0 5c 2d 3c
       0.003646683 -0.08101702 -0.008858139 0.01058118
000330 9c af 19 bd cc 95 84 bd 82 13 17 bc bc 90 03 be
       -0.03752099 -0.06473884 -0.00922096 -0.1284818
000340 f5 7c a9 bd 50 7e 95 bd 91 b5 f3 bd 12 16 00 be
       -0.08275787 -0.07299483 -0.118998654 -0.12508419
000350 24 8d d5 3a 75 fb d7 bd a1 9c 08 bd 9d 38 b2 bd
       0.0016292674 -0.105460085 -0.033352498 -0.087022044
000360 bf de a7 bd 27 3c 86 bd eb 07 9d 3c 33 35 c8 bc
       -0.08196782 -0.06554442 0.019168815 -0.02443943
000370 3f c4 f8 bd 01 6e c5 bd 76 2b 93 bd 1b 70 bf ba
       -0.12146806 -0.09640122 -0.07186024 -0.0014605554
000380 f1 f1 8e 3c 18 bc 0e bd 8d 77 b1 bc 80 0b 47 bd
       0.017449351 -0.03484735 -0.021663452 -0.04859495
000390 b2 19 9b bd f1 34 b8 bd 34 43 ab bc 4f ae 2c be
       -0.0757326 -0.08994473 -0.020906068 -0.16863368
0003a0 34 5f 9f 3d b2 41 87 bd 41 b9 82 bd 27 f7 74 bd
       0.077818304 -0.06604327 -0.06382991 -0.059806015
0003b0 e0 9e a0 bb bc 99 a3 bd 07 33 ab 3d 56 01 2c bc
       -0.004901752 -0.07988307 0.08359342 -0.010498365
0003c0 df e5 8c bb cc 60 ef bc 96 d7 94 bd 31 2b 08 3c
       -0.0042998637 -0.029220961 -0.07267682 0.008311079
0003d0 b2 1a 9e bd 29 33 d8 bd 23 0d 8f 3d 1f bf bb bd
       -0.077199355 -0.10556633 0.069849275 -0.09167313
0003e0 f3 22 10 be f0 5e 2c 3c 65 36 b3 ba 63 2b 7b bd
       -0.14075832 0.010520682 -0.0013672827 -0.061320674
0003f0 36 4b 5a bd c8 f0 f2 bd f7 af cf bc 30 c2 d6 bd
       -0.053294383 -0.11862332 -0.025352461 -0.10486257

to_mean.0.weight f4 [128, 256]
000000 02 fe b5 3d 57 08 cc b9 90 1c af 3a 5c 8e 4f 3b
       0.08886339 -0.00038916126 0.0013359953 0.0031670546
000010 5f b6 1e 3d 61 59 89 bd a6 ca 31 3d ca ce 15 bd
       0.03874814 -0.06706501 0.04340615 -0.036574163
000020 a2 68 67 bc c1 fc ed bc 5f bc 1b 3d 50 61 c9 bc
       -0.0141240675 -0.029051187 0.03802144 -0.024582535
000030 f9 8a f4 3c 79 ea 74 bc ed 54 7b 3d 29 da e7 bc
       0.029851424 -0.014948481 0.06136029 -0.028302269
000040 1e b2 cb bc be 56 ba bb 40 2e 8c 3c b0 75 cd 3a
       -0.024865206 -0.00568661 0.017111897 0.0015675332
000050 d0 dd 0d 3d e0 a3 40 3d 01 bf 14 3d 99 34 3d 3d
       0.034635365 0.047031283 0.036314968 0.04619274
000060 b8 aa 5f bd de 51 9a bd 78 e4 65 bd ca 40 5b bd
       -0.05460617 -0.07535146 -0.056126088 -0.053528585
000070 49 c7 36 bd 80 a6 91 bd d3 c3 60 bc 59 87 21 3b
       -0.044623647 -0.071118355 -0.013718563 0.0024647324
000080 76 f1 5e 3d fa e6 f2 bc d0 ac 8b 3c 07 89 29 3d
       0.054429494 -0.029651154 0.017050177 0.041390445
000090 dd 54 3e 3d 54 f8 31 bd 2f c3 ce bc e0 49 d4 3b
       0.04646765 -0.043449715 -0.025239555 0.006478533
0000a0 c8 12 b8 3c dc 9c 50 3a c5 6f 7a 3d 3a 72 88 bd
       0.022469893 0.0007957944 0.061141748 -0.06662412
0000b0 23 38 8d bc 00 83 20 bd d5 0f 02 bd 13 6c 3f 3d
       -0.017238682 -0.03918743 -0.03175338 0.046733927
0000c0 c6 3a 7a bd 4f fb ab bd b8 4d 98 bc 60 5f af 3c
       -0.061091207 -0.08397543 -0.018591747 0.021407783
0000d0 c9 f3 8e 3b 58 92 9d bc 28 76 95 3d 2a c7 f6 bb
       0.0043625575 -0.019234821 0.07297927 -0.0075310664
0000e0 f2 5a d9 bc 61 3d 32 bc db 02 fe bc 09 c3 d8 3c
       -0.026532624 -0.010878892 -0.031007221 0.026460188
0000f0 7a 87 1e bd 69 ad 77 bd 6f dd bd bc 1c 9d 7a bb
       -0.03870342 -0.06046811 -0.023176877 -0.0038240617
000100 01 6c c5 3c 10 12 7d 3d 84 71 68 bd 42 ca b5 bc
       0.024099352 0.061784804 -0.056748882 -0.02219117
000110 84 3c fc 3c bd 30 2a 3d 0f e8 61 bd e5 29 11 bc
       0.030790575 0.041550387 -0.05515295 -0.008860086
000120 72 9a d6 3d aa 86 32 3d 9f bc 82 bd b6 ce 1e bd
       0.10478677 0.043585457 -0.06383633 -0.038771354
000130 66 69 9d bd 62 76 2a 3c cd c5 ea bc 7c 50 a4 3b
       -0.07686119 0.010404201 -0.028658772 0.0050144773
000140 e1 1c bf 3b 39 44 43 bd 0f ad 5c 3d 64 57 90 3d
       0.0058323 -0.047672484 0.05387598 0.070479184
000150 b8 73 83 bd 16 8a ca bb e6 e8 4d bd 21 53 01 bd
       -0.06418556 -0.006181012 -0.050270937 -0.03157342
000160 32 d7 99 3d ec 2d fc 3b 5a fc 27 bd 19 81 93 bc
       0.075117484 0.007695904 -0.041012146 -0.018005894
000170 f6 a8 6a 3d 83 bc 2f bd f2 99 04 bd 07 bb 35 3b
       0.05729004 -0.04290439 -0.032373376 0.0027729885
000180 09 2d 17 bd dd 89 42 bb 44 56 17 ba 93 86 2a bc
       -0.036908183 -0.0029684224 -0.00057730475 -0.010408062
000190 51 3a 66 3d d3 e9 29 bd 54 bf 5f bd f5 63 01 3d
       0.05620796 -0.041482758 -0.054625824 0.031589467
0001a0 bb 94 2f bc d9 d7 9d bd 2f 1c bd bc 32 b9 6c bd
       -0.010716612 -0.07707185 -0.023084728 -0.057793804
0001b0 22 83 00 bc 53 2b 16 bd 00 5b 26 3c 18 13 cf bc
       -0.0078437645 -0.03666241 0.010153532 -0.02527766
0001c0 c3 aa 58 bd da db e6 3c 8f 21 94 3d 7f 84 c5 bc
       -0.052897226 0.028181005 0.07232963 -0.02411103
0001d0 5a 2a 6c 3c 0a 08 a3 3c c6 bd 17 bd 83 2d 80 3d
       0.014414394 0.019901294 -0.037046216 0.06258681
0001e0 8f ec 28 bd 97 84 15 3d 53 4c d5 bc df 38 27 bd
       -0.041241225 0.0365034 -0.02603737 -0.04082572
0001f0 e2 10 53 bc 0b 9f 85 bc 3f 9d 22 3c 79 11 80 bd
       -0.012882443 -0.01631119 0.009925186 -0.06253333
000200 6d a0 4b bd ca 5f b6 3d cf 79 94 bc 14 c2 c4 3c
       -0.04971354 0.08904989 -0.01812449 0.024018325
000210 d7 86 ae 3c ae 26 4e bc 9f 86 85 bc 67 e7 d1 3c
       0.021304531 -0.012582464 -0.016299544 0.025623037
000220 ae 4f 80 bc 88 f2 32 bc 84 ab 4d 3c 51 c8 4e bc
       -0.015662994 -0.010922082 0.0125531 -0.012621001
000230 0d 98 aa bc f8 b3 87 ba cb d7 62 bd 01 69 12 3a
       -0.020824457 -0.0010353317 -0.055381577 0.0005585105
000240 40 1a e8 3c d1 af 10 3c bd 6d 95 bd 5b 7b 87 bc
       0.02833283 0.00883098 -0.072963215 -0.016538313
000250 87 3d 98 bd 79 4b 96 bc 55 23 69 bd 83 79 45 3d
       -0.074336104 -0.018346535 -0.05691846 0.048211586
000260 48 62 12 3d 89 09 4e bd ea d2 5b 3c 10 9f 81 ba
       0.03573826 -0.050302062 0.013416985 -0.0009889323
000270 6f fd 08 3d ba cd b5 bc ed cb 37 bd e1 3b 1e 3c
       0.033444818 -0.022192825 -0.044872213 0.009657831
000280 32 72 0c bd 31 da 17 bd c3 59 c2 3c e1 7f ce 3c
       -0.034288593 -0.037073318 0.023724442 0.025207462
000290 6e 68 bb bc ff 1e a2 3d 96 29 e8 3b 0b 60 57 3c
       -0.022876944 0.07916068 0.0070850356 0.013145457
0002a0 fe 38 24 3c 81 00 c8 3c 5c 8e 65 3b 70 c7 a8 bd
       0.010023354 0.024414303 0.003502748 -0.08241165
0002b0 41 28 69 3c 83 44 60 bc fb ed 55 bc 3d 45 27 bd
       0.014230789 -0.0136882095 -0.013057227 -0.040837515
0002c0 6c 1f 77 3d 05 80 42 3b d5 11 31 3d ac 33 f8 3c
       0.0603327 0.0029678356 0.043229897 0.030298077
0002d0 85 f0 0f 3d 57 b0 9f 3c c8 e8 f0 bc 55 d2 0b 3c
       0.035141487 0.019493265 -0.029407874 0.008534034
0002e0 36 85 47 bc b0 3b 7d 3c 43 41 81 3d b2 ea 83 bb
       -0.012177756 0.015456125 0.06311276 -0.0040257806
0002f0 43 a7 bd bb 52 68 ec 3d 6f 35 36 3d 64 8b 7e 3d
       -0.0057877614 0.11543335 0.044484552 0.062144652
000300 ce ae 5e bd 6c 45 97 bc 6f 57 8c bd a3 0b 2b bd
       -0.054365925 -0.01846572 -0.06852614 -0.041759145
000310 47 ca 02 bd cc e8 47 3c 1c 9a 7b bd 7e 50 eb bc
       -0.031931188 0.012201499 -0.061426267 -0.028724905
000320 a1 25 e0 3c d8 d8 c3 bc ee d9 0b 3c 49 09 09 3d
       0.027361693 -0.02390711 0.008535845 0.03345612
000330 00 83 37 3d 02 61 0b bd 88 c1 d4 3c 36 a8 c8 3c
       0.044802666 -0.03402806 0.02597119 0.024494272
000340 ca 74 05 3a 82 d4 35 bc d3 fb d5 bc 5c a4 89 3c
       0.000509095 -0.011098029 -0.026121056 0.016802005
000350 09 55 0b bd ff d1 8d 3c a0 13 2d 3d b5 78 99 bd
       -0.034016643 0.017312048 0.042255044 -0.07493726
000360 27 84 91 b9 af 13 b1 3d 35 9b 1a bd 39 20 72 bd
       -0.00027755016 0.086463325 -0.037745673 -0.05911276
000370 9d e3 c2 3a 7b 99 0f 3d b2 3e a2 bd b0 9c 25 3d
       0.001486886 0.03505848 -0.079221144 0.040432632
000380 57 7a 59 3d 6b 00 ce 3c 4c 28 51 3c 17 ec 05 bd
       0.053095188 0.025146684 0.012765955 -0.032695856
000390 8a 9e 02 bd 73 ed 63 3d 46 85 ef bb 31 e3 a9 bd
       -0.031889476 0.05564637 -0.0073095886 -0.082952864
0003a0 b2 5d 8c bd c1 84 4c bc 55 d5 80 3c d4 71 81 3b
       -0.068538085 -0.012482823 0.015726725 0.003950337
0003b0 20 58 6b 3c 9e 52 5e bd ba 65 0b 3d 76 0f 4e bc
       0.014364272 -0.05427801 0.03403256 -0.012576928
0003c0 e9 8b 6c bb dc a2 17 3d ce 50 db bc 3f 29 3f 3d
       -0.0036094135 0.03702055 -0.02677193 0.046670195
0003d0 b5 06 20 3d 4d af 92 3d bb fa 65 3d 90 d0 f4 bc
       0.039068896 0.07162342 0.05614732 -0.029884607
0003e0 ba 4b 1a 3c 00 02 aa bd f6 79 1f 3c 3c a8 91 bd
       0.009417469 -0.08301163 0.009733668 -0.07112166
0003f0 f3 8b d0 3b a2 e4 4b 3d 08 f9 9b bd 83 db 1d bd
       0.0063643395 0.049778588 -0.07615858 -0.03853942

to_mean.0.bias f4 [128]
000000 34 8c 65 3d 70 73 98 3c b5 e3 93 3c d7 91 92 bd
       0.05604191 0.018609732 0.018052915 -0.07156723
000010 4d 29 07 bd 1c 5d da bc fe ea 24 bb af bf 65 3d
       -0.032998372 -0.026655726 -0.002516448 0.056091007
000020 06 18 84 3b e9 83 09 3b dd be 97 bd 43 da bc bd
       0.004031184 0.0020983166 -0.07409451 -0.092213176
000030 2b c2 b3 bc 6f b6 22 3d fd 65 e9 3a a9 f4 3b bd
       -0.021943172 0.039724763 0.0017806884 -0.045887623
000040 fe 51 3a 3c 75 f7 dd ba a3 6f 99 3d 67 7d a3 bd
       0.0113720875 -0.001693471 0.07491996 -0.07982903
000050 5b d5 b1 3c d6 ea 24 bd ad 5d 28 3d fa d1 04 3d
       0.021708181 -0.04026302 0.04110496 0.03242681
000060 85 73 c9 bd 37 f7 42 3d 03 7c 25 3a df 36 90 bc
       -0.09836487 0.047599044 0.00063127297 -0.01760429
000070 98 d0 25 3d 0c a0 43 bd b5 96 b6 bc 55 18 26 3d
       0.040482134 -0.047760054 -0.02228866 0.04055055
000080 0a 3d 00 bd ee d4 63 3c 19 fc ae bd 82 8d 54 bd
       -0.03130821 0.013905747 -0.085441776 -0.051892765
000090 f9 ef 77 3c d8 ed 73 bd c2 ae 07 bd d7 f5 95 bd
       0.0151328975 -0.059552997 -0.033125646 -0.07322281
0000a0 f4 b6 85 3c 65 77 60 3d c5 b1 e3 bd 83 7c fc bc
       0.01632259 0.054801363 -0.11117891 -0.03082109
0000b0 86 ae 09 3d 1c 9b e4 3c c2 e6 99 bb 76 f6 02 3d
       0.033613704 0.027905993 -0.004696698 0.031973325
0000c0 4c 95 55 bd dd 14 88 bc a7 aa 40 3d a1 b9 48 bb
       -0.052144334 -0.01661151 0.047037747 -0.0030628222
0000d0 af 1d a1 3d f5 f5 4f bd fa 13 96 bd 78 68 55 bd
       0.0786699 -0.050771672 -0.07328029 -0.052101582
0000e0 18 52 a8 bb 0c 5d 89 bd ff f8 05 3d 2e 88 37 bd
       -0.0051367395 -0.067072004 0.032708164 -0.044807605
0000f0 9a 92 46 3d a1 db c2 bc 3a 6a 7c 3c 48 da ac 3a
       0.048479654 -0.023786368 0.015406186 0.0013187611
000100 63 fe c4 bd 1b 73 bb 3c 53 65 93 3d 46 2d e2 bd
       -0.09618833 0.022882035 0.071970604 -0.110437915
000110 3f 2d 3d bc fa 47 05 3c 36 db 49 bd 77 62 10 bd
       -0.011546432 0.008134836 -0.04928132 -0.035250153
000120 23 24 dd 3c af f1 c4 bc 36 51 a8 bd eb 09 11 3d
       0.02699477 -0.024041025 -0.08218615 0.03540985
000130 50 cc 50 bd e9 be 0e bd 08 37 f0 bc 38 82 1b bd
       -0.050976098 -0.034850035 -0.029323116 -0.037965983
000140 a0 b7 02 3d 5e 10 1b 3d 91 4c 0e b9 be 43 16 bd
       0.0319134 0.037857406 -0.00013570699 -0.036685698
000150 5e 89 3a 3c 1e f7 13 bd 08 33 4d 3b 0b eb 56 bc
       0.01138529 -0.03612434 0.0031310935 -0.013117562
000160 bd 5f 35 3d 3b 74 2c bc 15 9d 29 3c 83 cd a6 bc
       0.044280756 -0.010525758 0.010352393 -0.020361667
000170 a8 c1 a5 bd dd a1 a7 bd 7f c8 e9 3c 57 e4 a1 3c
       -0.080935776 -0.0818517 0.028537987 0.019762201
000180 40 9e f4 3c f7 a7 3d bd b3 72 47 bd 43 be 40 3d
       0.029860616 -0.046302762 -0.04869337 0.047056448
000190 35 38 c2 bd ab b9 86 3d d5 1b 79 bd c6 fa 16 3d
       -0.09483377 0.06578382 -0.06081756 0.03686025
0001a0 a3 38 e2 bc ae a7 86 bd 3d d4 5f bd f5 ec 86 bd
       -0.027614897 -0.06574951 -0.054645766 -0.06588165
0001b0 19 d5 d0 3d 80 ea 8d 3d 84 5c 54 3c 65 5a 5d bd
       0.10196895 0.06929493 0.012961511 -0.054041285
0001c0 a7 84 15 3d 89 d0 4c bd 09 1c 13 bd 2b 2b 0d 3d
       0.03650346 -0.050003562 -0.03591541 0.034464996
0001d0 d2 ce 92 3c 01 58 49 bd 3b 6e 46 bd e0 71 0e 3d
       0.017920885 -0.049156193 -0.048444968 0.03477657
0001e0 25 ad f1 3c 0d bb a9 bd f7 c2 2f bb 8a ee 89 3d
       0.029501507 -0.0828763 -0.002681909 0.06734951
0001f0 37 47 16 3d 92 19 6c bc 61 cd 4c 3d 69 e3 c5 3c
       0.03668901 -0.014410393 0.050000552 0.02415629

to_mean.2.weight f4 [18, 128]
000000 a7 9c fc 3b cb 7d d8 bc b1 64 2b bc 2f 05 70 bc
       0.007709104 -0.02642717 -0.010461018 -0.014649673
000010 8e 81 5f bc 6f ec 16 bb 20 b7 3f bb 10 f0 f6 3b
       -0.013641728 -0.002302911 -0.0029253438 0.007535942
000020 86 c0 1a bb fc 51 c4 3c ef fc 71 3b 25 c1 4d bc
       -0.0023613288 0.023964874 0.0036924442 -0.012558256
000030 f3 fe f4 3b 3a 1e b8 3c df d6 36 3a 17 a9 0b 3d
       0.0074766814 0.02247535 0.00069747673 0.034096804
000040 94 be c7 3b d7 58 e1 bb 8f e0 58 bc e7 de f2 3c
       0.0060957167 -0.0068770456 -0.013237133 0.029647304
000050 a2 8a 8f bc 24 5c 36 bc 0b 54 fb bc a7 16 c3 3b
       -0.01752216 -0.0111303665 -0.030679723 0.005953628
000060 c3 4e 0f 3c f2 84 2f 3b de c9 88 bb 0f c9 26 bc
       0.008746806 0.0026782122 -0.004174455 -0.010179772
000070 5a 6d ac 3b f9 c2 d9 bb cc 2a 77 bb 18 69 2a bc
       0.005262059 -0.006645557 -0.0037714718 -0.010401033
000080 ce 1f 5c 3c 59 26 c2 bb 57 3d 55 bb ea e7 08 3d
       0.013435317 -0.0059249816 -0.0032537782 0.033424295
000090 42 0c 22 3c ef a5 01 3c 84 e8 c7 ba fd 8b ad 3b
       0.009890618 0.007913097 -0.001525179 0.005296229
0000a0 0a 37 4c 3b c6 6a b9 bc 25 84 95 bb 83 55 ed 3b
       0.0031160736 -0.022633921 -0.004562872 0.00724286
0000b0 2b 02 8b 3c d1 59 a2 bd 8a 92 8c 3b ed 8a 7c bc
       0.016968807 -0.07927287 0.0042899298 -0.015413982
0000c0 8b 73 1b bc 1f 6c 9e 3c 0f 74 99 3b aa 18 e7 ba
       -0.009487997 0.019338666 0.0046830247 -0.0017631252
0000d0 5f 17 f2 ba b9 52 a3 bb e0 1a 83 bc 73 30 9e 3c
       -0.00184701 -0.0049842265 -0.016004026 0.019310212
0000e0 bd ae 2e bc 28 46 0f 3c 42 13 aa bc 7e e4 56 3b
       -0.010661778 0.008744754 -0.020761136 0.003279
0000f0 41 9e 8d bd 82 f1 a2 bc 57 ea c7 bb 50 a4 3a bc
       -0.0691495 -0.01989055 -0.0061009335 -0.011391714
000100 9a 02 27 bd 0b 5b e7 bb a5 93 fc ba cc 58 a8 bc
       -0.040773965 -0.0070604137 -0.0019270076 -0.020550154
000110 1f 2f d0 bb a4 98 cc 3c a4 64 9a 3b b0 d3 d1 3c
       -0.0063532735 0.024975128 0.0047117043 0.025613636
000120 c5 82 04 bd d7 c6 8a bc d8 c8 6c 3c 7a cb b8 3c
       -0.032351274 -0.016940517 0.014452182 0.022557963
000130 fe 5c 87 ba 52 92 35 bc 5c 77 07 bc d1 78 c5 bb
       -0.0010327396 -0.011082249 -0.008268204 -0.0060263653
000140 51 51 97 3c 4b 1c e3 b9 c4 b3 11 ba bd 81 62 bc
       0.018471392 -0.00043317894 -0.0005558098 -0.013824877
000150 65 b5 03 3a 1f 21 fa ba a0 5b f1 3b 4f 61 4c bb
       0.00050242833 -0.0019083357 0.007365659 -0.003118593
000160 52 f4 4f bc d0 2f ff 3b f9 50 28 bd 6f 96 57 3a
       -0.012692528 0.007787682 -0.041092847 0.00082240155
000170 61 21 6d bc 03 3d a2 3b ce 20 bf bb 24 dc 7a bd
       -0.01447329 0.004951121 -0.005832768 -0.0612451
000180 9d 9b bb bb 9a 37 cc bc 4d 6c cf bc 25 a8 53 bb
       -0.0057253377 -0.024928857 -0.025320197 -0.0032296267
000190 70 89 60 ba 5c ad 03 bc 2d bd 94 3b 23 0f 17 bb
       -0.00085654017 -0.008036938 0.004539153 -0.0023049794
0001a0 57 8e 34 3c 00 91 8c 3b 57 8a 2a 3c f6 69 b1 bb
       0.011020265 0.0042897463 0.010408959 -0.005414243
0001b0 93 d7 7e bb 56 b6 42 bc 8e 8e 87 3c 66 15 1b bc
       -0.0038885816 -0.011884293 0.016547468 -0.009465551
0001c0 02 c8 57 3b 44 3a f3 ba 24 50 8c 3b 05 72 11 bb
       0.003292561 -0.0018556793 0.0042820144 -0.0022193205
0001d0 12 4f 44 3b 6d 01 73 3b d6 9f c6 bc 82 3a 8f bb
       0.0029954356 0.0037079707 -0.024246138 -0.0043709883
0001e0 8a cd a4 3c d5 21 9c 3b 79 f0 90 bc 78 fd d4 3b
       0.02011754 0.0047647753 -0.017692791 0.0064999424
0001f0 20 71 05 bd 05 33 c1 bc 85 84 df b9 26 d7 c5 3c
       -0.032578588 -0.023583898 -0.0004263261 0.024150442
000200 24 ff c8 3c 69 80 af bc 0d 6b 28 3d b6 c8 59 bc
       0.024535723 -0.021423535 0.041117717 -0.013292482
000210 b7 97 33 3c 04 76 42 3b 5f 63 0f 3b f8 ca 58 3c
       0.010961465 0.0029672394 0.0021879298 0.013231985
000220 59 43 e9 3b a2 4c 31 3a dc 06 86 3b 0e 52 43 3d
       0.007118624 0.00067634333 0.004090173 0.047685675
000230 75 16 e2 bb 6d 8b ca 3b b3 d0 e6 bb 19 2e b7 bb
       -0.0068996497 0.0061811716 -0.007043922 -0.005590212
000240 7d 5b c6 3c 6f 82 38 3c 62 82 1a 3b 57 f1 d0 3b
       0.024213547 0.011261567 0.002357625 0.006376426
000250 59 61 e2 3b a3 09 8b bc d9 3c f1 3c c9 69 fd 3c
       0.0069085774 -0.016972369 0.02944796 0.030934231
000260 a5 ba 64 bc e9 65 df bb b7 a8 87 bc 40 13 42 bc
       -0.013960515 -0.0068175686 -0.016559942 -0.01184541
000270 26 3a a5 3c ba cd 06 bc e7 eb f9 b9 f8 17 af bc
       0.020169329 -0.00822776 -0.00047668742 -0.021373734
000280 05 a7 df bb 93 db 69 3c 6f 85 b0 3c 4d 67 5c 3c
       -0.00682533 0.014273542 0.021548001 0.013452363
000290 a0 1a 8b 3c 19 64 20 3c bc 68 8c 3c 23 bb 3c 3d
       0.01698047 0.00978949 0.017139785 0.046076905
0002a0 5d 6a b1 3c 6d ad 09 bc 73 e1 0d 3c fa 3c 81 3a
       0.021657163 -0.008403164 0.008659708 0.0009860091
0002b0 e0 0f 8f bd 9c 88 8e 3c 64 16 70 3c be 96 0a 3c
       -0.0698545 0.017399125 0.014653776 0.008458791
0002c0 73 de ba ba 91 0c 43 3c 85 ad 04 bb 89 2a e7 3c
       -0.0014256969 0.0119048515 -0.0020245027 0.028218525
0002d0 e7 09 9e 3c 55 95 90 bc 9a 67 e8 39 5e 7c 91 3b
       0.019291831 -0.017649332 0.00044327677 0.0044398746
0002e0 45 e3 ee bc e1 85 d1 3b c4 e5 97 3c af d4 a6 b7
       -0.029161105 0.0063941334 0.018542178 -1.988778e-05
0002f0 e2 47 8f 3c 05 75 62 3c 19 a0 66 3c 69 01 13 3c
       0.017490331 0.013821845 0.014076256 0.008972504
000300 13 c3 c1 3b 0a 38 37 3b 02 a1 30 3c 53 d0 db bc
       0.0059131472 0.0027956986 0.010780575 -0.026832735
000310 98 de 0d 3c 78 c7 06 3a fb fb 32 3c 47 e3 af 3c
       0.0086590275 0.00051414175 0.010924335 0.021470679
000320 d6 ba b4 3b 12 4e e4 3c 0b cc be 3c 2d 2c fc 3c
       0.0055154366 0.027869258 0.023290655 0.030782783
000330 1f d8 23 3d a1 48 81 3c f7 c8 97 3c dd 85 36 bb
       0.04000103 0.015781702 0.018528445 -0.0027850785
000340 92 40 37 3c e5 e8 ba 3c f6 b8 6e 3c bc 10 e7 3b
       0.011184828 0.02281613 0.014570465 0.0070515554
000350 bc d4 e2 3c 90 62 c2 3c 6e 6e af 3b e6 d6 63 3c
       0.02768933 0.023728639 0.0053537404 0.013906216
000360 66 6d b6 bb af ef 9a bb af e6 1f 3d 0a ec be bc
       -0.0055672405 -0.0047282795 0.039038356 -0.023305912
000370 19 19 14 3c 45 c6 ad 3a 6e cb 53 3c 8a 63 f3 3a
       0.009039187 0.0013257941 0.012926919 0.0018569094
000380 f5 e8 4e 3b 28 dd 1e bc 8a 68 ae 3b 4d ca 8b bc
       0.0031571959 -0.009696282 0.0053225206 -0.017064238
000390 aa c8 91 3c 98 b4 8c bc ed 2e 01 bd 69 a7 5d bb
       0.01779588 -0.017175958 -0.031538893 -0.0033821708
0003a0 11 b0 bd bc 2a fb 71 ba f6 97 a5 3c c5 33 0c 3d
       -0.023155244 -0.0009230847 0.020214062 0.03422906
0003b0 39 cf 36 bd 52 ab 90 3a 9d 28 ad ba 17 7a 0d 3d
       -0.044631217 0.0011037386 -0.0013210956 0.034540262
0003c0 4e f7 05 3c 87 63 a6 3c 61 73 c5 3b ed 42 83 b8
       0.008176638 0.02031113 0.006025717 -6.259033e-05
0003d0 82 56 0f 3c 21 a8 d1 ba 7c b6 62 bd 12 1b b3 3c
       0.008748652 -0.0015995541 -0.055349812 0.021863494
0003e0 76 37 19 bb c9 f5 96 bc 7b c1 80 bc fd 1e 81 3c
       -0.0023379005 -0.018427746 -0.015717259 0.015761847
0003f0 68 e1 99 bb 24 8c 8c 3c b3 9e a5 bc 45 21 ae 3c
       -0.00469606 0.017156668 -0.020217275 0.021256099

to_mean.2.bias f4 [18]
000000 7d e0 0b bc 49 24 2d 3d 01 07 c9 bb 8e 82 c2 bd
       -0.008537409 0.042270932 -0.006134868 -0.094975576
000010 a7 04 71 3d c2 de 93 bd 9f 12 c2 bd 34 23 0d bd
       0.058842327 -0.07220222 -0.09476208 -0.0344574
000020 86 a8 1b 3d 75 82 40 3c 2c ad 98 bc 4d b7 0f bc
       0.038002513 0.011749853 -0.018637262 -0.00877173
000030 9a 3d 3f 3d 1d 23 ff bd 26 df aa bd 2a 0b 12 3d
       0.046689607 -0.12457869 -0.083433434 0.035655178
000040 3b 5c 00 3e a7 05 07 3d
       0.12535183 0.032964375
