saves/save2_1_23/save9_AllDofs_bigNN_NewObs_13200.pth (torch, 942043 bytes, 11 tensors)

shared_net.0.weight f4 [512, 67]
-0.284489 0.05348451 -0.053756326 -0.0116023 -0.10748182 -0.066450894 -0.14476863 0.0976179
-0.153868 0.031697616 0.37597576 -0.30002218 -0.17234801 -0.09215843 0.34482932 -0.0076253414
0.25511384 0.19457968 -0.1555303 -0.1241353 -0.19521219 -0.05223944 0.13169627 0.11383533
0.2962915 0.15278281 0.04476536 -0.113063104 -0.07623108 -0.16129981 -0.0429503 0.024324369
-0.032565244 -0.016906757 -0.10854526 -0.02290558 0.037686348 0.034835115 0.014414484 -0.032891113
0.0109960735 -0.041446555 0.006453373 -0.11721119 0.01652952 0.0047567743 0.09030944 0.075484425
-0.06512383 -0.046703294 0.24760087 0.12657754 0.067734785 0.07893838 0.070606895 -0.23887065
-0.16450736 -0.101304255 -0.0675356 -0.07895494 0.07251619 0.08462561 -0.028994687 0.105866425
0.082697906 -0.07832721 -0.007866899 -0.089567825 0.2046697 0.22707386 -0.063659504 -0.15405008
0.06444468 0.3222284 0.08637314 0.070236295 0.044278722 -0.47502398 -0.04036757 -0.18854786
-0.020083975 -0.020577032 -0.047691222 -0.12420749 0.10838969 -0.006139874 -0.061838113 0.0022821708
-0.0010270404 0.024327287 0.099269375 -0.07188893 0.037719626 0.06661459 -0.14418732 -0.106610745
0.041461505 0.009841598 -0.01684123 0.0068430286 0.08551004 0.026782189 0.010887901 -0.0015580008
0.024303602 0.019888379 0.00055962737 -0.078897536 0.0781944 -0.003282929 -0.037606012 0.031933755
0.0031131387 0.03643292 0.022805119 -0.11809767 0.13770954 -0.0071924613 -0.027116967 0.07432804
0.09857864 -0.01718077 0.040484402 0.023766425 -0.14444895 -0.022672176 -0.037569005 -0.045055497
-0.047162794 -0.17214331 0.087015375 0.061774254 -0.18078886 0.012118423 -0.0747998 0.0886123
0.044236977 0.12887247 0.026737109 0.17825395 0.22135982 0.101097874 0.16934916 -0.032274712
-0.6787198 -0.689624 0.24328165 0.075122535 0.017631358 -0.1685428 -0.1722953 -0.17665634
-0.057572182 0.06726275 0.114395306 -0.057886437 0.052645054 0.062646635 -0.3348128 -0.12077196
-0.20050396 0.12422668 -0.114820816 -0.18155187 -0.030722015 -0.049319796 0.016748484 -0.012120524
-0.010379247 -0.007176544 0.014727363 -0.110903166 0.016583558 0.04311156 0.0129614845 0.014819
-0.00030882756 0.009351267 -0.0051216213 -0.013442587 0.0386535 0.010823001 0.17120339 0.05472661
0.109517835 0.097059146 -0.021408014 -0.050019354 -0.13697639 0.14497177 0.08135044 0.121507354
-0.14802699 -0.025867544 -0.10200832 -0.074588515 -0.124164455 0.10346838 -0.043696593 -0.0936738
0.066492945 0.016528279 0.03205472 0.018555768 -0.03221613 0.026249705 -0.101208895 0.07378141
0.012345498 0.021403324 0.0309385 0.16814098 0.40355456 0.03581228 -0.002599325 0.035407584
-0.12225364 -0.12545839 0.09205944 -0.18396345 -0.08025849 -0.071515195 0.15540093 -0.023484653
-0.29654753 -0.058317576 -0.0891555 0.20075075 -0.17728515 0.09397806 0.077285886 0.017506259
0.058905542 -0.009661108 -0.029289613 -0.034558594 0.019497747 -0.07681927 0.01215288 -0.006144831
-0.060663953 0.1698733 0.018033585 0.00635011 -0.04445028 -0.16092323 9.260128e-05 -0.08255826
-0.048015952 -0.121126175 -0.14320557 -0.092456296 0.1538645 0.021942422 0.005983741 -0.030894224
00000000: 8ba8 91be 9312 5b3d 982f 5cbd 9317 3ebc
00000010: 6e1f dcbd 6817 88bd 3a3e 14be e5eb c73d
00000020: 938f 1dbe 5cd5 013d e57f c03e 829c 99be
00000030: ff7b 30be 8fbd bcbd 788d b03e 00de f9bb
00000040: 489e 823e e53f 473e 5643 1fbe a63a febd
00000050: b4e5 47be 06f9 55bd 63db 063e 7f22 e93d
00000060: 85b3 973e 1973 1c3e e25b 373d a18d e7bd
00000070: 0a1f 9cbd c72b 25be a7ec 2fbd e643 c73c
00000080: 2263 05bd 0a80 8abc fa4c debd 7ca4 bbbc
00000090: 005d 1a3d 44af 0e3d ba2a 6c3c d5b8 06bd
000000a0: e028 343c ddc3 29bd d176 d33b 6c0c f0bd
000000b0: ea68 873c b7de 9b3b 28f4 b83d 9497 9a3d
000000c0: a55f 85bd f44b 3fbd 158b 7d3e 8b9d 013e
000000d0: 89b8 8a3d 72aa a13d 599a 903d 829a 74be
000000e0: 9e74 28be 9b78 cfbd 1b50 8abd 21b3 a1bd
000000f0: 5e83 943d 3150 ad3d 4486 edbc 7fd0 d83d
00000100: 855d a93d 046a a0bd 2ae4 00bc 566f b7bd
00000110: ef94 513e 0d86 683e ea5f 82bd 4ebf 1dbe
00000120: 93fb 833d 1ffb a43e 67e4 b03d 0cd8 8f3d
00000130: 9b5d 353d 5836 f3be 7758 25bd b112 41be
00000140: 2687 a4bc 2a91 a8bc df57 43bd 7f60 febd
00000150: 6afb dd3d ff30 c9bb f649 7dbd 7990 153b
00000160: c29d 86ba 054a c73c be4d cb3d 813a 93bd
00000170: e57f 1a3d 3b6d 883d d7a5 13be bc56 dabd
00000180: 8ad3 293d a73e 213c 9ff6 89bc 7c3b e03b
00000190: e31f af3d 5266 db3c 2b63 323c d535 ccba
000001a0: 5918 c73c f4ec a23c f5b3 123a 0895 a1bd
000001b0: 6324 a03d 6926 57bb c308 1abd f8cc 023d
000001c0: cd05 4c3b af3a 153d cdd1 ba3c 31dd f1bd
000001d0: bb03 0d3e bdae ebbb 6724 debc 4d39 983d
000001e0: 99e3 c93d b0be 8cbc f9d2 253d ceb1 c23c
000001f0: 6dea 13be 00bb b9bc f5e1 19bd 1d8c 38bd
00000200: c62d 41bd 5646 30be 1e35 b23d 0007 7d3d
00000210: b720 39be 5a8c 463c a330 99bd 5e7a b53d
00000220: d531 353d 25f7 033e c807 db3c 3488 363e
00000230: 26ac 623e 670c cf3d de69 2d3e 7d32 04bd
00000240: 95c0 2dbf 338b 30bf d31e 793e d8d9 993d
00000250: a36f 903c 7c96 2cbe 2e6e 30be 66e5 34be
00000260: cfd0 6bbd 0dc1 893d 1648 ea3d 541a 6dbd
00000270: 57a2 573d e14c 803d 956c abbe 4a57 f7bd
00000280: e950 4dbe 8f6a fe3d 2d27 ebbd bce8 39be
00000290: bcac fbbc 8e03 4abd 1e34 893c 2a95 46bc
000002a0: b80d 2abc 3729 ebbb 0a4b 713c 3321 e3bd
000002b0: 3eda 873c bf95 303d 685c 543c 64cb 723c
000002c0: 22ea a1b9 0e36 193c 46d3 a7bb 4c3e 5cbc
000002d0: 2253 1e3d f552 313c f14f 2f3e 0329 603d
000002e0: e34a e03d f2c6 c63d dc5f afbc 18e1 4cbd
000002f0: 8a43 0cbe 7b73 143e 0f9b a63d d9d8 f83d
00000300: 6394 17be 2ce8 d3bc bde9 d0bd ddc1 98bd
00000310: ef49 febd 3be7 d33d 33fb 32bd 0dd8 bfbd
00000320: 742d 883d 5066 873c cf4b 033d 4402 983c
00000330: 10f5 03bd 9f09 d73c 9c46 cfbd b51a 973d
00000340: c644 4a3c 0656 af3c bd72 fd3c 262d 2c3e
00000350: b49e ce3e e6af 123d 7059 2abb 8b07 113d
00000360: 1e60 fabd 2a78 00be a989 bc3d ea60 3cbe
00000370: 905e a4bd 8f76 92bd 6c21 1f3e e362 c0bc
00000380: 14d5 97be 69de 6ebd 2997 b6bd 9b91 4d3e
00000390: 3d8a 35be 9277 c03d 1048 9e3d 4969 8f3c
000003a0: f046 713d a049 1ebc c5f0 efbc 508d 0dbd
000003b0: bdb9 9f3c 6c53 9dbd e01c 473c 945a c9bb
000003c0: c47a 78bd 44f3 2d3e 2bbb 933c 9514 d03b
000003d0: 7f11 36bd 0fc9 24be ef32 c238 4e14 a9bd
000003e0: 60ac 44bd 0011 f8bd 7ba4 12be ba59 bdbd
000003f0: a88e 1d3e 98c0 b33c 4213 c43b e215 fdbc

shared_net.0.bias f4 [512]
0.035888083 0.036454774 0.024134252 0.15398975 -0.032246433 -0.011794449 -0.08838617 0.16089404
0.042347323 0.03513636 0.06885974 -0.049962092 -0.10144872 0.029140012 0.047625344 -0.107010335
-0.104574196 0.03064221 0.0122380145 -0.05926719 0.03014435 0.07556412 0.061216135 -0.100504115
0.01941455 0.10618415 0.14862014 0.14074215 0.05322535 0.04947277 -0.11630401 0.1748872
0.19911014 -0.028742438 -0.03133574 -0.039615773 0.0155684985 0.055217836 -0.062028322 -0.15680586
-0.14680582 -0.08481342 0.0378019 0.04335315 -0.07297311 -0.11149893 0.084426634 -0.012431284
-0.10223706 -0.18244927 0.018180426 -0.06327009 0.007495467 0.17844275 -0.021455294 -0.07724618
-0.080104806 0.06856762 -0.08621933 0.008677722 0.008560614 0.16115233 -0.072793625 0.019090846
-0.098337755 -0.059861414 0.09021561 0.08056712 0.2146926 -0.033811215 0.1270567 -0.08957143
0.021815173 -0.029534915 0.12798269 0.12112728 -0.078496315 0.11271438 0.14369147 0.0013669915
-0.047817428 -0.04009649 -0.07172248 -0.18965852 0.010374087 0.014469556 -0.07439561 0.032018136
-0.08896589 -0.12444313 0.015129726 0.03914771 -0.18874753 0.0031343456 0.059284434 -0.15793397
-0.049672503 0.08725952 -0.16502787 0.016469205 0.09209932 -0.22685972 0.088248335 0.08967342
-0.06566149 -0.12360233 0.061167754 0.001789494 0.043975364 0.020476246 0.10189875 -0.21648756
0.12356826 0.019832674 -0.026871705 0.1291289 -0.10903549 0.11304106 -0.04668229 0.056969892
-0.09580537 -0.16261204 0.18774523 -0.1072528 -0.1205926 -0.014717958 -0.1261226 -0.13910374
0.06571829 0.08339433 -0.015646746 -0.12167119 -0.04471403 0.12302112 0.052175682 0.012500242
-0.16029342 -0.077574335 0.04271962 -0.227855 -0.019164203 -0.15828143 0.08132932 -0.065833576
-0.0153089985 -0.1050743 -0.04206017 -0.17264053 0.17813045 0.042318966 -0.05143863 -0.15948491
0.08963604 -0.103806436 -0.028835695 -0.17421085 -0.037460834 -0.14589426 -0.15023023 -0.01292289
0.0764738 0.15973783 0.08990737 -0.082579195 -0.14697015 0.060466006 -0.0092448825 0.09960543
0.08255051 0.030317253 -0.04873838 0.051584233 -0.08367253 -0.029829405 0.06834045 -0.05085307
-0.108586185 -0.16700035 0.15851867 0.08107658 0.012059619 0.006265812 -0.012695639 -0.08748988
0.14952718 0.02534902 -0.14414965 -0.14054957 0.0036815116 0.115054555 -0.030510126 0.019174838
0.14447367 0.07247075 0.06944489 -0.04147162 0.075335525 0.16904606 0.08219588 0.06822244
-0.16394217 -0.10439597 -0.10275581 -0.05066359 0.05007279 0.09450995 -0.08940921 -0.033314694
-0.08543058 -0.016077913 0.007319605 0.08764349 -0.11751462 -0.18955721 0.0019119362 -0.19156793
0.1452282 -0.08280369 0.10201841 -0.028607229 -0.01624586 -0.113763325 -0.011446832 -0.059800882
-0.073525004 0.24346308 -0.02592494 0.15007405 -0.034817822 -0.20613435 -0.117513075 -0.045874853
-0.119858086 -0.13679944 -0.009895442 0.050581478 -0.11114537 -0.13443863 -0.24480328 -0.022639513
-0.13121347 -0.05398113 -0.048519645 -0.27041477 -0.022771567 -0.13312797 -0.06062863 -0.021221628
-0.036911145 -0.016067324 0.06338571 -0.008737424 -0.0070685614 -0.15439884 0.05032607 -0.053480156
00000000: 62ff 123d 9a51 153d 32b5 c53c 7daf 1d3e
00000010: d614 04bd 813d 41bc cf03 b5bd 68c1 243e
00000020: 6374 2d3d 25eb 0f3d 5606 8d3d 0da5 4cbd
00000030: 59c4 cfbd 09b7 ee3c cb12 433d 3c28 dbbd
00000040: ff2a d6bd 5f05 fb3c f481 483c 27c2 72bd
00000050: 49f1 f63c 5dc1 9a3d c5bd 7a3d 1ad5 cdbd
00000060: 430b 9f3c 1377 d93d e12f 183e b61e 103e
00000070: d302 5a3d f6a3 4a3d cc30 eebd a115 333e
00000080: 87e3 4b3e 4375 ebbc e859 00bd 2644 22bd
00000090: 0413 7f3c 192c 623d 6911 7ebd b791 20be
000000a0: 4454 16be a9b2 adbd 2ad6 1a3d 1393 313d
000000b0: ed72 95bd 8d59 e4bd dfe7 ac3d 96ac 4bbc
000000c0: aa61 d1bd fbd3 3abe 1eef 943c c093 81bd
000000d0: 899c f53b b2b9 363e 03c3 afbc 3f33 9ebd
000000e0: fd0d a4bd 2e6d 8c3d c393 b0bd 012d 0e3c
000000f0: d141 0c3c 1e05 253e d314 95bd 6864 9c3c
00000100: 4e65 c9bd 3e31 75bd f6c2 b83d 6000 a53d
00000110: 60d8 5b3e a17d 0abd 271b 023e 3a71 b7bd
00000120: bcb5 b23c 35f3 f1bc e50d 033e 9411 f83d
00000130: adc2 a0bd ccd6 e63d db23 133e a02c b33a
00000140: 35dc 43bd 383c 24bd 3ce3 92bd d835 42be
00000150: 13f8 293c b711 6d3c ba5c 98bd 7325 033d
00000160: c033 b6bd 0adc febd ace2 773c 5959 203d
00000170: 0847 41be 9869 4d3b 3cd4 723d 71b9 21be
00000180: 6575 4bbd 1fb5 b23d 11fd 28be 6dea 863c
00000190: 919e bc3d ea4d 68be 8bbb b43d b3a6 b73d
000001a0: 8879 86bd 3823 fdbd 0a8b 7a3d 748d ea3a
000001b0: 831f 343d cdbd a73c 4bb0 d03d eaae 5dbe
000001c0: 5b11 fd3d 2278 a23c 0d22 dcbc 5e3a 043e
000001d0: 004e dfbd 1282 e73d ee35 3fbd 4359 693d
000001e0: 9b35 c4bd c583 26be 4940 403e 5ba7 dbbd
000001f0: 41f9 f6bd 9723 71bc 4826 01be 3671 0ebe
00000200: 5097 863d a6ca aa3d 9b2d 80bc bf2e f9bd
00000210: 0f26 37bd 7ff2 fb3d 2bb6 553d d1cd 4c3c
00000220: f523 24be 4bdf 9ebd c5fa 2e3d d252 69be
00000230: 3ffe 9cbc 8714 22be fd8f a63d c1d3 86bd
00000240: 98d2 7abc 3231 d7bd 4947 2cbd aec8 30be
00000250: d467 363e a756 2d3d 50b1 52bd 0350 23be
00000260: 1a93 b73d 7898 d4bd d638 ecbc 5464 32be
00000270: 8870 19bd 4e65 15be f4d5 19be 87ba 53bc
00000280: 4c9e 9c3d 5092 233e 5b21 b83d 481f a9bd
00000290: 587f 16be 34ab 773d d977 17bc effd cb3d
000002a0: 3e10 a93d e35b f83c e5a1 47bd fd49 533d
000002b0: 815c abbd cc5c f4bc 14f6 8b3d 4f4b 50bd
000002c0: 6f62 debd 2402 2bbe b852 223e 7a0b a63d
000002d0: b595 453c 7151 cd3b 5f01 50bc e52d b3bd
000002e0: a71d 193e bfa8 cf3c f79b 13be 3aec 0fbe
000002f0: 8445 713b b9a1 eb3d 5ff0 f9bc 8d14 9d3c
00000300: e8f0 133e 8b6b 943d 1f39 8e3d 25de 29bd
00000310: 8349 9a3d 691a 2d3e 5056 a83d 35b8 8b3d
00000320: 75e0 27be 8ecd d5bd a371 d2bd a084 4fbd
00000330: 2019 4d3d 6f8e c13d 2d1c b7bd fd74 08bd
00000340: 3af6 aebd d4b5 83bc 4cd9 ef3b 6e7e b33d
00000350: 81ab f0bd 491b 42be ef99 fa3a 622a 44be
00000360: b4b6 143e fb94 a9bd 07ef d03d b559 eabc
00000370: 0a16 85bc bffc e8bd 7e8b 3bbc c5f1 74bd
00000380: 4794 96bd 634e 793e 8a60 d4bc 03ad 193e
00000390: 229d 0ebd e214 53be b2aa f0bd 45e7 3bbd
000003a0: 2878 f5bd 2715 0cbe 7e20 22bc 862e 4f3d
000003b0: 2fa0 e3bd 48aa 09be b6ad 7abe 8076 b9bc
000003c0: d35c 06be 511b 5dbd 89bc 46bd ce73 8abe
000003d0: 708b babc b352 08be ba55 78bd fbd8 adbc
000003e0: 2430 17bd 9f9f 83bc 5ed0 813d 6a27 0fbc
000003f0: 649f e7bb bb1a 1ebe b622 4e3d 020e 5bbd

shared_net.2.weight f4 [256, 512]
-0.105406426 0.040995777 -0.058014926 -0.017994773 -0.07629743 -0.15359542 0.050316673 -0.2397
0.044287443 0.05158201 -0.06743033 -0.087373726 0.0886534 -0.078536354 -0.008835659 -0.027963849
0.0048297215 -0.31030422 0.13390625 -0.0046203686 -0.02797956 0.016663864 -0.05397486 0.04928428
-0.06765715 -0.048534423 -0.15579024 -0.044040497 -0.0077339904 -0.019851943 -0.010447647 -0.09425277
-0.13663079 -0.040876213 0.00916396 0.21263574 -0.09003147 0.10918143 -0.0009687051 -0.050296713
0.07945167 0.12793843 -0.04090481 0.04738833 -0.103167035 0.09701795 -0.15875752 0.0067229606
0.03275552 0.054056726 -0.004277489 -0.012928432 0.09283756 0.011483413 0.01718676 0.039444868
0.108319156 0.13302477 -0.032624777 0.13652515 -0.038800165 -0.06235776 -0.020454522 0.11481061
0.05543438 -0.030254593 -0.10938606 0.0140161505 -0.11412729 -0.06970716 -0.09849924 0.09371484
0.056947228 -0.045903042 -0.19696283 0.009673193 -0.027377281 0.12126239 0.02627023 0.04561551
-0.019654043 -0.040972747 0.0527328 -0.1213637 -0.104480565 0.024693245 -0.08691816 -0.042342875
0.31018 -0.01691328 -0.0995344 -0.19123374 0.10704278 -0.06511223 -0.08929252 0.033573348
-0.3107583 -0.09958096 0.012462472 0.11884881 -0.103178695 -0.023555364 0.14999622 0.07149306
-0.18061289 0.05456724 0.013694861 -0.015027325 -0.045285452 0.14925759 -0.017739905 -0.03759509
-0.06482645 0.10829679 -0.02261491 -0.14426096 0.025806878 0.029538216 0.029218568 -0.18923697
0.002861633 -0.043933503 -0.04074071 -0.26060784 -0.01413796 -0.02194259 0.03787386 -0.07915172
0.08947024 -0.14960758 0.037498415 0.10571719 -0.025947178 -0.024978288 0.17408952 0.0068133622
0.059728853 0.06818849 0.10428638 0.051694967 -0.16061726 0.00041606536 -0.063625716 -0.013575634
-0.08393379 0.006120242 -0.0087963445 -0.038734227 -0.085852094 0.012793464 0.014264827 -0.033694506
-0.053737167 0.00071517297 -0.031044884 -0.0067329686 0.01750797 0.053577475 -0.026701283 0.05698049
-0.01134768 0.030853396 -0.23196018 -0.010502938 0.06605268 0.025577584 0.04234281 -0.11952396
0.04927853 -0.23583177 0.07935478 0.040540237 -0.02760478 0.034452178 0.096262746 -0.07069257
0.023755608 0.043883137 -0.14296155 -0.02974193 -0.1296891 -0.025459286 0.12017354 -0.037406385
0.08258953 -0.11468917 0.069106564 0.0027876669 0.11208908 -0.025276404 0.04610172 -0.13128275
-0.13619494 0.020596229 0.0023163091 -0.01770951 0.14627364 0.11722441 -0.0029643269 -0.16629173
0.073426485 0.092159145 0.036561843 -0.040910043 -0.059868712 -0.06951985 0.08812901 0.09131749
0.080553405 0.074046515 -0.06881421 -0.105900146 0.21831214 0.016421877 -0.03141353 0.07875405
-0.035599686 0.1299261 -0.07370862 -0.02424027 0.16395645 0.08475229 -0.086377636 -0.033578888
-0.0053733033 -0.12619159 0.026940808 -0.075580895 0.016383782 0.054958366 0.057490543 0.04523935
0.01513979 0.05178503 -0.095834106 -0.0038328348 0.038512655 -0.05436295 0.113401346 0.10379381
0.013144976 0.06604592 0.0032783123 0.016449263 0.028621314 0.09799917 -0.114636905 0.15013973
0.038811013 0.03347875 0.12333826 0.0006886138 -0.031973023 0.101683505 0.0652711 0.089894995
00000000: 53df d7bd 30eb 273d 0fa1 6dbd c669 93bc
00000010: d441 9cbd 1e48 1dbe db18 4e3d eb73 75be
00000020: c066 353d a847 533d ea18 8abd fff0 b2bd
00000030: ea8f b53d abd7 a0bd 71c3 10bc 7114 e5bc
00000040: a442 9e3b 32e0 9ebe b81e 093e 7666 97bb
00000050: 6435 e5bc a882 883c be14 5dbd 50de 493d
00000060: d58f 8abd 08cc 46bd 7a87 1fbe cf63 34bd
00000070: 6a6d fdbb 8ba0 a2bc 9c2c 2bbc 9907 c1bd
00000080: f1e8 0bbe d16d 27bd 6f24 163c 2fbd 593e
00000090: 6b62 b8bd 839a df3d b3f0 7dba ed03 4ebd
000000a0: 8fb7 a23d 4b02 033e cd8b 27bd 441a 423d
000000b0: 3d49 d3bd 59b1 c63d 5591 22be 484c dc3b
000000c0: a72a 063d 966a 5d3d 2e2a 8cbb c6d1 53bc
000000d0: 9e21 be3d ed24 3c3c 40cb 8c3c f190 213d
000000e0: 6fd6 dd3d a537 083e 8fa1 05bd 40cd 0b3e
000000f0: ecec 1ebd da6a 7fbd 3e90 a7bc d321 eb3d
00000100: 290f 633d 7bd8 f7bc cc05 e0bd ffa3 653c
00000110: 92bb e9bd a1c2 8ebd f8b9 c9bd 91ed bf3d
00000120: 7f41 693d d404 3cbd a0b0 49be 507c 1e3c
00000130: 5246 e0bc 6a58 f83d aa34 d73c 54d7 3a3d
00000140: 8401 a1bc 0ad3 27bd 59fe 573d 888d f8bd
00000150: e8f9 d5bd 7d49 ca3c 2602 b2bd b96f 2dbd
00000160: eacf 9e3e b88d 8abc b1d8 cbbd c7d2 43be
00000170: 3f39 db3d 9059 85bd ffde b6bd 3584 093d
00000180: b61b 9fbe 1af1 cbbd 652f 4c3c 0167 f33d
00000190: 5a4f d3bd 2ef7 c0bc 9c98 193e f46a 923d
000001a0: 96f2 38be e681 5f3d 6960 603c 2b35 76bc
000001b0: 3d7d 39bd fbd6 183e 4753 91bc 4ffd 19bd
000001c0: bbc3 84bd b5ca dd3d e742 b9bc 25b9 13be
000001d0: f268 d33c 21fa f13c c75b ef3c 56c7 41be
000001e0: 3c8a 3b3b 9ef3 33bd bbdf 26bd 646e 85be
000001f0: e7a2 67bc f2c0 b3bc 9f21 1b3d 4c1a a2bd
00000200: 2c3c b73d bb32 19be f097 193d 4182 d83d
00000210: 2d8f d4bc 449f ccbc 8644 323e a042 df3b
00000220: 3ea6 743d 68a6 8b3d 1994 d53d 1abe 533d
00000230: da78 24be 5923 da39 334e 82bd 566c 5ebc
00000240: 7be5 abbd 508c c83b 8b1e 10bc c8a7 1ebd
00000250: 39d3 afbd ad9b 513c 05b7 693c 4003 0abd
00000260: 811b 5cbd 727a 3b3a d751 febc 3ca0 dcbb
00000270: e06c 8f3c 0e74 5b3d a6bc dabc 6064 693d
00000280: 9feb 39bc 43c0 fc3c f886 6dbe 8414 2cbc
00000290: a146 873d 1588 d13c a86f 2d3d fac8 f4bd
000002a0: 49d8 493d e27d 71be c284 a23d 850d 263d
000002b0: 6b23 e2bc ba1d 0d3d 6725 c53d 44c7 90bd
000002c0: 1f9b c23c cebe 333d 8364 12be 59a5 f3bc
000002d0: 38cd 04be fe8f d0bc 8c1d f63d 7037 19bd
000002e0: b324 a93d 28e2 eabd be87 8d3d 4ab1 363b
000002f0: f68e e53d 7610 cfbc 28d5 3c3d fc6e 06be
00000300: b076 0bbe 6cb9 a83c 38cd 173b 8913 91bc
00000310: c2c8 153e 5a13 f03d 2745 42bb 6148 2abe
00000320: a060 963d efbd bc3d dfc1 153d 4a91 27bd
00000330: e538 75bd 6c60 8ebd fb7c b43d aa04 bb3d
00000340: 2ff9 a43d b3a5 973d 77ee 8cbd 2de2 d8bd
00000350: 388d 5f3e 2c87 863c 79ab 00bd ce49 a13d
00000360: fad0 11bd 590b 053e 8cf4 96bd 8893 c6bc
00000370: 33e4 273e 9c92 ad3d c2e6 b0bd 048a 09bd
00000380: 8912 b0bb 5e38 01be f8b2 dc3c 28ca 9abd
00000390: 4837 863c 061c 613d 347b 6b3d e64c 393d
000003a0: e20c 783c 8a1c 543d ac44 c4bd 4c30 7bbb
000003b0: 72bf 1d3d afab 5ebd f73e e83d d991 d43d
000003c0: 075e 573c 1543 873d f4d8 563b 9bc0 863c
000003d0: 3f77 ea3c cab3 c83d c1c6 eabd 3bbe 193e
000003e0: 4cf8 1e3d 0421 093d c598 fc3d 1784 343a
000003f0: 25f6 02bd 713f d03d dbac 853d de1a b83d

shared_net.2.bias f4 [256]
-0.107657224 -0.13422659 0.06149561 0.021343349 -0.03004565 -0.0120441755 0.02359173 -0.06371253
-0.023031471 -0.05781988 0.026582954 0.013129215 -0.027993042 0.02926559 -0.04486462 -0.041075982
0.012068612 -0.011127097 -0.008709053 0.054689065 0.029462928 -0.109275535 -0.0047348454 0.1687558
0.013895139 -0.037481494 -0.08024805 -0.058773432 0.058994528 0.04023987 0.027694782 -0.053983916
0.011340508 0.04273504 0.0140260095 -0.045496725 -0.075931504 0.044625856 -0.009886715 -0.04405533
-0.0416194 -0.005810427 -0.087814495 -0.034796886 -0.12667955 -0.01934466 0.07272505 0.004102218
-0.016088793 -0.014191766 0.055389956 -0.05214987 -0.075282305 -0.077429846 -0.10213625 -0.04363867
-0.103200234 0.024897711 -0.05060774 -0.049098026 -0.087195 0.061863624 0.0025196807 -0.036750805
-0.060070716 -0.083348334 -0.0030313118 0.022129372 -0.041851535 0.03574536 0.05313685 0.04794446
-0.012437235 -0.03998622 0.0007979629 -0.05904308 -0.027076367 -0.08810647 -0.0013038266 0.029989671
-0.05894599 -0.008817855 -0.0059521375 -0.058781654 0.059740297 -0.039388195 0.056647442 -0.043044835
-0.05290813 0.03396018 0.050221458 -0.056193788 -0.041211717 -0.028958678 -0.1433311 -0.095407866
-0.0882556 -0.030294064 -0.042098578 -0.09831022 0.06319709 -0.0548284 0.03277622 0.05311506
-0.01682893 -0.0050997697 -0.03769907 0.05563882 -0.11905079 -0.044813175 0.039826415 -0.07054598
0.0120381 -0.019102085 -0.024697851 0.06059744 -0.014030016 -0.08882007 -0.103969865 -0.05740575
-0.10360907 -0.018858772 0.04632521 0.032253753 -0.03449895 -0.038660415 -0.06920912 -0.020321736
-0.022085553 0.03901916 -0.065965906 -0.1389748 0.008455519 0.04081182 0.0138328355 0.027003143
-0.058538243 -0.03158875 -0.04103001 0.0039287354 -0.030367436 -0.06614708 -0.025610477 -0.057167195
-0.056142975 -0.0327105 0.03152477 -0.046225484 0.023594923 -0.030213699 0.0023511779 0.019180056
-0.020590223 0.018107692 0.025339972 -0.03133332 -0.039495517 -0.0006819534 -0.020872062 -0.0517885
0.008174875 0.00025778296 -0.01666346 0.042156935 0.039277237 -0.009731646 0.0764346 -0.057727944
-0.03695243 0.011346191 0.0035049205 -0.0357789 -0.02075339 -0.061177388 0.033656843 -0.121455014
-0.008289326 -0.04168337 -0.009958898 -0.08024201 0.003367796 0.065552585 -0.013072883 -0.008078206
-0.02902991 0.0051600127 0.043422516 0.14498255 0.023485007 0.01631745 0.062533155 -0.007617962
-0.029905932 0.074584976 -0.02023323 -0.12335765 0.04699928 0.016673489 -0.040491898 0.04010736
0.007577085 0.026339274 -0.08192859 0.06624771 0.0024890539 0.018806212 -0.044833872 0.03483126
-0.043171767 -0.030231802 -0.04206166 -0.050934937 -0.011529294 0.018865976 0.050305106 -0.1161438
-0.055482 -0.033859175 -0.015728826 -0.010974213 -0.11320385 0.037344776 -0.06923228 -0.039980784
-0.011700627 -0.025080027 0.014555014 -0.004532457 -0.050540105 -0.046739243 -0.0011855123 -0.11326766
-0.09064432 -0.11451147 -0.05766609 0.05638089 0.0052785743 -0.00041600812 0.012812056 -0.004475242
0.0342153 -0.0087162545 -0.0034633526 0.080129005 0.00029888196 0.031078922 0.007250615 0.022598876
-0.10649193 0.03482567 -0.05170861 -0.05250856 0.014484895 -0.0050631748 0.033673983 -0.086902104
00000000: 647b dcbd b272 09be d2e2 7b3d 3fd8 ae3c
00000010: 4c22 f6bc ef54 45bc 7243 c13c b77b 82bd
00000020: 7fac bcbc 8ad4 6cbd 7fc4 d93c eb1b 573c
00000030: aa51 e5bc 64be ef3c f7c3 37bd 4a3f 28bd
00000040: 6dbb 453c 6d4e 36bc 6ab0 0ebc a401 603d
00000050: 3d5c f13c dacb dfbd c326 9bbb 52ce 2c3e
00000060: 70a8 633c 3286 19bd 1759 a4bd 69bc 70bd
00000070: 3fa4 713d 90d2 243d 2be0 e23c 3d1e 5dbd
00000080: 8acd 393c f00a 2f3d 59cd 653c c65a 3abd
00000090: fa81 9bbd 9ac9 363d e3fb 21bc 5d73 34bd
000000a0: 1b79 2abd 6565 bebb 16d8 b3bd 2e87 0ebd
000000b0: 49b8 01be b178 9ebc dff0 943d e66b 863b
000000c0: a5cc 83bc 9584 68bc 94e0 623d 1a9b 55bd
000000d0: 9c2d 9abd 8a93 9ebd cf2c d1bd 76be 32bd
000000e0: a55a d3bd 49f6 cb3c 104a 4fbd 031b 49bd
000000f0: 4b93 b2bd b664 7d3d 3a21 253b 0388 16bd
00000100: b60c 76bd 88b2 aabd f9a8 46bb a848 b53c
00000110: 846c 2bbd ba69 123d 07a6 593d 6961 443d
00000120: 8bc5 4bbc 97c8 23bd 622e 513a 28d7 71bd
00000130: 42cf ddbc 2a71 b4bd 29e5 aaba e6ac f53c
00000140: 5a71 71bd c478 10bc 260a c3bb 08c5 70bd
00000150: 3eb2 743d 8455 21bd 2607 683d c84f 30bd
00000160: 32b6 58bd d419 0b3d 04b5 4d3d 752b 66bd
00000170: 9ecd 28bd c03a edbc 63c5 12be 3365 c3bd
00000180: 5abf b4bd 422b f8bc 8f6f 2cbd de56 c9bd
00000190: 7a6d 813d bf93 60bd 5c40 063d 2d8f 593d
000001a0: d3dc 89bc f81b a7bb 576a 1abd 88e5 633d
000001b0: e7d0 f3bd 058e 37bd 0621 233d 697a 90bd
000001c0: 733b 453c fa7b 9cbc 2653 cabc 0535 783d
000001d0: 27de 65bc 4ce7 b5bd 27ee d4bd 4b22 6bbd
000001e0: fe30 d4bd b67d 9abc 81bf 3d3d 831c 043d
000001f0: c54e 0dbd 625a 1ebd 83bd 8dbd c579 a6bc
00000200: c3ec b4bc 8ed2 1f3d 2219 87bd 694f 0ebe
00000210: 0489 0a3c 4c2a 273d 1ea3 623c b235 dd3c
00000220: ccc5 6fbd 3563 01bd 150f 28bd 9fbc 803b
00000230: 21c5 f8bc 1f78 87bd 10cd d1bc 2628 6abd
00000240: 2df6 65bd 72fb 05bd 1e20 013d ef56 3dbd
00000250: 244a c13c b882 f7bc 3816 1a3b 7e1f 9d3c
00000260: d4ac a8bc 9556 943c c695 cf3c 5e57 00bd
00000270: 0dc6 21bd 1ec5 32ba e3fb aabc 2e20 54bd
00000280: e9ef 053c 0b27 8739 cf81 88bc c0ac 2c3d
00000290: 2be1 203d 7b71 1fbc be89 9c3d 2374 6cbd
000002a0: 6e5b 17bd 60e5 393c cfb2 653b e58c 12bd
000002b0: 0303 aabc 2495 7abd c2db 093d 68bd f8bd
000002c0: f4cf 07bc 2ebc 2abd a52a 23bc ec55 a4bd
000002d0: 3eb6 5c3b 6f40 863d a52f 56bc 745a 04bc
000002e0: 22d0 edbc 5315 a93b cfdb 313d 4e76 143e
000002f0: a163 c03c 2cac 853c 6211 803d 19a0 f9bb
00000300: 49fd f4bc 02c0 983d 29c0 a5bc f0a2 fcbd
00000310: 5182 403d d796 883c d5da 25bd 9d47 243d
00000320: 3249 f83b 76c5 d73c 2dca a7bd e1ac 873d
00000330: 651f 233b 7c0f 9a3c b9a3 37bd 39ab 0e3d
00000340: e1d4 30bd afa8 f7bc d948 2cbd 27a1 50bd
00000350: 5de5 3cbc d28c 9a3c ba0c 4e3d cddc edbd
00000360: 1841 63bd ebaf 0abd bdd9 80bc 2fcd 33bc
00000370: 6cd7 e7bd d6f6 183d a7c9 8dbd e4c2 23bd
00000380: fdb3 3fbc a174 cdbc 2778 6e3c 0185 94bb
00000390: 2403 4fbd a671 3fbd 3163 9bba e0f8 e7bd
000003a0: bba3 b9bd fd84 eabd 4733 6cbd a6ef 663d
000003b0: e4f7 ac3b aa1b dab9 a8e9 513c 0da5 92bb
000003c0: 5825 0c3d 9fce 0ebc 6af9 62bb ad1a a43d
000003d0: 42b3 9c39 3999 fe3c 9196 ed3b 4721 b93c
000003e0: 7118 dabd 5da5 0e3d 68cc 53bd 3713 57bd
000003f0: 0e52 6d3c fde8 a5bb bbed 093d bbf9 b1bd

to_mean.0.weight f4 [128, 256]
0.0005168254 -0.025837567 0.04290424 0.037355978 0.052113347 -0.02055405 0.08009763 0.0053190542
-0.08265156 -0.05932938 0.038606018 -0.021307567 0.059689634 -0.032680925 0.074884415 0.056609083
-0.031554975 -0.050698243 -0.025159892 0.054167725 0.05120954 0.050008524 -0.034895238 0.027263416
-0.023719668 -0.032785453 -0.038935427 -0.03738087 -0.062255148 -0.027291112 -0.039624445 0.009471599
-0.022986976 0.021925375 -0.0062754303 0.009222266 0.027582906 -0.096611656 0.015059075 0.046562206
0.065976344 -0.013811177 0.051658735 -0.06751399 0.085409835 0.0164183 -0.0038678232 0.018642606
-0.056023914 -0.007969064 -0.021103095 -0.06249304 0.018054929 0.0006639376 0.08840954 -0.029626062
-0.032132044 -0.11059711 -0.019556226 0.04786799 0.039651033 -0.008135501 -0.054050338 0.005466236
0.09019424 0.061237093 -0.0719142 0.011356872 0.06899301 0.060191393 -0.007992823 -0.031887118
0.017990574 0.004668725 -0.032094307 2.7362354e-05 -0.016489308 0.017152328 -0.03640833 0.037964147
0.036795307 -0.04868947 0.0012427592 0.051101148 -0.023928156 -0.033140987 -0.014238786 0.085739285
0.083974466 0.056745753 -0.038468488 -0.046317756 0.017343247 -0.013570528 0.04542383 0.104110405
-0.05510436 -0.07263316 0.022096058 0.015533606 0.022159902 -0.025953196 -0.04242419 0.059735302
0.090516716 -0.06776806 0.014404516 -0.09677563 0.017770374 -0.0033187438 0.022330131 -0.056790322
-0.034877937 0.04682032 0.02411848 0.060161438 0.0050060125 0.033814926 0.04137406 -0.04598744
-0.04130938 -0.049110115 -0.008105612 -0.07186698 0.016705235 -0.04074722 0.025715156 -0.04286656
-0.05953439 0.02295083 -0.030960018 0.07516732 -0.027270377 0.014370433 0.0057160864 0.062881805
-0.028559454 0.022558367 0.024129463 -0.034855712 0.023169683 0.06186117 -0.015614755 0.0138054965
0.03294822 0.038960848 -0.030374244 -0.043360043 -0.027338078 -0.04110042 -0.053461187 0.04111255
0.038329188 -0.031128649 -4.4073888e-05 -0.035930425 -0.0029952913 -0.05807674 -0.0048331115 0.016463408
0.053882305 -0.034030404 -0.0020717105 0.022393733 -0.047934685 0.021455757 0.069304235 0.04980696
0.05405372 0.022378646 -0.0024152733 0.009589048 -0.06963622 -0.075625755 0.07318337 -0.03418583
0.01266867 -0.009280941 0.06954994 -0.033936143 -0.06732235 -0.017330978 0.014898411 -0.032313067
0.08734728 0.05641582 0.009213446 -0.06291784 0.070146695 0.038719654 0.055046484 0.06068623
-0.007563732 -0.0039208126 -0.015912797 0.023924721 -0.021706278 0.037908167 0.008857572 -0.029604957
0.074340895 -0.1090756 0.039035432 -0.026651012 -0.010080243 0.009737618 0.054532576 -0.0037199003
0.018074876 0.07856475 0.034456734 0.10209063 0.027600154 -0.025548812 0.0008328753 -0.026615972
-0.021110984 0.06803933 0.027217295 -0.0049065184 0.07683939 0.011422955 -0.08140575 0.07246144
0.014211609 -0.0837543 0.05482582 -0.05909576 -0.03160987 0.029107306 -0.037837252 -0.015917115
0.008525245 -0.014160712 0.07830251 -0.032053962 0.00091523916 -0.0072123767 -0.07718846 -0.05784403
-0.07832484 0.050757226 -0.00041449536 0.0034395147 0.011502413 0.078998856 0.06567968 -0.030002834
0.01853495 -0.10021544 -0.025012515 -0.07003133 -0.033016946 0.013139724 0.019519275 -0.029935297
00000000: 917b 073a 4ea9 d3bc 5bbc 2f3d 9502 193d
00000010: ce74 553d f860 a8bc 3a0a a43d 764b ae3b
00000020: 3945 a9bd 5d03 73bd 5821 1e3d 358d aebc
00000030: 1e7d 743d 6fdc 05bd 005d 993d edde 673d
00000040: ca3f 01bd f6a8 4fbd 1e1c cebc fade 5d3d
00000050: 18c1 513d bdd5 4c3d 4fee 0ebd 8757 df3c
00000060: c04f c2bc 0a4a 06bd c17a 1fbd af1c 19bd
00000070: 41ff 7ebd 9c91 dfbc 3e4d 22bd c42e 1b3c
00000080: 2f4f bcbc d89c b33c 20a2 cdbb fd18 173c
00000090: 8cf5 e13c 55dc c5bd 57ba 763c 03b8 3e3d
000000a0: 9b1e 873d 4648 62bc 1c98 533d c644 8abd
000000b0: 5aeb ae3d ac7f 863c 4e7b 7dbb 61b8 983c
000000c0: 5579 65bd ad90 02bc 66e0 acbc b4f8 7fbd
000000d0: eee7 933c 190c 2e3a 1010 b53d 5bb2 f2bc
000000e0: e49c 03bd bd80 e2bd 6134 a0bc 3a11 443d
000000f0: 1f69 223d c44a 05bc e363 5dbd 1c1e b33b
00000100: c2b7 b83d bfd3 7a3d c147 93bd 2c12 3a3c
00000110: 354c 8d3d 408b 763d 54f4 02bc 119c 02bd
00000120: f860 933c 1bfc 983b 5275 03bd 3588 e537
00000130: 9614 87bc 0a83 8c3c e720 15bd 4b80 1b3d
00000140: adb6 163d 9c6e 47bd 14e4 a23a 704f 513d
00000150: fb04 c4bc d8be 07bd cc49 69bc 1498 af3d
00000160: cefa ab3d 3c6e 683d 2291 1dbd b0b7 3dbd
00000170: 6d13 8e3c eb56 5ebc 570e 3a3d d637 d53d
00000180: 1cb5 61bd b2c0 94bd cb02 b53c aa80 7e3c
00000190: af88 b53c cc9b d4bc fdc4 2dbd 01ad 743d
000001a0: d460 b93d fbc9 8abd eb00 6c3c 4d32 c6bd
000001b0: 2d93 913c 487f 59bb aeed b63c f89c 68bd
000001c0: 2bdc 0ebd aac6 3f3d 1e94 c53c d76b 763d
000001d0: 7a09 a43b 8581 0a3d d977 293d 535d 3cbd
000001e0: 0634 29bd b027 49bd 67cd 04bc ff2e 93bd
000001f0: 6bd9 883c 8fe6 26bd 97a8 d23c d994 2fbd
00000200: 55da 73bd 6103 bc3c dd9f fdbc 53f1 993d
00000210: 2066 dfbc f771 6b3c 024e bb3b 2dc8 803d
00000220: 84f5 e9bc 53cc b83c 27ab c53c ddc4 0ebd
00000230: 59ce bd3c 2362 7d3d 08d5 7fbc 7330 623c
00000240: b6f4 063d 6995 1f3d 68d3 f8bc 4d9a 31bd
00000250: 1bf4 dfbc ea58 28bd 1efa 5abd a265 283d
00000260: 11ff 1c3d 8201 ffbc fadb 38b8 c82b 13bd
00000270: a64c 44bb e0e1 6dbd 145f 9ebb 45de 863c
00000280: b1b3 5c3d 7763 0bbd 89c5 07bb 1073 b73c
00000290: 2957 44bd fcc3 af3c 61ef 8d3d 6202 4c3d
000002a0: 6f67 5d3d 6c53 b73c 9049 1ebb 621b 1d3c
000002b0: 6f9d 8ebd ade1 9abd 2ae1 953d 7106 0cbd
000002c0: 4190 4f3c 170f 18bc 3370 8e3d a000 0bbd
000002d0: 4de0 89bd b2f9 8dbc 7718 743c b55a 04bd
000002e0: 21e3 b23d 4614 673d fef3 163c 12db 80bd
000002f0: 12a9 8f3d 8098 1e3d 6c78 613d 2092 783d
00000300: 2fd9 f7bb 297a 80bb 8e5b 82bc c7fd c33c
00000310: 5dd1 b1bc 9845 1b3d 5a1f 113c 1886 f2bc
00000320: 0a40 983d 0763 dfbd 9ee3 1f3d 3953 dabc
00000330: 9b27 25bc 888a 1f3c 8d5d 5f3d 92c9 73bb
00000340: c311 943c 8ee6 a03d 8122 0d3d e414 d13d
00000350: b819 e23c be4b d1bc 5155 5a3a bd09 dabc
00000360: f1f0 acbc 3458 8b3d cef6 de3c dcc6 a0bb
00000370: f85d 9d3d 5927 3b3c 0fb8 a6bd aa66 943d
00000380: cfd7 683c 6087 abbd 0a91 603d 650e 72bd
00000390: 5a79 01bd 7272 ee3c 3cfb 1abd 9c64 82bc
000003a0: 78ad 0b3c 5502 68bc 115d a03d 044b 03bd
000003b0: a9ec 6f3a cd55 ecbb fc14 9ebd dded 6cbd
000003c0: c668 a0bd cfe6 4f3d a050 d9b9 7b69 613b
000003d0: 9e74 3c3c 27ca a13d 1183 863d 81c8 f5bc
000003e0: 9cd6 973c c13d cdbd 0ce7 ccbc 966c 8fbd
000003f0: c73c 07bd ff47 573c e3e6 9f3c de3a f5bc

to_mean.0.bias f4 [128]
0.031276844 -0.0040023597 0.024255354 -0.044710685 -0.029789347 -0.02688711 0.055091105 0.010167037
-0.01820234 0.0730957 -0.014091244 -0.04101786 -0.040563736 0.06538389 0.0015179453 -0.047036268
0.03748874 -0.033210475 0.013608653 -0.03974471 -0.0040517254 -0.035584874 0.017686602 0.022541272
-0.038985536 0.051098216 -0.008277261 0.046344925 0.054955512 -0.05308535 0.01600835 0.04871434
-0.03692812 -0.035328064 -0.057495903 -0.018731777 0.019596728 -0.041781712 0.0027142467 -0.063959666
0.018701093 0.05989372 -0.06611136 -0.040734153 0.05856832 0.02204059 0.03994947 0.04701345
-0.09279785 0.0073381416 0.03559931 -0.0117143635 0.06225936 -0.04905442 -0.016235955 -0.026463466
0.026761755 -0.07372503 0.017822871 0.007067314 0.02954625 -0.030501327 0.008252573 0.04541049
-0.01380685 0.029003708 0.0027344278 -0.06900171 -0.033604607 0.038548227 0.0039300444 -0.029985942
0.0033307455 -0.020821884 -0.053401534 0.03365955 -0.06341601 -0.017762633 0.01145607 -0.027478952
0.025462288 0.029169338 0.03822024 -0.030607898 0.054621015 0.0020074064 0.02571101 -0.029329306
0.006480732 0.058530137 0.025910204 -0.01253813 -0.039188195 -0.0713464 0.012392024 0.055696495
0.029517842 -0.016639361 0.0011167618 0.01582325 -0.034047075 0.061100073 -0.017485082 0.036451396
-0.030680198 -0.052542992 -0.010086737 -0.060129367 0.03911541 0.05228801 0.046042323 -0.068307966
0.043052945 -0.02035985 -0.029232543 0.08360699 0.0031604567 -0.04964533 -0.018258372 0.019491987
0.053262867 -0.038697805 0.01092278 0.039549775 -0.023187287 -0.02032905 0.035815906 0.06684215
00000000: 261c 003d 3a26 83bb 2ab3 c63c 8d22 37bd
00000010: ca08 f4bc 5b42 dcbc 36a7 613d a593 263c
00000020: 131d 95bc 33b3 953d f6de 66bc 5802 28bd
00000030: 2926 26bd fde7 853d cbf5 c63a 1aa9 40bd
00000040: cb8d 193d b507 08bd d4f6 5e3c 59cb 22bd
00000050: 56c4 84bb 72c1 11bd 7ee3 903c 79a8 b83c
00000060: 4caf 1fbd 5d4c 513d 599d 07bc 2dd4 3d3d
00000070: 0819 613d 0670 59bd f123 833c b088 473d
00000080: f141 17bd 29b4 10bd d380 6bbd 6273 99bc
00000090: 5189 a03c 4d23 2bbd 81e1 313b 49fd 82bd
000000a0: 0933 993c 1e53 753d 6565 87bd dbd8 26bd
000000b0: 56e5 6f3d 788e b43c 0ea2 233d 2d91 403d
000000c0: cd0c bebd cb74 f03b 95d0 113d 9aed 3fbc
000000d0: ac03 7f3d 4aed 48bd 4401 85bc e9c9 d8bc
000000e0: 783b db3c 26fd 96bd 4501 923c ed94 e73b
000000f0: fa0a f23c ebdd f9bc cd35 073c 5a00 3a3d
00000100: 2036 62bc 2f99 ed3c 1634 333b c550 8dbd
00000110: fca4 09bd bfe4 1d3d 9ac7 803b 14a5 f5bc
00000120: a348 5a3b a892 aabc 91bb 5abd 99de 093d
00000130: 41e0 81bd f182 91bc 3db2 3b3c 8a1b e1bc
00000140: 4a96 d03c 89f4 ee3c d48c 1c3d 6abd fabc
00000150: 49ba 5f3d b18e 033b e59f d23c 0344 f0bc
00000160: 525c d43b 4cbd 6f3d a341 d43c bb6c 4dbc
00000170: cd83 20bd 101e 92bd ea07 4b3c 0222 643d
00000180: 67cf f13c 454f 88bc 4f60 923a c39f 813c
00000190: f274 0bbd 1244 7a3d e03c 8fbc 0f4e 153d
000001a0: 0a55 fbbc 5237 57bd d742 25bc 364a 76bd
000001b0: 7b37 203d f42b 563d e096 3c3d 0ce5 8bbd
000001c0: 4958 303d b3c9 a6bc 1679 efbc 243a ab3d
000001d0: aa1f 4f3b e758 4bbd 9592 95bc a9ad 9f3c
000001e0: 2a2a 5a3d 9781 1ebd 76f5 323c f2fe 213d
000001f0: 44f3 bdbc 1c89 a6bc b3b3 123d 8ae4 883d

to_mean.2.weight f4 [18, 128]
0.1097055 -0.014598421 -0.008588395 -0.112050556 -0.035802606 -0.013708034 -0.010758463 0.015082666
0.006167678 0.0148025025 -0.059267286 -0.072431475 0.030372065 0.053971723 -0.0963049 0.12090921
-0.016829617 -0.018311521 -0.04548113 0.02714297 -0.08822233 -0.007930761 0.00039485015 0.03667043
-0.003242253 -0.017457753 -0.03591901 -0.09781937 -0.020497052 -0.023050016 -0.016370948 -0.02770405
-0.037074868 0.00061820226 0.08678978 0.049937006 0.066577256 -0.08512293 0.10470504 0.036361378
-0.022439778 0.028389823 -0.10228793 -0.0333793 -0.13043965 0.03661272 0.06531346 -0.027063547
0.047030617 0.0037515778 0.04292676 0.10348421 -0.013141808 -0.11294623 0.022336287 0.09900528
-0.11262601 0.024061192 0.10043804 0.014853701 -0.021011252 0.03101564 0.0033835075 -0.06450906
-0.09956306 0.020728337 0.07269546 -0.045374665 -0.041025978 -0.03958002 0.052842505 0.1278191
-0.059882935 -0.009137024 0.052490048 0.026930438 -0.118743345 -0.06739499 0.023697874 -0.044066813
0.018735275 -0.0075003156 -0.008147368 0.10083557 0.0041076494 0.03280985 -0.08351532 0.07356856
-0.056959867 0.012095127 -0.0074163596 -0.024336338 0.04739734 -0.07258537 0.0090060495 -0.105445474
0.00037302234 -0.0531894 -0.100359246 0.06251716 0.04702129 -0.093841836 -0.0031831486 -0.034074616
-0.040811036 -0.044673212 -0.07614551 0.026140945 -0.06299463 -0.03284883 -0.029316194 -0.018594362
-0.023473537 -0.0027292473 -0.08186019 0.04873037 0.1136478 0.04373806 -0.05665971 0.12336419
0.03018977 -0.06838972 0.016038446 -0.010942899 0.065463126 -0.016618319 -0.083228245 -0.08891341
0.058338206 -0.050923385 0.07163191 -0.06903708 0.0044817985 0.07053536 -0.04063398 0.06067174
0.066710815 0.0074625313 -0.000743592 0.073350005 0.039473757 0.09464701 0.038312398 0.0687977
0.12705235 -0.022287766 0.018065516 0.044650838 0.07510619 0.02592226 0.005745918 -0.109668605
-0.017121457 0.057473887 -0.006659428 -0.012062901 -0.08772373 -0.03817096 -0.12054083 0.009797136
-0.066010974 -0.08063923 -0.0064452803 0.059053525 0.059515744 0.035772156 0.002955832 0.075946055
-0.0012058348 -0.050126825 0.06417408 0.017943492 0.042849094 -0.09609512 -0.034522384 0.023798916
0.039976243 -0.008447755 -0.03521393 -0.059936777 0.025059352 0.025688242 0.0039956947 0.0014595041
-0.033859186 -0.038917575 0.07391075 0.008995453 -0.0020651673 -0.06526779 0.0030894578 -0.016620472
0.006613989 0.037016798 -0.03592899 -0.045769285 0.014329014 -0.08741513 0.051427655 0.106960274
0.031879663 0.051030632 -0.03565598 -0.112458855 -0.06758242 -0.10304587 -0.007554932 0.052596822
0.002299265 0.055457383 0.00874067 0.0042828913 -0.111337036 0.09359482 0.01288988 -0.0824249
0.0002609689 0.0030826684 0.071824916 0.019604128 0.08016756 -0.028251648 -0.051755533 -0.041332897
-0.05118834 -0.022555863 -0.063740954 0.09887763 0.112244554 -0.061432805 -0.07310478 0.07236031
0.017800843 0.014187405 0.01817875 0.0840077 -0.020312594 0.085173324 0.051273298 -0.036034647
-0.025138158 -0.047492877 -0.0005448291 -0.027447768 -0.08405323 -0.022011869 0.03803244 0.0049529043
0.08303397 0.019972643 0.024804737 -0.046697628 -0.049964532 0.00790092 0.061496545 -0.033973224
00000000: 47ad e03d 372e 6fbc 57b6 0cbc c37a e5bd
00000010: c1a5 12bd a997 60bc 4444 30bc 491d 773c
00000020: 3c1a ca3b 3286 723c 41c2 72bd f456 94bd
00000030: d6ce f83c 7411 5d3d 813b c5bd 3f9f f73d
00000040: 44de 89bc 0b02 96bc 6c4a 3abd ef5a de3c
00000050: e9ad b4bd 06f0 01bc e403 cf39 bc33 163d
00000060: fb7b 54bb 9003 8fbc d01f 13bd 8655 c8bd
00000070: 6fe9 a7bc 63d3 bcbc 5e1c 86bc 9bf3 e2bc
00000080: d1db 17bd da0e 223a d7be b13d bf8a 4c3d
00000090: a859 883d ee54 aebd 996f d63d abef 143d
000000a0: a0d3 b7bc c691 e83c 567c d1bd bcb8 08bd
000000b0: f991 05be 38f7 153d 10c3 853d 5fb4 ddbc
000000c0: 2da3 403d 08dd 753b f8d3 2f3d 88ef d33d
000000d0: bd50 57bc 5a50 e7bd 97fa b63c 48c3 ca3d
000000e0: 77a8 e6bd fa1b c53c 76b2 cd3d f05c 733c
000000f0: ca1f acbc 8314 fe3c d6bd 5d3b 531d 84bd
00000100: b8e7 cbbd 79ce a93c 5be1 943d c9da 39bd
00000110: db0a 28bd a91e 22bd 6271 583d 03e3 023e
00000120: cf47 75bd 75b3 15bc ceff 563d 399d dc3c
00000130: b62f f3bd 6206 8abd 0b22 c23c 677f 34bd
00000140: b87a 993c 35c5 f5bb 8a7c 05bc e182 ce3d
00000150: 7699 863b 9f63 063d 150a abbd 1dab 963d
00000160: c04e 69bd a42a 463c ef04 f3bb 005d c7bc
00000170: b723 423d a3a7 94bd 1c8e 133c ccf3 d7bd
00000180: 3692 c339 21dd 59bd 2689 cdbd ff08 803d
00000190: 6599 403d 2630 c0bd 5f9c 50bb d391 0bbd
000001a0: 7929 27bd 42fb 36bd 2df2 9bbd 8925 d63c
000001b0: 5403 81bd 7f8c 06bd 8428 f0bc 3453 98bc
000001c0: 934b c0bc 2cdd 32bb 51a6 a7bd 7f99 473d
000001d0: 2ec0 e83d ae26 333d 0314 68bd 5da6 fc3d
000001e0: 8950 f73c e90f 8cbd 0f63 833c d849 33bc
000001f0: 8811 863d 2423 88bc 9273 aabd 3c18 b6bd
00000200: 0bf4 6e3d 0a95 50bd c0b3 923d 5063 8dbd
00000210: 0ddc 923b d874 903d d16f 26bd ee82 783d
00000220: ae9f 883d 4088 f43b 9ded 42ba 8738 963d
00000230: 3caf 213d 4bd6 c13d 76ed 1c3d cfe5 8c3d
00000240: 031a 023e d594 b6bc 22fe 933c cce3 363d
00000250: 46d1 993d eb5a d43c 4148 bc3b ef99 e0bd
00000260: 4c42 8cbc bd69 6b3d 5537 dabb 79a3 45bc
00000270: 80a8 b3bd 2759 1cbd 1cde f6bd 2b84 203c
00000280: c330 87bd 2e26 a5bd ee32 d3bb 1ce2 713d
00000290: c8c6 733d d385 123d a2b6 413b 9b89 9b3d
000002a0: 1a0d 9eba c951 4dbd b36d 833d 3bfe 923c
000002b0: 8882 2f3d 85cd c4bd 5867 0dbd f2f5 c23c
000002c0: 21be 233d 7468 0abc 7b3c 10bd 4480 75bd
000002d0: 4549 cd3c 2670 d23c 51ee 823b d54c bf3a
000002e0: eeaf 0abd 0968 1fbd 855e 973d aa61 133c
000002f0: c257 07bb 1eab 85bd 8078 4a3b a827 88bc
00000300: 29ba d83b ed9e 173d 472a 13bd 9378 3bbd
00000310: 3ec4 6a3c b406 b3bd cea5 523d fd0d db3d
00000320: 4094 023d 7f05 513d 010c 12bd d450 e6bd
00000330: a768 8abd b709 d3bd 5d8f f7bb c46f 573d
00000340: 44af 163b 4827 633d 0735 0f3c 7f57 8c3b
00000350: ac04 e4bd a4ae bf3d 1330 533c 63ce a8bd
00000360: a7d2 8839 9806 4a3b f118 933d d698 a03c
00000370: e42e a43d 0070 e7bc 9cfd 53bd af4c 29bd
00000380: ddaa 51bd 13c7 b8bc 9e8a 82bd 5b80 ca3d
00000390: 79e0 e53d f7a0 7bbd f5b7 95bd a431 943d
000003a0: 13d3 913c 4a72 683c 9aeb 943c 3b0c ac3d
000003b0: 9966 a6bc 5a6f ae3d f303 523d 1199 13bd
000003c0: 8aee cdbc e487 42bd ddd2 0eba 24da e0bc
000003d0: 1a24 acbd 3c52 b4bc e7c7 1b3d f94b a23b
000003e0: b70d aa3d ab9d a33c 4e33 cb3c 0346 3fbd
000003f0: 9ca7 4cbd dc72 013c cde3 7b3d 8227 0bbd

to_mean.2.bias f4 [18]
-0.05095069 0.057422366 0.046877053 -0.017235298 0.0050976304 -0.06351591 -0.06792415 -0.020125825
0.041063957 -0.08448423 -0.10256713 -0.00135485 0.047348015 -0.07979461 -0.052822344 0.06335841
0.064887404 0.043934274
00000000: acb1 50bd b733 6b3d 2702 403d 0a31 8dbc
00000010: 060a a73b a114 82bd d11b 8bbd eade a4bc
00000020: ae32 283d 1106 adbd b70e d2bd 3995 b1ba
00000030: feef 413d 5b6b a3bd 3e5c 58bd 0ec2 813d
00000040: b0e3 843d 6df4 333d

to_value.0.weight f4 [128, 256]
0.12511274 -0.027932638 0.22752565 0.018246824 0.08298965 0.0554886 -0.10562539 -0.08417877
0.051498465 0.13278595 0.15010025 -0.060858265 0.20408712 0.09157511 -0.244724 0.40525255
0.14424703 -0.012618854 0.14435114 0.0211561 0.07506414 0.12621704 -0.11156491 -0.31984934
0.14586617 0.25778013 0.077168815 -0.10853263 -0.19387503 -0.18558612 0.12820414 0.0042363005
-0.19076532 0.050041743 0.082631476 0.46903425 0.11898017 -0.0237865 -0.075666405 -0.047997463
-0.15464109 -0.0029385064 0.13832048 0.023361268 0.050123695 0.045655116 -0.4827299 0.031770095
0.09361495 -0.11405741 -0.1881163 0.140719 0.58631766 0.08232957 -0.009196364 -0.32590175
0.22809665 0.033078946 -0.01612556 0.0064036218 -0.031243082 -0.10029685 -0.20792323 -0.6823729
0.23790164 0.1476599 -0.024158955 0.08558793 -0.0515845 -0.16583502 -0.30773613 -0.21395771
0.060347494 0.06101691 0.045636117 -0.042971276 -0.08420145 0.12528169 -0.06907106 -0.030411746
-0.61482036 -0.05611184 0.2123978 -0.051716194 0.037928067 0.05668028 0.11152984 0.2980642
-0.22999012 0.120834745 0.081514776 -0.007737713 0.14302288 -0.5078885 0.42170027 -0.14373161
-0.062385067 -0.2715718 0.071757056 -0.18041624 -0.16185188 0.14159106 0.09497515 -0.16617677
0.036345012 -0.41382277 0.13836302 -0.0050346474 -0.34974483 0.13478477 0.5401855 0.0180953
-0.13995543 0.18477777 -0.5225391 -0.3464275 0.14735852 -0.261601 0.4781596 0.3092555
0.2809418 -0.0029083844 -0.133052 0.03361994 -0.09654494 0.15717492 -0.7193088 -0.13623837
0.2777082 -0.011898172 0.4175034 -0.4808604 0.029918846 -0.1571297 -0.040134005 0.10901907
-0.061279796 -0.3469562 -0.46744236 0.0144111635 -0.12705912 0.097723655 0.29628876 -0.15008362
-0.010440666 0.017368007 0.03711067 0.018018298 0.0057148193 0.13797869 0.26855445 -0.10610394
0.2697124 0.064518616 0.046412442 -0.18950762 -0.68076015 0.001276834 0.21099599 -0.0090659065
-0.09498682 -0.32984638 -0.03941676 0.075321645 -0.009721777 -0.40025595 0.047260568 -0.035644904
-0.32271788 -0.534813 -0.21277659 0.049589988 -0.12602566 -0.51131755 -0.45708463 0.1904814
0.0944514 0.09224676 -0.18377121 0.0846984 -0.03693394 0.05169909 -0.12970887 -0.20511521
0.030074934 0.101671405 0.08946711 0.044949193 -0.09486556 0.18668436 0.05356603 0.43903515
-0.04078087 0.07125521 -0.023231132 0.06785871 0.08149644 -0.0114885885 0.28347725 -0.038785156
0.27425414 -0.085165836 -0.15013522 -0.07174638 -0.040372342 0.056717027 -0.32517695 0.0552161
0.04415557 0.4132348 -0.1580216 -0.69210106 0.3834976 0.015749723 -0.009533012 0.2650467
-0.1401282 -0.13173023 -0.053593572 -0.029692164 -0.20755228 -0.13029605 0.19449954 -0.008881226
-0.08064943 0.23213133 -0.36270493 0.19650602 0.03713382 0.04431433 -0.27071637 -0.07265033
0.099630974 0.27782857 -0.2821489 0.24171434 -0.23530294 -0.07178674 -0.046301484 -0.2481996
-0.15749772 0.089204125 0.13443866 -0.818326 0.1149566 -0.20293449 -0.03402885 -0.08173161
-0.038000416 0.008689335 -0.34320608 -0.25368267 0.02480212 -0.006138111 0.18705395 -0.33581737
00000000: 8e1d 003e fdd2 e4bc 7cfc 683e 5d7a 953c
00000010: 7af6 a93d 0448 633d 2052 d8bd eb65 acbd
00000020: 0ef0 523d 0af9 073e e1b3 193e 8446 79bd
00000030: 37fc 503e bb8b bb3d ee98 7abe 437d cf3e
00000040: 7eb5 133e 4fbf 4ebc c9d0 133e 8f4f ad3c
00000050: 3abb 993d 0a3f 013e 257c e4bd 4bc3 a3be
00000060: f15d 153e c2fb 833e af0a 9e3d 5b46 debd
00000070: 2d87 46be 4a0a 3ebe f247 033e aad0 8a3b
00000080: fc57 43be 92f8 4c3d b13a a93d 4225 f03e
00000090: e0ab f33d e8db c2bc fdf6 9abd fd98 44bd
000000a0: 3c5a 1ebe f593 40bb e2a3 0d3e 2160 bf3c
000000b0: 814e 4d3d dc00 3b3d 6028 f7be 5c21 023d
000000c0: 32b9 bf3d ee96 e9bd 8fa1 40be a418 103e
000000d0: ea18 163f 689c a83d 59ac 16bc 98dc a6be
000000e0: 2b92 693e ca7d 073d c019 84bc 79d5 d13b
000000f0: 7ef1 ffbc 6f68 cdbd d4e9 54be feaf 2ebf
00000100: 7d9c 733e 2834 173e 00e9 c5bc ba48 af3d
00000110: 454a 53bd a8d0 29be 978f 9dbe bb17 5bbe
00000120: ef2e 773d deec 793d f0ec 3a3d a602 30bd
00000130: cf71 acbd d849 003e 2175 8dbd 0e22 f9bc
00000140: de64 1dbf 87d5 65bd cf7e 593e 5cd4 53bd
00000150: 765a 1b3d 9529 683d c269 e43d df9b 983e
00000160: 8882 6bbe 3578 f73d 38f1 a63d a48c fdbb
00000170: 9774 123e fb04 02bf 19e9 d73e 612e 13be
00000180: 7c87 7fbd 750b 8bbe 5df5 923d 09bf 38be
00000190: 80bc 25be 3ffd 103e 5582 c23d 3e2a 2abe
000001a0: 82de 143d 94e0 d3be 09af 0d3e aff9 a4bb
000001b0: c111 b3be 0505 0a3e 9949 0a3f 983c 943c
000001c0: 7a50 0fbe 6236 3d3e 1fc5 05bf f25e b1be
000001d0: 27e5 163e 91f0 85be 56d1 f43e bd56 9e3e
000001e0: 9bd7 8f3e 989a 3ebb c93e 08be 10b5 093d
000001f0: 5ab9 c5bd 76f2 203e 9f24 38bf 1282 0bbe
00000200: c52f 8e3e 8df0 42bc 01c3 d53e 5633 f6be
00000210: 5e18 f53c 9ce6 20be 8e63 24bd 6445 df3d
00000220: 8600 7bbd 3ea4 b1be 9b54 efbe cd1c 6c3c
00000230: c91b 02be 5723 c83d 29b3 973e 85af 19be
00000240: 540f 2bbc 5a47 8e3c 5c01 183d 1c9b 933c
00000250: 6143 bb3b 494a 0d3e f87f 893e 064d d9bd
00000260: be17 8a3e 5622 843d f91a 3e3d 490e 42be
00000270: 4c46 2ebf 715b a73a 550f 583e 2b89 14bc
00000280: 7388 c2bd a0e1 a8be 7873 21bd 3c42 9a3d
00000290: 1748 1fbc 59ee ccbe 4c94 413d 6400 12bd
000002a0: 473b a5be 81e9 08bf 1be2 59be df1e 4b3d
000002b0: df0c 01be b5e5 02bf ff06 eabe 8e0d 433e
000002c0: bc6f c13d dfeb bc3d 852e 3cbe 5b76 ad3d
000002d0: 0b48 17bd 6dc2 533d 67d2 04be b909 52be
000002e0: b55f f63c 1939 d03d 883a b73d a51c 383d
000002f0: e048 c2bd 2f2a 3f3e 0e68 5b3d 37c9 e03e
00000300: d709 27bd 40ee 913d 374f bebc 82f9 8a3d
00000310: 9be7 a63d a23a 3cbc ee23 913e 2fdd 1ebd
00000320: 0a6b 8c3e 6d6b aebd 0cbd 19be c4ef 92bd
00000330: 785d 25bd 1d50 683d 987d a6be 472a 623d
00000340: 79dc 343d 8393 d33e 6ad0 21be 892d 31bf
00000350: cc59 c43e 9005 813c 5a30 1cbc 33b4 873e
00000360: c47d 0fbe 4ae4 06be ef84 5bbd fb3c f3bc
00000370: 9688 54be 546c 05be e32a 473e 9082 11bc
00000380: 872b a5bd d6b3 6d3e 76b4 b9be e038 493e
00000390: a219 183d f182 353d 569b 8abe b2c9 94bd
000003a0: 530b cc3d 8c3f 8e3e d275 90be f783 773e
000003b0: 41f3 70be ed04 93bd a0a6 3dbd 0928 7ebe
000003c0: 1547 21be a7b0 b63d 4aaa 093e d07d 51bf
000003d0: 5e6e eb3d 0fce 4fbe d661 0bbd e762 a7bd
000003e0: 53a6 1bbd b65d 0e3c b5b8 afbe b2e2 81be
000003f0: d12d cb3c 3522 c9bb 128b 3f3e 41f0 abbe
