save23_12_22/save3_300.pth (torch, 931355 bytes, 11 tensors)

shared_net.0.weight f4 [256, 114]
0	0xbe265442	-0.1624308
1	0x3de2bda6	0.11071329
2	0xbded705c	-0.115936965
3	0xbd5416b1	-0.051779453
4	0xbd092bab	-0.03348891
5	0x3d97e35b	0.074164115
6	0xbdaf809a	-0.08569451
7	0x3d9ac662	0.0755737
8	0x3d18b81c	0.037284955
9	0x3cc97b4a	0.024594922
10	0x3e8ad025	0.27111927
11	0x3ed7ad01	0.4212418
12	0xbe1bc5d1	-0.1521218
13	0xbc157cfb	-0.009124036
14	0xbde29455	-0.11063448
15	0x3d6976fb	0.056998234
16	0xbc91e979	-0.017811524
17	0xbba228ee	-0.004948727
18	0xbc0c1184	-0.008549098
19	0x3aaffbc7	0.0013426476
20	0x3c73eb71	0.014887677
21	0x3b933b85	0.0044931793
22	0xbe3453db	-0.17610113
23	0xbc98f171	-0.018669816
24	0xbdf017d4	-0.11723295
25	0x3d7be746	0.061499856
26	0xbe48c345	-0.1960574
27	0x3de75844	0.11296132
28	0x3b934aa1	0.0044949804
29	0xbdc598a6	-0.09648256
30	0xbdb2545b	-0.08707496
31	0x3e1341d8	0.14380586
32	0x3c2db58b	0.010602365
33	0x3c86d071	0.016456814
34	0xbdf574f8	-0.11985201
35	0xbe0b24ba	-0.13588229
36	0xbdabb2da	-0.083837226
37	0x3e098d69	0.1343285
38	0xb98ec037	-0.00027227562
39	0x3db42998	0.08796996
40	0x3cbb1b7b	0.022840252
41	0x3bf29b51	0.007403769
42	0x3d3ccb1a	0.04609213
43	0xbe6e1088	-0.23248494
44	0xbdec9b8e	-0.11553107
45	0x3d0b6f8f	0.034041937
46	0x3d5334f5	0.051564176
47	0xbe53caff	-0.20682906
48	0xbe92e5b1	-0.28690866
49	0xbd50c803	-0.050971996
50	0x3bab512f	0.0052281837
51	0x3e1613e3	0.14656024
52	0x3dc9a8f6	0.0984668
53	0x3d8c82ef	0.06860911
54	0x3d4641a7	0.048402455
55	0xbd63ba8c	-0.055597827
56	0x3c8cc336	0.017182928
57	0xbd9c9682	-0.076458946
58	0xbd1ceab6	-0.038309775
59	0xbd998256	-0.07495563
60	0x3df9dd98	0.12200469
61	0xbc2d6f35	-0.010585596
62	0xbdbede8b	-0.093197905
63	0x3c9ca2d8	0.019120619
64	0x3cf76af6	0.03020237
65	0x3c398e50	0.011325434
66	0x3cde75f0	0.027155846
67	0x3c36f831	0.011167572
68	0x3e053680	0.13009071
69	0x3cdbb000	0.026817322
70	0xbdabec94	-0.08394733
71	0xbd5428ce	-0.051796727
72	0x39938d73	0.00028143413
73	0x3dc4ed43	0.096155666
74	0x3d5990ab	0.05311648
75	0x3daef59b	0.08542939
76	0xbc80b52a	-0.015711386
77	0xbdf93d97	-0.121699505
78	0xbd629bd8	-0.055324405
79	0xbcbf41f9	-0.023346888
80	0xbdf74c18	-0.120750606
81	0x3ddedcbd	0.10881946
82	0x3d018ac3	0.031626474
83	0xbdac0c9f	-0.08400845
84	0xbb6c5697	-0.0036062354
85	0x3b603857	0.0034213269
86	0xbc5b1dae	-0.013373775
87	0xbd171efd	-0.036894787
88	0x3d9a8aeb	0.07546028
89	0x3c5501f5	0.013000955
90	0x3cdd6fb6	0.027030807
91	0x3ca39100	0.019966602
92	0x3d060ba8	0.03272596
93	0x3bcecf55	0.006311337
94	0xbd7db0b4	-0.061936095
95	0xbd218d8e	-0.039441638
96	0xbcda1047	-0.02661909
97	0x3da49fb5	0.08038274
98	0xbe10689a	-0.14102402
99	0xbc2908eb	-0.010317068
100	0x3cacaf11	0.021079572
101	0x3e0a6ec3	0.13518815
102	0x3c49ed49	0.01232464
103	0xbdbe77d0	-0.09300196
104	0xbcc7be60	-0.02438277
105	0xbd691c91	-0.05691201
106	0xbde3137d	-0.110877015
107	0xbdf2d911	-0.118578084
108	0xbd78ead6	-0.060770832
109	0xbd46139b	-0.04835854
110	0x3cd4e506	0.025988113
111	0xb99052ac	-0.00027527416
112	0xbdf05ea7	-0.117368035
113	0x3e1431e7	0.14472161
114	0x3d2400ad	0.040039707
115	0xbe1cff9a	-0.1533188
116	0xbc6920fd	-0.014229056
117	0xbba680e8	-0.005081285
118	0x3bc1ddc1	0.0059163277
119	0x3c6f1695	0.014592786
120	0x3d76bab8	0.060236663
121	0x3c72fba6	0.0148305055
122	0x3acde074	0.0015707151
123	0x3d1196bc	0.035544142
124	0x3d0372b0	0.032091796
125	0x3ea470fb	0.32117447
126	0xbdb29242	-0.08719303
127	0x3caa5655	0.02079312
128	0xbdc0fe18	-0.094234645
129	0xbb0c5720	-0.0021414235
130	0xbdb2a414	-0.08722702
131	0xbd45b77b	-0.048270684
132	0xbb21946e	-0.0024655121
133	0xbcb9e66c	-0.022692882
134	0xbd06c4b1	-0.032902423
135	0xbd7533bd	-0.059863795
136	0xbdd80823	-0.10548427
137	0x3d536e9f	0.05161917
138	0x3d26dbca	0.04073695
139	0x3df54d70	0.11977661
140	0x3de45992	0.11149897
141	0x3e024e63	0.12725215
142	0x3dff5043	0.124664806
143	0xbd9a8674	-0.07545176
144	0xbe1b6467	-0.15175019
145	0xba2acbec	-0.0006515372
146	0x3dff0252	0.124516144
147	0x3d84b077	0.064789705
148	0xbdf13eaf	-0.11779534
149	0xbe09f73d	-0.1347322
150	0xbe0c5a4d	-0.13706322
151	0xbc821f5d	-0.015884096
152	0xbd939c07	-0.07207494
153	0x3e4a9446	0.19783124
154	0xbc5a2270	-0.013313875
155	0xbdfe8eb1	-0.1242956
156	0x3dfcac96	0.12337606
157	0xbe68eff8	-0.22747791
158	0xbd4a726e	-0.049425535
159	0xbe18981b	-0.14901774
160	0x3ceb41c6	0.028717887
161	0xbbb36916	-0.0054751737
162	0xbdeab886	-0.11460976
163	0xbe135692	-0.14388493
164	0xbd9815dc	-0.07426044
165	0x3d8515ea	0.064983204
166	0x3ce65a78	0.02811931
167	0x3de2a9af	0.11067521
168	0xbd3892dc	-0.04506193
169	0xbc9da389	-0.019243019
170	0x3da7ec2b	0.08199342
171	0xbd361dc2	-0.044461973
172	0x3de1f865	0.110337056
173	0x3d63068e	0.055426173
174	0xbe2bca86	-0.16776475
175	0x3d216ab2	0.039408393
176	0x3d0cf3c2	0.034412153
177	0xbd10c38d	-0.03534274
178	0x3d279178	0.040910214
179	0xbd7cb1a5	-0.061692853
180	0xb99dd686	-0.00030105206
181	0xbd7ec5f6	-0.06220051
182	0x3db5c8b9	0.088761754
183	0xbbca2036	-0.0061683906
184	0x3c8a58a2	0.016887967
185	0x3d056d7b	0.03257511
186	0xbce88426	-0.028383326
187	0xbcb078bd	-0.021541947
188	0xbda3fdbb	-0.080073796
189	0x3d8c7617	0.06858461
190	0x3d39ab56	0.045329414
191	0x3d5c13d0	0.053729832
192	0xbdae5367	-0.085120015
193	0x3d0d3d2f	0.034482177
194	0xbd6af71e	-0.057364576
195	0xbd8c97a9	-0.068648644
196	0xbd4c6778	-0.049903363
197	0xbac4c529	-0.0015012372
198	0xbd19da91	-0.037561957
199	0x3c8edff8	0.017440781
200	0x3b5fe7cb	0.003416526
201	0x3d4bc965	0.04975261
202	0xbd41cd05	-0.047314662
203	0xbc8a74ca	-0.016901392
204	0xbd4f4369	-0.050601397
205	0x3d1fd2fb	0.039019566
206	0xbce5cb3d	-0.028051013
207	0x3d744cec	0.05964367
208	0x3d2f8f04	0.042861
209	0xbce3d7d7	-0.027812881
210	0xbd64b368	-0.055835158
211	0x3d7946c5	0.060858507
212	0xbd602ebd	-0.054732073
213	0x3d1bc658	0.038030952
214	0xbd385980	-0.04500723
215	0x3d3ce292	0.04611451
216	0xbc736e39	-0.014857822
217	0xbdefbfe3	-0.11706521
218	0x3df74b6d	0.12074933
219	0xbe09d934	-0.13461763
220	0xbd968724	-0.07349995
221	0x3d43f87f	0.047844406
222	0xbce87f61	-0.028381051
223	0xbd758570	-0.05994171
224	0xbcba4cac	-0.022741638
225	0xbc815e1c	-0.015791945
226	0xbe103b87	-0.14085208
227	0x3d2edc6b	0.042690676
228	0xbb9f7903	-0.0048667206
229	0xbdc12ce5	-0.09432391
230	0x3bb10208	0.0054018535
231	0x3e0abc01	0.1354828
232	0x3cbe72e9	0.023248153
233	0x3e8cfbd2	0.27535874
234	0x3d6eb454	0.058277443
235	0xbd7cae6f	-0.06168979
236	0x3da6a6c8	0.0813728
237	0xbd82564e	-0.063641176
238	0x3c83e962	0.016102497
239	0x3ea8a32b	0.32936987
240	0xbd018566	-0.03162136
241	0x3e0983ff	0.13429259
242	0xbd8fccd3	-0.07021489
243	0x3d8cbad9	0.06871576
244	0xbca720b0	-0.020401329
245	0xbe1e2fa0	-0.15447855
246	0x3e01ef53	0.12688951
247	0xbd55fac5	-0.052241106
248	0xbccf6dca	-0.025320906
249	0xbd84d071	-0.064850695
250	0xbe105b96	-0.14097437
251	0x3d8345cd	0.06409798
252	0x3dc29b42	0.09502269
253	0x3d0e4903	0.0347376
254	0x3cb14e6f	0.021643845
255	0xbbd09a6a	-0.006366064

shared_net.0.bias f4 [256]
0	0xbc8ea383	-0.017411953
1	0x3dc58589	0.096446104
2	0x3dc7ee0e	0.09762202
3	0x3d9de067	0.07708817
4	0xbceb603f	-0.028732417
5	0xbdc24e7f	-0.09487628
6	0x3d9825ba	0.07429071
7	0x3ba8a80f	0.0051469873
8	0x3ae9fd5a	0.0017851994
9	0x3d344ad8	0.04401669
10	0x3c117545	0.008878057
11	0x3c7f5319	0.015583777
12	0xbcdda81a	-0.027057696
13	0x3ccd0589	0.025027053
14	0x3c3cfe54	0.011535246
15	0x3d6c32ae	0.05766552
16	0xbd456245	-0.04818942
17	0x3d9b20fa	0.07574649
18	0xbc4b71de	-0.012417285
19	0xbdd16823	-0.10224941
20	0x3c3ce7e8	0.0115299
21	0x3d30d373	0.043170404
22	0xbb86495e	-0.0040981015
23	0x3d38fd48	0.045163423
24	0x3b69d4fd	0.003567993
25	0x3d679dbf	0.056546923
26	0xbb97c897	-0.0046320665
27	0xbc21d549	-0.009877511
28	0x3c75f5c3	0.015012207
29	0x3d154d83	0.036450874
30	0x3c7c5085	0.015400057
31	0x3c762fe2	0.015026065
32	0x3d50ea8c	0.05100493
33	0xbd4c2e8a	-0.04984907
34	0xbc5ebf1b	-0.013595368
35	0x3d29cb4a	0.041453637
36	0xbd3b27be	-0.045692198
37	0xbda728a8	-0.081620514
38	0xbd99f558	-0.07517499
39	0xba57c9a1	-0.0008231644
40	0x3c8f6c93	0.017507827
41	0x3d2992b8	0.041399688
42	0x3d12c8c1	0.035835985
43	0x3d3364c4	0.04379727
44	0x3dddf0a1	0.10836912
45	0x3d5b3ab0	0.053522766
46	0x3c8b3ab7	0.01699577
47	0xbd37d0d6	-0.044876896
48	0x3de279d9	0.11058397
49	0x3bffbee3	0.007804738
50	0x3dd33b42	0.10314037
51	0xbc4e3681	-0.012586237
52	0xbd36bf70	-0.044616163
53	0x3d662198	0.05618438
54	0x3dc54535	0.09632341
55	0x3d1ba65f	0.03800046
56	0x3db45114	0.08804527
57	0xbcd3b81a	-0.025844622
58	0x3d8976e5	0.067121305
59	0x3d4906ac	0.04907863
60	0x3c3b8dc0	0.01144737
61	0x3d41bd99	0.047299955
62	0xbdd361b6	-0.10321371
63	0x3ddec8a1	0.10878111
64	0x3dcc5079	0.099762864
65	0x3c8f241a	0.01747327
66	0x3dc8bee6	0.09802036
67	0xbd934cae	-0.0719236
68	0x3caa7a84	0.020810373
69	0xbd1e4ae2	-0.038645633
70	0x3d0e1eae	0.034697227
71	0x3d6ebe84	0.05828716
72	0x3d1b84eb	0.037968557
73	0x3dbe6e18	0.092983425
74	0x3d2182c9	0.039431367
75	0xbc1a4cc9	-0.009417721
76	0xbd367cd4	-0.04455264
77	0x3d81ec41	0.0634389
78	0x3c9a554a	0.018839497
79	0x3d6ffb0f	0.058589038
80	0xbd0142f1	-0.03155798
81	0xbdb58adf	-0.08864378
82	0xbc1cbaae	-0.009565992
83	0xbd2b8395	-0.041873533
84	0x3d7f1433	0.062275123
85	0x3cc46982	0.023976091
86	0x3dad6f74	0.084685236
87	0x3ca41b76	0.020032626
88	0x3d57c5fb	0.052679043
89	0xbd623414	-0.055225447
90	0x3d6aa19f	0.05728304
91	0x3c4e910e	0.012607826
92	0xb9956315	-0.00028493316
93	0x3d14e30f	0.036349352
94	0x3d82d913	0.0638906
95	0xbc68bf53	-0.0142057715
96	0xbd75b749	-0.059989247
97	0x3d60f475	0.054920632
98	0xbc85b155	-0.01631991
99	0x3cc4d095	0.02402524
100	0x3df6da99	0.12053413
101	0x3997cc33	0.00028953105
102	0xbd2822ba	-0.041048743
103	0x3da787b9	0.08180184
104	0x3b95d2d0	0.00457225
105	0xbda8ca94	-0.08241764
106	0x3cd65088	0.026161447
107	0x3d75360a	0.05986599
108	0x3c5d77c3	0.013517323
109	0xbcb6e700	-0.022326946
110	0x3d67b6e6	0.05657091
111	0xbd4920b6	-0.04910346
112	0x3df454b3	0.119302176
113	0xbca1ea78	-0.019765124
114	0xbd3934f1	-0.045216504
115	0x3d4b9abe	0.04970812
116	0xbc3fe374	-0.011711944
117	0xbd06d4da	-0.032917835
118	0x3cdabf6f	0.02670261
119	0xbd0c37f5	-0.034233052
120	0x3d833a6d	0.06407628
121	0x3c1bba7b	0.00950491
122	0x3d614d52	0.05500538
123	0x3d3ec284	0.046572223
124	0xbc2476fa	-0.010038132
125	0x3d7e777b	0.062125664
126	0x3cf571b2	0.02996144
127	0xbdd8b25c	-0.10580894
128	0xbb13668a	-0.0022491538
129	0x3c0d8419	0.008637452
130	0x3be72cee	0.0070549166
131	0x3b3d2ea0	0.0028866902
132	0x3cfdc274	0.030976512
133	0x3d1b0dbc	0.037854895
134	0x3d81d0b4	0.06338635
135	0x3c3ee0c1	0.011650265
136	0xbcfc4789	-0.03079583
137	0xbd81d0b8	-0.06338638
138	0x3ce135e2	0.027491514
139	0x3caee7e0	0.021350801
140	0x3d710d7b	0.058850747
141	0x3d89a257	0.06720417
142	0x3ced9b41	0.029004695
143	0xbd4bbdf8	-0.049741715
144	0x3d93c43c	0.07215163
145	0x3c46afdf	0.012126892
146	0x3c3c5de8	0.011496998
147	0x3d1886fb	0.037238102
148	0xbd3012e2	-0.042986758
149	0x3ba838e2	0.005133734
150	0xbd7e625a	-0.062105514
151	0xbd01254e	-0.031529717
152	0x3d14d20e	0.036333136
153	0xbd04bb2b	-0.03240506
154	0x3d76c0e9	0.060242567
155	0x3d794e47	0.060865667
156	0xbd9dff98	-0.07714766
157	0xb971c063	-0.0002305522
158	0x3d7cd728	0.061728626
159	0x3d84a3b7	0.06476539
160	0xbc5b2e5e	-0.013377754
161	0xbcc16343	-0.023606902
162	0x3d9c2a67	0.07625275
163	0xbcfe21ea	-0.03102203
164	0x3d48e4df	0.049046393
165	0xbc716d2b	-0.0147355
166	0x3d6cf6af	0.057852443
167	0x3de5cf4d	0.1122118
168	0x3db3a7e3	0.08772256
169	0x3ce69077	0.028145058
170	0x3caa3da2	0.020781342
171	0xbd93dc4e	-0.07219754
172	0x3d3521d2	0.044221707
173	0x3c6a9305	0.014317279
174	0x3d7fde07	0.0624676
175	0xbd42d0fd	-0.047562588
176	0xbd1ea04e	-0.038727097
177	0x3ccf4811	0.025302919
178	0x3d2b9140	0.041886568
179	0x3db9de64	0.09075621
180	0xbd304602	-0.043035515
181	0x3dc1e45a	0.09467383
182	0xbd45e956	-0.04831823
183	0x3dc9a2ae	0.09845482
184	0x3dcf7052	0.10128845
185	0x3c954d73	0.018225407
186	0xbd8dccb1	-0.069238074
187	0x3dbbad87	0.09163957
188	0x3d03d560	0.032185912
189	0x3d1ca98a	0.038247623
190	0x3dd3dea9	0.103452034
191	0x3ce78008	0.028259292
192	0x3ce0754d	0.027399683
193	0xbb2506ca	-0.0025181049
194	0x3c078ebf	0.008273779
195	0xbd6d5bb7	-0.057948794
196	0xbd0ce394	-0.034396723
197	0xbd9d3ba0	-0.07677388
198	0x3d856a9d	0.065144755
199	0x3cc36682	0.02385259
200	0xbdad2a19	-0.08455295
201	0x3d254509	0.04034904
202	0xbdc304c3	-0.095223926
203	0x3def4335	0.116827406
204	0x3d168229	0.036745224
205	0x3cf5902e	0.029975977
206	0x3d75cdc1	0.060010675
207	0xbbf14ab6	-0.0073636426
208	0xbda726c3	-0.0816169
209	0xbcbc4832	-0.022983644
210	0x3d2979dc	0.04137598
211	0x3d329503	0.04359914
212	0x3d8ac8bc	0.06776568
213	0x3d79a377	0.060946908
214	0xbd901790	-0.07035744
215	0x3d0f8134	0.035035327
216	0x3dbd3b4d	0.09239826
217	0x3d89ee7a	0.06734939
218	0x3d6ae3ee	0.057346277
219	0xbb86dbdd	-0.004115565
220	0xbb39e75a	-0.0028366656
221	0xbd78d8a6	-0.060753487
222	0x3d8f951e	0.07010864
223	0x3d2da5a0	0.04239428
224	0x3da9e359	0.08295316
225	0x3de25a2c	0.11052355
226	0x3b6d7ba3	0.0036237023
227	0xbba25898	-0.004954409
228	0xbdae31d1	-0.085055955
229	0x3d497589	0.049184356
230	0xbc0a6693	-0.008447307
231	0x3d02c6e6	0.031927966
232	0x3d1a0980	0.037606716
233	0xbd5f1d82	-0.0544715
234	0x3d80f4c6	0.06296687
235	0xbbc02b02	-0.005864502
236	0xbe06938f	-0.13142227
237	0x3d887712	0.06663336
238	0xbd01a32f	-0.031649765
239	0x3cac887f	0.02106118
240	0xbd25ccd0	-0.040478528
241	0xbdbfc9c3	-0.09364655
242	0x3d2480f4	0.04016204
243	0x3d728c98	0.059216112
244	0x3cea7c38	0.028623685
245	0x3d085506	0.03328421
246	0x3c98e8dd	0.018665725
247	0x3cfc4d7b	0.030798664
248	0xbc66fa3c	-0.014097746
249	0x3ce3d75c	0.027812652
250	0x3b882471	0.004154735
251	0x3d86f419	0.06589527
252	0x3d31a42c	0.043369457
253	0x3c8040e1	0.015655937
254	0xbba1f0c9	-0.004942034
255	0x3ceb6e62	0.028739158

shared_net.2.weight f4 [256, 256]
0	0xbd3778af	-0.044792827
1	0x3c2eab42	0.010660948
2	0x3c6bcb44	0.014391724
3	0xb9eb5595	-0.00044886456
4	0xbdaee466	-0.08539657
5	0xbd9d490d	-0.07679949
6	0xbd7c9d0f	-0.06167322
7	0x3c26fb42	0.0101917405
8	0x3d5cb7d3	0.053886246
9	0xbc61d05c	-0.013782587
10	0xbd7001f2	-0.058595605
11	0xbc9d49d1	-0.019200237
12	0x3c2276d6	0.009916028
13	0xbd127a5e	-0.03576123
14	0xbca4e32d	-0.020127857
15	0xbd0e9b6b	-0.034816187
16	0x3d03c219	0.032167528
17	0x3c5db1dc	0.0135311745
18	0xbd548560	-0.05188501
19	0xbda0a446	-0.07843833
20	0xbd3c3eb7	-0.045958247
21	0xbc2e6145	-0.010643308
22	0xbbcaecdd	-0.006192787
23	0xbd094035	-0.0335085
24	0x3c4ed145	0.012623136
25	0xb9a33e23	-0.00031136078
26	0xbd559c97	-0.05215129
27	0xbc24590c	-0.010030996
28	0xbc0eae09	-0.008708485
29	0x3d35a38f	0.044345435
30	0xbd7e5d2f	-0.062100586
31	0x3c670aa9	0.014101663
32	0xbd17d293	-0.037066054
33	0x3b7a93e6	0.0038235127
34	0xbd2b5805	-0.04183199
35	0x3d59c8dd	0.053170074
36	0xbcdd6698	-0.02702646
37	0xbd58ee5d	-0.052961696
38	0x3d4d088f	0.05005699
39	0xbd462fef	-0.048385557
40	0xbc9b39dd	-0.01894849
41	0xbbe7f13b	-0.0070783175
42	0x3c2ee3a0	0.010674387
43	0xbc30aaf5	-0.010782947
44	0xbd48a5a4	-0.048986092
45	0xbcd95185	-0.02652813
46	0xbb50907f	-0.0031824408
47	0xbd2541cf	-0.040345963
48	0xbd71e2ec	-0.0590543
49	0xbd2f36cc	-0.042776868
50	0xbc8feafd	-0.017568106
51	0xbbe260f7	-0.0069085318
52	0x3d2dee1f	0.042463418
53	0xbc44f52e	-0.012021346
54	0xbd1bdf9f	-0.03805506
55	0x3cb5d1da	0.022194792
56	0x3c8da2a5	0.017289469
57	0x3d0aece6	0.03391733
58	0x3bfb6636	0.0076720966
59	0x3cea8bc4	0.028631099
60	0x3cc40130	0.023926347
61	0x3d159644	0.036520258
62	0xbcf3d972	-0.029766772
63	0xbaf32735	-0.0018551113
64	0xbc5dbb51	-0.013533429
65	0x3cbe1d51	0.023207339
66	0xbd47bbc8	-0.048763067
67	0x3c410c26	0.011782682
68	0xbd5bc1b9	-0.053651545
69	0x3d16d984	0.036828533
70	0xbd6b6f38	-0.057479113
71	0xbd2518b6	-0.04030677
72	0x3c3a537d	0.011372444
73	0x3d43414b	0.04766969
74	0x3d714ec3	0.058913004
75	0xbd7071cd	-0.05870228
76	0xbc42aa33	-0.011881399
77	0xbd495bf6	-0.049159966
78	0xbd31b3ab	-0.043384235
79	0x3d3e6dad	0.046491314
80	0x3d13b0c7	0.03605726
81	0xbd6ab8b0	-0.057305038
82	0xbd436097	-0.047699537
83	0x3d396f88	0.04527238
84	0xbc20a3b9	-0.0098046595
85	0x3cab03eb	0.020875892
86	0xbd34336e	-0.04399436
87	0xbc0d0de0	-0.008609265
88	0xbbf65e01	-0.0075185304
89	0xb915871b	-0.00014260078
90	0xbc8b6550	-0.017016083
91	0xbb97c14f	-0.0046311985
92	0x3d422dff	0.047407147
93	0x3d0ab44e	0.03386336
94	0x3d0126fb	0.031531315
95	0x3d20fc18	0.039302915
96	0xbd844036	-0.0645756
97	0xbd3b831d	-0.045779336
98	0xbd8dcb67	-0.069235615
99	0xbdd3d2ad	-0.103429176
100	0xbd2f7d8d	-0.042844344
101	0xbbcfb61e	-0.0063388487
102	0xbc8e86d4	-0.017398275
103	0xbc697939	-0.014250093
104	0x3d0fced0	0.03510934
105	0x3ce94509	0.028475301
106	0x3d3df7a2	0.04637874
107	0xbd65f7f2	-0.056144662
108	0x3c5d1cc2	0.013495626
109	0xbd619679	-0.055075143
110	0x3d103de8	0.03521529
111	0x3d1b5113	0.037919115
112	0xbc3bac3b	-0.011454637
113	0x3c2a1d95	0.0103830295
114	0x3c695a94	0.014242787
115	0x3cfc7712	0.030818496
116	0xbc58ddd8	-0.013236485
117	0x3c32b52d	0.0109074535
118	0xbd510b06	-0.051035903
119	0xbd6cc854	-0.057808235
120	0xbd84b401	-0.064796455
121	0xbd2bbb50	-0.041926682
122	0x3d3feae7	0.04685488
123	0x3c002513	0.007821339
124	0xbdb00749	-0.085951395
125	0x3ca82c2f	0.02052888
126	0xbd4d1296	-0.050066553
127	0xbd670c6c	-0.05640833
128	0xbd9260fd	-0.07147405
129	0xba17eaae	-0.0005795163
130	0x3d2b160a	0.041769065
131	0xbd9cf9a6	-0.07664804
132	0xbd5d66a8	-0.05405298
133	0xbd1ca6ab	-0.038244884
134	0xbce8cbba	-0.028417457
135	0x3c1c1a36	0.009527734
136	0x3cf03ab9	0.029324876
137	0xbdc1c73c	-0.09461829
138	0x3d1b1f98	0.037871927
139	0xbd67bcd2	-0.056576557
140	0xbd334859	-0.043770168
141	0xbc8ea339	-0.017411815
142	0xbcfdf918	-0.031002566
143	0xbd3b49b7	-0.045724597
144	0xbdb1f90a	-0.086900786
145	0x3c46a344	0.0121238865
146	0xbc2ebb63	-0.010664794
147	0x3b0e0ff2	0.0021676985
148	0xbdaed071	-0.08535851
149	0x3c7549c0	0.014971197
150	0x3d3bb296	0.04582461
151	0xbc816183	-0.015793568
152	0x3d2ad1f5	0.041704137
153	0xbd36e658	-0.044653267
154	0xbd30c8a6	-0.043160103
155	0x3d0c90ff	0.034317967
156	0x3d2d3ea3	0.042296063
157	0x3d21d446	0.03950908
158	0x3d55db6b	0.052211206
159	0xbd80f74d	-0.06297169
160	0xbd438427	-0.047733452
161	0x3c8ddf28	0.017318323
162	0x3d289300	0.041155815
163	0x3d05555f	0.03255212
164	0xbd2bacab	-0.041912716
165	0x3d165712	0.03670413
166	0xbd16d0ac	-0.0368201
167	0x3c5bfe7f	0.013427376
168	0xbdb404a9	-0.08789951
169	0xbd9b8e0b	-0.07595452
170	0x3c93c20a	0.018036861
171	0xbd5022e1	-0.050814513
172	0x3cf6434c	0.030061387
173	0x3d015e9e	0.031584375
174	0xbc3de0fa	-0.011589283
175	0x3d3f2649	0.04666737
176	0xbd629571	-0.0553183
177	0x3c0d7f73	0.008636343
178	0xbc7df2bd	-0.015499768
179	0xbd0f5a46	-0.0349982
180	0xbbf29373	-0.007402831
181	0xbd58da87	-0.05294278
182	0xbc9afad6	-0.018918436
183	0xbd8c7496	-0.068581745
184	0xbd8af7fb	-0.0678558
185	0xbd5b868d	-0.053595114
186	0x3ce78178	0.028259978
187	0xbd05a77e	-0.032630436
188	0xbd1f94f6	-0.03896042
189	0xbd1a2148	-0.037629396
190	0x3c22b41c	0.009930637
191	0x3d0e8063	0.034790408
192	0xbd828f72	-0.06375016
193	0xbd1be3f3	-0.038059186
194	0xbc13f61e	-0.009030847
195	0xbd9ed460	-0.07755351
196	0xbd56a28a	-0.052401103
197	0xbc962ff3	-0.01833341
198	0xbc821fdb	-0.01588433
199	0x3c52f4e8	0.012875773
200	0xbb41ca67	-0.0029570104
201	0xbd7c7a7e	-0.061640255
202	0x3d302eda	0.04301343
203	0xbda56c86	-0.0807734
204	0xbc0aada0	-0.008464247
205	0x3ce13c5f	0.027494607
206	0xbd897b0d	-0.06712923
207	0xbd748d3b	-0.059705
208	0xbc9b00b8	-0.018921241
209	0xbd9573ea	-0.072974995
210	0x3ccdbada	0.025113512
211	0x3c917627	0.017756535
212	0x3cb11206	0.02161504
213	0xbd299a03	-0.041406643
214	0xbc63a13a	-0.01389342
215	0xbd2efadb	-0.042719703
216	0xbd8be00b	-0.06829842
217	0xbda9a248	-0.08282906
218	0xbd370c42	-0.044689424
219	0x3cb91044	0.022590764
220	0xbd32dbab	-0.043666523
221	0xbd336dcf	-0.043805894
222	0x3b6aaa6e	0.003580715
223	0xbd34ab99	-0.04410896
224	0x3d6fb993	0.058526587
225	0x3d03fa30	0.03222102
226	0x3ca93d03	0.020658975
227	0x3d70ea21	0.058817033
228	0x3cba4257	0.022736711
229	0x3d007768	0.031363875
230	0xbd690d97	-0.056897726
231	0xbd2c9437	-0.042133536
232	0x3d25721d	0.04039203
233	0x3cae443d	0.021272773
234	0x3ca44c7b	0.020056
235	0xbd2eb989	-0.04265741
236	0xbd073087	-0.033005264
237	0xbd97f942	-0.07420589
238	0xbd74c5cf	-0.059758957
239	0xbda0cf40	-0.0785203
240	0xbc91ff8f	-0.017822055
241	0x3bf14d4c	0.007363951
242	0x3d6cc9f6	0.057809792
243	0xbc668bd5	-0.0140714245
244	0xbcb5dfa6	-0.02220137
245	0xbd7edbb8	-0.06222126
246	0x3d000b4e	0.03126078
247	0x3c26bb46	0.010176485
248	0xbd0191a0	-0.03163302
249	0xbbc84b2c	-0.006112477
250	0xbd045e74	-0.03231664
251	0x3d737557	0.059438076
252	0x3d4b7c09	0.049678836
253	0xbd87a2c1	-0.0662284
254	0x39900817	0.00027471848
255	0x3ba1ad92	0.0049340213

shared_net.2.bias f4 [256]
0	0xbd522306	-0.051302932
1	0x3d20593d	0.039147604
2	0x3aa96ecf	0.00129267
3	0x3d78a370	0.06070274
4	0x3d6d28fa	0.057900406
5	0x3c98558d	0.018595481
6	0xbce1676e	-0.02751514
7	0xbd7ac5ea	-0.0612239
8	0x3cc13910	0.02358678
9	0x3ce48f70	0.027900428
10	0x3c41b0c0	0.011821926
11	0xbb52bace	-0.0032154801
12	0x3c99a7de	0.018756803
13	0x3d052f5d	0.032515872
14	0xb9d35678	-0.0004030948
15	0xbaf88e61	-0.0018963331
16	0x3c823e81	0.015898945
17	0x3d5f5db8	0.054532737
18	0x3d30ec34	0.04319401
19	0x3d982582	0.07429029
20	0x3d339056	0.04383882
21	0xbd531427	-0.05153289
22	0x3bbda7b0	0.005787812
23	0x3d1a421b	0.0376607
24	0xbca95b09	-0.020673292
25	0x3d5db080	0.0541234
26	0x3d34731a	0.044055082
27	0xbd65c898	-0.056099504
28	0xbb3a614d	-0.0028439343
29	0xbbda7e4c	-0.006667888
30	0xbb838b60	-0.0040144175
31	0x3d37c552	0.044865914
32	0x3b03ebbd	0.0020129525
33	0xbcaa5b1b	-0.020795396
34	0x3d73c384	0.05951263
35	0xbd4dc06d	-0.05023234
36	0x3d225c6e	0.03963893
37	0xbcfb1f3b	-0.03065454
38	0x3c8c5032	0.017128084
39	0xbcb27655	-0.02178494
40	0x3d45c992	0.048287936
41	0x3d890196	0.066897556
42	0xbc6ff8a4	-0.014646683
43	0xbca1fd3f	-0.019774077
44	0x3d570c30	0.052501857
45	0x3ccf4222	0.02530009
46	0x3d9012c0	0.07034826
47	0x3d5856be	0.0528171
48	0xbcf455fc	-0.029826157
49	0x3c012f84	0.007884864
50	0xbadbc984	-0.001676843
51	0x3d30bedb	0.043150764
52	0x3cd29465	0.025705526
53	0x3dd434d1	0.103616364
54	0x3d2c407b	0.04205368
55	0x3d0d6026	0.034515522
56	0x3cc7f2ed	0.024407828
57	0xbc341035	-0.010990192
58	0xbc7a4e8f	-0.015277519
59	0x3d1d0706	0.038336776
60	0x3cae9d78	0.021315321
61	0xbd13d55c	-0.036092147
62	0x3d6bd2ed	0.0575742
63	0x3d7a3af3	0.061091375
64	0xbc8b3b32	-0.016996
65	0x3d3fbfed	0.046813894
66	0xbd0e1f89	-0.034698043
67	0x3d53fc6b	0.051754396
68	0x3ca1fc18	0.019773528
69	0x3d251d92	0.040311404
70	0xbcb56eab	-0.022147497
71	0x3bad9126	0.005296844
72	0x3d0dd7ed	0.03462975
73	0x3d08176c	0.03322546
74	0x3c7b92f1	0.015354858
75	0x3c5e5c45	0.013571803
76	0x3d748249	0.059694562
77	0x3d6d4986	0.057931446
78	0x3cf5bbe9	0.02999683
79	0x3c619848	0.013769217
80	0x3c4a4849	0.012346336
81	0xbcf3c14c	-0.029755257
82	0xbcda6a10	-0.026661903
83	0xbcf5340f	-0.02993205
84	0xbda93949	-0.082628794
85	0x3cb7d8e5	0.02244229
86	0x3c923889	0.017849224
87	0xbcb296fe	-0.021800514
88	0x3cf5593c	0.029949777
89	0xbca69294	-0.020333566
90	0xbd02e51e	-0.031956784
91	0xbcd7faca	-0.026364703
92	0x3cd5bfca	0.026092429
93	0x3d69537f	0.056964394
94	0x3d79fddb	0.06103311
95	0xbc28f754	-0.010312874
96	0xbd5e116c	-0.054215834
97	0x3d148f87	0.03626969
98	0x3d01c8c9	0.031685624
99	0x3cc38081	0.023864986
100	0x3d22b683	0.039724838
101	0x3ca0f8f9	0.01964997
102	0x3d07cdc6	0.033155225
103	0xbd068722	-0.032843716
104	0x3d39289f	0.045204755
105	0xbd7d88d1	-0.061898056
106	0x3d015ddb	0.03158365
107	0x3cb9562e	0.022624101
108	0x3d4068e3	0.046975028
109	0x3d032d79	0.032025788
110	0xbce2b246	-0.027672898
111	0x3d094c03	0.033519756
112	0xbc69dda1	-0.014274032
113	0xbc5f4d83	-0.01362932
114	0xbc05b602	-0.00816107
115	0xbd1585a8	-0.036504418
116	0xbd3ef867	-0.046623614
117	0xbc5d11c5	-0.013493006
118	0xbcddd3e7	-0.027078582
119	0xbd3d3a32	-0.046198077
120	0x3b5d6286	0.0033780648
121	0x3d6340ef	0.055481847
122	0x3cd81497	0.026377006
123	0x3c5d9d7c	0.013526317
124	0xbca608fa	-0.020267952
125	0xbc82d6ed	-0.015971625
126	0x3d013285	0.03154232
127	0xbd068b77	-0.032847848
128	0xbaa84665	-0.0012838362
129	0x3ceedcaf	0.029157965
130	0x3d5ad06f	0.053421434
131	0xbce794b3	-0.028269148
132	0xbcb580f4	-0.022156216
133	0x3d6de0ba	0.058075644
134	0x3d64f576	0.055898152
135	0x3d742ee6	0.05961504
136	0xbb579b22	-0.0032898863
137	0x3d52fb83	0.05150939
138	0x3d4c7d23	0.049924027
139	0x3d23f869	0.040031824
140	0xbc8f6010	-0.01750186
141	0xbc0458fa	-0.008077854
142	0x3c0bb92d	0.008528036
143	0x3d484227	0.048891213
144	0x3d23433a	0.039859034
145	0xbd6176e1	-0.055045012
146	0xbd42c45e	-0.04755055
147	0xbd526891	-0.051369254
148	0x3d12cacb	0.03583793
149	0x3c559529	0.013036051
150	0x3d35302b	0.04423539
151	0xbba9e074	-0.0051842276
152	0xbc3626ea	-0.011117676
153	0x3cc25315	0.023721257
154	0x3d1e3cdf	0.03863227
155	0x3bd1543b	0.006388215
156	0xbcf60dad	-0.030035818
157	0x3d49108d	0.04908805
158	0xbd0cd060	-0.03437841
159	0x3cd011ce	0.025399115
160	0xbce5beab	-0.02804502
161	0xbcb018f0	-0.021496266
162	0x3d1f124e	0.038835816
163	0x3d1cbeed	0.03826802
164	0xbc24d41d	-0.010060337
165	0xbd2e38ee	-0.04253476
166	0x3b01fd07	0.0019834654
167	0xbd06e93d	-0.032937277
168	0x3ba8cc10	0.0051512793
169	0x3cb1eb73	0.021718716
170	0x3b99290c	0.0046740826
171	0x3d040e89	0.032240424
172	0x3c5f6fb9	0.013637477
173	0xbbe6537d	-0.0070289955
174	0xbd080341	-0.03320623
175	0x3ce6a70b	0.028155824
176	0xbd0a519e	-0.033769242
177	0x3d909d0b	0.070612036
178	0x3d1dacd1	0.03849489
179	0xbc4ebc8e	-0.012618197
180	0xbc6459c4	-0.013937417
181	0xbd0c2447	-0.034214284
182	0x3d73c039	0.05950949
183	0xbc268579	-0.010163658
184	0xbc713960	-0.014723152
185	0xbd5fcc97	-0.05463847
186	0x3c469f66	0.0121229645
187	0x3da354a9	0.07975132
188	0xbca2a332	-0.019853208
189	0x3d17f143	0.03709532
190	0x3c110e8f	0.008853569
191	0x3d9c294d	0.07625065
192	0xbc0109ff	-0.007875918
193	0x3cae57e4	0.021282144
194	0x3cc48177	0.023987515
195	0x3d3d5296	0.04622134
196	0x3c510e11	0.012759701
197	0xbc517816	-0.012784978
198	0x3d120143	0.035645735
199	0x3d22c812	0.039741583
200	0xbd817a09	-0.063221045
201	0x3d70b51f	0.05876648
202	0x3d89c4ef	0.06727015
203	0x3ce9b9c9	0.028530972
204	0xbd1af9f8	-0.037836045
205	0x3cb5259a	0.022112656
206	0x3cae88ee	0.021305528
207	0xbc6a5062	-0.014301391
208	0x3c4ff4de	0.012692658
209	0x3d08e42c	0.033420727
210	0x3bfb602b	0.007671376
211	0xbcda667b	-0.026660195
212	0xbc6423d2	-0.013924556
213	0x3d0d1548	0.034444124
214	0xbbcef53c	-0.0063158553
215	0xbcf5c3d7	-0.03000061
216	0x3c50f2a1	0.01275316
217	0xbd4943b3	-0.04913683
218	0x3d2da951	0.0423978
219	0x3c69f9fc	0.014280792
220	0x3d54ed40	0.05198407
221	0x3d2cf40b	0.042224925
222	0xbc786113	-0.015159863
223	0xbc698f7d	-0.014255402
224	0x3a341b7a	0.00068705494
225	0xbcb91129	-0.02259119
226	0x3cacd2b0	0.021096557
227	0xbd09c336	-0.033633433
228	0x3d1f11e6	0.03883543
229	0x3d8eddd7	0.06975906
230	0xbb8ed9f0	-0.0043594763
231	0x3c81d5dd	0.015849048
232	0x3d58af64	0.05290164
233	0x3d348296	0.04406985
234	0xbc9adc22	-0.018903796
235	0x3d7235cf	0.059133347
236	0x3d06827e	0.03283929
237	0x3d525971	0.05135483
238	0x3b0e67e4	0.0021729404
239	0x3d88b67e	0.066754326
240	0x3c5a4492	0.0133220125
241	0x3d022059	0.03176913
242	0x3d608904	0.05481817
243	0x3d3f9f19	0.046782587
244	0x3c8c9177	0.017159207
245	0x3d82658e	0.06367026
246	0xbd17ffe6	-0.03710928
247	0x3d8b8b0d	0.06813631
248	0x3d19f54b	0.037587445
249	0xbd49360b	-0.049123805
250	0xbcf7d116	-0.030251067
251	0x3d15b1e1	0.03654659
252	0x3daceab4	0.084432036
253	0xbcced977	-0.02525018
254	0x3d82583f	0.06364488
255	0x3ccc8344	0.024964936

to_mean.0.weight f4 [256, 256]
0	0xbd32f88d	-0.043694068
1	0xbcf6161b	-0.030039838
2	0x3d969eb8	0.07354492
3	0x3cae611d	0.021286542
4	0xbb9661ee	-0.004589311
5	0xbd74f23c	-0.059801325
6	0x3d229a45	0.039697904
7	0x3d396d0c	0.04527001
8	0xbd513726	-0.051077984
9	0x3d4546c1	0.04816318
10	0x3c62e32a	0.013848105
11	0x3ca79e9b	0.020461371
12	0xbcc4eaf2	-0.024037812
13	0x3d13d158	0.036088318
14	0xbd2f0423	-0.042728554
15	0x3c86be27	0.016448094
16	0x3b8c90d3	0.0042897253
17	0x3d59c369	0.053164873
18	0xbce0a1a8	-0.027420834
19	0x3d79f4c8	0.061024457
20	0xbd3ee307	-0.04660323
21	0xbbd192ca	-0.0063956724
22	0x3d1c5d8b	0.038175147
23	0xbd0992c3	-0.03358723
24	0xbcff6dab	-0.031180223
25	0xbd5a900c	-0.05336003
26	0x3d3f7232	0.046739765
27	0xbd592d2f	-0.053021606
28	0x3cce32de	0.02517074
29	0xbc4a4ea9	-0.012347856
30	0xbc550365	-0.013001298
31	0xbcc36256	-0.023850601
32	0xbd516db9	-0.05113003
33	0xbd77a60f	-0.0604611
34	0xbc2ca4f6	-0.010537377
35	0xbc92139b	-0.017831614
36	0x3c12f188	0.008968718
37	0xbd17b92f	-0.03704184
38	0x3cba5f7d	0.02275061
39	0x3d4ca01a	0.049957372
40	0x3d1ac316	0.037783705
41	0x3d30b89d	0.04314481
42	0x3d6d2fae	0.0579068
43	0xbd16138a	-0.036639728
44	0x3cc812b4	0.02442298
45	0xba877088	-0.001033322
46	0x3d33f7a7	0.04393735
47	0xbce019d0	-0.027356058
48	0xbd52df6d	-0.051482607
49	0xbd907d9c	-0.07055208
50	0x3d38b165	0.04509105
51	0x3bebcda4	0.007196145
52	0x3b20c6b4	0.0024532499
53	0x3d45007e	0.048096173
54	0xbd2cc8a7	-0.042183544
55	0x3ccde348	0.02513279
56	0xbd7ed13d	-0.062211264
57	0xbbf32fca	-0.0074214684
58	0x3d98ef01	0.074674614
59	0x3c873edb	0.016509464
60	0xbd057bdd	-0.03258883
61	0x3d3f05c1	0.046636347
62	0x3d575aef	0.052576955
63	0xbd48eb07	-0.049052265
64	0x3d4f016a	0.050538458
65	0x3c8f2bea	0.017476995
66	0xbb728884	-0.003700764
67	0x3d5f29ae	0.05448311
68	0xbc5429cb	-0.012949417
69	0xbd1c54e8	-0.03816691
70	0x3cfa60df	0.03056377
71	0x3d0217c9	0.031760965
72	0x3d156124	0.036469594
73	0xbd7226b6	-0.05911895
74	0x3d38289f	0.044960614
75	0x3d3e5dfc	0.04647635
76	0x3d4c49ee	0.049875192
77	0x3c152875	0.009103884
78	0xbd406cd9	-0.046978805
79	0xbcdc66fa	-0.026904572
80	0xbd3cd856	-0.04610475
81	0x3b0d3b04	0.0021550069
82	0x3c0c704c	0.008571696
83	0xbd4e1c94	-0.050320223
84	0x3d8b75d7	0.068095855
85	0xbd6a3217	-0.057176676
86	0xbd4cab67	-0.04996815
87	0x3d113bd9	0.035457466
88	0xbd6c2892	-0.05765588
89	0x3c7b4ff2	0.015338885
90	0xbd2da53e	-0.042393915
91	0x3c3a1ef9	0.0113599235
92	0xbafffa3e	-0.0019529534
93	0x3c88b8ca	0.016689677
94	0x3d318bd9	0.04334626
95	0x3d58a5db	0.052892547
96	0x3c97bbf2	0.018522236
97	0x3b41ec1f	0.0029590202
98	0x3b0456cf	0.0020193344
99	0xbd03f3f3	-0.03221507
100	0xbcb00fe4	-0.021491952
101	0x3c96b7a1	0.018398108
102	0x3d59be62	0.05316008
103	0x3d479d3e	0.048733942
104	0xbda31266	-0.079624936
105	0xbd62825b	-0.055300098
106	0xbc55072c	-0.013002198
107	0xbc7747e6	-0.0150928255
108	0x3d322984	0.043496624
109	0x3d3eff8c	0.046630427
110	0xbd4457ca	-0.047935285
111	0x3d590227	0.05298057
112	0xbb8f0fd1	-0.004365899
113	0xbd31875a	-0.043341972
114	0xbc2cdb18	-0.010550283
115	0xba9565a0	-0.0011398084
116	0x3b74fc70	0.003738191
117	0xbd02fe48	-0.031980783
118	0xbc4ddda4	-0.01256505
119	0xba5b61ca	-0.0008368759
120	0x3cc24503	0.023714548
121	0xba03a59d	-0.0005021932
122	0x3d469f66	0.048491858
123	0x3cc3b67b	0.023890724
124	0xbceb5e6b	-0.028731545
125	0xbd644152	-0.055726357
126	0xbd0b25d4	-0.033971623
127	0x3d336d68	0.04380551
128	0x3cfb9d24	0.030714579
129	0x3d4d4905	0.050118465
130	0xbc555a1b	-0.013021971
131	0x3cad789f	0.02117568
132	0x3d1dff6d	0.03857367
133	0xbd544e17	-0.051832285
134	0xbd171c44	-0.03689219
135	0xbd048f0b	-0.03236298
136	0xbd34c4fc	-0.04413317
137	0x3d5c5900	0.053795815
138	0x3d1a4520	0.03766358
139	0xbd5ecfb0	-0.054397285
140	0xbd84eafd	-0.06490133
141	0x3c891c5e	0.01673716
142	0x3d336ae4	0.04380311
143	0xbd102cae	-0.03519886
144	0xbcc5a286	-0.024125349
145	0xbb334973	-0.0027357012
146	0xbcb5e2fc	-0.022202961
147	0x3cac4c1f	0.021032391
148	0x3cf71025	0.030159065
149	0xbd24f015	-0.040268023
150	0xbd5b28ed	-0.053505827
151	0xbd75aae1	-0.059977416
152	0x3ba6f0dd	0.005094631
153	0x3d35a050	0.04434234
154	0xbd949dc8	-0.07256657
155	0x3d0c0343	0.034182798
156	0x3d877aff	0.066152565
157	0x3d1c5cbc	0.038174376
158	0x3c3ba43c	0.011452731
159	0x3d306b6e	0.043071203
160	0xbd3b8f47	-0.045790937
161	0xbd20efdb	-0.039291244
162	0x3cb53aee	0.022122826
163	0xbb8b7c7d	-0.0042567835
164	0x3c75daf2	0.015005814
165	0xbcc66ed3	-0.024222767
166	0x3d634c3b	0.05549262
167	0x3d21c87b	0.039497834
168	0xbd46c326	-0.04852595
169	0x3c67e0d8	0.014152728
170	0x3d66d3de	0.056354396
171	0xbd10c069	-0.035339747
172	0xbc459f38	-0.0120618865
173	0xbd30dd0d	-0.04317956
174	0x3c3d4041	0.011550964
175	0x3d242cad	0.04008167
176	0x3d66e9db	0.056375366
177	0xbcd9bab7	-0.02657829
178	0x3d9fca8e	0.07802306
179	0x3be130d8	0.0068722777
180	0xbcebf738	-0.028804407
181	0x3d6b02ee	0.05737584
182	0xbd8d5c39	-0.06902356
183	0x3cf9729f	0.030450163
184	0xbc798c52	-0.015231209
185	0x3d0e95c1	0.034810785
186	0xbbe463ec	-0.0069699194
187	0xbd68ffe5	-0.056884665
188	0xbd16f679	-0.03685615
189	0x3cb15825	0.021648476
190	0xbd41512c	-0.047196552
191	0x3ced9a92	0.029004369
192	0x3d69d316	0.057086073
193	0xbac932e0	-0.0015350245
194	0xbc5e8333	-0.013581085
195	0x3d656a5b	0.05600963
196	0xbd1aa391	-0.037753645
197	0x3c206823	0.009790453
198	0xbcae9ca1	-0.02131492
199	0xbcba8ef0	-0.022773236
200	0xbb6bf923	-0.0036006651
201	0x3c7b4eb1	0.015338586
202	0xbc73432b	-0.014847557
203	0x3d3a2f32	0.045455165
204	0x3cb68b7c	0.022283308
205	0x3d494810	0.04914099
206	0x3cae92fa	0.021310318
207	0xbaf3f327	-0.0018611894
208	0xbd285450	-0.04109603
209	0x3cec555c	0.028849296
210	0xbcad96e1	-0.021190109
211	0x3b9e3c25	0.004828947
212	0x3d2cd38a	0.042193927
213	0x3ab5a436	0.0013858143
214	0xbcb1b946	-0.02169479
215	0x3d9c9ba1	0.07646871
216	0x3d3a9908	0.0455561
217	0xbd7d0455	-0.06177171
218	0xbce1ec6e	-0.027578559
219	0x3d0421d3	0.03225882
220	0x3aad80f9	0.0013237289
221	0xbd96e89e	-0.07368587
222	0x3cf9e607	0.030505193
223	0xbd6a232a	-0.05716244
224	0x3d4c1e51	0.0498336
225	0x3d74e5c0	0.05978942
226	0x3d593500	0.05302906
227	0xbacdd91c	-0.0015704962
228	0xbc7c1b09	-0.015387305
229	0xbcee9843	-0.029125338
230	0x3c35c14a	0.011093447
231	0x3d509cfb	0.05093096
232	0xbd6fce11	-0.05854613
233	0x3d80eb4a	0.06294878
234	0xbd3609f5	-0.04444309
235	0x3ce4a7b2	0.027911995
236	0xbbf23893	-0.007391998
237	0xbc815300	-0.015786648
238	0x3c064cae	0.008196993
239	0xbb846232	-0.004040026
240	0xbb8532b7	-0.0040648836
241	0xbc82752d	-0.015925014
242	0xbcf107fb	-0.02942275
243	0xbcd71131	-0.026253315
244	0xbcfb7cdb	-0.030699184
245	0xbd4d5048	-0.05012539
246	0x3bce8fc9	0.0063037616
247	0xbc8ef7b5	-0.0174521
248	0xbb236bf9	-0.0024936183
249	0xbc45d8ab	-0.012075583
250	0xbd8ad613	-0.06779113
251	0x3b8958d1	0.004191496
252	0x3cf9e2e3	0.030503696
253	0x3d0dda54	0.034632042
254	0x3c08409e	0.008316187
255	0x3d3e3203	0.046434414

to_mean.0.bias f4 [256]
0	0xbd951cf0	-0.0728091
1	0xbd2e242a	-0.042514957
2	0xbd8a8219	-0.067630954
3	0x3c87a04b	0.016555926
4	0x3d1ec211	0.038759295
5	0x3d48d2a5	0.04902901
6	0xbc033668	-0.008008577
7	0xbcabb248	-0.020959035
8	0x3cdf5f2b	0.02726706
9	0x3d06a07d	0.032867897
10	0xbcc18506	-0.023623
11	0xbcbd6128	-0.023117617
12	0x3d907962	0.07054402
13	0x3ce56234	0.028000928
14	0x3cc957a4	0.024577923
15	0xbc9cdda6	-0.019148659
16	0xbcb01bce	-0.021497633
17	0xbd550a6a	-0.052011885
18	0xbc8513fe	-0.016244885
19	0x3d5036d6	0.050833546
20	0x3cb2733e	0.021783467
21	0x3d0108c4	0.0315025
22	0x3b96fcea	0.0046077864
23	0xbd1a5d1f	-0.037686463
24	0xbcb2d5d7	-0.021830482
25	0xbbee96d4	-0.0072811637
26	0xbd05cc0f	-0.03266531
27	0x3bf069c2	0.007336826
28	0xbd05c95a	-0.032662727
29	0x3c0d7064	0.008632753
30	0x3cddc46b	0.027071198
31	0xbcd52d01	-0.026022436
32	0xbd2e5e47	-0.04257038
33	0xbb86691c	-0.0041018855
34	0xbd6310d4	-0.05543597
35	0xbcdd8a8a	-0.0270436
36	0x3d4ae773	0.049537133
37	0xbd8ccd5b	-0.06875106
38	0x3d3281e6	0.043580912
39	0xbd683725	-0.056693215
40	0x3a43de00	0.000747174
41	0x3c7886fe	0.015168903
42	0x3d5e65ba	0.054296233
43	0x3d832e19	0.06405277
44	0x3caa0140	0.02075255
45	0xbcdb01dd	-0.026734287
46	0x3cfc9743	0.030833846
47	0xbd26dd5b	-0.040738445
48	0x3cceb182	0.025231127
49	0xbd11892c	-0.035531208
50	0x3d06f0ef	0.032944616
51	0x3aafb526	0.0013405427
52	0xbbfcf2f1	-0.0077193906
53	0xbd1bfe3a	-0.038084246
54	0xbca678d2	-0.020321283
55	0x3d692e92	0.05692918
56	0xbd0e7345	-0.0347779
57	0x3b8dd7e8	0.0043287165
58	0x3c874e09	0.016516702
59	0x3c896c72	0.016775344
60	0x3d0e6dd3	0.034772705
61	0xbcb2e217	-0.021836324
62	0xbc00c9c7	-0.0078606075
63	0x3d136542	0.03598524
64	0xbd0ecda8	-0.034864098
65	0x3d4e5141	0.05037046
66	0xbcd0361c	-0.025416426
67	0xbd791b36	-0.060816966
68	0xbc63b93c	-0.013899144
69	0x3c68abc0	0.014201105
70	0xbd17eaa4	-0.037089005
71	0x3c3f22b7	0.0116659915
72	0xb9b3ce80	-0.00034295395
73	0x3c12e40b	0.0089655025
74	0x3ccba912	0.024860892
75	0x3d447891	0.047966544
76	0x3d2bfeac	0.04199092
77	0xbd2f9b79	-0.04287288
78	0xbd3e9be0	-0.046535373
79	0xbc955df1	-0.018233271
80	0x3c971835	0.01844416
81	0x3cc8056f	0.024416653
82	0xbd10a480	-0.03531313
83	0xbd0f945f	-0.035053607
84	0x3ce30084	0.027710207
85	0x3d82c615	0.063854374
86	0xbc6f9a55	-0.014624198
87	0xbd08fa50	-0.03344184
88	0xbd273694	-0.040823534
89	0x3d1d1eea	0.03835956
90	0x3d0261b7	0.03183147
91	0xbd41ee80	-0.047346592
92	0x3d78f130	0.06077689
93	0x3bc9b4d8	0.0061555915
94	0xbbce0838	-0.006287601
95	0x3d02299d	0.031777967
96	0xbcb14e7a	-0.021643866
97	0x3d01bc3e	0.031673662
98	0xbc18c74d	-0.009324861
99	0xbc8ca728	-0.01716955
100	0xbd50bd54	-0.050961807
101	0x3ca6f253	0.020379221
102	0xbc7d457f	-0.015458464
103	0x3c4886f6	0.012239208
104	0xbc9cc41f	-0.019136487
105	0x3c76eab5	0.015070607
106	0x3b9dc81f	0.004815116
107	0x3c1e701b	0.009670283
108	0xbcd57948	-0.026058808
109	0x3c9ec1c6	0.019379508
110	0x3c9b0e25	0.018927643
111	0x3c988c5d	0.018621618
112	0x3d7a9556	0.061177574
113	0xbd783ea2	-0.060606606
114	0x3c809711	0.015697034
115	0xbd1823ab	-0.03714339
116	0x3cb9cce4	0.022680707
117	0x3ce5c029	0.02804573
118	0x3c55de89	0.013053545
119	0x3d3cbd0a	0.04607872
120	0xbcfec708	-0.031100765
121	0xbc6bcafb	-0.014391656
122	0x3c3395c0	0.010960996
123	0x3b21f180	0.0024710596
124	0xba22b637	-0.00062069617
125	0x3d6c8f55	0.05775388
126	0x3c4b327f	0.012402176
127	0xbd6649aa	-0.056222595
128	0xbc8d910c	-0.017281078
129	0xbd11e61b	-0.035619836
130	0x3ccbbed2	0.024871264
131	0x3d4a91f3	0.049455594
132	0xbca34f98	-0.019935414
133	0x3cb49f3e	0.022048589
134	0x3cd16cbc	0.025564544
135	0x3d1119ba	0.035424925
136	0x3d0b334f	0.03398448
137	0x3c50b164	0.012737606
138	0x3d2109d5	0.039316017
139	0xbcc074a0	-0.023493111
140	0x3c37a652	0.011209087
141	0xbcb4b0fb	-0.022057047
142	0xbc35f7ab	-0.011106412
143	0x3c8cadac	0.017172657
144	0x3d4d3569	0.050099764
145	0xbd11b9ae	-0.03557747
146	0xbc041873	-0.00806247
147	0x3cb3f1b1	0.021965833
148	0xb7be6e3f	-2.2701102e-05
149	0x3d81043b	0.06299635
150	0x3d656415	0.05600365
151	0xbc5cd1ab	-0.013477723
152	0x3d97e08d	0.074158765
153	0x3d42e4de	0.047581546
154	0xbd8ddc93	-0.06926837
155	0xbd25534d	-0.040362645
156	0x3daeff67	0.08544808
157	0x3baa2fd9	0.005193692
158	0x3d9462ae	0.07245384
159	0x3ce5423d	0.027985686
160	0xbd8dffc4	-0.06933549
161	0x3b189017	0.0023279244
162	0xbb260721	-0.002533384
163	0x3d401026	0.0468904
164	0x3ab5c3a6	0.0013867512
165	0x3c97fe22	0.018553797
166	0xbca51805	-0.020153055
167	0x3d283eef	0.041075643
168	0xbbdc03f5	-0.006714339
169	0xb9932e1a	-0.00028072373
170	0xbd0281ad	-0.03186195
171	0xbbf47012	-0.007459649
172	0x3c952aea	0.01820894
173	0xbcea1b05	-0.028577337
174	0xbc173e2f	-0.009231134
175	0x3d01daa4	0.031702653
176	0x3c9ca5dc	0.019122057
177	0x3bb118f5	0.0054045864
178	0x3ca2d0e8	0.019875005
179	0x3caa06e7	0.020755244
180	0xb97625fc	-0.00023474538
181	0x3c3545f8	0.011064045
182	0xbd7c53ff	-0.061603542
183	0x3d103928	0.03521076
184	0x3c1cd581	0.009572388
185	0xbd054fc3	-0.03254677
186	0xbd6aa384	-0.057284847
187	0xbd264dec	-0.040601656
188	0x3cfd6c84	0.030935533
189	0x3c96ab23	0.018392151
190	0x3cb81055	0.022468725
191	0x3bd3d27d	0.006464301
192	0xbc8f7dc5	-0.017516026
193	0xbca88619	-0.020571755
194	0xbd763f69	-0.060119066
195	0xbc7e35c2	-0.015515747
196	0xbd15b98c	-0.036553904
197	0x3d391493	0.045185637
198	0xbca339fb	-0.019925108
199	0xbd38ab02	-0.04508496
200	0xbd03dd10	-0.032193244
201	0xbc7e00e0	-0.015503138
202	0x3d0bbf07	0.034117725
203	0x3d844cff	0.06459998
204	0xbc5a8513	-0.013337391
205	0xbb827b40	-0.0039819777
206	0x3ce65786	0.028117906
207	0x3d0cd0b8	0.034378737
208	0x3c35c1aa	0.011093536
209	0xbd57126d	-0.052507807
210	0x3d42b280	0.047533512
211	0xbc8bd672	-0.017070029
212	0xba92a3ce	-0.0011187734
213	0xbcc353a0	-0.023843586
214	0x3bd3d808	0.006464962
215	0x3d34c1e5	0.044130225
216	0x3cced47c	0.025247805
217	0xbd193453	-0.037403416
218	0xbce9d842	-0.028545503
219	0x3d2a096f	0.041512903
220	0x3d90f5e5	0.07078151
221	0x3caed565	0.021341989
222	0x3d428878	0.047493428
223	0xbb40c16b	-0.002941216
224	0xbca2f14f	-0.019890456
225	0xbd04a207	-0.032381084
226	0x3d617fb0	0.055053413
227	0xbbd050cc	-0.006357288
228	0x3cc93da3	0.024565523
229	0x3ce40c07	0.027837766
230	0x3d4a5100	0.049393654
231	0x3cbb0cb3	0.022833204
232	0xbd82f3f0	-0.06394184
233	0xbc64ae62	-0.013957592
234	0xbc835712	-0.01603273
235	0xbd493493	-0.049122404
236	0x3b078c60	0.0020683035
237	0xbd5f6eb9	-0.054548953
238	0x3ce0cfa6	0.027442764
239	0xbd306038	-0.04306051
240	0x3d6c8602	0.057744987
241	0xbd3a5cf8	-0.04549882
242	0xbd1b5e82	-0.037931927
243	0x3d4ab2a9	0.04948679
244	0x3d331a4d	0.043726254
245	0x3c89bf38	0.016814813
246	0xbc9255d2	-0.017863188
247	0x3c2c9b10	0.010535017
248	0xbc4a2e3f	-0.0123401275
249	0x3ce44d61	0.027868928
250	0x3d31a59f	0.04337084
251	0xbcddd21d	-0.027077729
252	0x3d595b93	0.053065848
253	0xbd0fd532	-0.03511543
254	0x3ba24470	0.004952006
255	0x3b179c4d	0.0023133934

to_mean.2.weight f4 [18, 256]
0	0xbbc4d919	-0.0060073254
1	0xbd4c04f2	-0.049809404
2	0x3d0c4698	0.03424701
3	0x3d1ae9da	0.037820674
4	0xbcd100ac	-0.025513016
5	0x3d603536	0.054738246
6	0x3d3d1c46	0.04616954
7	0xbced4454	-0.028963245
8	0xbd336991	-0.043801848
9	0xbd484956	-0.048898064
10	0x3d9174f3	0.071023844
11	0xbd2fe1f4	-0.042940095
12	0xbd224e9b	-0.039625745
13	0xbce22907	-0.027607454
14	0x3cf53046	0.029930245
15	0xbc701c48	-0.01465518
16	0x3ce644b9	0.028108941
17	0x3d551b6b	0.0520281
18	0x3caa2f33	0.02077446
19	0xbd86ebc7	-0.0658794
20	0xbd892e9a	-0.06698342
21	0x3cf4d62a	0.029887278
22	0x3cd83fd2	0.02639762
23	0xbcccdc2d	-0.025007332
24	0xbd84ab5e	-0.06477998
25	0x3bd035aa	0.0063540535
26	0xbd266efa	-0.04063318
27	0x3ca27619	0.019831704
28	0x3d29f53e	0.041493647
29	0x3c88410d	0.016632581
30	0x3d59defd	0.053191174
31	0xbca2929e	-0.019845303
32	0x3d5cc02b	0.053894203
33	0xbd89e64b	-0.06733378
34	0x3d1cf080	0.038315296
35	0xbd8ceca9	-0.06881077
36	0x3d458931	0.04822654
37	0x3c587b45	0.0132129835
38	0x3cc7d666	0.024394225
39	0xbc00faa6	-0.007872259
40	0x3d08cc55	0.03339799
41	0x3d6ce765	0.057837863
42	0xbd7867e3	-0.06064595
43	0x3d2399e9	0.039941702
44	0x3ba8c581	0.0051504974
45	0x3d11defa	0.035613038
46	0x3c5e91e2	0.013584586
47	0x3c8be6c2	0.017077807
48	0x3b0ba4e1	0.0021307992
49	0x3cf950dc	0.030434065
50	0xbd3c69a8	-0.0459992
51	0xbd4e1487	-0.050312545
52	0x3d74a489	0.059727225
53	0xbc62239a	-0.013802433
54	0x3d5b4ba1	0.053538922
55	0x3d3d15e0	0.04616344
56	0xbbcbcf56	-0.0062197847
57	0xbd8ce838	-0.0688023
58	0x3d48d2c5	0.04902913
59	0x3caa087d	0.020756
60	0x3c210080	0.009826779
61	0xbb677941	-0.0035320076
62	0xbc0014d9	-0.0078174705
63	0x3ceff203	0.029290205
64	0x3b571cff	0.003282368
65	0xbbaa9ce0	-0.0052066892
66	0xbcacafcb	-0.021079918
67	0x3d86f491	0.06589616
68	0xbc15f70b	-0.009153138
69	0xbd07e441	-0.033176664
70	0xbd80b6d0	-0.06284869
71	0xbbdf63d1	-0.006817319
72	0xbd0f3b58	-0.034968704
73	0xbd60011a	-0.05468855
74	0xbbbe55cd	-0.005808568
75	0xbc304e95	-0.010760923
76	0xbd4ae194	-0.049531534
77	0x3cdc5e5d	0.026900465
78	0xbcf7fe28	-0.030272558
79	0x3d083e06	0.033262275
80	0x3d8bcfd3	0.06826749
81	0x3d508794	0.050910547
82	0x3d0f3b31	0.03496856
83	0x3d212f63	0.039351832
84	0x3d7114c4	0.058857694
85	0xbb40e358	-0.0029432382
86	0xbcea3f20	-0.028594553
87	0xbcfdd8ef	-0.030987231
88	0x3c7b9a84	0.015356664
89	0x3d40e1b4	0.047090247
90	0xbd91c427	-0.07117491
91	0xbb982012	-0.004642495
92	0x3c0253d8	0.00795456
93	0xbd39ca7f	-0.04535913
94	0xbd319c73	-0.043362092
95	0x3c10584f	0.008810117
96	0xbb8c80cc	-0.0042878147
97	0xbd80fa19	-0.06297702
98	0xbd0aa904	-0.033852592
99	0x3d6846d5	0.056708176
100	0x3c4ce857	0.012506566
101	0xbd25d88b	-0.040489715
102	0x3cf6637f	0.03007674
103	0x3c94ac3f	0.01814854
104	0x3d01037f	0.031497475
105	0xbbb2dc92	-0.005458423
106	0x3d2ff6ef	0.042960104
107	0xbc9eda8c	-0.01939132
108	0xbd235453	-0.03987534
109	0x3ca7cca4	0.020483322
110	0xbd3d6a39	-0.04624388
111	0xbcb4cb79	-0.02206968
112	0x3c6fdaf2	0.014639603
113	0x3d041f27	0.03225627
114	0x3d6c0655	0.057623226
115	0x3d2fb018	0.042892545
116	0x3d9d0b16	0.0766813
117	0xbd163412	-0.036670752
118	0x3d11ed59	0.035626743
119	0xbcb20a62	-0.021733467
120	0xbcb4cdc0	-0.022070765
121	0x3d2a7058	0.041611046
122	0x3d2ed643	0.042684805
123	0x3d13879d	0.036018003
124	0x3c7f39f5	0.015577783
125	0xbd0b0fb5	-0.033950526
126	0xbbcd9c75	-0.0062747546
127	0xbd47a49d	-0.04874097
128	0xbb6c97cc	-0.003610122
129	0xbd81443d	-0.063118435
130	0xbd264ebb	-0.040602427
131	0xbbe25e3f	-0.0069082077
132	0xbd52e008	-0.051483184
133	0xbd85a1dc	-0.06525013
134	0xbb6e0f94	-0.0036325203
135	0x3c8f8453	0.017519152
136	0xbd64d1a8	-0.055864006
137	0x3c9e6b5d	0.019338304
138	0xbd04b5ae	-0.032399826
139	0xbc0dbe3f	-0.008651315
140	0xbd52bb6e	-0.051448278
141	0xbc5c14df	-0.01343271
142	0x3d1d63c8	0.038425237
143	0x3d7e0407	0.06201556
144	0x3d57ea83	0.052713882
145	0x3d919d5f	0.07110094
146	0xbd0ddeae	-0.034636192
147	0x3c3e70cd	0.0116235735
148	0x3d8fd268	0.07022554
149	0xbc572692	-0.0131317545
150	0x3cede350	0.029039055
151	0xbd748788	-0.059699565
152	0xbca656c6	-0.020305049
153	0xbd4116c6	-0.04714086
154	0x3b743f6a	0.0037269243
155	0x3b4a378f	0.003085587
156	0x3d0edd3a	0.034878947
157	0x3d3eec21	0.04661191
158	0xbd10890f	-0.03528696
159	0xbd5f3bbf	-0.054500338
160	0xbca3b9ab	-0.019985994
161	0xbcd2b441	-0.025720717
162	0xbd7693b5	-0.06019946
163	0xbc9f8d1d	-0.019476468
164	0x3cfd5226	0.03092296
165	0x3bf814e4	0.0075708497
166	0x3be3bc9e	0.006949975
167	0xbaac45cd	-0.0013143361
168	0x3d7149ee	0.058908395
169	0x3d486fa5	0.048934598
170	0x3c8029a4	0.015644856
171	0x3d1b53df	0.037921783
172	0x3d1f89fb	0.038949948
173	0xbd49c2fb	-0.049258213
174	0xbd306f60	-0.043074965
175	0xbbcf55fc	-0.006327389
176	0xbccab831	-0.024746032
177	0x3c21089b	0.009828712
178	0x3d6b870f	0.05750185
179	0x3d38706a	0.04502908
180	0x3c4d994c	0.012548756
181	0xbcc11eda	-0.023574281
182	0x3ca10147	0.01965393
183	0x3c0403a9	0.008057513
184	0x3d0c73ec	0.03429024
185	0xbd01eaed	-0.031718183
186	0xbd5bf8fb	-0.053704243
187	0x3ce99101	0.028511526
188	0xbbf23464	-0.0073914994
189	0x3ccbeaa8	0.024892166
190	0xbc8ac5aa	-0.016939957
191	0xbd0f9cf4	-0.03506179
192	0x3d7501a0	0.059816003
193	0x3b5597f9	0.0032591803
194	0x3d7e96f9	0.062155697
195	0x3d4b6c10	0.049663603
196	0xbd56686c	-0.05234568
197	0xbb7dc3c0	-0.0038721412
198	0x3d5e842e	0.054325275
199	0x3d3c366f	0.04595035
200	0xbd5b6723	-0.053565156
201	0x3d7b5c91	0.061367575
202	0xbd356203	-0.044282924
203	0x3cf82ec3	0.030295735
204	0xbc448bc9	-0.011996218
205	0xbd60b0d8	-0.05485615
206	0x3bf10fc7	0.007356617
207	0x3d23e41c	0.040012464
208	0x3d5179d5	0.05114158
209	0xbd74da7d	-0.05977868
210	0x3b267fba	0.002540572
211	0x3c929dad	0.017897451
212	0x3d37bb88	0.044856578
213	0xbd0978f3	-0.03356261
214	0x3c32e1a3	0.010918054
215	0x3c34d74e	0.011037661
216	0xbba15193	-0.0049230545
217	0x3cbbd043	0.022926455
218	0xbcd2e666	-0.025744628
219	0x3cbb65d1	0.022875698
220	0xbd405469	-0.0469555
221	0xbc5e2ae4	-0.013560031
222	0x3d285a60	0.041101813
223	0x3d1c7dd9	0.038205955
224	0xbac4efe4	-0.0015025106
225	0x3d2e8126	0.042603634
226	0xbca0c5e2	-0.019625608
227	0x3d745b2b	0.059657257
228	0xbc412aba	-0.011789972
229	0xbd42276f	-0.047400888
230	0x3d24c015	0.040222246
231	0xbbc68019	-0.006057751
232	0xbb813b76	-0.003943856
233	0x3c91c657	0.017794771
234	0x3c3ce40e	0.011528982
235	0x3cccd822	0.025005404
236	0xbcd965d1	-0.026537808
237	0x3d245a17	0.04012498
238	0xbc0ca864	-0.008585069
239	0xbd88155b	-0.06644698
240	0xbc9df367	-0.019281102
241	0x3d924468	0.07141954
242	0xbd515d3c	-0.051114306
243	0x3d6a2acd	0.057169724
244	0x3d083c0d	0.033260394
245	0x3cc052d9	0.023477005
246	0xbd7da2df	-0.061922904
247	0x3cd9c676	0.026583891
248	0x3ca54517	0.020174546
249	0x3d142968	0.0361723
250	0xbc05f72f	-0.008176609
251	0x3d0984c6	0.03357389
252	0xbd8400f5	-0.06445495
253	0x3d38a379	0.045077775
254	0xbd1dc41a	-0.038517095
255	0xbcc43f87	-0.023956073

to_mean.2.bias f4 [18]
0	0x3d2fd0c6	0.04292371
1	0x3b6eb4b7	0.0036423632
2	0x3ab64281	0.0013905318
3	0xbd53874a	-0.051642694
4	0x3c848d92	0.016180787
5	0xbc9526f7	-0.018207056
6	0x3ce59a7c	0.028027765
7	0xbaa970cf	-0.0012927296
8	0x3d6b5e9b	0.05746327
9	0x3c9e37e0	0.019313753
10	0xbcb5d1c9	-0.02219476
11	0x3d1bc723	0.03803171
12	0x3c9fc3a3	0.019502467
13	0xbbc4e6e7	-0.006008971
14	0x3d3ea168	0.046540648
15	0xbd481d3c	-0.048856005
16	0xbd6307c6	-0.055427335
17	0x3d8f3ef8	0.06994432
