save3_1_23/save2_Standing_27600.pth (torch, 942043 bytes, 11 tensors)

shared_net.0.weight f4 [512, 67]
00000000: 7446 973c 975e 87bd c6cc 9dbd 9ee1 e2bd
00000010: bca9 9abd 8fde 8abd 0840 ac3a 0c0c d53d
00000020: ccf8 a33d 7527 ce3c 8b1d efbf 639f cdbc
00000030: a6ab abbe 4f6d 36be eb0b a93d a77c dc3d
00000040: 4a80 84bc d921 7c3d a1d0 8fbd ba6f 36bd
00000050: a7bf 203c 73f3 283e f7c9 043e d8ee b13e
00000060: e3ef c93c bae3 8e3c a711 5fbe cd6c 4ebb
00000070: 8e13 bfbd dc26 77bd 148f c8ba 76fc 443b
00000080: 6d4e 58bc 1805 40ba 248e 36bb 5441 8d3b
00000090: 28d2 8e3b 932b dd3c 45e7 9dbc 3387 923c
000000a0: eed2 dfbc 6085 d83b 051a 3cbc 48c6 b03c
000000b0: ea44 c4bc de02 f2bb c352 38bc 4b9a ec3c
000000c0: eee3 21be 321c 1dbd b55b ff3d f8ec 263e
000000d0: 6d27 8e3d cb1b 423d cc65 b7bd 6a12 39bd
000000e0: 9858 52bd ba51 e9bd 2d93 163d b156 143d
000000f0: ccbb d03d 6334 1d3d 9fec 96bd 2f1a 0f3c
00000100: b980 833d 29a7 c8bb f908 ddbd 3d59 bdbc
00000110: 0f87 44bb dae1 883d 27f7 34bd 4f09 52be
00000120: 4750 223e 7652 a83c aea3 af3d 0208 b83e
00000130: 69e5 373d 1d79 8fbf abed a4bd e3f3 9f3d
00000140: b6d3 38be 09df 343e a39d 253e 7c18 003e
00000150: a55c d63e 67a7 b9bd 3a1f 9abe 46f5 393d
00000160: 9a3e 4f3e 04d2 73bd 8ea9 b73d c020 45be
00000170: fa57 aebc 2c80 353e 144a 2fbe 11fc 43bd
00000180: e257 0dbe 7e02 823c 9f97 00bc 12d9 aa3a
00000190: 0d60 033c 0ed0 c93b 4ded 28bc 6ddc 26bc
000001a0: fc9c d03c 63a8 9c3c b69e eb3c 0da1 9c3c
000001b0: 0648 603c cb27 273a f60d 8fbc c4ea bdbb
000001c0: 5ddd febc b8bd a6bb 54c9 5e3d e7e7 213b
000001d0: 578b 74bd f9d2 663d b81b 29bc c6fe 7f3e
000001e0: 1610 243d c590 20be 80b9 08be 90b3 7f3d
000001f0: 46d5 91bd 115e 02be f565 90bd 92e1 24bd
00000200: aad5 dcbc 5818 36be 990f e6bc dc13 013e
00000210: 2101 33be 8219 88bc df10 2c3f 4012 b73b
00000220: 8172 5d3d 7c04 48bd 12f1 fbbb 5893 a13d
00000230: b3f1 463d 85ad 4a3d 832b bb3d c9b4 9a3c
00000240: 66db 5fbf e541 7cbd dd0b f43d 3bf7 bf3c
00000250: e61b 88bc efe2 ddbd d09e 2dbd ae6a 52bd
00000260: eab2 9b3d c6f7 b83d dfc8 5a3e 6096 3ebe
00000270: 2eef ca3d 8fba 25bd bdf6 09be 36c6 e9bc
00000280: e1ef fcbd 992f 903d 6d4e fbbd c486 d0bd
00000290: cad7 c7bc 9216 1f3d df8c 033b 4018 d6bb
000002a0: 25e6 02bb 7b2a 60bb 33c0 243c 4799 e43b
000002b0: 9453 96bc 00b1 8e3c 3c87 a9bc c6f6 b53c
000002c0: d629 90ba 0789 33bb 8a41 893c 7523 34bc
000002d0: 925e 2cbb a6bf 03bd a8cf f23d 8cf4 ae3d
000002e0: fcd2 f23d ba2b 25bc af6d 52bc d76a af3b
000002f0: 378e bbbd 1adc 2e3d 9a5f 0f3e a257 4a3d
00000300: 528a a9bc fb39 a3bc 90ef a7bd 30f0 66bd
00000310: 2182 a4bd f3e0 7f3c 142b d6bd fb1b 8dbc
00000320: 21bb 253c e5f6 063f c9f5 18bd 2d97 b5bc
00000330: 8c4b 44bd 3cde 1cbc 4851 9e3d 4d4f 31bd
00000340: 5a7f 083d fd41 80bd fda2 1d3c fd5f 9abf
00000350: c9a3 2f3e 3189 00be 12ad 9abd 0f28 103c
00000360: 0140 b2be 1986 acbd 9098 d73d f7ca 9fbe
00000370: 1358 c63d 75d0 5c3e 1e6b 1abe 96d8 e7bd
00000380: bae8 24be 3970 df3e 6443 08be ba5e d2be
00000390: 4b78 b53d e707 a63d c829 243e 48aa 443d
000003a0: 9420 8c3c 1fa7 863c f5e3 883c 5286 48bc
000003b0: 3cb9 f639 b0c6 3ebc 4b90 8ebd 6b46 f9bd
000003c0: 92e2 283d 92e5 e63d db17 44bd 07e8 4a3c
000003d0: 9a78 fa3c 5971 2abd 2ed5 0fbc 27e9 e8bc
000003e0: 02cb 91bc 4b84 eebd ad85 8c3c 79d2 123c
000003f0: 3adf 473e 7510 06bd b99c b8bd b1f0 09be
0.018466212 -0.066098385 -0.07705073 -0.11078189 -0.075519055 -0.06780731 0.0013141641 0.104026884
0.080064386 0.025165299 -1.8680891 -0.025100416 -0.33529395 -0.17815135 0.08254226 0.10765963
-0.016174454 0.061555717 -0.07022215 -0.044540145 0.0098113185 0.16499119 0.12967668 0.34752536
0.02465052 0.017442573 -0.21784078 -0.0031497956 -0.09329902 -0.060339794 -0.001530143 0.0030057705
-0.013202292 -0.0007324978 -0.0027855719 0.0043107662 0.0043585487 0.026998317 -0.019275317 0.017886734
-0.027322259 0.0066076964 -0.011480813 0.021578923 -0.023958642 -0.0073855957 -0.011250201 0.028882166
-0.15809605 -0.038356967 0.124686636 0.16301334 0.069411136 0.047389787 -0.08954963 -0.045183577
-0.05135402 -0.11392541 0.03676145 0.036215488 0.101920694 0.038380038 -0.07369351 0.00873427
0.06421036 -0.0061234427 -0.10792727 -0.023113841 -0.0029987728 0.06683703 -0.044181015 -0.20511363
0.15850936 0.020547133 0.08576141 0.3594361 0.044896517 -1.1208836 -0.08053144 0.078101896
-0.18049511 0.17663206 0.16173415 0.1250934 0.41867557 -0.090651326 -0.3010195 0.045399927
0.20238724 -0.05952646 0.08967887 -0.19250774 -0.021282185 0.17724675 -0.17118102 -0.04784781
-0.13803056 0.015870329 -0.007848649 0.0013034663 0.008018506 0.0061588353 -0.010310483 -0.01018439
0.025465481 0.019123262 0.028762203 0.019119764 0.013689047 0.0006376474 -0.017462712 -0.0057958085
-0.031111414 -0.005088534 0.05439122 0.0024704875 -0.059703197 0.056353543 -0.01032155 0.24999532
0.040054403 -0.15680225 -0.13352013 0.062427104 -0.07120757 -0.12731196 -0.07050697 -0.040254183
-0.026957352 -0.17782724 -0.02808361 0.12605232 -0.174809 -0.016613726 0.67213243 0.0055868924
0.054064278 -0.0488324 -0.00768865 0.07889432 0.048570346 0.049481887 0.091391586 0.018885033
-0.8744415 -0.06158628 0.11916325 0.023433318 -0.016614866 -0.108343 -0.042387784 -0.05137127
0.076024845 0.09031634 0.21365689 -0.18612051 0.09908901 -0.04046112 -0.1347303 -0.028536897
-0.12350441 0.070403285 -0.12270818 -0.101819545 -0.024394888 0.038839884 0.002007298 -0.0065336525
-0.0019973603 -0.0034205008 0.0100555895 0.00697628 -0.0183504 0.017418385 -0.020694368 0.022212397
-0.0010998796 -0.0027394907 0.016754884 -0.010994782 -0.0026301485 -0.032165192 0.118560135 0.08542737
0.11856648 -0.010081226 -0.012843533 0.0053533125 -0.09157985 0.042690374 0.14001313 0.04939998
-0.02069584 -0.019925108 -0.0819999 -0.056381404 -0.080326326 0.015617597 -0.10457435 -0.017225256
0.010115416 0.5272048 -0.037343774 -0.022166813 -0.04792361 -0.009574469 0.07730347 -0.043288518
0.033324577 -0.06262586 0.009621379 -1.2060543 0.17152323 -0.12552334 -0.07552542 0.008798613
-0.34814456 -0.084240146 0.10527146 -0.31209537 0.096847676 0.21563895 -0.15079924 -0.11320607
-0.16104403 0.43640307 -0.13306957 -0.41087896 0.08860835 0.08106976 0.16031563 0.048013955
0.017105378 0.016437111 0.01671026 -0.012239056 0.00047058787 -0.0116440505 -0.069611154 -0.12171634
0.0412317 0.11274256 -0.047874313 0.012384421 0.030575085 -0.041612003 -0.008778853 -0.028431488
-0.017796997 -0.11646327 0.017153585 0.008961313 0.19518748 -0.03273054 -0.090142675 -0.13470723

shared_net.0.bias f4 [512]
00000000: ff25 24bd b12b 6e3d 690a 04be eff1 3bbd
00000010: 0662 57be 1177 72bd 36f2 ed3d f7fd 443e
00000020: f97c 21be 5532 dabc 6943 f63d 9cb7 db3c
00000030: da20 8a3d c5ed 0ebd 0a53 2e3d fc93 dfbd
00000040: 3538 22be b988 9c3d 55d5 053e 6a23 d4bc
00000050: a122 8c3e a2f8 d5bd 69f0 c03c 93c4 323d
00000060: e904 483e a187 6b3b 9fe3 53bd f1ca 323e
00000070: a5ce cbbd 9e43 dabc 27ff 3a3e f763 2f3e
00000080: 9c98 723e e44d 943e 168b c83e c174 43bd
00000090: d0aa cb3c d3f4 4c3e daf2 ad3d 2027 1cbe
000000a0: 8fa9 87be 817f c4be f8e3 13be 468b 923c
000000b0: 1371 903d f595 adbe 4c2c 69be 665f 8d3e
000000c0: 86b5 57be 774f b0be 8df6 a4be a344 31bd
000000d0: 2f3a b53d 58c9 cb3e e05c 81be b228 94be
000000e0: 23e3 07be f59c 5c3e 423c 2dbe 8a8b 55be
000000f0: 2c96 f73d 7f9a 4bbe c37e 19be 52b0 b8be
00000100: a924 003c d7d0 d53b 3ad1 e43d 5d94 aa3e
00000110: cf6f c13e 2e3c 40be 3839 ad3e 00f4 0fbe
00000120: 0242 623e c850 4c3e 7395 3abe 80ea 6ebd
00000130: f2a1 8bbe b336 fabd 4551 27bf 0644 d6be
00000140: 6fe6 9b3e fa20 23be 9b7b 023e 0971 d9be
00000150: d407 af3e 7ab9 5abe 9280 7a3d 9cd5 32be
00000160: 9607 66be e964 bbbe 3e86 76be 5ce7 21bd
00000170: aad2 35bd d343 183d cbea 3dbe 9505 b8be
00000180: daeb 0d3d b1c9 0c3e 728f b0be 2dba b8be
00000190: 2fbd 543e 5478 97be b3ba 0e3d f51a 56be
000001a0: c8ff 333d ba44 2abe f625 243e 51fe 913e
000001b0: 9678 debd ca91 0139 1395 a63e b72f f83c
000001c0: d89a 783e 0080 5e3d 536f 643e 174f bd3e
000001d0: cb66 1cbc 428c d0bd 7655 4a3d 2cf1 82be
000001e0: d313 773d 8155 c2be cc72 253d b404 4bbe
000001f0: aa06 5ebe 3028 4ebb 123c 0c3d 4068 a3be
00000200: 3952 ad3e 1eec 423c 5c2d a3bd ae20 00bd
00000210: 8040 2fbe 30f5 0fbe c1e8 6bbb 8878 08be
00000220: 5a57 a9bd 72a0 58be 38f0 28be dc8f 91be
00000230: 19b8 f1bc 2f93 b83c e95b c03e b2f6 c3be
00000240: c794 50bd e349 553b b0de 83bd ffbf 66be
00000250: 4e3c e63e 7e1f e13d 4917 cbbe bb6d 473e
00000260: 5618 60be a71a 3bbe 6053 183d 0d90 44be
00000270: c729 46be 590d f2b9 ef81 18be 4ab6 233e
00000280: f9ac 2f3e f364 50bf 7b45 ac3d 9b21 6cbd
00000290: b271 68bc 0150 a93e 5611 c4bd 1c29 2c3d
000002a0: 42f3 8f3e 034b bdbe 3ff0 d4bc cb7b 25bd
000002b0: 438f 56bd f8b2 7b3c e6a6 783c 79f0 4d3c
000002c0: 1bc0 87bd 9d4f 323d 88a5 8ebd addd e23d
000002d0: 0e03 c6be 3f0b 05bd 6c6d 23bd 15fa 5cbd
000002e0: 87a9 b53b 8e0d 2abe 5585 8cbd d276 28bd
000002f0: 95fc 8dbd 73c1 44bd 4082 a13c 755a 4e3d
00000300: 6a25 313e 2713 8bbe 6a61 a03e 2d27 8c3e
00000310: 7d72 ed3e ef57 0f3f 9ae4 92bd 78ab f1bd
00000320: 33a0 cabd bc36 a4be befb bebc f81e 85be
00000330: 2cab 80bd c3c3 be3e 2253 983e 6213 febd
00000340: 434c 393e 9a03 5a3e 0d05 dcbc 6656 9c3e
00000350: 3593 1cbb 39ea 75be 786a 9a3e 408e 27be
00000360: 4b3d 893e d36a e7bd 559c 623e 4238 21be
00000370: aca0 11be 5b4b ae3e 48f1 08bf 46c5 a1be
00000380: f1d6 183e 6104 aa3e e9d9 823d 8fb7 20bc
00000390: 054e 8abd 4a9b d8be 50dc 8c3d 4c81 303d
000003a0: df35 e6be efd3 4cbe ef23 a9bd 6c97 a83e
000003b0: a54d b6bd e672 de3e 25c0 cbbe 4d39 033e
000003c0: 681c b8be fd7f 7f3d 5cf2 4fbd 9707 a7be
000003d0: 83f0 97bd c24e 46be c0ea 983e 0f00 96be
000003e0: aa6f bbbe 2b2f 30be 0c47 7b3e dc95 69be
000003f0: d6a3 1fbe b948 a6be dac0 3c3e 1ecc 9cbe
-0.0400753 0.058147136 -0.12894596 -0.045885023 -0.21033487 -0.05919558 0.11618464 0.19237505
-0.1577033 -0.026635328 0.12024576 0.02682095 0.06744547 -0.034894723 0.04255966 -0.10916898
-0.15841754 0.07643265 0.13069661 -0.025895793 0.2737017 -0.104478136 0.023552136 0.0436445
0.19533123 0.0035938995 -0.05173075 0.17460229 -0.09951524 -0.02664357 0.18261395 0.17127977
0.23691028 0.28965676 0.39168614 -0.047718767 0.024861723 0.20015268 0.08493586 -0.152493
-0.2649655 -0.38378528 -0.14442432 0.017888676 0.07052817 -0.3390347 -0.22770804 0.27611846
-0.2106534 -0.34435627 -0.32219353 -0.043278348 0.08848988 0.3980205 -0.2526617 -0.28937298
-0.1327024 0.2154425 -0.16917518 -0.20854011 0.1208919 -0.19883154 -0.14989762 -0.36072022
0.00782124 0.00652514 0.11172719 0.33316317 0.37780616 -0.18772957 0.33832717 -0.14057922
0.22095492 0.1995269 -0.18221073 -0.058329105 -0.27271992 -0.12217464 -0.6535838 -0.41848773
0.30449244 -0.15930548 0.12742464 -0.4246905 0.3418566 -0.21359816 0.06115777 -0.17464298
-0.22463831 -0.36600426 -0.24074647 -0.039527282 -0.044390358 0.037174057 -0.18546598 -0.3594176
0.034648754 0.13748814 -0.3448444 -0.3607954 0.20775293 -0.2958399 0.03484602 -0.20908721
0.043945104 -0.1662778 0.16030106 0.2851434 -0.10862844 0.0001235671 0.3253561 0.03029619
0.24277818 0.05432129 0.22308092 0.36974403 -0.009545992 -0.10183002 0.04939791 -0.25574625
0.06032164 -0.3795586 0.040392682 -0.19826013 -0.2168223 -0.003145706 0.034236975 -0.31915474
0.33851793 0.011897115 -0.07967636 -0.031281166 -0.17114449 -0.14058375 -0.0035996886 -0.13327229
-0.08268614 -0.21154955 -0.16497886 -0.28430068 -0.02950673 0.02253112 0.37570122 -0.3827415
-0.050923135 0.003254526 -0.06438959 -0.22534178 0.44967884 0.10992335 -0.39666203 0.19475453
-0.21884283 -0.18271886 0.037188888 -0.19195576 -0.19351874 -0.00046167782 -0.14893316 0.15987507
0.17155828 -0.81404036 0.0841169 -0.057649236 -0.014187263 0.3306885 -0.09573619 0.042031392
0.28115278 -0.36971292 -0.025993465 -0.04040126 -0.05238272 0.015362494 0.01517651 0.01256954
-0.06628438 0.043532956 -0.06965166 0.110774375 -0.38674206 -0.03248143 -0.039899275 -0.053949434
0.005543891 -0.16606733 -0.068613686 -0.04112894 -0.06932942 -0.04803605 0.019715428 0.050379235
0.17299429 -0.2716305 0.3132432 0.2737364 0.4637641 0.5599355 -0.071725085 -0.11800283
-0.09893837 -0.3207301 -0.0233134 -0.2600019 -0.062826484 0.3725873 0.29750925 -0.12406041
0.18095498 0.21290436 -0.026857877 0.30534667 -0.0023891453 -0.2401513 0.30159354 -0.16362858
0.26804575 -0.11299672 0.22129948 -0.15744117 -0.14221448 0.34041867 -0.53493166 -0.3159582
0.14925744 0.33206466 0.06389219 -0.009809389 -0.06753162 -0.42305976 0.06877959 0.043092057
-0.44962975 -0.20002721 -0.08258807 0.32928026 -0.08901528 0.43447036 -0.39795032 0.12814827
-0.35959172 0.06237792 -0.05076824 -0.32622978 -0.07418921 -0.19365981 0.298666 -0.2929692
-0.3660863 -0.17205493 0.24538821 -0.22811073 -0.15589842 -0.32477358 0.18432942 -0.3062448

shared_net.2.weight f4 [256, 512]
00000000: 8933 69bc 41d3 b7be 0489 14be 8e12 653d
00000010: bffe 8bbe 2863 a0bd 8a0e e5bd 887a 9bbd
00000020: 006a c43c b5d8 1bbd 4f96 313d 0838 f5bd
00000030: bd7f ab3d a76d 80be e279 08bf 7445 a3bc
00000040: 5531 df3d 1f74 4abe 4359 4d3d 5f31 05be
00000050: 5d73 843d 2966 9d3b 78ef 5f3c 427d bd3c
00000060: 888e 61bd f0ae c33d 814c 803e 275a 3cbe
00000070: 70e5 61bd 10c1 783d 21ff 8abc 4d14 41bd
00000080: 31d1 19be 43bb 74bc 9e23 183c a182 f7bd
00000090: b76a ccbc d481 cd3c 9230 3dbe 7b20 bf3c
000000a0: 0453 48bd 14f0 963d 8b0b f33d db1e e93c
000000b0: 3086 9ebc a747 f93d 1e93 263e dd16 98be
000000c0: 929f 95bc e3e5 3b3e da62 f83d c1a7 88bd
000000d0: 97ba b1bc 2505 95be 4a4c 35bd 2367 5a3e
000000e0: cf68 763d 4f24 adbd a84c ae3d e5b8 943d
000000f0: 0a29 10bd d0fe c53d f9a1 31bc f441 b93d
00000100: 9f81 bdbc 6f9b 1a3d 4786 cdbd b537 26bd
00000110: 8c45 8fbe e171 1cbd 32b4 1cbd 9a35 4a3e
00000120: b386 b8bc 06ab 9bbd 80f1 9a3d 68bd 543e
00000130: e2bf 8a3d ce75 613d 7e9c d93d 2bbf 203d
00000140: c0b5 2b3e 448e 983d a8f2 6bbd 50c5 cc3d
00000150: 6595 403d 097d 5a3d bf74 f0bd 2771 1e3d
00000160: 88ad c03c 5af0 af3d 9f7c 8b3d 922e a6bd
00000170: 58b6 a9be db51 5abd ee16 283d 315f a63d
00000180: 45ae 14bd 9e56 37be 98e7 a83d be73 ab3e
00000190: 49c5 233c c8fd d1ba 2bea 29bd a850 183e
000001a0: 003a 4bbd 7342 b4bd 6ccb 573e 9794 44be
000001b0: 361e 18bc 839a e9bc c9e6 9dbd da68 89bd
000001c0: 89f8 99be 0050 52be ccfa 613d 2eec 14bd
000001d0: 8744 73be 3361 e8bd 6e08 b63d e70d a93d
000001e0: 359c 9739 fd20 4dbc b452 8d3e df54 db3c
000001f0: 365e 0f3e 1560 e1bd 23fe 2b3d cb2e c23d
00000200: 7c50 11bc 5b5f 963d 442b 363d 4845 92bd
00000210: 88b4 b2be 9b7c 893c 1a96 4cbd c0c3 da3d
00000220: b35e 283d 9fde 013e 8f63 053c 1d5a 62be
00000230: 6db6 a4bb 4dd9 173e d8a2 77be c9d0 51bd
00000240: e2ac 7e3d b3e4 05be 07b0 82bd ac41 c53d
00000250: 9f1a 32be f2b9 29be 2401 d83d 8214 e2bd
00000260: e258 9aba 3751 883b db05 2e3e 944d adbd
00000270: 2aad 11be a79c 933d a6ac 203d 699a 96bd
00000280: 17d2 8bbd c79c 403e 5658 f83d 8ca4 d2bd
00000290: 017f bebd ef0c 9cbd efc9 313d 1713 193d
000002a0: 2b8b a8bd fc9b 873d a24d 013e e407 31bd
000002b0: d844 3d3e 0fa9 563d 8af2 35bd 44b9 98bb
000002c0: 078c a2bd 1190 8dbd 674a 02be 790a 6abd
000002d0: b2a0 fb3d df37 bcbc f4a0 8c3d 7c45 dfbd
000002e0: 2275 22bd 6423 d73d 6add 5dbe c109 323d
000002f0: 3a91 7a3e 2fcd 0b3e fb59 1c3d 02ee 9dbc
00000300: 8233 9d3d 71e5 a23d 5348 ab3d 726d abbd
00000310: 0782 1c3e f96b 66be 3de0 a43d c85f a5bc
00000320: 4732 98bd 4330 d43c 5f50 1a3e 1592 f0bc
00000330: 3f46 7b3d b845 93be b605 9e3d 8649 843d
00000340: 4aa8 52be d916 ca3c 7835 dc3d 445a 4ebd
00000350: ff16 78bd f6a0 54be 5df8 02be cfa7 be3d
00000360: 6080 d63d 2db4 bcbb f0fa 663d 31b6 5c3d
00000370: fa48 463c a076 75be 4b55 4f3e 70e4 cc3d
00000380: a4f6 853c b55e 31bd ff43 2bbd 2f5f c13b
00000390: 4d68 21bd a9c6 003e 59e5 ea3d 6bac 20bd
000003a0: ea45 dc3d fe46 20bd 1b2e f8bb 1bdf 21be
000003b0: 4541 87bc f7f7 92be 7d55 4abe 8c04 593c
000003c0: e6f7 013e 82ed febd d17b 9e3d 5d91 b23b
000003d0: 4db0 b8bc 5e36 ea3d 665b 40be 2619 43be
000003e0: 4c5b d53d dedd ad3c 4b27 b0be 1321 243d
000003f0: 656e 94be 230a 7d3b 3ec7 083e b562 443e
-0.014233478 -0.3590336 -0.14505392 0.0559259 -0.27342793 -0.078314126 -0.11184414 -0.0759173
0.023976326 -0.038048465 0.043356236 -0.11973578 0.083739735 -0.25083658 -0.5331098 -0.019930579
0.10898081 -0.19770859 0.050133955 -0.13007115 0.06467316 0.004803438 0.013667934 0.023131017
-0.05506757 0.09554851 0.25058368 -0.18393765 -0.05515045 0.060730994 -0.016967358 -0.0471385
-0.15021206 -0.014937225 0.009285836 -0.12085462 -0.02495323 0.025086321 -0.1847556 0.023330918
-0.048907295 0.0737001 0.11867436 0.028457096 -0.019351095 0.1217187 0.16267058 -0.29704943
-0.018264566 0.18349414 0.121282294 -0.066726215 -0.021695418 -0.29105487 -0.044262208 0.21328406
0.060158547 -0.08454191 0.08510715 0.07261828 -0.035195388 0.09667742 -0.01084184 0.09045783
-0.023133097 0.03774589 -0.10035377 -0.04058047 -0.27982748 -0.03819454 -0.038257785 0.1974701
-0.022525167 -0.076009795 0.07565594 0.20775378 0.0677488 0.055043988 0.10625552 0.039244812
0.16768551 0.0744901 -0.057604462 0.09998572 0.047017474 0.0533419 -0.117410176 0.03868213
0.023520246 0.08590765 0.06810879 -0.08114351 -0.3314693 -0.05330072 0.041037492 0.08123625
-0.03629901 -0.17904136 0.08247298 0.33486742 0.009995767 -0.0016021067 -0.041483086 0.14874518
-0.04961586 -0.08801737 0.21073693 -0.19197308 -0.009284547 -0.02851606 -0.077100344 -0.06709452
-0.3007243 -0.2053833 0.05517082 -0.03635805 -0.2375661 -0.11346664 0.088883266 0.08254605
0.00028917348 -0.012520072 0.2760216 0.026773868 0.14000782 -0.11004654 0.04199041 0.09481581
-0.008869287 0.07342406 0.044474855 -0.071421206 -0.3490336 0.01678305 -0.049947836 0.106818676
0.041105937 0.1268258 0.008141412 -0.22104688 -0.0050266297 0.14828987 -0.24183214 -0.051224504
0.062176593 -0.13075523 -0.06381231 0.096316665 -0.17392968 -0.16574839 0.105470926 -0.11039068
-0.0011775757 0.004160072 0.16994421 -0.084620625 -0.14226213 0.072076134 0.03922715 -0.0735367
-0.06827181 0.18809806 0.12126224 -0.10285291 -0.09301568 -0.076196544 0.04340547 0.03737172
-0.08229669 0.066215485 0.12627271 -0.043220416 0.18483293 0.05240732 -0.044420756 -0.0046607573
-0.07936864 -0.06912244 -0.12723695 -0.057138894 0.122865096 -0.02297586 0.06866637 -0.10901925
-0.039662488 0.10504797 -0.21666494 0.043466333 0.24469462 0.1365249 0.03817175 -0.01927853
0.0767584 0.07953919 0.08363404 -0.083704844 0.15283976 -0.22502126 0.080505826 -0.020187274
-0.07431465 0.02590192 0.15069722 -0.029366532 0.06134629 -0.2876413 0.07715933 0.06459336
-0.2057201 0.024669098 0.10752386 -0.050379053 -0.060568806 -0.20764527 -0.12790056 0.09309351
0.10473704 -0.0057587833 0.056391656 0.05388469 0.01210236 -0.23971033 0.2024738 0.100045085
0.016352959 -0.04330321 -0.041812893 0.0059012393 -0.03940611 0.12575783 0.11469526 -0.03922693
0.107555225 -0.039130203 -0.0075738556 -0.15807764 -0.016510615 -0.28704807 -0.19759174 0.013245713
0.12692222 -0.12447645 0.0773846 0.0054494576 -0.022545004 0.11436151 -0.18784866 -0.19052562
0.10417804 0.021223959 -0.34404978 0.040070605 -0.28990474 0.0038610778 0.13357255 0.19178279

shared_net.2.bias f4 [256]
00000000: 8458 54be 407e 13bd 1721 4f3c 5007 bbbd
00000010: fe0f bebb 947a 0fbe 9f67 fabd c5bf 1bbe
00000020: 7b41 1cbe 7f07 bdbd c7a2 cabc 1022 9bbd
00000030: 9f4d 9bbd bd1c afbd e80a 2cbe 6855 5e3c
00000040: 321e e6bd 41cd b1bd 6a80 20be c6e0 0bbc
00000050: 4664 0c3d fa30 c7bd 3767 f7bd f1f2 8abd
00000060: 70ee be3a d6fa 52bd 6a84 e0bd bfa4 62bd
00000070: e895 8abc 9481 babc 26ab 84bd ac8b 05be
00000080: 7d4a cd3c 687d 25be 8746 0fbe dc5f 69be
00000090: 4b8c 45be ba69 f23c 638c e0bd 4d8b 07bd
000000a0: feea 97bd ff02 43be 8b37 99bd b74e eabc
000000b0: 73a2 cdbd 2efe 8a3c 257a 47bd 9c17 d33d
000000c0: 7cd3 8ebd 92e5 5d3c 10ec 51bd fb99 d839
000000d0: 9b20 87bd 2678 8cbd 89fc 8cbd 847c 7f3c
000000e0: ccac 493d a4e9 31be 00cd 43be 0f0d 73bd
000000f0: 7566 0ebc 2f9a 913e f28c be3d 6a3b 8c3e
00000100: 48ad 5cbd 41d8 a13c 7628 d6bd c33d bfbd
00000110: 76be f8bc c81e 41be cf4b c5bd d549 38bc
00000120: 46fd bc3d 5099 bbbd 4ed6 86bd a5eb dabd
00000130: 8c4f cabd ca8c d9bd 458e e3bd a308 0f3e
00000140: 47be 7ebd 1ae0 20be 814b a83c 4ceb 30be
00000150: 2690 d1bd 0e5f b1bd ea29 473d df10 aebd
00000160: 1d23 973d fdb2 08be a7b5 5bbd e65b 8abd
00000170: 8dd4 3a3d a010 70bc 01d0 133e 9cfa bcbd
00000180: 6e52 94bc f0fe b3be d922 60bd c5a1 b5bc
00000190: d4a7 973d b881 8cbd 0dc4 733c c268 24bd
000001a0: 85d2 d03c 2d19 bb3c 28cc e3bd be80 96bc
000001b0: 2c1e 30bd a3a1 e7bc eb33 a9bc 3418 9fbd
000001c0: fb07 0abd ad4e bc3d 2406 e4bd 6ba0 26be
000001d0: 4960 88bd c5d0 06be 455f 0abc 28bd abbd
000001e0: 5a37 43bc 9ec7 e6bd 292e edbd dd40 16be
000001f0: 47c1 26be 503c 093e 3337 6c3d 62ef 32bd
00000200: 3da1 e8bd 9225 72bd 12a1 3ebd 950e 23be
00000210: a696 f5bd 0c9a 893e 3af4 01be 0491 97bd
00000220: a233 233c 1411 cebd 5504 0ebe 05a6 7b3b
00000230: 7f0f 3bbb 48b9 813d 98c5 713d f1b8 1dbe
00000240: 1f88 8abc 89ed 6dbd 857f 403d 4658 ad3d
00000250: 757a cdbd acdb 2fbd 2be2 a7bd 71a7 323c
00000260: c51b 8abd f418 9fbd 5081 a0bd fc00 0fbe
00000270: a1f8 113e 3db1 ddbd 207d 55bd 933d de3d
00000280: 1335 85bd 3ce7 c1bd 6fd5 15be 1834 3b3c
00000290: 8b43 e0bd ba21 71bd 600c 03be c798 053d
000002a0: 43a1 a0bd 68bf c8bd 4cff d9bd d37e 493d
000002b0: 8e75 0cbe 1fdb 06be 91b0 97bd e43d d3bd
000002c0: 2e54 0fbe 198a ae3b 5898 19bd 46b5 cabd
000002d0: 36fa 04be c06a bfbd 842a b0bd 3853 ccbd
000002e0: 298e 1f3e 0474 67bd 4ae1 1bbe 7486 69bd
000002f0: 60cd 16be 0a83 0ebe 570d 603c ba50 f83d
00000300: 3b1c 9c3d 7b82 debd bf5b 1dbe b115 aabe
00000310: 2bf6 eabd 7746 10bb 4dbd bbbd 66f1 a6bc
00000320: e981 dcbd f74e 30bd 4ec3 52bd c2cd ea3c
00000330: 389a b03c 8169 93bd 44d1 ddbd 6bad b2bd
00000340: fff3 7e3d 01d0 acbd f054 64bd 4e4e 763c
00000350: 29b0 a4bd 5982 92bd ffbc c83d e573 af3c
00000360: 934b 81be 871c 253e cef0 eebd d130 0abd
00000370: 74e9 84bd 0220 6bbd f7a0 c6bc a0e4 15bd
00000380: cbad 98bd 2fe6 f63c f7b9 98bb d2bb 5abe
00000390: c476 36be 16bb a43d efc6 ca3c 0cdd 55be
000003a0: 2a5a 4cbe 1e84 03be bc1b afbd 7b69 143e
000003b0: 2a22 c8bd 9a95 873d 1cbd 0cbe 4f7c 03be
000003c0: 55e8 8bbd 5fd3 06be 032a 10be f16b 77bd
000003d0: 3774 f6bd c3a9 1bbe e9cf d7bd 3999 1abe
000003e0: ac0f 493d 7330 9ebd b5ff 80be 587c dabd
000003f0: 49ce 8cba 807a 28be 80f9 f4bd 4f28 9ebd
-0.20736891 -0.036009073 0.012642167 -0.09132254 -0.0058002463 -0.14011604 -0.122267954 -0.15209873
-0.15259354 -0.092299454 -0.024735821 -0.07574856 -0.075831644 -0.08550403 -0.16801035 0.013570167
-0.11236228 -0.08681727 -0.15673986 -0.008537477 0.034275316 -0.097261384 -0.120802335 -0.06784619
0.001456691 -0.051508747 -0.10962756 -0.055332895 -0.016917184 -0.022766866 -0.064779565 -0.13041562
0.025059933 -0.1616112 -0.13991748 -0.22790474 -0.19291799 0.02959143 -0.10964277 -0.033091832
-0.07417868 -0.19044112 -0.07481297 -0.028601987 -0.1004075 0.016966905 -0.04870047 0.103072375
-0.06973931 0.013543503 -0.051250517 0.00041313455 -0.06598016 -0.06858854 -0.06884105 0.015593652
0.049237058 -0.17374283 -0.1912117 -0.059338626 -0.00869142 0.28437945 0.09304227 0.2738908
-0.05387619 0.019756438 -0.10456936 -0.09337952 -0.030364256 -0.18859398 -0.096336 -0.011248072
0.092279956 -0.091601014 -0.06583844 -0.10689477 -0.098784536 -0.106225565 -0.1111112 0.13968138
-0.06219318 -0.15710488 0.020543816 -0.17277259 -0.10232572 -0.08660708 0.048623957 -0.08499312
0.07379744 -0.13349529 -0.053640034 -0.067558095 0.04561286 -0.014652401 0.14434816 -0.092274874
-0.018105712 -0.3515544 -0.054720733 -0.022171864 0.074050575 -0.068606794 0.014878285 -0.040138967
0.025491009 0.022839153 -0.11122924 -0.018371936 -0.042997524 -0.028275317 -0.02065464 -0.07768288
-0.033699017 0.09194694 -0.11133984 -0.16272132 -0.0665899 -0.13165577 -0.008445566 -0.08385688
-0.011915052 -0.11268543 -0.1158107 -0.14673181 -0.16284667 0.13401914 0.05766983 -0.043685324
-0.11358879 -0.05911786 -0.046540327 -0.15923531 -0.119916245 0.2687534 -0.12690821 -0.074007064
0.009961041 -0.10061851 -0.1386884 0.0038398516 -0.0028543172 0.06334168 0.05902633 -0.15402581
-0.01691061 -0.05808786 0.046996612 0.084641024 -0.100331225 -0.042934105 -0.08197435 0.010904179
-0.06743578 -0.07768431 -0.078371644 -0.1396522 0.14255 -0.10824821 -0.05212128 0.10851588
-0.06504264 -0.094679326 -0.146322 0.011425994 -0.10950383 -0.058870055 -0.1279769 0.032616403
-0.07843258 -0.09802133 -0.10644397 0.049193215 -0.13716719 -0.13169526 -0.07406724 -0.10314539
-0.13996956 0.005326521 -0.037498802 -0.098978564 -0.12986073 -0.09346533 -0.08601859 -0.0997681
0.15581574 -0.056507125 -0.1522266 -0.05701299 -0.14726782 -0.13917175 0.0136750555 0.12124772
0.07622572 -0.10864731 -0.1536703 -0.33219674 -0.11472734 -0.0022014657 -0.09166966 -0.02037878
-0.10766966 -0.043044057 -0.05145579 0.028662566 0.021557912 -0.07197858 -0.1083093 -0.08724483
0.06224441 -0.08438111 -0.055745065 0.015033318 -0.080414124 -0.07153768 0.09801673 0.021417568
-0.2525297 0.16124164 -0.116670236 -0.03373796 -0.0648984 -0.057403572 -0.024246676 -0.036594987
-0.074550234 0.030139057 -0.0046608406 -0.2136071 -0.17818743 0.08043496 0.024753062 -0.20885104
-0.1995627 -0.12843367 -0.08550212 0.14493363 -0.09772141 0.06620331 -0.13744015 -0.12840389
-0.06831423 -0.13166569 -0.14078526 -0.060405675 -0.12033885 -0.15201478 -0.105377026 -0.15097512
0.04908721 -0.07724085 -0.2519509 -0.10668248 -0.001074263 -0.1645298 -0.11961651 -0.07722532

to_mean.0.weight f4 [128, 256]
00000000: 5848 9bbc 590c cf3c ab24 a33c fd91 5e3d
00000010: 138c 903d 4835 353d 3395 f83d 0bb9 0b3d
00000020: 41f1 863d 1faf fb3c c615 1c3d dba5 18bc
00000030: 9f55 cd3d 480d c13d 9c39 ad3d 5f07 613d
00000040: c344 1ebb a594 0fbb 87a4 a1bb 36c0 a5bc
00000050: 11fa ba3d ef43 f63d d6c1 8c3d 34aa 263d
00000060: 25dd 15bc 4d7b ef3c 9a1b a43a ce86 66bd
00000070: 7962 61bd daf0 993b 3749 4b3d 49d2 893d
00000080: 89b0 983d d51f 86bd 151c 0a3e f08e 8e3d
00000090: 56a1 b73c 7fd9 a5bc cd66 fa3d ddf6 bb3d
000000a0: 0dd9 9c3d e212 c43c 3348 9f3d a8d9 c9bd
000000b0: d77f f33d 1735 1a3c d5bb 3c3d b8d8 b83b
000000c0: 8d03 04bc 1771 5dbd 9e1a 5f3d 0988 0c3d
000000d0: fa81 9b3d 4ce4 46bd c238 243e 6918 a8bd
000000e0: 3eab 1ebe 9b5f 36bc 52c1 bc3c 9f8c e43d
000000f0: dae8 ac3d 1840 3e3d f7d3 a7bd a271 0c3e
00000100: c44b 1a3d c1c3 2b3d 5e04 313d 79ba f43c
00000110: 6e69 b83d a463 173e cc35 613d 6f51 913d
00000120: ceae ca3d 9050 58bb 2f97 a1bc 5d0c 013d
00000130: 7a41 013c 89d4 d43d 71fa 8c3d 17fd 443d
00000140: d79f ad3d 18de 5abd 1148 683d 3b84 ca3d
00000150: 7e98 b13c 3205 843d 0f7d f9bb 0ea7 0e3e
00000160: fbb7 c03d 8a4d 933d 1dcb f7bd f47c eabc
00000170: ff77 2b3d c3ef af3d e26a a43d 3476 d83d
00000180: 1d8e 97bd 24d1 7f3d 508e 12bc 1a79 60bd
00000190: fd1d d33d 0a1a 98bd 5faf aebb d380 b23d
000001a0: 73c3 013e ec9f 153d 9601 18bd 8833 ffbc
000001b0: 411e eebb 0712 553d f309 803d 7eda 1abd
000001c0: a8da ee3c 2427 cb3d fbc6 763d 2143 7b3c
000001d0: 7acd e8bc a7a7 cb3d e347 593d 4707 08bd
000001e0: 8e82 c0bc 6dd9 03bd 2c9f 993d cc6b cf3a
000001f0: d95a b53d 6db8 1abd 9fb5 363c 11fc f53c
00000200: aff4 c7bd d048 553d d818 68bd 2d10 d43d
00000210: d579 40bc 471c 893c a11c 8c3d 0374 c13d
00000220: d720 c53c 3e5c 6f3c 44ba 913d c131 b4bc
00000230: 054e 043e ef41 b0ba cc6d bb3c c0bb ba3d
00000240: 1c9a cf3c 09c5 b5bc 65d8 a5bd 3291 4fbd
00000250: b509 683d b5cd 5f3c bad4 583d 13a0 ee3d
00000260: 897b c03d 4558 073d b875 2aba 839d 263d
00000270: 75f5 a63d 09ee 6d3d 0d29 ab3c db21 163d
00000280: eadf e23d 41a5 d2bd 8ed1 bc3c aa06 443d
00000290: 3eed 5f3d ef81 f83d bb12 cf3d cd6f fb3d
000002a0: a115 e73d 57cc c83c fdab 3a3d b2ef 77bc
000002b0: e1f7 cb3c d4fa ac3c 7ab0 d73d fcbe 023d
000002c0: e069 983d b413 a73c f429 0cbd 3e8d 813c
000002d0: 7fdd 57bc 15a6 9d3c 393f 0a3d 4d06 293d
000002e0: 8217 1c3d 2946 9a3d f6b7 5bbc 6ef7 6fbd
000002f0: 5598 0d3e d039 a53d 985c e6bc c8ea 003e
00000300: e7cd c33d 6a3e 39bd 7c62 2e3d 5416 ab3d
00000310: 0c67 0b3c 720a 013d 8b29 f33c 5611 9e3d
00000320: cd52 e03d ac4a 52bd cec2 5b3d 27e8 843d
00000330: 3eec 763d a5b9 673d 6d53 e33d 2f68 d6bc
00000340: ff96 a13c c36b 963d f8e8 6e3d e6f9 613d
00000350: 296c f53d 9220 5fbd 5f30 683d 88ec 65bc
00000360: 1466 dc3d dd39 55bd b48a 983d 729f cb3d
00000370: 7301 913d f1c8 72bd 8c18 12be e643 d03d
00000380: eb20 aa3d 4443 133d 6de1 a83d d73b 9f3d
00000390: 3170 903a fb26 1a3e b83f a03c 6116 b43b
000003a0: b805 943c 45ff c93c 4e63 513d ea67 8e3d
000003b0: 9091 653d 7d4d 803d 7f4d 7a3d 2840 6d3d
000003c0: 7675 8f3d 1440 f63d cc31 ec3c ae62 7d3d
000003d0: efba a13d 988a a83d ad23 1bbd 118c 66bd
000003e0: 77fd 73bb e830 eabb 0a45 b6bc a70e ddbd
000003f0: fd88 2a3d e70d b43d f45d 09be df3b 273d
-0.018955395 0.025274443 0.019914946 0.054338444 0.07057967 0.044240266 0.121378325 0.034112018
0.06588984 0.030723153 0.038106702 -0.009316887 0.100260966 0.09426361 0.08458254 0.05493867
-0.0024149872 -0.0021908667 -0.0049329433 -0.020233255 0.09129728 0.12024676 0.06872909 0.040689662
-0.009146963 0.0292336 0.0012520433 -0.056280904 -0.05502555 0.004697901 0.04963037 0.06729562
0.074555464 -0.0654904 0.13487275 0.06960857 0.022415798 -0.020245312 0.12226639 0.09177945
0.07658587 0.023934785 0.07777443 -0.09855968 0.11889618 0.009412072 0.046077568 0.0056410693
-0.008057487 -0.05406293 0.054468744 0.03430942 0.075931504 -0.048557565 0.16037276 -0.08207781
-0.15495011 -0.011131193 0.023041401 0.11159634 0.084428504 0.046447843 -0.08194726 0.13715222
0.037669912 0.041934732 0.043217055 0.029874073 0.09004484 0.14784104 0.054982945 0.0709561
0.098966226 -0.0033007003 -0.01972541 0.03150593 0.007889146 0.103921 0.068837054 0.048092928
0.08477753 -0.05343446 0.056709353 0.09888502 0.02167916 0.064463034 -0.007613785 0.13930914
0.094100915 0.07192524 -0.12099288 -0.028624035 0.041862484 0.08590653 0.08028199 0.105694205
-0.07400153 0.06245531 -0.008945063 -0.05480299 0.10308454 -0.074268416 -0.0053309645 0.087159775
0.12672214 0.036529467 -0.037110887 -0.031152502 -0.00726679 0.052019145 0.06251898 -0.037806027
0.029156998 0.09919575 0.060248356 0.015335829 -0.028418291 0.099440865 0.053047072 -0.033210065
-0.023499753 -0.032189775 0.07501063 0.0015824973 0.088552184 -0.03777354 0.0111517 0.030027421
-0.097634666 0.052071393 -0.056664318 0.10354648 -0.011747797 0.016737117 0.06841398 0.094459556
0.02406351 0.014609395 0.071156055 -0.02199638 0.12920387 -0.0013447384 0.022879504 0.09117842
0.02534204 -0.02218868 -0.080979146 -0.05067558 0.056649882 0.013659884 0.052937247 0.116516255
0.093985625 0.033043165 -0.0006502527 0.04067756 0.08152286 0.058088336 0.020893598 0.03665338
0.110778645 -0.10285426 0.023049142 0.047857918 0.05466961 0.12134158 0.101109944 0.12277184
0.11283422 0.0245115 0.045574177 -0.015132831 0.024898471 0.021115698 0.10531707 0.03192042
0.07442069 0.020395137 -0.034219697 0.01581442 -0.013175367 0.019244233 0.0337517 0.041265775
0.038108356 0.07532913 -0.013410559 -0.058585577 0.13827641 0.080676675 -0.028120324 0.12589562
0.09560757 -0.04522554 0.04257439 0.08353868 0.008508455 0.031504102 0.029682895 0.0771815
0.10953293 -0.051340744 0.053652577 0.06489592 0.06028389 0.05657353 0.110998966 -0.026172725
0.01972532 0.07344773 0.058327645 0.055169962 0.119835205 -0.05447442 0.056686755 -0.014033444
0.10761657 -0.052057136 0.074483305 0.09942521 0.070803545 -0.059273664 -0.14267176 0.101692006
0.0830706 0.03595282 0.082461216 0.077750854 0.0011019764 0.15053932 0.019561633 0.005495832
0.018069133 0.024657855 0.051120095 0.06953414 0.056047022 0.0626478 0.061109062 0.057922512
0.07004826 0.12023941 0.028832339 0.061861686 0.07896983 0.0822956 -0.03787582 -0.05628592
-0.0037229934 -0.0071469434 -0.022249717 -0.1079381 0.04163455 0.08791714 -0.13414747 0.040828582

to_mean.0.bias f4 [128]
00000000: e905 98bc 1578 55bd 35df 863d 3f30 f6bd
00000010: 9474 113c 7388 9b3c 958c 583d 2d1b 323d
00000020: 3941 6cbc ed2b 14bb c8da a5bc cb6b 03bd
00000030: e86a 6ebd 77a8 b63d 5d58 613d 69b1 c6bd
00000040: 971a 5f3d 8868 283d c103 173d 97d0 8abd
00000050: 06d8 9eba 82d9 97bc 5fa3 90ba 3a2c 483c
00000060: 76b1 53bd 55e3 d3bb 7410 48bd 391f d43c
00000070: efe1 903d 8f11 afbd b03f 62bc f36c 523d
00000080: db7b 2abd a6fa 823d a1b7 07be 7bdd 16bc
00000090: ad7e 8e3d 94e6 c93a 32b2 8bbd 16b0 c9bd
000000a0: d4f1 03bd 7bb8 b33d 1f19 e5bd 16fc f1bc
000000b0: 0a0e 133d 5e72 1e3d c8b9 83bd 38bf 1d3d
000000c0: 460c a5bd ecd1 613c 3778 603d 0292 4ebd
000000d0: 96c4 b7bb a636 aabd 20ac eabd e575 27bd
000000e0: a0a9 aebb 3665 efb8 bb0a 913b c438 bdbd
000000f0: 6579 1c3d fbd7 6a3c 84b8 e0bc 2b53 7f3d
00000100: 5632 00bd 3778 333c be0e 663c 11aa 12be
00000110: 5dae 713c 9332 31bd 52cf 8ebd 2bee 6abd
00000120: fda4 8f3d e3ad b4bd 17b2 b8bd 713a 4d3d
00000130: a7bc 03bd ea36 6dbd 133c ab3a 189b 97bd
00000140: efc5 13bd abe4 923d d6a1 903c 69b0 f5bb
00000150: ba62 a23c fec8 9ebd 9023 4bbd dd01 94bc
00000160: 9674 0b3c 2ff0 e23b 6bf6 ab3c ad69 8fbd
00000170: 772d c0bd 785c 15bd 04b7 c2ba c0cd e73a
00000180: 6cca 0cbb b169 cebd 89bb bdbc a4ec e63d
00000190: bbdb b2bc a5e4 b83d fac4 d4bd a582 803c
000001a0: 508f a4bd 4a2a cebd 8e46 a1bd 09e8 223c
000001b0: 6b8f 903d a119 013c 3dfa d9bc 8fc5 cdbd
000001c0: 4d1c 713c 5683 8cbd e58e 6dbd 39c0 453c
000001d0: f53d 5a3d 7cee bdbd 2e91 133b f926 e2bc
000001e0: 472c 4fbc baa9 99bd a642 9fbc 74f1 9a3d
000001f0: 468f abbc 7d64 bdbc a775 9abc 967a 4a3d
-0.018557506 -0.052116472 0.06585542 -0.12020921 0.008877892 0.018985962 0.052868444 0.043482948
-0.014419847 -0.002260919 -0.020245925 -0.03208522 -0.058207422 0.08918851 0.05501591 -0.09701807
0.054468717 0.041115314 0.036868814 -0.067780666 -0.0012118823 -0.018536333 -0.0011035017 0.012217576
-0.05168291 -0.006466309 -0.048843816 0.025893794 0.070743434 -0.08548271 -0.01380913 0.051373433
-0.041622024 0.06395464 -0.13253643 -0.0092080785 0.06957755 0.0015403801 -0.068210974 -0.09848039
-0.032213047 0.08775421 -0.11186432 -0.02953915 0.03590206 0.038683288 -0.06431919 0.03851244
-0.080589816 0.013782959 0.054802146 -0.050432213 -0.0056081517 -0.083112046 -0.114586115 -0.040883917
-0.0053302795 -0.0001141526 0.004426328 -0.09239343 0.03820171 0.01433372 -0.027431734 0.062335175
-0.031298004 0.010953954 0.014041601 -0.14322688 0.014751044 -0.043261122 -0.06973137 -0.05735604
0.07013891 -0.08822229 -0.09018343 0.050104562 -0.032162335 -0.0579137 0.0013064168 -0.07402629
-0.036077436 0.07172521 0.017655294 -0.0074978364 0.019822467 -0.0775318 -0.049594462 -0.018067295
0.008511683 0.006925605 0.020991525 -0.07002578 -0.09383672 -0.03646514 -0.0014855568 0.001768522
-0.0021482958 -0.10078753 -0.023160713 0.11275604 -0.021833291 0.090279855 -0.10389133 0.015687296
-0.08035147 -0.1006666 -0.07874785 0.009943017 0.07058605 0.007879646 -0.02660858 -0.10047447
0.01471622 -0.06860988 -0.057997603 0.012069755 0.053281743 -0.09274003 0.0022516954 -0.027606474
-0.012644834 -0.07503076 -0.01944096 0.07565585 -0.020942342 -0.023119206 -0.01885493 0.049433313

to_mean.2.weight f4 [18, 128]
00000000: 7e54 05bd 2d52 38bc 4ff5 863d b1ff ecbc
00000010: 0796 24bc 8241 18bb 4d75 943d a1cf ac3c
00000020: a84d 20bd 0526 033d 7f21 27bd 806a 06be
00000030: d66f 5ebc 869e cdbc 017b 493c 5cf9 8cbd
00000040: 8c41 3f3d 103e 2cbd c556 ab3d 5174 e0bc
00000050: c54d d53b 111b 1a3a 0ecd b03c e8e4 cf3d
00000060: e577 943c d73e 9c3c bc3d 883d 48cd 013d
00000070: 4b8e e2bc 8053 a5bd 7785 253d 7be2 023c
00000080: c450 823d f11c 69bd a242 c53d a514 853c
00000090: f8f5 45bc 1b07 ebbd d594 e23c b2c7 03bd
000000a0: 3fbf aebd ca3b 1b3d 4e63 41bd 8d5b 283d
000000b0: 9c19 6c3d cef6 693d fae3 eb3c b2af e23b
000000c0: d343 163c e61a ac3d 13b9 cf3c 669b 653b
000000d0: 138f 5abd 76bf a6bd 0f49 943c e524 3dbd
000000e0: 1537 603d d1e8 193d 76f0 2a3d 5aee 1e3d
000000f0: 0a7e a93c 2ced 543b 7d21 82bd a5ed 25bd
00000100: 6877 2ebd d0cc 8c3d 4859 103d 4519 fabd
00000110: 5b4c 2ebb a6f7 1a3d eeeb dbba 18b1 17bd
00000120: d533 983d cb30 8e3c b401 9b3d 1e6c 993c
00000130: f10c 4cbc a0e6 de3c 2dff a83d 278e d43c
00000140: 94d2 21bc 7acc f1bc b3d6 983d 0c56 1cbd
00000150: 2a10 9c3c 7cf3 0e3c a605 9dbc 8b27 b7ba
00000160: a747 a9bd 185d 6a3d be61 d2bc c872 483d
00000170: 0aa9 173d fb36 3bbd a1d8 7e3d e3ef 823c
00000180: 1ee2 a2bd 1a0c 06bc e753 54bc 70d0 983d
00000190: 92e7 8bbd 040b 573c e739 2cbb e2e6 d8bd
000001a0: 2222 3d3b 674e 3ebc 50d1 eebd c07d 193c
000001b0: 60cf 643d a2de 3dbb c7d6 a33d 749e ce3b
000001c0: 7db8 a4bd 01cb 58bd c06d 66bd 8fe6 053c
000001d0: ad10 65bc 8a94 abbc 913e d9bd 8a7b 83bd
000001e0: 6e99 38bd 3c81 b6bd b880 703d 8017 f0bc
000001f0: 3b7c cfba e432 78bd a143 d4bc 3a65 223d
00000200: 4b3f 95bb 254b 3b3d 7dc6 cd3d c6dc c4bc
00000210: b43b 80bd fbd8 35bd b673 9e3d 4fbb 3e3d
00000220: f74d 32bd b2b5 353c d178 4e3d cf49 a6bc
00000230: b5e8 1dbd c198 64bc 2c7a c23a f57a 93bd
00000240: 2696 a93d 45f1 973c 48ce 093e e2e1 85bd
00000250: 1d5f a83d 01a6 0e3d c3bb 02bd ac19 1fbd
00000260: 290c 9ebd 8ce6 5b3d a082 123d 4007 a23d
00000270: 743a 14bd a83d 66bd 12e6 293d cc86 8b3c
00000280: 453e 473d 0a70 87bd 4e92 893d 2a7c 55bc
00000290: 052d 4a3c ce9e 78bd f142 a73b 7678 c93c
000002a0: 3478 5ebd 1646 f2bb 9b4b a2bb 4186 923d
000002b0: 2dec d93d 94e5 353c a4e5 aabb b235 783d
000002c0: bd0f 233c 737b 3b3d 716f 863d 6a98 8fbd
000002d0: bcae 1fbd 046b 66bd 859b 583c 475c 04bd
000002e0: 5e6d 8b3d 8a9f d23d d5f6 603d adce 093b
000002f0: 0d6d 29bb e518 cf3c ae94 abbd 766f e33b
00000300: 3523 9ebc 5c68 aa3d 0d44 c2bb 2eb9 dcbd
00000310: 8ff9 45bd e231 4ebc 0889 0a3d 77e6 babc
00000320: 240d 813d 5767 dd3b a76e 193d 4ac6 633d
00000330: d529 e13b 193b ecbb 11fe 103d 7795 853b
00000340: 766d cf3d ba7c 69bd 38a5 fa3b 4f4f c9ba
00000350: 224a c93c 6a3b 673d 0fc8 83bd 6b60 99bb
00000360: 42b5 4fbc 2abc 7fbb beb0 633d f9bf bc3d
00000370: 7f0c 573d 8bc2 c1bc fb3b 7d3d fa47 e63c
00000380: 864d 95bd bf08 f838 2217 0fbc 5b2e 16bd
00000390: 4aba fd3c 7b0b 1abd c3e9 a63b 6e69 383d
000003a0: 9a1b 223b 91cb 3dbd ddda 79bd e2e1 d13c
000003b0: 2580 d53d 5aba 153d 04ca 733d c091 1c3d
000003c0: 23ac 68bd 0f8d d3bd 2143 46bd aa70 303d
000003d0: d915 2dbd 15b0 593d f889 66bd 2c21 b0bd
000003e0: 8115 c03c c799 51bd a4e6 d53d fcc8 55bd
000003f0: 73ea ae3d e8c2 2bbd c0ad 4d3d 7c28 c23c
-0.03255128 -0.011250061 0.06589758 -0.028930517 -0.010045535 -0.0023232405 0.07248936 0.021095099
-0.03913656 0.03201868 -0.04080343 -0.13126564 -0.013576468 -0.025100004 0.012297393 -0.06883499
0.04669337 -0.042051375 0.08366159 -0.027399214 0.006509515 0.0005878667 0.021582153 0.10151082
0.018123576 0.019072933 0.066524 0.031689912 -0.027655741 -0.08072567 0.040410485 0.007988567
0.06363061 -0.056912366 0.0963185 0.016245196 -0.012082569 -0.11475965 0.02765886 -0.032172866
-0.08532571 0.037898816 -0.047213845 0.041102935 0.05764161 0.057120137 0.028795231 0.006917917
0.009171444 0.08403568 0.025356805 0.0035035252 -0.053359102 -0.08141987 0.018101243 -0.046177763
0.05474003 0.037575547 0.041733228 0.03880153 0.020689983 0.0032489998 -0.06354044 -0.04050984
-0.042594343 0.068750024 0.035241395 -0.12211851 -0.0026595804 0.037833832 -0.0016778687 -0.037034124
0.07431761 0.01735725 0.07568684 0.018728312 -0.012454257 0.02720958 0.08251796 0.02594669
-0.009876866 -0.029516447 0.074628256 -0.038168 0.019050676 0.008725043 -0.019167732 -0.0013973577
-0.0826562 0.057217687 -0.025681373 0.04893759 0.037026443 -0.04570673 0.062218312 0.015983528
-0.07953285 -0.008181596 -0.012959457 0.07461631 -0.06831278 0.013125185 -0.002627963 -0.105909124
0.0028859456 -0.011615372 -0.11661017 0.00936836 0.05586183 -0.002897181 0.0799995 0.00630551
-0.08043001 -0.052927975 -0.05625701 0.008172645 -0.013981027 -0.020944852 -0.10607637 -0.064200476
-0.045068197 -0.08911368 0.058716506 -0.02930808 -0.001582987 -0.060595408 -0.025911154 0.03964732
-0.0045546643 0.04572596 0.10047624 -0.024031054 -0.062613875 -0.04439638 0.07736914 0.04656535
-0.043531384 0.011090683 0.05040819 -0.020298867 -0.038552005 -0.013952435 0.0014837435 -0.072011866
0.08280592 0.018547663 0.13457596 -0.06537224 0.082212664 0.034826282 -0.031917345 -0.038842842
-0.07717163 0.053686664 0.035769105 0.07911539 -0.036188558 -0.056211144 0.041479178 0.01703205
0.04864337 -0.06613167 0.067173585 -0.013030091 0.012339835 -0.060698323 0.0051044156 0.024593573
-0.054313853 -0.007393609 -0.0049528605 0.07154513 0.1064075 0.011102099 -0.0052153636 0.060598083
0.009952483 0.045772027 0.065642245 -0.070114926 -0.038985 -0.0562544 0.0132206725 -0.032314565
0.068079695 0.10284336 0.054922897 0.002102773 -0.0025852353 0.025280425 -0.08377968 0.0069407774
-0.019303897 0.08320686 -0.0059285224 -0.10777508 -0.0483337 -0.012585135 0.03382209 -0.022814972
0.063013345 0.006756704 0.037459042 0.055609025 0.006871442 -0.0072091934 0.035398547 0.0040766555
0.101283 -0.057003714 0.00764909 -0.0015358719 0.024571482 0.056453146 -0.064346425 -0.0046806834
-0.012677493 -0.0039022067 0.055588476 0.092163034 0.05250215 -0.023652336 0.06182478 0.028110493
-0.07290177 0.000118271906 -0.008733543 -0.0366653 0.030972619 -0.037608605 0.0050937845 0.04502242
0.002473569 -0.046336714 -0.06099974 0.025620405 0.10424832 0.03655467 0.05951883 0.038224936
-0.056804787 -0.10329639 -0.048403863 0.043076195 -0.042257164 0.05314644 -0.05628392 -0.08600077
0.023447754 -0.051172044 0.10444382 -0.052193627 0.085408114 -0.041933924 0.05021453 0.023700945

to_mean.2.bias f4 [18]
00000000: 991f 3cbd ba74 163d d2bc 29bc 89b3 d1bd
00000010: a68a 653c f5eb 94bd 2f45 b9bd 7879 8ebb
00000020: a3e9 033d 3fee 89bd 0924 8bbd 1c3b 18bd
00000030: 83d7 8f3d 30db d4bd 08e0 bcbd 7888 23bc
00000040: 6522 013e 1917 8ebc
-0.04592857 0.036732413 -0.01035996 -0.10239322 0.014010107 -0.07271568 -0.09046399 -0.0043479763
0.032205235 -0.06734895 -0.067939825 -0.037165746 0.070235275 -0.10393369 -0.09222418 -0.009981267
0.12610777 -0.017344998

to_value.0.weight f4 [128, 256]
00000000: 5aa2 b33d e5d6 c13d 80ff fa3d 4dfc c23d
00000010: dc8e 6d3d 49a3 013c 0acf 13bd 5d19 ce3d
00000020: 0360 063e 9fc4 773d c5f2 e5bd 3761 92bd
00000030: f2d6 9a3c 62d0 d73d f178 d3bd 6a1a 07bd
00000040: b05a 3d3e 23db 823d 47c4 423d 06b5 543d
00000050: a3fe 413c 751e c43d 2bde 4b3d 4641 993d
00000060: 8091 1a3d de67 883e 334d a53d fbb3 543d
00000070: 1246 8d3d 833f eb3d f2ff 62be 4095 fe3c
00000080: 3dc0 833e 97b3 a8bc 020e 253e 5b49 533d
00000090: 77c2 3b3e 9a8a 0ebd 4c6a fabd 7743 293e
000000a0: e352 01be bcd6 57bc bbf2 0e3e 4359 0abe
000000b0: b30b 183e 1f15 03bd 2041 9bbd ad52 753d
000000c0: 3417 1abe 6dc6 1e3e 2f38 da3d 6cb2 0abe
000000d0: 472f e3bd 8faa b33d 3bca 38bd ca52 ed3d
000000e0: 30d8 d93d eb8c 543d f40a 69be be52 8a3d
000000f0: 1d98 1b3e 083b 59bb 39ab 6fbd 7372 183e
00000100: 4c85 063e 53f9 943b c90c 5a3e 5dca d83d
00000110: 90ee d33d 5fc4 ee3d 7c95 813d 2433 ce3c
00000120: 65d0 c73d 0255 0b3e d3f7 553d a75e 363d
00000130: 71ef 553c 8855 d5bc 19ee 093d 9aad d03c
00000140: 12c6 a7bd 30d0 83bd 75b7 3a3e 66e9 a23d
00000150: 11bc cc3d b8f0 b73d 7c4e 2e3c 2a65 123e
00000160: 4aa1 653e 2d15 543e 8cc1 b33c 9bd9 593d
00000170: af83 133e 2ee3 053e d00d 74bd 8704 d33d
00000180: 0c9c 163d dab2 8e3e 8783 68bd f65d 4bbe
00000190: 3d2b de3d 7918 aebd ce8d ee3d d7d2 b43d
000001a0: c9b7 863e 151f a5bd 8d6f d9bc 70a1 0e3d
000001b0: d8c3 cbbd 9d6c 5c3e ec40 ef3d f952 533b
000001c0: dc44 b5bd 611f 36be 04e7 eb3b d18f d33d
000001d0: 8cf7 073e bdcb 7e3c ebc2 16bd f574 673e
000001e0: ed81 b13d a57d 1abd 9e0d b63d c392 273e
000001f0: 8f70 87bd 0b08 e53d 85ae 5ebd 6e18 3fbd
00000200: 2e3b 8d3d 6ba5 973d ced5 373d 444b 8c3b
00000210: bd78 2e3d 8644 133e 0411 343e feff 303e
00000220: 991c 353d 45f7 de3d 0527 843b b7a5 3d3e
00000230: 8d29 d4ba 7594 09bc 1f1b 083e 8b39 6a3d
00000240: dc00 3e3c d2a0 30bd 2ef2 3bbd 6df0 423d
00000250: 72af 483d 1b61 8d3d 946c 043e 4427 223e
00000260: 56f8 ea3d 3329 d93d f3cd 98bd 5b75 283e
00000270: 4ee7 393d cc1b 873d 8aba 673d 6940 31bc
00000280: 6e36 063e a4df a43d 90ef 713d fb16 813d
00000290: 1eaf be3d 4285 cd3c edec 33bd 8731 243e
000002a0: be08 5dbd f611 b13d 64af 1fbc fff3 f43d
000002b0: 5699 48bd 0652 4e3d d913 493d 2df7 1f3e
000002c0: 178c 553e 08fa 4a3d 4ab3 9c3d 0862 613e
000002d0: 5d67 413d c32c 063d f6a2 073e 7e6b f83b
000002e0: 52ef 913d 1bef 2d3d b0c9 7a3d 91ec 433d
000002f0: 69ed b53d b66b 253e 1a39 1c3e adf5 edbc
00000300: e7fd f43d d309 463d 4918 623e ed6e 9cbd
00000310: 9e7b 703e 7f98 c53d 197a ed3c f356 103e
00000320: 8f23 87bd d207 aebd 0ab6 b7bd 27b8 13bd
00000330: a942 d73e 3a62 353e 9d7f cbbd c9e8 8e3e
00000340: 2f1d 52be 0857 2cbe 02e0 803d 2dc5 58bd
00000350: d789 5fbd e735 6cbb e436 1ebe e02e 1e3e
00000360: d9bb 9a3d cfd6 c23d 041f 3a3d 9671 2b3e
00000370: 7694 f03d af0b ba3d 22ca 2e39 d18a 283b
00000380: 5fd6 943d c4e9 203e 647c 4dbc b04c e23c
00000390: 5613 8a3d 1b15 9a3d 5a11 3c3d d191 1f3e
000003a0: f164 c03c 2b5e c33d 7a32 a53d 2053 2c3e
000003b0: 487f b43d 1c67 cb3d 9967 a2ba fbc1 91bc
000003c0: 7535 0d3e 5321 29bd 6178 ed3c 2ef7 0f3a
000003d0: 13ea cc3d bfb1 963e 6ff8 5bbd 3097 b93d
000003e0: 5194 e53d 5518 6c3e 6cac ed3d 3083 62bd
000003f0: f135 213d 34af 983d 8451 d3bc 23c9 8dbd
0.087712005 0.09464816 0.12255764 0.09520779 0.05799757 0.007912465 -0.03608612 0.100634314
0.13122563 0.060490247 -0.11227945 -0.071474485 0.018901322 0.10537793 -0.10325802 -0.032984175
0.18491626 0.06389453 0.047550466 0.05193045 0.011840495 0.09576122 0.049772423 0.07483153
0.037736416 0.26641744 0.08071365 0.051929455 0.068981305 0.11486723 -0.22167948 0.031077027
0.25732604 -0.020593448 0.16118625 0.05158363 0.18335901 -0.03480015 -0.12227306 0.16529642
-0.12629275 -0.013173755 0.13959782 -0.13510613 0.14848213 -0.032002565 -0.07580781 0.0598933
-0.15047914 0.15505381 0.106552474 -0.13544625 -0.11093002 0.08772766 -0.045114737 0.115880564
0.106369376 0.051892202 -0.22758085 0.06754063 0.15194745 -0.0033146758 -0.0585129 0.14887409
0.13136786 0.0045463233 0.2129394 0.10585473 0.103482366 0.116585486 0.0632734 0.02517087
0.09756545 0.13606647 0.052238297 0.04452386 0.013057576 -0.026041761 0.033674333 0.025473405
-0.08192076 -0.06436193 0.18234046 0.079546735 0.09996808 0.0898146 0.010638829 0.14296404
0.22424808 0.20711203 0.021942876 0.05318604 0.14405702 0.13074943 -0.059583485 0.10303598
0.03676991 0.27870828 -0.05676606 -0.19860062 0.10848091 -0.085007615 0.11648141 0.08829277
0.26312092 -0.08062569 -0.02654245 0.034821928 -0.099494636 0.21525808 0.11682305 0.00322455
-0.088510245 -0.17785408 0.00719917 0.10330165 0.13278025 0.015551505 -0.036806982 0.2260321
0.086673595 -0.03771748 0.08889316 0.16364579 -0.06613266 0.11183175 -0.054365654 -0.046654157
0.06896053 0.07404598 0.044881634 0.0042814333 0.042595614 0.14381608 0.17584616 0.17285153
0.044216726 0.10887007 0.004032972 0.18520246 -0.00161867 -0.008397211 0.13291596 0.057183784
0.011596885 -0.04312212 -0.045885257 0.04759257 0.048995443 0.06903287 0.12932044 0.15835291
0.114731476 0.10603561 -0.07461157 0.16451018 0.045386605 0.06597099 0.056574382 -0.010818579
0.13106701 0.080504686 0.059066355 0.06303211 0.09310745 0.025087956 -0.043927122 0.16034518
-0.053963415 0.08646004 -0.009746406 0.11960601 -0.048974358 0.050371192 0.049091194 0.15621634
0.20854221 0.049554855 0.07651384 0.22010052 0.047217716 0.03275753 0.13245758 0.0075811734
0.07125725 0.042464357 0.0612275 0.04783303 0.08883173 0.1615437 0.15256158 -0.029047811
0.119624905 0.048349213 0.22079577 -0.07638345 0.23484656 0.09648227 0.028988885 0.14095668
-0.06598579 -0.08497585 -0.08970268 -0.036064293 0.42043045 0.17713252 -0.0993645 0.27911976
-0.20518945 -0.16830075 0.06292726 -0.052922416 -0.054574814 -0.003604287 -0.15450627 0.15447569
0.0755536 0.09513628 0.045439735 0.16742548 0.11747067 0.0908426 0.00016669233 0.0025717507
0.072674505 0.15714175 -0.012541864 0.027624458 0.06741969 0.07523557 0.045914985 0.15582968
0.023485633 0.095394455 0.08066268 0.16828585 0.088133395 0.09931776 -0.0012390494 -0.017792692
0.13789923 -0.041291546 0.028988065 0.000549185 0.100055836 0.29432485 -0.05370372 0.0906204
0.1120993 0.23056157 0.116051525 -0.05530089 0.039358083 0.07455292 -0.025795706 -0.069231294
