save3_1_23/save3_Standing_4500.pth (torch, 942043 bytes, 11 tensors)

shared_net.0.weight f4 [512, 67]
0	0xbd241e10	-0.040067732
1	0x3d311018	0.04322824
2	0xbe073298	-0.13202894
3	0xbe44b5f7	-0.19210039
4	0xbd69d36f	-0.057086404
5	0xbce09642	-0.027415399
6	0xbd815d69	-0.06316645
7	0x3d8ef690	0.06980622
8	0xbbfa67b5	-0.0076417574
9	0x3d734685	0.059393425
10	0xbe12339e	-0.14277503
11	0xbcba0d6c	-0.022711478
12	0xbdbc0f6e	-0.091826305
13	0xbd4faa55	-0.05069955
14	0xbd968bf7	-0.07350915
15	0xbc9a99fe	-0.018872257
16	0x3dc3d8f5	0.09562866
17	0x3d82bdcb	0.063838564
18	0xbda24e07	-0.07925039
19	0xbe011ee1	-0.12609436
20	0xbc991024	-0.018684454
21	0x3dbe8b18	0.09303874
22	0x3d89d023	0.06729152
23	0x3e4a6760	0.19765997
24	0xbc5f6763	-0.013635489
25	0x3cdd3095	0.027000705
26	0x3dceb005	0.10092167
27	0xbdfe9d34	-0.12432328
28	0xbda7da0a	-0.081958845
29	0xbdf1d5ff	-0.11808395
30	0x3b8518e4	0.004061805
31	0x3db48b8c	0.08815679
32	0xbd35f821	-0.044426087
33	0xbc845a64	-0.016156383
34	0xbd2c47aa	-0.04206053
35	0xbd969d37	-0.07354205
36	0xbd5cc0e6	-0.0538949
37	0x3d946a64	0.07246855
38	0x3d3a7922	0.045525678
39	0x3cb1bb32	0.021695707
40	0x3cf73ba8	0.030179814
41	0xbd0874df	-0.033314582
42	0x3ceba30d	0.028764272
43	0xbd86152f	-0.06547009
44	0xbcfedaf6	-0.031110268
45	0xbd0df4e9	-0.034657393
46	0x3d3d6e22	0.04624761
47	0x3d4c757a	0.049916722
48	0xbd55d527	-0.05220523
49	0xbac9660b	-0.0015365494
50	0x3d197bc4	0.037471548
51	0x3ded3a32	0.115833655
52	0x3d85ed09	0.065393515
53	0x3ce69744	0.028148301
54	0x3dafdb4e	0.08586751
55	0xbd92d554	-0.07169595
56	0x3c3d5ff4	0.011558522
57	0xbde3185d	-0.11088631
58	0xbd8c162a	-0.06840165
59	0xbd4211a9	-0.047380123
60	0x3d83a3a7	0.064276986
61	0x3d711129	0.058854256
62	0xbd27395d	-0.04082619
63	0x3cfb1270	0.03064844
64	0x3d93db5b	0.07219573
65	0xbca0add3	-0.019614136
66	0x3c128786	0.008943444
67	0xbcc330ef	-0.023827044
68	0x3dc7d6b4	0.09757748
69	0x3e4318e0	0.19052458
70	0xbdc68e25	-0.09695081
71	0xbcbc0d88	-0.022955671
72	0x3d08fc11	0.033443514
73	0x3e67ee3a	0.2264947
74	0x3db49b4d	0.08818684
75	0x3da0f01e	0.07858299
76	0x3d2de5e7	0.04245558
77	0xbe779ea1	-0.24181606
78	0x3bc5307f	0.006017744
79	0xbe157453	-0.14595155
80	0xbd214520	-0.039372563
81	0x3ddbbc5e	0.107292876
82	0x3daf470a	0.085584715
83	0xbdbb7d99	-0.09154815
84	0x3d478761	0.04871309
85	0xbc441997	-0.011968992
86	0xbc3e2483	-0.011605385
87	0xbdf1e423	-0.11811092
88	0x3d92d04d	0.071686365
89	0x3dd72031	0.10504187
90	0x3e2d29f4	0.16910535
91	0x3d8abf47	0.067747645
92	0x3de483bc	0.11157939
93	0x3c4b327a	0.012402171
94	0x3c09eff1	0.008419023
95	0xbe06d60a	-0.13167587
96	0xbd85e747	-0.06538253
97	0x3d00aa64	0.031412497
98	0xbd7d03f3	-0.061771344
99	0xbd604d5a	-0.05476127
100	0x3dd112e4	0.10208681
101	0x3d667b82	0.05627013
102	0xbd425999	-0.04744873
103	0x3c13a348	0.009011097
104	0xbdb83328	-0.08994132
105	0xb9e6e416	-0.00044038956
106	0x3b4ef581	0.0031579437
107	0xbd80d012	-0.06289686
108	0xbc933dab	-0.017973742
109	0x3cb304e5	0.02185292
110	0xbd3121be	-0.04324507
111	0x3d7b183a	0.0613024
112	0xbcb01e05	-0.02149869
113	0x3d2cfdca	0.04223422
114	0x3db1dc58	0.08684605
115	0xbe2f1b52	-0.17100266
116	0xbb6b480e	-0.0035901102
117	0xbc9d8bcd	-0.019231701
118	0xbbe3486c	-0.0069361236
119	0x3d57da9a	0.05269871
120	0x3d32d27a	0.043657757
121	0x3957d33f	0.00020582693
122	0xbd213760	-0.03935945
123	0x3d35ff32	0.044432826
124	0xbde8c85f	-0.11366343
125	0xbd245c80	-0.040127277
126	0xbd13df47	-0.036101606
127	0xbd22b0a9	-0.039719258
128	0xbcbddfc5	-0.02317799
129	0xbe0f7e36	-0.1401299
130	0xbc13154f	-0.008977248
131	0x3cd2c7ea	0.025730092
132	0xbdc310fa	-0.095247224
133	0xbc76c22f	-0.015060945
134	0x3da3b1c7	0.07992893
135	0x3b7bd6df	0.0038427634
136	0xbd460ded	-0.048353124
137	0x3d8f3269	0.06992037
138	0x3ce9ad44	0.028525002
139	0x3dbbf32e	0.09177242
140	0x3e1189db	0.14212744
141	0x3d8a0b90	0.067404866
142	0x3dccc44b	0.099983774
143	0x3aafb5ee	0.001340566
144	0xbe46cf11	-0.19414927
145	0xbe2df92d	-0.16989584
146	0x3d7cc1a9	0.061708126
147	0x3cee1212	0.029061351
148	0xbc58d33c	-0.013233956
149	0xbdc5f9aa	-0.0966676
150	0xbe355d34	-0.17711335
151	0xbd89bfc3	-0.06726029
152	0x3c01f082	0.007930877
153	0x3ddf8c97	0.10915487
154	0x3d8e6541	0.069529064
155	0xbddfc845	-0.1092687
156	0x3c8ceb61	0.017202081
157	0xbd7468b6	-0.059670173
158	0xbcf74b78	-0.030187353
159	0xbd81311d	-0.06308196
160	0xbd17cbef	-0.03705972
161	0xbc9943cc	-0.018709086
162	0xbdfba31e	-0.122869715
163	0xbe136a76	-0.1439608
164	0xba8c1454	-0.0010687211
165	0xbcf21b12	-0.029553924
166	0xbd81f796	-0.063460514
167	0x3c857efb	0.0162959
168	0xbd9852e5	-0.07437686
169	0xbcb00f8c	-0.021491788
170	0x3e0a8ba3	0.1352983
171	0xbd0a0ebf	-0.03370547
172	0x3dedd3da	0.11612673
173	0xbb69146c	-0.003556515
174	0xbdf228fa	-0.11824222
175	0x3d56d4df	0.052449103
176	0x3d0f0802	0.034919746
177	0xbd81ac8e	-0.0633174
178	0x3dd631ce	0.10458718
179	0xbdc866ec	-0.09785256
180	0x3c972108	0.018448368
181	0xbbf6f56c	-0.007536581
182	0x3d80408e	0.06262313
183	0x3d78a596	0.06070479
184	0x3d5bf1d8	0.053697437
185	0x3c98c710	0.018649608
186	0xbc467d4c	-0.012114834
187	0xbd2684b2	-0.04065389
188	0xbe004fa7	-0.12530385
189	0x3dbdc2af	0.092656486
190	0x3dae7f11	0.0852033
191	0x3d947ac5	0.07249979
192	0xbd96d2ea	-0.073644474
193	0xbce05714	-0.027385272
194	0xbd83097c	-0.063982934
195	0xbd47c9ca	-0.048776425
196	0xbdc99787	-0.09843355
197	0x3d73fa97	0.059565153
198	0xbd3ab93a	-0.045586802
199	0xbcd05c9b	-0.025434783
200	0xbba5d66c	-0.0050609615
201	0x3dd42061	0.10357738
202	0xbdbdbafa	-0.092641786
203	0xbdc5fa1a	-0.09666844
204	0xbdde3ce9	-0.108514614
205	0x3c4c2b25	0.012461458
206	0xbd3d123b	-0.046159964
207	0x3e18580c	0.14877337
208	0x3ccf89af	0.025334207
209	0x3b8087a0	0.0039224178
210	0x3c92bacd	0.01791134
211	0x3ceace8c	0.028662942
212	0x3d473090	0.048630297
213	0xbdc050ac	-0.09390387
214	0xbdfbd87b	-0.1229715
215	0x3da7a339	0.08185429
216	0xbd7335a1	-0.059377316
217	0xbdbaaa95	-0.09114567
218	0x3dfc9f0f	0.123350255
219	0xbd27d3c9	-0.04097346
220	0xbdce57fd	-0.10075376
221	0x3e12239d	0.14271398
222	0xbcddff8e	-0.027099397
223	0xbe089488	-0.1333791
224	0xbd8b3c4d	-0.06798611
225	0xbcafa2dc	-0.021439962
226	0xbd77fcee	-0.060543947
227	0x3cd4b37f	0.025964497
228	0xbe132440	-0.14369297
229	0xbd04ed48	-0.03245285
230	0x3ca45c95	0.020063678
231	0x3d5150ea	0.051102556
232	0x3d57b3f9	0.05266187
233	0x3d2f828c	0.04284911
234	0x3d7219c6	0.05910661
235	0xbd2d4bea	-0.042308725
236	0x3cbb4a5a	0.022862602
237	0xbd1400d6	-0.03613361
238	0x3a236064	0.000623232
239	0x3cc5d6ea	0.02415033
240	0x3d699223	0.057024132
241	0x3d97b1e1	0.074069746
242	0xbcaab297	-0.020837111
243	0xbd56e11f	-0.052460786
244	0x3cc777ad	0.024349058
245	0xbd90b600	-0.07065964
246	0x3da96d14	0.08272758
247	0xbc4b0f72	-0.012393819
248	0xbc9f838e	-0.01947191
249	0xbd8ffcd5	-0.07030646
250	0xbd17d12a	-0.03706471
251	0xbc04ebfe	-0.008112906
252	0x3d9630e2	0.073335424
253	0xbb1826e3	-0.0023216538
254	0xbdec9f25	-0.11553792
255	0xbd91c215	-0.07117096

shared_net.0.bias f4 [512]
0	0x3d594115	0.053040583
1	0x3dcf9e6a	0.10137637
2	0xbd6764d7	-0.056492653
3	0x3d01657d	0.031590927
4	0xbdc683c9	-0.09693105
5	0x3c91598d	0.017742896
6	0xbdabaf9b	-0.083831035
7	0x3c19c694	0.009385724
8	0xbd1d5cd9	-0.038418625
9	0x3d8d3b5b	0.06896087
10	0x3d952ecf	0.07284319
11	0xbd9a8502	-0.075449005
12	0xbd89ea03	-0.06734087
13	0xbd138b3b	-0.036021452
14	0xbd224437	-0.039615836
15	0xbdc596b5	-0.09647886
16	0xbdc13f75	-0.094359316
17	0xbd790a31	-0.060800735
18	0x3ccf70e1	0.02532238
19	0xbd33fd7b	-0.04394291
20	0x3d7208d4	0.05909045
21	0x3dcb6e12	0.099331036
22	0x3dade102	0.084901825
23	0xbdc4245f	-0.0957725
24	0xbc39f880	-0.011350751
25	0x3d77fac0	0.06054187
26	0xbc604e15	-0.013690491
27	0x3dc25a3a	0.094898656
28	0xbc87ff71	-0.016601296
29	0xbd6e056c	-0.05811064
30	0x3c325bb7	0.010886124
31	0x3db894d1	0.090127595
32	0x3ddea203	0.10870745
33	0xbcf32310	-0.029679805
34	0xbda1e55d	-0.07905076
35	0x3cf776b9	0.030207979
36	0x3ceb1a9d	0.028699214
37	0x3d9a1de5	0.07525233
38	0xbdc0d671	-0.094159015
39	0xbe095e62	-0.1341491
40	0xbd9546cd	-0.07288895
41	0xbde26173	-0.11053743
42	0x3d3f1562	0.04665125
43	0x3dae5d7d	0.08513925
44	0xbb8b07d7	-0.004242878
45	0xbe0c05e6	-0.13674125
46	0xbcc8f0db	-0.024528911
47	0x3d84c554	0.0648295
48	0xbdd35955	-0.10319773
49	0xbdcf285e	-0.10115121
50	0x3d590170	0.052979887
51	0xbd877809	-0.06614692
52	0x3d189a37	0.037256446
53	0x3dfa0611	0.12208188
54	0x3c6eff1d	0.014587191
55	0xbdf30ba7	-0.11867457
56	0xbc97fbac	-0.018552624
57	0x3dc12ee7	0.09432774
58	0xbdc6cc7f	-0.09706973
59	0xbd61903c	-0.055069193
60	0x3dc348b5	0.09535352
61	0x3db5c0b6	0.08874647
62	0x3d0682c4	0.03283955
63	0xbd62ea06	-0.055398963
64	0xbd3d78b9	-0.04625771
65	0xbcbead0c	-0.023275875
66	0x3d8065a9	0.0626939
67	0x3dc9bbbf	0.09850263
68	0x3ddecf85	0.10879425
69	0x3c232b9f	0.009959131
70	0x3dc78f81	0.09744168
71	0xbdb9db18	-0.09074992
72	0x3da1ad5f	0.07894396
73	0xbc940374	-0.018068053
74	0xbd2b6aca	-0.04184989
75	0x3e0b39d4	0.13596278
76	0xbdb2b263	-0.08725431
77	0x3d35921d	0.044328798
78	0xbcd7d66f	-0.026347367
79	0x3c5a2cbe	0.013316331
80	0xbc87c654	-0.016574062
81	0xbdd213b2	-0.10257663
82	0x3d092c71	0.03348965
83	0xbe050fc1	-0.12994291
84	0xbb65fb30	-0.0035092346
85	0xbdaacfd3	-0.083404206
86	0xbc893222	-0.016747538
87	0x3a420576	0.00074013264
88	0xbda68504	-0.081308395
89	0xbe053a82	-0.130106
90	0xbdf4b4d0	-0.1194855
91	0xbcbebf75	-0.023284653
92	0xbdaf945e	-0.08573221
93	0xbd6386ae	-0.055548362
94	0xbd8d0cb3	-0.06887188
95	0xbdddafac	-0.108245224
96	0xbe03b1f6	-0.12860855
97	0x3d97bc56	0.07408969
98	0xbde174b7	-0.1100859
99	0x3cb648f1	0.022251578
100	0x3dfcea35	0.12349359
101	0xbddeaf76	-0.1087331
102	0x3d45ba76	0.048273526
103	0x3d3de4b0	0.04636067
104	0x3bf8d0d5	0.007593254
105	0xbd6db068	-0.058029562
106	0x3dd0ec1a	0.10201283
107	0x3db09e6b	0.08623966
108	0xbddfff91	-0.10937417
109	0xbc724e3d	-0.014789161
110	0x3e09adde	0.13445231
111	0xbda427f8	-0.08015436
112	0x3df7d4b7	0.12101119
113	0x3d90f580	0.070780754
114	0xbd846315	-0.06464211
115	0x3cb89e02	0.022536281
116	0xbc8df7a7	-0.017330004
117	0x3cf57ed9	0.029967712
118	0x3bc9bb7a	0.006156382
119	0xbdb72e6c	-0.08944401
120	0x3c3c3aaf	0.011488601
121	0xbdea86b7	-0.11451476
122	0x3e123c31	0.14280774
123	0xbdbfcd53	-0.09365334
124	0xbce0126b	-0.027352532
125	0xbdc209eb	-0.09474548
126	0xbdbea7dc	-0.093093604
127	0xbda8870e	-0.08228885
128	0x3d990755	0.074721016
129	0x3d3d16d5	0.046164352
130	0xbd892668	-0.066967785
131	0xbdc0b9b9	-0.09410424
132	0xbdcd2f98	-0.100188434
133	0x3d0577c4	0.03258492
134	0x3d1c06a3	0.038092267
135	0x3cf19ca0	0.02949363
136	0xbdadb2d2	-0.08481373
137	0xbd9140e2	-0.070924535
138	0xbd11172f	-0.0354225
139	0xbde3abe8	-0.11116773
140	0xbda05f2b	-0.07830652
141	0xbce98b5b	-0.028508833
142	0xbdaf456f	-0.08558165
143	0xbde515ee	-0.111858234
144	0xbc24760f	-0.010037913
145	0xbdbf55f0	-0.09342563
146	0xbd05d5c5	-0.03267457
147	0xbda43eef	-0.08019816
148	0x3d332b23	0.04374231
149	0x3d8b69f8	0.06807321
150	0x3d2d3a72	0.042292066
151	0xbcaefab9	-0.021359788
152	0xbc7e9324	-0.015538011
153	0x3ca50451	0.02014366
154	0xbce3ea03	-0.027821546
155	0xbe13bc6e	-0.14427349
156	0xbd8aea4a	-0.06782968
157	0xbd946a02	-0.07246782
158	0xbd36361e	-0.044485204
159	0xbbeb5e25	-0.0071828538
160	0x3e19b0c8	0.15008843
161	0x3ba2482d	0.0049524517
162	0x3c21166a	0.009832004
163	0x3c4e0050	0.012573317
164	0xbd34c59b	-0.044133764
165	0x3db2a771	0.08723343
166	0x3ca5b8f9	0.020229803
167	0x3c4abf5c	0.012374725
168	0x3d94a278	0.07257551
169	0x3cf7b9b9	0.030239927
170	0x3d12a28f	0.03579956
171	0xbdc23edb	-0.09484645
172	0xbdde4196	-0.10852353
173	0xbc9f117e	-0.01941752
174	0x3c6abfce	0.014327956
175	0xbd65b1d4	-0.056077793
176	0xbe0b7d26	-0.13621959
177	0xbde14c32	-0.11000861
178	0x3c82e25b	0.015977075
179	0x3d3be02c	0.045868084
180	0xbd6f1329	-0.058367882
181	0xbd22d689	-0.039755378
182	0x3d111d41	0.03542829
183	0xbcf5993b	-0.029980293
184	0x3d5f2c4a	0.054485597
185	0xbdb9e9b0	-0.090777755
186	0xbdfdaf70	-0.12386978
187	0xbd9d1bc9	-0.07671315
188	0x3da9a718	0.08283824
189	0x3d926578	0.0714826
190	0x3d941831	0.07231177
191	0xbc339dd5	-0.010962923
192	0x3e055de0	0.13024092
193	0x3c5262da	0.012840951
194	0x3c9cc8e2	0.019138757
195	0x3e097aa0	0.13425684
196	0x3dd2f638	0.10300869
197	0x3e1312f2	0.14362696
198	0x3d022c6f	0.031780656
199	0xbcf14f17	-0.029456658
200	0xbdfc10e7	-0.12307911
201	0xbe030498	-0.12794721
202	0xbdb81a6e	-0.08989416
203	0xbd84eee5	-0.06490878
204	0x3c5a6d93	0.013331789
205	0x3c6532de	0.013989178
206	0x3d8b8c42	0.068138614
207	0xbd777560	-0.060414672
208	0x3d618e8e	0.05506759
209	0x3c68d91c	0.014211919
210	0xbd552968	-0.05204144
211	0x3badb54c	0.0053011533
212	0xbd015405	-0.031574268
213	0xbd9b5f04	-0.07586482
214	0x3d733d0a	0.059384383
215	0xbe0b1d1e	-0.13585326
216	0x3e009df0	0.12560248
217	0xbd19938e	-0.037494235
218	0x3de9a8ae	0.11409126
219	0xbe0b9270	-0.1363008
220	0xbdfdd99b	-0.123950206
221	0xbd577390	-0.052600443
222	0xbdf00fb6	-0.117217466
223	0xbd3e2bb7	-0.04642841
224	0xbd220b54	-0.039561585
225	0x3dbc5d01	0.091974266
226	0xbc58c368	-0.013230182
227	0x3d9e2afb	0.077230416
228	0xbd5065d7	-0.050878372
229	0xbe1c5c06	-0.15269479
230	0xbdf6610b	-0.12030228
231	0xbd9fefff	-0.078094475
232	0xbd8f6a6f	-0.070027225
233	0xbe22bdc5	-0.15892704
234	0xbd551cc7	-0.052029397
235	0x3e09e3f3	0.13465862
236	0xbd495819	-0.049156282
237	0x3ca67cd6	0.020323198
238	0xbe181758	-0.14852655
239	0x3d63ab7b	0.05558346
240	0xbde9475d	-0.113905646
241	0xbcc76259	-0.024338888
242	0xbd0b89da	-0.034067012
243	0xbdfc8b76	-0.123312876
244	0xbd009a8d	-0.03139739
245	0xbdd339a5	-0.10313729
246	0x3b3e8b47	0.0029074715
247	0xbdd45555	-0.10367838
248	0xbd8c07d4	-0.068374306
249	0x3c8cd722	0.017192427
250	0x3d8fc413	0.0701982
251	0xbdbee43e	-0.093208775
252	0xbd5c41e4	-0.053773776
253	0xbe015514	-0.12630111
254	0x3a457aca	0.00075332506
255	0xbdf9c570	-0.12195861

shared_net.2.weight f4 [256, 512]
0	0x3c73aed5	0.014873226
1	0xbd0c34ad	-0.034229923
2	0xbbc1a62a	-0.005909701
3	0xbd2db4f5	-0.042408902
4	0xbcf546d5	-0.029941002
5	0xbd0c744a	-0.03429059
6	0x3c9a1669	0.018809514
7	0x3ba90242	0.00515774
8	0x3b19a1c6	0.0023442372
9	0x3c895c68	0.016767696
10	0xbbf73ef1	-0.007545345
11	0xbcce6ab4	-0.025197364
12	0x3cfb066f	0.030642716
13	0xbcc1c8c3	-0.023655301
14	0xbd0c4e0d	-0.034254123
15	0xbd130e36	-0.035902224
16	0x3b977b4a	0.0046228515
17	0xbba95174	-0.0051671807
18	0xbb1f43da	-0.0024301917
19	0x3c8cb049	0.017173903
20	0xbd7e6e14	-0.062116697
21	0x3d33a66f	0.043859895
22	0xbd19fff3	-0.037597608
23	0x3d0a0be1	0.033702735
24	0xbcdff57f	-0.027338741
25	0xbc6dee15	-0.014522095
26	0xbc192f33	-0.009349632
27	0xbd68e408	-0.056858093
28	0xbd0b0078	-0.033935994
29	0x3aa044d3	0.0012227542
30	0xbc7c3766	-0.015394067
31	0xbca06bb4	-0.019582607
32	0x3be9c06c	0.007133534
33	0xbb1ad623	-0.002362617
34	0xbd137068	-0.03599587
35	0x3c3c7f4d	0.01150496
36	0xbd11bde4	-0.035581484
37	0x3c52dc9f	0.012869983
38	0xbda5c437	-0.08094066
39	0xbce39815	-0.02778248
40	0x3bb74d29	0.005593915
41	0xbc9b5945	-0.018963465
42	0xbc4e2899	-0.012582921
43	0xbc4a23e3	-0.012337658
44	0xbcaf6ea7	-0.021415068
45	0x3c45f65d	0.012082663
46	0xbd2a727b	-0.041613083
47	0xbd3f0420	-0.046634793
48	0x3d2fc406	0.042911552
49	0xbccd4f93	-0.025062358
50	0x3cd8561d	0.02640825
51	0x3cfe1bf3	0.031019187
52	0x3c1790ac	0.009250801
53	0xbdb9a6da	-0.090650275
54	0xbc9069c0	-0.01762855
55	0xbce2d95a	-0.027691532
56	0xbbf9977c	-0.0076169353
57	0xbc8237c5	-0.015895734
58	0xbd2b2b13	-0.041789126
59	0x3d6272ba	0.055285193
60	0xbca76798	-0.02043514
61	0xbc6d5990	-0.014486685
62	0x3c7a9f80	0.015296817
63	0x3d8fb591	0.07017053
64	0xbc2941eb	-0.0103306575
65	0x3cd9aeea	0.026572663
66	0xbd192fe2	-0.03739918
67	0x3d00c03e	0.031433336
68	0x3b908739	0.004410651
69	0xbc97ccba	-0.018530238
70	0xbd43d4a6	-0.04781022
71	0x3b811c40	0.0039401352
72	0x3bce742f	0.0063004713
73	0x3caf659b	0.021410754
74	0xbc640071	-0.013916121
75	0xbc443436	-0.011975339
76	0x3d0142ff	0.031558033
77	0x3c093dab	0.008376519
78	0xbd11464f	-0.035467442
79	0x3d28b2ec	0.04118626
80	0xbcaf3753	-0.021388685
81	0x3c83c736	0.016086202
82	0x3d0fd4b6	0.035114966
83	0xbbf4dbc5	-0.0074724876
84	0x3ce4b7de	0.027919706
85	0x3ced99fc	0.02900409
86	0xbd28d902	-0.04122258
87	0x3c23e92c	0.010004323
88	0x3cc33b97	0.023832126
89	0xbbb142c7	-0.005409572
90	0xbb2c4364	-0.0026285285
91	0xbabefb35	-0.0014570715
92	0x3cc04edc	0.023475103
93	0xbcb364d5	-0.021898666
94	0xbc8804b6	-0.016603809
95	0x3d338a1e	0.04383289
96	0xbc7b67dd	-0.015344587
97	0x3cdc3eef	0.026885478
98	0x3d49a214	0.049226835
99	0x3d130ef1	0.03590292
100	0xbd1d3bc6	-0.038387083
101	0xba4d45f0	-0.0007830551
102	0x3c3b50a0	0.011432797
103	0x3d2b2b1f	0.04178917
104	0xbd418924	-0.047249928
105	0xbd43fc2d	-0.047847915
106	0xbcca6c1c	-0.024709754
107	0xbbcf0877	-0.0063181478
108	0x3d684dae	0.056714706
109	0xbc9d387a	-0.01919197
110	0x3cbfcd20	0.02341324
111	0xbd16e432	-0.036838718
112	0xbd88d4fd	-0.06681249
113	0xbb8239a0	-0.0039741546
114	0x3cab087c	0.02087807
115	0x3a69f3a2	0.0008924549
116	0xbd7daaa0	-0.0619303
117	0x3d1ed915	0.038781244
118	0x3cc5cb7c	0.02414488
119	0xbc340970	-0.010988578
120	0x3c75f61a	0.0150122885
121	0xbccca6ce	-0.024981882
122	0x3c8d6cbe	0.017263766
123	0xbcbad4da	-0.022806574
124	0x3c9b6ef0	0.018973798
125	0x3d06d602	0.032918938
126	0xbb394922	-0.002827235
127	0xbae599ef	-0.0017517189
128	0xbc0bd1c4	-0.008533899
129	0xbd2a5fb0	-0.04159516
130	0x3d594130	0.053040683
131	0x3d0901a8	0.033448845
132	0xbd4ea1de	-0.050447337
133	0x3ca048dc	0.019565992
134	0x3d72ff8b	0.059325736
135	0x3d38fb57	0.04516157
136	0xbd18df0c	-0.03732209
137	0x3b192e2f	0.0023373475
138	0xbbae30a0	-0.005315855
139	0x3cb2662f	0.02177724
140	0x3cb19f02	0.021682266
141	0xbd463e9c	-0.048399553
142	0xbd445b60	-0.047938704
143	0xbce4b124	-0.027916498
144	0xbbb3c8a4	-0.0054865647
145	0x3cbe1ed3	0.023208058
146	0x3ca9263b	0.020648113
147	0xbba50ae7	-0.0050367
148	0xbc189e93	-0.009315151
149	0x3bf84284	0.0075762887
150	0x3ce4a2cf	0.027909664
151	0x3d1fb670	0.038992345
152	0x3d1da610	0.038488448
153	0xbd239013	-0.03993232
154	0xbd053de3	-0.032529723
155	0xbd08133b	-0.033221465
156	0x3d186f43	0.037215482
157	0xbcfe1073	-0.031013703
158	0xbcdcb181	-0.02694011
159	0xbd300598	-0.042974085
160	0xbcc6c874	-0.024265505
161	0x3d1fa4aa	0.038975395
162	0xbd40f1eb	-0.04710571
163	0xbc4be6ce	-0.012445165
164	0x3c9bcd60	0.019018829
165	0x3cb99d08	0.022657886
166	0xbcdd93f5	-0.02704809
167	0xbd0c22f9	-0.03421304
168	0xbb673930	-0.003528189
169	0x3c23937e	0.009983895
170	0xbc6a3740	-0.014295399
171	0x3d0dc0ff	0.034607884
172	0x3bddaad3	0.0067647486
173	0xbcec1324	-0.02881772
174	0x3aa7bdb8	0.001279763
175	0xbc86ca62	-0.016453926
176	0xbae4752c	-0.001742994
177	0xbd1b8c4d	-0.037975598
178	0xbd469917	-0.04848584
179	0x3ca4b315	0.020104924
180	0xbd2a922e	-0.041643314
181	0x3c47c040	0.012191832
182	0x3c36a79e	0.0111483615
183	0x3ce43d8b	0.027861377
184	0xbd51fd0f	-0.051266726
185	0x3be43478	0.0069642626
186	0xbb94b9ed	-0.0045387656
187	0xbb9f3f55	-0.0048598447
188	0x3d0641fa	0.032777764
189	0xbd35a2b3	-0.044344615
190	0x3c80d763	0.015727704
191	0x3c56ca0f	0.013109698
192	0xbd13cdd6	-0.036084972
193	0x3ab97210	0.0014148373
194	0x3d66b6be	0.05632662
195	0xbd4d8662	-0.050176986
196	0x3d131754	0.03591092
197	0x385bdcae	5.2419193e-05
198	0xbc9d825f	-0.019227205
199	0xbc80ba03	-0.015713697
200	0x3d0607f4	0.03272243
201	0xbd159f61	-0.03652895
202	0x3bb57d89	0.0055386466
203	0xbb5d186c	-0.003373648
204	0xbcb222c4	-0.021745093
205	0xbd4f2e2e	-0.05058115
206	0xbc824e6a	-0.015906531
207	0x3d29ec30	0.04148501
208	0x3cfd04b3	0.03088603
209	0x3d045433	0.03230686
210	0x3cf66dfe	0.030081745
211	0xbc71eb2b	-0.014765541
212	0x3d4aa4cb	0.049473565
213	0x3d499ea0	0.049223542
214	0xbd609592	-0.05483014
215	0x3cde22c8	0.027116194
216	0xbcf19f5a	-0.02949493
217	0xbcb56bce	-0.022146132
218	0x3c5d6ce8	0.013514735
219	0x3af6a308	0.0018816898
220	0x3b503ece	0.0031775716
221	0xbca95f73	-0.020675397
222	0xbd067124	-0.032822743
223	0xbd5f17aa	-0.054465927
224	0x3d34de98	0.044157594
225	0xbd6a31a5	-0.05717625
226	0xbd07eeda	-0.03318677
227	0xbd5b089b	-0.053475004
228	0xbc3e50da	-0.011615956
229	0x3d04cc38	0.03242132
230	0x3d2c254a	0.04202775
231	0x3cb733a0	0.022363484
232	0x3cf38e79	0.029731022
233	0x3c836f9f	0.016044436
234	0xbc59d63f	-0.013295709
235	0xbd71ab42	-0.059001215
236	0xbcc024bb	-0.023455014
237	0x3bbdb854	0.005789796
238	0x3c2b5180	0.010456443
239	0xbc68122b	-0.014164488
240	0x3cf72dc5	0.030173192
241	0xbbf52dcc	-0.007482266
242	0x3c49a5c7	0.012307591
243	0xbd23addd	-0.03996073
244	0x3c6cff0d	0.014465106
245	0x3d84353f	0.064554684
246	0xbc9a84ef	-0.018862216
247	0x3cf09cd2	0.029371653
248	0xbce34f93	-0.027747905
249	0x3d616513	0.055028033
250	0xbce65b79	-0.02811979
251	0x3cabcb94	0.020971097
252	0xbd7b0760	-0.06128633
253	0x3d42c8bf	0.047554728
254	0x3c9f474d	0.019443179
255	0x3d34997a	0.04409168

shared_net.2.bias f4 [256]
0	0xbd326524	-0.043553486
1	0xbd628524	-0.055302754
2	0x3cdc9fcb	0.026931664
3	0x3c143eb4	0.009048153
4	0x3ce394bb	0.027780881
5	0x371381bc	8.792089e-06
6	0x3c9cb54a	0.019129414
7	0x3ca17d06	0.019712936
8	0xbbb3553e	-0.005472808
9	0xbd5123e8	-0.051059633
10	0xbc1f2ebf	-0.009715735
11	0xbc4dd241	-0.0125623355
12	0xbca09b6b	-0.019605359
13	0x3c65b79a	0.014020825
14	0xbcbd12bc	-0.023080222
15	0x3c72d3de	0.014821021
16	0x3b060cb4	0.002045435
17	0xbcac4cd7	-0.021032734
18	0xbcc558f2	-0.024090264
19	0x3ca2d796	0.01987819
20	0x3ca5b795	0.02022914
21	0xbbd2d9f7	-0.006434675
22	0xbce4e850	-0.027942806
23	0x3b156196	0.0022793761
24	0x3cf81e2e	0.030287828
25	0x3a748bfa	0.00093287195
26	0xbc9c8906	-0.019108307
27	0xbcffcced	-0.031225646
28	0x3c411954	0.011785824
29	0x3d3a6873	0.045509767
30	0xbd1bc20b	-0.03802685
31	0x3c9a7388	0.018853918
32	0xbc3fea9f	-0.011713653
33	0xbd43fb2c	-0.047846958
34	0xbd978d37	-0.073999815
35	0xbcbafd8e	-0.022825982
36	0xbd844f30	-0.06460416
37	0xbc9a9c68	-0.018873408
38	0xbc4a6d24	-0.012355123
39	0xbd238b10	-0.039927542
40	0xbcc8754d	-0.024469996
41	0xbd7ce41c	-0.06174098
42	0xbd0da0ec	-0.034577295
43	0xbc373e4e	-0.011184288
44	0xbc9b988e	-0.018993642
45	0x3d258555	0.04041036
46	0xbc94f4ea	-0.01818319
47	0xbd3c3ea9	-0.045958195
48	0x3d045ece	0.032316975
49	0xbc8c0180	-0.017090559
50	0xbc43f785	-0.011960869
51	0xbd161d89	-0.03664926
52	0xbca1071e	-0.019656714
53	0xbbd860b2	-0.006603324
54	0xbccd2f67	-0.025047017
55	0xbc81f0da	-0.015861917
56	0x3c01c31b	0.007920052
57	0xbcc4433a	-0.023957837
58	0xbd1f2dc9	-0.038862024
59	0xbcd3bc59	-0.025846647
60	0xbc30994e	-0.010778738
61	0x3cd9356b	0.02651473
62	0x3d1be6dd	0.038061965
63	0xbce40f08	-0.027839199
64	0xbb6f0a42	-0.003647462
65	0xbb22c71f	-0.0024837924
66	0x3cd55e76	0.026046019
67	0x3c89e050	0.016830593
68	0xbbff47a1	-0.0077905213
69	0x3c311fae	0.010810776
70	0xbd5b7d27	-0.05358615
71	0x3b38f0a7	0.0028219612
72	0x3c34e088	0.011039861
73	0xbcb8335c	-0.022485428
74	0xbc85d6ad	-0.016337717
75	0xbc3fcbd1	-0.011706308
76	0xbcced33e	-0.025247212
77	0xbd9b1fd4	-0.0757443
78	0xbc4807a0	-0.012208849
79	0xba073348	-0.0005157483
80	0xbcbb9dca	-0.022902388
81	0xbd0a1389	-0.033710036
82	0x3ba411b3	0.0050069927
83	0xbc9c58cd	-0.019085312
84	0xbb595074	-0.0033159526
85	0xbb288729	-0.0025715327
86	0x3c94a19a	0.018143464
87	0xbd28b902	-0.041192062
88	0x3c9279eb	0.0178804
89	0xbcfaa056	-0.030594032
90	0x3cf3a79b	0.029743006
91	0x3c9ee126	0.019394469
92	0xbd120e4a	-0.03565816
93	0xbd4109ac	-0.047128364
94	0xbcd846e0	-0.026400983
95	0xbd0ada82	-0.03389979
96	0xbcc8a0ba	-0.024490703
97	0xbd53cc6d	-0.051708627
98	0xbcbd6ec2	-0.023124103
99	0xbd571e08	-0.052518874
100	0x3d4e28b5	0.05033179
101	0xbcbb7ded	-0.022887195
102	0x3cdf5045	0.027259955
103	0xbbcd2121	-0.006260053
104	0xbd5b4b86	-0.05353882
105	0x3bc8a642	0.006123335
106	0xbc9c1ce9	-0.019056754
107	0xbc160380	-0.009156108
108	0xbc7a9cf4	-0.01529621
109	0x3cf58b99	0.029973792
110	0x3c5b648b	0.0133906705
111	0xbd4a82a7	-0.049441006
112	0xbd36cf0c	-0.04463105
113	0x3b9aba87	0.004721943
114	0xbd0e9839	-0.03481314
115	0x3c47731c	0.01217344
116	0xbccacd02	-0.024755958
117	0xbc84d805	-0.016216287
118	0xbd274361	-0.040835742
119	0x3b32f116	0.0027304343
120	0xbcdc37bc	-0.026882045
121	0xbbbbcdfe	-0.0057313433
122	0x3ce91b99	0.028455542
123	0xbd32e551	-0.043675724
124	0xbce5a92f	-0.028034775
125	0x3c2c8de2	0.010531874
126	0xbd5d64de	-0.054051273
127	0xb9d6732b	-0.00040903068
128	0xbcdfc870	-0.027317256
129	0x3c8ff642	0.01757348
130	0xbc8332b7	-0.016015394
131	0xbd328d0c	-0.043591544
132	0xbc21eb41	-0.009882749
133	0x3ca174c7	0.019709004
134	0xbd15105a	-0.036392547
135	0x3cbe3d40	0.023222566
136	0xbcfddcf8	-0.030989155
137	0xbc10d5ef	-0.008840068
138	0xbcdef1c1	-0.027214887
139	0xbcb243ce	-0.021760847
140	0xbbd9ef4b	-0.0066508404
141	0xbd4074a5	-0.04698624
142	0xbc9af2ff	-0.018914698
143	0xbd4df502	-0.050282486
144	0xbd46a0b8	-0.048493117
145	0xbcc7cee5	-0.024390647
146	0x3d59195e	0.053002708
147	0x3cd0f073	0.02550528
148	0x3cc8f047	0.024528636
149	0x3c1180da	0.008880818
150	0xbd0380a0	-0.03210509
151	0x3d30d86d	0.04317515
152	0xbcf31dc7	-0.029677285
153	0xbd159f53	-0.036528897
154	0x3c2bd2d0	0.010487273
155	0xbd2163bc	-0.039401755
156	0xbce08101	-0.027405264
157	0xbbbf39cc	-0.0058357473
158	0xbafa912e	-0.0019116753
159	0x3c23c052	0.009994583
160	0x3c2fca83	0.010729435
161	0xbca8aa5d	-0.020589048
162	0xbbf35120	-0.0074254423
163	0x3cecbba5	0.02889807
164	0xbc66c0db	-0.014084066
165	0xbc660411	-0.014039055
166	0x3cc0dcc4	0.02354277
167	0xbd52939f	-0.051410314
168	0xbc0cd1ae	-0.008594913
169	0xbd698810	-0.057014525
170	0xbc9c83b7	-0.019105775
171	0xbc42f89f	-0.011900096
172	0x3d36501b	0.04450999
173	0xbd346ca4	-0.04404892
174	0x3caeed43	0.02135337
175	0xbd2f8ac2	-0.04285694
176	0xbcb81544	-0.022471078
177	0x3d187cf4	0.03722854
178	0x3c893db6	0.016753059
179	0xbcfb4d05	-0.030676374
180	0xbd38c970	-0.04511398
181	0xbc7b6bc2	-0.015345516
182	0x3ce78044	0.028259404
183	0xbd9e9a9c	-0.07744333
184	0xbbc4542b	-0.005991479
185	0xbce1478c	-0.027499937
186	0x3c422869	0.011850455
187	0xbc29283d	-0.010324535
188	0xbce9ea55	-0.028554121
189	0xbb655793	-0.0034994825
190	0xbd0575af	-0.032582935
191	0xba591d73	-0.00082822813
192	0x3d0b5351	0.034015004
193	0x3b19d987	0.0023475604
194	0x3bbefff0	0.00582885
195	0xbd4e3b14	-0.05034931
196	0x3ac3e7dd	0.001494642
197	0x3d1b5a50	0.037927926
198	0xbc0bade2	-0.008525344
199	0x3cf133d2	0.029443655
200	0x3c25a49e	0.010110049
201	0xbd0a0c2d	-0.033703018
202	0x3cd342bf	0.025788663
203	0x3c5a47e6	0.013322806
204	0xbb3aeea4	-0.0028523589
205	0xbcd8892a	-0.026432592
206	0xbc6585a2	-0.014008911
207	0xbcd87aa0	-0.02642566
208	0xbcb03809	-0.021511095
209	0xba0be01d	-0.00053358247
210	0x3a70c67a	0.0009184849
211	0xbd0865f3	-0.03330035
212	0x3c89fe4c	0.016844891
213	0xbc9ce453	-0.019151842
214	0x3bde8d69	0.0067917597
215	0x3c7551f9	0.014973157
216	0xbcbf6a1b	-0.023366025
217	0xbd6af2f1	-0.057360593
218	0x3b987f4f	0.0046538482
219	0xbd4f50ba	-0.050614096
220	0xbcedaa8a	-0.029011983
221	0x3d1f2169	0.03885022
222	0xbcd3ace2	-0.025839273
223	0x3c19ce32	0.00938754
224	0x3d0da908	0.03458503
225	0x3d4bc97d	0.0497527
226	0x3cef9ca3	0.029249495
227	0x3b998fde	0.0046863398
228	0xbd5d3577	-0.054006066
229	0xbd1f7845	-0.038933057
230	0xbb9a3412	-0.0047059143
231	0xbd483f89	-0.048888717
232	0xbd5ed6a4	-0.054403916
233	0xbcfd03dc	-0.03088563
234	0xbc46456f	-0.012101515
235	0x3c0d7085	0.008632784
236	0xbc66ee89	-0.014094957
237	0x3c65688a	0.014001975
238	0xbd206dca	-0.039167203
239	0xbc2d678d	-0.01058377
240	0xbb6157c6	-0.0034384592
241	0xbd1c8487	-0.038212325
242	0xbc0b534c	-0.008503746
243	0x3ccf4e82	0.02530599
244	0xbca175ef	-0.019709555
245	0xbc3f9bf2	-0.011694895
246	0xbd0c8f29	-0.034316216
247	0x3c58698a	0.013208756
248	0xbd753cc0	-0.05987239
249	0x3cbe35c2	0.023218993
250	0xbc671c30	-0.0141058415
251	0x39d7e085	0.00041175276
252	0x3ce5a90a	0.028034706
253	0xbc292b77	-0.010325304
254	0x3b819150	0.00395409
255	0xbbf94b92	-0.0076078856

to_mean.0.weight f4 [128, 256]
0	0xbd6f4001	-0.05841065
1	0xbd43842e	-0.04773348
2	0x3d35fcf1	0.044430677
3	0x3c43a734	0.01194172
4	0x3cc240a6	0.023712467
5	0x3bf748cd	0.0075465203
6	0x3cf9f8cb	0.030514142
7	0xb998c001	-0.00029134753
8	0xbc8d708b	-0.017265579
9	0xbd38181e	-0.044944875
10	0x3c7661f6	0.015038004
11	0x3bbaf92b	0.0057059727
12	0x3d966d1e	0.07345031
13	0xbc88b54a	-0.016688008
14	0x3da4c09f	0.08044552
15	0x3d4c697b	0.04990528
16	0xbd1ad1af	-0.037797626
17	0xbd559352	-0.05214245
18	0xbd03b594	-0.03215559
19	0x3c98a345	0.01863254
20	0x3d000fcd	0.03126507
21	0x3d7e0d55	0.062024433
22	0x3d11f3d1	0.035632912
23	0x3d3d6c68	0.046245962
24	0xbc870ac0	-0.016484618
25	0xbd9ecf35	-0.07754365
26	0xbd8b3326	-0.06796865
27	0xbc22ae33	-0.009929228
28	0xbcc7e96f	-0.024403302
29	0xbd03baaf	-0.032160457
30	0xbb08eb1d	-0.0020892092
31	0x3bbfa681	0.0058487062
32	0xbccb559f	-0.0248211
33	0xbba9d99a	-0.005183411
34	0x3c98970f	0.018626718
35	0xbc2625cb	-0.0101408465
36	0xbcce4756	-0.0251805
37	0xbd035e4d	-0.032072354
38	0xbc81f960	-0.015865982
39	0xbc15b076	-0.00913631
40	0x3d8cb681	0.06870747
41	0xbc0fc620	-0.008775264
42	0x3c81f012	0.015861545
43	0xbd06fb3a	-0.032954432
44	0x3d9dc34f	0.07703268
45	0x3ceaa783	0.028644329
46	0xbca70163	-0.020386403
47	0x3ca34837	0.019931896
48	0xbd92cd36	-0.07168047
49	0xbd26a0e4	-0.04068078
50	0x3c608dbc	0.013705667
51	0xbce779a8	-0.028256252
52	0xbd18180e	-0.037132315
53	0xbcf2f961	-0.029659929
54	0x3d8585c4	0.065196544
55	0xbcabe25c	-0.02098196
56	0xbd6fa770	-0.05850929
57	0xbd2903ff	-0.041263577
58	0xbc8e1280	-0.017342806
59	0x3d351e6b	0.044218462
60	0x3b4caab4	0.0031229677
61	0xbcf837e1	-0.030300083
62	0xbd412678	-0.047155827
63	0xbc35839f	-0.011078744
64	0x3d93f98e	0.07225333
65	0x3cb51b96	0.02210788
66	0xbcdec8b8	-0.02719532
67	0xbbc8a142	-0.006122739
68	0x3cf14f65	0.029456804
69	0x3d3cf9a8	0.04613653
70	0xbbfd97e6	-0.007739055
71	0x3c0fbcfa	0.008773083
72	0x3c0c0b88	0.008547671
73	0x3ca44dfc	0.020056717
74	0xbcd50596	-0.02600364
75	0xbc12463e	-0.00892788
76	0xbc50be59	-0.012740695
77	0x3c689d0c	0.014197599
78	0xbcd15315	-0.025552312
79	0x3d06c48c	0.032902285
80	0xbc6d9115	-0.014499922
81	0xbd2df5b5	-0.042470653
82	0x3d35047a	0.044193722
83	0x3c6909f5	0.014223565
84	0xbd0ab1d7	-0.033861008
85	0xbd019e7e	-0.03164529
86	0xbcbbe047	-0.022934092
87	0x3d46de50	0.048551857
88	0x3cc8baf4	0.024503209
89	0x3d3114c9	0.043232713
90	0xbd1180f2	-0.035523362
91	0xbd55f08c	-0.052231357
92	0x3c8429eb	0.01613327
93	0x3cb12dc9	0.021628277
94	0x3bb1d49d	0.005426957
95	0x3d02892d	0.031869102
96	0xbd2b8084	-0.04187061
97	0xbd6086f4	-0.0548162
98	0xbcee702a	-0.029106218
99	0x3bcf5aad	0.006327948
100	0x3d3406c6	0.043951772
101	0xbd0ad873	-0.03389783
102	0xbd2f9eb9	-0.04287598
103	0x3d5634d9	0.052296493
104	0x3d26b002	0.040695198
105	0xbc83669f	-0.016040144
106	0x3c0b6823	0.008508715
107	0xbd54cc56	-0.051952682
108	0x3baf67ad	0.0053529353
109	0xbc92e1e4	-0.017929979
110	0xba1c7141	-0.0005967804
111	0xbcbc0a8e	-0.022954252
112	0xbd2756a0	-0.040854096
113	0x3d38c87b	0.045113068
114	0x3d8ea1df	0.06964468
115	0x3c81253b	0.015764823
116	0xbc947bb3	-0.01812539
117	0x3cbee16b	0.023300847
118	0x3c7ee379	0.015557163
119	0xbd345dbe	-0.044034712
120	0xbd2d3566	-0.042287253
121	0xbc442215	-0.011971016
122	0x3bcca035	0.006244684
123	0xbd7ae2f4	-0.061251596
124	0xbc05f857	-0.008176885
125	0xbd8e5b90	-0.06951058
126	0xba86993c	-0.0010269056
127	0xbd0c719c	-0.034288034
128	0xbca93dda	-0.020659376
129	0x3cc52935	0.0240675
130	0xbd1b1e70	-0.037870824
131	0x3d922f24	0.071378976
132	0x3c05248b	0.008126388
133	0x3d3fc243	0.04681612
134	0x3c356d39	0.011073404
135	0x3cf23989	0.02956845
136	0x3b061a31	0.0020462389
137	0x3b07b299	0.0020705818
138	0x3c54fc27	0.012999571
139	0xbbcc5061	-0.006235168
140	0x3d814647	0.063122325
141	0x3d2134fa	0.039357163
142	0xbd34bc0f	-0.04412466
143	0x3d36cbf7	0.04462811
144	0x3d20e2c4	0.03927876
145	0x3c374374	0.011185516
146	0xbd4ff0cc	-0.05076675
147	0xbd02b81d	-0.031913865
148	0xbc33ab15	-0.010966082
149	0x3c773807	0.015089042
150	0xbcaeaf04	-0.021323688
151	0x3d1c234e	0.038119607
152	0x3cf9c3c1	0.03048885
153	0xbcdf49db	-0.027256897
154	0x3d32b6d1	0.04363138
155	0xbd3bf364	-0.045886412
156	0x3cab2143	0.020889884
157	0xbb39d52f	-0.0028355827
158	0xbd4888f3	-0.04895873
159	0xbb55353d	-0.0032532953
160	0x3cc05a35	0.023480514
161	0xbca4015d	-0.020020181
162	0xbc04e3d3	-0.008110958
163	0xbc307ddb	-0.010772194
164	0xbae901f7	-0.0017777075
165	0x3c8787cd	0.016544247
166	0x3d989b11	0.074514516
167	0x3bf21995	0.0073883035
168	0x3d237b54	0.039912537
169	0x3d0dfcc5	0.034664888
170	0xbc141fa9	-0.0090407515
171	0xbce956be	-0.028483745
172	0xbd0059cc	-0.031335637
173	0xbcae3260	-0.021264255
174	0x3d524305	0.051333446
175	0xbcfebb40	-0.031095147
176	0x3d4b1e0c	0.0495892
177	0xbcf47b0d	-0.029843831
178	0x3ceda0fa	0.029007424
179	0xbc85323a	-0.016259301
180	0xbce0c8ea	-0.027439553
181	0x3c564604	0.013078216
182	0xbc62ce6a	-0.013843158
183	0xbc526a3a	-0.012842709
184	0x3cfd74b6	0.030939441
185	0x3cbcf0d7	0.02306406
186	0x3ca4b3c9	0.02010526
187	0xbd16b1f6	-0.03679081
188	0x3d228a8b	0.039682906
189	0x3d7ef8af	0.062248882
190	0x3ce1207c	0.02748131
191	0x3d479ae0	0.048731685
192	0xbc57528f	-0.013142242
193	0xbd059b8a	-0.032619037
194	0xbc9c7c70	-0.019102305
195	0xbb6a2188	-0.0035725553
196	0xbcd0dd6d	-0.025496209
197	0xb9d754c1	-0.00041071142
198	0xbd5f3666	-0.054495238
199	0xbbd8cb70	-0.0066160485
200	0x3d99a5aa	0.07502301
201	0xbd355320	-0.044268727
202	0xbaac2dd7	-0.001313622
203	0x3b47bb6a	0.0030476698
204	0xbc3c5f43	-0.011497322
205	0xbbf959d9	-0.0076095876
206	0x3d4cf6c5	0.050040025
207	0x3cd10f86	0.025520097
208	0xbcc2259f	-0.02369958
209	0x3d3805ad	0.044927288
210	0xbbbcf596	-0.005766581
211	0x3d11e600	0.035619736
212	0x3d68481e	0.0567094
213	0xbcf60023	-0.030029362
214	0x3d4197ba	0.04726384
215	0xbd05f10c	-0.032700583
216	0x3d2030e5	0.03910913
217	0x3d7ec714	0.062201574
218	0xbca876c0	-0.020564437
219	0x3c7f676f	0.015588625
220	0x3d47123c	0.048601374
221	0x3d0dac3c	0.034588084
222	0xbd109076	-0.03529402
223	0x3d249188	0.040177852
224	0x3cc973b1	0.024591299
225	0xbcd160e3	-0.025558895
226	0x3cd4ffde	0.026000913
227	0xbc9c0719	-0.019046353
228	0xbd1dd36e	-0.038531713
229	0x3d649418	0.055805296
230	0x3cb46ae4	0.022023626
231	0xbd951bfa	-0.07280727
232	0xbc02b493	-0.007977623
233	0xbc8cb3f7	-0.017175658
234	0x3d135a52	0.035974808
235	0xbd069e28	-0.032865673
236	0xbc37f1c1	-0.011227072
237	0xbaa28fce	-0.0012402476
238	0xba5ba811	-0.0008379231
239	0xbd40f808	-0.04711154
240	0xbd157fa3	-0.036498677
241	0x3d08ab66	0.033366583
242	0xbcccf200	-0.025017738
243	0x3c0eac90	0.008708134
244	0x3c540772	0.012941228
245	0x3d4ba387	0.0497165
246	0x3cfc0aa2	0.030766789
247	0xbcbf561b	-0.023356488
248	0x3cdd89c5	0.027043233
249	0xbd00c866	-0.031441115
250	0xbd2fd099	-0.042923544
251	0xbd8707a1	-0.06593252
252	0xbc098573	-0.008393633
253	0x3d88dfe0	0.06683326
254	0x3bac446e	0.005257181
255	0xbd3a7d0f	-0.04552942

to_mean.0.bias f4 [128]
0	0x3d42eace	0.04758721
1	0xbb59ef29	-0.0033254123
2	0x3c419c4c	0.011817049
3	0xbd9d2f76	-0.07675068
4	0xbd5be42c	-0.0536844
5	0xbc21374d	-0.009839845
6	0x3d105671	0.035238687
7	0x3d4f3dca	0.050596036
8	0x3adc32aa	0.0016799767
9	0x3c4e30a0	0.012584835
10	0xbd8a872a	-0.06764062
11	0xbda9f969	-0.08299524
12	0xbcad6f15	-0.021171132
13	0x3cf80813	0.030277288
14	0x3ca1423c	0.019684903
15	0xbcebf499	-0.028803157
16	0x3d0d7f26	0.034545086
17	0x3cbf5afd	0.023358816
18	0x3d0224b1	0.031773273
19	0xbdbefced	-0.093255855
20	0x3cafa341	0.02144015
21	0xbd42acd2	-0.047528096
22	0x3d761d3e	0.06008648
23	0x3cfcd90c	0.030865215
24	0xbdc025f1	-0.09382237
25	0x3d4dba67	0.050226595
26	0xbc43f906	-0.011961227
27	0xbbf14711	-0.007363208
28	0x3d45f6c3	0.048331033
29	0xbd5684d9	-0.052372787
30	0xbb9ca48f	-0.004780359
31	0x3d221657	0.039572086
32	0xbc9ce2a5	-0.019151041
33	0x3c959d2e	0.018263426
34	0xbda92784	-0.0825949
35	0xbcef89a8	-0.029240444
36	0x3cbbd8f7	0.022930605
37	0xbd49eb17	-0.049296465
38	0xbb8ac766	-0.004235196
39	0xbd4c6869	-0.04990426
40	0xbcbc2251	-0.022965582
41	0x3d695631	0.056966964
42	0xbdc1bd70	-0.094599605
43	0xbd08140f	-0.033222254
44	0x3ca5f321	0.020257534
45	0x3d0e7150	0.034776032
46	0xb884619d	-6.3124324e-05
47	0x3cb36b16	0.021901648
48	0xbd430a07	-0.047616985
49	0x3bca10be	0.0061665466
50	0x3d35212b	0.044221085
51	0xbc01612b	-0.007896702
52	0x3d5bf42d	0.05369966
53	0xbd503c14	-0.050838545
54	0xbd9b3c15	-0.07579819
55	0xbcffd24f	-0.031228213
56	0xba955801	-0.0011394025
57	0xbd6d09de	-0.05787074
58	0x3d1c0484	0.038090244
59	0xbd473f51	-0.048644368
60	0x3d56cfa6	0.052444123
61	0xbcf2632d	-0.029588306
62	0x3c1a4d44	0.009417836
63	0x3ca08ebd	0.019599313
64	0xbdd62091	-0.1045543
65	0x3d052158	0.032502502
66	0x3d87048e	0.065926656
67	0xbdd27f0c	-0.102781385
68	0x3b41fd4e	0.0029600444
69	0x3c99c8d5	0.018772522
70	0xbb28a6cb	-0.0025734182
71	0xbc9bf12b	-0.019035896
72	0x3d15a152	0.0365308
73	0xbc8b54ab	-0.017008146
74	0xbdaf875f	-0.08570742
75	0x3cf5c69d	0.030001933
76	0xbd6898b3	-0.05678625
77	0xbd200634	-0.039068416
78	0xba335ef1	-0.00068424555
79	0xbd2b7bf0	-0.041866243
80	0x3cc7bfd5	0.024383465
81	0x3d05261a	0.03250704
82	0x3cec815b	0.028870275
83	0xbd02f8f3	-0.031975698
84	0x3c8f8fa5	0.01752455
85	0xbd08eb63	-0.033427607
86	0x3c4f941c	0.012669589
87	0xbc877102	-0.016533379
88	0x3d5b478b	0.053535026
89	0x3b79ede9	0.003813619
90	0x3c8b3ee3	0.01699776
91	0xbcf41ab1	-0.029797884
92	0xbd98d76e	-0.07462965
93	0xbdb1c72f	-0.086805694
94	0x3ccc7125	0.024956295
95	0x3c4ddda6	0.012565052
96	0x3cc553c0	0.024087787
97	0xbd4d3c3e	-0.05010628
98	0xbd1366c6	-0.035986684
99	0x3d918050	0.07104552
100	0xbdbd99b3	-0.092578314
101	0x3d87799d	0.06614993
102	0xbd59ceea	-0.053175844
103	0x3d1a4949	0.037667546
104	0xbd1a0fab	-0.0376126
105	0xbd69f51f	-0.05711853
106	0xbd6f6eb9	-0.058455203
107	0xbd776dc8	-0.06040743
108	0x3d92115d	0.07132218
109	0x3d4bea93	0.049784254
110	0x3ceb319b	0.028710177
111	0xbdb4222f	-0.087955825
112	0x3cfae6ac	0.030627571
113	0xbca4168c	-0.020030282
114	0xbd25a2a9	-0.040438328
115	0x3d33293a	0.04374049
116	0x3c97aa1f	0.018513737
117	0xbd76bcb8	-0.06023857
118	0xbd3e06ba	-0.046393134
119	0x3d0afdb3	0.033933353
120	0x3d349372	0.044085927
121	0xbda2226d	-0.079167224
122	0x3b96e706	0.004605177
123	0x3d2901b8	0.041261405
124	0x3cb8a55b	0.022539785
125	0xbca879dc	-0.02056592
126	0x3d2fc6e7	0.042914297
127	0x3d42c808	0.047554046

to_mean.2.weight f4 [18, 128]
0	0x3ae60800	0.0017549992
1	0x3b03f774	0.0020136507
2	0xbb2e973f	-0.0026640443
3	0xbd1b1574	-0.037862256
4	0x386ed4fd	5.6941983e-05
5	0xbb174d59	-0.0023086874
6	0x3a35c541	0.0006933995
7	0x3c1ea674	0.00968324
8	0xbb125537	-0.0022328624
9	0x3c8b5458	0.017007992
10	0xbbbccc0d	-0.0057616294
11	0xbd0c0844	-0.03418757
12	0x3c2e66e4	0.010644648
13	0x3a982c59	0.0011609896
14	0x3a486dcc	0.00076457555
15	0x3b9a97ad	0.004717788
16	0xb8afea9a	-8.388348e-05
17	0xbb064d68	-0.0020492915
18	0x3b9266ed	0.004467836
19	0x3cb2da1b	0.021832516
20	0xbb54e765	-0.0032486555
21	0xb990fd16	-0.00027654384
22	0x3b82307a	0.003973064
23	0xbc014525	-0.0078900205
24	0x3ca2c78a	0.019870538
25	0xbb3f8d90	-0.0029228665
26	0xbc81e679	-0.015856968
27	0xbcb374d6	-0.021906298
28	0x3a878fb9	0.0010342515
29	0xbabb09e5	-0.0014269917
30	0xbb20c496	-0.0024531237
31	0xbafd713a	-0.0019336112
32	0xbb0019b3	-0.0019546568
33	0x3c8068a2	0.015674893
34	0x3bed7e36	0.0072477115
35	0x3cc8eead	0.024527872
36	0x3c874a4b	0.016514918
37	0xbd242ea9	-0.04008356
38	0x3a8c3b33	0.0010698795
39	0x3cb692e3	0.022286838
40	0xbade9974	-0.0016982988
41	0xbaf38ea5	-0.001858194
42	0xbd38f809	-0.04515842
43	0x3b610620	0.0034335926
44	0xbc8c9366	-0.017160129
45	0x3ab6a9f5	0.0013936149
46	0x3c2b0d60	0.010440201
47	0xbc23a836	-0.009988835
48	0x3c9ce80c	0.019153617
49	0x3a7966aa	0.00095138943
50	0x3b39159c	0.002824164
51	0xb904a63b	-0.00012650427
52	0xb9b8dab8	-0.00035258173
53	0xbba5dc0c	-0.005061632
54	0x3b3beb7e	0.00286743
55	0x3cec0d82	0.028815035
56	0xbb648a54	-0.003487249
57	0xbc08fb7f	-0.008360743
58	0x3bf58b60	0.0074934214
59	0xbb16ad70	-0.002299156
60	0x3af6d61d	0.0018832121
61	0x3cab6765	0.020923326
62	0xbbb363e9	-0.0054745567
63	0x3a494c69	0.00076789275
64	0xbd447289	-0.04796079
65	0x3bee3fbc	0.0072707813
66	0x382d48f6	4.1314364e-05
67	0xbd129041	-0.035782102
68	0xba17797a	-0.0005778294
69	0xbabe01e9	-0.0014496419
70	0x3d09866a	0.033575453
71	0x3ce9375f	0.028468786
72	0x394c8539	0.00019504585
73	0xbb1b49c9	-0.0023695102
74	0x3c97bb2c	0.018521868
75	0xbb820764	-0.003968166
76	0xbd4f1619	-0.050558183
77	0xbc5e77ee	-0.013578398
78	0x3c9a54e7	0.018839313
79	0xba07f9f0	-0.0005187085
80	0xb98607ad	-0.0002556419
81	0xba0ea212	-0.00054410205
82	0xba5cf613	-0.0008429002
83	0x3b820112	0.0039674127
84	0xbb0b78bd	-0.0021281682
85	0xbba856ec	-0.005137315
86	0xb9e496c2	-0.00043599872
87	0x3ca57db1	0.020201536
88	0xbc56cbc3	-0.013110104
89	0x3a07ca0f	0.00051799504
90	0xbb2376c8	-0.0024942625
91	0xbb1ed387	-0.0024234967
92	0xbb84023f	-0.004028588
93	0xbc85a239	-0.016312705
94	0x3c09e2ed	0.00841592
95	0xbc3a0ed3	-0.011356073
96	0xbc3c98b9	-0.011511021
97	0xbcb65d86	-0.022261392
98	0xbca059cd	-0.01957407
99	0x390e1814	0.00013551145
100	0xbb0ae095	-0.002119099
101	0xbc36c3ef	-0.011155113
102	0xbb1dc1fb	-0.002407192
103	0xbbcc01e0	-0.0062258095
104	0xbcebfe41	-0.028807761
105	0xbc5cc1e1	-0.013473959
106	0xbc42a385	-0.011879806
107	0xb9e87ce5	-0.00044343542
108	0xbb2b654b	-0.0026152905
109	0x3a5b5ccf	0.00083680166
110	0x3b21157a	0.0024579451
111	0xbc8b621c	-0.017014556
112	0xbbd0a5ab	-0.0063674054
113	0xbc511b96	-0.012762925
114	0xbcf430a8	-0.029808357
115	0x3c2b7ec2	0.010467233
116	0x3b86c72a	0.0041130977
117	0xbb83674b	-0.004010116
118	0xbd0eb319	-0.03483877
119	0x3b179c7e	0.0023134048
120	0x3a9d8455	0.0012017587
121	0xbd1f64b1	-0.038914386
122	0x3b52820a	0.0032120966
123	0xbbe09f1f	-0.006854906
124	0xbab34f80	-0.0013680309
125	0xbbe5aec9	-0.0070093614
126	0xbbb52083	-0.0055275573
127	0xbb8f0230	-0.0043642744
128	0x3b2f256d	0.0026725188
129	0x3aa39f1c	0.0012483331
130	0x3a427255	0.00074175495
131	0xbd09a775	-0.033606965
132	0xbb840519	-0.004028928
133	0x3bb7daef	0.0056108157
134	0xbb9654dc	-0.0045877527
135	0x3c64be30	0.01396136
136	0x3a2d4d06	0.00066109037
137	0xbc225df1	-0.009910093
138	0xbb96a40c	-0.0045971926
139	0x3d02ee6d	0.03196566
140	0x3b00ad99	0.0019634722
141	0xbba67ecf	-0.0050810347
142	0x39391569	0.00017650951
143	0xbb918882	-0.004441322
144	0x3ccabb69	0.024747567
145	0xbbcb4ccb	-0.006204223
146	0x3ae06f6a	0.0017123048
147	0x3b02d6b0	0.001996439
148	0x3af5bc0b	0.0018748058
149	0x3a6edb00	0.0009111613
150	0xbb50fd37	-0.003188921
151	0xbbc2e5fd	-0.005947827
152	0xbd05f697	-0.03270587
153	0x3bbcfdf2	0.0057675773
154	0xbc3a451d	-0.011369017
155	0x3c0ee6c9	0.008722016
156	0x3b221a08	0.0024734754
157	0xbbd0cd2f	-0.006372116
158	0xbc1bc819	-0.009508156
159	0xbb37c20a	-0.002803924
160	0xbb712c10	-0.0036799945
161	0xbc3d00fd	-0.01153588
162	0x3c968d59	0.018377947
163	0x3c796139	0.015220934
164	0x3c2fd32b	0.010731499
165	0xbbaea130	-0.0053292736
166	0x3be3f022	0.0069561163
167	0x3cff1d1f	0.031141816
168	0x3b6d39d4	0.0036197798
169	0x39a64618	0.0003171421
170	0x3cb545a6	0.022127938
171	0x3b6bce51	0.0035981128
172	0x3c49dc41	0.012320579
173	0xb9c7af1c	-0.00038086704
174	0xbbced643	-0.006312163
175	0x3b872d2d	0.0041252584
176	0xbaacfb9b	-0.0013197543
177	0xbbf84852	-0.0075769806
178	0x3bc86167	0.006115127
179	0xb98d6c60	-0.0002697436
180	0xbb160485	-0.0022890877
181	0xbb0e8759	-0.0021748154
182	0x3c1f44ce	0.009720994
183	0x3d00593d	0.031335104
184	0x3b685dcf	0.0035456305
185	0x3c72b4d2	0.014813619
186	0x3bbf3026	0.005834597
187	0x3acbd9dd	0.0015552599
188	0xbaae0460	-0.001327645
189	0xbce7a664	-0.028277583
190	0x3b7c7536	0.0038522012
191	0xbafb7e67	-0.0019187451
192	0xba716687	-0.0009208698
193	0x3c0f9fac	0.008766096
194	0x3b38995f	0.0028167588
195	0xbcfcc7fa	-0.030857075
196	0x3add017e	0.0016861407
197	0xb840c59d	-4.596041e-05
198	0x3cd21111	0.025642904
199	0x3d128125	0.035767693
200	0x3ba822ba	0.005131093
201	0x39c24863	0.00037056496
202	0xbc257195	-0.010097881
203	0xba2b9872	-0.00065458484
204	0xbcf41677	-0.029795868
205	0xbc6c0341	-0.014405073
206	0xbc38233f	-0.011238872
207	0xbbb596ed	-0.0055416734
208	0xbb143fd9	-0.0022621064
209	0x3b1ab46a	0.002360607
210	0xbae7ce1b	-0.0017685326
211	0xbc468413	-0.01211645
212	0xbbe61276	-0.0070212437
213	0x3c8cce7f	0.017188309
214	0xbbdd7cbe	-0.006759255
215	0xbccd71e6	-0.025078725
216	0xbbc2b2b0	-0.0059417114
217	0xbc37aea3	-0.01121107
218	0xb9ac8323	-0.000329041
219	0x3bc129e1	0.005894885
220	0x3d0187e1	0.031623725
221	0xbc37a5fd	-0.011209008
222	0xb91dad1c	-0.00015037175
223	0xbbd583f6	-0.006515975
224	0xbbd6949e	-0.0065484783
225	0xbc4a133f	-0.01233369
226	0xbc3c4bff	-0.011492728
227	0x3b9a9af9	0.004718181
228	0x3d2d14a2	0.042256005
229	0xbcab0284	-0.020875223
230	0xbcd0f1eb	-0.02550598
231	0x3c2ce5fd	0.01055288
232	0x391e85ef	0.00015117948
233	0x3b9c80c1	0.004776091
234	0x3bb54cad	0.005532822
235	0x3cb7a1d5	0.022416035
236	0x3b6b2e04	0.0035885582
237	0x3cbc9e9d	0.023024851
238	0x3b0bc219	0.0021325408
239	0xbbcd4258	-0.0062640123
240	0xbbef8487	-0.0073094997
241	0xbc8c72fb	-0.01714467
242	0xbc80d1bc	-0.01572501
243	0xbcd191b9	-0.025582181
244	0xbbbf7e6a	-0.005843927
245	0x3b856413	0.0040707677
246	0xba181282	-0.0005801098
247	0xba816703	-0.0009872619
248	0x3a48c5c9	0.0007658867
249	0xbc2224d7	-0.009896479
250	0x3c7027da	0.014657939
251	0xba9bcc00	-0.0011886358
252	0xbb2f9834	-0.00267936
253	0x3bb0b7b0	0.005392991
254	0x3c656ecc	0.014003467
255	0xbbe868c3	-0.0070925667

to_mean.2.bias f4 [18]
0	0xbb4593d8	-0.0030147936
1	0x3d29bdd0	0.041440785
2	0x3c3af259	0.011410319
3	0xbdc745bb	-0.09730097
4	0x3ba990e2	0.005174742
5	0xbda39925	-0.079881944
6	0xbdd0feb3	-0.1020483
7	0xbc4e9b50	-0.012610272
8	0x3d45a2ed	0.04825108
9	0xbcca07f4	-0.024661995
10	0xbd0addd1	-0.033902947
11	0xbc92af05	-0.017905721
12	0x3d3c22be	0.04593157
13	0xbdb20cea	-0.086938694
14	0xbde0d338	-0.10977787
15	0x3d17d438	0.037067622
16	0x3db26e9f	0.087125055
17	0x3d9b0912	0.075700894
