save4_1_23/save8_Standing_NewLegRew4800.pth (torch, 914331 bytes, 11 tensors)

shared_net.0.weight f4 [512, 55]
0	0xbd881a69	-0.06645662
1	0x3dbf4e6d	0.093411304
2	0xbe151aee	-0.14561054
3	0xbd880770	-0.066420436
4	0xbdbeb999	-0.09312744
5	0x3d82c7ea	0.06385787
6	0x3d913a2c	0.070911735
7	0x3da379a2	0.07982184
8	0xbc956b70	-0.018239707
9	0x3d8096a8	0.062787354
10	0xbdd1e5be	-0.10248898
11	0xbdb70f0d	-0.089384176
12	0xbe29801d	-0.16552778
13	0xbe05d7cc	-0.13070601
14	0xbcdec4d6	-0.027193468
15	0xbc215216	-0.009846231
16	0x3da964f3	0.08271208
17	0x3d618222	0.055055745
18	0xbe16a386	-0.14710817
19	0xbd73904e	-0.05946379
20	0xbd134740	-0.03595662
21	0x3e4fea44	0.20304209
22	0xbd29fe69	-0.04150239
23	0x3e0bdf96	0.1365951
24	0x3ba73495	0.005102704
25	0xbcf78d82	-0.030218843
26	0x3e279f64	0.16369396
27	0xbdf68a1b	-0.1203806
28	0xbd4e5a6e	-0.05037921
29	0xbb0900b9	-0.0020904972
30	0x3b71b25e	0.0036879997
31	0x3e05cbfb	0.13066094
32	0xbd8f0144	-0.06982663
33	0xbc907b22	-0.01763684
34	0xbe124a49	-0.1428615
35	0xbd8f3c3e	-0.06993912
36	0xbcf6c63f	-0.030123828
37	0x3d683809	0.056694064
38	0x3dd44e72	0.10366525
39	0x3b93e9cf	0.004513956
40	0x3d7cbe03	0.061704647
41	0xbdbf85c5	-0.093516864
42	0x3da1860c	0.078868955
43	0xbe39bb81	-0.18137933
44	0xbd5dd2e5	-0.054156203
45	0xbd5b916a	-0.053605475
46	0x3e1c72a6	0.1527811
47	0x3d8b0bcd	0.0678936
48	0xbdcb66c6	-0.09931712
49	0xbd559afc	-0.052149758
50	0x3d18994a	0.037255563
51	0x3d506806	0.050880454
52	0xbdc45aea	-0.09587653
53	0xbcb51890	-0.022106439
54	0x3da4c67d	0.08045671
55	0xbe36588c	-0.17807215
56	0x3d5ab4d1	0.053395096
57	0xbdf8eb4a	-0.12154253
58	0xbdc72fd9	-0.09725923
59	0xbdfb7155	-0.12277476
60	0x3d77e5ab	0.060521763
61	0x3c5e2ab9	0.013559991
62	0xbd986bf7	-0.07442468
63	0xba571973	-0.00082053914
64	0x3d8c84a0	0.06861234
65	0xbd94ed66	-0.07271843
66	0xbd5b25e0	-0.053502917
67	0xbcddb2f3	-0.027062869
68	0x3e2b18d2	0.16708687
69	0xbd8bd3b4	-0.068274885
70	0xbbb2abb8	-0.0054525994
71	0xbe1511ff	-0.14557646
72	0xbdc673c2	-0.09690048
73	0xbe1725c1	-0.14760496
74	0x3d886e53	0.06661668
75	0xbd9e318b	-0.07724293
76	0x3dfa2f9a	0.122161105
77	0xbec6057f	-0.38676068
78	0xbe9c4ca8	-0.30527234
79	0xbcfb5f4f	-0.030685095
80	0xbdf364cd	-0.118844606
81	0x3da238a3	0.07920959
82	0x3d988dda	0.07448931
83	0xbdf33717	-0.11875742
84	0x3d932cc5	0.071862735
85	0xbcdc8fc6	-0.026924025
86	0xbcb04f25	-0.021522114
87	0xbcf11898	-0.029430673
88	0x3d82dd8a	0.063899115
89	0xbd905cf5	-0.0704898
90	0x3d98d03d	0.07461593
91	0x3dde3f19	0.10851879
92	0x3da6a3ab	0.08136686
93	0x3d82797e	0.06370829
94	0xbe20dab1	-0.15708424
95	0xbd585bd5	-0.052821953
96	0xba51b728	-0.00080000097
97	0x3d4ecde5	0.050489325
98	0xbe81ae7f	-0.25328442
99	0xbd192720	-0.037390828
100	0x3dee68ad	0.11641059
101	0x3e285607	0.16439067
102	0xbe4de0d6	-0.201053
103	0xbd6e43b1	-0.058170024
104	0xbe3031a0	-0.1720643
105	0x3d08a1cc	0.033357427
106	0xbebb1723	-0.3654109
107	0xbeeba103	-0.4602128
108	0x3d9bea79	0.076130815
109	0x3c6d72c0	0.014492691
110	0xbdc5cafe	-0.09657858
111	0x3e06e676	0.13173851
112	0x3d5effc5	0.05444314
113	0x3dd945b2	0.106089965
114	0xbce11008	-0.027473465
115	0xbdf6b8ac	-0.12046942
116	0x3d3bd278	0.045855016
117	0x3cd29e31	0.025710197
118	0x3cb546b7	0.022128446
119	0x3c4ac452	0.012375908
120	0x3d0167c4	0.0315931
121	0xbc970963	-0.018437093
122	0xbc4ffe6e	-0.012694938
123	0x3d9ba3a7	0.075995736
124	0xbe6c9aa1	-0.23105861
125	0xbdeb80c4	-0.114991695
126	0xbe362d21	-0.17790653
127	0xbe26c250	-0.16285062
128	0xbe006257	-0.12537514
129	0xbd92ecd1	-0.071740754
130	0xbc2bde05	-0.010489945
131	0x3e1a6631	0.15078045
132	0xbdec4efb	-0.11538502
133	0x3d538d80	0.051648617
134	0x3c82546d	0.015909398
135	0x3d8427fa	0.064529374
136	0xbd2b56a9	-0.041830692
137	0xbd3bcb71	-0.045848314
138	0xbc913d7c	-0.017729513
139	0x3d7f3e61	0.06231535
140	0x3e390ee7	0.18072091
141	0x3e3cc417	0.18434177
142	0x3e1a006f	0.15039228
143	0xbcde11a4	-0.027108021
144	0xbdc53fd2	-0.096313134
145	0xbe04b179	-0.12958325
146	0x3e0e5121	0.13898136
147	0x3c0e35d4	0.008679826
148	0xbd9b382b	-0.075790726
149	0xbe2b1179	-0.16705884
150	0xbe0a1c19	-0.13487281
151	0xbe726e35	-0.23674853
152	0x3c9ea9a9	0.01936801
153	0x3c637a14	0.013884086
154	0x3dcf67b0	0.10127199
155	0xbe0c9094	-0.13727027
156	0x3dfb24a5	0.12262849
157	0xbea45521	-0.32096198
158	0xbd3d1251	-0.046160046
159	0xbdb0e9fb	-0.08638378
160	0xbdd18a70	-0.10231483
161	0xbec06474	-0.3757664
162	0xbe55609d	-0.20837636
163	0xbe4d1735	-0.20028384
164	0xbc7208fd	-0.014772651
165	0x3d1b3147	0.03788879
166	0xbdfdf22b	-0.123997055
167	0x3af02be1	0.0018323624
168	0xbda6fd67	-0.081538014
169	0x3c887fed	0.016662562
170	0x3e14f8ac	0.14547986
171	0xbe09cbb4	-0.13456613
172	0x3ddc8af7	0.10768693
173	0x3d0e2304	0.034701362
174	0xbddc6cf1	-0.107629664
175	0x3da743dc	0.0816724
176	0xbc9f6e4a	-0.01946177
177	0xbda3d9da	-0.08000536
178	0xbc9591ab	-0.018257936
179	0x3e164712	0.14675549
180	0xbe3633e4	-0.17793232
181	0x3e1a8b8d	0.15092297
182	0x3e7e2db1	0.24822117
183	0x3e3015b2	0.17195776
184	0x3e38e21d	0.18055005
185	0x3ddb1803	0.10697939
186	0xbd8d788f	-0.0690776
187	0x3e85337f	0.2601585
188	0x3d682492	0.0566755
189	0xbcb415de	-0.021983083
190	0x3dc0e956	0.09419505
191	0x3e016aed	0.12638445
192	0xbdfb8204	-0.12280658
193	0x3d9f287d	0.077713944
194	0xbd9a7b73	-0.07543077
195	0xbd3c4ac3	-0.045969736
196	0xbda06431	-0.0783161
197	0x3d4d4ca2	0.05012191
198	0xbdd2c3c3	-0.10291245
199	0xbc965376	-0.018350344
200	0x3c595d6c	0.013266902
201	0x3df452d7	0.11929863
202	0xbdfbdf80	-0.122984886
203	0xbd5dc6c3	-0.054144632
204	0xbdd70300	-0.10498619
205	0x3e0a623d	0.13514037
206	0x3afe4628	0.001939957
207	0x3e1ab9c2	0.15109923
208	0x3e35c0d4	0.1774934
209	0x3cc58ef9	0.024116026
210	0xbd64b284	-0.05583431
211	0xbc9664e8	-0.018358663
212	0x3d620a11	0.05518538
213	0xbd417868	-0.04723397
214	0xbc4c652d	-0.012475294
215	0x3be0ff1e	0.00686635
216	0x3ea6e832	0.32599026
217	0x3e89100b	0.26770052
218	0x3d9bad78	0.07601446
219	0xbe2e1f4b	-0.17004125
220	0x3db49544	0.08817533
221	0x3e3c2cf2	0.1837652
222	0xb9c44d1b	-0.0003744148
223	0x3d0ec471	0.03485531
224	0xbd8e03b2	-0.069342986
225	0x3e1f8e2f	0.15581582
226	0x3ca3a15c	0.019974403
227	0xbcaade1c	-0.020857863
228	0xbd2bae31	-0.04191417
229	0xbd1943c2	-0.037418135
230	0x3d80018e	0.062502965
231	0x3e323ddd	0.17406411
232	0x3da62cb1	0.08113993
233	0x3d84936f	0.06473433
234	0x3e80bd97	0.25144646
235	0xbe8a3681	-0.26994708
236	0x3e1b231b	0.1515011
237	0x3d8a4607	0.06751638
238	0x3e4351da	0.19074193
239	0x3c9e9a2c	0.019360624
240	0x3e259264	0.16169125
241	0x3d083d86	0.0332618
242	0xbc92a274	-0.01789973
243	0x3e89d966	0.26923674
244	0xbd1be83f	-0.038063284
245	0xbe445604	-0.19173437
246	0x3e253b08	0.161358
247	0xbddfd381	-0.10929013
248	0x3d4eaf99	0.05046043
249	0xbcae1f4d	-0.02125516
250	0xbd82354f	-0.06357824
251	0xbd2a72a8	-0.04161325
252	0xbcb65198	-0.022255704
253	0xbda9bc57	-0.08287876
254	0xbe40f610	-0.18843865
255	0xbd4a9cd0	-0.049465954

shared_net.0.bias f4 [512]
0	0x3d6d419f	0.05792391
1	0x3b12c146	0.0022393032
2	0xbe2511d3	-0.1612008
3	0xbd2e293b	-0.04251979
4	0x3e197883	0.14987378
5	0xbe320c31	-0.17387463
6	0xbdb1d5a1	-0.086833246
7	0x3d132802	0.035926826
8	0x3e0c3147	0.13690673
9	0xbe094fe4	-0.13409382
10	0xbd848459	-0.06470556
11	0xbe25539b	-0.16145174
12	0xbe15c15e	-0.14624545
13	0x3aae668d	0.0013305709
14	0x3d90545b	0.070473395
15	0x3c80b630	0.015711874
16	0xbd8cf1b4	-0.06882039
17	0xbdc3c9b3	-0.095599554
18	0xbdb76d82	-0.08956434
19	0xbe386e71	-0.1801088
20	0xbe390d91	-0.18071581
21	0x3e12ebd5	0.14347775
22	0xbd9f0c31	-0.07765997
23	0xbdb3702f	-0.08761632
24	0xbd4a8f54	-0.049453095
25	0x3e1b1928	0.15146315
26	0xbdff0603	-0.124523185
27	0xbd467858	-0.048454612
28	0x3b96c21e	0.0046007773
29	0x3ddce8b1	0.1078657
30	0xbcf8556f	-0.030314175
31	0xbd3c5ba9	-0.04598585
32	0x3caeb6a4	0.021327324
33	0x3dc0e80f	0.09419262
34	0x3d1d8963	0.0384611
35	0xbdc03cf4	-0.09386626
36	0x3e0f5363	0.13996653
37	0x3d906eac	0.07052359
38	0xbdc308ee	-0.095231876
39	0x3d1b5bbd	0.037929285
40	0xbc43eef5	-0.011958827
41	0xbd43a5d5	-0.04776557
42	0x3b48efae	0.0030660438
43	0x3c4f2e61	0.012645335
44	0xbd27888f	-0.040901717
45	0xbe22260b	-0.15834825
46	0xbdfe727c	-0.1242418
47	0xbd0d2161	-0.03445566
48	0x3a5f09ed	0.0008508254
49	0xbcd48abd	-0.025945062
50	0xbdde64a3	-0.10859039
51	0x3c471b45	0.012152498
52	0x3d3b4228	0.04571739
53	0xbe12d549	-0.14339174
54	0xbdade0d9	-0.08490152
55	0xbd528f16	-0.05140599
56	0xba4db3f1	-0.0007846943
57	0x3cc16827	0.023609234
58	0x3deb5a97	0.11491888
59	0x3dfebfee	0.124389514
60	0x3d3948f5	0.045235593
61	0x3dc0af61	0.09408451
62	0xbe4f752c	-0.20259541
63	0xbcf070ba	-0.029350627
64	0x3ce85bbb	0.028364053
65	0xbdd34ed2	-0.10317768
66	0xbd52ce06	-0.05146601
67	0xbd8ae7e5	-0.067825116
68	0xbb64e8a7	-0.003492871
69	0x3cb30e05	0.021857271
70	0xbd99b1af	-0.075045936
71	0xbe3f4160	-0.18677282
72	0xbe05d824	-0.13070732
73	0xbda08843	-0.0783849
74	0xbdac7f2a	-0.08422692
75	0x3d5b6239	0.05356047
76	0x3d157f65	0.036498446
77	0x3d98edad	0.07467208
78	0xbdd80f6b	-0.10549816
79	0xbda67167	-0.081270985
80	0x3e029f05	0.12755974
81	0xbe1c99ff	-0.1529312
82	0xbe2c8a84	-0.16849715
83	0xbdd4c55d	-0.103892066
84	0xbce43b51	-0.027860316
85	0x3dadf005	0.08493046
86	0xbc6a80d2	-0.01431294
87	0xbdafbddf	-0.08581137
88	0x3aff305e	0.0019469371
89	0xbdc072e2	-0.09396912
90	0xbbf99f4b	-0.007617866
91	0x3e073e3f	0.13207339
92	0xbe0f9574	-0.14021856
93	0xbbb7c25d	-0.0056078867
94	0xbe44f6ca	-0.19234768
95	0xbce9f2fd	-0.028558249
96	0xbd471893	-0.04860742
97	0xbd460ddb	-0.048353057
98	0xbd1198c6	-0.035546087
99	0x3d621f63	0.055205714
100	0x3dab7737	0.08372348
101	0xbc223566	-0.0099004265
102	0x3d637e1d	0.055540193
103	0xbdfabed4	-0.12243429
104	0xbdadc74f	-0.08485281
105	0x3c6a44e9	0.014298656
106	0xbd5adaad	-0.0534312
107	0xbd5f3c04	-0.054500595
108	0xbd8291fd	-0.06375501
109	0xbd899499	-0.06717796
110	0xba49e7c2	-0.0007702076
111	0xbd991e95	-0.07476536
112	0x3dc8ac3f	0.09798478
113	0x3be6d2ad	0.0070441575
114	0xbdd02311	-0.101629384
115	0xbdb1ac25	-0.08675412
116	0xbdcc9eba	-0.09991212
117	0xbe179223	-0.1480184
118	0x3cc46297	0.023972793
119	0xbd9cbb0c	-0.07652864
120	0x3d8331da	0.06405993
121	0xbe008dd0	-0.12554097
122	0xbd5f5430	-0.054523647
123	0xbd164552	-0.036687203
124	0xbb85ea77	-0.0040867883
125	0xbe111f6e	-0.14172146
126	0xbc75b648	-0.0149970725
127	0x3d832b94	0.06404796
128	0x3ddaeae4	0.10689333
129	0xbd155465	-0.036457438
130	0x3daceab4	0.084432036
131	0xbdf8fd64	-0.121577054
132	0xbd91d603	-0.071208976
133	0xbdd50898	-0.1040203
134	0x3a2e1543	0.00066407415
135	0xbdf4f237	-0.11960261
136	0xbd93bcb9	-0.0721373
137	0x3d1c9d7b	0.038236123
138	0xbdb1b12f	-0.08676373
139	0x3bfb1c43	0.007663281
140	0xbde4f783	-0.111800216
141	0x3d561679	0.052267525
142	0xbbd9379c	-0.0066289436
143	0xbdfc0d55	-0.123072304
144	0xbd1d2a9b	-0.03837071
145	0xbe0ae6fc	-0.13564676
146	0xbde07389	-0.109595366
147	0xbc6723a8	-0.014107622
148	0x3c014e92	0.007892268
149	0x3d23f332	0.04002685
150	0xbcfcfcc4	-0.030882247
151	0xbe134461	-0.14381553
152	0x3d4fa5b6	0.050695144
153	0xbda9aa91	-0.08284486
154	0x3da28f25	0.07937459
155	0x3cc9abbb	0.02461802
156	0x3d3514a7	0.04420915
157	0xbe14dbf9	-0.14537038
158	0xbcb01dc7	-0.021498574
159	0x3d491dce	0.04910069
160	0x3e161940	0.1465807
161	0xbdb50e43	-0.08840611
162	0xbdfdf76d	-0.12400708
163	0x3df80b63	0.12111547
164	0x3bcfaaf0	0.006337516
165	0xbdc1d5bb	-0.09464594
166	0xbce94161	-0.028473558
167	0x3bd04cf2	0.006356829
168	0xbdb866e1	-0.090039976
169	0xbda60830	-0.081070304
170	0x3b1e9251	0.0024196098
171	0x3cd98145	0.026550898
172	0xbdf23052	-0.118256226
173	0x3d75129c	0.0598322
174	0xbda121ed	-0.07867799
175	0x3e0c1070	0.13678145
176	0xbe3a20f0	-0.18176627
177	0xbd958a4c	-0.07301769
178	0x3e3a9784	0.18221861
179	0x3cffe30e	0.031236198
180	0xbdb5b316	-0.088720486
181	0xbdb21328	-0.0869506
182	0x3e163610	0.1466906
183	0xbcec3d8d	-0.028837943
184	0xbdf47f7f	-0.119383805
185	0x3d8b7add	0.06810544
186	0x3dc48844	0.09596303
187	0xbd635853	-0.055504154
188	0x3d897c1c	0.06713125
189	0xbe36a2e0	-0.1783557
190	0xbd8162d0	-0.06317675
191	0x3de5b5be	0.11216305
192	0x3d91b311	0.07114232
193	0xbd0f30ad	-0.03495853
194	0x3c24bab5	0.01005428
195	0x3b6ef4ae	0.0036461758
196	0x3d19141b	0.03737269
197	0x3e21893b	0.15775006
198	0xbe21c489	-0.15797628
199	0xbe31c2c9	-0.17359461
200	0x3d977042	0.07394458
201	0x3d0233f8	0.031787843
202	0x3d329495	0.04359873
203	0xbde923cc	-0.11383781
204	0x3c432f48	0.011913128
205	0x3a3b5e03	0.0007147493
206	0xbced1e39	-0.028945075
207	0x3ddbe05e	0.10736154
208	0x3e157dd6	0.14598784
209	0x3e08fbd8	0.13377321
210	0x3daa99c8	0.08330113
211	0xbe1afb89	-0.15135016
212	0xbcccaffe	-0.024986263
213	0xbdf4ae90	-0.11947358
214	0xbdd570b9	-0.10421891
215	0xbd84b667	-0.06480103
216	0xbd7ede9c	-0.062224016
217	0xbde3a211	-0.11114896
218	0xbdd11c24	-0.102104455
219	0x3cedfdbf	0.02905166
220	0xbd84f3e1	-0.06491829
221	0xbe0626e9	-0.1310078
222	0xbe5c5114	-0.21515304
223	0x3d0db165	0.034593005
224	0xbd9698ff	-0.073534004
225	0x3d1e86fc	0.03870295
226	0xbd900b04	-0.07033351
227	0xbd66c3e3	-0.056339156
228	0xbd1e8cb0	-0.03870839
229	0xbb4eda43	-0.00315632
230	0xbd469882	-0.048485287
231	0x3d8beee3	0.068326734
232	0x3d769d0d	0.06020837
233	0xbad81451	-0.0016485547
234	0x3db7b0de	0.089692816
235	0xbdebc6d3	-0.11512532
236	0x3c0a736e	0.008450372
237	0xbdb83490	-0.089944005
238	0x3df3455c	0.118784636
239	0xbd1c681d	-0.038185228
240	0x3c369ea5	0.011146222
241	0x3da4cc9d	0.080468394
242	0x3a042e1a	0.000504227
243	0xbd9f648a	-0.07782848
244	0x3d59b513	0.0531512
245	0xbde3bb45	-0.11119703
246	0xbdf3e985	-0.11909775
247	0xbe3bb142	-0.18329337
248	0xbd9a6fe3	-0.07540872
249	0x3cc2e0a9	0.023788767
250	0xbb3eb0d0	-0.0029097088
251	0xbd3453db	-0.044025283
252	0xbe5eb6cf	-0.21749423
253	0xbd9a246f	-0.075264804
254	0x3e17dcbe	0.148303
255	0xbb11a5d0	-0.0022224076

shared_net.2.weight f4 [256, 512]
0	0x3bb49f8f	0.005512185
1	0xba4d9f56	-0.00078438723
2	0x3d94fd1d	0.0727484
3	0xbd1aa693	-0.037756514
4	0xbd055dbf	-0.032560106
5	0x3bcc8a86	0.006242099
6	0x3bb4e314	0.005520234
7	0xb9754f79	-0.00023394627
8	0xbdb18cd6	-0.086694404
9	0xbcd43b2e	-0.025907125
10	0xbc68aa61	-0.014200778
11	0xbd52002d	-0.0512697
12	0x3b56f350	0.0032798834
13	0x3c26ab6e	0.010172708
14	0x3d25e9b8	0.040506095
15	0x3d13a39a	0.036044694
16	0x3d26cf7a	0.04072521
17	0x3d1742e4	0.036929026
18	0x3bdf2340	0.006809622
19	0xbd42cb79	-0.047557328
20	0x3ca59ccb	0.020216366
21	0xbca52e00	-0.020163536
22	0xbcd8b364	-0.026452728
23	0x3c6e8591	0.014558212
24	0xbd447081	-0.047958855
25	0xbc3e4387	-0.011612779
26	0xbd9f8245	-0.07788519
27	0xbd437e13	-0.047727656
28	0x3bd28d19	0.0064255116
29	0xbcc6d87f	-0.024273155
30	0x3aeab2c8	0.0017906064
31	0x3cf93639	0.030421363
32	0x3b982ff3	0.004644388
33	0x3c82dab3	0.015973425
34	0x3d687be3	0.056758773
35	0xbc6abbb7	-0.014326981
36	0xbd7304c0	-0.0593307
37	0xbcf4fe23	-0.029906338
38	0xbc9a99ba	-0.01887213
39	0x3b1cb6ea	0.0023912736
40	0x3d746570	0.05966705
41	0xbc16107c	-0.009159204
42	0xbd2313b4	-0.039813712
43	0xbc0ee301	-0.008721114
44	0xbd119705	-0.035544414
45	0xbc94c5af	-0.01816067
46	0x3b270528	0.002548525
47	0xbc728202	-0.014801504
48	0x3b7f1622	0.0038923104
49	0xbd8dd9ae	-0.06926285
50	0xbcf50305	-0.029908666
51	0x3d33f1a1	0.043931607
52	0x3c148a8c	0.009066235
53	0xbd877a3e	-0.06615113
54	0xbd1786a5	-0.03699364
55	0x3d2c86cc	0.04212074
56	0xbc91d715	-0.017802754
57	0xbd128334	-0.035769656
58	0xbd595fea	-0.053069986
59	0xbda67edc	-0.08129665
60	0x3c4a0b09	0.012331733
61	0xbc51061e	-0.012757806
62	0x3d703792	0.058646746
63	0xbd72493c	-0.059151873
64	0x3cb5dc98	0.022199914
65	0x3d66436d	0.056216646
66	0xb93243c6	-0.0001700065
67	0x3daeb66b	0.08530887
68	0xbd855adb	-0.0651147
69	0xbce3732e	-0.027764883
70	0x3d98c077	0.07458585
71	0x3c899873	0.016796326
72	0x3cd4fd9c	0.025999837
73	0x3d50cfff	0.05097961
74	0xbc82084b	-0.015873095
75	0x3cff90ee	0.031197038
76	0xbda52b57	-0.08064907
77	0xbcbeb848	-0.023281232
78	0x3d26b40f	0.04069906
79	0x3cedc80e	0.029026058
80	0x3ca5371b	0.020167878
81	0xbd1bec7e	-0.038067333
82	0x3cf27861	0.029598417
83	0x3d403a0c	0.046930358
84	0x3d2f8fd6	0.042861782
85	0x3c06362e	0.008191628
86	0x3ab30602	0.0013658407
87	0x3d8697e7	0.06571942
88	0x3d8ededb	0.069761
89	0xbd2599c7	-0.040429857
90	0xbc78e441	-0.015191139
91	0xbcd9ba74	-0.026578166
92	0x3d2c97d5	0.042136986
93	0x3b9f6534	0.0048643593
94	0x3d8c1398	0.06839675
95	0xbd11b7b4	-0.035575584
96	0xbd5ab38b	-0.05339388
97	0xbd754837	-0.059883323
98	0x3c4f4bde	0.0126523655
99	0xbd3cf28f	-0.04612976
100	0xbdac9222	-0.0842631
101	0x3c101f21	0.008796484
102	0x3c8ac89d	0.016941363
103	0x3d0a4ffd	0.03376769
104	0xbd5d87fe	-0.05408477
105	0xbd145616	-0.03621491
106	0xbd0119d8	-0.031518787
107	0xbcd9923c	-0.026558988
108	0xbc8eb4c2	-0.017420176
109	0x3d34c715	0.044135172
110	0x3b51c946	0.0032010837
111	0xbd43ebfa	-0.047832467
112	0x3cbd1db0	0.023085445
113	0xbd07d08d	-0.033157874
114	0xbd449c54	-0.04800065
115	0x3d568364	0.052371398
116	0x3d80541d	0.06266043
117	0xbc90de28	-0.017684057
118	0xbd5162d7	-0.05111965
119	0xbd90741c	-0.07053396
120	0xbab12ad8	-0.0013516797
121	0x3c5a4145	0.0133212255
122	0xbd18dc88	-0.03731969
123	0x3d32aa50	0.043619454
124	0xbc928588	-0.017885938
125	0xbd603403	-0.054737102
126	0x3c36396f	0.011122092
127	0x3b0b3f1b	0.002124733
128	0xbbd8ec03	-0.0066199317
129	0xbcd5aa8c	-0.0260823
130	0xbcea106f	-0.02857229
131	0x3c35edd1	0.011104063
132	0xbcc0536b	-0.023477277
133	0xbc8d4512	-0.01724485
134	0xbba217e1	-0.0049466942
135	0x3d103bf6	0.035213433
136	0x3d1582cc	0.03650169
137	0x3b83d0b7	0.0040226835
138	0xbc36623c	-0.011131819
139	0x3bb0fc0b	0.0054011396
140	0x3cea57b8	0.02860628
141	0xba9827f2	-0.0011608584
142	0x3c5108ae	0.012758417
143	0xbca11af0	-0.019666165
144	0x3d0c6d2e	0.03428381
145	0xbce59f3b	-0.028030029
146	0x3d19e4dd	0.037571777
147	0xbd341acb	-0.043970864
148	0x3d779447	0.060444143
149	0xbd9fa1a5	-0.07794503
150	0xbce987bd	-0.028507108
151	0x3d0a273b	0.03372882
152	0xbd9b4a04	-0.07582477
153	0xbcf293bc	-0.02961146
154	0xbc26f0fe	-0.010189293
155	0x3c705cae	0.014670534
156	0xbd0eca8c	-0.034861133
157	0x3d7a2d21	0.061078195
158	0x3d5f227f	0.054476257
159	0xbd058380	-0.03259611
160	0xbd56d35c	-0.05244766
161	0xbcfeafbc	-0.031089656
162	0x3cc6c028	0.02426155
163	0xbcd0d569	-0.025492387
164	0xbbf49af1	-0.0074647595
165	0xbc0be5d7	-0.008538685
166	0x3d535932	0.051598735
167	0x3d1c47b6	0.038154326
168	0x3d85f651	0.06541122
169	0x3c6481b2	0.013946937
170	0xbd57f91b	-0.0527278
171	0xbda56408	-0.0807572
172	0xbd1cd215	-0.038286287
173	0x3ac35d51	0.001490513
174	0x3d3a9333	0.045550536
175	0xbd5c4b66	-0.053782843
176	0xbc771382	-0.015080335
177	0xbd077405	-0.03306963
178	0xbd9f08c7	-0.07765346
179	0xbc6453b3	-0.013935971
180	0xbc2bc8c9	-0.010484883
181	0x3d79e97c	0.061013684
182	0x3ccd2d02	0.025045875
183	0xbd0cad77	-0.034345116
184	0xbca09180	-0.01960063
185	0xbc4ad2ce	-0.012379361
186	0x3c2387ac	0.009981077
187	0xbc5eb161	-0.013592095
188	0xbc0a85ac	-0.008454721
189	0x3ce5bad4	0.028043188
190	0x3d12ff6f	0.03588813
191	0xbd08356a	-0.033254065
192	0xbdb39154	-0.087679535
193	0x3d03d4fc	0.03218554
194	0xbc953371	-0.018213006
195	0x3d1ad891	0.03780419
196	0xbc8dbd58	-0.0173022
197	0xbd52c46b	-0.05145685
198	0x3cfe3da2	0.031035248
199	0xbd661c3e	-0.056179278
200	0xbd23172f	-0.03981703
201	0xbdb02d01	-0.08602334
202	0xbc812634	-0.015765287
203	0xbcfada91	-0.030621799
204	0xbc701b17	-0.014654896
205	0x3d42e2af	0.047579464
206	0xbd6c4e86	-0.057692073
207	0x3ca37100	0.019951344
208	0x3d1fe35d	0.03903519
209	0xbbacf590	-0.005278297
210	0xbda59b81	-0.08086301
211	0xbc9a3358	-0.01882331
212	0x3bfed5a3	0.0077769323
213	0xbd09baa8	-0.033625275
214	0xbd519205	-0.051164646
215	0x3daa8862	0.08326794
216	0x3c9cd1ea	0.019143064
217	0x3d84fdef	0.064937465
218	0xbd67a5a1	-0.05655444
219	0xbaf7d807	-0.0018908986
220	0x3c5100e0	0.012756556
221	0xbd1237f5	-0.035697896
222	0x3d1c307c	0.038132176
223	0x3d6759c3	0.056482088
224	0xbd10082b	-0.03516404
225	0x3c20e2b1	0.009819672
226	0x3d779c76	0.060451947
227	0xbcebe8db	-0.028797558
228	0xbc356d41	-0.011073411
229	0xbd7ae129	-0.061249886
230	0x3c88ebcd	0.016714001
231	0xbc06c35c	-0.008225288
232	0x3ca4a8c6	0.020100009
233	0xbcf5e8e5	-0.03001828
234	0xbd35e64f	-0.044409093
235	0x3d2af690	0.041739047
236	0xbd0e9fc4	-0.034820333
237	0xbc4cc248	-0.012497492
238	0xbc63b11b	-0.013897206
239	0x3d5530e9	0.052048597
240	0x3c118255	0.008881171
241	0x3d52e120	0.051484227
242	0xbd1c88e4	-0.038216487
243	0x3cec1609	0.0288191
244	0xbd8c4ab6	-0.068501875
245	0xbcfda91b	-0.030964425
246	0x3d2a9438	0.04164526
247	0x3bdbc0ad	0.0067063184
248	0x3ca939f9	0.020657526
249	0xbce4f844	-0.027950414
250	0x3c759965	0.014990185
251	0xbc60c3af	-0.01371853
252	0x3dacdba0	0.08440328
253	0xbc917924	-0.01775796
254	0xbce045de	-0.027377065
255	0xbd58320b	-0.0527821

shared_net.2.bias f4 [256]
0	0xbd5549e6	-0.05207243
1	0xbd847166	-0.064669415
2	0xbd319366	-0.04335346
3	0x3cd0ed45	0.025503764
4	0xbc4ea1e8	-0.012611844
5	0xbd1b91ab	-0.037980717
6	0xbd86ac7b	-0.06575867
7	0xbd3d1285	-0.04616024
8	0xbd04e207	-0.03244212
9	0xbbea121e	-0.007143273
10	0xbb6bbc63	-0.0035970442
11	0xbd35227f	-0.04422235
12	0xbc821552	-0.015879307
13	0xbdb2a4d5	-0.087228455
14	0xbd52c1b8	-0.051454276
15	0xba59dcd8	-0.00083108013
16	0x3d4ebaf8	0.050471276
17	0xba948763	-0.0011331852
18	0xbd0579bb	-0.032586794
19	0xbc627eda	-0.013824189
20	0xbc23a0a2	-0.009987028
21	0x3c8bee8f	0.017081527
22	0xbdce296d	-0.10066495
23	0xbccb88c4	-0.024845488
24	0xbaa453b7	-0.0012537156
25	0x3cc21fb9	0.023696767
26	0xbd457292	-0.048204966
27	0xbcb0bd44	-0.021574624
28	0xbd37f865	-0.04491462
29	0xbd3e0b03	-0.04639722
30	0xbd0a5641	-0.033773664
31	0xbd1cfc07	-0.03832629
32	0xbcbb4b65	-0.0228631
33	0xbd8d0a70	-0.068867564
34	0x383a86fd	4.4471573e-05
35	0xbd1d9c18	-0.03847894
36	0xbd951eb5	-0.072812475
37	0xbd810a02	-0.06300737
38	0xbc7fe4b6	-0.015618494
39	0x3babf6cd	0.005247927
40	0xbd4a4588	-0.049382716
41	0xbd5c084b	-0.053718846
42	0xbd4204b0	-0.04736775
43	0xbd1e0142	-0.03857542
44	0xbdc25014	-0.0948793
45	0xbd90bbf9	-0.07067103
46	0xbdb75df4	-0.08953467
47	0x3bbedce7	0.0058246735
48	0x3bce8f71	0.0063037206
49	0xbcdbc18d	-0.02682569
50	0xbd352464	-0.044224158
51	0xbbf1f5a3	-0.0073840185
52	0xbdbea06b	-0.09307941
53	0x3d1ebf2c	0.038756534
54	0xbce142e4	-0.027497716
55	0x3d08cb5e	0.03339707
56	0xbb988da3	-0.0046555563
57	0xbd2a08b5	-0.04151221
58	0xbcb6d8fc	-0.022320263
59	0xbdbb78a6	-0.09153871
60	0xbd179386	-0.037005924
61	0xbd597916	-0.053093992
62	0xbd1a3e46	-0.037657045
63	0xbce77f30	-0.02825889
64	0xbd74f65c	-0.05980526
65	0x3ccf6e2e	0.025321092
66	0x3c9e4aa2	0.019322697
67	0xbcb0ce96	-0.021582883
68	0x3d1b534f	0.037921246
69	0xbd07b4c6	-0.033131383
70	0xbdc7ea45	-0.0976148
71	0xbd6fdddf	-0.058561202
72	0xbb342600	-0.002748847
73	0xb9b8ac8f	-0.0003522378
74	0xbd066864	-0.0328144
75	0xbd366adc	-0.044535503
76	0xbd4420b3	-0.047882747
77	0x3d68ae9e	0.056807153
78	0xbcaa2097	-0.020767493
79	0xbd015129	-0.03157154
80	0xbcaf99e7	-0.021435691
81	0x3a5be018	0.00083875796
82	0xbd9ea81d	-0.07746909
83	0x3d6beacd	0.05759697
84	0xbd1d9ccb	-0.038479608
85	0x3c5adbd2	0.013358073
86	0xbb5cd51a	-0.0033696354
87	0xbd060001	-0.032714847
88	0xbc8bf8d9	-0.017086433
89	0xbd8eb42e	-0.0696796
90	0xbc4c3156	-0.0124629345
91	0xbca534fe	-0.02016687
92	0x399d65a0	0.0003002109
93	0xbd79609e	-0.060883157
94	0xbcd1419d	-0.025543982
95	0xbceb215a	-0.028702427
96	0xbd26079b	-0.040534597
97	0xbd03e21e	-0.032198064
98	0xbc038378	-0.00802695
99	0xbdd197cf	-0.10234033
100	0xbd8f1097	-0.06985586
101	0xbda13ae6	-0.07872562
102	0x3d0c39b2	0.03423471
103	0xbcd2d9ef	-0.025738684
104	0xbd895f4b	-0.06707629
105	0xbcd60d2b	-0.026129326
106	0xbdaa92f1	-0.08328808
107	0xbd6ec283	-0.05829097
108	0x3d0a499b	0.033761602
109	0xbcd1eb5e	-0.025624927
110	0xbd737539	-0.059437964
111	0xbcbcc7f0	-0.023044556
112	0x3cca642f	0.024705974
113	0xbd2c6822	-0.042091496
114	0xbd363af9	-0.044489834
115	0xbcf380cb	-0.0297245
116	0x3c0e691e	0.008692054
117	0x3c4b2936	0.012399962
118	0xbcb7854e	-0.022402432
119	0xbdcf2e1f	-0.10116219
120	0xbca8d93b	-0.020611396
121	0xbcc3c685	-0.023898372
122	0xbd376626	-0.04477515
123	0xbaed472c	-0.0018102876
124	0x3bc0c4ba	0.0058828266
125	0xbc9217bc	-0.017833583
126	0xbdc0d7d5	-0.09416167
127	0xbd24342f	-0.04008883
128	0xbd4ba428	-0.0497171
129	0xbd9cc9b1	-0.07655657
130	0xbd1519c9	-0.036401544
131	0xbcb8240f	-0.022478132
132	0xbc76d47b	-0.015065308
133	0xbd47f37e	-0.048816197
134	0x3d038d39	0.032117102
135	0xbd8bcbce	-0.06825982
136	0xbd5e519b	-0.054277044
137	0xbcdc1b34	-0.02686844
138	0xbd3951e1	-0.0452441
139	0xbda4dd65	-0.0805004
140	0xbda4cc95	-0.080468334
141	0xbd8b8f41	-0.06814433
142	0xbd91c302	-0.07117273
143	0xbce802a8	-0.02832158
144	0xbce6673d	-0.0281254
145	0xbd45f25f	-0.048326846
146	0xbc5c09de	-0.013430087
147	0xbd1fc576	-0.039006673
148	0xbd83ffd1	-0.064452775
149	0xbd318597	-0.04334029
150	0xbd4bc387	-0.049747016
151	0xbc79d86e	-0.015249355
152	0xbd8f605c	-0.07000801
153	0xbd65576a	-0.055991568
154	0xbc353145	-0.01105911
155	0xbbce8324	-0.0063022543
156	0x3d35f776	0.04442545
157	0xbd322b82	-0.043498524
158	0xbd30c39b	-0.043155294
159	0xbcecf75a	-0.02892654
160	0xbbd58774	-0.0065163914
161	0xbdc088a4	-0.09401062
162	0xbbe7c9a3	-0.0070735975
163	0xbc84ed98	-0.016226575
164	0xbc835cbf	-0.016035436
165	0xbc8a86d6	-0.016909998
166	0xbd40a7f1	-0.04703516
167	0xbc4ab704	-0.012372736
168	0xbd86dcbf	-0.06585073
169	0xbd52efde	-0.051498286
170	0xbd96c30d	-0.07361422
171	0xbd1a690c	-0.037697837
172	0xbd443ed1	-0.04791147
173	0xbd8e53bc	-0.06949565
174	0x3d05b07c	0.03263901
175	0x3ca853d9	0.020547794
176	0xbca4e234	-0.020127393
177	0xbcba2f84	-0.022727735
178	0xbd36d21d	-0.044633973
179	0xbced15c2	-0.028941039
180	0xbd3c77a4	-0.046012536
181	0x3c71ff53	0.014770347
182	0xbd83bb54	-0.064322144
183	0xbdaf02df	-0.085454695
184	0xbcf9274c	-0.030414246
185	0x3c25f82f	0.010129972
186	0xbcf8a37f	-0.030351399
187	0xbcc37d7d	-0.023863548
188	0xbc140a4f	-0.009035661
189	0xbbe42459	-0.006962341
190	0xbd23ec88	-0.040020496
191	0xbd4c0772	-0.049811788
192	0xbd467d67	-0.048459437
193	0xbc36b463	-0.011151406
194	0xbd194187	-0.037416007
195	0xbdbaa53e	-0.09113549
196	0xbba1f91e	-0.004943027
197	0x3a87cf8b	0.0010361535
198	0xbd274627	-0.040838387
199	0xbc9a05b3	-0.018801546
200	0xbc945750	-0.01810804
201	0x3c9badd7	0.019003792
202	0xbba829ea	-0.0051319497
203	0x3c8a8c67	0.016912652
204	0x3cc679ec	0.024228059
205	0xbcc45d4b	-0.023970267
206	0xbce223c3	-0.027604943
207	0xbdc70220	-0.09717202
208	0xbd72b321	-0.059252862
209	0xbd168015	-0.036743242
210	0x3ce48f28	0.027900293
211	0xbcff6071	-0.031173917
212	0xbd4ed96a	-0.05050031
213	0xbd34c31d	-0.044131387
214	0xbd2e3856	-0.042534195
215	0xb9f025b2	-0.00045804452
216	0xbd844fa9	-0.064605065
217	0x3c9d2c1d	0.019186074
218	0x3cc740ae	0.024322834
219	0x3d1bfa6f	0.03808063
220	0xbc4f88c9	-0.0126668895
221	0x3d1246cf	0.03571206
222	0xbd631b41	-0.055445913
223	0x3ce262ca	0.027634997
224	0x3cb741a1	0.022370161
225	0xbd035f6f	-0.032073434
226	0xbd8e1cba	-0.06939073
227	0xbd62f5cf	-0.055410203
228	0x3c211cd8	0.009833537
229	0xbc738d83	-0.014865282
230	0xbd97e8c7	-0.07417446
231	0xbd6eb9f7	-0.05828282
232	0x3c1a6fbe	0.0094260555
233	0x3c284bc1	0.010271967
234	0xbcf88a81	-0.030339481
235	0xbda65dd0	-0.08123362
236	0x3cbd5766	0.023112964
237	0xbc3603c1	-0.011109293
238	0xbcc1f8cb	-0.023678204
239	0xbd4db7cf	-0.05022412
240	0x3c773cf8	0.01509022
241	0xbc8d8bf4	-0.017278649
242	0xbbc07e52	-0.0058744336
243	0xbd1c9d8e	-0.038236193
244	0xbc978d61	-0.018500032
245	0xbd1fbafa	-0.038996674
246	0xbc8f85c7	-0.017519845
247	0xbbf56241	-0.0074885194
248	0xbccf5472	-0.025308821
249	0x3a9e8c97	0.0012096342
250	0x3a360651	0.000694369
251	0xbb0df5fd	-0.0021661513
252	0xbb595fb3	-0.0033168613
253	0xbaea0745	-0.001785495
254	0xbd47c076	-0.04876753
255	0x3bc1a803	0.005909921

to_mean.0.weight f4 [128, 256]
0	0x3d5bc422	0.053653844
1	0x3d36c4e5	0.044621367
2	0xbb609da6	-0.0034273653
3	0xbd705fd1	-0.058685128
4	0xbc23cc84	-0.009997491
5	0xbccec79c	-0.025241666
6	0xbd154c50	-0.03644973
7	0xbd24d2b4	-0.040240005
8	0x3cd7d59a	0.02634697
9	0xbd3638b1	-0.04448766
10	0x3d22edd6	0.0397776
11	0x3ce91ca8	0.028456047
12	0x3b0e8931	0.0021749253
13	0xbc298266	-0.010346031
14	0x3d35b0c9	0.04435805
15	0x3d3e4f05	0.046462078
16	0x3d0bd48f	0.03413826
17	0xbb913068	-0.0044308193
18	0xbd20ee31	-0.039289657
19	0x3d4997e8	0.049217135
20	0x3d5b0827	0.05347457
21	0xbccaae71	-0.024741383
22	0x3d7b7f5c	0.061400756
23	0xbc951dd1	-0.018202694
24	0xbc99f32e	-0.018792715
25	0xbcc285c8	-0.023745432
26	0x3d490050	0.049072564
27	0x3d16c3c9	0.03680781
28	0x3d722b34	0.059123233
29	0x3c0b31b4	0.008495737
30	0x3bbcc096	0.0057602627
31	0x3d6cb3e3	0.05778874
32	0xb8b5cf3a	-8.6693515e-05
33	0x3bb5650b	0.005535727
34	0x3d5daece	0.054121785
35	0x3d495667	0.049154665
36	0x3cf073be	0.029352065
37	0x3ac75c4b	0.001521
38	0xbc8557c0	-0.016277194
39	0xbd937375	-0.07199756
40	0x3d5e9889	0.054344688
41	0x3d851075	0.064972796
42	0x3ce6485a	0.028110672
43	0x3db20b3d	0.0869355
44	0x3da19341	0.078894146
45	0xbc8fec91	-0.017568858
46	0x3b90ca07	0.004418615
47	0x3d26e99e	0.04075014
48	0x3a448a72	0.00074974366
49	0x3af1772f	0.001842236
50	0x3d8931d6	0.066989586
51	0x3cf45645	0.029826293
52	0x3c733f22	0.014846595
53	0xbbbf1cc1	-0.005832285
54	0xbc28227c	-0.010262128
55	0x3d0f51a7	0.03498998
56	0x3d3b6483	0.045750152
57	0x3a861e4e	0.001023242
58	0x3d802288	0.06256586
59	0xbc17308e	-0.009227885
60	0x3c02ec59	0.00799092
61	0x3d2f72d3	0.042834114
62	0xbbb4e4fc	-0.005520461
63	0xbc119c40	-0.008887351
64	0x3d7539de	0.05986964
65	0x3c9b6047	0.018966807
66	0x3d47b71c	0.04875861
67	0xbd08b7c4	-0.033378378
68	0xbd1ebc63	-0.03875388
69	0xbc7bb283	-0.015362385
70	0x3d944959	0.072405525
71	0x3a81b8ae	0.0009896958
72	0x3cedc1f9	0.029023157
73	0x3c013eaa	0.007888475
74	0xbd4feb3c	-0.050761446
75	0x3b389fec	0.0028171493
76	0x3d9121e8	0.07086545
77	0x3c8266d5	0.015918175
78	0xbcd469f6	-0.025929432
79	0x3d8fb469	0.070168324
80	0xbc96b713	-0.018397843
81	0x3cd32d63	0.025778478
82	0x3cff6fd0	0.031181246
83	0xbcf96b17	-0.030446572
84	0x3cfc3e81	0.030791523
85	0xbdaaf444	-0.08347371
86	0x3d890a51	0.06691421
87	0x3d929b12	0.071584836
88	0xbcd4fd08	-0.025999561
89	0x3ce6229c	0.028092675
90	0x3cf4534e	0.029824879
91	0xbc42b3a7	-0.011883653
92	0x3d56d707	0.05245116
93	0x3c612249	0.013741084
94	0x3d02a928	0.0318996
95	0xbd1b0274	-0.037844136
96	0x3d1c6b57	0.038188305
97	0xbcd16f82	-0.025565866
98	0xbd2caeb5	-0.0421588
99	0xbcfa3fbe	-0.030547973
100	0x3c078fc3	0.008274022
101	0xbc524260	-0.012833208
102	0x3d20dc8d	0.039272834
103	0x3d8da53e	0.06916283
104	0xbcdae14e	-0.026718762
105	0x3bff4f59	0.0077914414
106	0x3d06a9de	0.03287684
107	0x3ca475c5	0.020075688
108	0xbac7b7d1	-0.0015237277
109	0xbd18706f	-0.0372166
110	0x3d689907	0.056786563
111	0x3b3bd4f6	0.002866087
112	0x3c2cdf86	0.010551339
113	0x3beb7220	0.0071852356
114	0xbd040864	-0.032234564
115	0xbd27eaa3	-0.04099525
116	0xbcd430ce	-0.025902178
117	0x3cd635d3	0.026148712
118	0x3cdc302a	0.026878435
119	0x3d009ad0	0.03139764
120	0x3d8795ea	0.06620391
121	0x3d82a1bd	0.063785054
122	0x3d4dc0b7	0.050232615
123	0x3b2d52ee	0.0026447135
124	0xbd114209	-0.035463367
125	0xbd1832b7	-0.03715774
126	0x3d22284f	0.039589223
127	0x3d0546e3	0.032538306
128	0xbd025ee4	-0.031828776
129	0x39d1d187	0.00040019696
130	0xbc332384	-0.010933761
131	0xbb5107ee	-0.0031895596
132	0xbc644034	-0.013931323
133	0x3cd77d3f	0.02630484
134	0x3d7570a0	0.05992186
135	0x3c0489fb	0.008089538
136	0xbd2ddc6d	-0.042446543
137	0xbcae4380	-0.02127242
138	0xbc5e2335	-0.013558199
139	0x3d37726b	0.04478685
140	0x3ccc72c2	0.024957065
141	0xbd14ca25	-0.036325593
142	0x3d4469fa	0.04795263
143	0x3d8f14d9	0.06986398
144	0x3d58d735	0.052939612
145	0xbd1f1378	-0.038836926
146	0xbcfaef27	-0.030631615
147	0x3cf769ea	0.030201871
148	0x3d5d3653	0.054006886
149	0xbb5fbaa9	-0.0034138358
150	0x3d919d68	0.07110101
151	0x3d779e2a	0.06045357
152	0x3d8f76a9	0.070050545
153	0x3cb4d7eb	0.022075614
154	0xbcba01f3	-0.022706008
155	0xbd181ce2	-0.03713692
156	0xbc8284f5	-0.01593254
157	0x3d8ebc8b	0.069695555
158	0x3c6d637b	0.01448905
159	0x3d62407d	0.055237282
160	0xbc3cfdf3	-0.011535156
161	0x3b872699	0.0041244742
162	0x3d401a27	0.04689994
163	0xbc006234	-0.007835913
164	0xbcc5c37f	-0.024141071
165	0x3c695f4f	0.014243915
166	0x3d7010ca	0.05860976
167	0x3c39e688	0.011346467
168	0xbcae5e9a	-0.021285344
169	0xbd44aa0b	-0.048013728
170	0xbbe301e3	-0.006927715
171	0x3d54a048	0.05191067
172	0xbd0ea7d1	-0.03482801
173	0xbc833603	-0.016016966
174	0xbc0d0d62	-0.008609148
175	0xbc60449f	-0.013688236
176	0x3d06a2a9	0.03286997
177	0xbcf09c72	-0.029371474
178	0xbca57a4c	-0.020199917
179	0xbd611a59	-0.054956768
180	0xbd166345	-0.036715765
181	0xbd2f541b	-0.04280482
182	0x3cbd29df	0.023091255
183	0x3d00f00f	0.031478938
184	0xbcc67b3c	-0.024228685
185	0xbc08c414	-0.00834753
186	0x3d616eb3	0.05503721
187	0x3d5984d0	0.053105175
188	0x3d1997d0	0.037498295
189	0xbd0f581d	-0.03499614
190	0x3d4b1ec6	0.049589895
191	0x3ce35b38	0.027753457
192	0xbd3eb34e	-0.046557717
193	0xbc2b8723	-0.010469231
194	0x3d351807	0.044212367
195	0x3d860c0b	0.06545266
196	0x3c7faec6	0.015605634
197	0x3d1e5cc5	0.03866269
198	0x3d264ca7	0.040600445
199	0xbd12d2a5	-0.035845418
200	0xbd29d2e3	-0.041460883
201	0x3cb21ae9	0.021741347
202	0xbd59a546	-0.053136133
203	0x3bee31eb	0.0072691343
204	0xbd8a3695	-0.06748692
205	0xbdbe9954	-0.09306589
206	0x3c523dfe	0.012832163
207	0xbcd0cab3	-0.02548728
208	0x3d852c5c	0.065026015
209	0x3d53d815	0.051719744
210	0x3d6ed177	0.05830523
211	0xbbe0fa5b	-0.006865782
212	0x3cfbe838	0.030750379
213	0xbc598204	-0.013275627
214	0xbcadb2dd	-0.021203453
215	0x3d67f01e	0.056625478
216	0x3d60f6c4	0.054922834
217	0xbd042566	-0.03226223
218	0x3c0f88c7	0.008760638
219	0xbad2d611	-0.0016085525
220	0x3c1d3055	0.009594043
221	0xbced1853	-0.028942263
222	0xbc89e3d4	-0.01683227
223	0xbbec1505	-0.007204654
224	0xbcba90f8	-0.022774205
225	0xbc8fb4cd	-0.017542267
226	0x3da3983a	0.07988019
227	0x3d87f97a	0.06639381
228	0xbdaa9e24	-0.08330944
229	0x3cec5937	0.028851135
230	0x3ce27415	0.027643243
231	0x3da0c4ad	0.07850013
232	0xbc95f202	-0.018303875
233	0x3c939ea0	0.018019974
234	0x3c19a657	0.009378037
235	0x3d2e9aec	0.042628214
236	0x3d1941be	0.037416212
237	0xbd793658	-0.060842842
238	0xbcf3b8d0	-0.029751211
239	0xbd2ecea1	-0.042677525
240	0x3ce17cb6	0.027525287
241	0xbba5eddf	-0.005063757
242	0xbcc75920	-0.02433449
243	0xbc98b86d	-0.018642629
244	0xbaf412f0	-0.0018621366
245	0xbd2f3b7d	-0.04278134
246	0x3d62a132	0.05532951
247	0xbd24b780	-0.04021406
248	0xbd2525cb	-0.040319245
249	0x3cc40f89	0.023933189
250	0xbbd72c6d	-0.0065665753
251	0xbd27c97d	-0.04096364
252	0x3d269ebe	0.040678732
253	0x3a7c2c3d	0.0009619629
254	0xbc359d3c	-0.011084851
255	0xbc3f1199	-0.01166191

to_mean.0.bias f4 [128]
0	0xbcb492c3	-0.022042638
1	0x3bad36ad	0.005286059
2	0xbc7f9385	-0.015599136
3	0xbd64eb52	-0.05588848
4	0xbb410d1c	-0.0029457277
5	0xbd07ac64	-0.03312339
6	0xbda1b934	-0.07896653
7	0xbd323dd9	-0.043516014
8	0x3d205535	0.03914376
9	0xbca8c699	-0.020602511
10	0xbd879e5e	-0.06622003
11	0x3d121c36	0.035671435
12	0xbc5cfe8b	-0.013488422
13	0xbce8aa22	-0.028401438
14	0xbd2b6816	-0.04184731
15	0xbd02063a	-0.03174422
16	0xbd83398c	-0.064074606
17	0xbd189867	-0.037254717
18	0x3cc9d6c7	0.024638547
19	0x3cb5467d	0.022128338
20	0xbd66b674	-0.056326345
21	0x3b7aaa36	0.0038248426
22	0xbc83c369	-0.01608439
23	0xbd7483c0	-0.05969596
24	0xbca26ba6	-0.019826721
25	0x3d058852	0.03260071
26	0xbcf71a38	-0.03016387
27	0xbce8cd4a	-0.028418202
28	0x3d370b16	0.044688307
29	0xbd207432	-0.039173312
30	0x3aa320a5	0.0012445642
31	0x3cca4158	0.024689361
32	0x3d7a1e7d	0.061064232
33	0xbd9b6082	-0.07586767
34	0xbd15f15b	-0.036607128
35	0x3d00d0dc	0.031449184
36	0x3b06ff4e	0.002059895
37	0xbc884fbc	-0.016639583
38	0x3b33d8c7	0.0027442442
39	0x3cb150c6	0.021644961
40	0x3d1f4084	0.038879886
41	0x3d4ab7e3	0.049491774
42	0x3cf616d2	0.030040178
43	0xbbe707dc	-0.0070504975
44	0xbc750dc4	-0.014956895
45	0xbcfbc40e	-0.030733135
46	0xbc88f05d	-0.016716177
47	0xbd8cdf98	-0.068785846
48	0xbd264054	-0.04058869
49	0x3d0fe30e	0.035128646
50	0x3cd1f111	0.025627645
51	0x3d6b63d5	0.057468254
52	0xbc0b3634	-0.00849681
53	0x3ac0d7b7	0.0014712726
54	0x3c9359a1	0.017987074
55	0xbd7f7f7e	-0.062377445
56	0x3b4db8cf	0.0031390672
57	0x3d888492	0.06665911
58	0x3cd65365	0.026162812
59	0x3a27fcfa	0.0006408241
60	0xbba4873c	-0.005021004
61	0xbd835753	-0.0641314
62	0xbd0f263f	-0.034948584
63	0xbcff5848	-0.031170025
64	0xbd6e4f01	-0.058180813
65	0xbd1f314e	-0.03886538
66	0xbd281fe5	-0.041046042
67	0x3cd53348	0.02602543
68	0xbcaed4ce	-0.021341708
69	0x3cbd1b98	0.023084447
70	0x3d407efb	0.046996098
71	0x3c16562e	0.00917582
72	0xbd1b4ee4	-0.037917033
73	0x3d16f1a0	0.036851525
74	0xbcc93a3f	-0.024563907
75	0x3d1e26b3	0.038611125
76	0x3d1c3efe	0.03814601
77	0xbccacbb7	-0.024755342
78	0xbbba6c9f	-0.005689218
79	0xbcb79909	-0.02241184
80	0x3cfc2e13	0.030783689
81	0xba90fe58	-0.0011062128
82	0x3c67f578	0.014157645
83	0xbd53d7e4	-0.05171956
84	0xbd24695a	-0.040139534
85	0x3d219648	0.03944996
86	0xbc59536d	-0.013264519
87	0xbd71d25c	-0.059038505
88	0xbd4561b7	-0.04818889
89	0xbd172f02	-0.036910065
90	0x3cfdf5a1	0.031000914
91	0x3bbc9cce	0.0057559973
92	0xbd9186b4	-0.07105771
93	0x3d0d7b7a	0.034541585
94	0x3a94722f	0.0011325533
95	0xbc184014	-0.009292621
96	0x3ca689d4	0.020329393
97	0xbd7e833e	-0.06213688
98	0x3d01444a	0.031559266
99	0x3ae21c52	0.0017250872
100	0xbcb8ea4b	-0.022572657
101	0xbd44c24c	-0.04803686
102	0xbd2b5a01	-0.04183388
103	0x3d3e0c71	0.046398584
104	0xbd3ddc67	-0.04635277
105	0x3b27abd9	0.0025584607
106	0xbbb1f74f	-0.005431093
107	0xbd3054ac	-0.0430495
108	0x3b9e601c	0.0048332345
109	0xbd52fc79	-0.051510308
110	0xbd15696e	-0.0364775
111	0x3a2e3020	0.00066447444
112	0x3d2224ed	0.039585996
113	0xbd8455cc	-0.06461677
114	0x3bbff73c	0.00585833
115	0x3d13ceea	0.036086
116	0xbbf82624	-0.007572906
117	0x3cab05fc	0.020876877
118	0xbc772d86	-0.015086537
119	0xbd23f79c	-0.04003106
120	0xbb374fa7	-0.002797106
121	0xbd5f47ac	-0.05451171
122	0xbbbee3f9	-0.0058255163
123	0x3d45289b	0.048134428
124	0xbd82c06c	-0.06384358
125	0x3d40bf46	0.047057413
126	0x3d3bafaa	0.045821823
127	0xbca4cb78	-0.020116553

to_mean.2.weight f4 [12, 128]
0	0xbd7d0f78	-0.06178233
1	0xbd5ae69e	-0.05344259
2	0x3d1c5ece	0.03817635
3	0x3caf831d	0.021424824
4	0x3d934be0	0.071922064
5	0xbcafc583	-0.021456486
6	0x3d15c8ca	0.03656844
7	0x3d61d1af	0.05513161
8	0x3d5b0245	0.05346896
9	0xbcf47771	-0.02984211
10	0x3cb4ae9d	0.022055918
11	0x3c582c5b	0.013194169
12	0x3ccf9f47	0.025344504
13	0xbd03f092	-0.032211848
14	0x3d006a13	0.03135116
15	0x3d41cf2d	0.04731672
16	0x3d08dac9	0.033411775
17	0xbd2b2686	-0.041784786
18	0xbbde5bc1	-0.0067858403
19	0xbc41ac9d	-0.011820939
20	0x3cd0ce6f	0.02548906
21	0x3d02d64a	0.031942643
22	0x3cd3ed12	0.02586988
23	0x3d4e2d1b	0.050335985
24	0xbd319812	-0.043357916
25	0xbce7d047	-0.028297557
26	0x3b097e34	0.0020979764
27	0x3b81a813	0.0039568036
28	0x3c876470	0.016527385
29	0x3cbfb41c	0.023401313
30	0x3bbc651a	0.005749357
31	0xbda9a299	-0.08282966
32	0xbc03721e	-0.008022813
33	0xbd978a18	-0.07399386
34	0x3cc302dd	0.023805076
35	0xbcb18279	-0.02166866
36	0xbd0a99eb	-0.033838194
37	0xbcbd96a4	-0.02314312
38	0x3d04226a	0.032259382
39	0x3c3440f8	0.011001818
40	0xbae32432	-0.0017329513
41	0x3cb95621	0.022624077
42	0xbd8054f0	-0.062662005
43	0x3c09d127	0.008411682
44	0xbcb1d490	-0.021707803
45	0xbdb1319b	-0.086520396
46	0xbca1e6e5	-0.01976342
47	0xbbe0adf9	-0.0068566767
48	0xbcc293d6	-0.023752134
49	0x3ca5b2a1	0.020226778
50	0x3cb29166	0.021797847
51	0xbcc0d483	-0.023538833
52	0x3b7332f0	0.0037109219
53	0x392f146d	0.0001669691
54	0x3ccf04da	0.025270868
55	0xbbf7928f	-0.007555313
56	0x3d39ec7d	0.04539155
57	0xbd51eff4	-0.051254228
58	0xbbe3a44b	-0.0069470755
59	0xbd016050	-0.03158599
60	0x3d8a02a7	0.06738787
61	0xbd338a21	-0.043832902
62	0xbd22e36b	-0.039767664
63	0x3d0dddd6	0.034635387
64	0xbc43f8ae	-0.011961145
65	0x3c877c53	0.016538775
66	0x3b8670c9	0.0041028005
67	0xbc96e143	-0.01841796
68	0x3cadc7da	0.02121346
69	0x3d01b919	0.031670664
70	0xbd6020d5	-0.05471881
71	0x3bbbacbc	0.0057273787
72	0x3cc8ddfe	0.024519917
73	0x3cc7605f	0.024337946
74	0xbc894972	-0.016758654
75	0xbd308b71	-0.04310173
76	0x3d9108c0	0.07081747
77	0xbcee587a	-0.029094923
78	0xbd7b8237	-0.06140348
79	0x3ca764f2	0.020433877
80	0xbcf75803	-0.030193334
81	0xbd7ac6cf	-0.061224755
82	0xbc20d3cd	-0.009816122
83	0xbcc63722	-0.024196211
84	0xbd85b689	-0.065289564
85	0x3d16a470	0.036777914
86	0x3d2ebbb9	0.042659495
87	0x3c3309eb	0.010927658
88	0xbc155f5a	-0.009116972
89	0xbd444072	-0.047913022
90	0xbd99b0d6	-0.07504432
91	0x3be0483b	0.006844548
92	0x3cd61e85	0.0261376
93	0x3c87d2f0	0.016580075
94	0x3d8ca6dc	0.068677634
95	0xbd934f01	-0.07192803
96	0xbd66df75	-0.05636545
97	0x3d6e2852	0.05814392
98	0x3c9313b1	0.017953726
99	0x3ce2b159	0.027672457
100	0xbd598607	-0.053106334
101	0x3d41c911	0.047310892
102	0x3c17189b	0.009222175
103	0xbb978323	-0.004623787
104	0xbcc268d7	-0.023731632
105	0xbd1246f5	-0.0357122
106	0x3cc9c42b	0.024629673
107	0x3ccba6aa	0.024859745
108	0xbd2e05e4	-0.042486086
109	0x3d07b4e2	0.033131488
110	0xbd4c5c30	-0.049892604
111	0xbcee9975	-0.029125908
112	0x3c492384	0.012276534
113	0xbca759bf	-0.020428536
114	0xbcdacc90	-0.026708871
115	0xbd52acb2	-0.051434226
116	0xbd531b17	-0.051539507
117	0x3d8a42b0	0.06751001
118	0xbca7ad16	-0.020468276
119	0x3bf15f8f	0.007366128
120	0xbd5dcd18	-0.05415067
121	0x3d0d8504	0.03455068
122	0xbcf915b7	-0.030405862
123	0xbca4c985	-0.020115623
124	0xbc8c687a	-0.017139662
125	0x3c7f5307	0.01558376
126	0x3ba04303	0.004890801
127	0x3d36cf6a	0.0446314
128	0xbd651532	-0.055928417
129	0xbd80f518	-0.06296748
130	0xbc91efb7	-0.0178145
131	0xbcd04fe2	-0.025428716
132	0xbb32874c	-0.0027241288
133	0xbd89d55f	-0.067301504
134	0xbd614d50	-0.05500537
135	0xbd5ddc48	-0.054165155
136	0xbd4c4ef0	-0.04987997
137	0xbce295b2	-0.02765927
138	0xbc9d4c33	-0.019201374
139	0x3c51ca53	0.0128045855
140	0xbc92205b	-0.017837694
141	0xbd53cb80	-0.051707745
142	0xbd08bfa5	-0.03338589
143	0x3d09e0c2	0.03366161
144	0x3adbebd2	0.0016778654
145	0xbc9f3f4b	-0.01943936
146	0xbc3a67c6	-0.011377281
147	0xbd21ec92	-0.03953225
148	0x3ba11927	0.0049163285
149	0xbdb6dc9c	-0.08928797
150	0xbcaec49f	-0.02133399
151	0xbd8b9c4b	-0.0681692
152	0xbce3e1f3	-0.027817702
153	0x3d00eb5a	0.03147445
154	0xbbfe956a	-0.0077692764
155	0xbd19e9e0	-0.037576556
156	0x3c6f89fe	0.014620302
157	0xbd48586c	-0.04891245
158	0x3d00b132	0.031418987
159	0x3d615cc7	0.05502012
160	0x3d2a2532	0.04153938
161	0x3c827209	0.015923517
162	0xbd867f59	-0.065672584
163	0xbd06f466	-0.03294792
164	0xbd54e550	-0.051976502
165	0xbc3a9a9f	-0.011389404
166	0xbd357ea4	-0.044310227
167	0xbc9dd981	-0.019268753
168	0xbc3928e5	-0.011301254
169	0x3d251e0b	0.040311854
170	0xbd9d8287	-0.07690912
171	0x3d00ccf7	0.03144547
172	0x3cedd164	0.02903051
173	0x3d70d4dd	0.058796752
174	0xbb2a2fd5	-0.0025968452
175	0xbd0ea7e0	-0.034828067
176	0x3c665c84	0.014060143
177	0xbc80b94a	-0.015713353
178	0x3d435218	0.047685713
179	0xbbb67aa4	-0.005568819
180	0x3c6ba6b1	0.014383004
181	0xbbb3ce08	-0.0054872073
182	0x3c261f71	0.010139332
183	0xbd3dd689	-0.046347175
184	0xbc64e2cc	-0.013970088
185	0x3d66c34d	0.056338597
186	0xbd6183e8	-0.055057436
187	0x3d1fad50	0.038983643
188	0xbc2eaf27	-0.010661877
189	0xbc973073	-0.01845572
190	0x3d43b30b	0.04777817
191	0x3cec21c4	0.028824694
192	0x3d1c0176	0.03808733
193	0xbd14cd89	-0.036328826
194	0x3c886613	0.016650235
195	0x3c779302	0.015110733
196	0x3c8eadd1	0.017416866
197	0xbc606527	-0.013695992
198	0xbcaa5f92	-0.020797525
199	0x3ce117a4	0.027477093
200	0xbd9d7ac9	-0.07689435
201	0xbd4536f7	-0.04814812
202	0x3d2371f2	0.03990359
203	0xbc8c91af	-0.017159311
204	0x3d33389d	0.043755163
205	0x3cf88fcd	0.030342007
206	0xbcf14ecc	-0.029456519
207	0x3cdae6b4	0.026721336
208	0xbd7dd790	-0.061973155
209	0xbda3104d	-0.079620935
210	0xbcaf069c	-0.021365456
211	0xbc651eff	-0.013984441
212	0xbb8c401b	-0.004280103
213	0x3c6c2732	0.014413642
214	0x3d313f66	0.043273352
215	0xbd91b4d2	-0.07114567
216	0xbc78bf41	-0.015182317
217	0xbd1f42ac	-0.038881943
218	0xbc080f34	-0.008304406
219	0xbccc0ce2	-0.024908487
220	0xbd338f17	-0.043837633
221	0xbbc41303	-0.0059837117
222	0xbd212866	-0.039345168
223	0x3abf6963	0.0014603551
224	0x3c2a8d7b	0.010409708
225	0x3d770844	0.060310617
226	0x3c98c4e9	0.018648582
227	0xbadff8e1	-0.0017087721
228	0x3d07cf6a	0.03315679
229	0xbdabdd57	-0.083918266
230	0x3cc63753	0.024196303
231	0xbace7b4e	-0.00157533
232	0xbae2c18e	-0.0017300115
233	0xbdac02c6	-0.083989665
234	0x3c096df0	0.008388028
235	0x3c836343	0.016038543
236	0xbd18f7b2	-0.037345596
237	0xbc0d17f6	-0.00861167
238	0xbc8b2411	-0.016984971
239	0xbda56135	-0.080751814
240	0xbbcb30e4	-0.0062008966
241	0x3ba9d656	0.0051830215
242	0x3d4e0b54	0.050303772
243	0x3bb12e86	0.0054071574
244	0xbd58c609	-0.052923236
245	0xbbe152b5	-0.0068763145
246	0xbc8ef979	-0.017452942
247	0xbd673e5a	-0.056455947
248	0xbc532152	-0.012886362
249	0x3bfd1b48	0.0077241994
250	0xbc6f5b8a	-0.014609227
251	0x3d758350	0.059939682
252	0xbd8190b6	-0.063264295
253	0xbd3359e0	-0.043786883
254	0xbc744211	-0.01490833
255	0xbdaa0b57	-0.08302944

to_mean.2.bias f4 [12]
0	0xbcfd9e60	-0.030959308
1	0x3ca865da	0.02055638
2	0x3d31b86b	0.043388765
3	0x3d766848	0.060158044
4	0xbdb29b0c	-0.08720979
5	0xbda90fba	-0.08254953
6	0xbc8233f3	-0.015893912
7	0xbd800d67	-0.06252556
8	0xbd835d8d	-0.06414328
9	0xbd030993	-0.031991553
10	0x3d251688	0.04030469
11	0xbd3d75c0	-0.046254873
