saves/save3_1_23/save2_Standing_25200.pth (torch, 942043 bytes, 11 tensors)

shared_net.0.weight f4 [512, 67]
000000 a9 c8 aa 3c 8d b2 ac bd 7e 79 a3 bd f1 a4 ec bd
       0.020847635 -0.08432493 -0.07982157 -0.115548976
000010 b7 a5 ac bd 30 4b 81 bd 10 5a e1 3a 9a b2 e3 3d
       -0.08430045 -0.06313169 0.0017192978 0.1111805
000020 7f 35 b1 3d 18 91 93 3c c8 4d ea bf 1a 66 26 bd
       0.08652782 0.018013522 -1.8304987 -0.040624715
000030 dc b9 ac be 37 36 40 be 03 55 9c 3d 7b 08 e0 3d
       -0.3373555 -0.18770681 0.07633402 0.109391175
000040 a6 01 a5 bc 7e 70 67 3d a5 d7 bb bd c7 5e 5d bd
       -0.020142388 0.056503765 -0.0917199 -0.054045465
000050 d1 4f 8a 3c 8d 69 23 3e 4f 73 05 3e cb dd b0 3e
       0.016883763 0.15958233 0.13032268 0.34544215
000060 2e c1 a0 3c cf 40 93 3c bf 8b 68 be 7e 1d 19 ba
       0.019623365 0.01797524 -0.22709559 -0.00058408815
000070 44 c4 ac bd 68 80 85 bd 03 df 6b ba c4 7e 89 bb
       -0.08435872 -0.06518632 -0.000899777 -0.00419602
000080 a0 7d b8 bc 38 d1 d1 ba b6 46 d1 3b ff 04 be 3b
       -0.02252084 -0.0016007787 0.006386603 0.0057989354
000090 3e 71 b2 bb 4b 8b 32 3c cb 6f 5d bc 51 3e ad 3c
       -0.0054456284 0.010897468 -0.013515423 0.021147879
0000a0 1c e6 43 3b a3 bd 8e 3c 89 f1 95 bc 73 24 98 3c
       0.0029891795 0.01742441 -0.01830365 0.018572068
0000b0 d1 c3 a1 bb f9 70 43 bc 2b 9a f9 bc fb c7 9a 3c
       -0.004936673 -0.01192879 -0.03046902 0.018894186
0000c0 9e a8 23 be b9 ad 3b bd ab f3 e3 3d 2c ca 27 3e
       -0.15982291 -0.04581997 0.1113046 0.16385716
0000d0 5b ff 68 3d 53 24 56 3d 0a fd a8 bd ec 33 50 bd
       0.05688415 0.052280735 -0.08251388 -0.050830767
0000e0 23 ce 23 bd 7b 40 f6 bd ec 6d 1a 3d 95 e0 0c 3d
       -0.03999151 -0.120240174 0.037702486 0.034393866
0000f0 d8 f3 b8 3d a9 0f 1d 3d 97 e2 8d bd 2f bf 0b 3d
       0.090308845 0.038345013 -0.06927984 0.034117874
000100 51 63 b0 3d c6 a9 65 bc 51 1b f3 bd 09 f5 e0 bc
       0.08612693 -0.014017528 -0.118704446 -0.027460592
000110 94 7f 96 bb f0 6b 92 3d a5 a8 63 bd d9 18 55 be
       -0.004592845 0.07149494 -0.055580754 -0.2081026
000120 6a 6c 33 3e 3a d8 14 3d 4b 9c c1 3d e8 11 b7 3e
       0.17521825 0.036339022 0.09453639 0.3575585
000130 71 fb 13 3d 52 85 8e bf c0 10 b9 bd 5c 14 89 3d
       0.036128465 -1.1134436 -0.09036398 0.06693336
000140 58 1f 3a be 19 b0 30 3e 69 05 1e 3e f1 51 da 3d
       -0.18176019 0.17254676 0.15431751 0.1066016
000150 ed 06 cc 3e 20 ca bc bd 46 34 95 be f3 f5 4c 3d
       0.39849034 -0.0921824 -0.29141444 0.050039243
000160 04 83 48 3e 34 66 82 bd 6f 49 bb 3d 8b 39 41 be
       0.19581228 -0.0636715 0.09144866 -0.18869607
000170 ae 01 93 bc e8 5b 35 3e e8 8b 4c be 85 f5 25 bd
       -0.017945137 0.1771084 -0.19975245 -0.04051735
000180 b3 7a 0a be 78 42 f6 3c b8 2e ef 3b 49 37 43 3c
       -0.13523369 0.030060992 0.0072992705 0.0119150365
000190 ba 3c 9a 3a 92 65 93 3b 42 3f 4f bb 83 41 99 39
       0.0011767366 0.004498192 -0.0031623398 0.00029231244
0001a0 65 fb 13 3d 32 42 b8 3b cf 02 f0 3c bc d5 f9 3b
       0.03612842 0.0056231255 0.029298214 0.007624356
0001b0 b6 36 76 3c f1 11 4d 3c a3 bb 11 bc 52 93 09 3c
       0.015027693 0.012516485 -0.008894834 0.00839694
0001c0 5b a1 9a bc c2 87 28 3a 32 ec 65 3d 5d 37 18 bc
       -0.018875768 0.0006428921 0.056133457 -0.009290543
0001d0 35 9e 83 bd ec 61 57 3d d2 04 15 bc 16 2e 69 3e
       -0.0642666 0.05258362 -0.0090953875 0.22771487
0001e0 d2 0b 0c 3d e0 51 24 be 2f 5b 01 be 6e fd 60 3d
       0.03419096 -0.16046858 -0.1263244 0.05492919
0001f0 5b 24 98 bd 14 e9 09 be 7e 65 8b bd e2 d7 2e bd
       -0.07428809 -0.13467818 -0.068064675 -0.04268635
000200 44 5c c7 bc f5 13 2c be e3 d4 8b bc 9b bf 03 3e
       -0.024335988 -0.16804488 -0.017069286 0.1286606
000210 9c 59 2d be b3 08 ba bc 37 63 28 3f 1b a2 8e 3c
       -0.16928715 -0.022709226 0.6577639 0.017411282
000220 6e 1e 6a 3d ff 7a 6e bd 45 35 a9 bc 43 d3 9f 3d
       0.057157926 -0.058222767 -0.020655284 0.07803967
000230 cc 40 7c 3d d2 e4 5c 3d b0 20 bc 3d 1e ae 6c 3c
       0.061585233 0.053929158 0.09185922 0.01444581
000240 cc 2a 5a bf 18 c6 82 bd 34 bd e9 3d dc ab a5 3c
       -0.8522155 -0.0638544 0.11413041 0.02022355
000250 cd f9 13 bc 5f 37 de bd 48 76 4a bd ba 5e 7c bd
       -0.009031725 -0.10850405 -0.049429208 -0.061613776
000260 70 57 94 3d 80 6a af 3d 7d 36 5a 3e 26 80 3a be
       0.0724324 0.08565235 0.21309848 -0.18212947
000270 4f 3f c9 3d 17 5d 2e bd 2c 46 01 be 9b 6c 02 bd
       0.09826528 -0.042569246 -0.12624425 -0.031841855
000280 1b ef cc bd 85 df 32 3d 4a ff fb bd e7 ac bf bd
       -0.10006543 0.043670196 -0.12304552 -0.093591504
000290 00 09 5d bc 53 47 e4 3c b2 1a 0c bc 20 f2 2b bb
       -0.013490915 0.027866041 -0.0085512865 -0.0026236847
0002a0 82 5c 3e 3b 6d b4 14 bc 67 e0 20 bb 8c 77 f9 3b
       0.0029046838 -0.00907622 -0.0024547817 0.007613128
0002b0 ad d0 90 bb 8c 51 04 3d e7 2a e4 bc c9 4a a7 3c
       -0.0044194073 0.03230433 -0.027852489 0.020421403
0002c0 8f 0f 93 ba 11 28 8e 39 03 f0 b0 3c f8 cc 08 bc
       -0.0011219847 0.00027114202 0.021598822 -0.00834965
0002d0 46 b5 85 3b 1c b8 3e bc 68 41 e0 3d 35 f1 ac 3d
       0.0040804474 -0.011640575 0.10949975 0.08444444
0002e0 f0 73 01 3e aa f9 5d bc cc da 0c bc fb b6 ba 3b
       0.12641883 -0.013548294 -0.008597087 0.0056980825
0002f0 6a ce c3 bd 9d 41 3f 3d ab 27 03 3e e1 ea 4c 3d
       -0.09560855 0.046693433 0.12808101 0.050028685
000300 51 81 a3 bc 58 dd b8 bc 6d bb 9b bd 22 b7 6d bd
       -0.019959124 -0.022566482 -0.07604108 -0.058035977
000310 31 52 b6 bd bb eb 3f 3c 7d 17 eb bd c6 2c ad bb
       -0.089023955 0.011713917 -0.114790894 -0.0052848784
000320 6c 7c 4f 3b 7d b0 06 3f ad 8b 16 bd 15 fa bf bb
       0.0031659855 0.5261305 -0.0367543 -0.0058586695
000330 26 c1 3b bd d2 af a0 bc 6f 37 99 3d f3 ee b1 bc
       -0.045838498 -0.019615088 0.07481276 -0.021720385
000340 fc 68 16 3d f2 42 65 bd 60 09 cc 3b 2e 29 95 bf
       0.036721215 -0.055972047 0.0062267035 -1.1653192
000350 3e 95 2c 3e 56 98 ea bd e2 87 9a bd 9d 9f 4d 3c
       0.16853806 -0.11454837 -0.07545449 0.012550262
000360 e5 3e ad be 54 85 ae bd 7b f1 d5 3d 81 34 ac be
       -0.33837047 -0.08521524 0.10446449 -0.33633807
000370 5c 28 b1 3d 09 08 6b 3e 1c 6f 1a be a0 23 d3 bd
       0.08650276 0.22952284 -0.15081447 -0.10309529
000380 45 95 25 be 8d 81 cf 3e ec d8 08 be 25 e4 c6 be
       -0.16170223 0.40528527 -0.13363999 -0.38845935
000390 2d 2d e5 3d 62 db 9b 3d f1 2c 22 3e 49 91 82 3d
       0.11190257 0.07610203 0.15837456 0.06375367
0003a0 9d f2 94 3b ff cc 98 3c 0e d7 de 3a 23 84 73 bc
       0.0045455233 0.018652437 0.0017001347 -0.014863047
0003b0 a9 33 56 3b 1f 42 15 3b 78 08 81 bd 7e 64 d7 bd
       0.00326846 0.0022775007 -0.063004434 -0.10517214
0003c0 c0 9c 2e 3d c8 a7 10 3e fb 1e 01 bd a2 ef 27 3a
       0.042629957 0.14126503 -0.031523686 0.00064062525
0003d0 d2 c4 3c 3c d1 6d 44 bd 71 1a 6f 3c 59 55 cb bc
       0.011521535 -0.04795629 0.0145937065 -0.02482097
0003e0 b5 8b e7 bb ce d4 d5 bd e7 b4 88 3c f2 6e 02 3c
       -0.007066215 -0.1044098 0.016687823 0.007961022
0003f0 97 4f 3f 3e cb 2b 0e bd 70 10 ae bd 95 09 07 be
       0.18682705 -0.034709733 -0.08499229 -0.13187249

shared_net.0.bias f4 [512]
000000 54 75 1f bd 37 29 7a 3d 07 3c 04 be 9c 21 2c bd
       -0.038930252 0.06107446 -0.12913524 -0.04202424
000010 4b eb 56 be c7 81 90 bd ee 2a db 3d 46 e5 3e 3e
       -0.20988195 -0.07056003 0.107015476 0.18642148
000020 ce 9e 1b be bd e9 db bc fe 97 f8 3d 94 f5 d4 3c
       -0.15197298 -0.026844854 0.12138365 0.025996007
000030 71 ec 8c 3d b2 5c 37 bd be a6 1c 3d e8 78 e1 bd
       0.06881035 -0.044766136 0.038244955 -0.11009389
000040 28 57 1e be d6 d8 93 3d 0c e0 f5 3d ad 38 2c bd
       -0.15462935 0.072190925 0.12005624 -0.042046238
000050 fd 25 89 3e 1f 6a c3 bd 9a 20 1a 3d 29 22 20 3d
       0.26786795 -0.09541725 0.037628748 0.039095078
000060 6d fb 3c 3e a3 3b 7d 3c 2c 42 20 bd 0a 55 2d 3e
       0.18455286 0.015456113 -0.039125606 0.16926971
000070 10 ff bc bd de b8 39 bd 31 ff 37 3e 9d 2c 1d 3e
       -0.09228337 -0.04534232 0.17968442 0.1534905
000080 98 7b 6a 3e ce fb 8b 3e 1d 39 a6 3e 70 14 3d bd
       0.2289871 0.2734055 0.3246545 -0.04616207
000090 4c 6f a5 3c 6d fa 3d 3e c1 0d 8d 3d 74 7e 0e be
       0.020194672 0.18552561 0.06887389 -0.13915426
0000a0 e4 9f 81 be 3e 88 ba be 8c 2e 02 be f8 fd c7 3c
       -0.253173 -0.3643207 -0.12713069 0.024413094
0000b0 8c e2 3c 3d 23 58 a6 be 23 76 57 be dc 0c 88 3e
       0.04611449 -0.32489118 -0.2104116 0.2657231
0000c0 0a 1f 57 be 1c 2d a8 be f6 f7 98 be 2b 48 2c bd
       -0.21007934 -0.32846916 -0.2987668 -0.042061012
0000d0 e5 e1 ad 3d 60 00 c1 3e 55 b4 75 be a9 e3 8b be
       0.084903516 0.376956 -0.23994572 -0.27322128
0000e0 97 12 01 be 08 d6 59 3e 81 da 24 be f3 7c 4d be
       -0.12604748 0.21273053 -0.16098978 -0.20067196
0000f0 de ba f8 3d 5f 61 41 be f1 6c 14 be 3c 29 ad be
       0.12145017 -0.188848 -0.14494683 -0.33820522
000100 88 55 99 3b 8b bb 5d bb ba 66 e5 3d 55 ac a3 3e
       0.0046793856 -0.0033833708 0.11201234 0.31967416
000110 35 0f b7 3e a1 df 29 be cc 81 9c 3e 7c 60 14 be
       0.3575379 -0.16589214 0.30567777 -0.14489931
000120 d9 54 5a 3e e7 d8 42 3e e9 d2 38 be ab fc 30 bd
       0.2132143 0.19028054 -0.18049206 -0.043209713
000130 0d c6 85 be da ad f6 bd 3c 7b 14 bf 7f 01 cd be
       -0.26127663 -0.12044878 -0.5800054 -0.40040204
000140 04 70 87 3e 51 2f 1c be 21 22 06 3e d8 ef ce be
       0.2645265 -0.15252425 0.13098957 -0.4041736
000150 e0 e7 a5 3e ca b6 50 be b5 ec 74 3d 84 97 26 be
       0.3240347 -0.20382228 0.059796054 -0.16268736
000160 b2 19 60 be a5 ac b6 be b3 47 68 be 18 53 13 bd
       -0.21884802 -0.35678592 -0.22683601 -0.035967916
000170 19 c4 54 bd 65 c6 b6 3b c8 e7 32 be 03 91 af be
       -0.051944826 0.0055778497 -0.1747123 -0.34290323
000180 93 c8 08 3d 00 a4 0e 3e b6 3f ad be aa 4a b0 be
       0.033394407 0.13929749 -0.3383767 -0.34431964
000190 b1 b7 45 3e 48 18 92 be 21 6d 0f 3d c7 60 4d be
       0.19308354 -0.2853415 0.035016183 -0.20056449
0001a0 1f eb 3c 3d 0b 12 25 be e0 f0 1f 3e e2 1c 8c 3e
       0.046122666 -0.16120164 0.1561923 0.27365786
0001b0 7d b4 d4 bd 17 29 42 3b 7a e2 a1 3e 35 97 b6 3b
       -0.10385988 0.0029626542 0.316181 0.0055722245
0001c0 f7 af 72 3e 52 c2 16 3d 82 60 4c 3e f6 78 ac 3e
       0.23699938 0.036806412 0.1995869 0.33686036
0001d0 2c 57 3b bc 99 50 ba bd 52 f3 51 3d 80 de 7a be
       -0.011434358 -0.09097404 0.05125744 -0.2449894
0001e0 5d 10 82 3d 05 d4 b3 be 3f c0 8b 3d 64 cf 36 be
       0.06350777 -0.35122696 0.068237774 -0.1785255
0001f0 ea ac 57 be 74 a7 6f bc be 7f 1a 3d 05 e4 96 be
       -0.21062055 -0.014627326 0.03771948 -0.2947084
000200 ae 96 a3 3e cf 7b ed 3c 0b 3e a6 bd 3f b9 e2 bc
       0.31950897 0.0289897 -0.081173025 -0.027676223
000210 14 3a 30 be 82 c9 03 be 39 4b fe 3b 24 48 e4 bd
       -0.17209655 -0.12869838 0.007760432 -0.11146572
000220 8e 8b b7 bd 83 b1 4c be dc 76 29 be 8d ef 87 be
       -0.08962165 -0.1998959 -0.16549248 -0.2654995
000230 0c d9 d3 bc 18 30 0a 3d 06 9b b9 3e 78 4c c3 be
       -0.025860332 0.033737272 0.36251086 -0.3814428
000240 98 a5 75 bd 09 c6 53 ba 39 22 74 bd 25 30 4a be
       -0.059972376 -0.0008078521 -0.05960295 -0.19744928
000250 dd 4a c8 3e 0b 16 cf 3d 5e 5f cc be 02 1a 3a 3e
       0.39119616 0.10111626 -0.3991651 0.18173984
000260 92 ea 4d be a6 32 2c be 77 32 4b 3d ed 7e 40 be
       -0.20109013 -0.16816196 0.049608674 -0.18798418
000270 87 25 47 be bd c3 ea 3a f4 46 f9 bd cf c8 1c 3e
       -0.1944791 0.0017911118 -0.12171736 0.15310977
000280 80 a3 2b 3e 42 db 39 bf 5c 85 a6 3d 67 13 56 bd
       0.16761589 -0.72600186 0.08130905 -0.052264597
000290 19 cc b9 bc 9d c1 94 3e 4f 1f c3 bd 04 28 16 3d
       -0.02268033 0.29053965 -0.09527456 0.036659256
0002a0 4c f9 8a 3e f7 49 b0 be 52 fc 84 bc b9 54 67 bd
       0.27143323 -0.3443143 -0.016233597 -0.056477282
0002b0 ba 18 35 bd e3 a6 df 3c 36 b8 4e 3c 46 b2 60 3c
       -0.044213034 0.027301257 0.0126171615 0.013714379
0002c0 6d 6d a3 bd d2 37 fd 3c 40 52 85 bd 82 4c d6 3d
       -0.07979856 0.030910406 -0.065098286 0.104638115
0002d0 5b 3d bb be 2a 15 e8 bc 0b fa 10 bd f8 4f 70 bd
       -0.36570248 -0.028330404 -0.03539471 -0.058670014
0002e0 39 65 af 3a a9 f9 1e be b1 b3 a3 bd 77 76 0a bd
       0.0013381607 -0.15524925 -0.07993258 -0.033804383
0002f0 5f 45 71 bd c1 d9 59 bd d9 63 0a 3d fe 40 67 3d
       -0.058904048 -0.053186182 0.03378663 0.056458466
000300 af c4 34 3e f0 3d 82 be 32 be 9c 3e 71 e3 87 3e
       0.17653154 -0.2543788 0.30613858 0.26540712
000310 83 5a d7 3e 41 d6 08 3f 0e 68 88 bd 29 fb e0 bd
       0.42061242 0.53451926 -0.06660472 -0.10985405
000320 57 0c ce bd a3 08 9c be bb 73 a8 bc 76 54 7d be
       -0.100609474 -0.3047534 -0.020562997 -0.2473925
000330 22 78 8b bd 10 44 b0 3e 79 79 94 3e 90 ef e7 bd
       -0.06810023 0.34426928 0.28998926 -0.1132499
000340 82 78 29 3e cd e7 4b 3e 4f 61 b3 bc 3b 1e 94 3e
       0.16549876 0.19912644 -0.021896986 0.28929314
000350 c4 47 93 bb fd f5 77 be e1 9a 98 3e 32 38 14 be
       -0.004494639 -0.24214931 0.29805663 -0.14474562
000360 86 43 89 3e 9f db d6 bd fb b2 59 3e 7e 04 11 be
       0.2680933 -0.10491108 0.21259682 -0.1416187
000370 9d fb 15 be a1 68 a2 3e 87 8e 00 bf 2a 26 95 be
       -0.14646764 0.3172045 -0.5021748 -0.2913068
000380 c1 63 08 3e aa 13 a6 3e d8 f7 57 3d 01 f1 09 bc
       0.13319303 0.32436877 0.052726597 -0.008419276
000390 17 5c 7a bd bd fb ce be 84 f0 7c 3d 4e 4d 3a 3d
       -0.06112298 -0.40426436 0.06175281 0.04548388
0003a0 25 8f e9 be 2f 9f 4a be 77 99 a3 bd ee ca 9e 3e
       -0.45617023 -0.19787286 -0.079882555 0.31014198
0003b0 c0 0f b8 bd d0 7e ca 3e dc ca c5 be ce 93 0c 3e
       -0.08987379 0.39549875 -0.38631332 0.13728258
0003c0 26 f0 ac be e3 8c 69 3d 05 fe 33 bd 9e bb a6 be
       -0.3377697 0.057019126 -0.043943424 -0.32565016
0003d0 c1 86 90 bd 8e 98 3a be 66 3c 90 3e 62 96 95 be
       -0.07056952 -0.18222257 0.2817108 -0.29216295
0003e0 47 c9 b3 be 4b fa 1f be f0 f9 6d 3e 60 b6 5f be
       -0.351145 -0.15622823 0.23239875 -0.21846914
0003f0 b6 0f 1b be 2f ad 9f be 7c d0 33 3e 02 77 93 be
       -0.15142712 -0.31186816 0.17559999 -0.28801733

shared_net.2.weight f4 [256, 512]
000000 7c 29 88 3c 52 41 a1 be 30 9d 17 be e7 41 6a 3d
       0.016621344 -0.31495148 -0.14806056 0.057191756
000010 10 7f 8a be 90 28 8f bd 14 c5 17 be 93 97 c2 bd
       -0.27050066 -0.069901586 -0.14821273 -0.09501567
000020 ef b6 8f 3d 2c 8a f8 bc 11 9a 8c 3d b2 2f f0 bd
       0.07017314 -0.030339323 0.06865323 -0.11727847
000030 eb 0b 2f 3d 47 46 6e be cc 1b ed be 94 5e 22 3b
       0.042735975 -0.23268996 -0.4631027 0.0024775611
000040 ac 0c 02 3e 2b 5f 34 be ad 37 6b 3d f3 e7 00 be
       0.12700146 -0.17614429 0.057426143 -0.12588482
000050 f6 40 53 3d 0a 52 20 3d cc 12 c7 39 26 a4 49 3c
       0.051575623 0.03914074 0.00037970243 0.012307202
000060 83 49 41 bd 3d de f4 3d ca 2c 74 3e c2 ce 39 be
       -0.047189247 0.11956451 0.2384521 -0.18145278
000070 5d 32 6c bd da 20 b5 3d aa e1 a4 bc f2 10 40 bd
       -0.057665218 0.088441566 -0.020127136 -0.04689116
000080 24 5d 0a be 7d ae 5e bc 95 96 59 3d ef 0a ee bd
       -0.13512093 -0.013591406 0.05312212 -0.11623179
000090 5e 5b b5 3c 65 66 05 3d 40 81 4a be 9c 17 9e 3d
       0.022138294 0.032568354 -0.19775867 0.07719347
0000a0 ba 4e bd bd 7c 0c 98 3d 29 48 ee 3d cc 0a 87 3c
       -0.092435315 0.07424256 0.11634857 0.01648464
0000b0 d2 2a c9 bc 46 49 0e 3e c5 27 2f 3e 0a f4 80 be
       -0.024556551 0.13895139 0.17105015 -0.25186187
0000c0 53 ac fd bb 9e 8e 43 3e 75 0a 06 3e 6d 87 57 bd
       -0.00774149 0.19097373 0.13089927 -0.052619386
0000d0 0a 40 4f bb 5d 22 67 be ef 8e 32 bd 90 14 58 3e
       -0.0031623864 -0.22571702 -0.043593343 0.21101594
0000e0 04 e7 44 3d c4 b9 b5 bd 84 5d 04 3e bf fd 8b 3d
       0.048071876 -0.088733226 0.12926298 0.068355076
0000f0 32 8a ca bb fc cf b0 3d d6 25 c3 3b bd 2b af 3d
       -0.006181025 0.0863342 0.005955438 0.08553264
000100 3f 9d 3e bc 90 ec b4 3c e6 2d 2b be 97 ed e7 bc
       -0.01163417 0.022085458 -0.16716728 -0.028311534
000110 f9 10 86 be 7c 48 c9 bc 90 d9 88 bd 6d 36 4f 3e
       -0.26184824 -0.024570696 -0.06682122 0.20235606
000120 99 6e f3 ba 75 65 a1 bd 1c e0 e4 3d b1 ee 59 3e
       -0.0018572389 -0.078806795 0.11175558 0.2128246
000130 7d 99 84 3d 08 23 0a 3d 0e f7 b5 3d e0 2c 10 3d
       0.06474588 0.033724815 0.088850126 0.035199046
000140 8b 51 31 3e 15 c4 88 3d 24 2f 85 bd 6e 54 c6 3d
       0.17316262 0.06678025 -0.06503132 0.096840724
000150 f4 ea fa 3c 48 e6 5e 3d 2f c3 fc bd 8b ce 27 3d
       0.030629613 0.054418832 -0.12341916 0.04096846
000160 ab 69 ea 3c 14 10 af 3d ae 9b 8a 3d 3f a4 6e bd
       0.02861484 0.085479885 0.06767975 -0.058262106
000170 c1 5b 85 be 89 ff bc bc 22 70 03 3d 04 b0 8d 3d
       -0.26046565 -0.023071067 0.03208936 0.06918338
000180 72 9d 98 3b fa 38 2a be ff 75 8d 3d 65 c0 b0 3e
       0.004657441 -0.16623297 0.069072716 0.34521785
000190 3c de fb bc 25 7c b7 bc 09 1e d3 bc cb f8 0a 3e
       -0.030745618 -0.022398064 -0.025771158 0.1357147
0001a0 6d 33 44 bd f7 dc b2 bd 1c 65 54 3e 08 e8 2f be
       -0.047900606 -0.08733552 0.20741695 -0.17178357
0001b0 0b 54 87 bc 4e 65 3d bd 8f 09 88 bd f0 84 a6 bd
       -0.016519567 -0.04623919 -0.06642448 -0.081308246
0001c0 78 2a 7a be 43 2e 4e be b1 78 79 3d 2a 24 35 bd
       -0.24430263 -0.20134835 0.060906116 -0.04422394
0001d0 6d 8b 6b be 50 28 0e be 47 47 9e 3d 08 36 ad 3d
       -0.23002405 -0.13882565 0.07728439 0.08457571
0001e0 17 44 8e 3c c1 a4 5c bc 9d fe 61 3e eb 94 29 3d
       0.017366452 -0.013467015 0.22069784 0.041401785
0001f0 5b 9d 16 3e be a0 b4 bd 8d 1c 5e 3d d5 97 d7 3d
       0.14708464 -0.08819722 0.054226447 0.105270065
000200 43 9d d8 bb 6c f4 91 3d 25 11 11 3d b1 16 e5 bd
       -0.006610544 0.07126698 0.03541674 -0.11185969
000210 dc d4 b5 be 7f c0 81 3c 4c 87 92 bd 4e 51 e4 3d
       -0.3551396 0.01583886 -0.07154712 0.1114832
000220 5f 96 4f 3d f3 ce fd 3d cf dc 76 bd e5 fa 5c be
       0.050680514 0.12392988 -0.060269173 -0.21580084
000230 b8 b3 f7 3c 2b a2 12 3e 4b e0 6b be e8 b8 10 bd
       0.030237064 0.14319675 -0.2303478 -0.03533259
000240 81 22 41 3d 77 0a 14 be 0a dc e4 bc 59 b3 3d 3d
       0.047152046 -0.14457117 -0.027936954 0.046313617
000250 0d 51 0e be 83 76 2d be 7c 17 d9 3d 10 23 e5 bd
       -0.13898106 -0.1693974 0.106001824 -0.11188328
000260 1d 12 b7 bc 98 6e b7 bb ec 5d 25 3e a4 a4 98 bd
       -0.022347504 -0.0055979006 0.1614911 -0.07453278
000270 1a 5c 45 be 5d d8 4a 3d 1c a9 b2 3c 26 4e 9d bd
       -0.19273415 0.049522746 0.021809153 -0.07680921
000280 b8 77 49 bd ae 38 46 3e 0a 38 e2 3d b0 9e e5 bd
       -0.04918644 0.19357559 0.11045845 -0.11211908
000290 b6 1e e5 bd 60 cd 96 bd d5 33 52 3d 2f 20 d2 3b
       -0.11187498 -0.07363391 0.051318962 0.006412528
0002a0 cd a2 58 bd 92 63 96 3d 28 f0 07 3e b2 cb 13 bd
       -0.052889634 0.0734321 0.13275206 -0.03608293
0002b0 ee a0 61 3e b0 84 84 3d 79 b8 09 bd 82 da 26 bd
       0.22034046 0.06470621 -0.033623192 -0.04073573
0002c0 6b 66 20 bd 0d b8 85 bd 69 5d fa bd ab c1 39 bd
       -0.039160173 -0.065292455 -0.12224848 -0.04535071
0002d0 0d ed c8 3d 02 bf ad bc d1 10 82 3d ce f7 ee bd
       0.09810839 -0.021209244 0.06350864 -0.11668359
0002e0 93 eb 92 bd dd 0b e6 3d c1 4d 5f be 9e 73 d0 3c
       -0.071738385 0.112327315 -0.21807005 0.025445756
0002f0 f9 2b 79 3e 65 dd 0b 3e 4d 68 c1 3c 7f d2 88 3c
       0.2433318 0.13658674 0.023609305 0.016701935
000300 a7 c6 88 3d 62 0e 8b 3d f4 2d aa 3d b0 b9 b0 bd
       0.06678515 0.06789853 0.08309546 -0.08629167
000310 9f 8d 20 3e 23 9f 5d be 00 2c 8f 3d 49 72 c9 bc
       0.15679024 -0.21642737 0.06990814 -0.024590628
000320 d9 15 65 bd 41 0c ca 3c e3 71 08 3e b4 e3 16 bd
       -0.05592904 0.024664046 0.13324694 -0.03683825
000330 29 21 e0 3d ea 45 76 be 76 24 98 3d d3 93 3a 3d
       0.10943825 -0.24050108 0.07428829 0.045551132
000340 9e e5 40 be 6f f3 06 3d a7 6e c4 3d fa d0 94 bd
       -0.18837592 0.032947 0.09591418 -0.072664216
000350 49 20 58 bd 5f 2c 23 be 33 b4 14 be f4 eb c1 3d
       -0.052765165 -0.15934895 -0.14521866 0.094688326
000360 c4 54 c1 3d e7 83 e6 35 d8 f6 83 3d 1a e3 7a 3d
       0.09439996 1.7174724e-06 0.06443566 0.061251737
000370 e8 2b e1 3c 64 55 68 be 17 34 5a 3e fb cb cc 3d
       0.027486756 -0.22688824 0.21308933 0.09999844
000380 af 63 35 3d af 05 1c bd 24 bb ac bd d7 88 78 bb
       0.04428452 -0.038091358 -0.08434132 -0.003792336
000390 a9 c2 ab bd 46 e5 e6 3d 20 7c e8 3d ac 5b 33 bc
       -0.08386738 0.11274199 0.113518 -0.010947149
0003a0 30 59 e1 3d 27 cd 36 bb 52 5f 5e bc 5f 9d 49 be
       0.11003339 -0.0027893276 -0.013572531 -0.19688939
0003b0 8c a9 6c bc 16 4f 9c be f2 93 2f be 79 cf 95 3d
       -0.01444472 -0.30529088 -0.1714628 0.07314963
0003c0 0a 33 f2 3d ef 43 ed bd 4a 21 a2 3d e7 fc 23 3c
       0.11826141 -0.11585223 0.07916506 0.010009027
0003d0 51 21 38 bc cc 16 f1 3d 16 4b 35 be f3 f8 45 be
       -0.011238412 0.11771926 -0.17704424 -0.19333248
0003e0 6c 78 1c 3d a6 3a 13 3d 58 4e b6 be 61 32 66 3d
       0.03820078 0.035944603 -0.35606647 0.05620039
0003f0 91 91 a8 be 31 cf 86 3c a7 7f 03 3e e8 5a 40 3e
       -0.32923558 0.016456218 0.12841664 0.18784678

shared_net.2.bias f4 [256]
000000 dd 8b 41 be a2 24 23 bd 62 9c a0 3c f7 93 b4 bd
       -0.1890101 -0.039829858 0.01960582 -0.088172846
000010 b5 61 e7 bb 8a 32 08 be 83 54 f0 bd 01 bc 0d be
       -0.007061208 -0.13300529 -0.11734869 -0.13841249
000020 35 5e 02 be 89 ba b4 bd 1a b6 d5 bc 99 00 99 bd
       -0.1273125 -0.08824641 -0.02608781 -0.07470817
000030 10 ce 9b bd 00 d1 a8 bd 32 af 29 be f0 58 c9 3c
       -0.07607663 -0.082429886 -0.16570738 0.024578542
000040 fc c0 d2 bd 36 aa a4 bd e0 fe 0e be 8b d8 d7 ba
       -0.10290715 -0.08040278 -0.13964415 -0.0016467733
000050 d9 19 23 3d d5 e7 c6 bd b3 8e d3 bd 64 1d 84 bd
       0.039819572 -0.09712187 -0.10329952 -0.06450918
000060 3b 7c d2 3b 63 8f 3d bd 00 3d d6 bd 22 00 60 bd
       0.006423501 -0.046279322 -0.104608536 -0.054687627
000070 1e f7 2f bb c2 1b 8a bc 94 4d 8c bd df 4b df bd
       -0.0026850174 -0.01685894 -0.06850734 -0.10903143
000080 cd e7 13 3d 63 47 20 be 53 a2 09 be a6 f8 65 be
       0.036109734 -0.15652232 -0.13440828 -0.22458133
000090 1c 10 3d be a2 b6 d4 3c ff 3b a5 bd 2c 34 d5 bc
       -0.18463176 0.025965992 -0.08068084 -0.026025854
0000a0 28 37 99 bd af 51 38 be 2d c7 91 bd 2a 4f b7 bc
       -0.07481223 -0.1799991 -0.07118068 -0.022376616
0000b0 fc d1 be bd e5 96 ae 3c 24 51 46 bd ef 04 b0 3d
       -0.09317395 0.021312186 -0.048417225 0.08594691
0000c0 60 47 61 bd d5 6d 49 3c 1e 08 47 bd 78 33 45 3b
       -0.05499971 0.012294252 -0.048591726 0.0030090492
0000d0 11 67 6f bd f0 d0 89 bd 74 d2 87 bd 37 41 d9 3b
       -0.0584479 -0.06729305 -0.066319376 0.0066300887
0000e0 06 09 2c 3d 65 b4 30 be c4 d4 3d be f3 c6 84 bd
       0.042000793 -0.17256315 -0.18538195 -0.06483259
0000f0 ed 67 27 bc e8 87 7f 3e 48 9f c4 3d c3 03 82 3e
       -0.010217649 0.24954188 0.09600693 0.25393495
000100 e7 79 57 bd 2e 2c 92 3c b4 c3 be bd dc b1 a3 bd
       -0.05260649 0.017843332 -0.09314671 -0.07992908
000110 f6 06 08 bd 23 0c 37 be 10 8e 9c bd d6 df a0 bc
       -0.033209763 -0.17875724 -0.07644284 -0.019637983
000120 cc ea ba 3d c8 62 a9 bd 1e 4b 81 bd 66 4c c9 bd
       0.09126815 -0.08270794 -0.063131556 -0.09829025
000130 c2 7d bc bd 21 2c cc bd 35 0f e6 bd 2b 77 0e 3e
       -0.09203674 -0.099693544 -0.11233369 0.13912646
000140 43 d1 5d bd ac 16 27 be c6 33 db 3c e0 49 32 be
       -0.054154646 -0.16317242 0.026758086 -0.17410994
000150 e0 d9 b8 bd 32 6c 9a bd 84 c7 65 3d b3 b3 92 bd
       -0.09025931 -0.07540168 0.056098476 -0.07163181
000160 1b 89 76 3d 00 fb 02 be c0 16 69 bd 28 98 6d bd
       0.060189348 -0.12791061 -0.05690646 -0.058006436
000170 89 9f 36 3d e5 21 89 bc 13 03 fb 3d 4a f5 a6 bd
       0.04458574 -0.016739795 0.12256446 -0.08152254
000180 ef 04 ae bc 6e a1 99 be 38 b5 55 bd 95 e9 51 bc
       -0.021242587 -0.30005974 -0.052174777 -0.012812038
000190 85 f6 91 3d 39 1e 9c bd c9 56 b0 3c f9 7c e7 bc
       0.07127098 -0.07622952 0.021525757 -0.028257834
0001a0 0d df 9d 3c 57 8b cd 3b d9 1b c9 bd c9 f8 cc bc
       0.019271398 0.006272714 -0.09819765 -0.025020974
0001b0 cb 7b 28 bd 05 f9 85 bc 5b 41 9a bc 96 ba a7 bd
       -0.041133683 -0.016354093 -0.018829992 -0.08189885
0001c0 bd eb df bc a8 d6 af 3d 3e 93 ec bd 94 a3 1d be
       -0.027334088 0.08585864 -0.11551522 -0.15394431
0001d0 e2 66 84 bd 9c a4 ed bd 5d 3c 80 bb 51 a6 9f bd
       -0.06464936 -0.11603662 -0.003913446 -0.07795394
0001e0 9f 9f f7 bb 46 d8 d8 bd a7 dd ea bd cb 19 10 be
       -0.00755687 -0.10588126 -0.11468058 -0.14072339
0001f0 b7 e8 21 be 65 a2 09 3e 91 79 5c 3d ff 8e 05 bd
       -0.1581143 0.13440855 0.053826872 -0.032607075
000200 59 96 e7 bd ec 3e 53 bd 58 c7 17 bd e5 b9 26 be
       -0.113079734 -0.05157368 -0.037055343 -0.1628185
000210 40 d8 f1 bd c2 92 86 3e 8d 53 f7 bd 2e 68 82 bd
       -0.118088245 0.26283842 -0.12076483 -0.06367527
000220 de f1 43 3c e2 6c b9 bd b5 aa 05 be 39 5e 08 3c
       0.011959521 -0.09053971 -0.13053401 0.008323246
000230 96 86 82 bc ac 7e 60 3d 71 8b 86 3d 3e 6c 15 be
       -0.015933316 0.054808304 0.06569565 -0.14592072
000240 18 6e 8f bc f7 d5 96 bd 2f 0a 53 3d c8 49 a4 3d
       -0.017508551 -0.07365029 0.051523384 0.08021885
000250 f1 11 d1 bd 4a 83 0b bd eb 1a 9e bd 89 6c 61 3c
       -0.102085 -0.034060754 -0.07719978 0.013758787
000260 c5 af 74 bd f9 78 a6 bd d5 b8 9f bd 02 40 10 be
       -0.05973794 -0.081285425 -0.07798926 -0.14086917
000270 f1 20 04 3e 4b dc e0 bd 51 0f 4f bd 02 96 e2 3d
       0.12903191 -0.109795175 -0.050551716 0.11063768
000280 d3 b7 80 bd d6 a6 bd bd 06 16 13 be 5f 0f ad 3c
       -0.06285062 -0.09260337 -0.1436387 0.021125494
000290 c8 21 e8 bd b7 70 44 bd 23 e5 e4 bd 01 3c 40 3d
       -0.11334568 -0.047959056 -0.11176517 0.046932224
0002a0 4a b9 98 bd 4c 68 b4 bd 73 71 d1 bd ad 9e 5b 3d
       -0.07457216 -0.088089556 -0.10226717 0.053618122
0002b0 8e 11 0d be d4 3b 02 be d4 6c 8e bd aa fd c5 bd
       -0.13776228 -0.12718135 -0.06954351 -0.09667523
0002c0 4e 45 0d be 40 57 56 3c 68 24 06 bd 4e 52 ab bd
       -0.13795969 0.013082325 -0.032749563 -0.08365308
0002d0 5e e5 fb bd 1d 43 b0 bd 0b be a5 bd 31 9e bd bd
       -0.12299608 -0.08606551 -0.080928884 -0.09258688
0002e0 bf f5 15 3e c9 96 4e bd b3 5c 14 be 2d de 24 bd
       0.14644526 -0.05043677 -0.14488487 -0.040250946
0002f0 42 99 0d be 11 52 0b be 3f 19 2e 3c 3d 65 f4 3d
       -0.13827994 -0.13605525 0.010626136 0.11933372
000300 d8 be 8a 3d 56 61 c6 bd 59 91 15 be d5 89 97 be
       0.06774682 -0.09686534 -0.14606227 -0.29597345
000310 62 8e da bd 16 f8 0e bc 48 e0 94 bd c9 58 b8 bc
       -0.106716886 -0.0087261405 -0.07269341 -0.022503274
000320 40 63 ca bd 5c 6e 01 bd c2 f2 34 bd 98 54 f3 3c
       -0.09882212 -0.031599388 -0.044176824 0.029703423
000330 b0 98 cd 3c 40 0d 8c bd 80 dd ca bd b3 42 b6 bd
       0.025097221 -0.06838465 -0.09905529 -0.088994406
000340 6d ec 93 3d 81 67 86 bd dc 53 6c bd 39 9b 04 3c
       0.07222829 -0.065627106 -0.057697162 0.008093649
000350 35 42 ae bd d6 a8 7c bd d1 65 cf 3d 32 0c 09 3c
       -0.08508722 -0.061684452 0.10126842 0.008364724
000360 13 e2 73 be 15 1f 13 3e 39 ef cf bd 90 4c 05 bd
       -0.23816709 0.14367326 -0.1015305 -0.03254372
000370 58 d4 68 bd 09 ce 31 bd 16 5c c8 bc eb 82 07 bd
       -0.05684313 -0.04340938 -0.024457972 -0.033083837
000380 44 5d 88 bd a1 ee 0e 3d 5d 38 c6 bb 8a 35 3d be
       -0.06658414 0.034895543 -0.0060491995 -0.18477455
000390 4e c2 2d be 9d 2c a4 3d 29 5d ae 3c f7 f7 50 be
       -0.16968653 0.08016322 0.021284657 -0.20407091
0003a0 fd 7f 47 be 58 14 fa bd 7d b6 aa bd c4 be 0f 3e
       -0.19482417 -0.122109115 -0.08335588 0.14037615
0003b0 e1 5e b3 bd 2d fd 80 3d 2e ac 05 be f6 64 ef bd
       -0.08758331 0.062982894 -0.13053963 -0.11689179
0003c0 a8 ba 80 bd aa db f7 bd 4c 2c 02 be 5a 3d 29 bd
       -0.06285602 -0.121024445 -0.1271221 -0.041318275
0003d0 77 cb e0 bd 8d 52 15 be bf 15 e1 bd e6 8b 17 be
       -0.10976308 -0.14582272 -0.10990476 -0.14799461
0003e0 0c 6a 5f 3d 0a c0 88 bd 26 df 76 be 69 ae ce bd
       0.054544494 -0.066772535 -0.24108562 -0.1009186
0003f0 d3 f1 8d 3b 30 aa 14 be 73 a3 f0 bd 6c dd 69 bd
       0.004331806 -0.14518046 -0.117499255 -0.05709593

to_mean.0.weight f4 [128, 256]
000000 58 48 9b bc 59 0c cf 3c ab 24 a3 3c fd 91 5e 3d
       -0.018955395 0.025274443 0.019914946 0.054338444
000010 13 8c 90 3d 48 35 35 3d 33 95 f8 3d 0b b9 0b 3d
       0.07057967 0.044240266 0.121378325 0.034112018
000020 41 f1 86 3d 1f af fb 3c c6 15 1c 3d db a5 18 bc
       0.06588984 0.030723153 0.038106702 -0.009316887
000030 9f 55 cd 3d 48 0d c1 3d 9c 39 ad 3d 5f 07 61 3d
       0.100260966 0.09426361 0.08458254 0.05493867
000040 c3 44 1e bb a5 94 0f bb 87 a4 a1 bb 36 c0 a5 bc
       -0.0024149872 -0.0021908667 -0.0049329433 -0.020233255
000050 11 fa ba 3d ef 43 f6 3d d6 c1 8c 3d 34 aa 26 3d
       0.09129728 0.12024676 0.06872909 0.040689662
000060 25 dd 15 bc 4d 7b ef 3c 9a 1b a4 3a ce 86 66 bd
       -0.009146963 0.0292336 0.0012520433 -0.056280904
000070 79 62 61 bd da f0 99 3b 37 49 4b 3d 49 d2 89 3d
       -0.05502555 0.004697901 0.04963037 0.06729562
000080 89 b0 98 3d d5 1f 86 bd 15 1c 0a 3e f0 8e 8e 3d
       0.074555464 -0.0654904 0.13487275 0.06960857
000090 56 a1 b7 3c 7f d9 a5 bc cd 66 fa 3d dd f6 bb 3d
       0.022415798 -0.020245312 0.12226639 0.09177945
0000a0 0d d9 9c 3d e2 12 c4 3c 33 48 9f 3d a8 d9 c9 bd
       0.07658587 0.023934785 0.07777443 -0.09855968
0000b0 d7 7f f3 3d 17 35 1a 3c d5 bb 3c 3d b8 d8 b8 3b
       0.11889618 0.009412072 0.046077568 0.0056410693
0000c0 8d 03 04 bc 17 71 5d bd 9e 1a 5f 3d 09 88 0c 3d
       -0.008057487 -0.05406293 0.054468744 0.03430942
0000d0 fa 81 9b 3d 4c e4 46 bd c2 38 24 3e 69 18 a8 bd
       0.075931504 -0.048557565 0.16037276 -0.08207781
0000e0 3e ab 1e be 9b 5f 36 bc 52 c1 bc 3c 9f 8c e4 3d
       -0.15495011 -0.011131193 0.023041401 0.11159634
0000f0 da e8 ac 3d 18 40 3e 3d f7 d3 a7 bd a2 71 0c 3e
       0.084428504 0.046447843 -0.08194726 0.13715222
000100 c4 4b 1a 3d c1 c3 2b 3d 5e 04 31 3d 79 ba f4 3c
       0.037669912 0.041934732 0.043217055 0.029874073
000110 6e 69 b8 3d a4 63 17 3e cc 35 61 3d 6f 51 91 3d
       0.09004484 0.14784104 0.054982945 0.0709561
000120 ce ae ca 3d 90 50 58 bb 2f 97 a1 bc 5d 0c 01 3d
       0.098966226 -0.0033007003 -0.01972541 0.03150593
000130 7a 41 01 3c 89 d4 d4 3d 71 fa 8c 3d 17 fd 44 3d
       0.007889146 0.103921 0.068837054 0.048092928
000140 d7 9f ad 3d 18 de 5a bd 11 48 68 3d 3b 84 ca 3d
       0.08477753 -0.05343446 0.056709353 0.09888502
000150 7e 98 b1 3c 32 05 84 3d 0f 7d f9 bb 0e a7 0e 3e
       0.02167916 0.064463034 -0.007613785 0.13930914
000160 fb b7 c0 3d 8a 4d 93 3d 1d cb f7 bd f4 7c ea bc
       0.094100915 0.07192524 -0.12099288 -0.028624035
000170 ff 77 2b 3d c3 ef af 3d e2 6a a4 3d 34 76 d8 3d
       0.041862484 0.08590653 0.08028199 0.105694205
000180 1d 8e 97 bd 24 d1 7f 3d 50 8e 12 bc 1a 79 60 bd
       -0.07400153 0.06245531 -0.008945063 -0.05480299
000190 fd 1d d3 3d 0a 1a 98 bd 5f af ae bb d3 80 b2 3d
       0.10308454 -0.074268416 -0.0053309645 0.087159775
0001a0 73 c3 01 3e ec 9f 15 3d 96 01 18 bd 88 33 ff bc
       0.12672214 0.036529467 -0.037110887 -0.031152502
0001b0 41 1e ee bb 07 12 55 3d f3 09 80 3d 7e da 1a bd
       -0.00726679 0.052019145 0.06251898 -0.037806027
0001c0 a8 da ee 3c 24 27 cb 3d fb c6 76 3d 21 43 7b 3c
       0.029156998 0.09919575 0.060248356 0.015335829
0001d0 7a cd e8 bc a7 a7 cb 3d e3 47 59 3d 47 07 08 bd
       -0.028418291 0.099440865 0.053047072 -0.033210065
0001e0 8e 82 c0 bc 6d d9 03 bd 2c 9f 99 3d cc 6b cf 3a
       -0.023499753 -0.032189775 0.07501063 0.0015824973
0001f0 d9 5a b5 3d 6d b8 1a bd 9f b5 36 3c 11 fc f5 3c
       0.088552184 -0.03777354 0.0111517 0.030027421
000200 af f4 c7 bd d0 48 55 3d d8 18 68 bd 2d 10 d4 3d
       -0.097634666 0.052071393 -0.056664318 0.10354648
000210 d5 79 40 bc 47 1c 89 3c a1 1c 8c 3d 03 74 c1 3d
       -0.011747797 0.016737117 0.06841398 0.094459556
000220 d7 20 c5 3c 3e 5c 6f 3c 44 ba 91 3d c1 31 b4 bc
       0.02406351 0.014609395 0.071156055 -0.02199638
000230 05 4e 04 3e ef 41 b0 ba cc 6d bb 3c c0 bb ba 3d
       0.12920387 -0.0013447384 0.022879504 0.09117842
000240 1c 9a cf 3c 09 c5 b5 bc 65 d8 a5 bd 32 91 4f bd
       0.02534204 -0.02218868 -0.080979146 -0.05067558
000250 b5 09 68 3d b5 cd 5f 3c ba d4 58 3d 13 a0 ee 3d
       0.056649882 0.013659884 0.052937247 0.116516255
000260 89 7b c0 3d 45 58 07 3d b8 75 2a ba 83 9d 26 3d
       0.093985625 0.033043165 -0.0006502527 0.04067756
000270 75 f5 a6 3d 09 ee 6d 3d 0d 29 ab 3c db 21 16 3d
       0.08152286 0.058088336 0.020893598 0.03665338
000280 ea df e2 3d 41 a5 d2 bd 8e d1 bc 3c aa 06 44 3d
       0.110778645 -0.10285426 0.023049142 0.047857918
000290 3e ed 5f 3d ef 81 f8 3d bb 12 cf 3d cd 6f fb 3d
       0.05466961 0.12134158 0.101109944 0.12277184
0002a0 a1 15 e7 3d 57 cc c8 3c fd ab 3a 3d b2 ef 77 bc
       0.11283422 0.0245115 0.045574177 -0.015132831
0002b0 e1 f7 cb 3c d4 fa ac 3c 7a b0 d7 3d fc be 02 3d
       0.024898471 0.021115698 0.10531707 0.03192042
0002c0 e0 69 98 3d b4 13 a7 3c f4 29 0c bd 3e 8d 81 3c
       0.07442069 0.020395137 -0.034219697 0.01581442
0002d0 7f dd 57 bc 15 a6 9d 3c 39 3f 0a 3d 4d 06 29 3d
       -0.013175367 0.019244233 0.0337517 0.041265775
0002e0 82 17 1c 3d 29 46 9a 3d f6 b7 5b bc 6e f7 6f bd
       0.038108356 0.07532913 -0.013410559 -0.058585577
0002f0 55 98 0d 3e d0 39 a5 3d 98 5c e6 bc c8 ea 00 3e
       0.13827641 0.080676675 -0.028120324 0.12589562
000300 e7 cd c3 3d 6a 3e 39 bd 7c 62 2e 3d 54 16 ab 3d
       0.09560757 -0.04522554 0.04257439 0.08353868
000310 0c 67 0b 3c 72 0a 01 3d 8b 29 f3 3c 56 11 9e 3d
       0.008508455 0.031504102 0.029682895 0.0771815
000320 cd 52 e0 3d ac 4a 52 bd ce c2 5b 3d 27 e8 84 3d
       0.10953293 -0.051340744 0.053652577 0.06489592
000330 3e ec 76 3d a5 b9 67 3d 6d 53 e3 3d 2f 68 d6 bc
       0.06028389 0.05657353 0.110998966 -0.026172725
000340 ff 96 a1 3c c3 6b 96 3d f8 e8 6e 3d e6 f9 61 3d
       0.01972532 0.07344773 0.058327645 0.055169962
000350 29 6c f5 3d 92 20 5f bd 5f 30 68 3d 88 ec 65 bc
       0.119835205 -0.05447442 0.056686755 -0.014033444
000360 14 66 dc 3d dd 39 55 bd b4 8a 98 3d 72 9f cb 3d
       0.10761657 -0.052057136 0.074483305 0.09942521
000370 73 01 91 3d f1 c8 72 bd 8c 18 12 be e6 43 d0 3d
       0.070803545 -0.059273664 -0.14267176 0.101692006
000380 eb 20 aa 3d 44 43 13 3d 6d e1 a8 3d d7 3b 9f 3d
       0.0830706 0.03595282 0.082461216 0.077750854
000390 31 70 90 3a fb 26 1a 3e b8 3f a0 3c 61 16 b4 3b
       0.0011019764 0.15053932 0.019561633 0.005495832
0003a0 b8 05 94 3c 45 ff c9 3c 4e 63 51 3d ea 67 8e 3d
       0.018069133 0.024657855 0.051120095 0.06953414
0003b0 90 91 65 3d 7d 4d 80 3d 7f 4d 7a 3d 28 40 6d 3d
       0.056047022 0.0626478 0.061109062 0.057922512
0003c0 76 75 8f 3d 14 40 f6 3d cc 31 ec 3c ae 62 7d 3d
       0.07004826 0.12023941 0.028832339 0.061861686
0003d0 ef ba a1 3d 98 8a a8 3d ad 23 1b bd 11 8c 66 bd
       0.07896983 0.0822956 -0.03787582 -0.05628592
0003e0 77 fd 73 bb e8 30 ea bb 0a 45 b6 bc a7 0e dd bd
       -0.0037229934 -0.0071469434 -0.022249717 -0.1079381
0003f0 fd 88 2a 3d e7 0d b4 3d f4 5d 09 be df 3b 27 3d
       0.04163455 0.08791714 -0.13414747 0.040828582

to_mean.0.bias f4 [128]
000000 e9 05 98 bc 15 78 55 bd 35 df 86 3d 3f 30 f6 bd
       -0.018557506 -0.052116472 0.06585542 -0.12020921
000010 94 74 11 3c 73 88 9b 3c 95 8c 58 3d 2d 1b 32 3d
       0.008877892 0.018985962 0.052868444 0.043482948
000020 39 41 6c bc ed 2b 14 bb c8 da a5 bc cb 6b 03 bd
       -0.014419847 -0.002260919 -0.020245925 -0.03208522
000030 e8 6a 6e bd 77 a8 b6 3d 5d 58 61 3d 69 b1 c6 bd
       -0.058207422 0.08918851 0.05501591 -0.09701807
000040 97 1a 5f 3d 88 68 28 3d c1 03 17 3d 97 d0 8a bd
       0.054468717 0.041115314 0.036868814 -0.067780666
000050 06 d8 9e ba 82 d9 97 bc 5f a3 90 ba 3a 2c 48 3c
       -0.0012118823 -0.018536333 -0.0011035017 0.012217576
000060 76 b1 53 bd 55 e3 d3 bb 74 10 48 bd 39 1f d4 3c
       -0.05168291 -0.006466309 -0.048843816 0.025893794
000070 ef e1 90 3d 8f 11 af bd b0 3f 62 bc f3 6c 52 3d
       0.070743434 -0.08548271 -0.01380913 0.051373433
000080 db 7b 2a bd a6 fa 82 3d a1 b7 07 be 7b dd 16 bc
       -0.041622024 0.06395464 -0.13253643 -0.0092080785
000090 ad 7e 8e 3d 94 e6 c9 3a 32 b2 8b bd 16 b0 c9 bd
       0.06957755 0.0015403801 -0.068210974 -0.09848039
0000a0 d4 f1 03 bd 7b b8 b3 3d 1f 19 e5 bd 16 fc f1 bc
       -0.032213047 0.08775421 -0.11186432 -0.02953915
0000b0 0a 0e 13 3d 5e 72 1e 3d c8 b9 83 bd 38 bf 1d 3d
       0.03590206 0.038683288 -0.06431919 0.03851244
0000c0 46 0c a5 bd ec d1 61 3c 37 78 60 3d 02 92 4e bd
       -0.080589816 0.013782959 0.054802146 -0.050432213
0000d0 96 c4 b7 bb a6 36 aa bd 20 ac ea bd e5 75 27 bd
       -0.0056081517 -0.083112046 -0.114586115 -0.040883917
0000e0 a0 a9 ae bb 36 65 ef b8 bb 0a 91 3b c4 38 bd bd
       -0.0053302795 -0.0001141526 0.004426328 -0.09239343
0000f0 65 79 1c 3d fb d7 6a 3c 84 b8 e0 bc 2b 53 7f 3d
       0.03820171 0.01433372 -0.027431734 0.062335175
000100 56 32 00 bd 37 78 33 3c be 0e 66 3c 11 aa 12 be
       -0.031298004 0.010953954 0.014041601 -0.14322688
000110 5d ae 71 3c 93 32 31 bd 52 cf 8e bd 2b ee 6a bd
       0.014751044 -0.043261122 -0.06973137 -0.05735604
000120 fd a4 8f 3d e3 ad b4 bd 17 b2 b8 bd 71 3a 4d 3d
       0.07013891 -0.08822229 -0.09018343 0.050104562
000130 a7 bc 03 bd ea 36 6d bd 13 3c ab 3a 18 9b 97 bd
       -0.032162335 -0.0579137 0.0013064168 -0.07402629
000140 ef c5 13 bd ab e4 92 3d d6 a1 90 3c 69 b0 f5 bb
       -0.036077436 0.07172521 0.017655294 -0.0074978364
000150 ba 62 a2 3c fe c8 9e bd 90 23 4b bd dd 01 94 bc
       0.019822467 -0.0775318 -0.049594462 -0.018067295
000160 96 74 0b 3c 2f f0 e2 3b 6b f6 ab 3c ad 69 8f bd
       0.008511683 0.006925605 0.020991525 -0.07002578
000170 77 2d c0 bd 78 5c 15 bd 04 b7 c2 ba c0 cd e7 3a
       -0.09383672 -0.03646514 -0.0014855568 0.001768522
000180 6c ca 0c bb b1 69 ce bd 89 bb bd bc a4 ec e6 3d
       -0.0021482958 -0.10078753 -0.023160713 0.11275604
000190 bb db b2 bc a5 e4 b8 3d fa c4 d4 bd a5 82 80 3c
       -0.021833291 0.090279855 -0.10389133 0.015687296
0001a0 50 8f a4 bd 4a 2a ce bd 8e 46 a1 bd 09 e8 22 3c
       -0.08035147 -0.1006666 -0.07874785 0.009943017
0001b0 6b 8f 90 3d a1 19 01 3c 3d fa d9 bc 8f c5 cd bd
       0.07058605 0.007879646 -0.02660858 -0.10047447
0001c0 4d 1c 71 3c 56 83 8c bd e5 8e 6d bd 39 c0 45 3c
       0.01471622 -0.06860988 -0.057997603 0.012069755
0001d0 f5 3d 5a 3d 7c ee bd bd 2e 91 13 3b f9 26 e2 bc
       0.053281743 -0.09274003 0.0022516954 -0.027606474
0001e0 47 2c 4f bc ba a9 99 bd a6 42 9f bc 74 f1 9a 3d
       -0.012644834 -0.07503076 -0.01944096 0.07565585
0001f0 46 8f ab bc 7d 64 bd bc a7 75 9a bc 96 7a 4a 3d
       -0.020942342 -0.023119206 -0.01885493 0.049433313

to_mean.2.weight f4 [18, 128]
000000 7e 54 05 bd 2d 52 38 bc 4f f5 86 3d b1 ff ec bc
       -0.03255128 -0.011250061 0.06589758 -0.028930517
000010 07 96 24 bc 82 41 18 bb 4d 75 94 3d a1 cf ac 3c
       -0.010045535 -0.0023232405 0.07248936 0.021095099
000020 a8 4d 20 bd 05 26 03 3d 7f 21 27 bd 80 6a 06 be
       -0.03913656 0.03201868 -0.04080343 -0.13126564
000030 d6 6f 5e bc 86 9e cd bc 01 7b 49 3c 5c f9 8c bd
       -0.013576468 -0.025100004 0.012297393 -0.06883499
000040 8c 41 3f 3d 10 3e 2c bd c5 56 ab 3d 51 74 e0 bc
       0.04669337 -0.042051375 0.08366159 -0.027399214
000050 c5 4d d5 3b 11 1b 1a 3a 0e cd b0 3c e8 e4 cf 3d
       0.006509515 0.0005878667 0.021582153 0.10151082
000060 e5 77 94 3c d7 3e 9c 3c bc 3d 88 3d 48 cd 01 3d
       0.018123576 0.019072933 0.066524 0.031689912
000070 4b 8e e2 bc 80 53 a5 bd 77 85 25 3d 7b e2 02 3c
       -0.027655741 -0.08072567 0.040410485 0.007988567
000080 c4 50 82 3d f1 1c 69 bd a2 42 c5 3d a5 14 85 3c
       0.06363061 -0.056912366 0.0963185 0.016245196
000090 f8 f5 45 bc 1b 07 eb bd d5 94 e2 3c b2 c7 03 bd
       -0.012082569 -0.11475965 0.02765886 -0.032172866
0000a0 3f bf ae bd ca 3b 1b 3d 4e 63 41 bd 8d 5b 28 3d
       -0.08532571 0.037898816 -0.047213845 0.041102935
0000b0 9c 19 6c 3d ce f6 69 3d fa e3 eb 3c b2 af e2 3b
       0.05764161 0.057120137 0.028795231 0.006917917
0000c0 d3 43 16 3c e6 1a ac 3d 13 b9 cf 3c 66 9b 65 3b
       0.009171444 0.08403568 0.025356805 0.0035035252
0000d0 13 8f 5a bd 76 bf a6 bd 0f 49 94 3c e5 24 3d bd
       -0.053359102 -0.08141987 0.018101243 -0.046177763
0000e0 15 37 60 3d d1 e8 19 3d 76 f0 2a 3d 5a ee 1e 3d
       0.05474003 0.037575547 0.041733228 0.03880153
0000f0 0a 7e a9 3c 2c ed 54 3b 7d 21 82 bd a5 ed 25 bd
       0.020689983 0.0032489998 -0.06354044 -0.04050984
000100 68 77 2e bd d0 cc 8c 3d 48 59 10 3d 45 19 fa bd
       -0.042594343 0.068750024 0.035241395 -0.12211851
000110 5b 4c 2e bb a6 f7 1a 3d ee eb db ba 18 b1 17 bd
       -0.0026595804 0.037833832 -0.0016778687 -0.037034124
000120 d5 33 98 3d cb 30 8e 3c b4 01 9b 3d 1e 6c 99 3c
       0.07431761 0.01735725 0.07568684 0.018728312
000130 f1 0c 4c bc a0 e6 de 3c 2d ff a8 3d 27 8e d4 3c
       -0.012454257 0.02720958 0.08251796 0.02594669
000140 94 d2 21 bc 7a cc f1 bc b3 d6 98 3d 0c 56 1c bd
       -0.009876866 -0.029516447 0.074628256 -0.038168
000150 2a 10 9c 3c 7c f3 0e 3c a6 05 9d bc 8b 27 b7 ba
       0.019050676 0.008725043 -0.019167732 -0.0013973577
000160 a7 47 a9 bd 18 5d 6a 3d be 61 d2 bc c8 72 48 3d
       -0.0826562 0.057217687 -0.025681373 0.04893759
000170 0a a9 17 3d fb 36 3b bd a1 d8 7e 3d e3 ef 82 3c
       0.037026443 -0.04570673 0.062218312 0.015983528
000180 1e e2 a2 bd 1a 0c 06 bc e7 53 54 bc 70 d0 98 3d
       -0.07953285 -0.008181596 -0.012959457 0.07461631
000190 92 e7 8b bd 04 0b 57 3c e7 39 2c bb e2 e6 d8 bd
       -0.06831278 0.013125185 -0.002627963 -0.105909124
0001a0 22 22 3d 3b 67 4e 3e bc 50 d1 ee bd c0 7d 19 3c
       0.0028859456 -0.011615372 -0.11661017 0.00936836
0001b0 60 cf 64 3d a2 de 3d bb c7 d6 a3 3d 74 9e ce 3b
       0.05586183 -0.002897181 0.0799995 0.00630551
0001c0 7d b8 a4 bd 01 cb 58 bd c0 6d 66 bd 8f e6 05 3c
       -0.08043001 -0.052927975 -0.05625701 0.008172645
0001d0 ad 10 65 bc 8a 94 ab bc 91 3e d9 bd 8a 7b 83 bd
       -0.013981027 -0.020944852 -0.10607637 -0.064200476
0001e0 6e 99 38 bd 3c 81 b6 bd b8 80 70 3d 80 17 f0 bc
       -0.045068197 -0.08911368 0.058716506 -0.02930808
0001f0 3b 7c cf ba e4 32 78 bd a1 43 d4 bc 3a 65 22 3d
       -0.001582987 -0.060595408 -0.025911154 0.03964732
000200 4b 3f 95 bb 25 4b 3b 3d 7d c6 cd 3d c6 dc c4 bc
       -0.0045546643 0.04572596 0.10047624 -0.024031054
000210 b4 3b 80 bd fb d8 35 bd b6 73 9e 3d 4f bb 3e 3d
       -0.062613875 -0.04439638 0.07736914 0.04656535
000220 f7 4d 32 bd b2 b5 35 3c d1 78 4e 3d cf 49 a6 bc
       -0.043531384 0.011090683 0.05040819 -0.020298867
000230 b5 e8 1d bd c1 98 64 bc 2c 7a c2 3a f5 7a 93 bd
       -0.038552005 -0.013952435 0.0014837435 -0.072011866
000240 26 96 a9 3d 45 f1 97 3c 48 ce 09 3e e2 e1 85 bd
       0.08280592 0.018547663 0.13457596 -0.06537224
000250 1d 5f a8 3d 01 a6 0e 3d c3 bb 02 bd ac 19 1f bd
       0.082212664 0.034826282 -0.031917345 -0.038842842
000260 29 0c 9e bd 8c e6 5b 3d a0 82 12 3d 40 07 a2 3d
       -0.07717163 0.053686664 0.035769105 0.07911539
000270 74 3a 14 bd a8 3d 66 bd 12 e6 29 3d cc 86 8b 3c
       -0.036188558 -0.056211144 0.041479178 0.01703205
000280 45 3e 47 3d 0a 70 87 bd 4e 92 89 3d 2a 7c 55 bc
       0.04864337 -0.06613167 0.067173585 -0.013030091
000290 05 2d 4a 3c ce 9e 78 bd f1 42 a7 3b 76 78 c9 3c
       0.012339835 -0.060698323 0.0051044156 0.024593573
0002a0 34 78 5e bd 16 46 f2 bb 9b 4b a2 bb 41 86 92 3d
       -0.054313853 -0.007393609 -0.0049528605 0.07154513
0002b0 2d ec d9 3d 94 e5 35 3c a4 e5 aa bb b2 35 78 3d
       0.1064075 0.011102099 -0.0052153636 0.060598083
0002c0 bd 0f 23 3c 73 7b 3b 3d 71 6f 86 3d 6a 98 8f bd
       0.009952483 0.045772027 0.065642245 -0.070114926
0002d0 bc ae 1f bd 04 6b 66 bd 85 9b 58 3c 47 5c 04 bd
       -0.038985 -0.0562544 0.0132206725 -0.032314565
0002e0 5e 6d 8b 3d 8a 9f d2 3d d5 f6 60 3d ad ce 09 3b
       0.068079695 0.10284336 0.054922897 0.002102773
0002f0 0d 6d 29 bb e5 18 cf 3c ae 94 ab bd 76 6f e3 3b
       -0.0025852353 0.025280425 -0.08377968 0.0069407774
000300 35 23 9e bc 5c 68 aa 3d 0d 44 c2 bb 2e b9 dc bd
       -0.019303897 0.08320686 -0.0059285224 -0.10777508
000310 8f f9 45 bd e2 31 4e bc 08 89 0a 3d 77 e6 ba bc
       -0.0483337 -0.012585135 0.03382209 -0.022814972
000320 24 0d 81 3d 57 67 dd 3b a7 6e 19 3d 4a c6 63 3d
       0.063013345 0.006756704 0.037459042 0.055609025
000330 d5 29 e1 3b 19 3b ec bb 11 fe 10 3d 77 95 85 3b
       0.006871442 -0.0072091934 0.035398547 0.0040766555
000340 76 6d cf 3d ba 7c 69 bd 38 a5 fa 3b 4f 4f c9 ba
       0.101283 -0.057003714 0.00764909 -0.0015358719
000350 22 4a c9 3c 6a 3b 67 3d 0f c8 83 bd 6b 60 99 bb
       0.024571482 0.056453146 -0.064346425 -0.0046806834
000360 42 b5 4f bc 2a bc 7f bb be b0 63 3d f9 bf bc 3d
       -0.012677493 -0.0039022067 0.055588476 0.092163034
000370 7f 0c 57 3d 8b c2 c1 bc fb 3b 7d 3d fa 47 e6 3c
       0.05250215 -0.023652336 0.06182478 0.028110493
000380 86 4d 95 bd bf 08 f8 38 22 17 0f bc 5b 2e 16 bd
       -0.07290177 0.000118271906 -0.008733543 -0.0366653
000390 4a ba fd 3c 7b 0b 1a bd c3 e9 a6 3b 6e 69 38 3d
       0.030972619 -0.037608605 0.0050937845 0.04502242
0003a0 9a 1b 22 3b 91 cb 3d bd dd da 79 bd e2 e1 d1 3c
       0.002473569 -0.046336714 -0.06099974 0.025620405
0003b0 25 80 d5 3d 5a ba 15 3d 04 ca 73 3d c0 91 1c 3d
       0.10424832 0.03655467 0.05951883 0.038224936
0003c0 23 ac 68 bd 0f 8d d3 bd 21 43 46 bd aa 70 30 3d
       -0.056804787 -0.10329639 -0.048403863 0.043076195
0003d0 d9 15 2d bd 15 b0 59 3d f8 89 66 bd 2c 21 b0 bd
       -0.042257164 0.05314644 -0.05628392 -0.08600077
0003e0 81 15 c0 3c c7 99 51 bd a4 e6 d5 3d fc c8 55 bd
       0.023447754 -0.051172044 0.10444382 -0.052193627
0003f0 73 ea ae 3d e8 c2 2b bd c0 ad 4d 3d 7c 28 c2 3c
       0.085408114 -0.041933924 0.05021453 0.023700945

to_mean.2.bias f4 [18]
000000 99 1f 3c bd ba 74 16 3d d2 bc 29 bc 89 b3 d1 bd
       -0.04592857 0.036732413 -0.01035996 -0.10239322
000010 a6 8a 65 3c f5 eb 94 bd 2f 45 b9 bd 78 79 8e bb
       0.014010107 -0.07271568 -0.09046399 -0.0043479763
000020 a3 e9 03 3d 3f ee 89 bd 09 24 8b bd 1c 3b 18 bd
       0.032205235 -0.06734895 -0.067939825 -0.037165746
000030 83 d7 8f 3d 30 db d4 bd 08 e0 bc bd 78 88 23 bc
       0.070235275 -0.10393369 -0.09222418 -0.009981267
000040 65 22 01 3e 19 17 8e bc
       0.12610777 -0.017344998
