saves/save3_1_23/save6_Standing_900.pth (torch, 942043 bytes, 11 tensors)

shared_net.0.weight f4 [512, 67]
000000 b0 05 29 bc 2c 50 b7 3d ce 27 bf bd a5 53 d6 bd
       -0.010316297 0.089508384 -0.09333764 -0.10465173
000010 b5 51 4b bd ed 37 3c 3d db 0c 7d bc f9 2d b1 3d
       -0.04963847 0.045951772 -0.0154449595 0.08651347
000020 1e e0 b5 bc cb d1 2e 3d ad 60 38 bd b3 81 eb bc
       -0.022201594 0.042680543 -0.045014072 -0.028748369
000030 02 6f df bd e9 95 cd bd ac 76 47 bd 15 a8 9a 3c
       -0.10909845 -0.10038359 -0.04869716 0.018878976
000040 6a 6a a9 3d 65 c3 a1 3d 6d f9 80 bd 24 32 90 bd
       0.0827225 0.07898597 -0.06297574 -0.070408136
000050 f0 cb 04 3d 71 60 c4 3d d7 5a b1 bc d6 ac d6 3d
       0.032421052 0.09588707 -0.021649761 0.104821846
000060 a7 bc d0 bc dd 2c dd 3c 02 91 01 3e 15 bc a0 bd
       -0.025480581 0.026998932 0.12652972 -0.07848374
000070 87 f8 bc bd b9 d5 19 bd a9 30 ab bc 1a 67 b8 3d
       -0.0922709 -0.037557337 -0.020897226 0.0900404
000080 ce 13 ae bd 02 42 85 bd 4c 52 a4 bd 87 f1 d4 bd
       -0.08499871 -0.065067306 -0.080235094 -0.1039763
000090 2a 94 71 bd 29 b0 b5 3d a5 a4 68 3d 05 ec 80 3d
       -0.05897919 0.088714905 0.056797642 0.06295017
0000a0 dd b0 0b 3c 78 e8 75 bd 3a 49 0c 3d fa 23 db bd
       0.008526054 -0.060036153 0.03424952 -0.10700221
0000b0 43 12 62 bd a3 bc 6c bd 72 21 77 3d aa dd 9c 3d
       -0.055193197 -0.057797085 0.06033463 0.076594666
0000c0 bd 14 63 bd 79 14 8f bb e9 c2 6a 3d 79 d0 e7 3d
       -0.0554397 -0.004366454 0.057314787 0.1131906
0000d0 ed c8 7f 3d a0 89 3c 3c 85 6c 9b 3d 2a e0 85 bd
       0.062447477 0.011507422 0.07589058 -0.065368965
0000e0 e0 fa 6f 3c 8c a7 c6 bd 5a d9 97 bd b9 a5 89 bd
       0.014647216 -0.09699926 -0.074145034 -0.06721062
0000f0 c9 1d 81 3d 6f 45 74 3d 53 18 67 bd ec ad 3a 3d
       0.06304509 0.05963653 -0.05641968 0.04557602
000100 9d 87 98 3d 97 07 ad bc 7f c4 7f ba 0e 1c 51 3c
       0.07447741 -0.021121783 -0.0009756758 0.012763036
000110 01 82 70 3d b3 94 02 3e 82 21 c6 bd 83 21 f6 bc
       0.05871773 0.12752037 -0.0967436 -0.030045277
000120 7d 63 56 3d fb 14 10 3e 5a 70 ba 3d 20 2b ab 3d
       0.052340973 0.14070503 0.091034606 0.08357835
000130 05 2b 22 3d ce c1 fd bd 0b 0b e1 bb 7a 98 c7 bd
       0.039591808 -0.12390481 -0.0068677715 -0.097458795
000140 d5 26 06 be e2 b7 01 3e b9 55 e0 3d e4 2a 03 be
       -0.1310075 0.12667802 0.1095385 -0.1280933
000150 d8 f5 54 3d 4c 51 a0 bb 02 95 0d bd fb ff 86 bd
       0.051992267 -0.004892504 -0.034565933 -0.06591793
000160 65 c3 ca 3c 57 38 83 bd b5 42 d8 3c d9 23 50 3d
       0.024751374 -0.0640723 0.026398996 0.050815437
000170 8b 33 d4 3d 1a cb 72 3d 46 1e fd bd 1d 93 be bd
       0.103613935 0.059275724 -0.1235929 -0.093054034
000180 d4 cc 1b 3d 96 36 e2 3c f4 a3 ba bd 47 88 a0 bd
       0.038037136 0.02761392 -0.09113303 -0.07838493
000190 37 2f ee 3d 29 f5 9a 3d 47 39 ee bc 28 60 cd 3a
       0.11630099 0.07566292 -0.029080046 0.0015668916
0001a0 16 b2 d9 bd 3c e7 35 bc db 12 e6 bd af d0 74 bd
       -0.1062967 -0.011102494 -0.11234065 -0.05976933
0001b0 cd e0 86 bc 31 00 da 3c db e8 4a bd cb c5 9b 3d
       -0.016464615 0.02661142 -0.049538475 0.076060854
0001c0 8d 16 93 bd 18 c4 a6 3d 7c d6 86 3d d1 8e f5 bd
       -0.071820356 0.08142871 0.065838784 -0.11990131
0001d0 cc 06 7a bc 8d 60 2c bc b4 f6 e4 3a a3 8c 48 3d
       -0.01526041 -0.010521066 0.0017468543 0.048962247
0001e0 9c 46 3d 3d 45 ff fc bb 70 e8 2d bd c5 af 23 3d
       0.046209916 -0.00772086 -0.042457998 0.03996255
0001f0 e7 d0 0a be ba 40 4b bd 1a 3b 3f bd 0c b9 30 bd
       -0.13556252 -0.049622275 -0.046687223 -0.043145224
000200 df a9 d5 bc d3 08 ee bd ba 08 1b bc 48 c8 27 3d
       -0.026081977 -0.11622777 -0.00946253 0.040962487
000210 cb 00 cd bd 50 a5 c1 bc b5 1d 95 3d c9 9b 8c bc
       -0.10009917 -0.023638397 0.07281057 -0.017164128
000220 f8 d8 a4 bb ff 0e 83 bc f6 81 bc 3c 75 75 bc 3d
       -0.0050307475 -0.015998362 0.023011189 0.09202091
000230 4e 95 05 3e 59 8e 6c 3d 25 51 d5 3d 54 23 34 3c
       0.13045236 0.05775294 0.10415868 0.010994751
000240 b2 15 00 be 64 7d aa bd fb cf 91 3d 13 bb 49 bc
       -0.12508276 -0.083246976 0.07119747 -0.012312668
000250 7f c5 0d bd df cd ab bd 8b 97 07 be 19 e1 ba bd
       -0.034612175 -0.08388876 -0.13241403 -0.09124965
000260 15 a5 1b bc 9c 4a 1f 3d 89 89 55 3d 4b be 09 be
       -0.009499808 0.038889512 0.052133117 -0.13451497
000270 ce 41 76 3d 08 2a f7 bd 20 d0 de bc f7 a9 ff bc
       0.06012135 -0.12068564 -0.027198851 -0.031208975
000280 70 99 90 bc 52 d2 3e bc 0b 8b ed bd c4 93 01 be
       -0.01765129 -0.011646824 -0.11598786 -0.12654024
000290 45 70 0c bd c4 54 eb ba 5b 56 41 bd 3e 04 23 3d
       -0.034286756 -0.0017954339 -0.047201496 0.039798968
0002a0 6a 6e cb bd 22 dc 4d bb 92 b9 d4 3d d4 8a 3b bd
       -0.09933169 -0.0031411727 0.10386957 -0.045786694
0002b0 1e c6 e2 3d d8 ba 20 3d df a5 bf bd 1c c5 aa 3d
       0.11072944 0.039240688 -0.09357809 0.08338377
0002c0 4c d6 45 ba 78 20 4f bd 99 61 ca 3d 2a ed c5 bd
       -0.00075468863 -0.050568074 0.098818965 -0.09664376
0002d0 93 78 6e bb bb 7a f9 bc c3 52 8a 3d cf 4e 50 3d
       -0.0036387786 -0.03045403 0.06754067 0.050856408
0002e0 59 91 4b 3d a6 de d9 3c 01 75 5e bc 9e 06 17 bd
       0.04969916 0.026595425 -0.013577701 -0.036871545
0002f0 32 91 ef bd da 1b a6 3d 85 75 a7 3d 9a 46 8a 3d
       -0.11697616 0.08110781 0.08176712 0.067517474
000300 50 50 8f bd 70 27 16 bc a5 bb 8e bd 7a 73 4f bd
       -0.0699774 -0.009164676 -0.06969384 -0.050647236
000310 22 78 b4 bd 48 1a 6d 3d 4b 4b 69 bd 95 a9 b0 bc
       -0.08811976 0.057886392 -0.05695657 -0.021565238
000320 d5 37 62 bc 8d 4f 81 3d 96 14 9a bd 60 57 1f bd
       -0.013807257 0.06314001 -0.07523458 -0.038901687
000330 8a 74 a4 bd cb 99 92 3d 25 03 0f bd fb 84 0a 3e
       -0.080300406 0.0715824 -0.03491511 0.1352729
000340 47 96 d2 3c 18 79 23 bb 3f db 8f 3c fd da 2b bd
       0.025706423 -0.0024944004 0.0175606 -0.04195689
000350 c1 c7 90 bc 02 a7 37 bd 58 1a 31 bc 9b 0d 11 3d
       -0.017673375 -0.044837005 -0.0108095035 0.035413366
000360 20 cb a9 bd 9e 1e b5 bd 51 0e ed 3d c9 4e b0 bd
       -0.08290696 -0.088437304 0.11574996 -0.08608777
000370 15 4a 13 3c 9e 51 e0 3d dd 91 94 3c df a5 61 3c
       0.0089898305 0.10953067 0.01813596 0.013772457
000380 01 6c 13 be 7c 00 28 3d 24 5d 92 bd 5b 91 65 bc
       -0.14396669 0.041016087 -0.071466714 -0.014011706
000390 2e 7b db bc 2d 28 04 bd 19 fe 8f bc f9 08 91 3d
       -0.026792135 -0.032264877 -0.017577218 0.070817895
0003a0 8a f5 87 3c e8 eb f5 3d e7 89 91 3d da 96 a3 bd
       0.016596574 0.12007886 0.07106381 -0.07987757
0003b0 11 aa 40 3d 81 d4 aa bd 15 68 1f bd 59 2c 29 3d
       0.047037188 -0.08341313 -0.03891762 0.04130206
0003c0 62 ca 21 3d c4 10 a9 3d 98 70 33 bd e4 2b bc bb
       0.039499648 0.08255151 -0.04380855 -0.005742537
0003d0 b3 35 43 3d 48 4f d5 bd 3f 57 a8 3d 02 7c b9 bd
       0.047658633 -0.10415512 0.08219766 -0.09056856
0003e0 86 9b 0b bb 9c 47 36 bd 28 4c 3c bd c9 38 43 3b
       -0.0021302416 -0.044501886 -0.045971066 0.0029788485
0003f0 c7 87 ab 3d a0 e6 ac bc 78 c0 b5 bd 33 e4 80 bd
       0.08375507 -0.021106064 -0.08874601 -0.062935255

shared_net.0.bias f4 [512]
000000 91 8a f9 3c ee c0 9f 3d f6 ab 2f bd 11 3c 88 3d
       0.030461581 0.0780047 -0.042888604 0.06652082
000010 b6 3d 77 bd 84 92 1e 3d 51 f4 db bd b0 e3 c8 bb
       -0.060361587 0.038713947 -0.10739959 -0.006130658
000020 5b cb 06 bd 9f f0 ac 3d ae 10 8b 3d 6b a7 a6 bd
       -0.03290878 0.08444332 0.06790291 -0.08137401
000030 38 94 30 bd f7 86 69 bd 7a d3 78 bc e2 b6 8a bd
       -0.043110102 -0.057013478 -0.015187139 -0.067731634
000040 a2 c7 7e bd 0f 86 b4 bd b5 a3 d3 3c 27 56 6c bd
       -0.062202103 -0.08814632 0.025834898 -0.05769935
000050 a3 bc f1 3c 5b 27 82 3d 23 54 c1 3d 37 c8 be bd
       0.029508894 0.06355163 0.09439876 -0.09315532
000060 0a f3 33 bd 2f bb 1b 3d 96 ce 85 3c bc 0a eb 3d
       -0.043932952 0.03802031 0.01633386 0.11476657
000070 4e fd 19 3b c5 e2 91 bd 79 9e 7b bc 8b e1 f1 3d
       0.0023496929 -0.07123331 -0.015357607 0.11810597
000080 6d 35 95 3d 84 e7 72 bd 26 cd c2 bd 2f 60 41 3d
       0.07285581 -0.05930282 -0.09511785 0.04721087
000090 97 02 c3 3c 85 28 80 3d da de ec bd 12 fa c9 bd
       0.023804946 0.062577285 -0.11565943 -0.0986215
0000a0 c5 92 a8 bd 02 a8 bc bd 08 6f 88 3d 61 94 a0 3d
       -0.08231119 -0.092117324 0.066618025 0.07840801
0000b0 ab 08 aa bc 65 e1 d4 bd d1 25 c5 bb 04 3e 1c 3d
       -0.020756086 -0.10394553 -0.006016471 0.03814508
0000c0 8a 10 b0 bd 27 1d a1 bd ef be d6 3c 2d 56 49 bd
       -0.085969046 -0.078668885 0.026214091 -0.04915445
0000d0 c4 fd 87 3d 6f 99 bb 3d 9b b6 a3 3c e3 f6 c6 bd
       0.06640199 0.091601245 0.019984534 -0.09715059
0000e0 92 15 87 bc b8 76 84 3d e5 0f 90 bd 50 c8 0b bc
       -0.016489778 0.06467956 -0.07034282 -0.008531645
0000f0 b9 d5 b8 3d b9 c4 8a 3d bf bb 33 3d 4a 32 96 bc
       0.09025139 0.06775803 0.04388022 -0.018334527
000100 35 e1 34 bd 0b e7 d5 bc e8 78 9c 3d 53 84 b6 3d
       -0.044160087 -0.026111146 0.076402485 0.089119576
000110 40 1a 99 3d 92 34 0f 3d 9b b3 e8 3d 6f a3 88 bd
       0.0747571 0.034962244 0.11362382 -0.066717975
000120 29 8b 62 3d 67 d0 19 bd c2 ee 50 bc 39 a0 dc 3d
       0.055308495 -0.037552264 -0.012752237 0.107727475
000130 43 39 7e bd 0f 26 0c 3d 2d fd 8f 3c bc 50 45 3d
       -0.062066328 0.034215983 0.017576778 0.048172697
000140 8a 4e 80 3b 08 5d a2 bd ec 08 3a 3d 64 09 f1 bd
       0.0039156126 -0.079279006 0.045418665 -0.11769369
000150 00 53 a3 bc 43 4f 7f bd b3 1b eb bc 5f 02 0d 3d
       -0.019937038 -0.06233145 -0.028699731 0.03442609
000160 cb 3b 85 bd 73 ed d0 bd 77 16 ac bd ef 51 22 3c
       -0.06505545 -0.1020154 -0.08402722 0.00990723
000170 af a4 ad bd 53 27 12 bd f1 8b 3f bd 0d 2b a7 bd
       -0.084786765 -0.035682034 -0.046764318 -0.08162508
000180 5b 10 de bd 50 9e 9c 3d e5 fb dd bd ea 70 9d 3d
       -0.10842963 0.07647383 -0.10839061 0.07687552
000190 fc b3 db 3d 66 1e 99 bd 03 a3 33 3d 2c bf 69 3d
       0.10727689 -0.07476501 0.043856632 0.05706708
0001a0 f5 a5 00 3b 72 dc 9e bd 32 2e ce 3d a5 ef 68 3d
       0.0019630168 -0.0775689 0.10067405 0.056869168
0001b0 8a 75 a3 bd 5e ca 84 3c d3 50 dc 3d cb 0b f4 bd
       -0.07981403 0.016209777 0.107576035 -0.11916312
0001c0 9f 37 ba 3d 79 6f 29 3d 4e eb ca bd db 82 28 3d
       0.0909264 0.041366074 -0.09908162 0.04114042
0001d0 fa ac 19 bd 5a 33 4e 3d bc dc 14 bc a5 d4 6a bd
       -0.03751848 0.05034194 -0.00908583 -0.0573317
0001e0 a4 5f 5c bc 1d 39 b5 bd 46 d6 e8 3d 2c 33 e9 bd
       -0.013450537 -0.08848784 0.113689944 -0.113867134
0001f0 50 df 7b bb 86 b6 8b bd 1f 37 b7 bd 3c cf 03 bd
       -0.0038432665 -0.06821923 -0.089460604 -0.032180056
000200 d4 2e 75 3d aa 3c 63 3d f3 e4 59 bd 7b b5 e1 bd
       0.059859112 0.055477776 -0.05319686 -0.11020943
000210 f9 a3 8e bd 59 b6 4e 3d 4b 24 90 3d f4 96 8a 3d
       -0.06964869 0.05046687 0.07038172 0.06767073
000220 50 99 4b bd 0e 0e ff bc 34 e2 73 bd 3c d3 b0 bd
       -0.049706757 -0.031134631 -0.059541896 -0.0863404
000230 ca 31 72 bd c4 96 8c bc e6 18 c6 bd 66 be ad bd
       -0.059129514 -0.017161734 -0.09672718 -0.08483581
000240 e0 ab d7 3c 9a dd ac bd 89 42 35 bd 73 8a db bd
       0.026327074 -0.08440705 -0.044252906 -0.107197665
000250 c3 e2 54 3c 8d 68 58 3d 0f 16 e4 3c d2 bb 48 bd
       0.012993517 0.052834082 0.02784255 -0.049007244
000260 f1 21 17 3c 25 88 27 3d d0 f7 33 bc a6 c7 e1 bd
       0.009224401 0.040901322 -0.010984376 -0.11024408
000270 5c c4 83 bd 88 cf b1 bd a2 6d 6b bd 2c d8 86 3c
       -0.06433937 -0.086821616 -0.0574776 0.0164605
000280 8c a4 f9 3d 3b c8 2f 3d bb 97 46 3a 9f 4f bd bb
       0.12189588 0.042915564 0.000757571 -0.005777314
000290 ab b5 55 bd 61 98 c1 3d 69 c1 26 3c ca 58 34 3d
       -0.052175205 0.09452892 0.0101779485 0.04402999
0002a0 39 e8 4a 3d 13 ee 68 3d 40 02 94 3d 7a 81 92 bd
       0.04953787 0.05686767 0.07226992 -0.07153602
0002b0 93 0a a0 bd b2 6e 10 bd 64 71 36 3d 53 84 a3 bd
       -0.07814517 -0.035261817 0.04454173 -0.07984223
0002c0 03 34 01 be cd a0 be bd bb 81 47 3d 70 d9 88 3d
       -0.12617497 -0.09308014 0.048707705 0.06682098
0002d0 c4 44 d2 bc b7 40 55 bd 8c 2a 67 3d 91 30 6c bd
       -0.025667556 -0.05206367 0.05643706 -0.057663504
0002e0 4d d7 6e 3d 16 94 d3 bd 34 b7 04 be 76 99 cb bd
       0.058310796 -0.103309795 -0.12960511 -0.0994138
0002f0 e3 7a 70 3d 58 f1 82 3d d4 e7 8b 3d b5 d8 e0 bc
       0.058710944 0.06393689 0.06831327 -0.027447084
000300 a9 ce d6 3d db d9 14 3d 58 d5 b0 3c ce b5 d7 3d
       0.10488636 0.036340576 0.021586105 0.10532723
000310 0a 87 ba 3d cb e5 d6 3d 9d 5e 5f 3d cd aa 3c bb
       0.09107788 0.10493048 0.05453359 -0.0028788329
000320 88 73 a4 bd 4a 55 b8 bd d8 b6 da bd 05 4b e9 bc
       -0.08029848 -0.090006426 -0.10679406 -0.028478155
000330 3f 91 a6 3c 70 0a bf bc 6d 0a 81 3d d1 d3 d8 bc
       0.02033293 -0.023320407 0.06300817 -0.02646819
000340 32 a3 50 3d 6c 69 b6 3a 00 97 05 bd ff c8 29 3c
       0.050936885 0.0013916916 -0.032614708 0.010362863
000350 fc 83 a4 3c bf 96 1f bd 4e 3b 00 3d db 88 f7 bd
       0.020082466 -0.038962122 0.031306557 -0.1208665
000360 c6 61 da 3d 92 6d 2f ba ba c5 d6 3d ee c5 ed bd
       0.1066318 -0.00066920475 0.10486932 -0.11610018
000370 5e df ca bd 92 ac a3 bd 3f 9c 99 bd d7 4e 70 bc
       -0.09905885 -0.079918995 -0.07500505 -0.014667234
000380 2d ad 0e bd 2b 66 a2 3d 5f 43 fc bb 82 60 f7 3d
       -0.034833122 0.07929643 -0.007698461 0.12078954
000390 ca 52 66 bd a5 9c f9 bd 1e c0 db bd 7a fb b5 bd
       -0.056231298 -0.12188081 -0.10730003 -0.08885856
0003a0 15 c6 36 bd 27 6c 03 be e1 63 7e bd ed 89 c6 3d
       -0.0446225 -0.12834226 -0.06210697 0.09694276
0003b0 c0 3b f9 bc 1c 99 96 ba 07 77 e6 bd fe 01 27 3d
       -0.030423999 -0.0011489722 -0.112531714 0.040773384
0003c0 e9 97 ae bd 3e b3 25 bd 75 20 9a bc 77 2d c5 bd
       -0.08525068 -0.04045414 -0.018814305 -0.09627812
0003d0 5c 9c 66 bd 51 29 90 bd 4c b7 02 3b de 5d 7e bd
       -0.05630146 -0.070391305 0.001994568 -0.062101237
0003e0 21 12 c1 bc 3d 12 46 3d 6c 33 9c 3d 55 c2 6f bd
       -0.023568215 0.048357237 0.076269954 -0.05853494
0003f0 90 b7 25 bd 9a a7 af bd 0d ed 42 bc 10 f9 a2 bd
       -0.040458262 -0.08576889 -0.011897338 -0.07957661

shared_net.2.weight f4 [256, 512]
000000 b5 6d c5 3c 64 a2 d4 bc d2 15 9f 3b 4c 2e ea bc
       0.024100164 -0.02595634 0.004854896 -0.02858653
000010 b2 12 eb bc e1 51 05 bd e3 73 d3 3c 03 45 4b 3c
       -0.028695438 -0.03254879 0.025812095 0.01240659
000020 3b 5e 0a 3d bb b7 e6 3c 14 fb 4d bc 43 fa e0 bc
       0.03378127 0.028163781 -0.012572069 -0.027463084
000030 58 41 02 3d 0d e7 9f bc 1b 7e 83 bc 57 ea dd bc
       0.031800598 -0.019519353 -0.016051343 -0.027089281
000040 63 7c 8e 3b 4a 81 87 bc f4 34 95 bc 91 57 b2 3c
       0.004348324 -0.016541142 -0.018213727 0.02177027
000050 22 db 1a bd d7 b5 19 3d 5f ad 39 bd 69 6d d5 3c
       -0.037806638 0.03752693 -0.045331355 0.026053147
000060 05 52 d2 bc 80 37 d0 3b 0d aa 5e 3b 08 95 3e bc
       -0.025673876 0.0063542724 0.003397587 -0.0116322115
000070 90 a7 1a 3b 79 fa a2 3c ff 27 0f bd a2 34 e9 bc
       0.002359841 0.019894825 -0.034950253 -0.02846748
000080 9e 23 c2 3c 6f bd 27 bc 25 93 86 bc ab 92 ae 3c
       0.023698624 -0.010238036 -0.016427586 0.021310171
000090 72 a9 d8 bc f1 2b 16 3d b2 bc 95 bc eb 7e 1d bb
       -0.026447985 0.036663 -0.018278453 -0.0024031948
0000a0 98 60 ac bc 81 cf e6 bc 4d 8c ca bc 3e ff ba bc
       -0.021042153 -0.028175117 -0.024725104 -0.022826787
0000b0 2f 51 fb bc 6e e3 de 3c 82 7b 1d bd 69 b9 11 bd
       -0.03067836 0.027208056 -0.038447864 -0.03557721
0000c0 d7 38 3f 3d 1c c3 94 bc 13 73 e2 3c 81 47 8b 3c
       0.046685066 -0.018159442 0.027642762 0.01700187
0000d0 39 f8 01 3d 12 72 52 bd b7 d0 4b 3c b3 0e 3d bd
       0.031730864 -0.051378317 0.012439898 -0.046156596
0000e0 54 3b b4 bb ba 1f 75 bc 4c 32 2c bd be d8 42 3d
       -0.0055002365 -0.0149611775 -0.042040154 0.047569983
0000f0 86 f9 cd bc b3 c0 36 3b 66 09 dd bb 9b 8d 06 3d
       -0.025143396 0.0027885854 -0.006745505 0.03284989
000100 6f eb 82 bc 02 de 32 3d 65 6b d0 bc b6 36 04 3d
       -0.015981404 0.043668754 -0.025441835 0.03227874
000110 78 2f 03 3d 8c 5a 22 bd 77 20 16 bd db e5 48 ba
       0.03202769 -0.039637133 -0.036652055 -0.00076636457
000120 d4 19 49 3b df 5e 06 3d c4 a5 d8 bb e2 d1 5c bc
       0.003068556 0.03280532 -0.0066115577 -0.013477774
000130 a5 52 a7 3c 38 30 01 bc 4c ad 0a bd 89 3d 1d 3d
       0.02042515 -0.007885031 -0.033856675 0.038388763
000140 de 3e 30 3a f5 66 9d 3c e0 cf 19 3d 32 a8 08 bd
       0.0006723235 0.019214133 0.03755176 -0.03336353
000150 26 da 01 3d 47 89 15 3d d5 a3 f0 bc 22 f6 de bb
       0.031702183 0.03650787 -0.029374996 -0.0068042437
000160 43 a5 19 3d c3 8b 4b bc 9e 2a c4 3b d3 a6 48 3b
       0.03751112 -0.0124234585 0.0059865257 0.0030617013
000170 bc 4a f7 3c 18 6f 05 bd 09 34 3d b8 ca bd 3a 3d
       0.030187003 -0.03257665 -4.5109573e-05 0.045591153
000180 6c 01 1a bd 1b 85 0f 3d b2 4f 2d 3d 02 5a 24 3c
       -0.037599012 0.03503905 0.04231233 0.010031225
000190 54 72 10 bd 16 c4 a3 3c d2 4d 0c 3d 62 5a f6 3c
       -0.03526528 0.019990962 0.034253903 0.030072395
0001a0 c5 a2 53 bd a7 c9 36 bd e4 2e 0b bd 2d 06 b7 bb
       -0.0516689 -0.044625904 -0.033980265 -0.005585453
0001b0 2f 0a 2a 3d 8f d0 86 bc 74 9a 06 3d 4f 34 3c bd
       0.041513618 -0.01645687 0.03286214 -0.045948323
0001c0 eb b6 1b bd fb b2 b7 ba 72 b0 c1 3c e7 44 01 3c
       -0.03801624 -0.0014015132 0.023643706 0.007889963
0001d0 02 1b 1d bd 18 b6 18 3d 1e 2b db 3c 8f d7 a0 bc
       -0.038355835 0.037283033 0.026753958 -0.019634036
0001e0 2c b1 54 3c c4 4e 9e bc 70 85 21 3c a9 a6 fe bc
       0.012981694 -0.019324668 0.009858474 -0.03108533
0001f0 97 82 ab 3b 52 0a f0 3c 37 2a 51 bb 86 92 74 bb
       0.0052340734 0.029301796 -0.003191603 -0.003731878
000200 75 25 1a bc e5 6b 18 bd b1 1f 0f 3d 1b 8d 95 3c
       -0.0094083445 -0.03721227 0.034942333 0.01825576
000210 87 2d 07 bc ce 7a 6a 3c 38 0b 52 3d e9 68 fd 3c
       -0.008250601 0.0143115055 0.05128023 0.030933814
000220 35 49 1e bd 4d 1b 71 3b 61 9c 0b bb dc eb 19 3d
       -0.038644034 0.0036789954 -0.0021302926 0.03757845
000230 2b af ee bb 2c a2 39 bd 61 95 1a bd a5 3b e3 bc
       -0.0072840652 -0.045320675 -0.037740115 -0.027738402
000240 4d 65 a2 bb 35 9e 7a 3c 5e 9c c6 3c 68 e4 33 bb
       -0.0049559237 0.015296509 0.024244484 -0.0027449373
000250 9f 52 41 3c c4 40 44 3b 11 82 af 3c 18 f1 ef 3c
       0.011799484 0.002994583 0.021424325 0.029289767
000260 23 b0 25 3d 99 0e 0c bd 21 ba 2c bd 6d 81 21 bd
       0.04045118 -0.03419361 -0.042169694 -0.03943007
000270 fb 31 07 3d e2 b1 de bc e0 63 23 bd bf 84 05 bd
       0.03300665 -0.02718443 -0.03989017 -0.0325973
000280 cf 9e bb bc 62 25 20 3d 40 af 49 bc 9f 64 81 bc
       -0.022902874 0.03909815 -0.012309849 -0.01579505
000290 26 69 e3 3c ad 36 a0 3b b0 53 ed bb e9 92 fe bc
       0.0277601 0.0048893304 -0.0072426423 -0.031075912
0002a0 e4 30 9f 3b 4d 3f ba 3c 3a 01 1a bc 5f 29 27 3d
       0.004858123 0.022735262 -0.0093997065 0.04081094
0002b0 51 dc 8a bc 30 d9 9a bc a2 a1 a2 3a 99 4b 18 bd
       -0.016950758 -0.018902391 0.001240779 -0.03718147
0002c0 61 c3 0c 3b fa 19 e8 bc e5 74 e2 bc af f5 ba 3c
       0.002147876 -0.0283327 -0.02764363 0.02282223
0002d0 ea cd 50 bc ac 68 12 3c 85 c2 65 3c 0e 61 c0 3c
       -0.012744406 0.0089360885 0.014023428 0.02348378
0002e0 38 72 0f bd e6 38 12 3c bc 37 fe 3c d1 58 4b bc
       -0.035021037 0.008924698 0.031032436 -0.012411312
0002f0 13 9d 84 3c 75 0f a7 bc 62 d4 64 3c c3 3e f7 3c
       0.01618818 -0.020393113 0.013966652 0.030181294
000300 ea 89 34 bd 10 ee dc 3a 1c 9b 38 3d 42 af 31 bd
       -0.044076838 0.0016855616 0.0450698 -0.04338003
000310 d4 08 0f 3d d6 9c 95 b9 d8 a6 0f 3c 4e 31 c9 bc
       0.03492053 -0.00028536347 0.008767806 -0.024559643
000320 58 f4 24 3b a4 96 b3 bc 3f b2 37 bb 4a e1 a4 bb
       0.0025170054 -0.021922417 -0.0028029827 -0.0050317394
000330 f0 36 0d bc ea ac fb bc d5 51 82 bc 52 17 2a 3d
       -0.008619055 -0.0307221 -0.015908161 0.041526146
000340 d3 a7 1b 3d 43 6a c9 3c 13 fc 9e 3c 84 47 96 bb
       0.038001847 0.024586802 0.019407308 -0.004586162
000350 54 67 1b 3d ae 89 23 3d b6 6d 31 bd 02 68 b6 3c
       0.03794034 0.039926223 -0.04331752 0.022266392
000360 9b d4 ff bc 61 ee e0 bc 6b 11 77 3a cf df 93 bc
       -0.031229308 -0.027457418 0.0009424898 -0.018051056
000370 fc b6 2a 3c b1 1d 8f bc 69 d7 fe bc 1b 8f 00 bd
       0.010419603 -0.017470213 -0.031108575 -0.031386476
000380 cc 68 0f 3d 40 a4 17 bd df 30 90 bc cd 1f 35 bd
       0.03501205 -0.037021875 -0.017601429 -0.04421978
000390 17 73 f1 bb f2 6d e4 3c 5b 40 0f 3d 49 3d 0b bc
       -0.007368456 0.027884457 0.034973484 -0.008498498
0003a0 be 80 b4 3c af 51 6e 3a 5e 62 0b bd ad 68 19 bd
       0.022034045 0.00090911513 -0.034029357 -0.037453342
0003b0 19 40 b6 bc 76 73 92 3b d4 9b a9 bb 36 ae bd bc
       -0.022247361 0.0044693304 -0.005176047 -0.02315436
0003c0 27 78 1f 3d cc b7 37 3c c0 89 07 3c 1f bf 1a bd
       0.038932946 0.011213254 0.008272588 -0.037779924
0003d0 f5 08 0d 3c 44 75 0a 3d bc 6a a2 bc cb fc 1b 3d
       0.008608093 0.03380324 -0.019826286 0.03808288
0003e0 96 9c ec bc c4 86 36 3d ef 24 85 bc 3c b8 b2 3b
       -0.02888326 0.044562116 -0.016252963 0.0054540914
0003f0 35 91 16 bd 4c 49 e2 3c ed 21 fc 3c eb a0 2b 3d
       -0.036759574 0.027622841 0.030777896 0.04190151

shared_net.2.bias f4 [256]
000000 35 e7 a5 bc d3 42 03 bd 7a 12 c7 3c 5b d8 b9 3a
       -0.02025185 -0.03204615 0.024300802 0.0014178859
000010 a5 73 32 3d 04 73 03 3c 80 bf cc 3c b3 96 bc 3a
       0.04356732 0.008023027 0.024993658 0.0014388174
000020 9c d9 f1 3b 39 88 23 bd 23 22 e3 39 97 29 a4 3b
       0.0073806774 -0.039924834 0.00043322248 0.0050098407
000030 cb 5e 5f bc 40 25 c8 3c da d9 70 bc 21 d3 ce 3c
       -0.01363344 0.024431825 -0.014700377 0.025247158
000040 06 af f7 3b ef 5c f3 ba 12 b0 fb bc 51 25 0b 3d
       0.007558706 -0.0018567125 -0.030723605 0.033971135
000050 1e 7e d5 3c 69 21 b4 bc 5a f6 12 bd 23 32 43 3a
       0.026061114 -0.021988587 -0.03587947 0.00074461306
000060 2d d8 05 3d 8a cd a1 3b 4f 9f cb bb d9 40 12 bd
       0.032676864 0.0049378322 -0.0062140594 -0.035706375
000070 cc 03 b6 3a eb aa 04 3d 60 82 6c bc b4 51 05 3d
       0.001388663 0.032389563 -0.014435381 0.03254862
000080 a3 02 36 bc 6f 52 3f bd 23 b4 1e bd 27 34 bd bc
       -0.011109027 -0.046709474 -0.03874601 -0.023096157
000090 13 92 19 bd a8 0a 6e bb fa 4d 31 bc 1d b1 a9 bc
       -0.037492823 -0.003632227 -0.010821814 -0.020714337
0000a0 75 19 d7 bc 9c c0 e9 bc 7a 96 f0 bc c8 9d 08 3c
       -0.026257256 -0.028534226 -0.029368628 0.008338399
0000b0 99 4b 1c bd 5d fe 1c 3d f0 20 2a 3c cc ce d8 bc
       -0.038158033 0.038328517 0.0103838295 -0.026465796
0000c0 e0 f7 08 3d 87 a0 bb bc 86 58 ba bc b3 e5 22 bd
       0.033439517 -0.022903694 -0.02274729 -0.03976984
0000d0 f1 d1 b0 bb 3e cd 01 3c 7d cc 3d bc 4a ee de bb
       -0.0053961207 0.007922469 -0.011584398 -0.0068033086
0000e0 66 f0 cf bb 8a 85 1d bd 5e 8c ea bb ad c4 56 bc
       -0.0063457964 -0.03845743 -0.0071578464 -0.013108415
0000f0 0a 0a 6b bc 27 c6 f0 3c 0c 14 17 3d 61 2a 06 bd
       -0.014345655 0.029391361 0.036884353 -0.03275526
000100 2e 7e 7d 3c 41 7a 83 3c ab 00 bd 3c 05 1c a4 3c
       0.015471978 0.016049506 0.023071608 0.020032892
000110 e1 bb 71 bc c3 77 d2 3b 64 b5 bf bc ba 8f e6 3b
       -0.0147542665 0.006422968 -0.023401923 0.0070361765
000120 df ec 6f 3c e9 37 ec ba 99 c5 c5 39 c5 b4 44 3b
       0.014643877 -0.0018022034 0.0003772199 0.0030014974
000130 87 ff 21 bc bd 9e 34 bd df a9 15 bc 43 d1 9e 3c
       -0.009887583 -0.044096697 -0.009134739 0.019386893
000140 e1 d0 04 bd c6 6e 35 bc c0 a0 41 bc 25 0d de bc
       -0.032425765 -0.011073774 -0.011818111 -0.027105877
000150 88 13 0f bc 8d 4e 7e 3c c2 76 bf 3c 56 6c 35 3a
       -0.008732684 0.015521658 0.023372058 0.00069207454
000160 91 e1 e3 3a ed bb 88 bc b9 4b 70 3c 8f f7 b6 3c
       0.001738595 -0.016691172 0.014666491 0.022334842
000170 98 25 d4 bc e9 6a 9e bc 92 f8 a6 bc c6 12 23 bc
       -0.025896832 -0.019338088 -0.0203822 -0.009953206
000180 86 70 e8 bc 23 13 ab bc 5c 85 09 bd ef 58 2d bd
       -0.028373968 -0.020883149 -0.033574447 -0.04232114
000190 9a f8 e6 3c b5 de 1f bd 31 49 e7 3c 7e ff 65 3c
       0.028194714 -0.03903075 0.028233143 0.014037965
0001a0 ed c7 d7 bc 7b 4e 66 3b 05 ff 9d bc 1b a0 9a bc
       -0.02634045 0.0035141993 -0.019286642 -0.018875172
0001b0 05 8a 04 bd b2 6c 13 3d 33 62 ef 3c 3d 03 05 bd
       -0.03235819 0.03599233 0.02922163 -0.03247379
0001c0 4a b2 16 bc a2 7a e2 b8 19 90 2c bd 6c d9 be 3b
       -0.009197781 -0.00010799362 -0.04212961 0.0058242586
0001d0 78 c2 75 3b 6e 52 5f 3b df 5e f5 bc b8 5c bd 3b
       0.0037499946 0.0034076232 -0.029952465 0.005778875
0001e0 60 9e f3 39 a2 70 e9 bb 4e df f4 3c a9 96 01 bd
       0.0004646657 -0.0071240226 0.029891636 -0.03163782
0001f0 b9 c8 bd bc 83 50 37 3c e8 70 34 bd 9c fc 91 3a
       -0.023167001 0.011188629 -0.04405299 0.0011137906
000200 4b e2 da bb 9f 69 e7 3c cc 22 1c bc 3a 16 dc bc
       -0.0066798083 0.028248606 -0.009529781 -0.026866067
000210 42 0e 07 bc 0e 35 13 3d 73 c4 3c bc d2 ec a2 3c
       -0.008243145 0.03593927 -0.0115214465 0.019888315
000220 cb 8c 25 3b d5 f9 0d bb ed b9 d6 bc 8e ca c7 bb
       0.002526092 -0.0021663804 -0.026211703 -0.0060971444
000230 64 0e a5 bb 07 be 25 bd b9 52 8f bc cf e1 22 bd
       -0.005037116 -0.040464427 -0.0174955 -0.03976613
000240 b6 2e 32 bd db a6 62 bc 0b 59 3f 3d 4d 85 1c 3d
       -0.04350158 -0.013833727 0.046715777 0.038213063
000250 2b 4a dd 3c 85 25 88 3c 81 7a e3 bb 83 86 b7 3c
       0.027012905 0.016619453 -0.006942094 0.022403007
000260 c5 e5 c1 bc d9 e2 18 bd 6b 0a f1 3c b5 8a 42 bd
       -0.023669133 -0.037325714 0.029423913 -0.047495563
000270 0f d6 b7 bc a3 05 16 3c c1 a1 d4 3c 00 d1 77 3c
       -0.022440938 0.009156617 0.025956037 0.015125513
000280 cd ca 0d 3d f6 9d c3 3b 27 94 fb 3b c8 ab 36 3d
       0.034617234 0.005969758 0.0076775732 0.044597417
000290 d5 94 9e bc db 18 17 3c bb d7 8a 3c 54 04 31 bd
       -0.019358078 0.009222235 0.016948571 -0.04321702
0002a0 ba 58 2d 3a bb ab 05 bd 88 62 56 bc 14 bb 71 3c
       0.00066126476 -0.032634478 -0.013085015 0.014754076
0002b0 5f a0 2c 3d 68 73 26 bd 00 79 d5 3c cd 2e ee bc
       0.04214513 -0.040637404 0.026058674 -0.02907505
0002c0 35 a3 85 bc c5 97 88 3b 1d 5b 1c 3d 59 f9 f4 bc
       -0.016313175 0.004168483 0.03817283 -0.029904054
0002d0 40 9d d7 bc c3 4a 75 bb bc 13 9b 3c 8d 7e 20 bd
       -0.0263201 -0.0037428595 0.018930309 -0.03918319
0002e0 05 85 30 3c cf d6 03 bc 19 77 9c 3b 03 66 07 3a
       0.010773902 -0.00804682 0.0047749397 0.0005165042
0002f0 e1 db ac bc 4d 79 86 3c 23 5d 06 bd ed be 86 3b
       -0.02110094 0.016415263 -0.032803666 0.0041121156
000300 d3 3d 2c 3d 7c b9 4a 3b ef 8e 82 3c ef 3e e2 bc
       0.042051148 0.0030933311 0.015937297 -0.0276179
000310 26 2b ed 3c a1 40 10 3d 23 0f f5 bb 08 75 ff 3c
       0.028951239 0.035217885 -0.007478611 0.031183735
000320 02 54 f5 3b 02 c2 a9 bc cf 08 34 3d 72 a7 03 3d
       0.007486821 -0.020722393 0.043953713 0.03214211
000330 76 ac c5 bc 1e 61 b0 bc 2c b6 04 bc 19 8d 31 bd
       -0.024130087 -0.021530684 -0.008100074 -0.04334745
000340 f6 83 ba bc 67 93 c1 3c a5 b1 20 bc f6 35 19 bd
       -0.022768002 0.023629857 -0.009807979 -0.037404977
000350 c3 18 93 3c c5 65 59 bb 04 cb 8d 3c 34 64 19 3c
       0.017956143 -0.0033172232 0.01730872 0.009362269
000360 cd 07 ac bc 60 f1 22 bd b8 2c c9 3b 42 69 23 bd
       -0.020999813 -0.039780974 0.006139364 -0.039895304
000370 58 4d 03 bd 06 65 de 3c 99 48 91 bc f4 cf 3d 3c
       -0.032056183 0.027147781 -0.017734813 0.011585224
000380 d2 50 01 3d 38 cf 0e 3d c3 4c e0 3c 7a d5 12 3c
       0.031571217 0.034865588 0.027380353 0.00896203
000390 a7 0b 2d bd c5 05 18 bd e1 6e f5 bb 49 a3 22 bd
       -0.04224744 -0.037114877 -0.0074900244 -0.039706502
0003a0 17 87 17 bd 84 93 2d bd 55 6e c5 bc 48 4a 05 3d
       -0.036994066 -0.04237701 -0.024100462 0.032541543
0003b0 6e e3 20 3c 67 03 0e 3c 98 bc 82 bc 7c 05 1d 3c
       0.009819848 0.008667803 -0.01595907 0.009583827
0003c0 15 bd 83 3b 7f 4e 00 bd bc 3a 4d ba 44 4a 18 3d
       0.004020343 -0.03132486 -0.00078288815 0.0371802
0003d0 8c b8 15 bc 9d 8d b2 bc 8a a9 9e bc 66 f5 29 bb
       -0.009138238 -0.021796042 -0.019367952 -0.0025933622
0003e0 53 3f 33 bc d2 c0 04 3d d2 a1 37 3c 7e 61 1c bc
       -0.010940391 0.03241045 0.011208015 -0.009544728
0003f0 28 a4 df 3c 8f f8 72 ba 64 76 df 3b a0 58 7b bc
       0.027299955 -0.00092686055 0.006819533 -0.015340954

to_mean.0.weight f4 [128, 256]
000000 aa aa 11 bd 57 51 43 bd d1 71 3f 3d 67 40 af 3b
       -0.03556315 -0.047684994 0.046739403 0.0053482535
000010 ee 09 a6 3c e8 46 04 3b 87 4b 03 3d a7 8b 55 bc
       0.020268407 0.0020183865 0.03205445 -0.013033784
000020 7d 1b 03 bd 3e 1a 10 bd 9e 13 b2 3c d7 0f e6 bb
       -0.032008637 -0.035181277 0.02173787 -0.007020931
000030 70 7b 83 3d 33 e2 20 bc a7 bf 67 3d c6 4e 1e 3d
       0.06420028 -0.009819555 0.05657926 0.038649343
000040 18 a2 e8 bc da d2 4b bd 36 72 34 bd 0c 39 4a 3c
       -0.028397605 -0.04976163 -0.044054233 0.012342703
000050 c2 29 ee 3c 7c e1 72 3d 8d 38 f6 3c 1d 01 20 3d
       0.029072646 0.05929707 0.030056262 0.03906356
000060 33 1a f9 bc 3f 2e 95 bd bb da 0d bd 33 cd df bb
       -0.030408 -0.07284211 -0.034632426 -0.0068298816
000070 2e 23 29 bd 9a 0e 0e bd d4 44 6f bc 72 75 6b 3c
       -0.041293316 -0.034681894 -0.014603812 0.014371263
000080 25 89 5b bc d3 1c 9c bc 34 c8 5d 3d bb f0 e5 bb
       -0.013399397 -0.019056713 0.054146007 -0.0070172227
000090 49 79 30 bc af eb 1d bd 95 3d 17 3c 3e e0 ff 3b
       -0.010771104 -0.038554844 0.009230991 0.007808714
0000a0 60 5e 89 3d f0 fe 57 bb 67 89 c2 3c 3a b7 20 bd
       0.06707454 -0.003295835 0.02374716 -0.03923724
0000b0 2d 6d 74 3d cc c3 bf 3c 04 2e 05 bb 1a c1 39 3c
       0.05967443 0.023408793 -0.0020321617 0.011337543
0000c0 13 b2 83 bd 77 65 2f bd 70 2b bd 3b 6c 91 9e bc
       -0.06430449 -0.042821374 0.0057730004 -0.019356452
0000d0 58 1a ed bc 9c c2 15 bd 5f 37 46 3d 70 04 00 bd
       -0.028943226 -0.036562547 0.04839265 -0.031254232
0000e0 6a 46 6a bd 0e ef 32 bd 5f 11 16 bd de 49 1f 3d
       -0.05719606 -0.04368501 -0.03663766 0.038888805
0000f0 50 0c 37 3c 14 6a 3b bd 31 c9 7d bd 5a c4 48 bb
       0.011172369 -0.04575546 -0.06195945 -0.0030634613
000100 3b 8d 8b 3d 35 3c e9 3c bc 18 e8 bc 83 d5 03 3c
       0.06814047 0.028471092 -0.028332107 0.008046511
000110 06 70 00 3d 11 98 51 3d f3 13 67 bc f1 ac 8f 3c
       0.031356834 0.051170412 -0.014103877 0.01753852
000120 4e 64 c5 3b 34 05 cc b9 21 05 14 bd 75 f4 f1 39
       0.00602392 -0.0003891379 -0.036137704 0.00046149237
000130 64 56 cb bc f8 67 da 3b f6 44 ad bc 86 08 0b 3d
       -0.024821468 0.006665226 -0.021151047 0.033943675
000140 38 00 80 bc 96 b4 71 bd 99 92 0b 3d 4b a6 07 3d
       -0.015625104 -0.05901011 0.034075353 0.033117574
000150 5e d5 03 bd ff 1d 14 bd fb c1 e0 bc c1 78 5f 3d
       -0.032185905 -0.03616142 -0.027436247 0.05455852
000160 9a 80 f7 3c 38 4f 30 3d ff c2 2f bd 63 a4 73 bd
       0.03021269 0.0430443 -0.042910572 -0.059482943
000170 f6 a3 42 3c 2c 4e 76 3c 55 87 6b bb 68 25 44 3d
       0.011879912 0.015033286 -0.0035938818 0.047887236
000180 9e 92 7a bd 44 ab f5 bc a4 09 35 bc 26 7d 4d bc
       -0.06117498 -0.029988892 -0.011049662 -0.012542045
000190 7d 63 0d 3d 0b b4 60 bc 9c 13 3d bd f0 27 2b 3d
       0.034518708 -0.013714801 -0.04616128 0.041786134
0001a0 e7 62 47 3d ff fa bd bc 72 94 1a 3d ce 49 37 bd
       0.048678305 -0.023190973 0.037739225 -0.04474812
0001b0 55 b9 98 bb dd 17 7c bc 22 e5 24 bc 9b 1d 93 bc
       -0.004660765 -0.015386549 -0.010064395 -0.017958453
0001c0 44 e5 e3 bc 3a 17 4c 3d 49 96 72 3d 46 fa 8b 3c
       -0.027819283 0.049826838 0.059225354 0.017087113
0001d0 70 ec 08 bc c3 58 3e 3c 01 d7 81 3c c0 55 5e bd
       -0.008357152 0.011617842 0.015849592 -0.054280996
0001e0 b1 77 45 bd 6e 32 eb bb fa f0 ac 3b 14 3c 52 bd
       -0.04820985 -0.0071776425 0.00527775 -0.051326826
0001f0 83 4a 3c bb 94 f6 5a bd 01 47 06 bc c2 36 32 bd
       -0.0028730936 -0.05345781 -0.00819564 -0.043509252
000200 3f 20 14 bd 81 e3 92 3c f6 17 0a bd 49 d2 81 3d
       -0.036163565 0.017930748 -0.033714257 0.06338937
000210 38 47 71 bc 9f ab a9 3c da d5 8c 3c e3 80 38 3d
       -0.0147264525 0.020711718 0.017191816 0.04504479
000220 32 92 2b bc 7d ec 90 bb 66 dc bd 3c 67 f3 4d bc
       -0.010471867 -0.004422723 0.023176383 -0.012570239
000230 e4 5a 85 3d 19 9f 31 3d 25 7d 1f bd 55 15 17 3d
       0.06511477 0.043364618 -0.038937707 0.03688558
000240 3c 5b 0a 3d 0e d6 c4 ba 80 c9 46 bd 19 47 f8 bc
       0.033778414 -0.0015017407 -0.04853201 -0.03030734
000250 86 40 2e bb 0f eb 8b 3b a0 74 56 bc 01 27 4b 3d
       -0.0026588752 0.0042699645 -0.013089329 0.049597744
000260 ee 17 ed 3c 12 c2 ae bc 55 58 28 3d 73 7e 1c bd
       0.028942075 -0.021332774 0.041099865 -0.03820653
000270 d6 2f 9c 3c 3a 66 81 bc 7b d2 0d bd d2 9c 21 bc
       0.019065779 -0.015795816 -0.034624558 -0.009864049
000280 39 eb 14 3d 5a 87 b8 bc 39 0d a6 bc 75 4d 3a bc
       0.03635714 -0.022525478 -0.020269977 -0.011371006
000290 8c 40 bc bb cc 4a 69 3c 48 55 4c 3d 54 dd 7d bc
       -0.0057449993 0.014239024 0.049886018 -0.015494663
0002a0 12 e9 fb 3c 82 f8 03 3d 5c 0d 1e bc 9d fc d0 bc
       0.030750785 0.032219417 -0.00964674 -0.02551108
0002b0 fe df 41 bd a9 3c e7 bc 81 6c 6c 3d 84 b1 21 bd
       -0.047332756 -0.028227167 0.057720665 -0.039475933
0002c0 d9 a6 47 3d fe 11 27 bd 63 cb 08 3d 5a a8 45 bc
       0.048743103 -0.040788643 0.03339709 -0.012064064
0002d0 93 78 c0 bc 3a 59 5f 3c 9a 12 d6 bc e7 16 da ba
       -0.023494994 0.013632113 -0.026131917 -0.0016638906
0002e0 0f 29 3e 3d c3 ae d8 3c c2 76 0e 3c eb 5b 21 bd
       0.046425875 0.02645052 0.008695306 -0.0393943
0002f0 c3 70 2b 3d 00 20 3b 3d 60 5d 1a 3d 7f 0c 43 3d
       0.041855585 0.045684814 0.037686706 0.04761934
000300 56 0b de bc 52 3b 47 bd 38 b9 32 bd de a0 65 bc
       -0.027105015 -0.048640557 -0.04363367 -0.0140154045
000310 02 f8 96 bc 2c a3 e4 3b 2a 68 f5 bc b6 cb f2 ba
       -0.018428806 0.0069774594 -0.029956896 -0.0018523845
000320 8f 2a 9c 3d 8b 51 50 bd c2 d6 ae 3b f7 d2 12 3c
       0.07625305 -0.050859015 0.0053356597 0.008961431
000330 ef e0 46 3b 2a db 80 bb d4 46 25 3d 93 5d 09 3d
       0.0030346473 -0.0039323764 0.04035075 0.033536505
000340 8f 34 3e 3b 09 0c 59 3d 2a 45 f9 bb e1 8a 1c 3d
       0.0029023027 0.052989993 -0.007607122 0.038218383
000350 e6 5b 8f 3d 12 e6 17 bd a1 e2 11 3d 85 5a 13 bd
       0.0699995 -0.037084647 0.03561652 -0.035974998
000360 3a c7 15 3d 45 62 5d 3d 6a c1 8b bc 1e 73 0b 3d
       0.03656695 0.054048795 -0.01706 0.03404533
000370 34 24 48 3d 99 b4 1c 3d e0 99 2b bd 90 7a 46 3d
       0.04886265 0.03825817 -0.041894794 0.04845673
000380 6c c4 f4 3c bf 7e 0b bd 19 3c f6 3c ec dd a2 bc
       0.029878817 -0.03405642 0.030057954 -0.019881211
000390 c0 5c 2f bd 09 e3 1d 3d 0b 27 a0 3c a3 1d 63 bd
       -0.042813063 0.038546596 0.019549867 -0.055448186
0003a0 ca 03 46 bc 30 b7 f7 bc 11 22 c8 3c b2 55 cf bc
       -0.012085864 -0.030238718 0.024430307 -0.025309417
0003b0 e1 e5 3a 3b 05 09 0c 3b 7e aa 93 bc 1b a0 51 bd
       0.0028518366 0.002136768 -0.018025633 -0.05117808
0003c0 43 0f b6 bc eb ff 17 3d c7 2c 14 bd cc 50 90 3c
       -0.022224074 0.037109297 -0.036175516 0.017616652
0003d0 40 90 51 3c da 52 2b 3d ff 35 0b 3d 73 0d 00 bd
       0.01279074 0.04182706 0.03398704 -0.031262826
0003e0 ee 7e 23 3c 5d ef 3b bd 83 6f 24 bd b9 7d 75 bd
       0.009978993 -0.04588257 -0.04014541 -0.05993435
0003f0 a2 48 59 bc ee 61 5d 3d 30 c2 2c bc ee b2 47 bd
       -0.013261946 0.05404847 -0.010544345 -0.048754625

to_mean.0.bias f4 [128]
000000 7e ef 42 3d be b4 86 bc 7d 22 18 3c 5b ad 88 bd
       0.04759168 -0.016443606 0.009285566 -0.0667369
000010 8a 3e 3d bd e5 6a 94 bc b8 c0 06 3d 00 09 20 3d
       -0.04620222 -0.018117378 0.032898635 0.039071083
000020 e7 18 ef 3b d4 e5 4d 3d 9d 49 4e bd 40 e3 82 bd
       0.0072966698 0.05026801 -0.05036317 -0.06391001
000030 7e d9 eb bc 74 dc 3c 3d 45 d3 08 3c 40 1e 2d bd
       -0.028790232 0.046108678 0.008351152 -0.042265177
000040 17 ce 40 3d 34 77 aa bb b5 e1 9a 3c bc 6f 65 bd
       0.047071543 -0.0052021984 0.018906454 -0.05601476
000050 33 bd 8b 3c 30 ba 4c bd f6 fe 18 3d e5 80 a4 3c
       0.01705799 -0.04998225 0.037352525 0.020080993
000060 10 25 92 bd f3 5a 31 3d 76 46 85 bc ca c9 80 3c
       -0.07135975 0.043299627 -0.01626895 0.01572122
000070 e4 9f 08 3d dd 71 4d bd 08 fd 29 bc a0 86 26 3d
       0.03335561 -0.050157417 -0.010375269 0.040655732
000080 2a 4d db bc de 68 f0 3b bd 36 82 bd 90 30 00 bd
       -0.026770193 0.00733672 -0.06358097 -0.031296313
000090 07 00 ec 3c 3d 66 14 bd 96 4d 1b bc d5 c1 39 bd
       0.028808607 -0.036230315 -0.009478947 -0.04535087
0000a0 96 8d 88 bc 01 98 5b 3d 87 be 77 bd 59 5c 0a bd
       -0.016669076 0.05361176 -0.060484435 -0.033779476
0000b0 81 69 af 3c fa b8 a7 3c a8 16 83 3c 73 86 1a 3d
       0.021412613 0.020473946 0.016002014 0.037725877
0000c0 fe 19 69 bd 71 3d f8 3b 81 7d 37 3d 94 96 8c bc
       -0.056909554 0.0075756838 0.044797424 -0.017161645
0000d0 85 f9 51 3d 3c 48 3e bd a5 90 53 bd 02 9c e0 bc
       0.05126335 -0.046455607 -0.051651616 -0.02741814
0000e0 bc 53 65 3b 34 fc 60 bd 46 eb 92 3c 2a 7d ec bc
       0.0034992537 -0.05492802 0.017934453 -0.028868277
0000f0 d9 28 44 3d 19 1c fd bc 9c 4c 8c 3b 20 d7 cb 3c
       0.047890518 -0.030897187 0.0042815935 0.024882853
000100 d5 a3 80 bd eb 35 09 3d 2c db 49 3d 44 a6 96 bd
       -0.062812485 0.033498686 0.049281284 -0.073559314
000110 92 f1 71 bc d7 e7 d4 3c 73 69 3f bb 71 31 39 bc
       -0.0147670675 0.025989456 -0.002920714 -0.011303292
000120 c1 81 0f 3d c5 ef 8b bc 70 97 56 bd 9c 37 c1 3c
       0.035035852 -0.017082104 -0.052390516 0.023586087
000130 cb a3 5d bd 9b ef 18 bd 50 2a e2 3b f4 2e be bc
       -0.054111283 -0.03733788 0.0069020167 -0.023215748
000140 26 86 ca 3c 69 84 c7 3c 14 f7 cd 3c b4 a3 98 bc
       0.02472217 0.02435513 0.02514223 -0.018632747
000150 50 25 dd 3c 28 51 95 bc aa 5b 3d 3c 0d 04 f7 bc
       0.026995331 -0.018227175 0.011557499 -0.030153299
000160 56 47 35 3d aa 1f e2 3b 77 76 a0 3c 99 0a 18 bc
       0.044257484 0.0069007473 0.019587738 -0.00927987
000170 bc b4 60 bd 23 a8 4f bd b3 30 e4 3c 0a 90 ae 3c
       -0.05485986 -0.050697457 0.027855253 0.021308918
000180 06 fb 6b 3c 6f cf 99 bc 95 49 ef bc 2a 08 63 3d
       0.01440311 -0.01877567 -0.029209891 0.055427708
000190 5e a4 6d bd a9 a6 6f 3d fd ef 31 bd b9 c3 56 3d
       -0.05801808 0.05850855 -0.04344176 0.05243275
0001a0 dd 87 7a bc c9 91 56 bd 7d 3b cf bc cf 0e 74 bd
       -0.015291181 -0.052385125 -0.02529692 -0.059584435
0001b0 cf cd 55 3d ea 87 6a 3d 39 40 03 3d 6b 61 84 bd
       0.052198227 0.057258524 0.03204367 -0.064638935
0001c0 32 4d bc 3c 30 04 fa bc b2 f6 a8 bc f1 42 4e 3d
       0.022986028 -0.030519575 -0.020625446 0.05035681
0001d0 3a 83 5e 3c d1 2f 43 bd b2 3f ec bc 27 89 09 3d
       0.013581092 -0.047653023 -0.028838966 0.033578064
0001e0 e4 08 16 3d 38 71 7d bd 37 84 4e 3b 6b 3a 46 3d
       0.036629573 -0.061875552 0.0031511912 0.048395555
0001f0 97 41 35 3c 8f 89 7a bc 13 94 13 3d 0c 3f 3f 3d
       0.011063001 -0.015291586 0.036029886 0.046690986

to_mean.2.weight f4 [18, 128]
000000 b3 e1 58 3d 48 b0 f9 bc 63 28 70 bb 09 ea 7c bd
       0.05294962 -0.030479565 -0.0036645166 -0.06174663
000010 bb 18 4b bc 39 2d 30 3c a5 67 3e 3b 06 a2 40 3d
       -0.012396033 0.010752969 0.0029053476 0.047029518
000020 ed b3 02 3d 44 92 08 3d 9b 64 2e bd f5 70 94 bd
       0.03190987 0.033342615 -0.042576414 -0.07248107
000030 3b 9a 2a 3d 75 e1 d9 3c f8 0f 2a bd 64 d0 f8 3c
       0.041650992 0.026596764 -0.041519135 0.030372806
000040 4d 65 9c bb 21 be a8 3c 8a 88 fa bc 88 65 41 3d
       -0.004772818 0.020598473 -0.030582685 0.04721597
000050 7d cb 18 bd 73 b0 01 3c 12 fd a3 3c 27 32 1e bc
       -0.037303437 0.007915604 0.020018134 -0.009655512
000060 b2 7d be 3c 70 21 c5 bc 24 1a 1b bb c4 1f 87 bd
       0.023253296 -0.024063796 -0.0023666704 -0.06597856
000070 c4 08 94 bc e7 91 97 bb 4a 19 aa bc cb 4c 99 bb
       -0.018070586 -0.004625547 -0.020764012 -0.004678344
000080 25 40 01 3c c0 e4 bb 3c 30 bd 1c 3d 50 81 74 3d
       0.007888828 0.022936225 0.03826636 0.059693635
000090 b0 28 5a 3d 54 a0 78 bd d4 48 49 3d ff 61 31 3d
       0.05326146 -0.060699776 0.04914172 0.043306347
0000a0 21 8c bc bc 6f 06 07 3c 68 de 63 bd 8b b7 f0 bc
       -0.023016037 0.00824128 -0.055632025 -0.029384395
0000b0 3a 34 46 bd ab b9 1a 3d 7e 9e cb 3c 7a cb 4d bd
       -0.04838965 0.037774723 0.024855848 -0.05024288
0000c0 28 b9 38 3d 28 2e dc 3c 5b 02 3e 3d 18 11 2b 3d
       0.045098454 0.026877478 0.046388965 0.04176435
0000d0 97 6f 70 3c b8 73 47 bd 4f 6b ae bc 87 fb 93 3d
       0.014675043 -0.048694342 -0.021291403 0.072257094
0000e0 77 a3 3f bd 8a 20 09 bc 85 7d 3a 3d 67 b3 8c bc
       -0.04678675 -0.008369574 0.04552986 -0.01717539
0000f0 1e 8b 85 bc 4c 63 44 3d 9a 8f 8f bc 4c e3 0d bd
       -0.016301688 0.04794626 -0.01752453 -0.034640595
000100 7b d3 9f bd 18 50 cb 3c 53 aa 85 3d c8 a9 97 bd
       -0.078040086 0.024818465 0.065266274 -0.0740543
000110 87 77 b6 bc 93 0c fc bc 10 6e 6f 3d 5e 20 80 3d
       -0.022273792 -0.030767715 0.058454573 0.062561736
000120 72 c3 d7 bc ed d4 c7 3b 05 16 8f 3d 48 7a 1b bb
       -0.026338313 0.006098381 0.06986622 -0.0023724008
000130 1b 71 a5 bd 18 7d 72 bd 73 ba 41 3d 46 81 86 bc
       -0.08078214 -0.05920133 0.047296952 -0.016419064
000140 82 c2 df 3c 3c 24 0c bd ef 59 09 bc 37 8c 25 3d
       0.027314428 -0.034214243 -0.008383258 0.040416922
000150 85 38 d2 3b 47 5f 04 bd 11 e7 21 bd 33 f4 78 3d
       0.006415429 -0.032317426 -0.039527003 0.06077976
000160 a7 fa 0e bd b7 cd 04 bd 29 dc 90 3c 0e f1 32 bc
       -0.03490701 -0.032422747 0.017683106 -0.01092173
000170 43 1c 52 3c 0a 1a 28 bd 3f a8 2a 3d f9 fd 7a bd
       0.012824121 -0.041040458 0.04166436 -0.061277363
000180 8f 19 73 bd a6 c2 1c bd d1 41 2f bd e5 b3 75 3c
       -0.059350546 -0.03827157 -0.042787377 0.0149965035
000190 8a bc e3 bb 34 0b e4 bc 5a 05 d3 bc e6 4b 24 3b
       -0.006949966 -0.027837373 -0.025759388 0.0025069653
0001a0 86 42 7e bd ab 74 8a bd df 41 4e bd 39 5a ca bc
       -0.06207516 -0.06760534 -0.05035579 -0.024701225
0001b0 00 1f ed bb c5 28 25 bb 3e ed 51 3c 9a e0 84 bd
       -0.0072363615 -0.0025201302 0.012812911 -0.06488152
0001c0 6b 61 33 bd 2b aa f6 bc 90 0b 93 bd 16 cb b2 3c
       -0.043794077 -0.03011044 -0.0717994 0.021825355
0001d0 4a 6f 40 3d 3b 8c 53 3b ff 71 9a bd b6 44 28 3d
       0.046981134 0.0032279629 -0.07541274 0.041081153
0001e0 11 5c 06 3d 2d fe 71 bd 10 ff 05 3d a8 a0 05 bd
       0.032802645 -0.05908029 0.03271395 -0.032623917
0001f0 06 d9 d0 3b 02 c0 a8 bc 55 de 59 bd c3 90 ba bc
       0.0063735275 -0.020599369 -0.053190548 -0.022774106
000200 3c 68 f6 3c f6 b6 ee bb b0 d2 ec 3c 33 42 93 bd
       0.030079 -0.0072849942 0.028909057 -0.07190361
000210 b8 3a cb bc 14 65 7b 3d 82 42 57 bd ae 08 86 3d
       -0.024808273 0.061375692 -0.05255366 0.06544624
000220 4b 87 1e 3d 68 24 38 bd 45 a7 cf 3b 6f 27 49 3d
       0.038703244 -0.044956595 0.0063370788 0.049109872
000230 d2 9c 40 3d 72 89 52 3d c0 35 b9 3c 8f 2f bd 3c
       0.047024556 0.05140061 0.022608638 0.023093967
000240 10 1e 74 3d c1 fa 8e 3b 35 48 14 3d 75 fb 62 3a
       0.059598982 0.0043633883 0.036201674 0.0008658686
000250 e5 34 a1 3c d2 54 1e bc 03 c2 86 ba 9d 6e 52 bd
       0.019678542 -0.009663777 -0.0010281209 -0.05137502
000260 b1 b3 82 bd 02 f1 9b 3c 1b 60 55 bd 8e 9d 6d 3c
       -0.0638193 0.01903582 -0.052093606 0.014502896
000270 20 25 21 bd 0b 09 27 bd b1 53 86 bd 03 26 cc bb
       -0.039342046 -0.04078011 -0.065589316 -0.0062301173
000280 8b 46 47 bd b4 f0 49 bd fa 7b 9c 3c 08 01 73 3d
       -0.04865126 -0.049301818 0.019102085 0.059327155
000290 99 45 8d 3d 47 11 13 39 1c a1 c6 bb 90 91 07 3d
       0.0689804 0.00014025449 -0.006061686 0.033097804
0002a0 d3 dc 7b 3c 9f aa 6d bc 73 6c 41 3d 61 34 db 3c
       0.015372473 -0.014506011 0.047222566 0.026758375
0002b0 09 08 b7 3c 47 e7 34 bd 4f 11 27 bd fc b9 cc 3b
       0.022342699 -0.044165876 -0.04078799 0.006247757
0002c0 db 2b 21 bc fa 9b 02 3b 4d 81 4d 3c b7 e3 5e bd
       -0.009837116 0.0019929395 0.012543035 -0.054416385
0002d0 9d 6e e7 bb e5 73 41 bb b2 a3 bf 3b f3 55 11 3d
       -0.0070627467 -0.0029518541 0.0058483714 0.03548236
0002e0 e3 ba 3b bb 5e 4a 4f 3b f0 80 57 3d 74 95 b4 3b
       -0.0028645329 0.003163002 0.0526132 0.0055109803
0002f0 a1 76 92 bc bf 39 80 bd 6e e1 e9 3c 07 3e 94 bc
       -0.017878832 -0.06261014 0.028549876 -0.018095983
000300 81 16 ae bc c7 3f 75 3d 14 f6 f1 bc 80 8a 85 bd
       -0.021250965 0.059875276 -0.029536285 -0.065205574
000310 69 4f a9 3c 62 6d f3 bc 42 3a 40 3d 88 c3 88 3d
       0.020667749 -0.029715244 0.04693056 0.066779196
000320 22 1b 8e bb da b3 56 3d 8a eb dd bc 54 93 26 bd
       -0.0043367306 0.052417614 -0.027089853 -0.040667847
000330 16 e1 4f bd 9d 4b 83 bd 00 0f 02 bd f4 64 07 3d
       -0.050751768 -0.064109065 -0.031752586 0.03305526
000340 4d 1f 2a 3c cd c4 f1 3c dc 35 1d 3d 7b f9 51 bc
       0.010383439 0.029512787 0.038381442 -0.012815828
000350 6b c5 20 bd 4b a5 95 3d 74 9f e0 bc fb eb 82 bd
       -0.039250772 0.07306918 -0.027419783 -0.06392666
000360 49 e2 e1 bc 5a 5c 86 bc 20 3d a8 3c 5a d4 31 3c
       -0.027573721 -0.016401459 0.02053696 0.010853851
000370 1b c0 58 3d 0e 95 5a bd 5b 07 07 bd f6 11 81 bd
       0.05291758 -0.053364806 -0.032966 -0.06302254
000380 bd a2 89 bd a8 fd 4b bd 9c f0 51 bd 95 04 5c 3d
       -0.06720493 -0.049802452 -0.051254854 0.053715307
000390 af 85 7b 3d 9b 87 01 bd a4 ba 43 bd 97 3e 58 3d
       0.061406787 -0.031623464 -0.047785416 0.052794065
0003a0 f3 6b 67 bb d1 d3 61 bc e9 d2 3e bc 4b 48 23 3d
       -0.0035312145 -0.013783411 -0.011646965 0.039863866
0003b0 7c bf 65 bc 1e 78 54 3d e5 33 f7 3c bd 6d 0d bd
       -0.014022704 0.051872365 0.030176112 -0.034528483
0003c0 b2 62 f6 bc 12 f7 6b bd c9 1b 99 bc 61 8d fc bc
       -0.030076358 -0.05760867 -0.018690007 -0.030829133
0003d0 68 e6 61 bd f5 22 09 3c d8 92 32 3b 9d e7 04 3d
       -0.055151373 0.008370151 0.002724817 0.032447446
0003e0 9f a6 1b 3d e8 d8 df bc e8 9a 12 3d 89 b8 17 bc
       0.0380007 -0.027325109 0.03579226 -0.009260305
0003f0 9e c5 0c bd 3c e7 27 bc 4a 76 7d 3d cb 7c fc bc
       -0.03436815 -0.010248002 0.061880387 -0.030821225

to_mean.2.bias f4 [18]
000000 05 78 d3 bc 66 ec 6f 3d ad 72 56 3d fc 6f 6b bd
       -0.025814066 0.058575056 0.052355457 -0.057479843
000010 59 cd 84 bb 13 88 7c bd 86 ce 82 bd f3 b0 0a bd
       -0.0040527997 -0.061653208 -0.063870475 -0.03386016
000020 dc e7 d4 3c e2 46 5c bd 2b 40 55 bd 4c 19 05 bc
       0.025989465 -0.053778537 -0.05206315 -0.008123707
000030 b1 1e 6e 3d b5 f2 ad bd 1a f2 b9 bd 3a 6e b2 3c
       0.05813474 -0.08493558 -0.0907938 0.021781076
000040 df 9c 9f 3d f3 7c 59 3d
       0.07793593 0.053097676
