saves/save3_1_23/save2_Standing_29700.pth (torch, 942043 bytes, 11 tensors)

shared_net.0.weight f4 [512, 67]
0.020582767 -0.05741069 -0.08381421 -0.12041554 -0.07627015 -0.05349652 8.9624875e-05 0.100694224
0.07473698 0.028496249 -1.905172 -0.023022315 -0.3297771 -0.1677659 0.083989225 0.1084062
-0.014700295 0.06798307 -0.06969266 -0.040932875 0.016265623 0.166142 0.12864478 0.3453103
0.029705998 0.016971141 -0.20933352 -0.004584325 -0.09867259 -0.05627638 -0.008255301 0.013898658
-0.015131474 -0.0032747348 0.0005982451 0.0011372087 -0.003196664 0.014639662 -0.013354871 0.026929533
0.001157894 -0.0018624213 -0.0008356462 0.02490657 -0.029143557 0.0005183911 -0.033261478 0.019293552
-0.1525107 -0.03125326 0.13085426 0.1624469 0.07501089 0.044861957 -0.0948462 -0.042674225
-0.029663546 -0.11112156 0.035848856 0.034772877 0.11525259 0.037846003 -0.0747351 -0.0018157446
0.06751454 0.00055287697 -0.09668023 -0.017835712 -0.0064236075 0.064353324 -0.033200383 -0.19663578
0.14159785 0.04198331 0.08091772 0.36112645 0.049735263 -1.12846 -0.08166866 0.08524928
-0.18397902 0.17604755 0.1622633 0.13593759 0.43070325 -0.07737047 -0.31968576 0.03146172
0.20913026 -0.06677576 0.0896896 -0.21106534 -0.021231996 0.1721605 -0.14565244 -0.052808326
-0.1364757 -0.0044654706 -0.027123852 -0.0042046295 -0.0032607603 0.014023902 -0.022266498 -0.005985078
0.02101071 -0.004656211 -0.011123128 0.029560927 0.009272233 0.0033365106 -0.022815967 -0.03912744
-0.048840757 -0.002227662 0.09155702 0.011841884 -0.059803437 0.056059256 -0.0029883138 0.26032507
0.033695046 -0.15434936 -0.14528647 0.057000026 -0.06958057 -0.13416493 -0.07053389 -0.046786103
-0.025586246 -0.18667008 -0.029252036 0.12872411 -0.1725726 -0.0067524933 0.69052374 -0.009445954
0.054792225 -0.056868255 0.0016537738 0.07861931 0.059032418 0.04795595 0.091544695 0.020403074
-0.89414036 -0.075095005 0.116587624 0.024974966 -0.021987483 -0.110317 -0.031156998 -0.054967526
0.08673725 0.08324086 0.22627243 -0.18521996 0.09903175 -0.04099875 -0.14316002 -0.028232316
-0.1339927 0.07864842 -0.12435494 -0.10529516 -0.018070215 0.034839958 -0.0051617986 0.0012387285
-0.0030962583 -0.0070751277 0.0063316636 0.0052132946 -0.030567432 0.0035973436 -0.06451424 -0.00045896115
-0.0032585096 -0.004855232 0.014251227 -0.027597241 -0.01127365 -0.04522195 0.117958136 0.08642525
0.1119515 -0.012064753 0.0027344779 -0.005803162 -0.09355434 0.036066525 0.17605706 0.051619284
-0.020914454 -0.020029724 -0.08977276 -0.059490215 -0.07128464 0.011138685 -0.096114576 -0.023289185
0.013710999 0.5360473 -0.040240664 -0.026579427 -0.035068996 -0.009649161 0.05312623 -0.059913162
0.022782682 -0.06696369 0.020155549 -1.2357973 0.15676773 -0.11988507 -0.081548676 0.00043212695
-0.35677785 -0.09292327 0.113321796 -0.3172961 0.10139856 0.22251774 -0.15634675 -0.11834596
-0.15903097 0.46376908 -0.13294308 -0.42853415 0.08196126 0.08586784 0.1618104 0.05530987
0.027722515 0.007126376 0.0125347525 -0.010282097 0.00019780295 2.4466486e-05 -0.065430455 -0.13507834
0.0041311528 0.101230696 -0.054463796 0.0020010665 0.023191543 -0.03577725 -0.022089528 -0.03233595
-0.012963247 -0.10655737 0.012697429 0.0014192993 0.2122997 -0.04586358 -0.08148049 -0.13868894
00000000: 319d a83c 7927 6bbd c9a6 abbd 6c9c f6bd
00000010: 8633 9cbd 2b1f 5bbd fdf4 bb38 c638 ce3d
00000020: b40f 993d f770 e93c addc f3bf 4b99 bcbc
00000030: 8bd8 a8be d3ca 2bbe 8b02 ac3d 1204 de3d
00000040: 82d9 70bc b53a 8b3d 06bb 8ebd 3ba9 27bd
00000050: 7c3f 853c 2121 2a3e 75bb 033e 83cc b03e
00000060: fe59 f33c 1007 8b3c 875b 56be 1b38 96bb
00000070: db14 cabd 1082 66bd 3e41 07bc 32b7 633c
00000080: 00ea 77bc ef9c 56bb 8dd3 1c3a 640e 953a
00000090: 1f7f 51bb 31db 6f3c 64ce 5abc 539b dc3c
000000a0: 7ac4 973a 7d1c f4ba 440f 5bba dd08 cc3c
000000b0: 78be eebc a3e4 073a 303d 08bd 830d 9e3c
000000c0: c42b 1cbe 6b03 00bd a9fe 053e 7b58 263e
000000d0: 4f9f 993d 2cc1 373d b93e c2bd 2bcb 2ebd
000000e0: f700 f3bc b393 e3bd 40d6 123d 016e 0e3d
000000f0: 8d09 ec3d 6904 1b3d b70e 99bd 47fe edba
00000100: 1045 8a3d f2ee 103a 4900 c6bd 331c 92bc
00000110: 207d d2bb adcb 833d 20fd 07bd e45a 49be
00000120: 07ff 103e b1f6 2b3d 31b8 a53d 91e5 b83e
00000130: 34b7 4b3d 6171 90bf e641 a7bd 2d97 ae3d
00000140: ff64 3cbe cf45 343e 5a28 263e 3933 0b3e
00000150: 2385 dc3e 6974 9ebd daad a3be 01de 003d
00000160: 3e26 563e bbc1 88bd 2eaf b73d 8321 58be
00000170: b9ee adbc d84a 303e ea25 15be 8b4d 58bd
00000180: 49c0 0bbe 1553 92bb d732 debc fdc6 89bb
00000190: 7bb2 55bb 82c4 653c 3b68 b6bc 791e c4bb
000001a0: a71e ac3c 2193 98bb c83d 36bc c229 f23c
000001b0: 90ea 173c 5ca9 5a3b 8de8 babc 1844 20bd
000001c0: 3f0d 48bd f7fd 11bb 3f82 bb3d 7604 423c
000001d0: 73f4 74bd 649e 653d 96d7 43bb 5449 853e
000001e0: d103 0a3d c20d 1ebe fac5 14be dc78 693d
000001f0: 4280 8ebd 8862 09be 1274 90bd c9a2 3fbd
00000200: 3f9a d1bc 7126 3fbe f7a1 efbc 41d0 033e
00000210: dfb6 30be 0544 ddbb 2ac6 303f 34c3 1abc
00000220: d06d 603d b0ee 68bd 71c3 d83a 2903 a13d
00000230: facb 713d 756d 443d c97b bb3d 5924 a73c
00000240: 62e6 64bf 69cb 99bd 7ec5 ee3d 4d98 cc3c
00000250: 181f b4bc e1ed e1bd f63c ffbc a125 61bd
00000260: 4da3 b13d 2f7a aa3d f6b3 673e 4daa 3dbe
00000270: 28d1 ca3d 4eee 27bd 8a98 12be 7547 e7bc
00000280: 6235 09be 6c12 a13d cead febd fda4 d7bd
00000290: fd07 94bc 58b4 0e3d 4e24 a9bb d55c a23a
000002a0: 98ea 4abb 79d6 e7bb d879 cf3b 49d4 aa3b
000002b0: 8d68 fabc 69c1 6b3b 0b20 84bd b9a0 f0b9
000002c0: b88c 55bb a318 9fbb fa7d 693c 9c13 e2bc
000002d0: 1eb5 38bc a73a 39bd 0994 f13d b9ff b03d
000002e0: d446 e53d 3eab 45bc ed34 333b 7428 bebb
000002f0: 6b99 bfbd 7eba 133d 4d48 343e be6e 533d
00000300: ca54 abbc 6015 a4bc c8da b7bd 03ac 73bd
00000310: aefd 91bd 087f 363c b8d7 c4bd f6c8 bebc
00000320: 19a4 603c 653a 093f 65d3 24bd 19bd d9bc
00000330: 82a4 0fbd 8417 1ebc e49a 593d 8167 75bd
00000340: bfa2 ba3c 4224 89bd 401d a53c 9b2e 9ebf
00000350: b887 203e 4e86 f5bd fe02 a7bd 198f e239
00000360: 96ab b6be 8e4e bebd 4215 e83d a274 a2be
00000370: 0caa cf3d b1db 633e 5d19 20be 5e5f f2bd
00000380: 04d9 22be 2473 ed3e 3b22 08be d468 dbbe
00000390: 4edb a73d 7adb af3d a0b1 253e 9a8c 623d
000003a0: 541a e33c 6084 e93b 905e 4d3c 3e76 28bc
000003b0: 5369 4f39 613d cd37 6700 86bd fa51 0abe
000003c0: 9f5e 873b 0a52 cf3d 6e15 5fbd 5324 033b
000003d0: 31fc bd3c 2a8b 12bd 19f5 b4bc b372 04bd
000003e0: cc63 54bc c03a dabd e108 503c c807 ba3a
000003f0: 1865 593e 73db 3bbd 3edf a6bd 7904 0ebe

shared_net.0.bias f4 [512]
-0.040563837 0.056868974 -0.1314256 -0.047312357 -0.21287596 -0.044468883 0.11733674 0.19901976
-0.16108488 -0.02892763 0.11889752 0.026402665 0.065908596 -0.028440097 0.045111414 -0.10840086
-0.1662982 0.08386583 0.138481 -0.01449181 0.28320518 -0.10620912 0.008242738 0.049816694
0.20540322 8.915092e-05 -0.052407824 0.17837107 -0.10948029 -0.027899595 0.18768413 0.18280244
0.23890762 0.30482775 0.46225452 -0.04987262 0.016749177 0.21312706 0.10068063 -0.15559897
-0.2782509 -0.4050436 -0.15558708 0.012054621 0.080942735 -0.34833106 -0.23051573 0.2832156
-0.21380861 -0.35948837 -0.34113857 -0.035736658 0.092246726 0.40766838 -0.26936567 -0.30420968
-0.13388713 0.22200993 -0.16650599 -0.21597892 0.124012485 -0.20498152 -0.16995622 -0.37374714
0.012855327 0.0098733045 0.10735945 0.34531 0.39513528 -0.2022247 0.37202272 -0.15566586
0.21455023 0.21084918 -0.20298913 -0.06825568 -0.28469852 -0.1250573 -0.72329706 -0.42999834
0.34674707 -0.157535 0.12449307 -0.44176072 0.36045024 -0.22175954 0.06715064 -0.1881078
-0.23384245 -0.37549728 -0.25289306 -0.049245138 -0.039433993 0.03574256 -0.19606224 -0.36831403
0.044880945 0.1330118 -0.34608355 -0.37371892 0.21757756 -0.3072551 0.044263672 -0.21005237
0.041758813 -0.17333403 0.16179964 0.30599144 -0.110114366 0.007691401 0.3355346 0.0440975
0.24687757 0.07468294 0.23860903 0.40751114 -0.008638035 -0.10576836 0.04315044 -0.2714252
0.052065846 -0.40066105 0.029366825 -0.1972503 -0.22631615 0.008485098 0.032792855 -0.34131813
0.3412825 -0.015724486 -0.09196648 -0.036619265 -0.17232068 -0.14812474 -0.0057006907 -0.14724815
-0.0802348 -0.2138447 -0.16801056 -0.3025044 -0.031502992 0.016392663 0.3946495 -0.40079647
-0.05026989 0.004261668 -0.06082826 -0.23768505 0.49372616 0.11315074 -0.3934846 0.20113112
-0.23536932 -0.19934808 0.030681236 -0.19231746 -0.19741783 -0.00184236 -0.16051015 0.16861957
0.1760451 -0.8837984 0.091222405 -0.060932886 -0.004044792 0.34730282 -0.09369854 0.04874673
0.29408616 -0.3891894 -0.028964045 -0.029011056 -0.053323038 0.021203984 0.02028944 0.014953925
-0.042347338 0.052412294 -0.074573636 0.110531926 -0.40949354 -0.038838997 -0.038935255 -0.05302574
0.006378719 -0.17756175 -0.050562367 -0.0424059 -0.073930204 -0.054545578 0.011158803 0.044811778
0.17692403 -0.29146445 0.31901383 0.28161213 0.50530267 0.5877726 -0.07809297 -0.12395212
-0.09574316 -0.33144653 -0.026936444 -0.27108517 -0.06760611 0.4054767 0.30217117 -0.11976583
0.18855746 0.21832146 -0.037909262 0.31126148 -0.0015651726 -0.23809749 0.3028852 -0.16645087
0.26845074 -0.11435969 0.22829615 -0.16397797 -0.13800757 0.36306205 -0.55329335 -0.34122992
0.16195323 0.33990702 0.06350848 -0.012475219 -0.06767517 -0.4339181 0.07061595 0.039574005
-0.47052112 -0.20662974 -0.078300625 0.3477157 -0.08534336 0.47802845 -0.4084308 0.13092528
-0.37813574 0.062370792 -0.054857735 -0.3305118 -0.078012474 -0.20340659 0.3113283 -0.29676983
-0.37998983 -0.19080284 0.26039702 -0.23584329 -0.16528547 -0.3399487 0.19722357 -0.31722316
00000000: 4426 26bd 71ef 683d 6f94 06be 9aca 41bd
00000010: 28fc 59be 0125 36bd 3f4e f03d d6cb 4b3e
00000020: 6ff3 24be a3f9 ecbc 8b80 f33d 674a d83c
00000030: 16fb 863d 35fb e8bc bfc6 383d 4501 debd
00000040: 134a 2abe d9c1 ab3d f7cd 0d3e 0f6f 6dbc
00000050: 4500 913e 2b84 d9bd 8d0c 073c 970c 4c3d
00000060: 3955 523e 89f6 ba38 96a9 56bd e8a6 363e
00000070: 3437 e0bd b18d e4bc 4530 403e 9030 3b3e
00000080: 33a4 743e 6212 9c3e a0ac ec3e 3b47 4cbd
00000090: 9235 893c fb3d 5a3e a531 ce3d 5655 1fbe
000000a0: e776 8ebe e061 cfbe 3852 1fbe bf80 453c
000000b0: 4ec5 a53d 7358 b2be 510c 6cbe a301 913e
000000c0: a5f0 5abe dc0e b8be b7a9 aebe 9a60 12bd
000000d0: daeb bc3d e9b9 d03e 4cea 89be 5fc1 9bbe
000000e0: b519 09be 9256 633e 8c80 2abe 9429 5dbe
000000f0: 42fa fd3d ade6 51be 0109 2ebe c95b bfbe
00000100: 269f 523c a4c3 213c 45df db3d 79cc b03e
00000110: 2c4f ca3e fe13 4fbe c379 be3e df66 1fbe
00000120: 0eb3 5b3e d9e8 573e 62dc 4fbe a2c9 8bbd
00000130: 01c4 91be 050f 00be ff29 39bf be28 dcbe
00000140: d588 b13e db50 21be 39f6 fe3d 762e e2be
00000150: ef8c b83e ef14 63be 4686 893d 559f 40be
00000160: 6574 6fbe 2e41 c0be 337b 81be 45b5 49bd
00000170: 8a85 21bd ca66 123d 8ac4 48be a893 bcbe
00000180: 15d5 373d 3f34 083e dd31 b1be 1658 bfbe
00000190: a7cc 5e3e 8a50 9dbe d34d 353d f817 57be
000001a0: 4a0b 2b3d 7a7e 31be ceae 253e e9aa 9c3e
000001b0: a483 e1bd 2608 fc3b 31cb ab3e 959f 343d
000001c0: 79cd 7c3e 5ff3 983d ed55 743e 4da5 d03e
000001d0: 8b86 0dbc 159d d8bd 84be 303d 3ef8 8abe
000001e0: ff42 553d 7223 cdbe b292 f03c fcfb 49be
000001f0: 6cbf 67be 1505 0b3c cd51 063d 40c1 aebe
00000200: 94bc ae3e a3d0 80bc ec58 bcbd 15fe 15bd
00000210: d574 30be 03ae 17be dccc babb 38c8 16be
00000220: 2552 a4bd 1bfa 5abe f60a 2cbe dbe1 9abe
00000230: 4809 01bd e849 863c 800f ca3e 3235 cdbe
00000240: cde7 4dbd 76a5 8b3b 0e27 79bd b663 73be
00000250: adc9 fc3e 93bb e73d d076 c9be 51f5 4d3e
00000260: a804 71be e721 4cbe 3757 fb3c deee 44be
00000270: e627 4abe 587b f1ba c65c 24be 9caa 2c3e
00000280: 2b45 343e 9d40 62bf d0d2 ba3d c394 79bd
00000290: 2d8a 84bb add1 b13e 05e5 bfbd a7aa 473d
000002a0: 7692 963e d543 c7be 0146 edbc 98a8 edbc
000002b0: 4269 5abd fab3 ad3c 0a36 a63c 4f01 753c
000002c0: 6774 2dbd 46ae 563d 10ba 98bd 905e e23d
000002d0: 23a9 d1be a415 1fbd 937a 1fbd 8531 59bd
000002e0: 9304 d13b bfd2 35be 7c1a 4fbd cfb1 2dbd
000002f0: b868 97bd 2f6b 5fbd 69d3 363c 8e8c 373d
00000300: 932b 353e d43a 95be c855 a33e 772f 903e
00000310: 845b 013f 4478 163f 35ef 9fbd 9cda fdbd
00000320: fd14 c4bd 5cb3 a9be d1a9 dcbc adcb 8abe
00000330: 1275 8abd a49a cf3e 2eb6 9a3e ca47 f5bd
00000340: 3515 413e a98f 5f3e be46 1bbd aa5d 9f3e
00000350: 7a26 cdba d4cf 73be c513 9b3e 1972 2abe
00000360: 6072 893e 6a35 eabd 77c6 693e d7e9 27be
00000370: db51 0dbe 45e3 b93e a2a4 0dbf b0b5 aebe
00000380: 11d7 253e 4b08 ae3e bc10 823d dc64 4cbc
00000390: 4899 8abd 832a debe 189f 903d 5a18 223d
000003a0: 25e8 f0be bf96 53be 145c a0bd cb07 b23e
000003b0: 80c8 aebd 25c0 f43e d81d d1be 4711 063e
000003c0: 029b c1be 8478 7f3d 81b2 60bd d838 a9be
000003d0: 01c5 9fbd d149 50be 6c66 9f3e 37f2 97be
000003e0: 078e c2be d261 43be c252 853e e780 71be
000003f0: 9840 29be c20d aebe faf4 493e 136b a2be

shared_net.2.weight f4 [256, 512]
-0.019700909 -0.36227205 -0.13819207 0.045097582 -0.27391562 -0.08205858 -0.13380603 -0.037336092
-0.007174772 -0.044266477 0.0684817 -0.12963186 0.10520995 -0.21013317 -0.5667292 -0.0044951695
0.07712712 -0.19269204 0.03968536 -0.10549034 0.058161404 -0.016621936 0.039702844 0.027564658
-0.06597417 0.0849088 0.24622487 -0.18061073 -0.031733584 0.02183119 -0.01318049 -0.042629465
-0.15264854 -0.01666455 0.004053417 -0.13003758 -0.028207712 0.023576958 -0.1843167 0.017370434
-0.01640856 0.0728099 0.13097219 0.042632204 -0.02091116 0.09898264 0.13610588 -0.32760316
-0.011987959 0.1775455 0.10266623 -0.064896666 -0.026918394 -0.31301358 -0.03532939 0.22850892
0.05452421 -0.07422203 0.06120372 0.08697598 -0.04259154 0.07656647 -0.02478174 0.087096415
-0.019349681 0.03689632 -0.06167762 -0.03937814 -0.31892115 -0.06808185 -0.016241645 0.23916332
0.016730547 -0.0876745 0.06039255 0.20727213 0.07966129 0.056488086 0.11370521 0.033355452
0.16255659 0.073117994 -0.052599825 0.10609491 0.06882875 0.05795274 -0.120399185 0.028603068
0.016970139 0.07581608 0.069820076 -0.06115774 -0.3614991 -0.06001902 0.045559403 0.07624455
-0.06363003 -0.18389034 0.08359759 0.33316365 0.019128801 0.026917662 -0.07411787 0.14546607
-0.042127322 -0.11559045 0.21247232 -0.14270654 -0.008783224 -0.041211717 -0.072627835 -0.060119707
-0.3253891 -0.20689397 0.05092815 -0.034391824 -0.23000436 -0.11947579 0.101520725 0.078146406
-0.0402912 -0.015722048 0.25771657 0.02378673 0.11998443 -0.14086705 0.0526178 0.100572795
-0.02354618 0.07365469 0.040560026 -0.047355257 -0.30362508 0.019588303 -0.026084568 0.10899638
0.046279 0.123412386 0.039141275 -0.23578724 -0.009806987 0.14119582 -0.26378658 -0.05998026
0.07051597 -0.12879767 -0.06381052 0.08586904 -0.21377112 -0.1439333 0.09691761 -0.11402316
0.017163973 0.01978582 0.17421086 -0.086666785 -0.10658921 0.08129068 0.009875572 -0.07645864
-0.07308372 0.17936309 0.136743 -0.105108514 -0.07930394 -0.09424416 0.031673055 0.0480545
-0.07593199 0.073970616 0.12184702 -0.067174844 0.15767284 0.020575384 -0.06019107 0.022655506
-0.06646196 -0.071415566 -0.120270975 -0.056286346 0.11289834 -0.011968183 0.07381778 -0.1121328
-0.03228333 0.09880009 -0.1934843 0.038650483 0.23881455 0.15509239 0.025499364 -0.04237332
0.07599991 0.09947021 0.097912535 -0.08046004 0.15044002 -0.23559943 0.07559075 -0.020954276
-0.0899598 0.025246674 0.15151377 -0.035417907 0.04583516 -0.26431173 0.071222104 0.05528636
-0.21780702 0.014403194 0.102293275 -0.047941815 -0.05761381 -0.19285719 -0.1388284 0.07223131
0.095394306 -0.003537054 0.05169251 0.035780355 0.0004339774 -0.2617234 0.1915152 0.09143945
0.010796803 -0.05740553 -0.021289535 0.053685315 -0.02503607 0.12913679 0.10179303 -0.040053215
0.10059343 -0.058796287 -0.00082264666 -0.1217003 -0.025053702 -0.27750018 -0.21070068 -0.0016742401
0.13403933 -0.11228311 0.082284056 0.044485882 -0.010131387 0.10507757 -0.18633872 -0.18939176
0.11495622 0.013095544 -0.33691913 0.035704933 -0.24734288 -0.0021652656 0.1390879 0.19394355
00000000: cd63 a1bc b97b b9be 3982 0dbe 3eb8 383d
00000010: ab3e 8cbe 540e a8bd 7304 09be bbed 18bd
00000020: 5a1a ebbb c450 35bd 2240 8c3d 37be 04be
00000030: 5078 d73d 262d 57be 2a15 11bf 374c 93bb
00000040: d3f4 9d3d 1051 45be 1e8d 223d 520b d8bd
00000050: a73a 6e3d ba2a 88bc 739f 223d 47cf e13c
00000060: 771d 87bd aae4 ad3d 5f22 7c3e 05f2 38be
00000070: 13fb 01bd 53d7 b23c fbf2 57bc 3c9c 2ebd
00000080: e64f 1cbe 1884 88bc 87d2 843b 9228 05be
00000090: dc13 e7bc 7724 c13c 84bd 3cbe 714c 8e3c
000000a0: 3f6b 86bc 5b1d 953d 931d 063e 1b9f 2e3d
000000b0: e24d abbc 69b7 ca3d 575f 0b3e 9abb a7be
000000c0: 2569 44bc 7dce 353e ac42 d23d 8be8 84bd
000000d0: f783 dcbc 5143 a0be 8db5 10bd 3efe 693e
000000e0: c754 5f3d b801 98bd c0b0 7a3d 7620 b23d
000000f0: 7774 2ebd e2ce 9c3d 1303 cbbc 9b5f b23d
00000100: 3983 9ebc 9820 173d aca1 7cbd f94a 21bd
00000110: a249 a3be 7f6e 8bbd 330d 85bc 3be7 743e
00000120: 800e 893c b08e b3bd 2e5e 773d 253f 543e
00000130: 7525 a33d 0d60 673d 47de e83d ba9f 083d
00000140: 3c75 263e e3be 953d ea72 57bd 4a48 d93d
00000150: 16f6 8c3d da5f 6d3d d993 f6bd fb50 ea3c
00000160: f604 8b3c 7645 9b3d d4fd 8e3d 8a80 7abd
00000170: 6916 b9be 81d6 75bd 7f9c 3a3d 1a26 9c3d
00000180: 7650 82bd c04d 3cbe 3735 ab3d 6d94 aa3e
00000190: 01b4 9c3c 6e82 dc3c 1ccb 97bd 0ff5 143e
000001a0: b38d 2cbd b0ba ecbd 5892 593e aa21 12be
000001b0: 83e7 0fbc 9ecd 28bd e7bd 94bd 1540 76bd
000001c0: 6699 a6be 03dc 53be 099a 503d 71de 0cbd
000001d0: 4386 6bbe b9af f4bd 19ea cf3d 390b a03d
000001e0: 6308 25bd 86cb 80bc 6df3 833e 63dc c23c
000001f0: 66ba f53d 743f 10be c385 573d 1cf9 cd3d
00000200: ebe3 c0bc 45d8 963d 4522 263d 96f7 41bd
00000210: bf74 9bbe a677 a03c 4eaf d5bc 7e39 df3d
00000220: 0c8f 3d3d a2bf fc3d 9a52 203d 3672 71be
00000230: 7cad 20bc a395 103e 090f 87be dcad 75bd
00000240: ad6a 903d 89e3 03be 17af 82bd 1bdc af3d
00000250: d1e6 5abe 4063 13be bd7c c63d f984 e9bd
00000260: 769b 8c3c df15 a23c 5564 323e 5b7e b1bd
00000270: 724b dabd ba7b a63d 27cd 213c 5996 9cbd
00000280: ebac 95bd f5aa 373e 5b06 0c3e 2243 d7bd
00000290: 1b6a a2bd 1503 c1bd 9bbb 013d ccd4 443d
000002a0: 3b82 9bbd e87d 973d ee8a f93d f792 89bd
000002b0: fd74 213e b58d a83c e98a 76bd 0a98 b93c
000002c0: 351d 88bd 5342 92bd a150 f6bd 838c 66bd
000002d0: 3f37 e73d 3316 44bc c72d 973d e2a5 e5bd
000002e0: 863b 04bd b457 ca3d c020 46be f84f 1e3d
000002f0: cd8b 743e 8ad0 1e3e 0be4 d03c a58f 2dbd
00000300: d7a5 9b3d 0ab7 cb3d 5e86 c83d 3cc8 a4bd
00000310: f30c 1a3e fa40 71be 53cf 9a3d 4da8 abbc
00000320: d83c b8bd 1dd2 ce3c 6d26 1b3e 5e12 11bd
00000330: a6bd 3b3d de53 87be e5dc 913d f373 623d
00000340: ce08 5fbe 60fb 6b3c 237f d13d a35e 44bd
00000350: 75fc 6bbd 5b7c 45be 0829 0ebe 02ee 933d
00000360: 175e c33d ebcd 67bb 86bb 533d 6c8e 123d
00000370: 7687 e339 9c00 86be 901c 443e 9b44 bb3d
00000380: 13e5 303c 1022 6bbd 6467 aebc 22e5 5b3d
00000390: 7218 cdbc 6f3c 043e dd78 d03d d70e 24bd
000003a0: ee03 ce3d 60d4 70bd e2a6 57ba 023e f9bd
000003b0: 6c3d cdbc 8114 8ebe ebc1 57be 2d72 dbba
000003c0: 9b41 093e b0f4 e5bd 8b84 a83d d436 363d
000003d0: 1efe 25bc e932 d73d 94cf 3ebe eaef 41be
000003e0: 2b6e eb3d b18e 563c aa80 acbe 563f 123d
000003f0: 7447 7dbe 21e7 0dbb 0f6d 0e3e 2399 463e

shared_net.2.bias f4 [256]
-0.21613105 -0.0449283 0.008894396 -0.08773489 0.0019184671 -0.14534882 -0.13439707 -0.16627237
-0.17664538 -0.09620982 -0.028507657 -0.07907904 -0.087912075 -0.10019509 -0.16952488 0.008588556
-0.12501055 -0.09483554 -0.16434526 -0.0072695957 0.03219614 -0.0963508 -0.16296345 -0.07656849
-0.0038008397 -0.06017958 -0.11566339 -0.05549476 -0.026093554 -0.028511347 -0.06459702 -0.14671826
0.01444563 -0.17091273 -0.14807369 -0.2250419 -0.2063882 0.032928962 -0.13128449 -0.037476134
-0.076458216 -0.19156694 -0.08719686 -0.03380149 -0.10290933 0.012053093 -0.05420866 0.12230822
-0.07909257 0.013995101 -0.05544402 -0.0031248531 -0.06735279 -0.071928926 -0.071860366 0.017936504
0.05781083 -0.17556362 -0.19764367 -0.05808573 -0.007423974 0.303124 0.08868349 0.29498693
-0.06252815 0.012495279 -0.11440983 -0.10463214 -0.028716495 -0.20098673 -0.109853156 -0.014443431
0.097298734 -0.10263958 -0.07446183 -0.11047263 -0.11187251 -0.11788684 -0.11080312 0.14373322
-0.061569605 -0.16786343 0.012034498 -0.18004589 -0.10534915 -0.10547021 0.04257001 -0.09455186
0.07738306 -0.14266683 -0.050709195 -0.07425234 0.040225733 -0.014528484 0.15396865 -0.1054387
-0.018476289 -0.41462097 -0.05663598 -0.033635475 0.08081118 -0.06329793 0.0038714216 -0.042363778
0.041381724 0.03446755 -0.12737216 -0.012259538 -0.044404104 -0.038490515 -0.031159597 -0.07209541
-0.046053376 0.09883994 -0.110030964 -0.17079473 -0.06773998 -0.14347963 -0.013314344 -0.09327832
-0.02224499 -0.11651601 -0.118474945 -0.15387699 -0.17357004 0.14026158 0.05849797 -0.04745456
-0.11486782 -0.06436239 -0.05449858 -0.16143668 -0.13639797 0.27196723 -0.13042179 -0.08293089
0.0036487435 -0.11124977 -0.14540526 0.002239916 0.01253459 0.0650517 0.050451707 -0.16196357
-0.017490488 -0.057618972 0.04208677 0.08712199 -0.10825855 -0.06165623 -0.08528723 0.0044040554
-0.07281724 -0.08525721 -0.083921045 -0.14386135 0.15018646 -0.10869226 -0.050320007 0.1058611
-0.06760922 -0.10316775 -0.15633363 0.016094407 -0.10807104 -0.06253034 -0.14096075 0.013224194
-0.08227135 -0.1014914 -0.10698456 0.041716993 -0.14730565 -0.13987981 -0.075033695 -0.10898816
-0.16885997 -0.004429414 -0.048531782 -0.10798431 -0.1398862 -0.0990499 -0.09387534 -0.114763066
0.16703714 -0.058074746 -0.16194133 -0.06552567 -0.14971668 -0.14456487 0.012627037 0.117601186
0.07614756 -0.11362799 -0.18328977 -0.355823 -0.12586547 -0.0037972115 -0.106547564 -0.028034098
-0.1167939 -0.0526621 -0.062009167 0.027568204 0.018108396 -0.09317624 -0.11222306 -0.08532603
0.053335737 -0.10522962 -0.061995663 0.006583424 -0.090706274 -0.06622043 0.09652889 0.02873124
-0.27089447 0.16787478 -0.12408003 -0.033584513 -0.072664045 -0.062528566 -0.026006615 -0.049034517
-0.084727325 0.02849691 -0.0069569247 -0.2225876 -0.18810628 0.07944035 0.022314759 -0.22236127
-0.20551564 -0.13872378 -0.09149062 0.1431736 -0.109307595 0.066455446 -0.1481641 -0.14094694
-0.07577337 -0.13550052 -0.14975628 -0.07333564 -0.1288793 -0.17091104 -0.09986611 -0.15680277
0.04414374 -0.08477479 -0.26197353 -0.11169352 -0.013125709 -0.17584203 -0.12437416 -0.07788031
00000000: 7551 5dbe bd06 38bd cdb9 113c 5aae b3bd
00000010: 1375 fb3a 52d6 14be 639f 09be 4e43 2abe
00000020: 87e2 34be a709 c5bd e488 e9bc 31f4 a1bd
00000030: 3f0b b4bd 1533 cdbd ee97 2dbe 04b7 0c3c
00000040: c402 00be 2339 c2bd 204a 28be ca35 eebb
00000050: 1ae0 033d 9153 c5bd e4df 26be f1cf 9cbd
00000060: 8217 79bb dd7e 76bd ede0 ecbd 794e 63bd
00000070: 26c2 d5bc a190 e9bc 714b 84bd 503d 16be
00000080: 5dad 6c3c bf03 2fbe a1a0 17be 6271 66be
00000090: 6e57 53be 85e0 063d 716f 06be 9380 19bd
000000a0: 2096 9cbd 202a 44be 4494 b2bd 6e73 0abd
000000b0: 20c2 d2bd 567a 453c e609 5ebd bb7c fa3d
000000c0: 49fb a1bd b54b 653c 4519 63bd 56ca 4cbb
000000d0: 42f0 89bd 794f 93bd 872b 93bd 93ef 923c
000000e0: 0dcb 6c3d f3c6 33be 1a63 4abe 4deb 6dbd
000000f0: cf44 f3bb 1233 9b3e b19f b53d 8708 973e
00000100: c20e 80bd 00b9 4c3c b34f eabd 6049 d6bd
00000110: db3e ebbc 77cf 4dbe b1fa e0bd 24a4 6cbc
00000120: 8f44 c73d b334 d2bd 727f 98bd 793f e2bd
00000130: 6a1d e5bd a86e f1bd bfec e2bd cd2e 133e
00000140: 6930 7cbd 64e4 2bbe 582c 453c f35d 38be
00000150: 4cc1 d7bd c400 d8bd e45d 2e3d 68a4 c1bd
00000160: 027b 9e3d 4117 12be 72b4 4fbd 9c11 98bd
00000170: bdc3 243d e108 6ebc f5a9 1d3e 3ff0 d7bd
00000180: 965b 97bc 3349 d4be 21fb 67bd 5ac5 09bd
00000190: 5580 a53d 58a2 81bd adb7 7d3b a485 2dbd
000001a0: e27f 293d d92d 0d3d d96d 02be 3bdc 48bc
000001b0: 14e1 35bd 3ba8 1dbd 6942 ffbc c2a6 93bd
000001c0: 77a2 3cbd 986c ca3d ea57 e1bd d0e4 2ebe
000001d0: 42bb 8abd 53ec 12be 6824 5abc b408 bfbd
000001e0: 203b b6bc f29f eebd fea2 f2bd ee91 1dbe
000001f0: 58bc 31be bba0 0f3e 919b 6f3d b65f 42bd
00000200: d23f ebbd 6ed0 83bd e739 5fbd a84f 25be
00000210: e9ab 0bbe 4a3f 8b3e 4a8d 05be acd7 a9bd
00000220: c21f 6f3b ebd6 e3bd 1ee5 14be 8ecb 123b
00000230: e25d 4d3c d339 853d 73a6 4e3d c7d9 25be
00000240: 3648 8fbc df01 6cbd 2d63 2c3d 046d b23d
00000250: a9b6 ddbd 3e8b 7cbd 12ab aebd e54f 903b
00000260: 3521 95bd 559b aebd ccde abbd 6450 13be
00000270: 7bca 193e 0c9a debd 5a1c 4ebd b4cd d83d
00000280: b476 8abd 9d49 d3bd ec15 20be 6bd8 833c
00000290: 5954 ddbd e80f 80bd 0458 10be 4aaa 583c
000002a0: e27d a8bd b9da cfbd b91a dbbd 70df 2a3d
000002b0: 4bd7 16be a73c 0fbe 44ab 99bd 2f35 dfbd
000002c0: a1e9 2cbe 9e24 91bb 43c9 46bd e126 ddbd
000002d0: 543e 0fbe adda cabd b741 c0bd e608 ebbd
000002e0: c90b 2b3e c9df 6dbd f3d3 25be 5332 86bd
000002f0: 544f 19be d008 14be a2e1 4e3c e4d8 f03d
00000300: 40f3 9b3d cbb5 e8bd 50b0 3bbe 6f2e b6be
00000310: e1e2 00be a3da 78bb 9c35 dabd c4a7 e5bc
00000320: a431 efbd 37b4 57bd 53fd 7dbd b7d6 e13c
00000330: 0f58 943c 2fd3 bebd 34d5 e5bd 6abf aebd
00000340: 9376 5a3d a182 d7bd 2aef 7dbd c3b9 d73b
00000350: 36c4 b9bd 949e 87bd f0b0 c53d c75d eb3c
00000360: aeb2 8abe 5ee7 2b3e ac1d febd ea8f 09bd
00000370: e3d0 94bd fa0e 80bd d30b d5bc 6bd8 48bd
00000380: 8585 adbd 5a72 e93c eaf6 e3bb 01ee 63be
00000390: ef9e 40be 9fb1 a23d 71cd b63c acb2 63be
000003a0: b172 52be 9b0d 0ebe 6f5f bbbd 1a9c 123e
000003b0: a9dc dfbd cb19 883d 54b8 17be 6554 10be
000003c0: 122f 9bbd a6c0 0abe b659 19be ff30 96bd
000003d0: eff8 03be 4e03 2fbe 9a86 ccbd e890 20be
000003e0: 11d0 343d 689e adbd 6521 86be 92bf e4bd
000003f0: 370d 57bc ef0f 34be e1b7 febd b67f 9fbd

to_mean.0.weight f4 [128, 256]
-0.018955395 0.025274443 0.019914946 0.054338444 0.07057967 0.044240266 0.121378325 0.034112018
0.06588984 0.030723153 0.038106702 -0.009316887 0.100260966 0.09426361 0.08458254 0.05493867
-0.0024149872 -0.0021908667 -0.0049329433 -0.020233255 0.09129728 0.12024676 0.06872909 0.040689662
-0.009146963 0.0292336 0.0012520433 -0.056280904 -0.05502555 0.004697901 0.04963037 0.06729562
0.074555464 -0.0654904 0.13487275 0.06960857 0.022415798 -0.020245312 0.12226639 0.09177945
0.07658587 0.023934785 0.07777443 -0.09855968 0.11889618 0.009412072 0.046077568 0.0056410693
-0.008057487 -0.05406293 0.054468744 0.03430942 0.075931504 -0.048557565 0.16037276 -0.08207781
-0.15495011 -0.011131193 0.023041401 0.11159634 0.084428504 0.046447843 -0.08194726 0.13715222
0.037669912 0.041934732 0.043217055 0.029874073 0.09004484 0.14784104 0.054982945 0.0709561
0.098966226 -0.0033007003 -0.01972541 0.03150593 0.007889146 0.103921 0.068837054 0.048092928
0.08477753 -0.05343446 0.056709353 0.09888502 0.02167916 0.064463034 -0.007613785 0.13930914
0.094100915 0.07192524 -0.12099288 -0.028624035 0.041862484 0.08590653 0.08028199 0.105694205
-0.07400153 0.06245531 -0.008945063 -0.05480299 0.10308454 -0.074268416 -0.0053309645 0.087159775
0.12672214 0.036529467 -0.037110887 -0.031152502 -0.00726679 0.052019145 0.06251898 -0.037806027
0.029156998 0.09919575 0.060248356 0.015335829 -0.028418291 0.099440865 0.053047072 -0.033210065
-0.023499753 -0.032189775 0.07501063 0.0015824973 0.088552184 -0.03777354 0.0111517 0.030027421
-0.097634666 0.052071393 -0.056664318 0.10354648 -0.011747797 0.016737117 0.06841398 0.094459556
0.02406351 0.014609395 0.071156055 -0.02199638 0.12920387 -0.0013447384 0.022879504 0.09117842
0.02534204 -0.02218868 -0.080979146 -0.05067558 0.056649882 0.013659884 0.052937247 0.116516255
0.093985625 0.033043165 -0.0006502527 0.04067756 0.08152286 0.058088336 0.020893598 0.03665338
0.110778645 -0.10285426 0.023049142 0.047857918 0.05466961 0.12134158 0.101109944 0.12277184
0.11283422 0.0245115 0.045574177 -0.015132831 0.024898471 0.021115698 0.10531707 0.03192042
0.07442069 0.020395137 -0.034219697 0.01581442 -0.013175367 0.019244233 0.0337517 0.041265775
0.038108356 0.07532913 -0.013410559 -0.058585577 0.13827641 0.080676675 -0.028120324 0.12589562
0.09560757 -0.04522554 0.04257439 0.08353868 0.008508455 0.031504102 0.029682895 0.0771815
0.10953293 -0.051340744 0.053652577 0.06489592 0.06028389 0.05657353 0.110998966 -0.026172725
0.01972532 0.07344773 0.058327645 0.055169962 0.119835205 -0.05447442 0.056686755 -0.014033444
0.10761657 -0.052057136 0.074483305 0.09942521 0.070803545 -0.059273664 -0.14267176 0.101692006
0.0830706 0.03595282 0.082461216 0.077750854 0.0011019764 0.15053932 0.019561633 0.005495832
0.018069133 0.024657855 0.051120095 0.06953414 0.056047022 0.0626478 0.061109062 0.057922512
0.07004826 0.12023941 0.028832339 0.061861686 0.07896983 0.0822956 -0.03787582 -0.05628592
-0.0037229934 -0.0071469434 -0.022249717 -0.1079381 0.04163455 0.08791714 -0.13414747 0.040828582
00000000: 5848 9bbc 590c cf3c ab24 a33c fd91 5e3d
00000010: 138c 903d 4835 353d 3395 f83d 0bb9 0b3d
00000020: 41f1 863d 1faf fb3c c615 1c3d dba5 18bc
00000030: 9f55 cd3d 480d c13d 9c39 ad3d 5f07 613d
00000040: c344 1ebb a594 0fbb 87a4 a1bb 36c0 a5bc
00000050: 11fa ba3d ef43 f63d d6c1 8c3d 34aa 263d
00000060: 25dd 15bc 4d7b ef3c 9a1b a43a ce86 66bd
00000070: 7962 61bd daf0 993b 3749 4b3d 49d2 893d
00000080: 89b0 983d d51f 86bd 151c 0a3e f08e 8e3d
00000090: 56a1 b73c 7fd9 a5bc cd66 fa3d ddf6 bb3d
000000a0: 0dd9 9c3d e212 c43c 3348 9f3d a8d9 c9bd
000000b0: d77f f33d 1735 1a3c d5bb 3c3d b8d8 b83b
000000c0: 8d03 04bc 1771 5dbd 9e1a 5f3d 0988 0c3d
000000d0: fa81 9b3d 4ce4 46bd c238 243e 6918 a8bd
000000e0: 3eab 1ebe 9b5f 36bc 52c1 bc3c 9f8c e43d
000000f0: dae8 ac3d 1840 3e3d f7d3 a7bd a271 0c3e
00000100: c44b 1a3d c1c3 2b3d 5e04 313d 79ba f43c
00000110: 6e69 b83d a463 173e cc35 613d 6f51 913d
00000120: ceae ca3d 9050 58bb 2f97 a1bc 5d0c 013d
00000130: 7a41 013c 89d4 d43d 71fa 8c3d 17fd 443d
00000140: d79f ad3d 18de 5abd 1148 683d 3b84 ca3d
00000150: 7e98 b13c 3205 843d 0f7d f9bb 0ea7 0e3e
00000160: fbb7 c03d 8a4d 933d 1dcb f7bd f47c eabc
00000170: ff77 2b3d c3ef af3d e26a a43d 3476 d83d
00000180: 1d8e 97bd 24d1 7f3d 508e 12bc 1a79 60bd
00000190: fd1d d33d 0a1a 98bd 5faf aebb d380 b23d
000001a0: 73c3 013e ec9f 153d 9601 18bd 8833 ffbc
000001b0: 411e eebb 0712 553d f309 803d 7eda 1abd
000001c0: a8da ee3c 2427 cb3d fbc6 763d 2143 7b3c
000001d0: 7acd e8bc a7a7 cb3d e347 593d 4707 08bd
000001e0: 8e82 c0bc 6dd9 03bd 2c9f 993d cc6b cf3a
000001f0: d95a b53d 6db8 1abd 9fb5 363c 11fc f53c
00000200: aff4 c7bd d048 553d d818 68bd 2d10 d43d
00000210: d579 40bc 471c 893c a11c 8c3d 0374 c13d
00000220: d720 c53c 3e5c 6f3c 44ba 913d c131 b4bc
00000230: 054e 043e ef41 b0ba cc6d bb3c c0bb ba3d
00000240: 1c9a cf3c 09c5 b5bc 65d8 a5bd 3291 4fbd
00000250: b509 683d b5cd 5f3c bad4 583d 13a0 ee3d
00000260: 897b c03d 4558 073d b875 2aba 839d 263d
00000270: 75f5 a63d 09ee 6d3d 0d29 ab3c db21 163d
00000280: eadf e23d 41a5 d2bd 8ed1 bc3c aa06 443d
00000290: 3eed 5f3d ef81 f83d bb12 cf3d cd6f fb3d
000002a0: a115 e73d 57cc c83c fdab 3a3d b2ef 77bc
000002b0: e1f7 cb3c d4fa ac3c 7ab0 d73d fcbe 023d
000002c0: e069 983d b413 a73c f429 0cbd 3e8d 813c
000002d0: 7fdd 57bc 15a6 9d3c 393f 0a3d 4d06 293d
000002e0: 8217 1c3d 2946 9a3d f6b7 5bbc 6ef7 6fbd
000002f0: 5598 0d3e d039 a53d 985c e6bc c8ea 003e
00000300: e7cd c33d 6a3e 39bd 7c62 2e3d 5416 ab3d
00000310: 0c67 0b3c 720a 013d 8b29 f33c 5611 9e3d
00000320: cd52 e03d ac4a 52bd cec2 5b3d 27e8 843d
00000330: 3eec 763d a5b9 673d 6d53 e33d 2f68 d6bc
00000340: ff96 a13c c36b 963d f8e8 6e3d e6f9 613d
00000350: 296c f53d 9220 5fbd 5f30 683d 88ec 65bc
00000360: 1466 dc3d dd39 55bd b48a 983d 729f cb3d
00000370: 7301 913d f1c8 72bd 8c18 12be e643 d03d
00000380: eb20 aa3d 4443 133d 6de1 a83d d73b 9f3d
00000390: 3170 903a fb26 1a3e b83f a03c 6116 b43b
000003a0: b805 943c 45ff c93c 4e63 513d ea67 8e3d
000003b0: 9091 653d 7d4d 803d 7f4d 7a3d 2840 6d3d
000003c0: 7675 8f3d 1440 f63d cc31 ec3c ae62 7d3d
000003d0: efba a13d 988a a83d ad23 1bbd 118c 66bd
000003e0: 77fd 73bb e830 eabb 0a45 b6bc a70e ddbd
000003f0: fd88 2a3d e70d b43d f45d 09be df3b 273d

to_mean.0.bias f4 [128]
-0.018557506 -0.052116472 0.06585542 -0.12020921 0.008877892 0.018985962 0.052868444 0.043482948
-0.014419847 -0.002260919 -0.020245925 -0.03208522 -0.058207422 0.08918851 0.05501591 -0.09701807
0.054468717 0.041115314 0.036868814 -0.067780666 -0.0012118823 -0.018536333 -0.0011035017 0.012217576
-0.05168291 -0.006466309 -0.048843816 0.025893794 0.070743434 -0.08548271 -0.01380913 0.051373433
-0.041622024 0.06395464 -0.13253643 -0.0092080785 0.06957755 0.0015403801 -0.068210974 -0.09848039
-0.032213047 0.08775421 -0.11186432 -0.02953915 0.03590206 0.038683288 -0.06431919 0.03851244
-0.080589816 0.013782959 0.054802146 -0.050432213 -0.0056081517 -0.083112046 -0.114586115 -0.040883917
-0.0053302795 -0.0001141526 0.004426328 -0.09239343 0.03820171 0.01433372 -0.027431734 0.062335175
-0.031298004 0.010953954 0.014041601 -0.14322688 0.014751044 -0.043261122 -0.06973137 -0.05735604
0.07013891 -0.08822229 -0.09018343 0.050104562 -0.032162335 -0.0579137 0.0013064168 -0.07402629
-0.036077436 0.07172521 0.017655294 -0.0074978364 0.019822467 -0.0775318 -0.049594462 -0.018067295
0.008511683 0.006925605 0.020991525 -0.07002578 -0.09383672 -0.03646514 -0.0014855568 0.001768522
-0.0021482958 -0.10078753 -0.023160713 0.11275604 -0.021833291 0.090279855 -0.10389133 0.015687296
-0.08035147 -0.1006666 -0.07874785 0.009943017 0.07058605 0.007879646 -0.02660858 -0.10047447
0.01471622 -0.06860988 -0.057997603 0.012069755 0.053281743 -0.09274003 0.0022516954 -0.027606474
-0.012644834 -0.07503076 -0.01944096 0.07565585 -0.020942342 -0.023119206 -0.01885493 0.049433313
00000000: e905 98bc 1578 55bd 35df 863d 3f30 f6bd
00000010: 9474 113c 7388 9b3c 958c 583d 2d1b 323d
00000020: 3941 6cbc ed2b 14bb c8da a5bc cb6b 03bd
00000030: e86a 6ebd 77a8 b63d 5d58 613d 69b1 c6bd
00000040: 971a 5f3d 8868 283d c103 173d 97d0 8abd
00000050: 06d8 9eba 82d9 97bc 5fa3 90ba 3a2c 483c
00000060: 76b1 53bd 55e3 d3bb 7410 48bd 391f d43c
00000070: efe1 903d 8f11 afbd b03f 62bc f36c 523d
00000080: db7b 2abd a6fa 823d a1b7 07be 7bdd 16bc
00000090: ad7e 8e3d 94e6 c93a 32b2 8bbd 16b0 c9bd
000000a0: d4f1 03bd 7bb8 b33d 1f19 e5bd 16fc f1bc
000000b0: 0a0e 133d 5e72 1e3d c8b9 83bd 38bf 1d3d
000000c0: 460c a5bd ecd1 613c 3778 603d 0292 4ebd
000000d0: 96c4 b7bb a636 aabd 20ac eabd e575 27bd
000000e0: a0a9 aebb 3665 efb8 bb0a 913b c438 bdbd
000000f0: 6579 1c3d fbd7 6a3c 84b8 e0bc 2b53 7f3d
00000100: 5632 00bd 3778 333c be0e 663c 11aa 12be
00000110: 5dae 713c 9332 31bd 52cf 8ebd 2bee 6abd
00000120: fda4 8f3d e3ad b4bd 17b2 b8bd 713a 4d3d
00000130: a7bc 03bd ea36 6dbd 133c ab3a 189b 97bd
00000140: efc5 13bd abe4 923d d6a1 903c 69b0 f5bb
00000150: ba62 a23c fec8 9ebd 9023 4bbd dd01 94bc
00000160: 9674 0b3c 2ff0 e23b 6bf6 ab3c ad69 8fbd
00000170: 772d c0bd 785c 15bd 04b7 c2ba c0cd e73a
00000180: 6cca 0cbb b169 cebd 89bb bdbc a4ec e63d
00000190: bbdb b2bc a5e4 b83d fac4 d4bd a582 803c
000001a0: 508f a4bd 4a2a cebd 8e46 a1bd 09e8 223c
000001b0: 6b8f 903d a119 013c 3dfa d9bc 8fc5 cdbd
000001c0: 4d1c 713c 5683 8cbd e58e 6dbd 39c0 453c
000001d0: f53d 5a3d 7cee bdbd 2e91 133b f926 e2bc
000001e0: 472c 4fbc baa9 99bd a642 9fbc 74f1 9a3d
000001f0: 468f abbc 7d64 bdbc a775 9abc 967a 4a3d

to_mean.2.weight f4 [18, 128]
-0.03255128 -0.011250061 0.06589758 -0.028930517 -0.010045535 -0.0023232405 0.07248936 0.021095099
-0.03913656 0.03201868 -0.04080343 -0.13126564 -0.013576468 -0.025100004 0.012297393 -0.06883499
0.04669337 -0.042051375 0.08366159 -0.027399214 0.006509515 0.0005878667 0.021582153 0.10151082
0.018123576 0.019072933 0.066524 0.031689912 -0.027655741 -0.08072567 0.040410485 0.007988567
0.06363061 -0.056912366 0.0963185 0.016245196 -0.012082569 -0.11475965 0.02765886 -0.032172866
-0.08532571 0.037898816 -0.047213845 0.041102935 0.05764161 0.057120137 0.028795231 0.006917917
0.009171444 0.08403568 0.025356805 0.0035035252 -0.053359102 -0.08141987 0.018101243 -0.046177763
0.05474003 0.037575547 0.041733228 0.03880153 0.020689983 0.0032489998 -0.06354044 -0.04050984
-0.042594343 0.068750024 0.035241395 -0.12211851 -0.0026595804 0.037833832 -0.0016778687 -0.037034124
0.07431761 0.01735725 0.07568684 0.018728312 -0.012454257 0.02720958 0.08251796 0.02594669
-0.009876866 -0.029516447 0.074628256 -0.038168 0.019050676 0.008725043 -0.019167732 -0.0013973577
-0.0826562 0.057217687 -0.025681373 0.04893759 0.037026443 -0.04570673 0.062218312 0.015983528
-0.07953285 -0.008181596 -0.012959457 0.07461631 -0.06831278 0.013125185 -0.002627963 -0.105909124
0.0028859456 -0.011615372 -0.11661017 0.00936836 0.05586183 -0.002897181 0.0799995 0.00630551
-0.08043001 -0.052927975 -0.05625701 0.008172645 -0.013981027 -0.020944852 -0.10607637 -0.064200476
-0.045068197 -0.08911368 0.058716506 -0.02930808 -0.001582987 -0.060595408 -0.025911154 0.03964732
-0.0045546643 0.04572596 0.10047624 -0.024031054 -0.062613875 -0.04439638 0.07736914 0.04656535
-0.043531384 0.011090683 0.05040819 -0.020298867 -0.038552005 -0.013952435 0.0014837435 -0.072011866
0.08280592 0.018547663 0.13457596 -0.06537224 0.082212664 0.034826282 -0.031917345 -0.038842842
-0.07717163 0.053686664 0.035769105 0.07911539 -0.036188558 -0.056211144 0.041479178 0.01703205
0.04864337 -0.06613167 0.067173585 -0.013030091 0.012339835 -0.060698323 0.0051044156 0.024593573
-0.054313853 -0.007393609 -0.0049528605 0.07154513 0.1064075 0.011102099 -0.0052153636 0.060598083
0.009952483 0.045772027 0.065642245 -0.070114926 -0.038985 -0.0562544 0.0132206725 -0.032314565
0.068079695 0.10284336 0.054922897 0.002102773 -0.0025852353 0.025280425 -0.08377968 0.0069407774
-0.019303897 0.08320686 -0.0059285224 -0.10777508 -0.0483337 -0.012585135 0.03382209 -0.022814972
0.063013345 0.006756704 0.037459042 0.055609025 0.006871442 -0.0072091934 0.035398547 0.0040766555
0.101283 -0.057003714 0.00764909 -0.0015358719 0.024571482 0.056453146 -0.064346425 -0.0046806834
-0.012677493 -0.0039022067 0.055588476 0.092163034 0.05250215 -0.023652336 0.06182478 0.028110493
-0.07290177 0.000118271906 -0.008733543 -0.0366653 0.030972619 -0.037608605 0.0050937845 0.04502242
0.002473569 -0.046336714 -0.06099974 0.025620405 0.10424832 0.03655467 0.05951883 0.038224936
-0.056804787 -0.10329639 -0.048403863 0.043076195 -0.042257164 0.05314644 -0.05628392 -0.08600077
0.023447754 -0.051172044 0.10444382 -0.052193627 0.085408114 -0.041933924 0.05021453 0.023700945
00000000: 7e54 05bd 2d52 38bc 4ff5 863d b1ff ecbc
00000010: 0796 24bc 8241 18bb 4d75 943d a1cf ac3c
00000020: a84d 20bd 0526 033d 7f21 27bd 806a 06be
00000030: d66f 5ebc 869e cdbc 017b 493c 5cf9 8cbd
00000040: 8c41 3f3d 103e 2cbd c556 ab3d 5174 e0bc
00000050: c54d d53b 111b 1a3a 0ecd b03c e8e4 cf3d
00000060: e577 943c d73e 9c3c bc3d 883d 48cd 013d
00000070: 4b8e e2bc 8053 a5bd 7785 253d 7be2 023c
00000080: c450 823d f11c 69bd a242 c53d a514 853c
00000090: f8f5 45bc 1b07 ebbd d594 e23c b2c7 03bd
000000a0: 3fbf aebd ca3b 1b3d 4e63 41bd 8d5b 283d
000000b0: 9c19 6c3d cef6 693d fae3 eb3c b2af e23b
000000c0: d343 163c e61a ac3d 13b9 cf3c 669b 653b
000000d0: 138f 5abd 76bf a6bd 0f49 943c e524 3dbd
000000e0: 1537 603d d1e8 193d 76f0 2a3d 5aee 1e3d
000000f0: 0a7e a93c 2ced 543b 7d21 82bd a5ed 25bd
00000100: 6877 2ebd d0cc 8c3d 4859 103d 4519 fabd
00000110: 5b4c 2ebb a6f7 1a3d eeeb dbba 18b1 17bd
00000120: d533 983d cb30 8e3c b401 9b3d 1e6c 993c
00000130: f10c 4cbc a0e6 de3c 2dff a83d 278e d43c
00000140: 94d2 21bc 7acc f1bc b3d6 983d 0c56 1cbd
00000150: 2a10 9c3c 7cf3 0e3c a605 9dbc 8b27 b7ba
00000160: a747 a9bd 185d 6a3d be61 d2bc c872 483d
00000170: 0aa9 173d fb36 3bbd a1d8 7e3d e3ef 823c
00000180: 1ee2 a2bd 1a0c 06bc e753 54bc 70d0 983d
00000190: 92e7 8bbd 040b 573c e739 2cbb e2e6 d8bd
000001a0: 2222 3d3b 674e 3ebc 50d1 eebd c07d 193c
000001b0: 60cf 643d a2de 3dbb c7d6 a33d 749e ce3b
000001c0: 7db8 a4bd 01cb 58bd c06d 66bd 8fe6 053c
000001d0: ad10 65bc 8a94 abbc 913e d9bd 8a7b 83bd
000001e0: 6e99 38bd 3c81 b6bd b880 703d 8017 f0bc
000001f0: 3b7c cfba e432 78bd a143 d4bc 3a65 223d
00000200: 4b3f 95bb 254b 3b3d 7dc6 cd3d c6dc c4bc
00000210: b43b 80bd fbd8 35bd b673 9e3d 4fbb 3e3d
00000220: f74d 32bd b2b5 353c d178 4e3d cf49 a6bc
00000230: b5e8 1dbd c198 64bc 2c7a c23a f57a 93bd
00000240: 2696 a93d 45f1 973c 48ce 093e e2e1 85bd
00000250: 1d5f a83d 01a6 0e3d c3bb 02bd ac19 1fbd
00000260: 290c 9ebd 8ce6 5b3d a082 123d 4007 a23d
00000270: 743a 14bd a83d 66bd 12e6 293d cc86 8b3c
00000280: 453e 473d 0a70 87bd 4e92 893d 2a7c 55bc
00000290: 052d 4a3c ce9e 78bd f142 a73b 7678 c93c
000002a0: 3478 5ebd 1646 f2bb 9b4b a2bb 4186 923d
000002b0: 2dec d93d 94e5 353c a4e5 aabb b235 783d
000002c0: bd0f 233c 737b 3b3d 716f 863d 6a98 8fbd
000002d0: bcae 1fbd 046b 66bd 859b 583c 475c 04bd
000002e0: 5e6d 8b3d 8a9f d23d d5f6 603d adce 093b
000002f0: 0d6d 29bb e518 cf3c ae94 abbd 766f e33b
00000300: 3523 9ebc 5c68 aa3d 0d44 c2bb 2eb9 dcbd
00000310: 8ff9 45bd e231 4ebc 0889 0a3d 77e6 babc
00000320: 240d 813d 5767 dd3b a76e 193d 4ac6 633d
00000330: d529 e13b 193b ecbb 11fe 103d 7795 853b
00000340: 766d cf3d ba7c 69bd 38a5 fa3b 4f4f c9ba
00000350: 224a c93c 6a3b 673d 0fc8 83bd 6b60 99bb
00000360: 42b5 4fbc 2abc 7fbb beb0 633d f9bf bc3d
00000370: 7f0c 573d 8bc2 c1bc fb3b 7d3d fa47 e63c
00000380: 864d 95bd bf08 f838 2217 0fbc 5b2e 16bd
00000390: 4aba fd3c 7b0b 1abd c3e9 a63b 6e69 383d
000003a0: 9a1b 223b 91cb 3dbd ddda 79bd e2e1 d13c
000003b0: 2580 d53d 5aba 153d 04ca 733d c091 1c3d
000003c0: 23ac 68bd 0f8d d3bd 2143 46bd aa70 303d
000003d0: d915 2dbd 15b0 593d f889 66bd 2c21 b0bd
000003e0: 8115 c03c c799 51bd a4e6 d53d fcc8 55bd
000003f0: 73ea ae3d e8c2 2bbd c0ad 4d3d 7c28 c23c

to_mean.2.bias f4 [18]
-0.04592857 0.036732413 -0.01035996 -0.10239322 0.014010107 -0.07271568 -0.09046399 -0.0043479763
0.032205235 -0.06734895 -0.067939825 -0.037165746 0.070235275 -0.10393369 -0.09222418 -0.009981267
0.12610777 -0.017344998
00000000: 991f 3cbd ba74 163d d2bc 29bc 89b3 d1bd
00000010: a68a 653c f5eb 94bd 2f45 b9bd 7879 8ebb
00000020: a3e9 033d 3fee 89bd 0924 8bbd 1c3b 18bd
00000030: 83d7 8f3d 30db d4bd 08e0 bcbd 7888 23bc
00000040: 6522 013e 1917 8ebc

to_value.0.weight f4 [128, 256]
0.09139719 0.09320197 0.12211011 0.08553427 0.05281014 0.0064479955 -0.052666936 0.10570405
0.136249 0.042837113 -0.1175964 -0.07299644 0.020123335 0.11032555 -0.11157237 -0.030319707
0.1890498 0.064788915 0.050339364 0.052667968 -0.015522464 0.08981804 0.054792076 0.07079365
0.024387157 0.2677639 0.08403752 0.043879222 0.06957498 0.119477734 -0.22411175 0.032492813
0.27335566 -0.021906622 0.16253848 0.04778118 0.19077475 -0.0505653 -0.14798693 0.15924759
-0.12107368 -0.009432885 0.144693 -0.14587563 0.14309692 -0.0354329 -0.07104343 0.034346137
-0.14509758 0.15734804 0.1052908 -0.13660614 -0.11169284 0.08087478 -0.03437808 0.13100566
0.10997813 0.054499395 -0.22654933 0.0764886 0.15213887 -0.010825732 -0.056939267 0.13305639
0.13427432 -0.00021927172 0.21000722 0.11077546 0.09288466 0.10925824 0.060310528 0.020922203
0.10330496 0.1433309 0.05434 0.053785324 0.0047863843 -0.021054696 0.022134215 0.028108759
-0.07926694 -0.07470604 0.18655287 0.08341615 0.1108413 0.09452685 0.0053697187 0.1250936
0.19325331 0.21211131 0.023255877 0.053660877 0.13576648 0.12689514 -0.078762025 0.10784921
0.041154634 0.28086558 -0.05611754 -0.21329035 0.1382265 -0.08291697 0.12165493 0.09478052
0.26179692 -0.12633039 -0.021268176 0.040683955 -0.12835187 0.21088788 0.116525955 0.012734638
-0.090665825 -0.17989954 0.016125504 0.10174529 0.1368323 0.030144477 -0.039507017 0.23096329
0.072145656 -0.039644018 0.092243716 0.16691248 -0.062607944 0.10011165 -0.055426244 -0.03838647
0.07821138 0.07019642 0.032173716 0.0064971573 0.047558706 0.14380072 0.18088636 0.17732008
0.047951743 0.0898072 0.005917627 0.18093185 0.012006939 -0.016933816 0.13270153 0.061023656
0.007148347 -0.048182495 -0.03537488 0.050218113 0.053765 0.07082202 0.12036948 0.17075019
0.117753975 0.10082969 -0.06719325 0.16978383 0.03286191 0.04156352 0.052039586 0.0023542729
0.13609916 0.0684824 0.064144336 0.070849374 0.079413615 0.028071215 -0.041977204 0.14882591
-0.058101427 0.077321924 -0.013079327 0.11345541 -0.029618395 0.055399537 0.053938437 0.15723407
0.21343674 0.030926138 0.086403236 0.22386456 0.05302168 0.04693635 0.13725153 0.001564869
0.07536568 0.048701342 0.11393472 0.053999644 0.0876995 0.16601637 0.15594071 -0.021836942
0.12028276 0.02993256 0.22575116 -0.08544092 0.2316042 0.097399876 0.024703065 0.14564723
-0.05384323 -0.08670555 -0.09162543 -0.043716136 0.4174623 0.18212359 -0.110240325 0.27738893
-0.20614095 -0.17396656 0.05503921 -0.057614107 -0.058806837 -0.0025815938 -0.15619996 0.15272723
0.07850615 0.09715621 0.07256095 0.16771711 0.11641853 0.08293569 -0.0019442143 0.006192971
0.07855921 0.16217303 -0.022705814 0.02588344 0.0738501 0.060894486 0.04042048 0.15295342
0.0075076106 0.09120875 0.071756884 0.16001564 0.09233882 0.10061136 0.0037317125 -0.038121477
0.14214583 -0.036275614 0.031245586 -0.0017508981 0.10422368 0.29930964 -0.051587135 0.09258787
0.118771985 0.23539929 0.13151343 -0.047046654 0.040294517 0.07561657 -0.014754153 -0.06597075
00000000: 732e bb3d ade0 be3d de14 fa3d 972c af3d
00000010: 724f 583d b549 d33b 49b9 57bd 5d7b d83d
00000020: dc84 0b3e f875 2f3d 62d6 f0bd 287f 95bd
00000030: b1d9 a43c 5df2 e13d 0e80 e4bd 0961 f8bc
00000040: 4596 413e 0db0 843d a630 4e3d 5eba 573d
00000050: ef51 7ebc 85f2 b73d a86d 603d 43fc 903d
00000060: 93c7 c73c 5a18 893e dd1b ac3d b3ba 333d
00000070: 547d 8e3d beb0 f43d 8d7d 65be 2f17 053d
00000080: 46f5 8b3e 8475 b3bc 7d70 263e 33b6 433d
00000090: 755a 433e 8f1d 4fbd e389 17be cd11 233e
000000a0: 7af5 f7bd 638c 1abc 672a 143e 6c60 15be
000000b0: 0088 123e 1722 11bd 387f 91bd 89ae 0c3d
000000c0: 7694 14be d81f 213e b4a2 d73d 7be2 0bbe
000000d0: 37bf e4bd ada1 a53d 08d0 0cbd 5926 063e
000000e0: 373c e13d c23a 5f3d 8cfc 67be 0ea6 9c3d
000000f0: 4bca 1b3e 695e 31bc 2639 69bd ef3f 083e
00000100: 357f 093e 4eec 65b9 220c 573e 3fde e23d
00000110: 503a be3d c9c2 df3d 2c08 773d 0a65 ab3c
00000120: 8d91 d33d 56c5 123e 9f93 5e3d 004e 5c3d
00000130: 1ad7 9c3b e67a acbc d052 b53c 5744 e63c
00000140: b556 a2bd 7bff 98bd b707 3f3e 16d6 aa3d
00000150: c300 e33d 4b97 c13d 77f4 af3b 8918 003e
00000160: 32e4 453e b533 593e 1c83 be3c 82cb 5b3d
00000170: 5e06 0b3e cdf0 013e fc4d a1bd 0ce0 dc3d
00000180: c391 283d 9dcd 8f3e 81db 65bd c968 5abe
00000190: 3f8b 0d3e 5fd0 a9bd 3826 f93d 4a1c c23d
000001a0: 3f0a 863e c15c 01be 993a aebc 38a4 263d
000001b0: ac6e 03be fef2 573e 29a5 ee3d f1a4 503c
000001c0: 01af b9bd 9637 38be a219 843c d65f d03d
000001d0: c41d 0c3e 8df1 f63c 1cd2 21bd a481 6c3e
000001e0: 1ac1 933d c461 22bd 46ea bc3d 1beb 2a3e
000001f0: 9838 80bd 5607 cd3d a106 63bd 223b 1dbd
00000200: 4a2d a03d 24c3 8f3d 96c8 033d 1be6 d43b
00000210: ebcc 423d 7f40 133e 463a 393e 6593 353e
00000220: 0c69 443d d6ec b73d a7e8 c13b 3346 393e
00000230: c1b8 443c c9b8 8abc e9e2 073e f1f3 793d
00000240: ae3c ea3b 025b 45bd 40e5 10bd 82b1 4d3d
00000250: b038 5c3d 230b 913d 4684 f63d 23d9 2e3e
00000260: ff28 f13d cc7f ce3d 9d9c 89bd d0db 2d3e
00000270: 369a 063d 823e 2a3d 7627 553d 254a 1a3b
00000280: 945d 0b3e 8040 8c3d 1b5e 833d 7a19 913d
00000290: 9ba3 a23d 9bf5 e53c 4af0 2bbd d265 183e
000002a0: c3fb 6dbd f55a 9e3d ac4a 56bc 4f5b e83d
000002b0: 47a2 f2bc a0ea 623d 8dee 5c3d f801 213e
000002c0: 298f 5a3e d058 fd3c 2ef4 b03d c03c 653e
000002d0: 432d 593d 5540 403d aa8b 0c3e 4a1c cd3a
000002e0: 5259 9a3d 0f7b 473d 9b56 e93d bb2e 5d3d
000002f0: cc9b b33d 3200 2a3e ecae 1f3e 63e3 b2bc
00000300: cf56 f63d 2135 f53c 502b 673e a6fb aebd
00000310: a729 6d3e 9679 c73d 155e ca3c 8c24 153e
00000320: b88a 5cbd ae92 b1bd 1da6 bbbd b10f 33bd
00000330: 9ebd d53e 9b7e 3a3e aec5 e1bd ec05 8e3e
00000340: 9d16 53be 4a24 32be cb70 613d c5fc 6bbd
00000350: 70df 70bd f52f 29bb e2f2 1fbe 8764 1c3e
00000360: d5c7 a03d d6f9 c63d d69a 943d 09be 2b3e
00000370: d76c ee3d 30da a93d 02d5 feba 68ee ca3b
00000380: a7e3 a03d b010 263e 8b01 babc 8209 d43c
00000390: b93e 973d 7f6c 793d f28f 253d d29f 1c3e
000003a0: 6702 f63b a7cb ba3d 46f5 923d 24db 233e
000003b0: 231c bd3d 540d ce3d bf8f 743b 4425 1cbd
000003c0: ad8e 113e bd95 14bd bef6 ff3c 647e e5ba
000003d0: 3a73 d53d 1d3f 993e 084d 53bd b69e bd3d
000003e0: ba3e f33d 830c 713e 75ab 063e feb3 40bd
000003f0: dd0b 253d dcdc 9a3d 67bb 71bc ac1b 87bd
