saves/save3_1_23/save2_Standing_12600.pth (torch, 942043 bytes, 11 tensors)

shared_net.0.weight f4 [512, 67]
000000 1d fc 2c 3d 2f 6a 55 bd 8d a3 b7 bd 71 4a 3b be
       0.04223262 -0.052103218 -0.08966742 -0.18290116
000010 a2 ed 4d bd 03 b2 0f bd 66 ae ee 3d 31 76 bd 3d
       -0.050275452 -0.035081875 0.116543576 0.09251059
000020 16 e1 2e 3d ff 23 16 3d 52 3e b2 bf eb a9 31 be
       0.042695127 0.036655422 -1.3925269 -0.17349975
000030 15 93 b6 be 5f 82 37 be f5 85 2e bc dd 08 a2 3c
       -0.3565909 -0.17920826 -0.010652055 0.019779617
000040 12 1c 0c bd 7a b2 be 3c 79 e1 0b be a8 21 83 bc
       -0.034206457 0.023278464 -0.1366023 -0.01600726
000050 d3 b7 45 3d 01 d7 08 3e 63 07 e1 3d 69 3d 8f 3e
       0.04827101 0.13363267 0.10987737 0.2797654
000060 ce 47 8b bb 47 1a 54 3b 39 c2 54 be 1c df 22 3d
       -0.004250503 0.0032364295 -0.20777215 0.039763555
000070 6f a3 c2 bd 55 d0 a6 bd 31 b1 82 bd b9 af b8 3d
       -0.09503829 -0.08145205 -0.06381453 0.090178914
000080 a6 d7 cd bc 2f 6e 64 3b 1e 1a f4 3a 30 07 0d bc
       -0.025127243 0.0034855714 0.0018623506 -0.008607671
000090 d3 38 a9 ba e0 9b ab 3c c2 2b 05 3b c0 53 10 3d
       -0.0012910612 0.02094835 0.002032027 0.03523612
0000a0 20 07 ec 3b f8 b3 b1 3b 80 ce 92 3a b8 9e 37 3b
       0.007202998 0.0054230653 0.0011200458 0.0028018188
0000b0 10 02 34 3a 6d a2 1d bb 5b 57 f1 3b 40 d6 82 3c
       0.00068667624 -0.0024053112 0.00736515 0.015971303
0000c0 61 a4 5b be a3 b1 4b bd 28 48 f7 3c 5f 23 05 3e
       -0.21449424 -0.049729954 0.030185774 0.13001774
0000d0 13 99 7a 3d 34 76 3d 3d 91 f1 87 bd 97 3d fa bb
       0.06118114 0.046255305 -0.06637872 -0.0076367366
0000e0 8c 67 19 3c ae 52 0d be 60 84 0a 3d 5c 33 eb bc
       0.009363066 -0.13801071 0.03381765 -0.028711013
0000f0 68 c0 ba 3d 8f c3 a0 3c d5 73 bc bd 4d 77 be 3d
       0.0911873 0.0196245 -0.09201781 0.093000986
000100 d9 78 e0 3d 9f cd 06 bd 6c 1a c4 bd 4e 35 9e bc
       0.1096055 -0.03291094 -0.09575352 -0.019312527
000110 30 0f 1a 3d 84 ce 27 3d de 5f e1 bd 9c bd 7f bd
       0.03761214 0.040968433 -0.11004613 -0.062436685
000120 7f 7a fb 3d 3b c4 84 3d e6 0e c9 3d 09 d2 94 3e
       0.12279224 0.064827405 0.09817295 0.29066494
000130 3e 11 05 3d cd 04 80 bf 96 79 c8 bc 91 62 05 3d
       0.032487147 -1.0001465 -0.02447204 0.032564703
000140 b5 e8 34 be 86 c6 6d 3e e7 0d 20 3e d0 80 0c 3d
       -0.17666896 0.23220262 0.15630303 0.034302533
000150 48 d8 d2 3e c5 e4 ee bd b1 78 68 be 14 48 b2 3d
       0.41180634 -0.11664728 -0.2270229 0.08705154
000160 63 62 39 3e df 39 25 bd 86 2f b5 3d 54 47 32 be
       0.18103938 -0.040338393 0.08846955 -0.17410022
000170 ce 6f 80 3d 67 be e6 3d 3d a5 3b be 7e a5 e6 bc
       0.06271325 0.11266785 -0.18324752 -0.028155085
000180 ec 47 b5 bd e8 40 39 bb 66 d0 fb bc 4e 79 e7 bc
       -0.08851609 -0.0028267447 -0.03073902 -0.028256085
000190 99 74 a6 3a c8 e3 99 3b 2a 01 7d bc 9e b4 b3 3b
       0.0012699544 0.004696343 -0.015442172 0.0054841777
0001a0 00 2d f8 bc 79 3f 95 3d 9b f9 08 bd a3 ee 55 bc
       -0.030294895 0.07287497 -0.033441167 -0.013057384
0001b0 7a 19 0c 3b a9 94 d1 3a ff 81 6d 3a 9a 65 a6 bb
       0.002137749 0.0015989739 0.00090602034 -0.00507803
0001c0 79 2f 08 3c 1c cc 97 3b 25 40 47 3c 19 57 84 bd
       0.0083121 0.004632486 0.012161289 -0.06461925
0001d0 8b bc 30 bd 9b 57 9f 3d 54 7a c5 bc da a1 16 3e
       -0.04314856 0.07780381 -0.024106182 0.14710179
0001e0 a8 6c 10 3d cb da 1f be 51 cf 8b bd 83 da 37 3d
       0.035259873 -0.15610807 -0.06826652 0.044886123
0001f0 7a 3b ba bd 47 f4 0b be e3 d7 aa bd cc a6 c4 3b
       -0.090933755 -0.13667403 -0.083419584 0.006001329
000200 60 97 80 bc e6 c4 07 be 86 da 16 3d 41 31 2c 3e
       -0.015697181 -0.13258705 0.036829494 0.16815664
000210 87 ae 30 be 86 98 b3 bc 1f 92 09 3f 4f 15 83 3c
       -0.17254077 -0.021923315 0.5373859 0.016001372
000220 30 09 97 3c 74 40 ad bc 40 75 81 bc 40 95 ef 3d
       0.018436998 -0.021148898 -0.01580298 0.11698389
000230 95 5c 22 3d b8 b5 65 3d 53 e2 e2 3d 80 75 4a 3c
       0.039639074 0.056081504 0.11078324 0.012357116
000240 1a 90 38 bf 15 a9 6f bd 6c d2 e3 3d 85 3d 50 3c
       -0.7209488 -0.05851086 0.11124119 0.01270998
000250 d6 91 e4 bb fe 11 8f bd d9 08 82 bd 9b d4 85 bd
       -0.006975393 -0.069858536 -0.06349344 -0.06534692
000260 49 ce e6 3c af 67 b7 bb 6b a7 3f 3e ac a1 2a be
       0.028174536 -0.005597077 0.18716209 -0.16663235
000270 88 04 06 3e e9 cc 08 bd ff 8b 09 be ce 5e 40 bd
       0.13087666 -0.033398543 -0.1343231 -0.046965413
000280 06 25 7b bd 46 7f 1e 3d a8 fa e2 bd dd c9 d1 bd
       -0.061314605 0.038695596 -0.11082965 -0.102435805
000290 ef da b0 bb 36 2c 01 3d 44 aa 01 bd cd 2d c8 b9
       -0.0053971927 0.031536303 -0.03165652 -0.00038181097
0002a0 a3 b1 12 3b 94 02 ab bb 0f 64 8c 3c 17 62 bb bb
       0.0022383712 -0.005218813 0.017137555 -0.0057184803
0002b0 0b cc 52 3d fe d1 46 3c a8 b9 1b bd 38 72 a5 3c
       0.05146412 0.012135027 -0.038018852 0.020196065
0002c0 1a 40 76 3a 2b cc dc bb ec fd 22 3c b5 12 c5 bb
       0.0009393707 -0.006738206 0.009948235 -0.006014193
0002d0 11 7e 5d 39 11 af a4 b9 86 3b e7 3d 19 96 aa 3d
       0.00021123166 -0.00031410952 0.1129065 0.0832941
0002e0 c7 c9 fc 3d 52 a7 44 3c 11 fd 01 3c 5b 71 df 3b
       0.123431735 0.012002783 0.007933871 0.006818933
0002f0 22 9a f6 bd f0 20 8a 3d a4 c9 ef 3d de 8d 63 3c
       -0.12041117 0.067445636 0.11708382 0.013888804
000300 df 61 b2 bb cd 9f 2d bc 34 01 92 bd fb 20 3c bd
       -0.005443796 -0.0105971815 -0.07129136 -0.04592989
000310 86 52 e7 bd 52 28 7b 3d 36 61 9e bd 0c 12 13 bc
       -0.11295037 0.06131775 -0.07733385 -0.008976471
000320 e0 6f 7e bc 9a 8a d7 3e 83 eb 64 bd 04 43 3f bc
       -0.015529603 0.42097932 -0.055888664 -0.011673693
000330 54 64 a7 bd 4e e1 80 3c 68 33 db 3c 45 88 70 bb
       -0.08173433 0.015732434 0.02675791 -0.0036702317
000340 41 95 28 3d 65 f2 02 bd 61 0d f3 3a c7 f8 63 bf
       0.041157965 -0.031969447 0.0018543416 -0.8905148
000350 fe 93 1d 3e df a2 33 be d7 08 bc bd 3e bb cb 3c
       0.15388486 -0.17542599 -0.091813736 0.024869557
000360 b8 b0 6e be 2c 25 9e bd 92 93 13 3e 37 6c 96 be
       -0.233096 -0.07721934 0.14411762 -0.29379436
000370 3e dd d6 3d 77 34 5c 3e c8 70 cd bd 9d 07 75 bd
       0.10491417 0.21504389 -0.10031277 -0.059821714
000380 94 2d 2c be 1e d1 82 3e f4 41 6c bd 12 1d 9c be
       -0.16814262 0.2555017 -0.057680085 -0.3049093
000390 9d db 34 3e e0 fa 45 3d 27 0c 14 3e 40 c6 2b 3d
       0.17661901 0.048334956 0.14457761 0.041937113
0003a0 08 30 a3 bd eb 44 e9 bc f1 83 c0 ba 78 3f 1a bc
       -0.079681456 -0.028475245 -0.0014687759 -0.009414546
0003b0 3e 81 89 3c f3 5b a7 bc 3e 24 2a bc 63 05 d2 3b
       0.01678526 -0.020429587 -0.010384617 0.0064093336
0003c0 d8 6b 2a 3d aa 32 9e 3d be 24 6c bd 16 9a a8 bb
       0.041606754 0.07724507 -0.057652228 -0.0051453216
0003d0 b8 2e ef 3b 16 94 b2 bb b9 dc 7d bb 82 86 9b bc
       0.0072992705 -0.005449782 -0.0038736297 -0.018985037
0003e0 ec 0d cb bb 43 aa 0d be d0 b0 52 bd 99 48 1a bc
       -0.006196728 -0.13834481 -0.051438153 -0.009416723
0003f0 5c 0b 17 3e d3 fa 13 bc 8f d7 78 bd 53 9b f4 bd
       0.14750427 -0.009031969 -0.060752448 -0.11943688

shared_net.0.bias f4 [512]
000000 9b b7 c5 bc 5e 4c 47 3d 43 ff aa bd 45 ec 03 bb
       -0.024135401 0.048656814 -0.083494686 -0.0020129841
000010 4e 55 3c be 52 b1 d5 bc a1 e2 80 bc 76 16 b3 3d
       -0.18391916 -0.02608553 -0.015733065 0.087445185
000020 b3 fc d9 bd 4b bb 09 3d ee d3 c1 3d b1 b2 b1 bc
       -0.10643902 0.033625882 0.094642505 -0.021691652
000030 ed da 84 3c 92 d7 31 be 21 5e 18 3c 5e 8d de bd
       0.016217673 -0.1736739 0.009299786 -0.108668074
000040 b4 c9 ee bd b0 b6 37 bc 8d a8 56 3d 9d b2 96 bd
       -0.116595656 -0.01121299 0.052406836 -0.073582865
000050 6b 99 0c 3e 38 d4 e7 3c e0 aa aa 3d 6a 10 26 bd
       0.137304 0.028299436 0.08333373 -0.040542997
000060 3e bd ad 3d 1d a3 17 bb 5b f3 80 bc 01 35 12 3e
       0.08483361 -0.0023137995 -0.01574104 0.14278032
000070 8f ce 1e bd 90 86 91 bd 71 45 a9 3d 4f 9d df 3d
       -0.03877121 -0.07105744 0.08265198 0.10918676
000080 bc 6a 36 3e 75 9e cb 3d 04 8b 82 bc d1 7e 3f 3c
       0.17814153 0.09942333 -0.015935428 0.01168795
000090 c2 2d 25 3d c8 67 bd 3d 3d b8 13 bd f5 e7 d1 bd
       0.04032684 0.0924831 -0.036064375 -0.102493204
0000a0 cf 45 00 be a2 1a 58 be b7 b2 9a 39 d4 7a 13 3d
       -0.1252663 -0.2110391 0.00029506322 0.03600581
0000b0 a2 df a9 bd 80 d1 8c be eb 29 b4 bd 81 8a 13 3e
       -0.08294608 -0.27503586 -0.08797058 0.14408304
0000c0 2b 8d 30 be 08 c0 74 be c4 64 28 be b0 b6 82 bd
       -0.17241351 -0.23901379 -0.16444689 -0.06382501
0000d0 a9 c8 cc 3d 74 22 77 3e 74 61 f0 bd 1f 56 2b be
       0.099992104 0.24134237 -0.11737338 -0.16732071
0000e0 84 32 9d bd 66 c1 23 3e 7d 19 3c be d3 61 cd bd
       -0.07675651 0.15991744 -0.18369098 -0.10028424
0000f0 fd 42 04 3e 6e 72 c0 bd aa f7 6d bd a2 a4 4c be
       0.12916179 -0.09396826 -0.05809752 -0.19984677
000100 47 5a 89 bc eb 90 5a bd a9 b3 bb 3d 28 de 60 3e
       -0.01676668 -0.05336086 0.09165127 0.21959746
000110 1a e1 3e 3e 47 f9 a0 bd 39 bf 21 3e 95 30 39 be
       0.18640557 -0.07860046 0.15795602 -0.18084939
000120 bb 65 a7 3d b4 a5 bb 3d 0d 98 e7 bd 63 14 8c 3d
       0.081737004 0.09162465 -0.11308298 0.06839826
000130 73 d4 1d be 0d d4 63 bd 2e 37 3b be 0e 4c 18 be
       -0.15413074 -0.05562215 -0.18282768 -0.14872763
000140 59 85 d5 3c 63 4d 16 be b6 31 5d 3d 20 ef 85 be
       0.026064562 -0.14677958 0.054002486 -0.26159
000150 09 38 a4 3d 04 25 f8 bd 33 d4 10 3d dd b1 a1 bd
       0.080185 -0.12116435 0.03535862 -0.07895253
000160 57 1c 1f be a0 c5 6b be 6a 78 10 be 33 f1 11 bd
       -0.15538155 -0.23024607 -0.14108434 -0.035630416
000170 a7 c5 72 bd bd 0f 81 bd a9 68 f4 bd 45 5c 77 be
       -0.059270527 -0.0630183 -0.11934025 -0.24156292
000180 df a7 9f bc bb 71 d0 3d 0a 18 79 be e3 a1 22 be
       -0.019489227 0.10177942 -0.24325576 -0.15882067
000190 c9 97 1b 3e 45 97 38 be 19 99 05 bd bf 00 cd bd
       0.1519462 -0.18026455 -0.03261671 -0.10009908
0001a0 79 ea c5 3c f1 49 2c be 16 79 e0 3d 47 99 2c 3e
       0.024159657 -0.16825081 0.10960595 0.16855346
0001b0 90 ca ec bd 47 d3 10 bc 02 eb 7b 3e f6 14 11 be
       -0.11562073 -0.008839435 0.24601367 -0.14168152
0001c0 8a 80 2e 3e 33 03 8e 3c 9d 50 d0 3c 32 4d c7 3d
       0.17041221 0.01733551 0.025429064 0.09731521
0001d0 cd 72 d5 bc 8c ac 5c 3a 97 de 93 3c b8 62 27 be
       -0.026055718 0.00084180455 0.018050475 -0.16346252
0001e0 df 7d c3 3c 97 21 54 be 72 f0 2f 3e b6 a1 02 be
       0.023863731 -0.20715939 0.17181566 -0.12757
0001f0 ef 75 15 be 95 e2 9f bd 9b 3b aa bb a1 24 2c be
       -0.1459577 -0.07806889 -0.005195094 -0.16810848
000200 a4 e1 3d 3e 6f ae d5 3d 7b d3 92 bd 1e 30 9a bd
       0.18543106 0.10433661 -0.07169243 -0.07528709
000210 69 c3 17 be a3 35 14 bd fa e5 67 3d 57 38 b8 bc
       -0.14820637 -0.036183964 0.056615807 -0.022487802
000220 8c 4a a9 bd 3d 56 05 be b4 9b ff bd a7 b2 2f be
       -0.08266172 -0.13021179 -0.1248087 -0.17157994
000230 9a 13 f5 bc 9a 99 e3 3c 42 cd 99 3d b7 a4 82 be
       -0.029916573 0.027783204 0.07509853 -0.25516292
000240 f6 5a b9 bd 92 35 02 be 90 52 cc bd 56 4e 7b bd
       -0.090505525 -0.12715748 -0.09976685 -0.061354004
000250 7d 21 05 3e 24 13 af 3d 6b 5e 56 be 29 2b d4 3d
       0.13001056 0.08548573 -0.20934455 0.10359795
000260 99 1a a3 bd 06 4c 62 bd e2 a7 db 3c f0 49 24 be
       -0.079640575 -0.055248283 0.026813451 -0.1604383
000270 89 25 15 be ea 4c 6e bd d6 f8 ed bd 14 62 79 3c
       -0.145651 -0.05817882 -0.11619727 0.015221138
000280 c8 96 05 3e b0 44 1c be df e7 a2 bc a2 36 e0 bc
       0.130458 -0.15260577 -0.019885955 -0.027369801
000290 d7 cb 85 bd 11 45 0d 3e aa 7b a0 bd c8 52 d3 3c
       -0.0653302 0.13795878 -0.07836087 0.02579631
0002a0 12 69 15 3e 6a 20 0c be 61 18 c5 3c 15 2e d2 bd
       0.14590862 -0.1368424 0.024059476 -0.10262696
0002b0 7f ed 7f bd f0 3c b7 3c 76 86 36 3c 01 b8 03 bd
       -0.062482353 0.022367924 0.011140456 -0.0321579
0002c0 8b 91 0c be e9 f2 85 bd 1d e6 eb bb ec 4a dd 3d
       -0.13727395 -0.06540472 -0.0071990625 0.10805306
0002d0 f6 28 2c be 17 03 a0 bc 53 7f 67 3c 4c 85 ab bd
       -0.168125 -0.019532723 0.014129478 -0.08375034
0002e0 14 f3 1f 3c ef cf c4 bd aa 78 de bd 08 d1 5b bd
       0.009762544 -0.09609973 -0.108628586 -0.053666145
0002f0 db 83 71 3a 8e e9 54 bd 02 b0 1f 3d 81 a8 5e 3c
       0.00092130684 -0.051980548 0.038986214 0.013589979
000300 04 6a 06 3e ce a0 c1 bd 3b 91 d4 3d e9 e1 65 3e
       0.13126379 -0.09454499 0.10379263 0.22449459
000310 12 08 11 3e ae 0e 94 3e 7c 46 e4 3c 0e 79 a1 bd
       0.14163235 0.2891745 0.02786564 -0.078844175
000320 5e 92 0f be b7 c9 2a be cc d3 5f bd 6c 92 f8 bd
       -0.14020678 -0.1667851 -0.054645345 -0.12137303
000330 8c 6f 54 bd 1a dc c2 3d b6 2d 2e 3e e3 2f 8e bd
       -0.051864192 0.09514637 0.17009625 -0.069427274
000340 9a fe e0 3d 90 ef 9d 3d d4 16 23 bd ad da 98 3d
       0.109860614 0.077117085 -0.039816692 0.07463584
000350 b6 50 a7 3b f3 7a 02 be 9e b8 d8 3d 3c be 08 be
       0.005106057 -0.12742214 0.10582088 -0.13353819
000360 c2 04 3f 3e b1 c8 b6 bc d8 bb f7 3d b2 14 3d be
       0.18654159 -0.022312494 0.12096375 -0.18464926
000370 40 8c 30 be 41 7e 67 3d d2 94 83 be 52 69 06 be
       -0.17241001 0.05651689 -0.25699478 -0.13126114
000380 8c e4 6f 3d 63 96 40 3e 59 f4 09 3d c5 fa 38 3d
       0.05856757 0.18807368 0.033680294 0.045161027
000390 a0 a5 1d bd 27 86 a5 be 88 8f ff bc a3 b3 e6 3b
       -0.03848803 -0.32328913 -0.03119637 0.0070404573
0003a0 17 8e 70 be 7a 0c 2e be 3b cb 7c bd b7 3b 73 3e
       -0.23491703 -0.16996947 -0.061717253 0.23753248
0003b0 d1 7a 96 bd 77 d4 0a 3e 79 df 86 be 21 31 97 3d
       -0.07347644 0.13557611 -0.2634237 0.073824175
0003c0 af 0d 5c be 9f 3c 71 3c 82 8e 6a bc 0b ee 39 be
       -0.21489595 0.014723926 -0.014316203 -0.18157212
0003d0 7f 1a 83 bd 9c 18 e2 bd 20 6c 02 3e 50 0d 37 be
       -0.06401538 -0.1103985 0.12736559 -0.17876172
0003e0 7c 63 30 be 9d ad aa bd 69 66 3b 3e 1a 43 1a be
       -0.1722545 -0.08333895 0.18300785 -0.1506466
0003f0 bf 2f ed bd c5 d0 0c be c2 73 95 3d 44 9a 3f be
       -0.115813725 -0.13751514 0.0729747 -0.18711191

shared_net.2.weight f4 [256, 512]
000000 b6 66 6c 3d 0e 66 92 be 79 6c c1 bd 13 d0 da bc
       0.05771514 -0.28593487 -0.09444518 -0.026710546
000010 df 29 5d be 39 01 d6 bd 27 88 5d bd 18 a0 ab bd
       -0.21598004 -0.10449452 -0.054084923 -0.08380145
000020 b3 6a 2f 3e 5e 8e 09 3d 26 7d 81 3d 9c f3 01 be
       0.17130546 0.033583038 0.06322698 -0.12690586
000030 02 e8 77 3c ce 94 95 bd 67 b2 a9 bd 8c 03 82 bc
       0.015130999 -0.07303773 -0.08285981 -0.015870832
000040 63 90 ba 3d 39 0a 19 bd 59 ac 3e 3d a6 8c 89 3b
       0.09109571 -0.037363265 0.046551082 0.004197675
000050 ea a6 fd bd 8c 52 0d 3b 3a 2d 92 bd 7f 1b c7 3c
       -0.12385352 0.0021564094 -0.071375325 0.024305103
000060 1b df 84 bb 0e f6 f2 3d c4 51 fb 3d ae 36 07 be
       -0.0040549166 0.118633375 0.12271455 -0.13204452
000070 ff 62 7d 3d 7f 56 d9 3c e6 77 22 bd 18 03 97 bd
       0.06186199 0.026530502 -0.039665125 -0.07373637
000080 c7 77 d3 bd d8 fc 0c be a0 de b3 ba 94 4b a1 bd
       -0.1032558 -0.13768327 -0.0013722964 -0.078757435
000090 e1 a6 da bd cc f4 b8 3d 57 0d 2d be e4 7a 3b 3e
       -0.10676361 0.09031066 -0.1689962 0.18308598
0000a0 b5 bb 97 bd f5 ec 8d 3c de 15 68 bc ff ba 15 3d
       -0.07408849 0.017324904 -0.01416537 0.036555286
0000b0 42 59 ee 3b a1 b6 01 3e db 59 de 3d 74 a8 e2 bd
       0.007273824 0.12667324 0.10856982 -0.11067286
0000c0 33 04 17 3d 84 cb cf 3d b8 77 05 3d 57 6e 98 3d
       0.03686924 0.101462394 0.032584876 0.07442921
0000d0 ae c8 9a bd dd 5b bd bc d6 3b 88 3d fa 88 a9 3d
       -0.07557808 -0.023115093 0.06652038 0.08278079
0000e0 6c a3 d1 3c 3f 64 f2 bc 0c b8 6d 3d 7d ce cd 3d
       0.025590621 -0.029588817 0.05803685 0.1004915
0000f0 f7 f8 97 3b 0d 86 86 3d 06 e7 16 3e 11 a2 08 3e
       0.004637833 0.06568537 0.14736566 0.13343073
000100 51 3a 0d bc e5 e3 b3 3d f3 e1 68 be d4 77 a6 3c
       -0.008619861 0.08783702 -0.22742443 0.02032081
000110 ec 21 f6 bd aa bd 27 bd 1f ca 2d bc 8e e4 26 3d
       -0.12018189 -0.040952362 -0.010607271 0.04074531
000120 ab 8e 53 3d 38 88 9d bd 36 92 f3 3c 88 91 10 3e
       0.05164973 -0.07691997 0.029732805 0.14118016
000130 26 f8 f4 3c 8a 1a 04 bc 03 6f 01 3c 2c 93 1d bc
       0.029903483 -0.008062968 0.007900002 -0.009617608
000140 56 e2 39 3d 3d 6a af 3d 6a b8 9d bd 2f 3f 0e 3d
       0.045381866 0.08565185 -0.0770119 0.034728225
000150 89 59 aa bd d4 06 79 3d b4 b7 af bd 56 a9 91 bb
       -0.08317859 0.060797527 -0.085799605 -0.0044452352
000160 a2 2f b7 3d 15 f6 50 3d a2 64 3c 3d e6 8f a2 3d
       0.08944632 0.051015932 0.04599441 0.07937603
000170 00 8b 0a be 08 02 8a bd ee 59 e8 3c d5 46 5e 3d
       -0.13529587 -0.06738669 0.028363194 0.05426677
000180 3b fb 87 bd ec f5 f5 bd 28 df 9c 3d 55 f3 95 3e
       -0.06639715 -0.120097965 0.07659751 0.2928721
000190 2b 4d ef bc 39 56 97 3c 4e 04 9d bd 41 7c ea 3d
       -0.029211601 0.018473731 -0.07666837 0.11449481
0001a0 ec bc 26 bd ab 3a 1b be c0 2f d2 3d 80 c1 08 be
       -0.040707514 -0.15159099 0.10263014 -0.13355064
0001b0 36 1a 26 ba cf 28 30 3d 67 de 58 3b 03 13 22 3c
       -0.0006336303 0.043007668 0.0033091547 0.009892228
0001c0 df a1 4d be 84 0f fc bd 14 69 57 3b 37 b2 9c bd
       -0.2008128 -0.12307647 0.0032869028 -0.07651179
0001d0 7a 59 60 be 86 a1 b5 bc 0c f0 55 3d ee 1a fd 3d
       -0.21909133 -0.022171747 0.05223088 0.12358652
0001e0 43 83 b0 3d 24 f6 b1 3b c2 75 d7 3d 94 0f 51 3c
       0.08618786 0.0054309536 0.105205074 0.012760062
0001f0 9b 14 a0 3d d8 44 4e 3c a7 22 cf bc 57 0c 27 3e
       0.0781643 0.012589656 -0.025285078 0.16313301
000200 95 7d be bd 5a 23 4a bd 1c 7c 53 3d e9 db eb bd
       -0.093012966 -0.04935012 0.05163203 -0.11516554
000210 d1 b4 80 bd e3 78 2e 3d 9a af 6f bc 4b d2 a3 3d
       -0.06284488 0.042595755 -0.014629269 0.079990946
000220 9c 86 e6 bc 9d 80 ec 3d c2 f7 08 bd 8a d6 7d 3c
       -0.028140359 0.115479685 -0.033439405 0.015493045
000230 9f 02 64 3d 90 11 2d bc bd 1a 7a be 66 f5 d3 bb
       0.055666562 -0.010563269 -0.24424262 -0.0064684628
000240 5d 48 92 3c 08 7a 46 bd 17 7b 62 bd 9b f5 e1 3a
       0.017856771 -0.04845622 -0.05529317 0.0017239334
000250 b1 d7 33 bd 18 62 cd bd f6 c1 84 bc 66 e5 10 be
       -0.04390687 -0.100284755 -0.016205769 -0.14150009
000260 86 b1 43 3a 61 ad e1 bb c6 0f 8c 3d 67 5c 37 bd
       0.0007465113 -0.0068871235 0.06838946 -0.044765856
000270 df e4 ed bd 54 41 c9 bc 29 bf 27 3c 09 33 54 3c
       -0.11615919 -0.024567284 0.010238447 0.012951621
000280 ee 2d fd bc 77 3e fb 3d e6 b1 65 bb ee 89 19 3d
       -0.03090569 0.122677736 -0.0035048663 0.037485056
000290 1e 56 c0 bc 57 44 3d bd 4e 7a a2 3d 8a a7 f8 bc
       -0.023478564 -0.046207752 0.07933484 -0.030353326
0002a0 49 d9 a0 bd 85 c7 16 3a f3 ab fa 3d 7f 65 fe 3c
       -0.07853944 0.00057517766 0.12239828 0.031054256
0002b0 79 34 be 3d 6e 44 c9 bb b6 51 75 bc 5b 61 63 bd
       0.09287352 -0.0061421907 -0.014973095 -0.055512767
0002c0 6f c7 30 bd a4 81 7d bd 3f 73 db bd 1b 77 17 bd
       -0.043158945 -0.061891213 -0.10715341 -0.036978822
0002d0 8d a5 1a 3e b5 16 af b8 4e 41 2c 3d 8a 8c 02 bd
       0.15102215 -8.34888e-05 0.042054467 -0.03187231
0002e0 95 27 14 be 5a 90 bb 3d 40 62 15 bd 81 e9 e1 3c
       -0.14468224 0.09158392 -0.03647065 0.027577164
0002f0 70 e0 a3 3d 28 0c e6 bb 28 ab 2f bd 5d 38 69 bd
       0.080017924 -0.007020492 -0.042887837 -0.056938518
000300 e3 a8 38 bd 64 69 32 3e ea fa ac 3d 59 28 2d be
       -0.045082938 0.17423016 0.084462956 -0.16909923
000310 af a4 bb 3d 33 5c 88 bd 59 ad 50 3d 41 d2 dc 3b
       0.0916227 -0.066582106 0.050946567 0.0067389314
000320 1a 46 b3 bd 1b 6e 8c bb 55 35 26 ba 24 dc ba bc
       -0.08753605 -0.0042855865 -0.00063403446 -0.02281005
000330 e3 e9 da bc 0c f5 fe bd fb 5c 39 3d ae 74 c1 bc
       -0.026722854 -0.12449083 0.04525469 -0.023615208
000340 d2 66 9c bd ad 68 32 3d fd 20 79 3d cc 34 4e bd
       -0.07636799 0.043556858 0.060822476 -0.05034332
000350 5e 4c 23 3d 4f 0b f3 bc 1e 23 af bd c6 a6 86 3d
       0.03986775 -0.029668478 -0.0855162 0.06574778
000360 8b 36 2a bc 7a 73 4a bc cf 2f 27 bd 40 48 86 bc
       -0.010388981 -0.012356633 -0.04081708 -0.016391873
000370 c9 1b c6 3d d9 ee 3a be 58 06 fc 3d 3b a1 d1 3d
       0.09673268 -0.18255176 0.123058975 0.102358304
000380 15 ab 21 3d 82 48 99 bd ec 20 31 be 2b 4c 41 3d
       0.039469797 -0.07484533 -0.17297715 0.04719178
000390 f8 26 04 be 78 9a c9 3d 5f dc 92 3d 8a cb 49 bd
       -0.1290549 0.09843916 0.07170939 -0.049266376
0003a0 be 8c 2c 3d 1c 98 1e 3d d9 07 0f 3d bb 2f 2b be
       0.04212641 0.03871928 0.034919593 -0.16717426
0003b0 ed c7 1d bd 71 0f 5d be 9b 59 af bd c8 65 30 3d
       -0.038520742 -0.21587922 -0.08562013 0.043065816
0003c0 f1 49 ed 3d 57 18 c5 bd e1 68 48 3d e5 10 fb 3c
       0.11586369 -0.09623783 0.048928145 0.030647704
0003d0 66 83 32 bd d2 91 9c 3d 54 56 9c bd e7 0c 7e bd
       -0.043582343 0.076450005 -0.07633653 -0.062024023
0003e0 26 5a 75 ba e7 e9 83 3d 7a 28 80 be 3d 3c e2 3d
       -0.00093594415 0.06441098 -0.2503088 0.11046646
0003f0 4a f3 a4 bd fd 34 ee bc 27 fd b0 3d 72 ca 30 3e
       -0.08054216 -0.029078001 0.08642035 0.17264727

shared_net.2.bias f4 [256]
000000 0c a2 c0 bd 7e 22 97 bd d2 2b 37 3d db 25 71 bd
       -0.09405908 -0.07379626 0.044719525 -0.058873992
000010 54 1a bd 3c 7d 20 c2 bd 7b c7 61 bd 0e 69 99 bd
       0.023083843 -0.09478853 -0.05512188 -0.07490741
000020 68 2c 47 bd e2 2d 84 bd d0 5f 77 3a 54 29 62 bd
       -0.048626333 -0.06454064 0.00094365794 -0.055215195
000030 14 e6 8e bd ae ff a9 bb a2 1a bc bd 7c e7 2b 3d
       -0.06977478 -0.00518795 -0.09184767 0.041968808
000040 44 9d 2e bd 02 a1 38 bd 68 ad a6 bd ca 29 83 3c
       -0.04263045 -0.045075424 -0.08138543 0.016011138
000050 07 09 c7 b9 92 8d c5 bd b1 78 c1 bd 05 b2 84 bc
       -0.00037962964 -0.09646143 -0.09446848 -0.016198168
000060 93 94 ee 3c b5 bf e5 39 22 74 91 bd 72 67 18 bd
       0.02912358 0.00043821117 -0.07102229 -0.03720803
000070 2e 2b fe bc f1 ef 43 3c 26 08 93 bd 7e 33 d9 bc
       -0.031026449 0.011959062 -0.071792886 -0.026513811
000080 43 6d 48 3d 24 6c be bd cc 27 d0 bd 5c cc 1c be
       0.048932325 -0.0929797 -0.10163841 -0.15312332
000090 57 b2 02 be 49 89 38 bc 8b 53 90 bd b8 a6 53 bb
       -0.12763344 -0.0112632 -0.070471846 -0.0032295417
0000a0 24 5b 88 bd 79 56 e8 bd 11 05 99 bd 27 2b d1 3b
       -0.06658009 -0.11344618 -0.074716695 0.006383318
0000b0 c3 1b 59 bd 52 7c 1b 3d 3d 44 90 bc e2 a2 28 bd
       -0.05300499 0.037960358 -0.017610664 -0.041170962
0000c0 46 f4 af bc 47 ef b2 bc 3d 88 69 bd 8b 36 2a bb
       -0.021478783 -0.021842612 -0.057014693 -0.0025972452
0000d0 0b 7a 71 bc aa 87 89 bd 13 ea 79 bc d2 d9 e9 bc
       -0.01473857 -0.06715329 -0.015253562 -0.028546248
0000e0 44 4d 17 3c af 8f fb bd 62 00 d7 bd 64 2e 84 bd
       0.00923473 -0.12283265 -0.1049812 -0.06454161
0000f0 3a 44 0e bd 02 c8 81 3d 2a 2f 80 3d da 77 76 3d
       -0.034733035 0.063369766 0.06258996 0.060172893
000100 ed 85 a4 b9 34 78 28 3c 30 2a c9 bc b6 b9 2d bd
       -0.000313803 0.010282565 -0.02455625 -0.042413436
000110 f5 df a9 bd 27 cf b9 bd fe e4 87 bd 2f f4 e9 bc
       -0.082946695 -0.09072714 -0.06635474 -0.028558819
000120 96 dd 47 3d 09 43 52 bc 2e 47 95 bc 8e a8 66 bd
       0.048795305 -0.012833365 -0.018222418 -0.05631309
000130 3a 67 7f bd 0f 90 d1 bd 3b ab a6 bd c7 82 d6 3d
       -0.062354304 -0.10232555 -0.08138128 0.104741625
000140 33 0a 51 bd 37 74 8c bd 91 62 1e bc dd ae bd bd
       -0.051035117 -0.06858104 -0.009667055 -0.09261868
000150 08 c4 8a bd 7d bf 1c bd d9 f0 7d 3d 13 2a 4d bc
       -0.06775671 -0.038268555 0.06199727 -0.012522238
000160 7b 88 04 bc 7b 9e 9d bd 2b c2 36 bd ed c4 d5 bc
       -0.00808918 -0.076962434 -0.044618767 -0.026094878
000170 30 ed 9b 3c b4 42 72 bd 0f c9 8d bd 41 80 77 bd
       0.019033998 -0.059145644 -0.069231145 -0.060425047
000180 c7 d1 b4 bc 6f ac f4 bd 11 40 47 bc b3 0c 0e bd
       -0.022072686 -0.119469516 -0.012161271 -0.03468008
000190 86 95 59 3d c6 9c b7 bd 80 6f ce 3c ae 84 87 bc
       0.053121112 -0.08965449 0.025199652 -0.016542759
0001a0 35 fb 31 bd 5c e5 85 bd 39 2a 82 bc 4f db 24 bd
       -0.04345246 -0.065378875 -0.015889274 -0.04024821
0001b0 5a 6e b6 bc dd dc d6 3c 25 91 90 bc 8a 29 d1 bd
       -0.022269417 0.026228363 -0.017647335 -0.10213001
0001c0 1c 41 17 bd d0 a7 1b 3d 11 9d 96 bd 36 31 e5 bd
       -0.036927328 0.038001835 -0.07354177 -0.11191027
0001d0 3f d7 8d bd d6 82 4c bd 9a aa 47 bc cd e4 38 bd
       -0.069258206 -0.049929462 -0.012186671 -0.045140076
0001e0 52 5b 1f bd 46 da 2e bd 0b ff 3b bd 76 31 04 be
       -0.03890545 -0.04268863 -0.045897525 -0.12909493
0001f0 20 a5 8c bd 3c e4 ca 3d 31 ef 17 3d fb 63 b9 bc
       -0.068674326 0.099068135 0.037093345 -0.022630682
000200 93 7d 85 bd eb 5d b5 bc 25 c4 08 bc 9c 50 d4 bd
       -0.06518092 -0.02213951 -0.008347546 -0.103669375
000210 20 c4 38 bd 94 12 0a 3e 1a 3d a6 bd e5 3d f2 bc
       -0.045108914 0.1348365 -0.08117123 -0.02957053
000220 ab 64 d9 3c 13 db a2 bc ac 00 a5 bd 52 73 b7 bc
       0.02653726 -0.019879853 -0.08056769 -0.022393856
000230 a7 e0 b5 bd 6f 88 8d 3c 6f 59 66 3c 84 ad de bd
       -0.0888074 0.01727697 0.014059409 -0.10872939
000240 e2 35 33 bd 14 3b 8e bd 1d d8 0a 3d 9b dc c6 3c
       -0.04375256 -0.06944862 0.033897508 0.024275115
000250 5d 6f ea bc ea d5 15 bd e7 92 36 bd 55 e4 62 bb
       -0.028617555 -0.036580957 -0.04457369 -0.003462096
000260 1c a3 1d bd 0a d6 8f bd c0 e1 f9 bc 6c 71 db bd
       -0.03848563 -0.070232466 -0.030503154 -0.10714993
000270 3e 50 4c 3d fc 27 97 bd 01 f8 4a bd b0 97 3e 3d
       0.049881212 -0.07380673 -0.04955292 0.04653138
000280 5a ba 24 bd 3c 5c 83 bd 71 5f a1 bd 6f c2 31 3a
       -0.04021678 -0.06414077 -0.07879532 0.0006780987
000290 b2 92 9a bd 7a 04 02 3b 4a f5 62 bd 0f d4 09 3d
       -0.07547511 0.0019839094 -0.055409707 0.0336495
0002a0 76 9f c4 bc 03 2b 53 bd ce ff d5 bd b6 f0 f8 3c
       -0.024001818 -0.05155469 -0.104491815 0.030388217
0002b0 3d 64 b8 bd 51 0b 8f bd 4b 8d b7 bc 48 f9 c8 bd
       -0.09003494 -0.0698458 -0.02240624 -0.098131716
0002c0 cc b7 ad bd de d9 d5 bc f2 7c aa bc 0d 02 9d bc
       -0.08482322 -0.026104864 -0.020811532 -0.019166017
0002d0 26 83 a4 bd ce e4 30 bd 3c 8d 07 bd 0d c4 98 bd
       -0.08032827 -0.043186955 -0.033093676 -0.07459269
0002e0 16 7b 0a 3d 24 d3 14 bd f8 f5 a7 bd 9e b2 a7 bc
       0.03380879 -0.036334172 -0.08201212 -0.020470913
0002f0 94 d1 7a bd 33 20 b8 bd 6c 7f a3 bc e7 18 ba 3b
       -0.061235026 -0.089905165 -0.01995822 0.005679238
000300 5c 74 15 3d 34 77 81 bd 88 ba 68 bd 38 58 d6 bd
       0.036487922 -0.06321564 -0.056818515 -0.10466045
000310 09 05 dc bc 11 6c 40 3c a3 40 2b bd a4 25 d0 39
       -0.02685787 0.011744515 -0.04180969 0.00039700896
000320 e3 09 27 bd 15 37 1b bd 31 7a 08 3b 79 ec 7d 3d
       -0.040780913 -0.037894327 0.0020824785 0.061993096
000330 64 a9 86 bc eb fc 62 bb 09 44 3f bd a1 a2 a8 bd
       -0.016438194 -0.0034635614 -0.046695743 -0.08234144
000340 b9 47 a5 3d 77 ed e7 bc 3e fe 83 bd 30 d6 0e bd
       0.08070321 -0.028311474 -0.06444977 -0.034872234
000350 18 38 6a bd c1 60 19 bd bc 86 99 3d 9e 48 0c 3b
       -0.0571824 -0.037445787 0.07496402 0.0021405588
000360 f1 8d a1 bd 77 2c 18 bd 7c 0a 11 bc b4 84 90 bd
       -0.07888401 -0.03715178 -0.008852597 -0.07056561
000370 6a 6c e0 bc f7 14 3c bc 98 50 1b bd ef 23 fc 3b
       -0.027395446 -0.011479608 -0.037918657 0.0076947133
000380 87 e6 b5 bc 97 ab 13 3d 33 38 c9 bb 4c 8c ba bd
       -0.02220465 0.036052313 -0.0061407327 -0.09108791
000390 81 1f ed bd 2d 58 c7 3c 43 15 17 3d 90 26 cf bd
       -0.115782745 0.024334038 0.03688551 -0.10114777
0003a0 6f d8 ed bd a6 90 da bd fd ad 2c bd 96 62 b4 3d
       -0.11613547 -0.10672121 -0.042158116 0.08807866
0003b0 56 af bc 3a a5 64 31 3d 8f 0e a7 bd d6 ed 56 bd
       0.0014395516 0.043308873 -0.08157074 -0.05247291
0003c0 dd e4 06 bd a2 8e c9 bd 6a e1 84 bd 68 83 ea 3a
       -0.032933105 -0.09841658 -0.06488307 0.0017891945
0003d0 6d b1 16 bd 15 43 90 bd c8 9a df bd 55 dd 81 bd
       -0.0367903 -0.07044045 -0.10918194 -0.06341044
0003e0 8a 64 23 3c 60 19 a1 bc 33 75 b9 bd 14 93 59 bd
       0.009972701 -0.01966542 -0.09055557 -0.05311878
0003f0 4b 9d f3 bb 88 71 92 bd 11 f6 fe bd e5 04 64 bc
       -0.0074345223 -0.071505606 -0.12449277 -0.013917183

to_mean.0.weight f4 [128, 256]
000000 0a c8 5e bd 71 da 4b bd 9e 2e 82 3d 7d 03 c2 bc
       -0.05438999 -0.04976887 0.06356548 -0.023683304
000010 db b0 65 3d 00 81 f6 bb d0 ad 20 3d b6 8c 33 bd
       0.056076866 -0.007522702 0.03922826 -0.043835364
000020 39 d1 57 bc e6 9b 55 bd ed c8 37 3d 25 42 a0 3c
       -0.013172441 -0.05215063 0.044869352 0.01956279
000030 00 a6 35 3d 3d b1 52 3c 4c 86 7d 3d 60 be 96 3c
       0.044347763 0.01285964 0.061895654 0.018401325
000040 1e 8f ab bd a5 f2 ae bd ac 3a b2 bd 40 98 94 3c
       -0.08376907 -0.085423745 -0.08702597 0.018139005
000050 49 f8 31 3c a1 74 35 3d 90 7f 13 bc 4e 92 b2 3c
       0.010862418 0.04430068 -0.009002581 0.02179828
000060 3d f9 fe bc bf a1 5f bd 24 9f 97 bd 8e 92 af bc
       -0.031124705 -0.054597612 -0.074034005 -0.021432187
000070 81 e2 8b bd d1 c9 96 bd b0 6f 0d bd 27 1a ec bb
       -0.068303116 -0.07362712 -0.03453034 -0.007205266
000080 29 fe 9b bb ad a7 5e bd c7 51 73 3d 60 3c e5 bb
       -0.004760523 -0.054359127 0.05940416 -0.0069957227
000090 77 bd 83 bd 88 41 2b bd 7f c5 1a 3d e6 21 b8 3c
       -0.06432622 -0.041810542 0.037786003 0.022477102
0000a0 67 c8 34 3d af 8c 77 bd 43 2b b0 3a 48 9c 9d bd
       0.04413643 -0.0604369 0.0013440627 -0.07695824
0000b0 9f c1 6e 3d 71 cc c2 3b c7 5b 1e bd 75 96 c3 bc
       0.05829012 0.0059447815 -0.038661744 -0.023875454
0000c0 6c 04 b7 bd 9c 1b 0b bd 62 85 b8 bc 8d 54 5a bd
       -0.0893639 -0.033961877 -0.02252454 -0.05330329
0000d0 5b 99 03 bc 45 19 5d bd 5f 6c b0 3d 8f f9 e1 bc
       -0.008032168 -0.053979177 0.0861442 -0.02758482
0000e0 a9 35 cf bd 49 42 bf bd 4f 46 78 bd 6f 7d 0f 3d
       -0.10117657 -0.09338815 -0.060613927 0.035031732
0000f0 d5 f8 d4 3c ed 74 58 bd 89 d4 23 bd 20 bf 22 3d
       0.025997559 -0.052845884 -0.03999761 0.039733052
000100 18 a9 28 3d f7 f3 ea 3c b3 12 15 bd bf e4 3f bd
       0.041176885 0.028680785 -0.036394786 -0.04684901
000110 25 20 65 3c 08 f5 cf 3d 0b 6d e5 bc 59 bc 18 3d
       0.013984715 0.10154158 -0.028006097 0.037288997
000120 33 42 db 3c 4b 12 ed bc 2b 2e b1 bc bc 81 12 bd
       0.026764965 -0.028939387 -0.02162846 -0.035768256
000130 fe c2 9a bd 0e 24 ad 3c f7 c9 75 3c 32 a4 00 3d
       -0.07556723 0.021135356 0.015001765 0.03140659
000140 99 8b 20 3b 27 f9 36 bd 7c a8 51 3d 48 76 ae 3c
       0.002449727 -0.044671204 0.05118607 0.021296635
000150 4f 72 7b bd a2 11 a3 bc b0 76 89 3c c9 5f 8c 3d
       -0.06138831 -0.019905869 0.016780227 0.06854207
000160 19 c4 0a 3d f1 3d 4c bc c9 ca 9d bc 4c db 54 bd
       0.03387842 -0.01246594 -0.019261735 -0.05196695
000170 3e 08 1c 3d 86 0b 12 3b 60 f4 e2 3c d1 6c dc 3c
       0.038093798 0.00222847 0.027704418 0.026907356
000180 e3 64 6e bd 48 8d 05 bc c4 b0 90 3c c5 08 af bc
       -0.05820168 -0.00815136 0.017662413 -0.021366486
000190 df 99 ce 3c 33 0b 28 bd 27 32 b0 bd 7d 44 51 3c
       0.025219856 -0.041026305 -0.08603316 0.012772677
0001a0 5f 0a 39 3d e5 0b 57 bd 92 28 3a 3d 8d b6 0e bc
       0.045175906 -0.052501578 0.045448847 -0.008710516
0001b0 8d a8 a2 bb 43 b7 81 3c 74 dc 58 bc f1 5c 60 3b
       -0.0049639405 0.015834456 -0.013236154 0.0034235085
0001c0 59 a0 70 bc 7c 24 72 3d 35 a2 f0 3c 7b 23 ad 3b
       -0.014686667 0.059116825 0.029374221 0.0052837706
0001d0 c1 f1 b6 bc 24 50 a1 3c 8c 76 a5 bc 22 99 80 bd
       -0.022332074 0.019691534 -0.02019813 -0.06279208
0001e0 c2 e1 1f bd 46 91 58 bc c8 d3 2d bc 06 b9 1b bd
       -0.03903366 -0.01321823 -0.010609575 -0.03801825
0001f0 f7 e4 e5 3b ce 54 6f bd e7 63 2f 3b f4 d0 44 bd
       0.00701582 -0.058430485 0.0026762427 -0.048050836
000200 b7 c3 95 bd 6b f7 0a bc a6 af de bc 21 6e a5 3c
       -0.0731272 -0.008481841 -0.027183365 0.020194115
000210 ea ca 2d bd b7 8b 88 3d 11 f7 84 bc 82 64 4a 3c
       -0.042429842 0.066672735 -0.016231092 0.0123530645
000220 6b 90 5a ba 09 8b 05 3d 11 33 25 bc 68 a7 27 bd
       -0.000833756 0.032603297 -0.010082976 -0.040931135
000230 bc de 5f 3d 18 e3 33 3d b1 3e 01 bd 41 6e 4e 3c
       0.054655775 0.043917745 -0.031553928 0.012599529
000240 95 dd 29 bc 42 d4 13 bd ea 0c ae bc de 16 8e bd
       -0.010367771 -0.036091097 -0.021246392 -0.06937955
000250 54 73 e7 bc 03 10 d2 3b 47 78 85 bc 54 d4 3e 3d
       -0.028253235 0.0064106 -0.016292704 0.04658921
000260 4f 40 5c 3c 1f 36 16 bd 21 07 1f bd a1 32 36 bd
       0.013443067 -0.036672708 -0.038825158 -0.044481877
000270 3d 26 a0 3d df 31 bd bc df d0 64 bd 7e 34 2a bd
       0.078197934 -0.02309507 -0.055863257 -0.041553967
000280 f4 30 12 3d bb 76 2c bb 53 0b 6f bd e0 e3 eb b9
       0.035691217 -0.0026315886 -0.05836041 -0.00044992473
000290 db 80 b1 bc 20 44 4a 3d dc 45 9b 3c 84 6e 44 3d
       -0.021667888 0.049381375 0.01895421 0.04795696
0002a0 d9 da f5 3c b0 7b 1c bc 9d 02 01 bd b7 c6 c1 bc
       0.030011581 -0.009550974 -0.031496633 -0.023654325
0002b0 42 bd 42 bd 53 65 7a bd 0d 02 c1 3c 28 9b 2b bd
       -0.04754377 -0.061131787 0.023560548 -0.041896015
0002c0 b6 21 d1 bb ac 0b 89 bd 57 7d f4 3c d9 2b a0 bc
       -0.0063821925 -0.06691679 0.029844923 -0.019552158
0002d0 06 34 c2 bd 6f 55 6d ba 01 b5 3f bd 67 e5 90 ba
       -0.09482579 -0.0009053563 -0.04680348 -0.0011054695
0002e0 f9 66 ce 3d 51 11 11 3d d1 d5 82 3c 17 84 08 bd
       0.10078234 0.035416905 0.015971096 -0.033329096
0002f0 77 fc 6c 3d a8 31 b1 39 f0 58 3d 3c 4a aa 28 3d
       0.057857957 0.00033797068 0.011556849 0.041178025
000300 d3 a6 3f 3c 68 4a 74 bd cb 65 1e bd 26 56 f4 bb
       0.011697489 -0.05964127 -0.038671296 -0.0074565588
000310 d5 b6 2d bc 9e 6a c4 3b 91 34 64 bd 18 6c 0d 3d
       -0.010602673 0.005994155 -0.055714194 0.034526914
000320 00 38 9b 3d 27 21 b1 bc a8 56 94 bc 4a 39 8b bc
       0.075790405 -0.021622254 -0.018107727 -0.016995091
000330 3f 91 d1 bc db 78 e0 3c 42 1b f5 3c de 9a fe 3b
       -0.025581954 0.027401378 0.029920224 0.0077699265
000340 46 84 c4 ba 6f 60 12 3c 30 af 9b bc 04 ec cf 3c
       -0.0014993034 0.008934124 -0.019004434 0.025381096
000350 0b b7 2c 3d 27 f1 11 bd 25 94 81 3d 7b 84 e1 bc
       0.04216675 -0.03563037 0.063270845 -0.027528992
000360 70 9f e8 3c 6d 4d 1b 3d fd 8a ab bb 65 3a 8b 3c
       0.028396338 0.037915636 -0.0052350746 0.016995618
000370 c7 22 aa 3c 49 06 da 3c b6 93 7e bd d9 44 9d 3c
       0.020768536 0.026614325 -0.062152587 0.019197868
000380 d6 d0 52 3d 4a 5d 3d bd fc 4b 8d 3a 9c 7d 3f ba
       0.051468693 -0.046231546 0.0010780091 -0.0007304789
000390 2e 52 9f bd f5 55 a8 3d dc 61 7e 3d 59 4d c4 bc
       -0.077793464 0.0821952 0.062105045 -0.023962663
0003a0 57 9a 9d bc 6f c4 33 bd eb f7 0b 3d a1 1d f4 bb
       -0.019238634 -0.043888506 0.03417198 -0.007449821
0003b0 3a e3 e5 bc 7f b3 84 bb 53 30 b7 bc 97 66 be bc
       -0.028062452 -0.004049718 -0.02236191 -0.023242278
0003c0 03 5b 7a 3c 97 7e 32 3d f5 1b 59 bd 03 6d 15 3d
       0.015280488 0.043577757 -0.053005178 0.036480915
0003d0 40 ab 93 bb 5a 91 0a ba 83 3d 5e 3d 86 b8 0f bd
       -0.0045064986 -0.00052859413 0.05425788 -0.035088085
0003e0 aa 19 c5 3c fc 0f ae bd 36 0b d1 bc 3b eb 7d bd
       0.02406009 -0.084991425 -0.025518041 -0.06199191
0003f0 4b 29 12 bd fe 39 25 3c af 09 24 bd bd eb 26 bd
       -0.03568391 0.010084627 -0.040048297 -0.04075216

to_mean.0.bias f4 [128]
000000 8a 7f 5c 3d 55 f9 f4 bc 40 f2 6e 3c e2 e1 e5 bd
       0.05383257 -0.029904047 0.014584124 -0.11224724
000010 d8 f1 7e bd 5b 3c 16 bd 17 5e 03 3d a2 b7 e6 3c
       -0.06224236 -0.036678653 0.032072153 0.028163735
000020 aa 2d 4e bb e6 7d 1c 3c fe 5a 76 bd b1 9c c2 bd
       -0.0031460323 0.009551501 -0.06014537 -0.09502543
000030 23 07 06 bd d3 d1 19 3d 73 5c 92 bc 51 e0 1f bd
       -0.03272165 0.03755362 -0.017866349 -0.039032284
000040 72 b1 44 3d 87 5f d8 bb 84 9e 1d 3d 44 8f b1 bd
       0.048020788 -0.0066031846 0.03848125 -0.08669904
000050 ee cf 26 3d 36 3c 91 bd b1 57 06 3d 38 4d 94 3c
       0.04072564 -0.070915624 0.032798473 0.018103227
000060 12 a3 d6 bd e2 3d 40 3d 84 0b 05 bd a9 0b 5c 3b
       -0.10480322 0.046934016 -0.032481685 0.0033576286
000070 4b c3 86 3c 2e bc 5d bd a9 04 ca bc 12 b6 d5 3c
       0.016450545 -0.05413454 -0.024660425 0.026087794
000080 1b 15 0f bd b6 4e 3f 3c 97 de b8 bd 2c bd 42 bd
       -0.034932237 0.011676481 -0.09026831 -0.04754369
000090 63 8c a0 3c 31 f6 74 bd a9 8d 95 bb f4 72 69 bd
       0.019598192 -0.0598051 -0.0045640063 -0.056994393
0000a0 ec de 1c bc 95 2c 63 3d bd 9d a1 bd 90 fc 1a bd
       -0.009574633 0.05546244 -0.07891414 -0.03783852
0000b0 2d 51 10 3d 2f 02 d1 3c 61 56 79 bc 3d 5f 8c 3c
       0.035233665 0.025513737 -0.015218348 0.017135257
0000c0 70 81 4c bd d7 01 de bb 38 8d 33 3d 08 ac 80 bc
       -0.04992813 -0.0067751217 0.04383585 -0.01570703
0000d0 4c 4a 6f 3d f9 f6 6a bd 27 fd 9e bd 96 b3 f1 bc
       0.058420464 -0.057364438 -0.07763129 -0.029504579
0000e0 97 7c c7 3a 77 2d 3c bd a7 93 f0 3c 8a 1b 35 bd
       0.0015219626 -0.045941796 0.029367281 -0.044215716
0000f0 11 a4 91 3d 12 f4 22 bd cf 8f 4c 3c e7 23 e6 3c
       0.07111371 -0.039783545 0.0124854585 0.028093291
000100 a2 06 8f bd 6c 97 b7 3c 84 aa 3f 3d 3c a2 d7 bd
       -0.06983687 0.02241107 0.046793476 -0.105289906
000110 9f 9f 07 bd 5c 4c 80 3c 1c 33 02 bd 08 bf f8 bc
       -0.03311121 0.015661411 -0.031787023 -0.030364528
000120 8c d5 28 3d ca 77 f9 bc 29 4d 87 bd eb d4 96 3c
       0.04121928 -0.030452628 -0.06606514 0.018412074
000130 d3 c2 90 bd 9e b8 72 bd c4 8e 04 bc 28 e6 35 bd
       -0.0706841 -0.059258096 -0.008090679 -0.044408947
000140 b8 44 77 3d f8 0a d0 3c 7d a9 4d 3c d6 c1 3c bd
       0.06036827 0.025395855 0.012552616 -0.046083294
000150 09 5c f1 39 7e 17 aa bc 9f de ca 3c dd 6e de bc
       0.00046035674 -0.020763155 0.024764357 -0.027152473
000160 98 f6 49 3d 84 d0 a0 bb e0 45 c0 bb 3b bb 81 bb
       0.049307436 -0.0049076695 -0.0058677047 -0.003959087
000170 a6 75 a8 bd ce 63 a5 bd 00 e3 a0 3c a9 b8 22 3c
       -0.08225565 -0.08075677 0.019639492 0.009931722
000180 7c 22 d0 3a 97 74 57 bd 25 25 4f bd c3 6b 2f 3d
       0.0015879418 -0.052601423 -0.050572533 0.04282738
000190 e4 8c 98 bd fa 13 00 3d 3b a0 88 bd 89 65 e5 3c
       -0.07448748 0.03126905 -0.066711865 0.028002517
0001a0 00 05 20 bd 5b 37 66 bd 2f b4 76 bd 15 c6 51 bd
       -0.03906727 -0.056205135 -0.06023043 -0.051214296
0001b0 ee b9 85 3d 12 60 65 3d 9d 6e cf 3a 9c 5b 9b bd
       0.06529604 0.055999823 0.0015825812 -0.075858325
0001c0 3e ff ee 3c f7 c8 4b bd a7 8a fa bc 27 83 4c 3d
       0.029174443 -0.049752202 -0.030583693 0.049929764
0001d0 1f 8e dd 3b 29 01 72 bd 85 c7 73 bd f6 d3 93 3c
       0.006761327 -0.059083138 -0.05951645 0.018045407
0001e0 1a 23 e1 3c a8 66 d3 bd 71 b3 0c 3c 84 9c 20 3d
       0.027482558 -0.103223145 0.008587704 0.039211765
0001f0 d6 1e 6f 3c cc 8d c1 bc 5a 8e 3c 3d 78 97 f4 3c
       0.014594754 -0.023627184 0.046034195 0.029857382

to_mean.2.weight f4 [18, 128]
000000 c2 61 0d 3c f0 92 00 bd 3f 6b 4f 3c 63 d3 60 bd
       0.008629264 -0.03139013 0.012659847 -0.054889094
000010 7d 21 be bc 8d 9e af 3b dd ec ef 3b af 56 b0 39
       -0.023209328 0.005359477 0.0073219375 0.0003363392
000020 ef 40 35 3c b7 fd 11 bb 78 b6 08 bd f5 98 7d bd
       0.011062845 -0.002227647 -0.03337714 -0.06191345
000030 25 32 7d 3d a8 56 98 bc 3d 80 af 3c 48 f4 51 3c
       0.0618154 -0.018596008 0.021423453 0.012814589
000040 4f 98 a7 bc f4 08 bb 3a 9d 3d 3f 3c 49 26 18 3d
       -0.020458369 0.0014269636 0.011672405 0.037145887
000050 e4 25 87 bc 0e 16 de 3a c5 65 87 3b ec ae f6 3c
       -0.01649756 0.0016943829 0.004132005 0.030112706
000060 9b ae 06 3d 20 a8 77 3b 8e 25 4a bb fc bd 1b bd
       0.03288136 0.003778942 -0.0030845138 -0.03802298
000070 21 23 c9 bc f0 67 47 bd 84 ee f9 bc 56 03 3a bc
       -0.024552884 -0.048683107 -0.03050924 -0.011353334
000080 54 47 1f bc ea 0a 8a 3c 28 0e d5 3c 79 90 49 3d
       -0.009721596 0.016850907 0.026007727 0.049210045
000090 26 6b 51 bc 4c 18 6e bd 0d 19 a5 3c b3 52 a4 3c
       -0.012781894 -0.05812864 0.020153547 0.020058965
0000a0 51 76 5a bc 84 a9 5a 3c d7 af b4 bc e9 3c c3 bc
       -0.013333873 0.01334608 -0.022056503 -0.023832755
0000b0 96 c9 96 bc 9c 97 1c 3d 13 1a 36 3c 45 8d 12 bd
       -0.01840667 0.038230523 0.011114615 -0.035779256
0000c0 f0 80 a7 3c 6d c1 65 3c a6 af 99 3c dc 42 de 3c
       0.020447224 0.014023167 0.018760514 0.02713149
0000d0 d9 35 54 3c e7 a5 cc bb fb 02 03 bb 3a 4b 9e 3c
       0.012952291 -0.006245363 -0.001999079 0.01932298
0000e0 d1 9e 6c bc 1d 9d 5d bc 97 0c b0 3b a6 31 e4 3b
       -0.014442162 -0.013526228 0.0053725946 0.0069639264
0000f0 dd 70 11 3d c5 77 fb 39 07 9c a3 39 6f 05 df bc
       0.035508025 0.00047963686 0.00031206032 -0.02722427
000100 52 68 13 bd 49 d6 33 bb f3 45 78 3c 60 3e 64 bd
       -0.03598816 -0.0027440956 0.015153396 -0.055723548
000110 04 45 15 3c e3 dc e4 3c 6f 44 1d 3d 25 3c 0d 3d
       0.009110693 0.027937358 0.03839534 0.034481186
000120 5a e9 9a 3b f9 f4 30 3c d7 b3 77 3b 35 4c 07 bd
       0.0047275247 0.0108005935 0.0037796402 -0.03303166
000130 1f 01 87 bd fd ff ed 3b fb 5a 84 3c 2b 5f a5 3b
       -0.06592011 0.007263182 0.016156664 0.0050467453
000140 49 a5 7d bd a9 b0 05 3d 02 4d 2b 3b 68 21 82 3c
       -0.061925206 0.03263918 0.002613843 0.01588507
000150 6f a9 58 bc cc 7b 16 bd d4 1d ac 3c d6 bb 67 ba
       -0.01322399 -0.036739156 0.021010317 -0.00088399404
000160 b8 49 55 bc dd 15 f0 3c 8e 41 0e bd 79 ec be bc
       -0.013018064 0.0293073 -0.034730487 -0.023306118
000170 4b 2a 81 bc 1b 0e e4 bc 3f 97 0e bb 5f c9 bd ba
       -0.015767237 -0.027838757 -0.002175763 -0.0014479569
000180 0c 98 4c bd 5b 74 0c bd dd fa 07 bd 6d ef 1a 3d
       -0.04994969 -0.034290653 -0.033198226 0.03782599
000190 b2 32 07 bb 71 02 6a bc 74 19 7e bc 65 f5 58 bd
       -0.0020629582 -0.014282809 -0.015508998 -0.0529684
0001a0 6f d8 03 bd 7a 0d 91 bc e6 cf 54 bd b8 9c 85 3c
       -0.03218883 -0.017706621 -0.05195608 0.01631008
0001b0 f5 92 82 bc 87 59 9b bb 21 92 82 3c 14 21 3d bd
       -0.015939215 -0.004740897 0.01593882 -0.046174124
0001c0 a6 85 e7 bb 42 ec 99 3c 54 72 49 bc 28 c2 b6 3c
       -0.0070654927 0.018789414 -0.012295324 0.022309378
0001d0 ae 5f f8 ba 7b 00 0a bd fa 09 2e bd e2 c8 8c bc
       -0.0018949413 -0.033691864 -0.042489983 -0.017185632
0001e0 cf 00 be 3c 0a 45 f4 bc fe 96 0c bc 77 a5 64 bc
       0.023193745 -0.029818077 -0.008580921 -0.0139554655
0001f0 a4 5e d0 bc cd 67 b5 bc 6b e3 13 bd 6a 82 a0 bc
       -0.025435753 -0.022144223 -0.036105555 -0.019593436
000200 09 a7 aa 3b 1c cd 46 3c 88 cd f7 3c 06 09 69 bd
       0.0052079004 0.012133863 0.030249372 -0.05689337
000210 da 6a 2a bd ff 8b 85 bc 8c 0b 31 3c a9 58 1b bc
       -0.041605808 -0.016302107 0.010805976 -0.009481587
000220 c7 e0 f5 3b ba e1 29 bd ac c6 82 3b 0e 87 e4 3c
       0.007503602 -0.041475035 0.0039909687 0.02789643
000230 d1 d5 a3 3c ed 90 b8 bb 89 19 7f bd 42 e8 d1 3a
       0.019999417 -0.005632511 -0.06228021 0.0016014653
000240 6f 0c 43 3c d2 68 2f 3d c6 84 82 3d 8d 3a 32 bc
       0.01190482 0.042824574 0.06372981 -0.010878217
000250 0a f7 19 3d c1 d0 3e bc ca c3 3a bd 08 60 19 bd
       0.03758911 -0.0116464505 -0.045596875 -0.0374451
000260 f0 95 5b bd 14 2d e4 3c df d0 b5 bc f8 8e 8b 3c
       -0.05360979 0.027853526 -0.022194324 0.017035946
000270 51 b4 f8 bc 0e fd 38 bb e5 dd e5 bc a2 98 e6 bc
       -0.030359419 -0.0028227004 -0.02805991 -0.028148953
000280 dd 8e 78 bc 3a f0 3f bb c5 0c 0e 3c 2e 09 7b 3c
       -0.01517078 -0.0029287473 0.008670037 0.015322013
000290 b2 75 55 3c 90 76 77 bb e0 6e 7d 3b 08 9e 46 3c
       0.013028549 -0.0037759878 0.0038670823 0.0121226385
0002a0 fe 23 dd 3c d9 b3 fa bb d5 66 7e 3c 8e 44 b0 3b
       0.026994701 -0.007650834 0.015527447 0.005379266
0002b0 f7 72 fb 3c 21 e5 2b bc 95 4c 1f bd 7b ce 08 bc
       0.030694468 -0.01049164 -0.038891394 -0.00835001
0002c0 b8 b3 f4 3c 32 d5 b2 bc 7e 57 73 3c 92 c7 14 bd
       0.029870853 -0.021830175 0.014852403 -0.036323138
0002d0 99 70 cc 3c 92 bd 7f 3c 89 da 42 bc 66 d4 46 3c
       0.024956034 0.015609162 -0.011892923 0.012135601
0002e0 63 3e 5a 3b 5b 9b 12 3d e6 34 6e bc 6f b0 e3 bc
       0.0033301346 0.03579269 -0.014538979 -0.027794091
0002f0 bb ef ba 3c 1d a4 fa bc 33 f3 05 bc e7 29 3a 3c
       0.02281939 -0.030595833 -0.008175659 0.011362529
000300 30 6d 0d 3c ec 98 4f 3c c6 f6 a3 bc 33 6c 73 bd
       0.008631989 0.012670737 -0.020015132 -0.05942936
000310 20 63 ec bc 16 5d 72 bc dc 01 85 3c 67 4d 19 3d
       -0.02885586 -0.014792701 0.016236238 0.037427332
000320 51 6a a3 bb df e8 1e 3c af d1 ff bc 01 61 7f bb
       -0.004987039 0.0096990755 -0.031227915 -0.003896773
000330 bd 44 e0 bc 3c 10 0e bd a2 0e 95 bc 27 35 2a bd
       -0.027376527 -0.03468345 -0.018195454 -0.041554596
000340 8b 72 86 3d 00 c3 86 39 68 32 a3 bc df 81 a7 bc
       0.06564816 0.00025703758 -0.019921497 -0.02044767
000350 5d 94 13 bd 8c 75 8c 3c f5 b4 51 3c 94 a7 a4 b9
       -0.036030162 0.017145894 0.012799491 -0.00031405373
000360 54 04 6b 3c 28 86 3b bd 4e e0 d8 3c dd 29 1e 3d
       0.014344294 -0.04578224 0.026474144 0.038614143
000370 d7 9f 7b 3c 06 8c 8b 3b d8 b8 fd bb 51 1d 17 bd
       0.015357933 0.0042586355 -0.0077429824 -0.036893193
000380 58 d6 42 bd 89 91 13 bd 7a aa 16 bd 71 c5 27 bd
       -0.047567695 -0.036027465 -0.036783673 -0.04095978
000390 fc bd 76 3c 40 2a f8 bc 3a b7 de bc 19 53 e2 3c
       0.015059944 -0.030293584 -0.027186979 0.027627515
0003a0 85 01 99 bc c6 d6 c5 3b 16 dd 85 bc f7 0f c9 3c
       -0.018677482 0.006037566 -0.016340774 0.024543745
0003b0 cd 82 1c 3d e2 7e 73 3d e9 79 86 ba d6 5c 08 bc
       0.03821068 0.059447177 -0.0010259721 -0.008322915
0003c0 67 96 21 3b 66 ba 68 bd 8b db 9c bb 79 9f 2c 3d
       0.0024656297 -0.05681839 -0.0047869137 0.042144272
0003d0 c0 6e e6 bc a7 99 4b 3d 1d 1d 94 bc fe f4 bb bc
       -0.028128982 0.04970708 -0.018080289 -0.02294397
0003e0 d4 b6 32 3d 09 73 56 ba ca 43 04 3d ed 97 dd bc
       0.04363139 -0.0008180594 0.03229121 -0.027049983
0003f0 19 20 b0 3c 91 b7 a1 3b 84 dd 13 3d a6 1d f7 bc
       0.02149968 0.004935213 0.036099926 -0.030165505

to_mean.2.bias f4 [18]
000000 b0 78 b1 bc 0d a0 89 3d 96 65 3d 3d bc 80 58 bd
       -0.021663994 0.067199804 0.046239458 -0.052857146
000010 95 82 70 3c b5 ce 62 bd b2 f0 a0 bd 2c bb ad bc
       0.014679571 -0.055372912 -0.07858409 -0.021207415
000020 c8 6f b4 3c f9 3b c6 bc 6d f2 43 bd dd a8 94 ba
       0.022025958 -0.024198519 -0.047838617 -0.0011341829
000030 87 50 2f 3d 81 19 c3 bd 4f 88 c7 bd 06 b7 f5 3b
       0.042801406 -0.09526349 -0.09742796 0.0074986247
000040 d3 00 95 3d ab e1 26 3d
       0.07275548 0.040742557
