saves/save3_1_23/save2_Standing_32700.pth (torch, 942043 bytes, 11 tensors)

shared_net.0.weight f4 [512, 67]
00000000: 5b03 8b3c 60b0 66bd 0c27 a6bd 9a51 fdbd
00000010: b01a 8fbd 05dc 0cbd 9458 bdbc 576a c43d
00000020: 6c0c 8d3d 3455 083d e6f4 f9bf 4826 adbc
00000030: 803c a7be 3d55 25be 53e8 aa3d c3a0 c23d
00000040: 3021 0bbc 2c11 9a3d b67a 6fbd a6c8 06bd
00000050: 44dc 7d3c 14c1 273e 6601 0d3e 3bd6 af3e
00000060: 2736 203d dade 843c faa3 48be 95ee c9bb
00000070: f17e d6bd ac96 6bbd 089d d5bb 9671 173d
00000080: 2cde 31bb ac40 62ba e1d8 97bb 7fdc 86bc
00000090: 15d4 04bb 62e7 903c 4803 1f3c 4359 473d
000000a0: e5b4 b1ba 3c91 563c bcf5 c23b 7c5a 473c
000000b0: d2ec 51bd a35f 5bbb d26b c2bc d55c aa3c
000000c0: d10d 19be 388b dfbc 90e9 093e 16e8 0e3e
000000d0: a329 be3d 5391 1f3d 3a75 d3bd f712 1cbd
000000e0: e4df d7bc 2941 e3bd b49e 5e3d cc42 0b3d
000000f0: d146 183e 06e3 163d a27c 9abd 77ef c2bc
00000100: 1c3c 803d 0802 023a fe87 92bd c3db 4bbc
00000110: d526 bc39 3e3b 463d b7b8 1fbc 7454 4bbe
00000120: 6315 143e 0f74 3f3d c3ef a93d cb28 ba3e
00000130: 5b46 433d aad2 91bf e317 c1bd 7018 c43d
00000140: 6ab9 3fbe 2664 333e 0dd5 243e b329 183e
00000150: 1d7a e73e 5d26 95bd 4c75 a6be 014e 643c
00000160: 5e38 5e3e 0b31 90bd 1292 ba3d 46d7 6ebe
00000170: 3f31 c0bc e81f 3e3e c387 ecbd 0bd8 77bd
00000180: 335e 0abe 8384 8dba 0eff 05bd 56a3 f4bb
00000190: 1c96 193b 21a1 4bbb f13f 303c 1bde 94bb
000001a0: 7494 d5bb 849c 68bc 9f22 a1bc 8bc7 8f3d
000001b0: d26d 59bc 145f b43b bf83 943c 6cef d3bc
000001c0: b2cf 74bd 62b9 04bc 4053 df3d 84c0 e63c
000001d0: c34c 6ebd 33c9 603d 8174 debb 7237 893e
000001e0: 8a29 f63c 7761 22be d20a 1dbe 5ccc 7d3d
000001f0: f9da 8abd 0eb9 0bbe fa69 8fbd b05a 82bd
00000200: 9984 dfbc 55cb 3cbe e87f 25bd e14c 043e
00000210: e524 2fbe 04bf 7cbb d7ba 363f 1fec 73bc
00000220: df15 613d 6100 70bd 881b d4bb 1512 8c3d
00000230: ecd6 8b3d 5483 443d ff74 c03d b6e5 a63c
00000240: 104e 6cbf 3b89 abbd 40c0 f73d a3d9 e83c
00000250: f9c3 d4bc 8478 ebbd 4b46 91bc 6f51 87bd
00000260: 1ddb b83d df9b a03d b238 6b3e 7bc7 3fbe
00000270: cc92 c93d 94d4 40bd fc89 21be 543b e7bc
00000280: 1e05 13be c81a 9c3d 6344 febd 9189 d9bd
00000290: edea ba3c 1c5b 493d f22b 71bc cb0e 003c
000002a0: 1358 253b 82b0 9fbb 18aa 5fbb 17d5 183c
000002b0: cd94 08bd f6df 27bc d062 a7bd 0cae ac3c
000002c0: 599b a8bb 1f03 62bb 81f3 1d3c cf5f 8fbc
000002d0: 50f2 5abc cc79 4bbd d976 003e 49b0 b53d
000002e0: 5d6d db3d 6696 d2bc dfe3 9f3a 1590 4fbc
000002f0: 30b0 d1bd 8781 e63c 2711 4a3e 3189 563d
00000300: 390b a9bc 5eec bfbc 22ca e7bd 55c7 7fbd
00000310: e09c 80bd 266a bcba d25c b9bd 9f60 d5bc
00000320: 7f13 d83b 384f 0c3f 05c8 1dbd f88b e9bc
00000330: 7d97 68bc 0508 08bc beda 693d 2e8a 94bd
00000340: c3d6 563c cb74 89bd 4242 f43c d1e5 a1bf
00000350: 71bb 273e 3e67 f6bd dd9f b8bd 23b6 1abc
00000360: 4a42 bebe 4a46 afbd 5e87 d83d e1e1 9bbe
00000370: e122 be3d 2938 733e a9c6 2bbe 5bfe eabd
00000380: 9d6d 20be 62fb fd3e f4b4 04be 3f45 ddbe
00000390: f3fd 9d3d eac4 c23d 333f 1f3e ca9e 0b3d
000003a0: cee2 f03c cf24 45ba 6880 5bba ad01 dfbb
000003b0: cf1a 75b9 868a 5c39 d011 a2bd 15f2 07be
000003c0: 6f8e f7bc 25c5 c83d 7193 49bd 39fd 063c
000003d0: 4156 453c c0e2 bfbc fa71 62bc f6b9 b3bc
000003e0: b217 45bc c731 dbbd 5628 623b 25de 07bc
000003f0: 8c32 753e cf5c 23bd c57a adbd 95ff 0ebe
0.016969373 -0.056320548 -0.08112916 -0.1236908 -0.06987512 -0.034389514 -0.023113526 0.09590595
0.06887135 0.03328438 -1.9527862 -0.021136418 -0.32663345 -0.16145797 0.083450936 0.09503319
-0.008491799 0.075228065 -0.058466636 -0.032906197 0.01549441 0.16382247 0.13770065 0.34343132
0.039114144 0.016219545 -0.19593802 -0.0061624744 -0.10473431 -0.05751674 -0.0065189637 0.03697356
-0.0027140481 -0.00086308527 -0.0046340083 -0.016462563 -0.0020268012 0.017688457 0.009705372 0.04866911
-0.0013557939 0.01309615 0.005949704 0.012167569 -0.05125124 -0.0033473752 -0.023733053 0.020796219
-0.14946677 -0.027288064 0.13468003 0.13955721 0.09285285 0.03895695 -0.103250936 -0.038104024
-0.026351877 -0.11096413 0.05435057 0.03399925 0.14870764 0.0368376 -0.07543303 -0.023795826
0.06261465 0.0004959409 -0.07154845 -0.012442532 0.00035887086 0.04839634 -0.009748629 -0.19856435
0.14461283 0.04674154 0.08297684 0.36359248 0.047674518 -1.1392415 -0.09428384 0.095749736
-0.18723074 0.17518672 0.16096897 0.14859657 0.45210353 -0.07282708 -0.32511365 0.013934613
0.2170119 -0.07040604 0.09109892 -0.23324308 -0.023460982 0.18566859 -0.11549332 -0.06050877
-0.13512497 -0.0010796938 -0.032713942 -0.00746576 0.002343542 -0.0031071382 0.010757432 -0.0045430786
-0.006517941 -0.0141974725 -0.019669829 0.07020482 -0.013270812 0.0055044983 0.018129228 -0.025871001
-0.059768386 -0.008100839 0.109045506 0.02816797 -0.058178674 0.05487938 -0.0067887907 0.26800114
0.030049104 -0.15857492 -0.15336159 0.06196247 -0.06780047 -0.13644812 -0.07002635 -0.063649535
-0.027284907 -0.1843694 -0.040405184 0.12919952 -0.17103918 -0.0038566003 0.71378845 -0.014887839
0.0549525 -0.05859411 -0.0064730085 0.068393864 0.068281025 0.047976807 0.09397315 0.020373207
-0.92306614 -0.08375784 0.12097216 0.02842409 -0.025972353 -0.11497596 -0.017733714 -0.06607329
0.090261675 0.0784223 0.22970846 -0.1872844 0.098424524 -0.04707773 -0.15775293 -0.028226532
-0.14357421 0.076222956 -0.124153875 -0.10621942 0.0228171 0.049159154 -0.01471995 0.007816027
0.0025229498 -0.0048733363 -0.0034128483 0.009328148 -0.033345032 -0.010246268 -0.08173144 0.021079086
-0.005145472 -0.0034486724 0.009640575 -0.01750174 -0.013363436 -0.0496767 0.12545337 0.08871514
0.10714219 -0.025706481 0.0012198648 -0.012668629 -0.10238683 0.028137935 0.19733106 0.05237693
-0.020635234 -0.023428138 -0.11317851 -0.062445957 -0.062799215 -0.0014374896 -0.09050907 -0.02604705
0.006594121 0.5480838 -0.03852083 -0.028509125 -0.014196274 -0.008302693 0.057093374 -0.07252918
0.013112727 -0.067117296 0.02981675 -1.2648259 0.16380097 -0.12031411 -0.090148665 -0.009442839
-0.3715995 -0.085583284 0.10572694 -0.3044577 0.092839964 0.23751892 -0.16775002 -0.11474296
-0.15666814 0.49605852 -0.12959653 -0.43216893 0.077144526 0.095102146 0.15551452 0.03408698
0.029405024 -0.00075204385 -0.0008373321 -0.0068056197 -0.00023375008 0.00021032439 -0.07913554 -0.1327594
-0.030219285 0.09803227 -0.049212877 0.008239084 0.01204449 -0.023423553 -0.013821119 -0.021939259
-0.012029575 -0.10702854 0.0034508905 -0.0082927095 0.23945063 -0.03988343 -0.08470682 -0.13964684

shared_net.0.bias f4 [512]
00000000: 1516 22bd 4dce 5e3d c060 0abe cf88 38bd
00000010: 5e6d 5dbe 34f6 01bd 6e95 f03d 23a3 583e
00000020: e9b2 2abe 31f0 05bd 9081 ed3d 3d74 cc3c
00000030: 894d 723d 42aa 89bc 9ca5 433d 0daa e3bd
00000040: d97c 28be 57d8 b63d b406 133e 40d3 1cbc
00000050: 7772 943e eb40 e0bd c8dc 5dbb dc42 583d
00000060: cb69 5d3e 8298 cf3b c271 7dbd e668 3b3e
00000070: 35a1 fcbd b805 09bd 4fc7 523e 57c9 483e
00000080: cc71 803e 5de0 a63e f096 063f 2356 60bd
00000090: 801d e63b 6728 6a3e 421b f33d f98e 38be
000000a0: 1e45 9fbe f7f2 ddbe a09b 2dbe 8a56 d2ba
000000b0: fe0a b93d 063b b6be 7372 70be 84c1 983e
000000c0: 6f52 63be 3eff c2be ba06 b5be 5bad f4bc
000000d0: 22d8 bb3d b5bd db3e f897 94be 9e08 a7be
000000e0: 9a2a 15be 7a9a 683e df7c 28be 6626 59be
000000f0: ce15 fc3d 0f21 58be 8083 3fbe 7dcf c8be
00000100: adda 103c 6307 733b d611 d33d 0645 b73e
00000110: a340 d43e d1f3 64be 2428 d73e 0465 3abe
00000120: 71ed 583e 4b8f 6c3e 777d 64be 960a a1bd
00000130: 43b7 9abe 1119 00be 423d 4fbf 5b61 e8be
00000140: 4c36 c63e 2bc0 2fbe da1f f33d 0e3a edbe
00000150: 183b c63e 51df 6abe 115c 893d 8d5a 52be
00000160: 613b 77be f757 c6be 1051 8ebe e3d4 58bd
00000170: 85f6 14bd 0397 1a3d 50a0 5ebe 84a3 c6be
00000180: 81a3 693d f34c 033e 9e3d b4be d7e5 c6be
00000190: b274 6a3e f83e a3be 9a6a 643d 1129 4fbe
000001a0: edb1 183d 93c5 37be 6fab 283e 0456 ae3e
000001b0: 13d3 e0bd 9ea4 393c 28e8 b03e ac17 293d
000001c0: 9eaa 813e a7a6 bb3d 2fa9 853e 4fb9 ec3e
000001d0: 01cc 77bc bc5f d9bd 6805 0b3d 2314 97be
000001e0: e32d 333d 85c1 dbbe 3c5b 8a3c 3a91 4bbe
000001f0: c5db 73be ec85 c03c 54b6 1c3d 222e bdbe
00000200: 3a42 b43e 38ac 34bd 6666 c3bd ed77 2cbd
00000210: 1930 33be c929 2bbe 4ce3 bcbb 9b97 28be
00000220: fd6f 99bd 05b2 63be 126b 34be d082 a5be
00000230: 78f4 0cbd 0cb8 1a3c cfdb d63e c527 d5be
00000240: dead 52bd 63a8 913b 076a 81bd d940 80be
00000250: 586d 0e3f 7a37 eb3d d25e ccbe d827 593e
00000260: ba53 81be 39a7 60be 9100 f23c 5cf6 48be
00000270: 7214 58be eb84 9dbb 26ce 3cbe a1a1 363e
00000280: 1ea5 3a3e 8134 80bf bfe2 be3d 885d 94bd
00000290: 76c0 e13b 3513 ba3e ebde ccbd 1974 583d
000002a0: 07f6 a53e 3895 d4be eb70 2ebd 483b 71bc
000002b0: dea3 79bd 98d3 f53c be7f bc3c 549c 843c
000002c0: 31c8 b8bc 09a3 853d f48e a1bd fc77 d83d
000002d0: 6882 dbbe 189d 13bd 1872 41bd eb8e 41bd
000002e0: 5531 c03b 44ed 47be 33e8 05bd 402d 3bbd
000002f0: 58c3 a6bd 833e 57bd de1d 403b 7006 383d
00000300: df05 343e 4814 9ebe bc9b a53e 40ac 933e
00000310: 6bfc 063f 9bfe 1c3f f148 abbd 1dd6 10be
00000320: 6b5c b6bd f6c4 b0be cc2f 06bd 5e4c 96be
00000330: 4adc 93bd 785c e13e 0584 9d3e d6c1 ecbd
00000340: 5e54 503e cd53 673e bff6 30bd 1d8f ab3e
00000350: 49c4 57ba 4db4 7ebe d230 953e 5c89 34be
00000360: 7e89 903e 9ecf f3bd 2f2d 753e 465a 1fbe
00000370: 4f95 02be b978 ce3e 0de3 13bf 069f bbbe
00000380: 06d1 303e b2ae b43e cae8 873d d0dd 8bbc
00000390: 87bd 8dbd 99db e2be c5ff 983d 2b89 413d
000003a0: bebe f6be 5f2e 51be 06ae 9dbd b800 c03e
000003b0: 8fa7 b1bd 2e39 093f 535c dbbe aad8 0b3e
000003c0: a67c cfbe 614f 813d bf3a 88bd dfd0 abbe
000003d0: 18c7 b2bd 2193 5ebe 30b9 a53e d8f9 9cbe
000003e0: 7d56 cebe 0680 58be 8802 8f3e 024a 7dbe
000003f0: 1016 37be 82c8 b4be bef5 5d3e 771c acbe
-0.03957184 0.054395963 -0.1351347 -0.045052346 -0.21623752 -0.03172894 0.117472515 0.21155982
-0.16669811 -0.032699768 0.11596978 0.02495777 0.059155975 -0.016804818 0.04776536 -0.11116419
-0.16453876 0.08927982 0.14358026 -0.00957185 0.2899358 -0.10949882 -0.003385352 0.052798137
0.21622388 0.006335319 -0.061876066 0.18301734 -0.12335435 -0.03345272 0.20583843 0.19608055
0.2508682 0.3259305 0.5257406 -0.054769646 0.0070225596 0.22866975 0.118704334 -0.1802329
-0.3110742 -0.4334943 -0.16953897 -0.0016047519 0.090353 -0.35591906 -0.23481159 0.2983514
-0.22199415 -0.3808536 -0.35356694 -0.029867819 0.091720834 0.42918172 -0.29022193 -0.32623762
-0.14567032 0.22715178 -0.16453885 -0.21206054 0.123088464 -0.21106361 -0.18702507 -0.392208
0.008841199 0.003708326 0.10306136 0.35794848 0.41455564 -0.22358634 0.42022812 -0.18202597
0.21184327 0.23101537 -0.22313486 -0.07863347 -0.30217943 -0.12509562 -0.80952847 -0.45386776
0.387133 -0.1716315 0.118713096 -0.46333355 0.3871696 -0.22936751 0.067070134 -0.20542355
-0.24143745 -0.38738987 -0.2779622 -0.0529374 -0.03636791 0.037741672 -0.21740842 -0.38796628
0.057040695 0.12822323 -0.3520326 -0.3884723 0.22896078 -0.3188398 0.055765726 -0.2023051
0.03727906 -0.17946462 0.16471647 0.3405 -0.10977759 0.011330752 0.3455212 0.04128234
0.25325483 0.09162646 0.2610564 0.4623513 -0.015124322 -0.10613963 0.033940703 -0.2950755
0.043744933 -0.4292108 0.016889207 -0.19879618 -0.23814304 0.023501359 0.03825982 -0.3694926
0.35206777 -0.044109553 -0.09541015 -0.042106558 -0.17498817 -0.16715159 -0.0057644006 -0.16464083
-0.07492063 -0.22235878 -0.17618969 -0.32326365 -0.03441283 0.009443294 0.41964576 -0.41631904
-0.051435344 0.004445122 -0.06319051 -0.25049475 0.55635595 0.11485191 -0.39916092 0.21206605
-0.2525919 -0.2193879 0.029541286 -0.19625229 -0.2110155 -0.004807105 -0.18438014 0.17835094
0.1822705 -1.0016023 0.09320592 -0.07244402 0.006889398 0.3634278 -0.10003456 0.052845094
0.32414266 -0.41520095 -0.042588156 -0.014723606 -0.06094729 0.030008122 0.023010131 0.016187824
-0.022556396 0.06525237 -0.07888594 0.1056976 -0.4287293 -0.03603849 -0.04722795 -0.047255438
0.005865256 -0.19524103 -0.032692146 -0.04569745 -0.081427276 -0.05254985 0.0029314677 0.044928014
0.17580365 -0.30874848 0.32345378 0.28842354 0.5272891 0.61326 -0.08363522 -0.14144178
-0.08904346 -0.3452527 -0.032760426 -0.2935514 -0.07219751 0.4401586 0.30764785 -0.11560409
0.20344684 0.22590561 -0.043204065 0.33507624 -0.0008230848 -0.24873467 0.2913881 -0.17630523
0.28229898 -0.11904834 0.23943017 -0.1556178 -0.12752269 0.4032648 -0.57768327 -0.36644763
0.17267236 0.35289532 0.06636198 -0.017073542 -0.06920915 -0.44308165 0.07470659 0.047249954
-0.481924 -0.20427845 -0.07699208 0.37500548 -0.086745374 0.53602874 -0.42843875 0.1365687
-0.40524787 0.063139684 -0.0665183 -0.33557793 -0.0872938 -0.21735813 0.3236785 -0.30659366
-0.4030036 -0.21142587 0.2793162 -0.24735263 -0.1787951 -0.35309225 0.21675774 -0.33615467

shared_net.2.weight f4 [256, 512]
00000000: 47b6 a3bc 13d9 bdbe ddec 0abe 3b60 693d
00000010: 434a 8bbe 3e97 b6bd 248c babd 4aea d1bc
00000020: 505e b4bc 57b6 47bd 898b 9b3d c761 14be
00000030: 6d4e 103e 7c92 fdbd e20e 0dbf 582b bc3c
00000040: b868 4d3d 019f 44be ccd0 6c3c 34cb 83bd
00000050: daaf a73d 831f f73b 18cb b53d 06bb 183d
00000060: 152e 58bd 866a 9d3d e684 783e b352 35be
00000070: dd75 063c db99 b73c d95b 77bc db1f 41bd
00000080: 5aac 08be c954 e6bb abec acbc 9d31 07be
00000090: ef73 79bd d485 0b3d 4842 29be f60f 973c
000000a0: 21de 983c 9446 933d b8cc 0a3e 3c20 e13c
000000b0: fb63 b8bc 23c3 bd3d 7bd7 f63d 99e7 bbbe
000000c0: 0fb9 45bc 361c 353e c830 ca3d f3ba 91bd
000000d0: e674 b0bc 2f52 a6be b74f 23bd 5928 823e
000000e0: 630d 643d ea12 c8bd f7e8 8c3d 3d18 a23d
000000f0: 279d 52bd 0755 883d bb86 0dbd 3ea9 b93d
00000100: 8955 31bc e226 223d 3480 82bd f859 e0bc
00000110: 1e2d b3be 3a32 93bd 13d3 0e3c c6b4 8e3e
00000120: 0243 b33c 0415 04be 4669 d43c a6da 433e
00000130: 4fb9 973d a27c 713d cbd3 ed3d d481 093d
00000140: 56d8 223e 48e5 9f3d bf98 59bd 308f ea3d
00000150: 359f 823d 503c 823d face dfbd 6b39 1d3d
00000160: 0441 c73c cd34 733d 4bd5 973d e0ff 28bd
00000170: 1093 babe ded5 57bd 3163 503d 98d2 983d
00000180: ae15 7abd 8b13 41be 939e cc3d af13 ad3e
00000190: 82cb 0b3d c06a 343d c59a b3bd a2d1 1e3e
000001a0: 0549 2dbd d662 09be 4b06 603e a81e e1bd
000001b0: 66ff e3bb 84ce 73bc 8c66 22bd ae66 6ebd
000001c0: 4ce8 b7be 374a 6fbe c83b 783d 8216 23bd
000001d0: 604d 56be 194b c0bd d285 793d 9cc6 9d3d
000001e0: 1db9 83bd 0201 0cbd 170a 7e3e 2a7b 693b
000001f0: 06d7 be3d 902e 2bbe 2259 6c3d 3124 cf3d
00000200: 9889 e9bc 4b27 a33d b22a ab3d 1cc6 1139
00000210: edee 68be a95d aa3c 4e77 b13b 0e02 e93d
00000220: be0b 7a3c 8a81 f93d 38e4 193d 3884 80be
00000230: 3241 9cbc d53f 003e 8d8c 78be 8252 89bd
00000240: 991e a13d 717d 05be 6a19 bdbc 7c4a e23d
00000250: 7502 88be cc85 29be 153a ae3d 822b dbbd
00000260: 9004 753d af1a 103d da4d 303e 21fe adbd
00000270: c5ee d7bd 289b cd3d a36c 0fbc 792d 93bd
00000280: 1193 bcbd 13d8 2d3e 616e db3d 6288 b8bd
00000290: e4c2 cbbd 1574 c8bd 2418 f73c f4a8 883d
000002a0: d2cf d6bd 7560 9c3d d401 f53d 4200 78bd
000002b0: 01cb 073e a3af 15ba ee78 84bd daaa b43c
000002c0: 1989 44bd c4ab 95bd 0a66 d8bd 889e 40bd
000002d0: dd7f 193e 180f ad3b 4f82 973d 1bc7 8ebd
000002e0: 2f60 73bc 7c43 e03d 41b5 23be 6a8b a73c
000002f0: c998 833e 9740 433e 81f6 fdb7 ef3f 64bd
00000300: 2ee4 c13d fb62 d33d 689d 063e e04c 5ebd
00000310: 3844 103e 25ac 78be a9f4 3d3d 5076 a0bc
00000320: ad92 0abe bebb c33c adf2 1a3e 00e0 08bd
00000330: 937a 033d f476 78be 9a67 403d 13de ae3d
00000340: d05f 7ebe d094 6ebb 47f1 f73d 09e7 5ebd
00000350: 91ce 63bd 4c5f 2abe 6005 cbbd 3b1b 643d
00000360: 9cbe 993d b647 e3bc 2ce1 e03c 8a26 2b3c
00000370: 3616 c3bb 115e 9bbe ee87 3b3e 01ae 9f3d
00000380: 36fd db3c cafe 82bd fc11 87bd 5517 8c3d
00000390: da73 b1ba bcbd 103e acb9 8a3d 27f8 adbc
000003a0: d385 c83d 6d07 8fbd e10a 0fbb 1751 77bd
000003b0: bf16 22bd 5758 98be 7d0b 53be d868 4ebd
000003c0: b2b8 003e dee8 f9bd b5d9 b03d 0bce 9d3d
000003d0: 62b5 0dbd a26f f03d 6045 5bbe 1bb6 48be
000003e0: 099b 093e a07f 0e3d 8c4e a6be 3320 ce3c
000003f0: 3ff1 59be bcca 8e3c 0019 153e b182 503e
-0.019984378 -0.37079677 -0.13566919 0.05697654 -0.27205095 -0.08915566 -0.09108761 -0.025624413
-0.022017628 -0.048757877 0.075949736 -0.14490424 0.14092417 -0.12381455 -0.55100834 0.022969887
0.050148696 -0.1920128 0.014454078 -0.06435242 0.08187838 0.0075415983 0.08876628 0.037287734
-0.052778322 0.07686333 0.24269447 -0.17707328 0.008206812 0.022412231 -0.015097582 -0.04714952
-0.13346997 -0.00702915 -0.021108946 -0.1320252 -0.06090158 0.034063175 -0.1652919 0.018440228
0.018660607 0.07191196 0.13554657 0.02748119 -0.022508612 0.09265735 0.120528184 -0.36700132
-0.012068047 0.17686543 0.098725855 -0.07115736 -0.021540117 -0.32484576 -0.039870944 0.25421408
0.05567683 -0.097692326 0.06880372 0.07914779 -0.051419403 0.06656843 -0.034552317 0.090654835
-0.010823616 0.039587863 -0.06372109 -0.02738665 -0.3499536 -0.07187314 0.008717316 0.27872294
0.021882538 -0.12898642 0.025929105 0.19126377 0.07408392 0.05895675 0.11612662 0.03357108
0.15902838 0.07807404 -0.053124186 0.11453092 0.063780226 0.0635916 -0.109281495 0.038384836
0.024322994 0.059376527 0.07413729 -0.041259646 -0.36440325 -0.052694194 0.050875846 0.074620426
-0.06105583 -0.18855111 0.09991183 0.3380408 0.034129627 0.044047117 -0.08769754 0.15509656
-0.042305965 -0.13416609 0.218774 -0.10992175 -0.006957936 -0.01488078 -0.039648578 -0.05820339
-0.35919416 -0.23368154 0.060603887 -0.039816387 -0.20927954 -0.09389324 0.060918637 0.07703897
-0.06431792 -0.03418065 0.24808536 0.003562639 0.09318356 -0.16716981 0.05770219 0.10114325
-0.028507993 0.07966479 0.08357753 0.00013902079 -0.22747393 0.020796614 0.0054158336 0.11377345
0.015261589 0.12182911 0.037571162 -0.25100875 -0.019074056 0.1252435 -0.24272366 -0.0670519
0.07867164 -0.13036133 -0.023083407 0.11049363 -0.26564375 -0.16554946 0.08507172 -0.10701658
0.059818804 0.035181697 0.17217198 -0.08495737 -0.105435885 0.10039359 -0.008753928 -0.071864076
-0.09207738 0.16976957 0.107144125 -0.09010388 -0.09949282 -0.09787766 0.030162878 0.0667285
-0.10488857 0.07635585 0.11963239 -0.06054712 0.13261034 -0.0005710071 -0.06468378 0.022054125
-0.04798231 -0.07308152 -0.105663374 -0.047026187 0.14990182 0.0052813403 0.07397901 -0.0697157
-0.014854475 0.109503716 -0.15987112 0.02045222 0.25702503 0.19067608 -3.0274738e-05 -0.055725034
0.0946735 0.103216134 0.13145983 -0.054272532 0.14088523 -0.24284418 0.046375904 -0.019587666
-0.13532515 0.023893233 0.15131636 -0.033416748 0.032099318 -0.24264127 0.046973802 0.08538451
-0.24841237 -0.0036404617 0.12106567 -0.05441955 -0.05561692 -0.16637915 -0.099131346 0.05569003
0.07507059 -0.027744155 0.02745112 0.0104462 -0.0059535755 -0.30345204 0.18313572 0.077968605
0.026854139 -0.063962534 -0.06595227 0.06840388 -0.0013538555 0.14134878 0.06773695 -0.021236492
0.0979115 -0.06983838 -0.0021826553 -0.060380068 -0.039572474 -0.29754898 -0.20609851 -0.050392956
0.12570456 -0.12202619 0.08635274 0.07705315 -0.03459681 0.11740042 -0.21413183 -0.19600718
0.13438047 0.03478968 -0.32481802 0.025161838 -0.21283434 0.017430656 0.14560318 0.20362355

shared_net.2.bias f4 [256]
00000000: d171 63be b0e2 79bd 25bc 623b 0dee bbbd
00000010: 82b9 453b c192 17be 1151 22be 3845 36be
00000020: 0072 35be c818 ccbd e9b9 12bd 17fc a8bd
00000030: 2135 c5bd cac1 f7bd 41b1 33be 04a8 d83b
00000040: c764 21be 59f5 c3bd 7895 31be bbae 33bc
00000050: 8693 fa3c 9c07 c8bd c790 32be cf90 acbd
00000060: da83 04bc e50d 88bd 022e 04be a667 61bd
00000070: 41ce 0cbd a119 14bd ad2e 81bd def5 22be
00000080: a30f e23b 26e4 3cbe cde1 18be b596 67be
00000090: 009e 62be 15d5 e93c 2936 23be 55f5 2dbd
000000a0: 07c7 a7bd cf2e 4ebe 4238 b9bd 0ada 28bd
000000b0: 4bb5 dabd 1b3b 103c 5691 89bd 7393 063e
000000c0: 737a c1bd e46a 3a3c aa7e 82bd bc02 e6bb
000000d0: cc9d acbd 3fc7 9ebd a126 9ebd 3176 c03c
000000e0: 8dcc 8a3d 8967 39be 6c24 4dbe 2350 53bd
000000f0: 9f63 02bc c0e7 b13e 17ab b43d 400a af3e
00000100: 2984 9fbd aa4b 173c b389 f1bd 0f0d ecbd
00000110: d553 f1bc 8915 5bbe f960 febd 8604 48bc
00000120: 2328 d03d 7a66 dbbd 1a1d a7bd 7d9e fdbd
00000130: 2d4d fcbd 9331 01be 476e f8bd 07cf 133e
00000140: 0c42 82bd a83c 36be 8f8a 323b 7a43 44be
00000150: 667e 00be aae7 e8bd a725 073d 9119 d0bd
00000160: a4d1 a93d b53e 1ebe a135 46bd 5d50 abbd
00000170: 1b81 173d 646b 8bbc b2e7 223e 7c15 e9bd
00000180: aab5 a7bc 3f78 f7be 4bb2 80bd 0388 3cbd
00000190: bf56 a83d ed84 64bd 5539 d0bb f655 4abd
000001a0: fea1 873d 604a 933c fd04 15be caa2 b7bb
000001b0: d02b 65bd 57da 40bd 0ae4 46bd 509f 91bd
000001c0: 1865 87bd a912 c43d e6a9 e2bd c0f1 38be
000001d0: 921e 88bd 6102 24be 0537 76bc 8889 bcbd
000001e0: 2b9b abbc 2564 f2bd 09c9 fdbd 42e5 29be
000001f0: 339e 44be 9f6a 103e d32b 793d e63b 83bd
00000200: b9af f5bd 8262 91bd 8eb5 80bd 959b 28be
00000210: 7596 20be d435 913e f14c 29be 6714 cabd
00000220: bc77 8ebb 682c fbbd 406a 1bbe 28f9 7db9
00000230: ab02 023d c5a2 853d 8036 533d 8302 27be
00000240: d66f 7abc 50e0 53bd 93b3 1f3d 5eeb be3d
00000250: d6f0 f5bd 1ea4 8fbd 9f97 b1bd 239b b339
00000260: 267d a0bd d83e bfbd d649 bbbd 8652 1ebe
00000270: 509e 2a3e b4ae dcbd fccc 5cbd af99 e23d
00000280: 7c7b a2bd 185b f4bd b4a4 2dbe aba6 a83c
00000290: 59b7 dabd 50c2 95bd 52f6 1fbe fbaa 16bb
000002a0: 1308 b0bd 26f1 e0bd ec38 dcbd fb1c 1d3d
000002b0: 5abb 21be 3dff 19be 2038 bbbd a8c9 e1bd
000002c0: 538d 35be dc0d f1bb e752 71bd ebb3 edbd
000002d0: 1b6a 17be 71ad d5bd 17d5 cabd 85a6 fbbd
000002e0: 3e37 363e 65c1 84bd 6b7b 2cbe e4e0 a1bd
000002f0: c984 26be 02ab 19be 6650 653c 5aab e23d
00000300: d44c 9e3d cea4 f9bd d0ad 58be cb25 c3be
00000310: 2b22 fdbd 6e38 acbb ea4e e8bd d881 0abd
00000320: a987 06be 2c12 69bd 0386 8dbd f16e d03c
00000330: b702 a03c 2ad5 dbbd 3b09 ecbd fc5d b2bd
00000340: cfa2 413d 1f46 f0bd e53b 8abd 1745 c53b
00000350: a629 bcbd 34f3 98bd 1890 b13d 395c 103d
00000360: ebe2 99be a383 363e a496 05be f997 1bbd
00000370: a735 a3bd 2751 9ebd 64cb d1bc 7db4 41bd
00000380: e53c c3bd 4e05 1d3c 2eb5 42bc ffb5 6dbe
00000390: fbba 44be a46a b03d 7e9b b03c 5fd8 68be
000003a0: c8e4 57be ba10 11be 5831 c4bd 5ff6 1a3e
000003b0: ce12 efbd 8dc8 873d b69b 2abe 19a0 20be
000003c0: 6a1c afbd bed0 14be f2fd 22be 09b2 b5bd
000003d0: d9ed 06be 905a 30be ade5 c0bd 5c1f 30be
000003e0: 779b 1d3d 8f41 c9bd 14f7 8cbe 67b6 febd
000003f0: 9f89 cbbc 8ba9 44be 37e3 01be 04da bbbd
-0.22211386 -0.0610072 0.0034597006 -0.09176264 0.0030170386 -0.14802076 -0.15851237 -0.17799842
-0.17719269 -0.09965664 -0.03582183 -0.08251207 -0.09629274 -0.12097509 -0.17548086 0.006611826
-0.157611 -0.09568281 -0.17342174 -0.010966952 0.030587923 -0.097670764 -0.1743804 -0.084260575
-0.0080880765 -0.06643275 -0.12908176 -0.055030487 -0.034376387 -0.036157254 -0.06307731 -0.15914103
0.0068988367 -0.18446407 -0.14929886 -0.22616084 -0.22130585 0.028543988 -0.15938629 -0.042470295
-0.08192258 -0.20135044 -0.090439335 -0.041223563 -0.1067911 0.008803154 -0.06717174 0.13142185
-0.094471835 0.011378024 -0.063718155 -0.007019369 -0.08428535 -0.07752847 -0.07722212 0.023493858
0.06777296 -0.18105902 -0.20033425 -0.051590096 -0.007958322 0.34747124 0.08821695 0.34187508
-0.077888794 0.009234348 -0.11793842 -0.11525928 -0.02945892 -0.21394934 -0.1242084 -0.01220811
0.101639055 -0.10712905 -0.081598476 -0.12383745 -0.123194076 -0.12616567 -0.12130409 0.14434443
-0.06360254 -0.17796576 0.0027243232 -0.19166365 -0.12548217 -0.113723114 0.032994892 -0.101611264
0.08291939 -0.15453608 -0.04839099 -0.083649375 0.03698836 -0.017018981 0.15908697 -0.11381051
-0.020472366 -0.48333928 -0.06284007 -0.04602815 0.082196705 -0.05579083 -0.0063544908 -0.049398385
0.066226944 0.0179798 -0.14552684 -0.0056041228 -0.055949986 -0.047083225 -0.04855732 -0.071104646
-0.06611079 0.09573872 -0.11067562 -0.1806097 -0.06646456 -0.16016532 -0.015027766 -0.092059195
-0.020948013 -0.11835507 -0.1239186 -0.16591361 -0.19200973 0.14103173 0.06083281 -0.06407909
-0.11996407 -0.07098867 -0.06284629 -0.164656 -0.15682395 0.2836138 -0.16533257 -0.09867173
-0.0043477695 -0.12264329 -0.1517725 -0.00024220778 0.031740826 0.065251864 0.051565647 -0.16309552
-0.015285453 -0.051727593 0.038989615 0.093222365 -0.120088264 -0.07013725 -0.086714976 0.00034257126
-0.0783637 -0.09338158 -0.091449425 -0.15461168 0.16661954 -0.107755095 -0.053906426 0.11064469
-0.07933709 -0.11931437 -0.1695736 0.020587286 -0.10679502 -0.07312453 -0.15621307 -0.0022990096
-0.0859529 -0.109834954 -0.107530445 0.038357716 -0.15794125 -0.15038772 -0.09141564 -0.11024791
-0.17729692 -0.0073563885 -0.058916952 -0.11606582 -0.1478657 -0.10433472 -0.09903925 -0.122876205
0.1779451 -0.064821996 -0.16843955 -0.079042226 -0.16261591 -0.1500664 0.013996219 0.11067839
0.077294976 -0.12189637 -0.21160054 -0.3811477 -0.12360033 -0.0052557504 -0.11343177 -0.033815235
-0.13137688 -0.056902096 -0.06910326 0.025443526 0.019532545 -0.10734017 -0.11525198 -0.08709332
0.047274407 -0.117321245 -0.06749705 0.006020199 -0.09187631 -0.07468262 0.08670062 0.0352442
-0.30055937 0.17823653 -0.13045746 -0.03798673 -0.07969218 -0.07730322 -0.02560968 -0.047291268
-0.09533099 0.009583784 -0.011884017 -0.23213957 -0.19211952 0.0861409 0.02155852 -0.22738789
-0.21083367 -0.14166537 -0.09579724 0.15133046 -0.116735086 0.06630049 -0.16660962 -0.15686072
-0.085503414 -0.14532754 -0.15917185 -0.08871848 -0.13176669 -0.17222047 -0.09418807 -0.17199463
0.03847834 -0.098269574 -0.27532256 -0.12437134 -0.024845896 -0.192053 -0.12684332 -0.091724426

to_mean.0.weight f4 [128, 256]
00000000: 5848 9bbc 590c cf3c ab24 a33c fd91 5e3d
00000010: 138c 903d 4835 353d 3395 f83d 0bb9 0b3d
00000020: 41f1 863d 1faf fb3c c615 1c3d dba5 18bc
00000030: 9f55 cd3d 480d c13d 9c39 ad3d 5f07 613d
00000040: c344 1ebb a594 0fbb 87a4 a1bb 36c0 a5bc
00000050: 11fa ba3d ef43 f63d d6c1 8c3d 34aa 263d
00000060: 25dd 15bc 4d7b ef3c 9a1b a43a ce86 66bd
00000070: 7962 61bd daf0 993b 3749 4b3d 49d2 893d
00000080: 89b0 983d d51f 86bd 151c 0a3e f08e 8e3d
00000090: 56a1 b73c 7fd9 a5bc cd66 fa3d ddf6 bb3d
000000a0: 0dd9 9c3d e212 c43c 3348 9f3d a8d9 c9bd
000000b0: d77f f33d 1735 1a3c d5bb 3c3d b8d8 b83b
000000c0: 8d03 04bc 1771 5dbd 9e1a 5f3d 0988 0c3d
000000d0: fa81 9b3d 4ce4 46bd c238 243e 6918 a8bd
000000e0: 3eab 1ebe 9b5f 36bc 52c1 bc3c 9f8c e43d
000000f0: dae8 ac3d 1840 3e3d f7d3 a7bd a271 0c3e
00000100: c44b 1a3d c1c3 2b3d 5e04 313d 79ba f43c
00000110: 6e69 b83d a463 173e cc35 613d 6f51 913d
00000120: ceae ca3d 9050 58bb 2f97 a1bc 5d0c 013d
00000130: 7a41 013c 89d4 d43d 71fa 8c3d 17fd 443d
00000140: d79f ad3d 18de 5abd 1148 683d 3b84 ca3d
00000150: 7e98 b13c 3205 843d 0f7d f9bb 0ea7 0e3e
00000160: fbb7 c03d 8a4d 933d 1dcb f7bd f47c eabc
00000170: ff77 2b3d c3ef af3d e26a a43d 3476 d83d
00000180: 1d8e 97bd 24d1 7f3d 508e 12bc 1a79 60bd
00000190: fd1d d33d 0a1a 98bd 5faf aebb d380 b23d
000001a0: 73c3 013e ec9f 153d 9601 18bd 8833 ffbc
000001b0: 411e eebb 0712 553d f309 803d 7eda 1abd
000001c0: a8da ee3c 2427 cb3d fbc6 763d 2143 7b3c
000001d0: 7acd e8bc a7a7 cb3d e347 593d 4707 08bd
000001e0: 8e82 c0bc 6dd9 03bd 2c9f 993d cc6b cf3a
000001f0: d95a b53d 6db8 1abd 9fb5 363c 11fc f53c
00000200: aff4 c7bd d048 553d d818 68bd 2d10 d43d
00000210: d579 40bc 471c 893c a11c 8c3d 0374 c13d
00000220: d720 c53c 3e5c 6f3c 44ba 913d c131 b4bc
00000230: 054e 043e ef41 b0ba cc6d bb3c c0bb ba3d
00000240: 1c9a cf3c 09c5 b5bc 65d8 a5bd 3291 4fbd
00000250: b509 683d b5cd 5f3c bad4 583d 13a0 ee3d
00000260: 897b c03d 4558 073d b875 2aba 839d 263d
00000270: 75f5 a63d 09ee 6d3d 0d29 ab3c db21 163d
00000280: eadf e23d 41a5 d2bd 8ed1 bc3c aa06 443d
00000290: 3eed 5f3d ef81 f83d bb12 cf3d cd6f fb3d
000002a0: a115 e73d 57cc c83c fdab 3a3d b2ef 77bc
000002b0: e1f7 cb3c d4fa ac3c 7ab0 d73d fcbe 023d
000002c0: e069 983d b413 a73c f429 0cbd 3e8d 813c
000002d0: 7fdd 57bc 15a6 9d3c 393f 0a3d 4d06 293d
000002e0: 8217 1c3d 2946 9a3d f6b7 5bbc 6ef7 6fbd
000002f0: 5598 0d3e d039 a53d 985c e6bc c8ea 003e
00000300: e7cd c33d 6a3e 39bd 7c62 2e3d 5416 ab3d
00000310: 0c67 0b3c 720a 013d 8b29 f33c 5611 9e3d
00000320: cd52 e03d ac4a 52bd cec2 5b3d 27e8 843d
00000330: 3eec 763d a5b9 673d 6d53 e33d 2f68 d6bc
00000340: ff96 a13c c36b 963d f8e8 6e3d e6f9 613d
00000350: 296c f53d 9220 5fbd 5f30 683d 88ec 65bc
00000360: 1466 dc3d dd39 55bd b48a 983d 729f cb3d
00000370: 7301 913d f1c8 72bd 8c18 12be e643 d03d
00000380: eb20 aa3d 4443 133d 6de1 a83d d73b 9f3d
00000390: 3170 903a fb26 1a3e b83f a03c 6116 b43b
000003a0: b805 943c 45ff c93c 4e63 513d ea67 8e3d
000003b0: 9091 653d 7d4d 803d 7f4d 7a3d 2840 6d3d
000003c0: 7675 8f3d 1440 f63d cc31 ec3c ae62 7d3d
000003d0: efba a13d 988a a83d ad23 1bbd 118c 66bd
000003e0: 77fd 73bb e830 eabb 0a45 b6bc a70e ddbd
000003f0: fd88 2a3d e70d b43d f45d 09be df3b 273d
-0.018955395 0.025274443 0.019914946 0.054338444 0.07057967 0.044240266 0.121378325 0.034112018
0.06588984 0.030723153 0.038106702 -0.009316887 0.100260966 0.09426361 0.08458254 0.05493867
-0.0024149872 -0.0021908667 -0.0049329433 -0.020233255 0.09129728 0.12024676 0.06872909 0.040689662
-0.009146963 0.0292336 0.0012520433 -0.056280904 -0.05502555 0.004697901 0.04963037 0.06729562
0.074555464 -0.0654904 0.13487275 0.06960857 0.022415798 -0.020245312 0.12226639 0.09177945
0.07658587 0.023934785 0.07777443 -0.09855968 0.11889618 0.009412072 0.046077568 0.0056410693
-0.008057487 -0.05406293 0.054468744 0.03430942 0.075931504 -0.048557565 0.16037276 -0.08207781
-0.15495011 -0.011131193 0.023041401 0.11159634 0.084428504 0.046447843 -0.08194726 0.13715222
0.037669912 0.041934732 0.043217055 0.029874073 0.09004484 0.14784104 0.054982945 0.0709561
0.098966226 -0.0033007003 -0.01972541 0.03150593 0.007889146 0.103921 0.068837054 0.048092928
0.08477753 -0.05343446 0.056709353 0.09888502 0.02167916 0.064463034 -0.007613785 0.13930914
0.094100915 0.07192524 -0.12099288 -0.028624035 0.041862484 0.08590653 0.08028199 0.105694205
-0.07400153 0.06245531 -0.008945063 -0.05480299 0.10308454 -0.074268416 -0.0053309645 0.087159775
0.12672214 0.036529467 -0.037110887 -0.031152502 -0.00726679 0.052019145 0.06251898 -0.037806027
0.029156998 0.09919575 0.060248356 0.015335829 -0.028418291 0.099440865 0.053047072 -0.033210065
-0.023499753 -0.032189775 0.07501063 0.0015824973 0.088552184 -0.03777354 0.0111517 0.030027421
-0.097634666 0.052071393 -0.056664318 0.10354648 -0.011747797 0.016737117 0.06841398 0.094459556
0.02406351 0.014609395 0.071156055 -0.02199638 0.12920387 -0.0013447384 0.022879504 0.09117842
0.02534204 -0.02218868 -0.080979146 -0.05067558 0.056649882 0.013659884 0.052937247 0.116516255
0.093985625 0.033043165 -0.0006502527 0.04067756 0.08152286 0.058088336 0.020893598 0.03665338
0.110778645 -0.10285426 0.023049142 0.047857918 0.05466961 0.12134158 0.101109944 0.12277184
0.11283422 0.0245115 0.045574177 -0.015132831 0.024898471 0.021115698 0.10531707 0.03192042
0.07442069 0.020395137 -0.034219697 0.01581442 -0.013175367 0.019244233 0.0337517 0.041265775
0.038108356 0.07532913 -0.013410559 -0.058585577 0.13827641 0.080676675 -0.028120324 0.12589562
0.09560757 -0.04522554 0.04257439 0.08353868 0.008508455 0.031504102 0.029682895 0.0771815
0.10953293 -0.051340744 0.053652577 0.06489592 0.06028389 0.05657353 0.110998966 -0.026172725
0.01972532 0.07344773 0.058327645 0.055169962 0.119835205 -0.05447442 0.056686755 -0.014033444
0.10761657 -0.052057136 0.074483305 0.09942521 0.070803545 -0.059273664 -0.14267176 0.101692006
0.0830706 0.03595282 0.082461216 0.077750854 0.0011019764 0.15053932 0.019561633 0.005495832
0.018069133 0.024657855 0.051120095 0.06953414 0.056047022 0.0626478 0.061109062 0.057922512
0.07004826 0.12023941 0.028832339 0.061861686 0.07896983 0.0822956 -0.03787582 -0.05628592
-0.0037229934 -0.0071469434 -0.022249717 -0.1079381 0.04163455 0.08791714 -0.13414747 0.040828582

to_mean.0.bias f4 [128]
00000000: e905 98bc 1578 55bd 35df 863d 3f30 f6bd
00000010: 9474 113c 7388 9b3c 958c 583d 2d1b 323d
00000020: 3941 6cbc ed2b 14bb c8da a5bc cb6b 03bd
00000030: e86a 6ebd 77a8 b63d 5d58 613d 69b1 c6bd
00000040: 971a 5f3d 8868 283d c103 173d 97d0 8abd
00000050: 06d8 9eba 82d9 97bc 5fa3 90ba 3a2c 483c
00000060: 76b1 53bd 55e3 d3bb 7410 48bd 391f d43c
00000070: efe1 903d 8f11 afbd b03f 62bc f36c 523d
00000080: db7b 2abd a6fa 823d a1b7 07be 7bdd 16bc
00000090: ad7e 8e3d 94e6 c93a 32b2 8bbd 16b0 c9bd
000000a0: d4f1 03bd 7bb8 b33d 1f19 e5bd 16fc f1bc
000000b0: 0a0e 133d 5e72 1e3d c8b9 83bd 38bf 1d3d
000000c0: 460c a5bd ecd1 613c 3778 603d 0292 4ebd
000000d0: 96c4 b7bb a636 aabd 20ac eabd e575 27bd
000000e0: a0a9 aebb 3665 efb8 bb0a 913b c438 bdbd
000000f0: 6579 1c3d fbd7 6a3c 84b8 e0bc 2b53 7f3d
00000100: 5632 00bd 3778 333c be0e 663c 11aa 12be
00000110: 5dae 713c 9332 31bd 52cf 8ebd 2bee 6abd
00000120: fda4 8f3d e3ad b4bd 17b2 b8bd 713a 4d3d
00000130: a7bc 03bd ea36 6dbd 133c ab3a 189b 97bd
00000140: efc5 13bd abe4 923d d6a1 903c 69b0 f5bb
00000150: ba62 a23c fec8 9ebd 9023 4bbd dd01 94bc
00000160: 9674 0b3c 2ff0 e23b 6bf6 ab3c ad69 8fbd
00000170: 772d c0bd 785c 15bd 04b7 c2ba c0cd e73a
00000180: 6cca 0cbb b169 cebd 89bb bdbc a4ec e63d
00000190: bbdb b2bc a5e4 b83d fac4 d4bd a582 803c
000001a0: 508f a4bd 4a2a cebd 8e46 a1bd 09e8 223c
000001b0: 6b8f 903d a119 013c 3dfa d9bc 8fc5 cdbd
000001c0: 4d1c 713c 5683 8cbd e58e 6dbd 39c0 453c
000001d0: f53d 5a3d 7cee bdbd 2e91 133b f926 e2bc
000001e0: 472c 4fbc baa9 99bd a642 9fbc 74f1 9a3d
000001f0: 468f abbc 7d64 bdbc a775 9abc 967a 4a3d
-0.018557506 -0.052116472 0.06585542 -0.12020921 0.008877892 0.018985962 0.052868444 0.043482948
-0.014419847 -0.002260919 -0.020245925 -0.03208522 -0.058207422 0.08918851 0.05501591 -0.09701807
0.054468717 0.041115314 0.036868814 -0.067780666 -0.0012118823 -0.018536333 -0.0011035017 0.012217576
-0.05168291 -0.006466309 -0.048843816 0.025893794 0.070743434 -0.08548271 -0.01380913 0.051373433
-0.041622024 0.06395464 -0.13253643 -0.0092080785 0.06957755 0.0015403801 -0.068210974 -0.09848039
-0.032213047 0.08775421 -0.11186432 -0.02953915 0.03590206 0.038683288 -0.06431919 0.03851244
-0.080589816 0.013782959 0.054802146 -0.050432213 -0.0056081517 -0.083112046 -0.114586115 -0.040883917
-0.0053302795 -0.0001141526 0.004426328 -0.09239343 0.03820171 0.01433372 -0.027431734 0.062335175
-0.031298004 0.010953954 0.014041601 -0.14322688 0.014751044 -0.043261122 -0.06973137 -0.05735604
0.07013891 -0.08822229 -0.09018343 0.050104562 -0.032162335 -0.0579137 0.0013064168 -0.07402629
-0.036077436 0.07172521 0.017655294 -0.0074978364 0.019822467 -0.0775318 -0.049594462 -0.018067295
0.008511683 0.006925605 0.020991525 -0.07002578 -0.09383672 -0.03646514 -0.0014855568 0.001768522
-0.0021482958 -0.10078753 -0.023160713 0.11275604 -0.021833291 0.090279855 -0.10389133 0.015687296
-0.08035147 -0.1006666 -0.07874785 0.009943017 0.07058605 0.007879646 -0.02660858 -0.10047447
0.01471622 -0.06860988 -0.057997603 0.012069755 0.053281743 -0.09274003 0.0022516954 -0.027606474
-0.012644834 -0.07503076 -0.01944096 0.07565585 -0.020942342 -0.023119206 -0.01885493 0.049433313

to_mean.2.weight f4 [18, 128]
00000000: 7e54 05bd 2d52 38bc 4ff5 863d b1ff ecbc
00000010: 0796 24bc 8241 18bb 4d75 943d a1cf ac3c
00000020: a84d 20bd 0526 033d 7f21 27bd 806a 06be
00000030: d66f 5ebc 869e cdbc 017b 493c 5cf9 8cbd
00000040: 8c41 3f3d 103e 2cbd c556 ab3d 5174 e0bc
00000050: c54d d53b 111b 1a3a 0ecd b03c e8e4 cf3d
00000060: e577 943c d73e 9c3c bc3d 883d 48cd 013d
00000070: 4b8e e2bc 8053 a5bd 7785 253d 7be2 023c
00000080: c450 823d f11c 69bd a242 c53d a514 853c
00000090: f8f5 45bc 1b07 ebbd d594 e23c b2c7 03bd
000000a0: 3fbf aebd ca3b 1b3d 4e63 41bd 8d5b 283d
000000b0: 9c19 6c3d cef6 693d fae3 eb3c b2af e23b
000000c0: d343 163c e61a ac3d 13b9 cf3c 669b 653b
000000d0: 138f 5abd 76bf a6bd 0f49 943c e524 3dbd
000000e0: 1537 603d d1e8 193d 76f0 2a3d 5aee 1e3d
000000f0: 0a7e a93c 2ced 543b 7d21 82bd a5ed 25bd
00000100: 6877 2ebd d0cc 8c3d 4859 103d 4519 fabd
00000110: 5b4c 2ebb a6f7 1a3d eeeb dbba 18b1 17bd
00000120: d533 983d cb30 8e3c b401 9b3d 1e6c 993c
00000130: f10c 4cbc a0e6 de3c 2dff a83d 278e d43c
00000140: 94d2 21bc 7acc f1bc b3d6 983d 0c56 1cbd
00000150: 2a10 9c3c 7cf3 0e3c a605 9dbc 8b27 b7ba
00000160: a747 a9bd 185d 6a3d be61 d2bc c872 483d
00000170: 0aa9 173d fb36 3bbd a1d8 7e3d e3ef 823c
00000180: 1ee2 a2bd 1a0c 06bc e753 54bc 70d0 983d
00000190: 92e7 8bbd 040b 573c e739 2cbb e2e6 d8bd
000001a0: 2222 3d3b 674e 3ebc 50d1 eebd c07d 193c
000001b0: 60cf 643d a2de 3dbb c7d6 a33d 749e ce3b
000001c0: 7db8 a4bd 01cb 58bd c06d 66bd 8fe6 053c
000001d0: ad10 65bc 8a94 abbc 913e d9bd 8a7b 83bd
000001e0: 6e99 38bd 3c81 b6bd b880 703d 8017 f0bc
000001f0: 3b7c cfba e432 78bd a143 d4bc 3a65 223d
00000200: 4b3f 95bb 254b 3b3d 7dc6 cd3d c6dc c4bc
00000210: b43b 80bd fbd8 35bd b673 9e3d 4fbb 3e3d
00000220: f74d 32bd b2b5 353c d178 4e3d cf49 a6bc
00000230: b5e8 1dbd c198 64bc 2c7a c23a f57a 93bd
00000240: 2696 a93d 45f1 973c 48ce 093e e2e1 85bd
00000250: 1d5f a83d 01a6 0e3d c3bb 02bd ac19 1fbd
00000260: 290c 9ebd 8ce6 5b3d a082 123d 4007 a23d
00000270: 743a 14bd a83d 66bd 12e6 293d cc86 8b3c
00000280: 453e 473d 0a70 87bd 4e92 893d 2a7c 55bc
00000290: 052d 4a3c ce9e 78bd f142 a73b 7678 c93c
000002a0: 3478 5ebd 1646 f2bb 9b4b a2bb 4186 923d
000002b0: 2dec d93d 94e5 353c a4e5 aabb b235 783d
000002c0: bd0f 233c 737b 3b3d 716f 863d 6a98 8fbd
000002d0: bcae 1fbd 046b 66bd 859b 583c 475c 04bd
000002e0: 5e6d 8b3d 8a9f d23d d5f6 603d adce 093b
000002f0: 0d6d 29bb e518 cf3c ae94 abbd 766f e33b
00000300: 3523 9ebc 5c68 aa3d 0d44 c2bb 2eb9 dcbd
00000310: 8ff9 45bd e231 4ebc 0889 0a3d 77e6 babc
00000320: 240d 813d 5767 dd3b a76e 193d 4ac6 633d
00000330: d529 e13b 193b ecbb 11fe 103d 7795 853b
00000340: 766d cf3d ba7c 69bd 38a5 fa3b 4f4f c9ba
00000350: 224a c93c 6a3b 673d 0fc8 83bd 6b60 99bb
00000360: 42b5 4fbc 2abc 7fbb beb0 633d f9bf bc3d
00000370: 7f0c 573d 8bc2 c1bc fb3b 7d3d fa47 e63c
00000380: 864d 95bd bf08 f838 2217 0fbc 5b2e 16bd
00000390: 4aba fd3c 7b0b 1abd c3e9 a63b 6e69 383d
000003a0: 9a1b 223b 91cb 3dbd ddda 79bd e2e1 d13c
000003b0: 2580 d53d 5aba 153d 04ca 733d c091 1c3d
000003c0: 23ac 68bd 0f8d d3bd 2143 46bd aa70 303d
000003d0: d915 2dbd 15b0 593d f889 66bd 2c21 b0bd
000003e0: 8115 c03c c799 51bd a4e6 d53d fcc8 55bd
000003f0: 73ea ae3d e8c2 2bbd c0ad 4d3d 7c28 c23c
-0.03255128 -0.011250061 0.06589758 -0.028930517 -0.010045535 -0.0023232405 0.07248936 0.021095099
-0.03913656 0.03201868 -0.04080343 -0.13126564 -0.013576468 -0.025100004 0.012297393 -0.06883499
0.04669337 -0.042051375 0.08366159 -0.027399214 0.006509515 0.0005878667 0.021582153 0.10151082
0.018123576 0.019072933 0.066524 0.031689912 -0.027655741 -0.08072567 0.040410485 0.007988567
0.06363061 -0.056912366 0.0963185 0.016245196 -0.012082569 -0.11475965 0.02765886 -0.032172866
-0.08532571 0.037898816 -0.047213845 0.041102935 0.05764161 0.057120137 0.028795231 0.006917917
0.009171444 0.08403568 0.025356805 0.0035035252 -0.053359102 -0.08141987 0.018101243 -0.046177763
0.05474003 0.037575547 0.041733228 0.03880153 0.020689983 0.0032489998 -0.06354044 -0.04050984
-0.042594343 0.068750024 0.035241395 -0.12211851 -0.0026595804 0.037833832 -0.0016778687 -0.037034124
0.07431761 0.01735725 0.07568684 0.018728312 -0.012454257 0.02720958 0.08251796 0.02594669
-0.009876866 -0.029516447 0.074628256 -0.038168 0.019050676 0.008725043 -0.019167732 -0.0013973577
-0.0826562 0.057217687 -0.025681373 0.04893759 0.037026443 -0.04570673 0.062218312 0.015983528
-0.07953285 -0.008181596 -0.012959457 0.07461631 -0.06831278 0.013125185 -0.002627963 -0.105909124
0.0028859456 -0.011615372 -0.11661017 0.00936836 0.05586183 -0.002897181 0.0799995 0.00630551
-0.08043001 -0.052927975 -0.05625701 0.008172645 -0.013981027 -0.020944852 -0.10607637 -0.064200476
-0.045068197 -0.08911368 0.058716506 -0.02930808 -0.001582987 -0.060595408 -0.025911154 0.03964732
-0.0045546643 0.04572596 0.10047624 -0.024031054 -0.062613875 -0.04439638 0.07736914 0.04656535
-0.043531384 0.011090683 0.05040819 -0.020298867 -0.038552005 -0.013952435 0.0014837435 -0.072011866
0.08280592 0.018547663 0.13457596 -0.06537224 0.082212664 0.034826282 -0.031917345 -0.038842842
-0.07717163 0.053686664 0.035769105 0.07911539 -0.036188558 -0.056211144 0.041479178 0.01703205
0.04864337 -0.06613167 0.067173585 -0.013030091 0.012339835 -0.060698323 0.0051044156 0.024593573
-0.054313853 -0.007393609 -0.0049528605 0.07154513 0.1064075 0.011102099 -0.0052153636 0.060598083
0.009952483 0.045772027 0.065642245 -0.070114926 -0.038985 -0.0562544 0.0132206725 -0.032314565
0.068079695 0.10284336 0.054922897 0.002102773 -0.0025852353 0.025280425 -0.08377968 0.0069407774
-0.019303897 0.08320686 -0.0059285224 -0.10777508 -0.0483337 -0.012585135 0.03382209 -0.022814972
0.063013345 0.006756704 0.037459042 0.055609025 0.006871442 -0.0072091934 0.035398547 0.0040766555
0.101283 -0.057003714 0.00764909 -0.0015358719 0.024571482 0.056453146 -0.064346425 -0.0046806834
-0.012677493 -0.0039022067 0.055588476 0.092163034 0.05250215 -0.023652336 0.06182478 0.028110493
-0.07290177 0.000118271906 -0.008733543 -0.0366653 0.030972619 -0.037608605 0.0050937845 0.04502242
0.002473569 -0.046336714 -0.06099974 0.025620405 0.10424832 0.03655467 0.05951883 0.038224936
-0.056804787 -0.10329639 -0.048403863 0.043076195 -0.042257164 0.05314644 -0.05628392 -0.08600077
0.023447754 -0.051172044 0.10444382 -0.052193627 0.085408114 -0.041933924 0.05021453 0.023700945

to_mean.2.bias f4 [18]
00000000: 991f 3cbd ba74 163d d2bc 29bc 89b3 d1bd
00000010: a68a 653c f5eb 94bd 2f45 b9bd 7879 8ebb
00000020: a3e9 033d 3fee 89bd 0924 8bbd 1c3b 18bd
00000030: 83d7 8f3d 30db d4bd 08e0 bcbd 7888 23bc
00000040: 6522 013e 1917 8ebc
-0.04592857 0.036732413 -0.01035996 -0.10239322 0.014010107 -0.07271568 -0.09046399 -0.0043479763
0.032205235 -0.06734895 -0.067939825 -0.037165746 0.070235275 -0.10393369 -0.09222418 -0.009981267
0.12610777 -0.017344998

to_value.0.weight f4 [128, 256]
00000000: 69d4 bf3d 2a9a bf3d 961f fc3d 81a9 9a3d
00000010: c946 583d 7e8b 133c 1f1f 67bd 4a37 e33d
00000020: 7995 133e 2901 383d 3feb f6bd 5f64 a3bd
00000030: 709c cd3c d604 f23d 236c 01be eff2 01bd
00000040: 8357 473e 8318 873d 09b4 613d ddb3 553d
00000050: 605c b8bc eaf3 ae3d 0757 803d a8ee 6e3d
00000060: b22d 8e3c f180 893e da73 bb3d 63fa 1f3d
00000070: 21bd 943d d224 013e 5184 67be be09 093d
00000080: 5bd8 963e 808a 9ebc 2d2f 2a3e e863 603d
00000090: dd7a 433e db8f 82bd 6fd1 30be 0add 173e
000000a0: f96f dabd 2df6 d3bb cc02 183e f4d7 24be
000000b0: 959c 143e 4c6d 5fbd 9553 83bd d116 1a3c
000000c0: 58b6 0dbe e7df 1c3e cc55 fd3d e48f 0ebe
000000d0: 45c4 dabd 8356 a03d 52ab e1bc d3ca ff3d
000000e0: 31d2 ef3d 2420 6b3d 7b02 65be dd6f c13d
000000f0: d1eb 273e 2fc7 95bc e1ee 94bd 8054 183e
00000100: 362b 0e3e dae9 223b e7cb 513e e407 f13d
00000110: be13 a03d 0cac e33d d92a 803d e20b 8f3c
00000120: 0890 d93d 5d22 193e c04e 513d 0868 563d
00000130: 8629 8e3b e2db 58bc 9d9b 6a3a 7fb7 c63c
00000140: 293d bdbd f6dc c5bd 81bb 3d3e 6682 b63d
00000150: 7ba6 033e b80b d03d 7229 eb3b 20e4 e23d
00000160: 7fb4 1d3e 0944 613e 8325 d53c 6125 373d
00000170: 1d5e 053e 6e16 033e 095f 76bd 4b65 eb3d
00000180: fcd6 323d fcc6 903e 353f 45bd 4c9e 74be
00000190: d6d8 3f3e 5559 9fbd 1f3f 043e 9d09 d13d
000001a0: ffd2 7d3e a950 5fbe 6478 19bb da5f 2b3d
000001b0: bdca f5bd a297 533e 9d14 f13d 34f6 ad3c
000001c0: ca30 bbbd c54a 2dbe 132a 0f3d 5544 eb3d
000001d0: f80f 093e b0b3 543d f80d 66bd a6c2 743e
000001e0: 2240 5d3d 888c 0fbd ba24 cb3d 7525 2e3e
000001f0: 819c 66bd 9ff7 c23d cb3b 75bd 80d0 00bd
00000200: 395a 9b3d cdf6 893d b89a 0f3d 65c1 7d3c
00000210: 09e0 623d df20 203e ef4c 413e 03e8 3c3e
00000220: da6d 353d 4642 ba3d f966 aa3b 91f8 2f3e
00000230: ce25 c43d ec6c b1bc eda9 203e 1851 883d
00000240: 34fb e73b dc1f 25bd cf85 343c 8856 553d
00000250: bd92 783d 15eb 983d 33a1 f83d c451 3b3e
00000260: e393 e63d d773 dc3d 6769 58bd 2dd1 343e
00000270: 566d c03c f2a7 1b3c b161 713d 5492 233d
00000280: 516b 133e 57e2 833d c5d3 923d a027 8c3d
00000290: 9ae9 8d3d 9896 0c3d d778 13bd ac10 0f3e
000002a0: 77b7 73bd fd85 bc3d 8673 ccbc d005 f83d
000002b0: d144 b5bc 3696 813d 0756 793d ce0a 253e
000002c0: bb9e 623e d65c 003c 972b be3d 924f 6d3e
000002d0: fcae 6c3d dc7f 993d f7c9 0e3e 24fe 0c3b
000002e0: 186a 933d 6c4f 233d 6846 0f3e 7e9e 603d
000002f0: af46 ca3d ed9b 313e 26c5 243e 1d23 00bd
00000300: 6420 f93d e27d 8c3c 7e6c 6f3e aa9a c2bd
00000310: c0f6 653e f674 ca3d c81e 653c 2569 1a3e
00000320: 27f2 f2bc 0eba afbd cb27 b6bd ee2d 4abd
00000330: 63ed d93e ef93 423e 0265 01be 41b8 8b3e
00000340: 33a6 4fbe 00d8 33be 7939 733d b753 2bbd
00000350: bf87 86bd 5d1f a63a e800 2ebe 72f5 1f3e
00000360: 5e43 9e3d f481 d53d e1db bb3d dbb5 393e
00000370: bfb3 f63d 042a a23d a9af 43bc 029d 093c
00000380: 9d14 ae3d de36 2e3e 5c46 aabc f565 ca3c
00000390: 0e5f 9f3d 4f14 7f3d 32b6 163d 276b 183e
000003a0: 19fa 4dbc bec0 b13d d961 8b3d d4a4 133e
000003b0: 5d81 c83d d486 dd3d 265e 3a3c 6f66 9cbd
000003c0: c643 183e 9cbd eebc a2e2 123d 8411 58bb
000003d0: b276 de3d fd46 9d3e d58a 3cbd 11c1 df3d
000003e0: 473e 0b3e e20d 793e a4a5 0e3e 9926 15bd
000003f0: ea86 553d 90a9 9e3d 8b29 04bc 03cb 84bd
0.09366686 0.09355576 0.12310712 0.075518616 0.05280188 0.0090054255 -0.056426164 0.1109453
0.14412488 0.04492298 -0.120565884 -0.07978129 0.02509901 0.11817329 -0.12638907 -0.03172582
0.19466977 0.06596472 0.055103336 0.052173484 -0.022504985 0.08542617 0.06266599 0.05833307
0.017355774 0.26856187 0.09152956 0.039057147 0.07262636 0.12611702 -0.22609068 0.033456556
0.2946194 -0.019353151 0.16619559 0.054782778 0.19089837 -0.063750945 -0.17267393 0.14830413
-0.10665888 -0.0064685554 0.14844817 -0.16098005 0.14512856 -0.054547593 -0.064124264 0.009404854
-0.1383909 0.15319787 0.1236988 -0.13922077 -0.10681967 0.07829001 -0.027547512 0.124898575
0.11710013 0.0574037 -0.22364227 0.09445164 0.1639855 -0.018283455 -0.07272125 0.14875984
0.13883671 0.0024858625 0.20487939 0.11769083 0.078162655 0.111168 0.062581725 0.01746172
0.10623175 0.14954515 0.051100492 0.052345306 0.004338446 -0.013236018 0.000894958 0.02425742
-0.09240181 -0.096612856 0.18528558 0.0891159 0.12856476 0.10158485 0.0071765715 0.11078668
0.15400885 0.2199861 0.026018864 0.04471338 0.13024183 0.12801525 -0.060149226 0.114939295
0.043662056 0.28276813 -0.048155982 -0.2388851 0.1873506 -0.077807106 0.12914704 0.10206912
0.2478752 -0.21808113 -0.0023417706 0.041839458 -0.1200156 0.20663312 0.1177151 0.021235563
-0.09140165 -0.16923054 0.034952234 0.11487643 0.13384998 0.051929176 -0.056165665 0.23902377
0.05401624 -0.03504613 0.099191144 0.17006476 -0.056301598 0.09519886 -0.059871476 -0.03144884
0.07585568 0.06736527 0.03505966 0.015488003 0.055389438 0.1563754 0.18877004 0.1844788
0.044294216 0.09094672 0.0052002636 0.17184664 0.09577523 -0.021658383 0.15689822 0.066560924
0.0070795063 -0.040313587 0.011018231 0.052084476 0.060686816 0.07466713 0.12140121 0.1829291
0.11258676 0.10764282 -0.052834895 0.17657919 0.023489635 0.0095004905 0.058931056 0.03993447
0.14396407 0.06439655 0.07169298 0.06843495 0.069293216 0.034323305 -0.036003914 0.13971204
-0.059501138 0.09205244 -0.02495743 0.12110484 -0.02212754 0.063274786 0.060873058 0.16117403
0.22130863 0.007834634 0.09285658 0.23174885 0.057784066 0.0749509 0.13944231 0.0021513784
0.0719797 0.039870664 0.13991702 0.05483865 0.09876763 0.17344637 0.16090831 -0.031283487
0.12164381 0.01714987 0.2338123 -0.09502156 0.22457409 0.0988559 0.01398439 0.15079172
-0.029656483 -0.08580409 -0.08894309 -0.04936021 0.42563924 0.19001745 -0.12636188 0.27289012
-0.20278244 -0.17562866 0.059380982 -0.041827884 -0.0656886 0.0012674142 -0.16992533 0.15620974
0.07727693 0.10425177 0.09172798 0.18135779 0.120460026 0.0791817 -0.011943736 0.00839925
0.085000254 0.17013118 -0.020785503 0.02470682 0.07781802 0.062275227 0.03679485 0.14884625
-0.012571835 0.08679341 0.06805772 0.14418346 0.09790299 0.10816732 0.011374986 -0.07636725
0.14869604 -0.029143147 0.035860665 -0.0032969425 0.10862483 0.30718222 -0.046030838 0.10925496
0.13597976 0.24321702 0.13930374 -0.036413763 0.052130617 0.07747185 -0.008066545 -0.06484034
