saves/save3_1_23/save3_Standing_2400.pth (torch, 942043 bytes, 11 tensors)

shared_net.0.weight f4 [512, 67]
-0.047558293 0.06734628 -0.117361136 -0.14753643 -0.06007795 -0.008465667 -0.039759476 0.08462446
-0.019273357 0.04458843 -0.119052395 -0.019074248 -0.103448175 -0.060554292 -0.0896562 -0.01920102
0.08272972 0.073150635 -0.09606413 -0.09497107 -0.012969891 0.09591086 0.014041052 0.13189101
-0.036919214 0.022427613 0.1051547 -0.08477231 -0.085183956 -0.06197917 -0.016608035 0.088069536
-0.054298617 -0.04136907 -0.0559634 -0.098736666 -0.058164448 0.052382812 0.038557976 0.023686888
0.017443089 -0.04768841 0.03293704 -0.094852336 -0.057365976 -0.03661269 0.05157923 0.05732249
-0.05542316 -0.0049954574 0.042291168 0.1169166 0.06144438 0.02385449 0.08191632 -0.07464302
0.0076118386 -0.1048944 -0.07608929 -0.054136086 0.06241641 0.055823185 -0.04816114 0.03459689
0.070564575 -0.019545473 0.0034232175 -0.03374858 0.09708088 0.18901415 -0.09832057 -0.06713396
0.08197445 0.16799605 0.08430487 0.07865073 0.046342082 -0.20379715 0.01536636 -0.14817026
-0.08098057 0.10546867 0.0835181 -0.100780845 0.047350667 0.003915001 0.0018897614 -0.09561956
0.042147424 0.022057172 0.083482094 0.040553432 0.11887645 0.024936827 0.0045975912 -0.12458646
-0.0023762672 0.02852109 -0.05158934 -0.07672375 0.12833771 0.059241336 -0.06265293 -0.0054241247
-0.11257802 0.00040253578 -0.041629028 -0.08308341 0.0047824793 0.027818728 -0.051264808 0.056613743
-0.0499277 0.022806352 0.08413211 -0.16260588 -0.0058858525 -0.016616218 -0.007933957 0.051656477
0.035322025 0.00047971672 -0.03898447 0.041271213 -0.12156807 -0.043208197 -0.03886313 -0.03673533
-0.021403566 -0.13685982 -0.005465217 0.02937391 -0.096302055 -0.022991737 0.054705404 0.013466191
-0.027494414 0.06323845 0.021585044 0.10921113 0.10877976 0.062234156 0.09929125 0.0065248855
-0.14329039 -0.12240037 0.029462313 -0.019671857 -0.013837433 -0.087179616 -0.1683133 -0.05707572
0.029582588 0.07633171 0.067198284 -0.117821746 0.015619011 -0.1260177 -0.017443022 -0.03792373
-0.012759878 -0.034378037 -0.12142825 -0.11291035 0.00406977 -0.027892474 -0.06421386 0.046973597
-0.09236313 -0.008579073 0.13886929 -0.08010563 0.12830493 0.018750265 -0.10841176 0.06967254
0.01795602 -0.055329267 0.09897615 -0.094653405 0.016195158 -0.024980797 0.057577305 0.05810703
0.051939923 0.018446486 -0.0107623525 -0.037624944 -0.12335686 0.08920474 0.08401078 0.076728985
-0.0691713 -0.026167221 -0.061377015 -0.043684714 -0.09242481 0.06184194 -0.04261295 -0.023444168
-0.010114713 0.10407145 -0.09654431 -0.051917765 -0.10001333 0.022554586 -0.04950625 0.15221219
0.022609422 0.0011475625 0.020634491 0.011601 0.025490101 -0.08325425 -0.07128437 0.063555926
-0.06527867 -0.07888717 0.13286145 -0.06276223 -0.034669477 0.13235542 0.024128508 -0.054139473
-0.08828331 -0.008834235 -0.05107442 0.021489395 -0.08730563 -0.036205277 0.0038921996 0.05320117
0.0445658 0.07083809 0.05791601 -0.058024667 0.027855162 -0.06872615 -0.027873697 0.039733578
0.07182995 0.07334514 -0.02753123 -0.022577941 0.042197097 -0.08504514 0.08014688 -0.046154093
-0.015491879 -0.059304778 -0.036994904 -0.010061003 0.07860216 -0.009344606 -0.1024403 -0.072065406
00000000: 7ccc 42bd d9ec 893d 095b f0bd ca13 17be
00000010: 4c14 76bd 95b3 0abc d5da 22bd 974f ad3d
00000020: 29e3 9dbc 5ca2 363d bed1 f3bd 9941 9cbc
00000030: a3dc d3bd c707 78bd ab9d b7bd 754b 9dbc
00000040: 336e a93d 00d0 953d 45bd c4bd 3180 c2bd
00000050: aa7f 54bc ea6c c43d 710c 663c 700e 073e
00000060: 9a38 17bd 1dba b73c 595b d73d 1b9d adbd
00000070: ed74 aebd dfdd 7dbd 930d 88bc cd5d b43d
00000080: 3a68 5ebd 9d72 29bd e139 65bd 7336 cabd
00000090: d83d 6ebd 5c8f 563d f8ee 1d3d 010b c23c
000000a0: cfe4 8e3c ec54 43bd fde8 063d f141 c2bd
000000b0: 96f8 6abd 30f7 15bd be44 533d fdca 6a3d
000000c0: 6503 63bd efb0 a3bb 8139 2d3d f871 ef3d
000000d0: 1aad 7b3d 7e6a c33c bec3 a73d 71de 98bd
000000e0: bb6c f93b e0d2 d6bd b4d4 9bbd cdbd 5dbd
000000f0: 59a8 7f3d daa6 643d 9e44 45bd 78b5 0d3d
00000100: 2984 903d d41d a0bc 0f58 603b f33b 0abd
00000110: 57d2 c63d ed8c 413e 4c5c c9bd 887d 89bd
00000120: 38e2 a73d 2807 2c3e 08a8 ac3d a213 a13d
00000130: 32d1 3d3d 33b0 50be 2fc3 7b3c f2b9 17be
00000140: 24d9 a5bd f5ff d73d 8a0b ab3d 3066 cebd
00000150: c6f2 413d 6949 803b dfb1 f73a 30d4 c3bd
00000160: c7a2 2c3d 3eb1 b43c a9f8 aa3d 5b1b 263d
00000170: 7f75 f33d 5148 cc3c 64a7 963b 3027 ffbd
00000180: 26bb 1bbb 10a5 e93c 584f 53bd 5721 9dbd
00000190: f66a 033e 0ba7 723d 2e50 80bd dbbc b1bb
000001a0: 4e8f e6bd 700b d339 3383 2abd a327 aabd
000001b0: 58b6 9c3b 1ae4 e33c 0cfb 51bd d0e3 673d
000001c0: fd80 4cbd 63d4 ba3c 754d ac3d 2882 26be
000001d0: 1cde c0bb bc1e 88bc 6dfd 01bc be95 533d
000001e0: d4ad 103d 7d82 fb39 2eae 1fbd 010c 293d
000001f0: aef8 f8bd 14fb 30bd f22e 1fbd c977 16bd
00000200: 8856 afbc fb24 0cbe 9015 b3bb 8ea1 f03c
00000210: 033a c5bd 2b59 bcbc c612 603d 4ca1 5c3c
00000220: f73b e1bc 2983 813d 1ed3 b03c 16aa df3d
00000230: ecc7 de3d 3ee9 7e3d 3659 cb3d b5ce d53b
00000240: b7ba 12be 0cad fabd f35a f13c e026 a1bc
00000250: 67b6 62bc 3a8b b2bd 525a 2cbe 3bc8 69bd
00000260: 2f57 f23c cd53 9c3d 419f 893d 874c f1bd
00000270: e1e6 7f3c c90a 01be abe4 8ebc ea55 1bbd
00000280: cf0e 51bc fccf 0cbd 60af f8bd 8b3d e7bd
00000290: b55b 853b c27e e4bc 8e82 83bd 6367 403d
000002a0: e128 bdbd 3d8f 0cbc c033 0e3e 6c0e a4bd
000002b0: 5e62 033e 289a 993c fc06 debd 7ab0 8e3d
000002c0: 8118 933c f1a0 62bd 02b4 ca3d a5d9 c1bd
000002d0: b5ab 843c 87a4 ccbc 2ed6 6b3d a301 6e3d
000002e0: f5be 543d 161d 973c 9454 30bc 9d1c 1abd
000002f0: 85a2 fcbd fab0 b63d d80d ac3d 1624 9d3d
00000300: afa9 8dbd a45c d6bc 7766 7bbd beee 32bd
00000310: 3849 bdbd f94d 7d3d eb8a 2ebd fc0d c0bc
00000320: 2eb8 25bc 6a23 d53d 06b9 c5bd b9a7 54bd
00000330: cad3 ccbd 65c4 b83c 11c7 4abd 83dd 1b3e
00000340: 6537 b93c cf69 963a aa09 a93c 1f12 3e3c
00000350: 9ed0 d03c 3481 aabd 8afd 91bd 9c29 823d
00000360: d3b0 85bd 998f a1bd d50c 083e 7c89 80bd
00000370: 9501 0ebd 2e88 073e 26a9 c53c 5ac1 5dbd
00000380: e1cd b4bd 78bd 10bc 6933 51bd 870a b03c
00000390: 4bcd b2bd fc4b 14bd 4614 7f3b 78e9 593d
000003a0: a18a 363d 8f13 913d 5739 6d3d 46ab 6dbd
000003b0: 8230 e43c 4cc0 8cbd 6157 e4bc adbf 223d
000003c0: 951b 933d fa35 963d 2d89 e1bc 60f5 b8bc
000003d0: ddd6 2c3d 252c aebd 0c24 a43d 130c 3dbd
000003e0: a6d1 7dbc 91e9 72bd f887 17bd e8d6 24bc
000003f0: 2bfa a03d 1e1a 19bc 38cc d1bd 0797 93bd

shared_net.0.bias f4 [512]
0.053394623 0.097527556 -0.05896372 0.04049662 -0.096746825 0.015884133 -0.09114848 0.0001300965
-0.040173125 0.06614057 0.069734596 -0.071672216 -0.0666854 -0.038940646 -0.04116642 -0.094379455
-0.08844365 -0.059387606 0.025026934 -0.042967852 0.052572392 0.09408201 0.08640347 -0.09390219
-0.018808588 0.05869789 -0.010589894 0.092793554 -0.014900608 -0.058018506 0.015866335 0.094310656
0.10333609 -0.028612183 -0.08077769 0.02762296 0.031860627 0.07344863 -0.101195164 -0.1303234
-0.076253764 -0.11029469 0.047662295 0.07645404 -0.0054924074 -0.1338149 -0.023911158 0.066602856
-0.105565526 -0.102609396 0.050590698 -0.06912714 0.042178992 0.120726004 0.018433467 -0.11879225
-0.018929815 0.09341914 -0.09583098 -0.04820826 0.09590054 0.088000104 0.03457593 -0.052661348
-0.043945625 -0.022077981 0.06354228 0.10285452 0.10289378 0.008591821 0.09635791 -0.09211391
0.07832802 -0.014535288 -0.03947701 0.13091722 -0.0877578 0.041453928 -0.018994901 0.015939357
-0.015428726 -0.10396239 0.038176056 -0.12767944 -0.006914002 -0.08282578 -0.016602982 0.0019148932
-0.08179811 -0.12840082 -0.118524574 -0.019772634 -0.081844784 -0.043638363 -0.0679553 -0.10960773
-0.13000198 0.07534843 -0.11288505 0.028044317 0.122397296 -0.10357587 0.04649337 0.046246182
0.0075373547 -0.06428376 0.10590572 0.08145416 -0.10617897 -0.016444862 0.13250677 -0.083680965
0.118260965 0.06326252 -0.07169932 0.026702635 -0.022697506 0.027160004 0.0068177627 -0.08453778
0.010585369 -0.11446799 0.14294696 -0.093298696 -0.025276877 -0.09291619 -0.09379204 -0.075955816
0.08096741 0.050315876 -0.06155763 -0.100743294 -0.1036805 0.028457442 0.041543245 0.03323621
-0.08291984 -0.06817164 -0.03712146 -0.11075334 -0.07802048 -0.025223704 -0.09000418 -0.11076883
-0.007129504 -0.09612288 -0.034437664 -0.08508315 0.04481529 0.07190577 0.03437701 -0.024672583
-0.016434403 0.025956873 -0.0276548 -0.14393173 -0.06616363 -0.07423152 -0.048595067 -0.00059699715
0.14266391 0.008140976 0.012324527 0.0108924685 -0.047824774 0.08353955 0.01628222 0.017434578
0.06772093 0.031267013 0.0421789 -0.095649466 -0.10938701 -0.026199121 0.01672045 -0.058245398
-0.13796756 -0.10541136 0.018527023 0.04621286 -0.05664457 -0.039196834 0.033212017 -0.036482822
0.05400679 -0.09071224 -0.12636614 -0.07868751 0.07885303 0.06948754 0.071377724 -0.01443919
0.13074586 0.018524252 0.018890504 0.13502935 0.101116925 0.13950264 0.031666804 -0.02843585
-0.11833018 -0.12383962 -0.08681014 -0.06308176 0.0061419555 0.0065494473 0.06844863 -0.053677924
0.061723415 0.019037992 -0.053904843 0.0017288835 -0.020895071 -0.07367724 0.05531154 -0.13464873
0.12774141 -0.033405893 0.1146187 -0.13783425 -0.12617353 -0.056140035 -0.11380267 -0.044018053
-0.04016126 0.093727626 -0.0088527305 0.08596407 -0.054864507 -0.1484297 -0.12010183 -0.08436733
-0.059615694 -0.15769999 -0.051107705 0.13528508 -0.051601067 0.016507955 -0.14532728 0.051485386
-0.10800489 -0.024517212 -0.03434834 -0.12282505 -0.03428346 -0.09900458 0.00059059414 -0.1019584
-0.06602899 0.018071707 0.07053354 -0.09283039 -0.051940195 -0.12546518 -0.0012560191 -0.11686629
00000000: 52b4 5a3d 87bc c73d f183 71bd c9df 253d
00000010: 3323 c6bd 711f 823c 0eac babd 836a 0839
00000020: 938c 24bd b574 873d 03d1 8e3d e2c8 92bd
00000030: 5b92 88bd 3a80 1fbd 1f9e 28bd 044a c1bd
00000040: f221 b5bd 6b40 73bd 4905 cd3c 0fff 2fbd
00000050: 2656 573d 12ae c03d 4df4 b03d cb4f c0bd
00000060: 7814 9abc 336d 703d 3c81 2dbc 8c0a be3d
00000070: ae21 74bc d0a4 6dbd 1efa 813c f225 c13d
00000080: dfa1 d33d 1964 eabc c66e a5bd 8c49 e23c
00000090: 4a80 023d 3c6c 963d 693f cfbd 7f73 05be
000000a0: ef2a 9cbd 2fe2 e1bd 8a39 433d f093 9c3d
000000b0: a7f9 b3bb c606 09be 55e1 c3bc 1467 883d
000000c0: bd32 d8bd e024 d2bd 3138 4f3d 8892 8dbd
000000d0: e1c3 2c3d 323f f73d c801 973c 5a49 f3bd
000000e0: b312 9bbc 8952 bf3d 0843 c4bd 0676 45bd
000000f0: 8167 c43d 6639 b43d 7e9f 0d3d 6db3 57bd
00000100: 5400 34bd e2dc b4bc 7422 823d 64a5 d23d
00000110: f9b9 d23d b6c4 0c3c 4c57 c53d 38a6 bcbd
00000120: 716a a03d 6b25 6ebc a5b2 21bd 2a0f 063e
00000130: 5dba b3bd 98cb 293d 329b 9bbc 4193 823c
00000140: c4c8 7cbc 3cea d4bd 7f5e 1c3d 66be 02be
00000150: da8e e2bb 90a0 a9bd fa02 88bc 27fd fa3a
00000160: c485 a7bd 817b 03be 03bd f2bd 38fa a1bc
00000170: 3d9e a7bd 24be 32bd 262c 8bbd 047a e0bd
00000180: 3d1f 05be 4750 9a3d 4730 e7bd 32bd e53c
00000190: 6fab fa3d 961f d4bd d56f 3e3d a36c 3d3d
000001a0: eafb f63b 34a7 83bd 19e5 d83d 70d1 a63d
000001b0: 5c74 d9bd 60b7 86bc dbaf 073e ed60 abbd
000001c0: ce32 f23d c88f 813d 18d7 92bd 7cbf da3c
000001d0: 1ff0 b9bc a87e de3c 8a67 df3b 2522 adbd
000001e0: 416e 2d3c 326e eabd b060 123e 6313 bfbd
000001f0: 7411 cfbc d84a bebd 0b16 c0bd b98e 9bbd
00000200: 3ed2 a53d 0518 4e3d da23 7cbd 8052 cebd
00000210: 7156 d4bd 951f e93c 4029 2a3d b122 083d
00000220: e1d1 a9bd 939d 8bbd ac0c 18bd a6d2 e2bd
00000230: 34c9 9fbd f1a1 cebc 1d54 b8bd c5da e2bd
00000240: 9d9e e9bb 13dc c4bd 820e 0dbd 1340 aebd
00000250: 3d90 373d 5543 933d e8ce 0c3d 281e cabc
00000260: 71a1 86bc 82a3 d43c 528c e2bc d762 13be
00000270: cc80 87bd b206 98bd 9f0b 47bd cd7f 1cba
00000280: 7d16 123e ba61 053c d0ec 493c 5376 323c
00000290: e9e3 43bd c916 ab3d 4a62 853c f6d2 8e3c
000002a0: 45b1 8a3d d711 003d c8c3 2c3d dee3 c3bd
000002b0: 4c06 e0bd 8a9f d6bc 53f9 883c ba92 6ebd
000002c0: 5e47 0dbe e9e1 d7bd fcc5 973c b249 3d3d
000002d0: 2304 68bd dc8c 20bd 5309 083d 036f 15bd
000002e0: 3936 5d3d 57c7 b9bd 2066 01be eb26 a1bd
000002f0: b37d a13d 7c4f 8e3d 7c2e 923d 5a92 6cbc
00000300: 3ee2 053e 2cc0 973c 42c0 9a3c 2245 0a3e
00000310: 6416 cf3d c8d9 0e3e 0db5 013d 4df2 e8bc
00000320: 1857 f2bd a09f fdbd 84c9 b1bd 0331 81bd
00000330: 7542 c93b bf9c d63b cc2e 8c3d 62dd 5bbd
00000340: b1d1 7c3d 90f5 9b3c 53cb 5cbd b49b e23a
00000350: 242c abbc 18e4 96bd 5a8e 623d 5be1 09be
00000360: a5ce 023e 9ed4 08bd 36bd ea3d 6c24 0dbe
00000370: a233 01be 18f3 65bd 6011 e9bd 464c 34bd
00000380: 2280 24bd 45f4 bf3d 0b0b 11bc ee0d b03d
00000390: 9bb9 60bd f5fd 17be f3f7 f5bd c7c8 acbd
000003a0: 962f 74bd 1b7c 21be 5056 51bd 2c88 0a3e
000003b0: a45b 53bd b13b 873c add0 14be 57e2 523d
000003c0: ab31 ddbd 52d8 c8bc d8b0 0cbd b38b fbbd
000003d0: d06c 0cbd eac2 cabd 1ad2 1a3a 91cf d0bd
000003e0: 353a 87bd 1e0b 943c e373 903d dc1d bebd
000003f0: 3ebf 54bd f279 00be 02a1 a4ba 9857 efbd

shared_net.2.weight f4 [256, 512]
0.013524775 -0.02739184 0.0059365947 -0.04332974 -0.013591095 -0.027537966 0.019633291 0.012479281
0.026972707 0.018289037 -0.0020007503 -0.029483497 0.02691409 -0.017547313 -0.019522497 -0.039558284
0.0051289164 -0.006097877 -0.008436179 0.013898004 -0.053631015 0.043783125 -0.048253004 0.025777144
-0.035661794 -0.0061276727 -0.004998716 -0.017070305 -0.043679975 -0.006507424 -0.021008844 -0.035134986
0.007170406 -0.006896252 -0.027215324 0.010221253 -0.026523545 0.03038191 -0.041130096 -0.018923514
-0.007064098 -0.021814752 -0.024341254 -0.028021334 -0.021605415 0.023584673 -0.032366183 -0.048415832
0.048186846 -0.019970628 0.0292776 0.030930102 0.023432417 -0.058329567 -0.0027942613 -0.036849737
-0.003560326 -0.02726189 -0.0537106 0.049750075 -0.026453128 -0.008381571 0.008173613 0.057904176
-0.018988913 0.050562225 -0.033316188 0.020167744 0.0055673583 -0.015143436 -0.049286526 0.0063206134
0.008085433 0.028782776 -0.0039431825 -0.018395007 0.037325595 0.009512326 -0.029573476 0.050923154
-0.016110374 0.021001607 0.032183092 -0.015212995 0.018786807 0.036438655 -0.039106984 0.00499815
0.027941136 -0.0142033985 0.0074307784 0.011058029 0.023283256 -0.02347444 -0.004954009 0.045320626
-0.017481206 0.031296544 0.04992528 0.017786497 -0.046514142 0.0045271465 0.018249502 0.039271403
-0.059390202 -0.044467963 -0.040436305 -0.0018762405 0.0547645 -0.008126106 0.03679116 -0.04704504
-0.040461216 -0.0026789072 0.015993865 0.0119882105 -0.052232474 0.0418576 0.024827026 -0.013352623
0.009258341 -0.010465 0.004433396 -0.022408348 0.01940746 0.04754294 0.013489772 -0.0049914094
-0.0077095865 -0.043313794 0.04985924 0.035565026 -0.017416252 0.022898184 0.05469674 0.039863825
-0.0314529 0.003690342 0.010427303 0.031495966 0.0140105635 -0.053365454 -0.034972593 -0.012363835
0.009402166 0.0203417 0.019593034 -0.012191319 -0.00933662 -0.008093473 0.016985169 0.04596265
0.046613105 -0.0249969 -0.035038188 -0.034712475 0.027487168 -0.031123308 -0.03464393 -0.037923314
-0.027486168 0.039221074 -0.032925334 -0.017902013 0.021030305 0.012412149 -0.021069543 -0.036099434
0.0046784068 0.032077633 -0.013343748 0.036700636 -0.011555127 -0.024905814 -0.0007167018 -0.03806164
0.0054364786 -0.030513676 -0.021378553 0.016099453 -0.02704622 0.00209325 0.0092396205 0.021994226
-0.04328367 0.0071067973 0.014591984 -0.00569182 0.023204751 -0.045209356 0.01406046 0.023813464
-0.054007266 0.0026679595 0.05625009 -0.04879929 0.026654523 -0.003401286 -0.015301301 -0.016464034
0.017102884 -0.027255956 -0.0023835253 0.0048376895 -0.014339411 -0.040397104 -0.017324157 0.044216115
0.040325962 0.023561131 0.028524082 0.0036040284 0.045424066 0.05955902 -0.05426947 0.03574391
-0.03331531 -0.029012803 0.007843719 -0.013066322 0.005367677 -0.028848063 -0.022761287 -0.042557348
0.03898409 -0.05707316 -0.04020264 -0.055161383 0.00592336 0.032195874 0.03664467 0.028248144
0.017214665 0.010045266 -0.031841654 -0.062550545 -0.022953298 0.006145491 0.005074559 -0.012149783
0.0302258 -0.0048317467 0.010815658 -0.03452169 0.0075185797 0.04696279 -0.027641684 0.05446866
-0.016833864 0.052966356 -0.030406535 0.02825146 -0.045267645 0.046288002 0.023972739 0.039825156
00000000: 0597 5d3c da64 e0bc c487 c23b 877a 31bd
00000010: 2fad 5ebc 4d97 e1bc ffd5 a03c e675 4c3c
00000020: def5 dc3c e4d2 953c 051f 03bb 6087 f1bc
00000030: f07a dc3c 62bf 8fbc a5ed 9fbc de07 22bd
00000040: 7810 a83b b3d0 c7bb e637 0abc 74b4 633c
00000050: 32ac 5bbd ef55 333d f1a4 45bd 972a d33c
00000060: 1a12 12bd a5ca c8bb 45cc a3bb 06d7 8bbc
00000070: c6e9 32bd 3b3c d5bb bd1a acbc b4e9 0fbd
00000080: baf5 ea3b f4f9 e1bb acf2 debc 0b77 273c
00000090: e847 d9bc 7ce3 f83c 0878 28bd 7c05 9bbc
000000a0: f379 e7bb dab4 b2bc 4f67 c7bc ff8c e5bc
000000b0: d7fd b0bc a534 c13c 6792 04bd ae4f 46bd
000000c0: 925f 453d 7199 a3bc 94d7 ef3c 2061 fd3c
000000d0: 57f5 bf3c fcea 6ebd ed1f 37bb c0ef 16bd
000000e0: 5c54 69bb 5454 dfbc a5ff 5bbd bcc6 4b3d
000000f0: 3bb4 d8bc db52 09bc 9eea 053c ee2c 6d3d
00000100: a38e 9bbc 561a 4f3d 8e76 08bd d336 a53c
00000110: 636e b63b 2d1c 78bc abe0 49bd 261d cf3b
00000120: c478 043c dbc9 eb3c d035 81bb 20b1 96bc
00000130: b9e2 183d 96d9 1b3c 1344 f2bc cc94 503d
00000140: e7f9 83bc 900b ac3c 6bd2 033d ed3f 79bc
00000150: cae6 993c b340 153d a52e 20bd 85c7 a33b
00000160: cfe4 e43c 5fb5 68bc e37d f33b bc2c 353c
00000170: 87bc be3c 784d c0bc 3d55 a2bb 1fa2 393d
00000180: bf34 8fbc ce30 003d 737e 4c3d fdb4 913c
00000190: 9d85 3ebd 7558 943b fb7f 953c 0ddb 203d
000001a0: 2443 73bd 0a24 36bd 8aa0 25bd 2fec f5ba
000001b0: be50 603d 5c23 05bc 54b2 163d 4db2 40bd
000001c0: a9ba 25bd 9b90 2fbb 9105 833c 336a 443c
000001d0: b8f1 55bd e072 2b3d 0c62 cb3c f6c4 5abc
000001e0: 4cb0 173c 6475 2bbc 0546 913b b691 b7bc
000001f0: 65fc 9e3c 63bc 423d 3404 5d3c fa8e a3bb
00000200: b3a0 fcbb ce69 31bd 3439 4c3d a2ac 113d
00000210: 87ac 8ebc f994 bb3c b009 603d 4048 233d
00000220: c2d4 00bd aad9 713b 47d7 2a3c ea01 013d
00000230: 908c 653c bc95 5abd 6c3f 0fbd af91 4abc
00000240: 8b0b 1a3c a3a3 a63c 9281 a03c 19be 47bc
00000250: 9ff8 18bc 7c9a 04bc 7b24 8b3c 5543 3c3d
00000260: 62ed 3e3d 4dc6 ccbc 3484 0fbd ab2e 0ebd
00000270: c52c e13c 4ff6 febc cbe6 0dbd 7a55 1bbd
00000280: ac2a e1bc 47a6 203d b7dc 06bd 3ea7 92bc
00000290: bf47 ac3c 545c 4b3c 099a acbc 00dd 13bd
000002a0: 524d 993b d663 033d bc9f 5abc 6853 163d
000002b0: b751 3dbc 4707 ccbc 0be1 3bba 86e6 1bbd
000002c0: 7d24 b23b d1f7 f9bc 1322 afbc 00e3 833c
000002d0: 0990 ddbc e82e 093b c761 173c 3c2d b43c
000002e0: 384a 31bd 23e0 e83b 3813 6f3c 7282 babb
000002f0: e417 be3c 722d 39bd d85d 663c 7414 c33c
00000300: b936 5dbd efd8 2e3b 7f66 663d c4e1 47bd
00000310: 965a da3c 1ce8 5ebb 4fb2 7abc 95df 86bc
00000320: 591b 8c3c e247 dfbc eb34 1cbb 7b85 9e3b
00000330: d9ef 6abc 6f77 25bd 64eb 8dbc f51b 353d
00000340: d62c 253d 4603 c13c 56ab e93c 9031 6c3b
00000350: 960e 3a3d 29f4 733d aa49 5ebd 3568 123d
00000360: a275 08bd 42ac edbc f182 003c 2014 56bc
00000370: 57e3 af3b c652 ecbc e175 babc 9d50 2ebd
00000380: c8ad 1f3d 8cc5 69bd 86ab 24bd e7f0 61bd
00000390: bf18 c23b d2df 033d b918 163d a768 e73c
000003a0: c505 8d3c e694 243c 656c 02bd 801a 80bd
000003b0: 8e08 bcbc 1d60 c93b 7c48 a63b e20f 47bc
000003c0: 199c f73c a153 9ebb 2834 313c 9e66 0dbd
000003d0: 6b5e f63b 0e5c 403d d070 e2bc 881a 5f3d
000003e0: 2ce7 89bc 40f3 583d 2017 f9bc 9b6f e73c
000003f0: 916a 39bd 7d98 3d3d 7a62 c43c b41f 233d

shared_net.2.bias f4 [256]
-0.04013278 -0.031949982 0.025396058 0.019938556 0.032051433 0.00061032217 0.02554661 0.018599467
-0.009452 -0.05288321 -0.0073037143 0.0070104655 -0.008223973 0.022764161 -0.012518257 0.018672172
0.014753885 -0.016873544 -0.030549908 0.023962652 0.03233952 -0.0030366732 -0.027160171 0.0053902734
0.035352837 0.0008293504 -0.0066337506 -0.033032145 -0.002492013 0.05005878 -0.033203866 0.034070805
-0.0012200888 -0.041092042 -0.073366396 -0.018202078 -0.058172833 -0.015201685 -0.02000231 -0.032144714
-0.019028107 -0.045405935 -0.023868348 -0.0004583805 -0.0140696075 0.05431588 -0.014985973 -0.028002381
0.036905598 -0.0061676805 -0.0048120874 -0.03696092 -0.017371358 0.008890557 -0.024083659 -0.0072378707
0.0055595483 -0.040004045 -0.029709756 -0.013722573 0.00036155182 0.03556676 0.04776875 -0.017477702
0.005137083 0.0009817515 0.036377482 0.025641063 0.0034031295 0.012176669 -0.03344423 0.0063783196
0.009779982 -0.016750198 -0.010576661 -0.006600771 -0.02580376 -0.06831349 -0.0011490651 -0.0015877642
-0.02543148 -0.027717419 -0.004844101 -0.028742427 0.0015206615 -0.0007507421 0.025011377 -0.021206075
0.009700164 -0.023650484 0.028630754 0.023304503 -0.029344352 -0.04302637 -0.013629281 -0.030841801
-0.015700929 -0.05386296 -0.027040178 -0.051877525 0.055125292 -0.02602712 0.032722242 0.01705983
-0.045360673 -0.0033914158 -0.015873568 -0.019096008 -0.01645497 0.033439945 0.021779971 -0.04398947
-0.021826196 0.016764127 -0.029544419 0.015960207 -0.022694338 -0.009136944 -0.026344748 0.007694205
-0.021448212 0.0031918152 0.037110675 -0.03507469 -0.027565423 0.016350314 -0.04568484 0.0077533405
-0.012499472 0.019536944 -0.002157349 -0.04369206 -0.0041336673 0.025098322 -0.031205555 0.029352253
-0.02583563 -0.0114875315 -0.019293321 -0.0112063 0.0034540456 -0.053654883 -0.0019331612 -0.038797654
-0.034525905 -0.021820707 0.047378954 0.02911298 0.024255492 0.020951457 -0.02829002 0.042400837
-0.02157916 -0.024085745 0.011846729 -0.040407777 -0.012868158 0.006333926 0.02002281 0.02167316
0.014013765 -0.019776605 0.0011689932 0.03157277 -0.02074644 -0.005143132 0.01799173 -0.046252772
-0.0026082061 -0.048580725 -0.0148732085 -0.009830806 0.054424822 -0.027445093 0.02600763 -0.02147972
-0.016123176 0.02508696 0.022276312 -0.022068804 -0.03845289 -0.0048641847 0.03423651 -0.05803272
-0.0048857215 -0.02599668 0.016485162 -0.015384925 -0.025130497 -0.0008447044 -0.042435415 0.0044346126
0.039588958 0.01516782 0.015871763 -0.050767403 0.020869793 0.045127742 -0.012142258 0.033912517
0.014598581 -0.025505524 0.025945328 0.022391258 -0.0007273611 -0.012647394 -0.009406413 -0.018651465
-0.025847021 -0.0016907734 0.003143383 -0.028725592 0.02448885 -0.015066514 0.01100226 0.022110315
-0.0199172 -0.042982396 0.00302356 -0.046911057 -0.021441003 0.04270009 -0.022881744 0.0027449755
0.035329517 0.042165272 0.032138046 0.011508921 -0.043744944 -0.03469333 -0.0029306898 -0.043050464
-0.054043062 -0.03137105 -0.013079784 0.012363331 -0.009394506 0.022612885 -0.03610348 -0.007856728
-0.0004360018 -0.04461869 -0.0056169815 0.025601035 -0.014812348 -0.0104590785 -0.03352118 0.018044787
-0.04000542 0.03470841 -0.007143208 0.0027385547 0.03876532 0.0057312087 0.010012969 0.00021375678
00000000: 4562 24bd fcdd 02bd 650b d03c 2f56 a33c
00000010: 5d48 033d 07fe 1f3a 2047 d13c e95d 983c
00000020: 90dc 1abc 119c 58bd ff53 efbb 0cb8 e53b
00000030: d8bd 06bc e87b ba3c 6019 4dbc 62f6 983c
00000040: 47ba 713c 633a 8abc cd43 fabc 534d c43c
00000050: 7276 043d ec02 47bb 027f debc e4a0 b03b
00000060: 23ce 103d c368 593a ef5f d9bb b74c 07bd
00000070: 0a51 23bb 6f0a 4d3d c700 08bd d48d 0b3d
00000080: 63eb 9fba 2150 28bd 1f41 96bd 861c 95bc
00000090: a346 6ebd 7d10 79bc e2db a3bc 2daa 03bd
000000a0: d5e0 9bbc 93fb 39bd 8e87 c3bc ca52 f0b9
000000b0: 3684 66bc 547a 5e3d ba87 75bc 4065 e5bc
000000c0: 532a 173d 411a cabb b7ae 9dbb 5564 17bd
000000d0: 614e 8ebc b3a9 113c 184b c5bc a92b edbb
000000e0: df2c b63b 48db 23bd e061 f3bc a5d4 60bc
000000f0: aa8e bd39 73ae 113d 2aa9 433d 662d 8fbc
00000100: fa54 a83b 1dae 803a 8e00 153d 350d d23c
00000110: 0a07 5f3b a780 473c d1fc 08bd 3901 d13b
00000120: 383c 203c b637 89bc bb49 2dbc 484b d8bb
00000130: 6862 d3bc f1e7 8bbd 3a9c 96ba 871c d0ba
00000140: ae55 d0bc a40f e3bc 44bb 9ebb 3d75 ebbc
00000150: ef50 c73a 73cd 44ba a9e4 cc3c 5db8 adbc
00000160: 70ed 1e3c a9be c1bc 0b8b ea3c 16e9 be3c
00000170: 9163 f0bc 6b3c 30bd 594d 5fbc f2a7 fcbc
00000180: 3c9f 80bc 689f 5cbd 5d83 ddbc 877d 54bd
00000190: 0fcb 613d d436 d5bc c207 063d 0ec1 8b3c
000001a0: 1dcc 39bd 8442 5ebb 4909 82bc 3b6f 9cbc
000001b0: 93cc 86bc 53f8 083d e96b b23c 4d2e 34bd
000001c0: dacc b2bc ec54 893c 2307 f2bc fbbe 823c
000001d0: 7ae9 b9bc 1fb3 15bc f1d0 d7bc ab1f fc3b
000001e0: 29b4 afbc c62d 513b 5d01 183d 7aaa 0fbd
000001f0: e2d0 e1bc 18f1 853c 0720 3bbd bc0f fe3b
00000200: 96ca 4cbc f10b a03c 4f62 0dbb 72f6 32bd
00000210: b773 87bb ff9a cd3c cba2 ffbc 2374 f03c
00000220: 3ea5 d3bc 3336 3cbc 070d 9ebc a19a 37bc
00000230: 455d 623b 39c5 5bbd 2062 fdba 4aea 1ebd
00000240: 096b 0dbd 57c1 b2bc 6f10 423d 587e ee3c
00000250: 74b3 c63c 64a2 ab3c 79c0 e7bc 80ac 2d3d
00000260: c7c6 b0bc 784f c5bc c818 423c a082 25bd
00000270: f7d4 52bc d38c cf3b e006 a43c e98b b13c
00000280: fe99 653c 8c02 a2bc e738 993a 7352 013d
00000290: 70f4 a9bc b887 a8bb 6463 933c 8c73 3dbd
000002a0: 70ee 2abb 95fc 46bd c2ae 73bc 6411 21bc
000002b0: 90ec 5e3d 88d4 e0bc f40d d53c 3df6 afbc
000002c0: c014 84bc 2b83 cd3c d07c b63c a3c9 b4bc
000002d0: c780 1dbd bd63 9fbb 953b 0c3d b8b3 6dbd
000002e0: 6718 a0bb fdf6 d4bc e40b 873c 0d11 7cbc
000002f0: 79de cdbc 276f 5dba c2d0 2dbd 3a50 913b
00000300: 0828 223d 7382 783c 8005 823c 7bf1 4fbd
00000310: 21f7 aa3c ded7 383d 52f0 46bc dae7 0a3d
00000320: e32e 6f3c f6f0 d0bc 4c8b d43c df6d b73c
00000330: 61ac 3eba 0437 4fbc 5b1d 1abc f5ca 98bc
00000340: 22bd d3bc f19c ddba 3701 4e3b ef51 ebbc
00000350: d79c c83c 8ad9 76bc d342 343c b120 b53c
00000360: 6529 a3bc 4f0e 30bd eb26 463b cf25 40bd
00000370: 0ba5 afbc 4ae6 2e3d 7f72 bbbc 0ce5 333b
00000380: afb5 103d 7eb5 2c3d 2fa3 033d ea8f 3c3c
00000390: e62d 33bd 981a 0ebd d110 40bb af55 30bd
000003a0: 425c 5dbd ee7e 00bd 974c 56bc 928f 4a3c
000003b0: 6aeb 19bc a83e b93c 3ee1 13bd 81b9 00bc
000003c0: 2c97 e4b9 16c2 36bd a80e b8bb 43b9 d13c
000003d0: 7eaf 72bc 8e5c 2bbc 814d 09bd a9d2 933c
000003e0: b9dc 23bd 682a 0e3d 9211 eabb 5379 333b
000003f0: 62c8 1e3d ddcc bb3b 700d 243c e623 6039

to_mean.0.weight f4 [128, 256]
-0.040102735 -0.045644846 0.043894492 0.011939677 0.01057894 0.00046624066 0.044192344 -0.010951279
-0.03432525 -0.033184648 0.017986171 -0.007132061 0.07226202 -0.00711138 0.0670183 0.044275675
-0.036521968 -0.05245397 -0.035620157 0.009142436 0.033685178 0.061837547 0.031509344 0.047478866
-0.027558051 -0.076286644 -0.052008547 -0.016236825 -0.035377298 -0.03504055 -0.0005005711 0.0150999185
-0.012245812 -0.011182901 0.030883417 -0.0077935834 -0.01940422 -0.03068183 0.009800338 0.008887945
0.06472432 -0.00641565 0.021621833 -0.03326551 0.06701274 0.017054144 -0.009937773 0.01967865
-0.06697697 -0.043950308 0.008761315 -0.020943662 -0.025960185 -0.031152435 0.052874725 -0.025095873
-0.06253665 -0.040699136 -0.03583792 0.041617364 0.0063817636 -0.03250226 -0.046336375 -0.012123219
0.06738174 0.03299391 -0.028202808 0.0034384714 0.033903413 0.049231596 -0.0092797335 0.013955728
0.0024908897 0.014452583 -0.026263958 -0.00012128976 -0.019027112 0.009324431 -0.021838536 0.028519152
-0.013888864 -0.063640356 0.042676885 0.03100041 -0.035485435 -0.03950131 -0.019512769 0.052455015
0.036727455 0.041641045 -0.03669806 -0.05857535 0.009046941 0.018949129 0.0054649357 0.041638672
-0.048657794 -0.05604929 -0.020188112 -0.0071547953 0.04124636 -0.020079816 -0.04297939 0.050230317
0.042303815 -0.025496738 0.02145554 -0.05235866 0.0030371286 -0.009228984 -0.0010346398 -0.018719662
-0.033968076 0.0407667 0.05998952 0.019169481 -0.020924333 0.022694 0.015988378 -0.04535027
-0.046170466 -0.008120539 0.009046752 -0.04727872 -0.0058249747 -0.06772269 -0.0077671455 -0.042190958
-0.029234445 0.01281316 -0.0313374 0.06516967 -0.0014262189 0.037637185 0.016281461 0.044097017
-0.009487949 0.00433126 0.018247847 -0.009200316 0.06581748 0.03812979 -0.04616007 0.036410525
0.033143688 0.016404739 -0.05460041 -0.017517604 -0.005409486 0.0058053024 -0.023126032 0.043961115
0.030259172 -0.021142347 0.041180376 -0.03385906 0.0264517 -0.006228949 -0.04175871 0.00049031316
0.028872302 -0.023067554 -0.014585211 -0.014233519 -0.02001192 0.019407324 0.059792742 0.001540017
0.039909896 0.036484666 -0.0041942936 -0.011850971 -0.03598484 -0.016659457 0.05959692 -0.031003458
0.04847224 -0.038671933 0.034496557 -0.01627884 -0.025056394 0.016181946 -0.019947011 -0.0018444243
0.04200132 0.028642476 0.008152269 -0.03650037 0.044323266 0.060649835 0.041439608 0.052934885
-0.014268066 -0.030859934 -0.03396941 -0.005489588 -0.028122433 -0.0013018975 -0.028873421 -0.0031756486
0.0758984 -0.046919383 0.011071736 0.014624419 0.005606924 0.0026501855 0.042011335 0.023382206
-0.006355468 0.05104184 -0.009476193 0.044252094 0.072156616 -0.036094815 0.035221495 -0.029104788
0.048653264 0.068043046 -0.017827993 0.020140491 0.051862 0.038499303 -0.042869598 0.05059002
0.02822068 -0.034889087 0.028735003 -0.020035189 -0.051010553 0.04794532 0.018798096 -0.06424467
-0.010408741 -0.019862426 0.03845528 -0.028379446 0.007678393 0.0017286302 -0.011678286 -0.051376946
-0.025826976 0.033754654 -0.033496022 0.014552788 0.0033943823 0.05782626 0.03317058 -0.022963185
0.024135225 -0.044915847 -0.042873412 -0.055550132 -0.009510905 0.058914445 -0.014261568 -0.03805243
00000000: c442 24bd 17f6 3abd b6ca 333d a39e 433c
00000010: 4a53 2d3c c371 f439 0803 353d fe6c 33bc
00000020: a298 0cbd a0ec 07bd bc57 933c 10b4 e9bb
00000030: 1cfe 933d 9406 e9bb e440 893d 695a 353d
00000040: 0f98 15bd f9d9 56bd 71e6 11bd 28ca 153c
00000050: 78f9 093d 5e49 7d3d f10f 013d 3379 423d
00000060: 6cc1 e1bc 2c3c 9cbd ea06 55bd 1703 85bc
00000070: c9e7 10bd ae86 0fbd c238 03ba a665 773c
00000080: a9a2 48bc 7d38 37bc 38ff fc3c 5161 ffbb
00000090: 99f5 9ebc 7658 fbbc 9991 203c be9e 113c
000000a0: 2f8e 843d 5f3a d2bb 4520 b13c 6a41 08bd
000000b0: fa3d 893d 22b5 8b3c 0bd2 22bc 1f35 a13c
000000c0: 392b 89bd 3d05 34bd 9e8b 0f3c 0b92 abbc
000000d0: 74aa d4bc 6433 ffbc 2b93 583d dc95 cdbc
000000e0: 3713 80bd 23b4 26bd c8ca 12bd f876 2a3d
000000f0: 1d1e d13b 1721 05bd 36cb 3dbd 77a0 46bc
00000100: 70ff 893d 9f24 073d 9309 e7bc fa57 613b
00000110: 4ede 0a3d 12a7 493d 060a 18bc 91a6 643c
00000120: 323e 233b 87ca 6c3c 8327 d7bc f25c feb8
00000130: bfde 9bbc 80c5 183c bbe6 b2bc ffa0 e93c
00000140: 1e8e 63bc e055 82bd f5cd 2e3d 92f4 fd3c
00000150: 2d59 11bd 20cc 21bd 3ed9 9fbc 12db 563d
00000160: 876f 163d cd8f 2a3d b450 16bd b5ec 6fbd
00000170: 9f39 143c 343b 9b3c 3413 b33b 508d 2a3d
00000180: 654d 47bd f193 65bd 8a61 a5bc c672 eabb
00000190: f1f1 283d 6d7e a4bc 280b 30bd 4ebe 4d3d
000001a0: c446 2d3d 89de d0bc 87c3 af3c 0976 56bd
000001b0: 900a 473b 2a35 17bc c09c 87ba fa59 99bc
000001c0: 1c22 0bbd fcfa 263d 92b7 753d 5109 9d3c
000001d0: 8269 abbc c4e8 b93c 0ffa 823c 34c1 39bd
000001e0: 3e1d 3dbd 020c 05bc d438 143c 55a7 41bd
000001f0: 6edf bebb 32b2 8abd 8a83 febb 6dd0 2cbd
00000200: 137d efbc 4aee 513c a55b 00bd ad77 853d
00000210: f7ef baba 7329 1a3d b360 853c 139f 343d
00000220: 5873 1bbc 3eed 8d3b 827c 953c ecbc 16bc
00000230: 51cb 863d fc2d 1c3d 5712 3dbd 3423 153d
00000240: adc1 073d 3b63 863c aea4 5fbd 1481 8fbc
00000250: 0f42 b1bb 683a be3b ce72 bdbc 9210 343d
00000260: 15e2 f73c b732 adbc c1ac 283d ccaf 0abd
00000270: 3cb1 d83c 361c ccbb 2e0b 2bbd 5c88 003a
00000280: 9b85 ec3c 2bf8 bcbc cff6 6ebc b533 69bc
00000290: 0af0 a3bc 1cfc 9e3c 3ce9 743d 65da c93a
000002a0: 8f78 233d f270 153d 4970 89bb 932a 42bc
000002b0: d764 13bd 6a79 88bc e61b 743d f7fa fdbc
000002c0: d48a 463d 7666 1ebd 434c 0d3d 345b 85bc
000002d0: 1143 cdbc 0090 843c ea67 a3bc 9cc0 f1ba
000002e0: 9309 2c3d a0a3 ea3c 1891 053c 6981 15bd
000002f0: 508c 353d f66b 783d 94bc 293d 40d2 583d
00000300: 9bc4 69bc f9cd fcbc 8223 0bbd 00e2 b3bb
00000310: 0461 e6bc 6ea4 aaba f487 ecbc 8b1e 50bb
00000320: 9f70 9b3d 8a2e 40bd 3a66 353c 429b 6f3c
00000330: 4aba b73b bcae 2d3b 1414 2c3d 0a8c bf3c
00000340: 8841 d0bb 4011 513d 0942 1bbc af41 353d
00000350: d9c6 933d 28d8 13bd 6a44 103d 2a6d eebc
00000360: a548 473d 275a 8b3d 030c 92bc acfd a43c
00000370: 406d 543d 72b1 1d3d 0898 2fbd 7b37 4f3d
00000380: 0e2f e73c dce7 0ebd ab65 eb3c d620 a4bc
00000390: 71f0 50bd 5062 443d 77fe 993c b692 83bd
000003a0: 6d89 2abc 87b6 a2bc 4983 1d3d 037c e8bc
000003b0: 079b fb3b 3493 e23a 4856 3fbc a270 52bd
000003c0: 1893 d3bc 5242 0a3d 2033 09bd d16e 6e3c
000003d0: 4974 5e3b 3adb 6c3d e0dd 073d 4a1d bcbc
000003e0: 3cb7 c53c aef9 37bd 089c 2fbd 8988 63bd
000003f0: a0d3 1bbc 4650 713d 5aa9 69bc dddc 1bbd

to_mean.0.bias f4 [128]
0.045302894 -0.0040875347 0.008369378 -0.07475321 -0.0525262 -0.011963537 0.0294471 0.043713685
0.0024145774 0.028857667 -0.059228245 -0.07512027 -0.027673945 0.03409541 0.018673075 -0.0329328
0.03738891 0.01276819 0.027734231 -0.077458 0.021420727 -0.04669861 0.04761403 0.02779046
-0.08324564 0.04657646 -0.014096964 0.002335321 0.045077953 -0.050459005 -0.0059247287 0.03916931
-0.021096162 0.014286758 -0.07491469 -0.031253707 0.02047046 -0.040302377 -0.011168073 -0.04693532
-0.022159325 0.053554535 -0.08167817 -0.030659689 0.019929536 0.02921289 0.0041188593 0.026245598
-0.05355319 0.0033385379 0.041514773 -0.010730244 0.048769563 -0.0472452 -0.06706394 -0.030101042
-0.0019750586 -0.06299733 0.028700683 -0.040250417 0.051978923 -0.028041927 0.0076211602 0.018967234
-0.087459534 0.029792856 0.058775265 -0.0890596 -0.004559588 0.01931385 -0.0077352985 -0.01680137
0.03516206 -0.015943587 -0.07072612 0.028916486 -0.05430099 -0.039671287 0.00200739 -0.039177008
0.026062395 0.025886443 0.025497701 -0.028656213 0.018539077 -0.026122233 0.014063827 -0.024723658
0.04638841 -0.00039462346 0.01722882 -0.025945233 -0.06791403 -0.07108134 0.022190394 0.014615659
0.018285232 -0.037757494 -0.034886356 0.06602111 -0.07493201 0.06012644 -0.046695 0.04072727
-0.026150908 -0.052324865 -0.043555107 -0.059512038 0.06707918 0.051281888 0.02641726 -0.07930651
0.02682707 -0.026699778 -0.03454952 0.045605168 0.014489754 -0.057237223 -0.035758313 0.029986467
0.037671916 -0.06999098 0.0035462754 0.03881584 0.016432231 -0.017702544 0.03567693 0.044897083
00000000: 878f 393d baf0 85bb b71f 093c 3618 99bd
00000010: b625 57bd b602 44bc 0b3b f13c 1f0d 333d
00000020: e33d 1e3b ea66 ec3c 5199 72bd a8d8 99bd
00000030: 78b4 e2bc a1a7 0b3d 47f8 983c 8be4 06bd
00000040: 1d25 193d ac31 513c e632 e33c 4da2 9ebd
00000050: 857a af3c 0b47 3fbd ee06 433d d2a8 e33c
00000060: b17c aabd f5c6 3e3d f4f6 66bc 2f0c 193b
00000070: a9a3 383d 1aae 4ebd 3a24 c2bb 0070 203d
00000080: dcd1 acbc 0213 6a3c df6c 99bd e303 00bd
00000090: abb1 a73c 1b14 25bd 4bfa 36bc 403f 40bd
000000a0: 7987 b5bc 005c 5b3d e246 a7bd 072a fbbc
000000b0: 4443 a33c df4f ef3c 7ff7 863b 0201 d73c
000000c0: 975a 5bbd 5fcb 5a3b 650b 2a3d e8cd 2fbc
000000d0: 98c2 473d 2f84 41bd d258 89bd 7696 f6bc
000000e0: fc6f 01bb bf04 81bd b21d eb3c 9fdd 24bd
000000f0: dae7 543d 2fb8 e5bc edba f93b 2c61 9b3c
00000100: fc1d b3bd 2610 f43c 55be 703d e164 b6bd
00000110: 9968 95bb 1438 9e3c 6378 fdbb 07a3 89bc
00000120: 1806 103d 209c 82bc dbd8 90bd 44e2 ec3c
00000130: b76a 5ebd 5c7e 22bd 6a8e 033b 1278 20bd
00000140: ce80 d53c ce0f d43c 8ee0 d03c 6fc0 eabc
00000150: 43df 973c 4bfe d5bc f76b 663c 4589 cabc
00000160: c601 3e3d 77e5 ceb9 7423 8d3c 198b d4bc
00000170: 8316 8bbd 1893 91bd a1c8 b53c 8476 6f3c
00000180: e9ca 953c 9aa7 1abd ffe4 0ebd 1336 873d
00000190: f475 99bd 2447 763d 4243 3fbd a3d1 263d
000001a0: 6e3a d6bc 9952 56bd d766 32bd e5c2 73bd
000001b0: cf60 893d f50c 523d 0269 d83c 746b a2bd
000001c0: 72c4 db3c 7eb9 dabc cc83 0dbd 7ccc 3a3d
000001d0: 6f66 6d3c 9471 6abd 4f77 12bd 2ea6 f53c
000001e0: de4d 1a3d 6e57 8fbd a168 683b 5cfd 1e3d
000001f0: e39c 863c ed04 91bc f921 123d 01e6 373d

to_mean.2.weight f4 [18, 128]
0.018368183 -0.006870221 0.0017126331 -0.047907304 -0.010308835 -0.0052095153 0.0031607402 0.030173576
0.014725235 0.031628165 -0.01352113 -0.056434534 0.027881343 0.009955852 -0.013004205 0.012518356
-0.0036634519 0.011609031 -0.004430094 0.0352918 -0.01673741 0.0021125479 0.005789962 -0.008817339
0.019292448 -0.008724034 -0.010296775 -0.049219742 -0.0048953155 -0.0032854348 -0.0032303818 -0.0004587536
-0.004450957 0.01964382 0.02277888 0.030703582 0.04310275 -0.04609891 0.019255603 0.033137176
-0.00822062 0.009792507 -0.04569187 -0.010386822 -0.02849394 0.017698789 0.019280303 -0.029967487
0.030144054 0.009700984 0.025267066 0.020500077 0.0028760422 -0.021097638 -0.006103316 0.05258678
-0.019524986 -0.010030358 0.026782611 -0.008589085 -0.005278318 0.034477353 -0.006170879 -0.0156083545
-0.05603941 0.015798863 0.027424052 -0.055522516 -0.012097686 -0.014927962 0.04244317 0.044013377
-0.016165387 -0.00065063476 0.042503323 -0.0034735205 -0.061058708 -0.032806564 0.032237645 -0.010882249
0.009279764 -0.0076058754 0.0014678065 0.025659895 0.0065917163 -0.029055253 -0.014325336 0.03555647
-0.023774823 -0.009044353 0.0069570704 -0.005943102 0.0030045302 -0.024058187 0.021983 -0.028945455
-0.026608538 -0.030994711 -0.03143407 0.006495609 -0.005088986 -0.026148187 -0.015623864 -0.009157755
-0.04212604 -0.039393995 -0.036952484 -0.010517135 0.003091053 -0.0032318465 0.015998611 -0.043342367
-0.017040314 -0.021766981 -0.04664477 0.014675294 0.03145839 0.0041153408 -0.05177718 0.02224994
0.008636424 -0.045102224 0.011323061 -0.015231815 0.005762285 -0.011857176 -0.03356331 -0.004882038
0.015630784 0.0024086467 0.014798745 -0.052233145 -0.007590389 0.017654145 -0.022911191 0.032811217
0.022428557 -0.03169897 -0.0035734943 0.038961273 0.022711495 0.020258073 0.009895609 0.012848674
0.03769362 -0.0007458457 0.013290266 -0.0013160983 0.0042374046 -0.0025347301 -0.0028987555 -0.019169543
-0.04799149 0.010330249 -0.02754162 0.019375129 -0.010519402 -0.018043837 -0.02608419 -0.005074221
-0.022304665 -0.03581486 0.019895703 0.028002791 0.037006978 0.0037199175 0.0002962584 0.031183437
0.01189299 -0.0050352197 0.031194089 0.0072791185 0.020167977 -0.014495956 -0.025959602 0.0010375574
-0.0016903442 0.00076321466 0.008494188 -0.016505562 -0.0047939206 -0.005892543 0.009842633 0.028456792
0.0026082983 0.010356038 0.026014335 0.0028131823 -0.00035311482 -0.040351152 0.013842437 -0.004270468
-0.011155278 0.029660048 -0.010028085 -0.045923535 0.015622466 -0.013350966 0.038841877 0.044700876
0.0033434774 0.01887482 -0.025370907 -0.014148368 -0.038193785 -0.03597238 -0.011723311 0.0133226365
0.0065456578 0.014224477 0.020241084 -0.009783979 -0.019872036 0.034818623 -0.01810396 -0.034661572
-0.015628237 -0.007597118 0.003363997 0.0010332264 0.042825677 -0.032688927 -0.010388048 -0.033673927
-0.030990733 -0.03334108 -0.0385222 0.021126814 0.053367704 -0.02200819 -0.03178931 0.027221903
-0.0031492747 -0.0076375008 -0.004466599 0.027351834 -0.0015723692 0.03867946 0.011911054 -0.011094034
-0.021092204 -0.03819443 -0.014523205 -0.024669176 -0.03055209 0.009530044 -0.001479079 0.010823328
0.011846016 -0.023641469 0.022435628 0.0042434027 -0.011580094 -0.002286654 0.038888935 -0.009282578
00000000: df78 963c 971f e1bb 6e7a e03a 733a 44bd
00000010: 63e6 28bc 95b4 aabb 6c24 4f3b 932e f73c
00000020: 1d42 713c 898c 013d bb87 5dbc e627 67bd
00000030: 6a67 e43c df1d 233c 970f 55bc ca19 4d3c
00000040: 8616 70bb ce33 3e3c 522a 91bb 228e 103d
00000050: e51c 89bc ac72 0a3b b9b9 bd3b 9a76 10bc
00000060: 320b 9e3c 40ef 0ebc ceb3 28bc a49a 49bd
00000070: e268 a0bb 7350 57bb d0b4 53bb de84 f0b9
00000080: 55d9 91bb 14ec a03c c69a ba3c 1486 fb3c
00000090: 828c 303d 36d2 3cbd edbd 9d3c d9ba 073d
000000a0: c8af 06bc c070 203c 6627 3bbd 7d2d 2abc
000000b0: 206c e9bc 0dfd 903c baf1 9d3c 607e f5bc
000000c0: aaf0 f63c e0f0 1e3c e1fc ce3c c7ef a73c
000000d0: fb7b 3c3b f4d4 acbc 53fe c7bb 3c65 573d
000000e0: ddf2 9fbc 5f56 24bc 3567 db3c 3cb9 0cbc
000000f0: bef5 acbb 2038 0d3d 1635 cabb 2fba 7fbc
00000100: 9589 65bd 9e6c 813c 68a8 e03c 946b 63bd
00000110: 5f35 46bc 6994 74bc e4d8 2d3d 5f47 343d
00000120: 466d 84bc 5c8f 2aba f717 2e3d 01a4 63bb
00000130: b218 7abd 2d60 06bd 9f0b 043d 764b 32bc
00000140: 270a 183c b53a f9bb 6a63 c03a b334 d23c
00000150: 53ff d73b 4805 eebc d0b4 6abc a9a3 113d
00000160: 6bc3 c2bc c42e 14bc 23f8 e33b 5abe c2bb
00000170: a7e7 443b ad15 c5bc b115 b43c 051f edbc
00000180: 26fa d9bc 9fe8 fdbc 03c1 00bd 1ed9 d43b
00000190: 82c1 a6bb b934 d6bc 3cfb 7fbc 690a 16bc
000001a0: 5b8c 2cbd 995b 21bd 7d5b 17bd 1050 2cbc
000001b0: 4493 4a3b 63cd 53bb 850f 833c c487 31bd
000001c0: 2198 8bbc ab50 b2bc 960e 3fbd a570 703c
000001d0: 83da 003d fbd9 863b 4f14 54bd 8245 b63c
000001e0: ca7f 0d3c 1cbd 38bd 5c84 393c dd8e 79bc
000001f0: 8dd1 bc3b 9a44 42bc ae79 09bd 81f9 9fbb
00000200: 210c 803c 63da 1d3b 6f76 723c 6cf2 55bd
00000210: ccb8 f8bb 6d9f 903c 40b0 bbbc 0e65 063d
00000220: 18bc b73c c7d6 01bd 4931 6abb db95 1f3d
00000230: 750d ba3c 42f4 a53c 3121 223c 3f83 523c
00000240: a064 1a3d dc84 43ba 6abf 593c ee80 acba
00000250: edd9 8a3b b71d 26bb 0cf9 3dbb 7209 9dbc
00000260: ba92 44bd 3440 293c f79e e1bc 97b8 9e3c
00000270: 9259 2cbc abd0 93bc 83ae d5bc a745 a6bb
00000280: 46b8 b6bc 9ab2 12bd 50fc a23c 1c66 e53c
00000290: a194 173d dcc9 733b 2153 9b39 6874 ff3c
000002a0: d1da 423c 7cfe a4bb bf8a ff3c ac85 ee3b
000002b0: 5037 a53c 7280 6dbc 3ba9 d4bc a6fe 873a
000002c0: 8a8e ddba 7812 483a 352b 0b3c ac36 87bc
000002d0: 5216 9dbb 3c16 c1bb ff42 213c 381e e93c
000002e0: fcef 2a3b 5fac 293c 041c d53c 5e5d 383b
000002f0: 4522 b9b9 4047 25bd 64cb 623c 48ef 8bbb
00000300: a1c4 36bc a1f9 f23c d64c 24bc 511a 3cbd
00000310: 5ff5 7f3c 03be 5abc a918 1f3d 4418 373d
00000320: 3e1e 5b3b 5e9f 9a3c a6d6 cfbc 8ece 67bc
00000330: 1671 1cbd c657 13bd 2113 40bc 3047 5a3c
00000340: f57c d63b c80d 693c a1d0 a53c fb4c 20bc
00000350: aeca a2bc f99d 0e3d c24e 94bc 4bf9 0dbd
00000360: ca06 80bc 3ff1 f8bb 8176 5c3b 536d 873a
00000370: fa69 2f3d d3e4 05bd a232 2abc aced 09bd
00000380: 47e0 fdbc a890 08bd 74c9 1dbd 2412 ad3c
00000390: 1898 5a3d 854a b4bc 8235 02bd 7800 df3c
000003a0: 1064 4ebb 0044 fabb 8c5c 92bb f410 e03c
000003b0: f517 ceba 5a6e 1e3d 9526 433c c0c3 35bc
000003c0: 8fc9 acbc c371 1cbd bdf2 6dbc 0317 cabc
000003d0: 6048 fabc e723 1c3c a8dd c1ba 5454 313c
000003e0: cb15 423c c1ab c1bc ecca b73c 3e0c 8b3b
000003f0: 6fba 3dbc b0db 15bb 014a 1f3d f415 18bc

to_mean.2.bias f4 [18]
-0.016415605 0.05494339 0.02735826 -0.0753287 0.00020554525 -0.06955607 -0.08433485 -0.027821343
0.032725908 -0.0419552 -0.03926139 -0.009694208 0.058291245 -0.08215803 -0.09717864 0.027500851
0.0795009 0.06261548
00000000: 057a 86bc 520c 613d 6e1e e03c ef45 9abd
00000010: a287 5739 6a73 8ebd c0b7 acbd 96e9 e3bc
00000020: 9a0b 063d 37d9 2bbd 8dd0 20bd 75d4 1ebc
00000030: cdc2 6e3d 7842 a8bd 9805 c7bd 7749 e13c
00000040: 5ed1 a23d 8b3c 803d

to_value.0.weight f4 [128, 256]
-0.034557544 0.0043565286 0.057347003 -0.03763969 0.013895064 -0.022439744 -0.012886074 0.035169497
0.0068438957 0.036248557 -0.042417537 0.067696884 -0.06727625 -0.03129542 -0.02404886 -0.0031429178
0.020018885 -0.051944923 -0.048546843 0.0037145722 -0.07948204 0.031090261 -0.018895842 0.0001722472
-0.0012721729 -0.04026091 -0.0344193 -0.03886106 -0.060049616 -0.04269668 -0.026903106 -0.05526456
-0.01648971 0.05818095 0.13686287 0.04985748 0.03968349 -0.02755071 0.00046712434 0.041898366
-0.0048936345 -0.03576496 0.03882139 -0.023404177 0.031613212 -0.046281856 -0.023261042 0.019852785
-0.070152916 -0.015216219 0.024400381 0.08499699 0.056038342 -0.01958633 -0.03455572 0.019882005
0.0074106376 0.066235416 -0.04579871 0.046809938 -0.03825583 -0.029276464 -0.06435217 -0.05163379
-0.047342796 0.02342939 0.03498778 0.01868708 -0.045339376 0.053716093 -0.02857425 0.02535483
0.04768657 -0.059613187 0.030704577 0.006004912 0.049129438 -0.03877571 -0.064433 0.04050622
0.0022508514 -0.0061707133 0.065813616 0.06334834 0.016104672 -0.020314412 0.038591765 0.02326867
0.037336923 0.03727998 -0.015621526 0.01375317 0.06528036 0.016929938 -0.016617287 0.04438228
-0.023132682 0.16411412 -0.026102178 -0.040751886 -0.06554796 0.00026906913 0.025577534 -0.02041432
0.024934558 0.023620231 0.013378564 -0.02315445 -0.010563892 0.04222434 0.027834423 -0.021122942
-0.06430594 -0.00012521549 -0.0533303 -0.040859647 0.061438773 -0.043029398 0.009488084 -0.0064472444
-0.027529933 0.027343364 -0.007129569 -0.026761249 -0.05579262 0.04472231 -0.028809655 -0.038049053
-0.01117278 0.00244509 -0.009259359 -0.010803469 -0.047218442 0.021354241 0.0084402105 -0.031514827
-0.021997299 0.053077158 -0.056070235 0.026682992 -0.057644278 0.014714159 0.049579214 -0.04291605
0.025426475 -0.052381266 -0.02853918 -0.036816772 -0.0032112037 -0.049229566 -0.009886491 0.023014635
-0.0046148407 -0.035757862 0.041264676 0.03748228 0.0032454773 0.009648966 -0.040932175 -0.008348622
0.02646147 0.057575837 -0.048766345 0.015962236 -0.039356243 0.017778583 -0.04553759 -0.036980722
-0.019647341 0.02761188 -0.00089122273 0.051510982 -0.00047295674 -0.03489383 -0.021360943 0.049629662
0.008782602 0.02646864 -0.0043228776 -0.00091779185 -0.06448042 0.045084495 -0.03061931 -0.05826719
-0.015205554 -0.042415667 -0.009534167 0.045452688 0.04280687 0.047407266 0.04427099 -0.013678762
0.033064008 0.06087429 0.050814774 0.0030500113 0.011831791 0.052301623 0.015243112 -0.021141876
-0.03377656 -0.028748503 -0.05994606 -0.071509555 -0.044841155 0.008856114 -0.042467814 0.022807125
0.0035048362 -0.033487484 -0.030597571 -0.024506394 0.058993477 0.027825128 0.003116627 0.03664077
-0.022799473 0.02195497 -0.047997802 -0.029467097 -0.0075069275 0.007420414 -0.056108106 -0.047795366
0.01794334 0.032598764 -0.04578161 -0.017571462 -0.061425522 0.03421025 -0.030724023 -0.03154659
-0.027986405 -2.0311647e-05 -0.018545115 0.0085328985 -0.01202879 -0.08369648 0.06866837 0.035134975
-0.019759178 0.06441885 -0.05519538 -0.057123125 0.033859134 0.055948127 -0.03118676 0.03388547
-0.01883957 0.009265567 -0.043203965 -0.030864421 -0.042657636 -0.059084307 -0.0046752277 -0.058704022
00000000: 368c 0dbd 36c1 8e3b b1e4 6a3d 132c 1abd
00000010: 1fa8 633c 8ed3 b7bc 1d20 53bc e40d 103d
00000020: c242 e03b 5e79 143d 03be 2dbd aaa4 8a3d
00000030: 21c8 89bd a02f 00bd 1d02 c5bc 69f9 4dbb
00000040: a5fe a33c 33c4 54bd 0ed9 46bd 2e70 733b
00000050: 7bc7 a2bd 01b1 fe3c 74cb 9abc 419d 3439
00000060: 0abf a6ba a0e8 24bd 40fb 0cbd c62c 1fbd
00000070: 96f6 75bd b7e2 2ebd e763 dcbc 175d 62bd
00000080: 6e15 87bc 264f 6e3d c825 0c3e 5b37 4c3d
00000090: 288b 223d 07b2 e1bc 5ee8 f439 9f9d 2b3d
000000a0: c85a a0bb 477e 12bd 2e03 1f3d 1eba bfbc
000000b0: db7c 013d 0b92 3dbd f18d bebc 4fa2 a23c
000000c0: 55ac 8fbd 734d 79bc 4fe3 c73c e712 ae3d
000000d0: 7688 653d 8373 a0bc 4c8a 0dbd 96df a23c
000000e0: efd4 f23b 6fa6 873d 6e97 3bbd c7bb 3f3d
000000f0: 25b2 1cbd 32d5 efbc 12cb 83bd f47d 53bd
00000100: 85ea 41bd feee bf3c 594f 0f3d a615 993c
00000110: c8b5 39bd 6805 5c3d 8c14 eabc efb4 cf3c
00000120: fe52 433d f52c 74bd 2a88 fb3c dac4 c43b
00000130: f33b 493d 47d3 1ebd 73f5 83bd dae9 253d
00000140: 0583 133b b233 cabb 4ac9 863d c6bc 813d
00000150: f2ed 833c 696a a6bc 6612 1e3d f09d be3c
00000160: 9aee 183d e4b2 183d 6ef1 7fbc fa54 613c
00000170: b6b1 853d a7b0 8a3c fa20 88bc 32ca 353d
00000180: c080 bdbc 880d 283e 3cd4 d5bc 73eb 26bd
00000190: 023e 86bd d911 8d39 fa87 d13c ef3b a7bc
000001a0: 8f43 cc3c 377f c13c c431 5b3c 67ae bdbc
000001b0: 2d14 2dbc 6ef3 2c3d 0405 e43c 050a adbc
000001c0: d5b2 83bd 474c 03b9 df70 5abd 725c 27bd
000001d0: 39a7 7b3d 983f 30bd e973 1b3c 6843 d3bb
000001e0: 7486 e1bc 31ff df3c 299f e9bb 683a dbbc
000001f0: cd86 64bd be2e 373d 3a02 ecbc 53d9 1bbd
00000200: 090e 37bc ce3d 203b 91b4 17bc 0901 31bc
00000210: 2068 41bd 17ef ae3c cf48 0a3c b115 01bd
00000220: ae33 b4bc 6f67 593d e7a9 65bd 4a96 da3c
00000230: 681c 6cbd a813 713c 9313 4b3d bdc8 2fbd
00000240: 2f4b d03c bd8d 56bd 00cb e9bc 2fcd 16bd
00000250: 0f73 52bb f1a4 49bd f3fa 21bc 3089 bc3c
00000260: 1738 97bb d676 12bd 2605 293d 0587 193d
00000270: 13b2 543b b216 1e3c 7fa8 27bd a9c8 08bc
00000280: bac5 d83c a4d4 6b3d 38bf 47bd 3cc3 823c
00000290: 0334 21bd 64a4 913c a085 3abd 1979 17bd
000002a0: 76f3 a0bc 4f32 e23c f2a0 69ba 2efd 523d
000002b0: 2ef7 f7b9 d5ec 0ebd 25fd aebc 7948 4b3d
000002c0: e7e4 0f3c c3d4 d83c eda6 8dbb f897 70ba
000002d0: 4f0e 84bd 85aa 383d 59d5 fabc 94a9 6ebd
000002e0: b720 79bc 0dbc 2dbd 3235 1cbc 992c 3a3d
000002f0: 4256 2f3d 1f2e 423d 7f55 353d e31c 60bc
00000300: 206e 073d 5257 793d 2723 503d b3e2 473b
00000310: 21da 413c 3a3a 563d 3fbe 793c ba31 adbc
00000320: 4a59 0abd fb81 ebbc 008a 75bd 9a73 92bd
00000330: 5cab 37bd 3c19 113c bbf2 2dbd 02d6 ba3c
00000340: 65b1 653b 2c2a 09bd c2a7 fabc a2c1 c8bc
00000350: 25a3 713d 86f1 e33c 5340 4c3b a214 163d
00000360: f6c5 babc e9da b33c 5899 44bd fb64 f1bc
00000370: acfc f5bb f226 f33b 9dd1 65bd 13c5 43bd
00000380: e9fd 923c 4886 053d 7f85 3bbd 07f2 8fbc
00000390: 5499 7bbd 0c20 0c3d f2b0 fbbc ff36 01bd
000003a0: bf43 e5bc ee62 aab7 edeb 97bc 92cd 0b3c
000003b0: 6714 45bc 0f69 abbd 01a2 8c3d b1e9 0f3d
000003c0: 00de a1bc 08ee 833d 8d14 62bd f0f9 69bd
000003d0: e0af 0a3d dd29 653d 607b ffbc 7ecb 0a3d
000003e0: 7155 9abc 9bce 173c a4f6 30bd 62d7 fcbc
000003f0: c6b9 2ebd 6302 72bd a732 99bb a173 70bd
