saves/save3_1_23/save2_Standing_22500.pth (torch, 942043 bytes, 11 tensors)

shared_net.0.weight f4 [512, 67]
00000000: d7e6 143d e157 8cbd de81 b4bd 7721 02be
00000010: 5157 91bd e16b 78bd aea5 573d 092e ed3d
00000020: e2ea c93d f726 5b3c 4bb5 e2bf 9991 88bd
00000030: ef32 adbe 5ad4 3dbe 93da 683d 8f0e c53d
00000040: e03e b5bb b254 263d 56ec b1bd 0a51 a5bd
00000050: fd4a 3aba 8a12 0f3e e447 153e 1df0 b43e
00000060: a773 d23c b3ea 0c3d 2250 7bbe 0a84 9a3c
00000070: 984a 88bd c8e7 a1bd e3e5 d43c 03f4 203d
00000080: 124e 59bc db77 1dbb 8a7c 323b 003a 6ebc
00000090: ff4f 25bc 0e8c 8bbc a36a 8fbc 3163 0abc
000000a0: a850 a1ba 9a87 f7ba 3b79 83bb 63e4 213b
000000b0: ca18 423b ad8f 393b 3c43 8bbb f543 8a3c
000000c0: 65a4 21be 4f84 3fbd 40b5 e13d b783 283e
000000d0: 93f7 9b3d c01b 2d3d 76a8 84bd 1e7f 8bbd
000000e0: 8033 78bd 9fe7 13be 17f7 6e3d 61fb 2d3d
000000f0: 0cef a73d 67e7 223d 8c2a b3bd 2a2e 8f3d
00000100: 2ad6 033e cd62 fbbc d0a2 e4bd 9b56 bdbc
00000110: 1aff a23a b271 8b3d 540c b6bd b0ac 4dbe
00000120: 5ef6 403e 5d51 583d 8374 d03d 2c3a b73e
00000130: 4699 ec3c d222 8dbf d1ec b9bd fe13 5b3d
00000140: 97ed 3dbe 94bf 223e 9707 153e 915b bc3d
00000150: e3d1 c63e 01e3 c0bd 10cc 8cbe 29a5 673d
00000160: 8b92 413e d0e8 89bd 03b8 c03d 6e9f 33be
00000170: b8f1 82ba 1587 2b3e e577 54be c9b9 f3bc
00000180: e1b5 11be a9bc a43c 7038 063c 7010 213b
00000190: ade7 143b 9f2b 09bd b4ff e13c 6889 553c
000001a0: b904 953c b2e1 423c b897 5e3c a93c 8bbc
000001b0: 691a 473c 8c50 b53b 1b8a 863b 2366 043c
000001c0: b443 23bc f2bb 50bc fded 643d e8eb 96bc
000001d0: e827 a3bd 81a7 473d 5f0b 14bc e9b0 483e
000001e0: c9b5 033d 092b 24be eee8 f4bd 0ed7 863d
000001f0: 18f9 a1bd b282 1cbe 5b3c 82bd db2c 45bd
00000200: 960d b0bc fffe 1ebe 0e3d 1abb 70ef 093e
00000210: a8fb 33be 94e8 8ebc 3e84 233f e798 953c
00000220: 0cd7 643d de90 85bd 08b7 a0bc b3fe a43d
00000230: 0709 0f3d b469 823d 7fb4 ce3d 065e 9a3b
00000240: f3f2 52bf 698e 51bd 46a6 c23d f126 44ba
00000250: 9918 1ebc f2b1 cfbd 093b 7cbd 338e 6fbd
00000260: 6ab8 2d3d ceee 933d f955 573e 6ece 34be
00000270: b91c da3d 96be 31bd 086d fbbd d0ab 04bd
00000280: 5549 b4bd 69e1 113d 25cf f1bd 558a c1bd
00000290: 5f46 c7bc e37f fa3c 29d0 80bc 2522 c8bb
000002a0: d28a 3f3c 2486 08bc 898e b1ba 65a6 563c
000002b0: 4d5f 603b 46a8 043d b423 11bd d0ed 7f3c
000002c0: 1813 79bb 7cc9 393a a256 bc3c 482b 60bb
000002d0: c23d 603b a741 56bc 99a4 c03d 529b 943d
000002e0: e2fd 053e 4a33 47bc a639 95bc f777 d93b
000002f0: 1d16 dcbd 5768 523d 927b f63d d426 483d
00000300: 0b00 50bc 5456 b5bc b818 8abd 3cf5 56bd
00000310: 2a62 ccbd bc7c 0b3d 2e42 dbbd df3d 9bbb
00000320: 58e1 5cba 4c77 073f dadb 28bc 0eda 593b
00000330: f238 3cbd cf1c ecba cd97 453d 1d28 b73c
00000340: 928d 133d a839 40bd 87d3 e23b be1a 90bf
00000350: 3aed 0d3e 08fe eebd 0b30 a1bd 5df3 823c
00000360: 26b2 a9be 77b0 a3bd 23a5 e33d d66b a7be
00000370: 635d 993d 341f 673e 56b8 11be 8a5e b5bd
00000380: 8c1e 29be 1616 c03e 65ee e8bd 0ad7 c2be
00000390: 940b 063e 9086 9a3d 09c5 1f3e 5cee 883d
000003a0: 5558 e0ba 4beb 8e3c 1d1b 23bb 6480 e1bb
000003b0: 8645 2dbb 458d 24bc c407 e83a 6b9d bebd
000003c0: 722e 2d3d 5597 133e 9375 7bbd fe55 8c3a
000003d0: bceb 2b3c c28b 16bc 9897 16bb eacf c2bc
000003e0: e915 3b3c a11b d7bd df7d 0c3c d1de 1b3c
000003f0: a419 3a3e 9a69 c9bc 4cd8 b8bd 7e85 01be
0.03635296 -0.06852699 -0.08813833 -0.12708078 -0.070967324 -0.060649756 0.05264824 0.11581046
0.098592535 0.013375989 -1.7711576 -0.066683955 -0.33827922 -0.18538037 0.056849074 0.096219175
-0.005531177 0.040608115 -0.08687656 -0.080720976 -0.0007106511 0.13971916 0.14578205 0.35339442
0.025689913 0.034403514 -0.24542287 0.01886179 -0.06654853 -0.07905537 0.025988525 0.039295208
-0.013263242 -0.0024027738 0.0027234876 -0.014540195 -0.010089873 -0.017034557 -0.017506903 -0.008446501
-0.0012307363 -0.0018885017 -0.0040122545 0.002470278 0.0029616826 0.0028314397 -0.0042499583 0.016878108
-0.15785368 -0.04675704 0.11020899 0.16456495 0.076155804 0.042262793 -0.06477444 -0.06811355
-0.06059599 -0.14443825 0.058341112 0.04247606 0.081998914 0.039771464 -0.087483495 0.06991227
0.12874666 -0.03068676 -0.111638665 -0.023112586 0.0012435645 0.06808795 -0.0888907 -0.20085406
0.18843982 0.05281197 0.10178473 0.3578657 0.02888168 -1.1026251 -0.09078372 0.053485863
-0.18547665 0.15893394 0.14553677 0.091971524 0.38832006 -0.094182976 -0.27499437 0.056553993
0.18903558 -0.067338586 0.094100975 -0.17541286 -0.0009990251 0.16750748 -0.20748861 -0.029751675
-0.14229538 0.020109491 0.008192167 0.0024576448 0.0022721097 -0.033488866 0.027587749 0.0130332485
0.018190729 0.01189463 0.013585977 -0.016996698 0.012152293 0.0055332836 0.004105819 0.008080992
-0.009964872 -0.012740122 0.055891026 -0.018423036 -0.07966596 0.04874373 -0.009035914 0.19598736
0.032155786 -0.16032042 -0.1195849 0.06583987 -0.07908839 -0.15284231 -0.06359168 -0.04813848
-0.021490853 -0.15526961 -0.0023534927 0.13470244 -0.17576468 -0.017444886 0.6387366 0.018261386
0.055869147 -0.06521772 -0.019618526 0.080563925 0.03492072 0.063678175 0.10093021 0.0047109155
-0.8240196 -0.051161204 0.095043704 -0.00074826094 -0.009649419 -0.10141362 -0.061579738 -0.05848522
0.0424122 0.07223283 0.2102889 -0.17656872 0.1065001 -0.043394648 -0.122766554 -0.032390416
-0.088030495 0.03561536 -0.11807088 -0.09450213 -0.024325548 0.03057856 -0.015724258 -0.006107586
0.011690812 -0.008332763 -0.0013546507 0.013101195 0.0034236491 0.03238704 -0.03543444 0.015620664
-0.0038005766 0.00070872135 0.022990528 -0.0034205485 0.0034216498 -0.013077176 0.094063945 0.072561875
0.1308513 -0.012158224 -0.018215965 0.0066366154 -0.10746405 0.051369037 0.12035288 0.048865154
-0.012695323 -0.022135891 -0.06742996 -0.052479967 -0.09979661 0.034054503 -0.10705982 -0.0047376
-0.0008425913 0.5291641 -0.010306323 0.0033241543 -0.045952745 -0.0018013957 0.04824047 0.022357995
0.036023684 -0.046929985 0.0069221887 -1.1258161 0.13860026 -0.11669546 -0.078704916 0.015985185
-0.3314373 -0.079926424 0.11115482 -0.3269946 0.07488515 0.22570497 -0.14230475 -0.088559225
-0.16515559 0.3751685 -0.11373595 -0.38054687 0.13090354 0.07545197 0.15602507 0.066860884
-0.0017116169 0.01744618 -0.0024887987 -0.0068817604 -0.0026439144 -0.010043447 0.001770251 -0.09307369
0.04228062 0.14413197 -0.061391424 0.001070678 0.010493215 -0.009188594 -0.002297854 -0.023780782
0.011418798 -0.10503317 0.008574932 0.009513573 0.18173844 -0.024586488 -0.0902563 -0.1264858

shared_net.0.bias f4 [512]
00000000: 118a ecbc bb79 8f3d 280f f9bd fd49 08bd
00000010: e658 4dbe 0f0d 75bd eb1e b43d 807b 2a3e
00000020: 3294 0ebe 5076 e9bc b822 e13d 4fa9 493c
00000030: adb4 753d f0f9 99bd e92c 053d bee1 ddbd
00000040: 28fe 09be 82a7 843d 7f69 dc3d e985 44bd
00000050: a9d2 723e 44f2 abbd cf25 533d 92db c53c
00000060: 86c6 303e a01b a03c 3c0e babc 9d1c 273e
00000070: 9db2 a9bd 56ef 44bd 06e3 343e 5ca0 143e
00000080: ba73 633e 4254 6f3e d757 613e 1c84 35bd
00000090: a198 ad3c 6f2e 273e 4768 2a3d 83a2 0bbe
000000a0: b483 6dbe 9eda acbe 741c c2bd 13ae d43c
000000b0: ca43 ee3c a8e7 a0be d284 2ebe f98d 783e
000000c0: d50f 52be 5705 9fbe 8b62 90be 7848 29bd
000000d0: f45c b03d d949 b53e 8f9f 64be 3564 7bbe
000000e0: a155 e4bd 7ed5 473e 96c3 2fbe 3d31 3dbe
000000f0: c136 f83d f616 39be d6cb eebd aeb0 a0be
00000100: 6cd4 b63a 7bd9 47bc f0a8 f83d 75cc 9b3e
00000110: 0b42 a33e 1ccf 0fbe 22cf 863e 212d 1dbe
00000120: a4b6 473e d281 2d3e 3aa5 1abe 534f 24bd
00000130: 0fcb 6dbe 5c45 02be 3246 f5be 834a b1be
00000140: 76d0 653e a6d6 0ebe 7883 093e 0229 bebe
00000150: f079 953e e0d0 41be 2ca7 4d3d 9183 18be
00000160: 3ce5 57be f97f abbe 69f7 53be bb68 80bd
00000170: 0466 4ebd d7b6 6d3b 8f04 2abe eec3 abbe
00000180: f52e f93c 9be0 103e d57c abbe c3d0 a2be
00000190: c356 383e 32fa 87be 2d04 9d3b 6f88 2dbe
000001a0: bdbd 2c3d 782a 26be 2252 1b3e 6b36 753e
000001b0: d44a d5bd 9529 b639 1618 963e 0320 2dbd
000001c0: 3d21 623e ca86 163d da4d 1b3e efd7 953e
000001d0: c3f7 72bc 7d0b 86bd f5bd 723d 962e 6ebe
000001e0: 08fd 663d c7bc a1be 1860 d73d 5b19 30be
000001f0: c917 41be 8c0c c8bc ce32 023d 3f2f 89be
00000200: 32b8 993e 1b57 8c3d ff0e 9ebd 0ddc dbbc
00000210: 8f00 2dbe 9217 e0bd 3b65 b83c 6c19 aebd
00000220: 35d3 c8bd db29 43be 0c4e 24be 2c43 7ebe
00000230: eb07 d0bc 1b07 053d 4807 a63e 816c b9be
00000240: 545e 99bd 1b39 6abc 1244 64bd d76a 2abe
00000250: 885f a73e aebc cb3d 1078 b7be 7e9e 2e3e
00000260: d343 33be 2399 0bbe c682 743d f618 3dbe
00000270: 9910 3cbe b1b3 11bc c132 06be 6c6c 003e
00000280: 2d13 2a3e 232f 07bf fa60 493d 8a7e 4ebd
00000290: ec7d c0bc 0a26 773e 0119 acbd 3175 eb3c
000002a0: 561c 763e 1dbb 9fbe 9246 bebb f182 95bd
000002b0: 1b3b 0bbd f622 f03c 7dd9 533c 4c15 5b3c
000002c0: 08dc c6bd 0baf 723c 77bf 62bd ab25 c93d
000002d0: 9df1 a8be 7418 89bc 7e00 0ebd a82c 90bd
000002e0: 504f 0f3b 586c 0fbe fe5c aebd f183 20bd
000002f0: 9665 2fbd 97f7 2bbd 985d 143d 71b8 6b3d
00000300: f3e0 2f3e e62f 67be a740 933e 90d3 853e
00000310: db49 b93e 8954 f13e 3412 51bd 01ec d0bd
00000320: 815a d1bd f6f4 84be 04e0 8abc eca4 63be
00000330: 6eab 94bd c526 9a3e 757d 913e 156c c7bd
00000340: 103e 1d3e ceae 3a3e 77da 9cbc a39e 8d3e
00000350: 655a a7bb 7589 7abe 7cf5 813e e598 35be
00000360: c1bc 823e 03bf b3bd 12bf 4c3e 2b09 0fbe
00000370: 9097 28be fcd8 853e 2180 e6be 7558 82be
00000380: f3da e63d 846c 963e 40a9 753d 08d7 863b
00000390: e1ce 2cbd 98bb c7be fc1e 3c3d f2dc fc3c
000003a0: 13e7 bdbe dfa3 3ebe f4f0 93bd 04ae 963e
000003b0: 7660 aebd d201 ab3e 5ce0 b8be 85df 003e
000003c0: a17d 9ebe 630f 593d 874b 0bbd 4459 9bbe
000003d0: 3f8b 80bd ca8b 35be dbdd 7d3e 54d3 90be
000003e0: a409 9dbe fc34 01be 34e6 5f3e 27e2 53be
000003f0: d5ae 0ebe 8398 94be 2b6b 1d3e d124 8abe
-0.028874429 0.0700564 -0.12161094 -0.033273686 -0.20053443 -0.059826907 0.0879496 0.16648674
-0.1392372 -0.028498799 0.1099295 0.012308433 0.05998676 -0.07518375 0.032513533 -0.108340725
-0.13475859 0.06477262 0.10762309 -0.04797927 0.23713173 -0.08395818 0.05154973 0.02415255
0.1726323 0.019544423 -0.022711866 0.16319509 -0.08286021 -0.04807981 0.17664728 0.14514297
0.22212115 0.23371986 0.22006164 -0.044315442 0.021190943 0.16326307 0.041603353 -0.13636212
-0.23194772 -0.33760542 -0.09478083 0.025961911 0.029085059 -0.3142674 -0.17042854 0.24272908
-0.20513852 -0.3105876 -0.28200182 -0.041328877 0.086114794 0.35407904 -0.22326492 -0.24549945
-0.11149145 0.19515035 -0.17164454 -0.18475814 0.121198185 -0.18075165 -0.11659972 -0.31384796
0.0013948805 -0.0121978475 0.12141597 0.30429426 0.31886324 -0.1404385 0.26329905 -0.15349247
0.19503266 0.16944054 -0.15102091 -0.040114712 -0.23221992 -0.12721771 -0.47905117 -0.3462716
0.22442803 -0.1394907 0.13429058 -0.3714066 0.29194593 -0.18927336 0.050208256 -0.14893939
-0.2108354 -0.33496073 -0.20699848 -0.06269976 -0.05039026 0.003627231 -0.16603301 -0.3354792
0.030417899 0.1414818 -0.33493677 -0.31799898 0.18001847 -0.2655807 0.0047917576 -0.16946577
0.042173136 -0.16227138 0.1516805 0.2394654 -0.10414663 0.00034744726 0.2931525 -0.042266857
0.22082992 0.03674964 0.15166417 0.29266307 -0.014829579 -0.0654516 0.05926319 -0.23259959
0.056393653 -0.31589338 0.10516375 -0.17197172 -0.1885673 -0.024420045 0.031786732 -0.26793858
0.30023342 0.068525515 -0.07717704 -0.026838327 -0.16894744 -0.10941996 0.022509208 -0.085009426
-0.098059095 -0.19058935 -0.16045398 -0.24830312 -0.0253944 0.03247748 0.3242743 -0.36215594
-0.07488695 -0.014295842 -0.05572898 -0.16642319 0.32690072 0.09948097 -0.35833788 0.17052647
-0.17506342 -0.13632636 0.059695028 -0.18466553 -0.18365707 -0.008892939 -0.13105299 0.1254136
0.16608877 -0.528063 0.04916475 -0.050413646 -0.023497544 0.24135605 -0.084032066 0.028742405
0.24034247 -0.31197444 -0.0058067525 -0.07300366 -0.033991914 0.029313546 0.012930271 0.013371777
-0.097099364 0.014812241 -0.055358376 0.09821638 -0.32996836 -0.016735293 -0.034668438 -0.070397675
0.0021867342 -0.14006174 -0.085138306 -0.03918833 -0.04282149 -0.041984167 0.03622207 0.057548944
0.17175655 -0.22576866 0.28760263 0.26137972 0.3618916 0.47134808 -0.05104275 -0.10201264
-0.102223404 -0.2596814 -0.016952522 -0.22230881 -0.0725926 0.30107704 0.2841603 -0.09737412
0.15355706 0.18230745 -0.01914714 0.27660093 -0.0051072114 -0.24466498 0.25382602 -0.17734106
0.25534633 -0.08776667 0.19994763 -0.13968341 -0.16464067 0.26142108 -0.4501963 -0.25458112
0.1127223 0.29379666 0.059975863 0.004114989 -0.042189483 -0.3901031 0.045927987 0.030867074
-0.37090358 -0.186172 -0.072236925 0.29429638 -0.08514492 0.33399826 -0.36108673 0.12585266
-0.30955222 0.05299319 -0.034007575 -0.30341542 -0.06276559 -0.17729107 0.24791662 -0.2828623
-0.30671418 -0.12617868 0.2186516 -0.20691739 -0.1393388 -0.29022607 0.15372913 -0.26981214

shared_net.2.weight f4 [256, 512]
00000000: b13f ce3c e1d5 87be 2264 17be deed e93d
00000010: 9fe1 91be 4fbc 2dbd 3325 2bbe cf14 c5bd
00000020: 7a40 213e dfc0 07bc ebb9 ba3d 24ba 02be
00000030: 5d97 c13c a8c4 42be 78a3 b7be 47b0 babc
00000040: c4d1 243e b1d8 10be 3af0 e73c 887d d2bd
00000050: e296 063b 9e72 4ebd 8a1f bfbc b1fc 6cbc
00000060: c306 85bd c2be 153e 567a 873e 8173 38be
00000070: 39bf c4bc 7f51 a83d 912a 16bc a875 42bd
00000080: 25e2 09be 0de2 1ebd 3581 813d 98b6 c4bd
00000090: b796 e73b f86e 323d 1811 5dbe 424b 623d
000000a0: 6bd4 f0bd 5ec5 643d b7e6 983d 227a 1f3d
000000b0: 0f97 78bd 8f77 0c3e 15d4 083e 6d4e 02be
000000c0: 4fdd 553c 5450 333e d1c3 133e b9bc 033c
000000d0: 8aed bcbc 3e5d 28be a5bd 66bb c52d 463e
000000e0: ec55 fabb c012 88bd 8457 0f3e ba2f a43d
000000f0: 260d 063c 8a7e c13d cebb 573d 09be ef3d
00000100: 61e3 d0bc 2913 2a3d 8cff 61be 9ae3 9cbd
00000110: 6018 6ebe 2beb 7abb 0798 75bd 166e cc3d
00000120: 0708 c13c aeff b1bd 7bc9 bd3d d919 543e
00000130: fa98 363d 21ed dd3c 8c81 ac3d 1389 c13c
00000140: 2b7d 1c3e b426 9f3d 5c98 85bd d9af 8c3d
00000150: 4f83 a8bc 7e96 513d c780 06be 2242 fb3c
00000160: 95a9 ce3c 8a45 eb3d c979 813d 6b18 a6bd
00000170: f32e f7bd 3b3f a63c fec5 c53c d580 4b3d
00000180: b18a eabc 829d 31be b3e6 8c3d cbb7 b93e
00000190: 1546 79bc e191 8e3c a07b 10bc e7c8 fb3d
000001a0: 418b cabb 5df9 30be a189 0f3e a8bb efbd
000001b0: 5b09 26bc 56fb fcbc 59d1 02be e18d c2bd
000001c0: 3f95 61be 6b3f 3fbe 3025 693c d2a5 6cbd
000001d0: 10ac 70be 0b28 20be 5409 963d 54df 9b3d
000001e0: 532a 033c 64c8 a2bc 392c 713e 9c1c ab3d
000001f0: de38 263e 4924 5cbd b53d e2bc 8852 103e
00000200: ccdb 27bd 78a1 eb3d 8373 973d 9fa4 a1bd
00000210: 3cb6 97be 6677 593c 8291 aabd 0650 dc3d
00000220: 7f43 623d 5aff fb3d 27dd 51bd ba7f 4bbe
00000230: a20d 7d3d 4910 273e 057d 63be a6bb a4bc
00000240: fb9f 3f3d 06f6 27be 65da 983c 38dc ad3b
00000250: 1d7d f1bd dd68 11be 0e62 c03d 72ca d9bd
00000260: 92a0 afbc d6bc 85bc 6dd5 193e f8da 93bd
00000270: 367c 36be 4812 6b3d d277 923c 0887 debd
00000280: 978f 31bd 8e4f 3e3e 2d3d 523d b9d7 b2bd
00000290: dc67 f2bd 5b37 6ebd 12ed 4d3d 05ab 7f3c
000002a0: c93b bdbd bfbc a73d 475e f63d 2ad1 e3bc
000002b0: f47f 5f3e 8708 de3c 31cf 0bbd ea7d c0bd
000002c0: 056a 8e3c f7cb 71bd c047 9ebd 30c7 6dbd
000002d0: 830c 983d 44f0 96bd 3f54 643d 95fb 19be
000002e0: 8fa3 10be a592 eb3d 83a7 4cbe c25a abba
000002f0: 3353 583e 53da 673d ca79 bfbc 6d2a 0f3d
00000300: 1b2b ab3d d0d1 a83d 4ee3 833d 80cd 53bd
00000310: 08a4 2a3e f611 45be 4cd7 6f3d 1d47 e2bc
00000320: 42ba 7cbd 20c2 bd3c 7d60 993d ff8a 52bd
00000330: 047d 963d 796d 4cbe 1f58 933d 2664 b93c
00000340: 6844 f3bd b348 a23c 2323 af3d 0649 cdbd
00000350: deee 38bd ef7d 4fbe 340b 01be b467 f93d
00000360: dc2d 6b3d e182 743b 9b5e 6d3d fbd9 a53d
00000370: 24fc 9d3d c974 5fbe d788 493e 045a d73d
00000380: 50d2 5a3d 6825 82bd d1e3 b8bd 5c6b 0a3d
00000390: 851b 0dbe 099a e23d a0cb e13d 3c66 35bc
000003a0: 55ad da3d ac2f 843c ad64 c0bc 14e2 67be
000003b0: ba79 82bc 7688 8dbe 3832 1dbe 347f be3d
000003c0: 7ceb e03d 9e3d dabd f7a9 693d 0f4f 09bb
000003d0: c05b 8a3c 2c1e e63d c129 4cbe 55ae 5fbe
000003e0: cb10 b03b 997f 8abc e8fc b3be 3057 823d
000003f0: 262e ccbe 1bda e93c 073b 213e 1408 283e
0.025176855 -0.26530364 -0.14784291 0.11422323 -0.28492448 -0.042415913 -0.16713409 -0.096231095
0.15747252 -0.00828573 0.09117492 -0.1276632 0.023631746 -0.19020331 -0.35866904 -0.022789134
0.16095644 -0.14145161 0.028312791 -0.102778494 0.002053671 -0.050402276 -0.023330469 -0.014464543
-0.0649543 0.1462355 0.26460522 -0.18012811 -0.024016963 0.08218669 -0.009165422 -0.047475487
-0.13465174 -0.038789798 0.063234724 -0.096051395 0.007067527 0.04356286 -0.21588552 0.055247553
-0.117592655 0.055852287 0.0746588 0.038934834 -0.060690936 0.13717483 0.13362153 -0.1272523
0.013053252 0.17511111 0.14430167 0.0080406 -0.023062486 -0.16441819 -0.0035208252 0.19353397
-0.007639637 -0.06644201 0.13998228 0.080169156 0.008181846 0.094479635 0.05266934 0.11706168
-0.025499048 0.04152218 -0.2207014 -0.07660599 -0.23251486 -0.0038287144 -0.059959438 0.09981935
0.023563398 -0.08691345 0.09266945 0.20712985 0.044579484 0.027090611 0.084231466 0.023624932
0.15282123 0.07771054 -0.06523201 0.06869478 -0.020570425 0.05116891 -0.13135062 0.030671183
0.025227347 0.11487873 0.06322057 -0.08110126 -0.12069502 0.020293823 0.024142262 0.04968341
-0.028630586 -0.1734524 0.0687994 0.36273035 -0.015214463 0.017403545 -0.008818537 0.122941785
-0.006181151 -0.17282625 0.14017345 -0.117057145 -0.010134066 -0.030881565 -0.12775172 -0.094997175
-0.22029589 -0.18676536 0.014230058 -0.057775326 -0.23503137 -0.15640275 0.07325998 0.07610956
0.008005696 -0.019870944 0.23552026 0.08355066 0.1623263 -0.05374554 -0.027617315 0.14093983
-0.0409811 0.11505407 0.07395079 -0.07892727 -0.2963122 0.013273096 -0.08328535 0.10757451
0.05524015 0.12304564 -0.051236298 -0.19872943 0.06178058 0.16314806 -0.2221566 -0.020109009
0.04678343 -0.16402444 0.018658826 0.005305793 -0.117914416 -0.14200158 0.093937024 -0.106343165
-0.02143887 -0.016325396 0.15022822 -0.07219499 -0.1782082 0.05739048 0.0178794 -0.10865599
-0.04334983 0.18585035 0.051327873 -0.08732552 -0.11836216 -0.05815826 0.050274916 0.015604739
-0.09239919 0.08190297 0.12029701 -0.027809698 0.21826154 0.027103676 -0.03413314 -0.09399016
0.017384538 -0.059032407 -0.07728529 -0.058051288 0.074242614 -0.07370046 0.055744406 -0.15037377
-0.14124893 0.115025796 -0.19985776 -0.0013073313 0.21125488 0.056604695 -0.023373503 0.03495257
0.08357831 0.082431436 0.06439839 -0.051709652 0.16664135 -0.19245133 0.058554932 -0.0276218
-0.061701067 0.023163855 0.07489107 -0.05140209 0.073480636 -0.19963636 0.07194542 0.022630762
-0.11878282 0.019810056 0.08551624 -0.10023694 -0.045149677 -0.20262884 -0.1260193 0.12177983
0.05741678 0.0037309455 0.05795155 0.08098217 0.07714108 -0.21821894 0.19681107 0.10515216
0.053423226 -0.06354791 -0.090278275 0.033793792 -0.13780029 0.11064536 0.110251665 -0.011071738
0.10677592 0.016136013 -0.023485506 -0.22644836 -0.015927184 -0.27643174 -0.15351188 0.09301606
0.10982415 -0.10656284 0.057046857 -0.0020951664 0.016889453 0.112362236 -0.19937803 -0.21843846
0.0053730956 -0.016906546 -0.3515389 0.06364286 -0.39878958 0.028546384 0.15745173 0.16409332

shared_net.2.bias f4 [256]
00000000: 61db 30be d9ee 0dbd 6099 c33c aff3 b0bd
00000010: 1480 4bba fa53 0dbe 7a9b f2bd 0c82 fabd
00000020: 6f75 c2bd 5e02 acbd d15b 5ebc 92f9 91bd
00000030: 4ee8 96bd 90ac 83bd ffd9 1fbe 1618 013d
00000040: dee9 cfbd b7ee 98bd 769c 01be c54d 83bb
00000050: 89da c73c fc2c bdbd 93ca cbbd b0ea 46bd
00000060: 97ac 6c3c c390 03bd 56c7 c9bd 6d57 52bd
00000070: 0754 bfba afaa 59bc 95f2 8dbd 4930 d0bd
00000080: a5ea 2b3d 50c7 10be 4992 07be 454d 61be
00000090: 7f19 2dbe 0442 9a3c b667 58bd 975d 00bd
000000a0: 5700 a9bd 03f6 37be 63fc 7fbd ce3a 05bc
000000b0: 7d60 afbd 6da9 5a3c c26d 32bd b397 2e3d
000000c0: 216b 4ebd fad8 9c3b 1cb8 4cbd 7d4a 98bb
000000d0: 74c3 26bd 53ea 8bbd 990a 8fbd c6f3 9e3b
000000e0: d99a fe3c 2a73 2dbe 6729 3ebe 5469 83bd
000000f0: cef9 b2bc f7f5 373e 300b af3d b20c 5a3e
00000100: b5a0 42bd b3ce 8d3c 89ee abbd 6e21 90bd
00000110: 8138 3cbd 831a 27be e425 80bd 975c 60bc
00000120: dfa6 b23d 3330 9fbd 8305 3cbd d271 b3bd
00000130: 0fcf b2bd 1048 c1bd f96c e9bd 0a07 143e
00000140: 6c61 6bbd 6408 18be a1d2 1e3d e1a7 2bbe
00000150: 40d3 bfbd 309b 93bd 600c 8f3d 3020 86bd
00000160: cd6f 263d 9d17 fabd f4e4 60bd f145 57bd
00000170: 02d1 3d3d 024a cfbc ad8b 883d 1813 96bd
00000180: 9ca0 cabc b31a 90be efaa 4dbd e838 47bb
00000190: c874 a43d 4629 a4bd 7284 f13c 542e 9fbc
000001a0: 1c3d 553c 8ca2 98bc 3be3 a4bd bf88 18bd
000001b0: c481 23bd ed80 8ebb 0b2f 0dbc a7f8 adbd
000001c0: 4789 aebc b4da ab3d ddc5 f7bd 750e 13be
000001d0: 6559 87bd 48fb cebd 10f9 56b9 684f 98bd
000001e0: 5f55 503c b611 aebd 49f7 f0bd 3fcc 04be
000001f0: dc6b 12be 396f 033e 236a 553d 80bb c5bc
00000200: 3eaf c9bd e0f9 27bd 859a dbbc 3a7e 27be
00000210: 0a73 c9bd 3784 7b3e acac f2bd d720 75bd
00000220: 5f63 8a3c 275c 98bd 9e5c ecbd 6644 3c3c
00000230: ee07 23bd 1ea2 6c3d 1c8c b03d f46a 19be
00000240: 31ab 50bc f129 8cbd 3608 553d f902 803d
00000250: 183b c0bd f639 17bd 8630 a4bd b986 4d3c
00000260: 45f1 78bd 6dcc 8cbd bf64 87bd 01d5 10be
00000270: 1d7b f23d 023c d3bd 3c43 57bd c7bb d03d
00000280: 6716 69bd cd9e c0bd 8c2a 0cbe f53d cf3c
00000290: e534 f9bd f445 23bd d8d4 b7bd 6375 5b3d
000002a0: c277 4ebd 2959 9dbd 2687 bbbd 0ec0 4f3d
000002b0: aa19 00be a2f7 c0bd a6b6 85bd 2178 c2bd
000002c0: b8fb 0ebe 0160 cc3b d2b0 9fbc 646c 97bd
000002d0: 91d8 d7bd 58a6 95bd bdc1 72bd 888f bcbd
000002e0: e1ea 053e 0525 82bd bf1f 10be 67d0 d1bc
000002f0: 7114 f7bd 99a9 02be 59d6 a13c 33c7 f73d
00000300: 904c 593d 57ba bfbd 1ba6 0cbe c3ba 73be
00000310: 76e0 c9bd ef10 5dbc 1f9a 69bd f2d4 5ebc
00000320: 4db4 bcbd fb50 c5bc 7afb 13bd 0b5a 123d
00000330: f811 033c 2df0 75bd ac23 afbd 88f3 aabd
00000340: fd75 b43d 43f5 4bbd c9fa 80bd fc0e 153b
00000350: fa65 a8bd bf82 5ebd 4ed2 cd3d 4534 383c
00000360: ff9d 5ebe 7376 e13d 9268 acbd 1654 cdbc
00000370: 3ad8 2ebd 5fe1 12bd 18b0 efbc bdf5 8dbc
00000380: 7878 71bd 7843 373d fc3b 4dba 883c 31be
00000390: c4a9 29be c3dd 9b3d eec7 d73c 6e27 41be
000003a0: b20a 43be a4f4 d9bd ab03 97bd 5d3a 083e
000003b0: 7e70 44bd 7539 7c3d c1ac febd 2c09 d3bd
000003c0: c226 6fbd e4ed e4bd bb6b dbbd fc70 a6bc
000003d0: 334a bbbd cc0f 11be e353 e4bd 143e 09be
000003e0: fbb4 4f3d 5663 40bd c07a 5cbe 11c2 b0bd
000003f0: b6cf cc3b 0934 06be 337f ebbd 44ea 51bd
-0.17271186 -0.03465161 0.023876846 -0.08640229 -0.00077629206 -0.13801566 -0.11846061 -0.12231836
-0.09495055 -0.08398889 -0.013571695 -0.0712768 -0.07368527 -0.06429398 -0.15610503 0.03151711
-0.101520285 -0.07467406 -0.12657341 -0.0040070736 0.024396198 -0.09237096 -0.09950747 -0.04856366
0.0144454455 -0.032120477 -0.098524734 -0.051352907 -0.0014597186 -0.013285323 -0.069310345 -0.1016546
0.04197182 -0.14138532 -0.13239397 -0.22002132 -0.16904257 0.018830307 -0.05283328 -0.031339254
-0.08252018 -0.1796494 -0.062496554 -0.008131696 -0.085633256 0.013346058 -0.043561704 0.04262514
-0.050395135 0.004786608 -0.049980268 -0.0046475516 -0.040713742 -0.06831803 -0.06984443 0.0048508374
0.031079696 -0.16938463 -0.18570481 -0.06416574 -0.021847632 0.17964922 0.08547056 0.21293905
-0.047516543 0.017310476 -0.08395106 -0.07037626 -0.045952324 -0.16318707 -0.06257227 -0.01369395
0.087232344 -0.07772865 -0.045903694 -0.08761944 -0.087308995 -0.09437573 -0.11397738 0.1445581
-0.057465956 -0.14846951 0.03877509 -0.1676326 -0.093664646 -0.07207334 0.06984782 -0.06549108
0.040633965 -0.12211535 -0.054905847 -0.052556936 0.046341904 -0.025303844 0.06667266 -0.073278606
-0.024734788 -0.2814537 -0.050211843 -0.003039891 0.08030087 -0.08015685 0.0294821 -0.01943127
0.013015058 -0.018632196 -0.08051153 -0.037239786 -0.039918676 -0.0043488652 -0.008617173 -0.08494692
-0.021305693 0.08391324 -0.12098286 -0.14360984 -0.066088475 -0.10106522 -0.00020501413 -0.074370205
0.012715667 -0.08499472 -0.11765916 -0.12968539 -0.14298958 0.12835397 0.052103173 -0.024137259
-0.09847878 -0.041009784 -0.02680708 -0.16356745 -0.09836395 0.24562155 -0.11849341 -0.05984577
0.016893087 -0.07439452 -0.11541103 0.011490917 -0.039802484 0.057771794 0.08620474 -0.14982206
-0.012736128 -0.06843937 0.052009784 0.06250567 -0.09386271 -0.03692051 -0.080170676 0.012544327
-0.060776968 -0.068749286 -0.06611013 -0.14143755 0.11839888 -0.1031418 -0.052554354 0.10192066
-0.05690613 -0.09405289 -0.13688105 0.025298098 -0.12168292 -0.039861634 -0.089761436 0.053578746
-0.05040718 -0.076830216 -0.09156637 0.050720267 -0.1250979 -0.09422232 -0.06528978 -0.09495569
-0.1396321 0.0062370305 -0.019493494 -0.07393721 -0.10539354 -0.07307118 -0.059266794 -0.09207064
0.1307788 -0.06354717 -0.1407461 -0.02561207 -0.12064446 -0.12760009 0.01975553 0.12098541
0.05305153 -0.093617134 -0.13735239 -0.23801713 -0.09857266 -0.013492807 -0.057031747 -0.013600575
-0.09214077 -0.024086466 -0.0361285 0.035730403 0.00799989 -0.060043503 -0.08551726 -0.08347231
0.08811567 -0.049794447 -0.062978335 0.0022744527 -0.082225755 -0.054323908 0.10049878 0.011242931
-0.21739958 0.110089205 -0.08418383 -0.02506451 -0.04268668 -0.035859462 -0.029258773 -0.017329091
-0.05895278 0.044742078 -0.0007829068 -0.17308247 -0.16568667 0.07610657 0.026340451 -0.18862697
-0.19047049 -0.106423646 -0.073737465 0.13303514 -0.047958843 0.061578233 -0.12435294 -0.10304484
-0.05838657 -0.111781865 -0.10713907 -0.020317547 -0.09145012 -0.14166182 -0.111488126 -0.13402587
0.050709706 -0.046969734 -0.215312 -0.08630765 0.006250347 -0.13105787 -0.11498871 -0.051248804

to_mean.0.weight f4 [128, 256]
00000000: 3c2f 11bc 94e6 25bc fc08 0b3b acf3 993c
00000010: 17e6 ca3d 43d1 093c 5bce af3d c249 33ba
00000020: d6dc f83c f6eb a3bb 131d 953d 1322 13bd
00000030: 98a1 843d 9d91 703d c6c7 443d c461 9e3c
00000040: 6242 1cbd 79b3 1abd 5fc2 25bd 3457 903c
00000050: d6eb 613d 5a7c ad3d 6312 083d 9028 b03b
00000060: 6bf7 a53c 27f2 d4bb 053f 0cbd 02ee afbd
00000070: 0c55 d5bc f880 02bd 48d0 653c 6274 013d
00000080: b87b 1f3d d8be 4cbd 8f05 cb3d 7bc1 0b3d
00000090: 3615 5dbc 616b 5fbd 50ec b13d 1524 673d
000000a0: 1f2a 293d d653 3ebc ef04 2d3d 1b63 09be
000000b0: ded9 a93d 16c9 a3bc c430 2c3c 3e55 083d
000000c0: df86 32bd 89ef c9bc 0863 9b3c cf9e 35ba
000000d0: feab 233d 9d56 9dbc 2fcf ff3d 4de1 45bd
000000e0: 74d3 f5bd a4de 3dbd 6d4b 5ebc d2d1 9b3d
000000f0: cb4b 4d3d 7bdd 3d3c d7ed 57bd 7394 d03d
00000100: aec1 e03a 462d 933d de33 fc3b 1cad b8bb
00000110: 5b7d 5f3d 24a9 e53d 360e a03c 9e24 123d
00000120: 04f5 843d 3b47 1dbd eff6 5fbd de84 92bb
00000130: 541c e2bc 310c 8c3d 9f8c 0b3d aacd 7b3c
00000140: 9c6d 493d 34bf aebd 1c93 c03d e4d6 823d
00000150: 52da 62bc 48e6 ec3c 7e86 ad3c c556 d53d
00000160: e175 703d a503 153d ea98 adbd fa7a 85bd
00000170: 2ce8 8e3d e2cc 4b3d ee86 893d 5dba 8f3d
00000180: fb09 38bd faad dd3c b77c ac3c 900b d7bc
00000190: 1f6b 8a3d bc99 1dbd 33de 27bd 227e 533d
000001a0: 85ce ba3d 4b72 903a 7f4e bcb9 3377 f9bc
000001b0: e1c3 33bd 6bcd 893c 0b72 dd3c a00d 23bc
000001c0: a071 d3bb 9c20 833d fa3f c53c d609 93bc
000001d0: 0a57 863c 9d1e 833d 0f8b 953c d589 8cbd
000001e0: 99fb e7bb 6755 8cbd c3cc 213d 9c79 10bd
000001f0: 3b34 583d 0523 43bb d325 aabc e6b6 a6bb
00000200: 2b58 8bbd da4b 883c 2bb7 b4bc 6f44 8b3d
00000210: dd62 41bd 42f1 5f3d 578f 063d 655a 713d
00000220: 4b9a 39bc 09b6 74bc 10ec 113d 1321 e53b
00000230: 47fb bf3d 0902 113d 19f1 9e3c 1f07 643d
00000240: 3e67 9d3b 5ba5 1f3c 687f 66bd a71e c0bc
00000250: 1e07 ad3c 8822 1f3d 5af9 8b3c 5d2c a63d
00000260: c309 703d 3145 44bb e689 19bd bcd6 a73b
00000270: 57e6 f43d e7c4 b83c ce62 6fbc baca 3f3b
00000280: 5f02 9a3d f31f 87bd 32da 46bc 0da8 413c
00000290: e563 973c 4845 af3d 8d1b 863d ac91 b23d
000002a0: f83d 9e3d e8ac 1fbc cafc 0c3c 9347 b43c
000002b0: bd9e 2cbc 725f 6cbc f4ff 8e3d 9627 69bb
000002c0: b048 1f3d f872 75bc 2a16 ff3a a78d a8bc
000002d0: e782 47bd b9a0 86bc 6dcb d9ba 926a bf3b
000002e0: a05f 993d 2d6b 1e3d a78a 3dbd 3de5 babd
000002f0: 986f d23d 7cd7 383d 5960 b3b9 4fa2 bd3d
00000300: b1de 753d 45ba a2bd 065f e33b fd20 453d
00000310: 09b4 e1bc df8b 87bb 008a c0bb 4145 2a3d
00000320: 5af5 963d 4c6b 82bc 7ef8 933c c4fe ee3c
00000330: 378b ca3c 150c af3c e910 9a3d f9ba 3b3b
00000340: 58a3 83bc 2977 1d3d 02fb ba3c 2356 a03c
00000350: f34c ab3d d0a9 b9bd 561a be3d c023 51bd
00000360: 1384 933d e836 73bc 4247 223d 339d 833d
00000370: b6cc 0a3d 4eb1 b7bc f9ab eabd ee85 873d
00000380: aeb3 403d 3496 4f3a 17f4 403d a2c7 2c3d
00000390: ee12 0ebd 18c8 eb3d 7c73 6f3d d1c8 f5bc
000003a0: a82a 92bc a44e 34bc 3586 b33d 3f62 0b3d
000003b0: 0818 a63c 0e50 d53c f900 d13c 62c5 b73c
000003c0: 2f67 0d3d 7282 ab3d e231 e4bb e28d ba3d
000003d0: ee0d 313d 2586 3f3d 18db e6bb 7051 1dbd
000003e0: eeeb 033d 0068 2ebd 5a97 61bd 892b 9dbd
000003f0: 0cee cb3b d791 563d a76d d7bd 4ff2 bc3b
-0.008861359 -0.010125775 0.0021215072 0.01879295 0.099071674 0.008411708 0.08584281 -0.0006839299
0.03037874 -0.005002494 0.07280936 -0.035921168 0.06476134 0.058732618 0.04804208 0.019333728
-0.038149245 -0.037768815 -0.04046857 0.017619707 0.05515655 0.08470984 0.03322066 0.005375929
0.02025958 -0.0064985934 -0.034239788 -0.08590318 -0.02604153 -0.031861275 0.014026709 0.031605132
0.038936347 -0.04998669 0.099131696 0.034120064 -0.013493827 -0.054545764 0.08687651 0.056430895
0.041299935 -0.011616668 0.042241033 -0.13416712 0.08293508 -0.019993346 0.0105096735 0.03328442
-0.043585654 -0.024650352 0.01896812 -0.00069282664 0.039958946 -0.01920634 0.12490689 -0.048310567
-0.12003222 -0.046354905 -0.013567788 0.076083794 0.05012111 0.01158845 -0.052717056 0.101845644
0.0017147565 0.071863696 0.0076966127 -0.0056358706 0.054562908 0.11213902 0.019538026 0.035679452
0.064920455 -0.03839801 -0.054678854 -0.0044714054 -0.027601399 0.06838263 0.034069654 0.015368858
0.049176797 -0.08532563 0.09403059 0.063886434 -0.013845997 0.0289184 0.021182295 0.104169406
0.058706168 0.03638043 -0.08476432 -0.065175965 0.06977877 0.04975594 0.06715189 0.07017968
-0.044931393 0.027060498 0.021055562 -0.02625063 0.06758713 -0.03847669 -0.04098339 0.05163396
0.09121422 0.001102039 -0.00035916638 -0.030452346 -0.043887977 0.016821584 0.027031919 -0.009951979
-0.006452754 0.06402704 0.024078358 -0.017949026 0.016398925 0.064023234 0.018254785 -0.06862227
-0.0070795533 -0.06852227 0.039501917 -0.035272226 0.052784186 -0.0029775512 -0.02076999 -0.005087721
-0.06803926 0.016637731 -0.022059998 0.06800162 -0.047213424 0.05467344 0.032851543 0.058924098
-0.01132829 -0.014935979 0.035625517 0.006992468 0.09374099 0.03540233 0.019402074 0.055670854
0.004803567 0.009744014 -0.056273848 -0.023452116 0.021121558 0.03885129 0.017086674 0.081139304
0.05860306 -0.0029948468 -0.037485026 0.005122034 0.11957996 0.022554828 -0.014610959 0.0029265122
0.075199835 -0.06597891 -0.012136983 0.011819852 0.01848025 0.08558136 0.06548224 0.08719191
0.07726663 -0.009745814 0.0086051915 0.022006785 -0.010535893 -0.014427053 0.06982413 -0.0035576574
0.03888768 -0.014981024 0.0019461561 -0.020575358 -0.048708823 -0.01643406 -0.0016616412 0.0058415616
0.07488942 0.03867643 -0.046274807 -0.09125755 0.10275191 0.045127377 -0.00034213325 0.092594735
0.06002683 -0.07945684 0.006938818 0.048127163 -0.027551668 -0.004136547 -0.005875826 0.041569952
0.07371016 -0.015920304 0.018062826 0.029174216 0.024724586 0.021368066 0.075227566 0.002864538
-0.0160691 0.038443718 0.022824768 0.019572323 0.08364286 -0.09065592 0.09282367 -0.051059484
0.072029255 -0.014844634 0.039618738 0.06426468 0.033886634 -0.022423413 -0.114585824 0.06617342
0.047046356 0.00079188053 0.047107782 0.042182572 -0.03468602 0.11512774 0.058459744 -0.030002983
-0.017842606 -0.0110050775 0.08765832 0.03402924 0.02027513 0.02603915 0.02551316 0.022432987
0.03452223 0.0837449 -0.0069639543 0.09109093 0.043226175 0.04675879 -0.007045161 -0.038407743
0.032207422 -0.04257965 -0.05507598 -0.07674319 0.0062234458 0.052385177 -0.105189614 0.00576619

to_mean.0.bias f4 [128]
00000000: 2d3d 8a3c 617a c4bc 366d 183d 3090 0cbe
00000010: 86b3 a9bc 5d78 9ebb afae c43c 7348 3d3c
00000020: b7f3 e03c 5dd1 73bc 8d8f 40bd b4b9 8ebd
00000030: 772b dfbc 0301 7c3d 8f6a d93c 2df3 77bd
00000040: 39f9 d43c 980d 563c d8d4 063c cf09 70bd
00000050: 59fb 243c 665e 2ebd 8e51 f23c 47bc 143d
00000060: 2f2e 96bd 57ed a83c 96dc 72bd b787 47bb
00000070: 9801 403d d947 3dbd 6178 36bd 6318 5f3d
00000080: 84f4 59bd 449e 9e3c e98d ccbd 0cc3 fdbc
00000090: 8ac0 253d c929 10bd 0f02 39bd a18c 7fbd
000000a0: afe2 e83a 1ffa 4d3d 4379 89bd 96a5 74bd
000000b0: 7441 303c f57b e33b 5a67 07bd 9e75 933b
000000c0: 15d3 1cbd 69ac a13c 0585 683d 0cbe 9bbb
000000d0: 750d ff3c 98a5 79bd 8e08 8ebd e425 1ebb
000000e0: 986b abbc 6664 cdbc e7b0 193d c065 7dbd
000000f0: abfe 923d 3f5c 24bc 6083 0e3c 06e3 e53c
00000100: 0a61 23bd da9a 94bb e1b2 913c 6d7e ddbd
00000110: 1cb0 5ebc 68d9 bbbc faf7 f3bc 6c3a f8bc
00000120: e0c6 263d 1f7d 46bd 1386 a6bd b8af 573c
00000130: cbd6 35bd 451f ecbc 2904 e1bc 6844 3cbd
00000140: a7df 9d3b 54f0 293d 2120 64bc 2b45 4ebc
00000150: b5d6 083c 376c 09bd 1a41 bbbc 8249 6ebd
00000160: 1249 423d c5a1 d23c c76f 60bc 7edf 12bd
00000170: 93a9 8cbd 7343 5fbd e3c6 a63b 6c68 cd3c
00000180: 75c0 e03c fedf 8bbd 0f22 59bd 4680 a03d
00000190: f45a 40bd df47 873d eb68 95bd f3fb 1b3d
000001a0: 843e 0ebd b32b 98bd 618a 58bd 6270 ddbc
000001b0: fcd8 1c3d 649e 133d 109f 64ba 5767 8abd
000001c0: 2929 ae3c 67d1 39bd e00c b9bc 01a5 123d
000001d0: d82d b33c 0f93 6fbd 5804 10bd 965f d539
000001e0: 3026 063d ab68 ddbd 70ef bebc 2084 5d3d
000001f0: 919c 4f3b d75a bf3a 6d58 913c bae2 7f3c
0.016874874 -0.023984136 0.037213527 -0.13726878 -0.020715486 -0.0048361258 0.024009077 0.011552918
0.027459962 -0.014881459 -0.0470119 -0.06969014 -0.027242405 0.061524402 0.026540069 -0.060534645
0.025997745 0.013064764 0.008229457 -0.058603104 0.010069692 -0.042570494 0.029579904 0.036312368
-0.073330276 0.020620985 -0.0592924 -0.0030445883 0.04687652 -0.046211097 -0.044548396 0.054466616
-0.053211704 0.019362576 -0.09988005 -0.030976795 0.040466823 -0.0351961 -0.04516798 -0.062389974
0.0017767752 0.050287362 -0.06712582 -0.059728228 0.010757793 0.006942267 -0.033057548 0.004500105
-0.03828724 0.019735532 0.056767482 -0.00475288 0.031134347 -0.060948938 -0.069352254 -0.0024131471
-0.020925328 -0.025072288 0.037522223 -0.061864614 0.0717748 -0.010031759 0.008698314 0.028062355
-0.039887466 -0.0045350613 0.017785491 -0.108151294 -0.013591792 -0.022930816 -0.02978133 -0.030301295
0.040717006 -0.04845917 -0.081310414 0.013164453 -0.044394296 -0.028823504 -0.027467804 -0.045963675
0.004817921 0.04148896 -0.013923676 -0.012589733 0.008351971 -0.033550467 -0.022858191 -0.05817557
0.047432967 0.025711903 -0.013698525 -0.03585767 -0.06868281 -0.054507684 0.005089627 0.025074206
0.02743552 -0.068298325 -0.053010996 0.07836966 -0.04696174 0.06605505 -0.07295402 0.038082074
-0.03472759 -0.0743021 -0.052866343 -0.027031127 0.03829287 0.036039725 -0.0008721212 -0.06757992
0.021259861 -0.045365717 -0.022589147 0.03580189 0.021872446 -0.058489855 -0.035160393 0.00040697743
0.032751262 -0.108109795 -0.023307532 0.054081082 0.0031679014 0.0014599216 0.01774236 0.015618021

to_mean.2.weight f4 [18, 128]
00000000: 62cb 07bd 97d9 62bd 7d09 3e3d 6ad4 90bd
00000010: 6470 e33b 2019 053d 0031 213d 6212 babc
00000020: 23ff 01bc 735f 28bc adbb efba cfd3 b3bd
00000030: a24b 023d 90fb 603c 7cef 623d 98b9 c9bc
00000040: aad8 4b3c 64f8 81bb 2263 333d 748d 813c
00000050: c155 343c 6bd9 f53c 3e4d abbc e13b 6e3d
00000060: 8f6f 5a3d db0f c5bc ee72 d83c eee7 eabb
00000070: dfca fe3b 2298 8bbd 245e 103b 9cc7 823c
00000080: cd39 ae3c b973 43bc c1d2 673d 016d 633d
00000090: 525d 9b3c 192d afbd ebb6 47bc e4ce 883b
000000a0: d12e 2bbd ec0c 3e3d 6a92 e7ba d02a e43b
000000b0: f622 7c3c 2b97 613c 1d9f 5f3c 6221 aebb
000000c0: 7b72 413d 2e09 3c3d 6e85 433d 0a9c 1c3d
000000d0: 32e4 b3bc dd70 29bd 5708 c5bc ed62 4abc
000000e0: 9173 773c 5d73 9a3c 1138 233d 3837 77bb
000000f0: 9fbf 683d 0fe9 013d bea3 11bd e3f6 a63b
00000100: 7a7c 0abc fa07 d83c 8145 07bc 15ab a0bd
00000110: d075 1d3d 2fd7 64bb c371 823c 9b86 953b
00000120: 6114 fb3c 312e b6bc 88be 123d 1d85 c7bc
00000130: 3bd0 53bd fb9b e03c 1ac6 353d 3548 8cbc
00000140: 6536 37bd c806 b53b 330a 073d 5d19 c33a
00000150: e00c d5bc e37c 6abc c1c1 66bc fd5d 013d
00000160: 6852 33bd 87f5 5f3d 8d8c 3bbd b262 983b
00000170: fa06 5a3b 39ce 95bb 95cb fa3c d475 873c
00000180: 970c 16bd e9cc 46bd 6cd8 5fbd 5617 933d
00000190: ec66 cfbc 079d 803c e45f 20bd 7fde 9cbd
000001a0: a654 c2bc bd32 4abd 21be 98bd c1d3 4b3d
000001b0: f0af 853c d513 16bd 989c 193d 517a 67bc
000001c0: 5997 25bd 9536 3cbc fefc afbc 7629 4d3d
000001d0: 5bfe e03c 7950 83bd 97db 77bd d0cf 45bd
000001e0: 44b5 e6bb 1a84 56bd b44e cb3c 020f 413c
000001f0: 327b 34bd b053 a8bc f4f5 87bd 3abc 88ba
00000200: a29e efbc 4851 973b 09ff 863d dbec 7abd
00000210: 2550 abbc 78d1 71ba 274e 293d f971 b93b
00000220: 193a 1bbb 0102 d7bc c51e 003d 4025 863c
00000230: 26cc 44ba 03c1 ee3c 7723 bebc 3399 29bd
00000240: 1405 3f3d 5607 6c3d 927b ca3d 4331 efbc
00000250: e1ba 473d 7869 193c a115 96bd 06c6 3ebc
00000260: a387 28bd b5e3 8c3c d72d c2ba 3b65 2b3d
00000270: 8410 b23b 0c72 bcbc 9198 863b b976 30bc
00000280: 41b6 3e3c 7804 f3bc 0ac6 f83c 594f cb3c
00000290: c1a5 523d e03e b9bc 9cd7 04bd ead3 463a
000002a0: 5501 1dbc 0b84 d13c 1bf5 053d 1d0f 103d
000002b0: c90e 8d3d 218c e5bc 9018 3cbd 8800 c33c
000002c0: f0c1 4d3d e3f8 373c 7720 1c3d 8c3f 05bd
000002d0: d9c1 45ba 162e 31bc 3623 b9bc 8222 d23b
000002e0: ac5b 013d 8060 8a3d 1c0f ca3c f78c 13bd
000002f0: 25d1 0f3d 0a91 de3a c7f2 40bd a3ad 343d
00000300: ebfe cf3c 4e0b 3b3d 890b 2cbd a7ad 8fbd
00000310: 7cdc 39bc 587a 48bd b9e6 e83b 7a2f 6f3c
00000320: 12f2 e43c 7ae1 ddbc 9bac edb7 437d 8c3c
00000330: 223b e4bc 3a87 f3bc 8dda 59ba 0f6c 0dbd
00000340: a26c 873d 3a8b 82bc 8fdb f1bc b89e adbc
00000350: c4ab 30bc 9f61 b33c 8664 f7bc 46ce e53c
00000360: c342 37bc 0c83 01bd b184 993c e1cb 613d
00000370: 03b3 7f3c c698 673c 256e d63c 292c 38bc
00000380: edf4 fbbc 9899 17bd aa23 3dbd a95a c6bb
00000390: 60b3 443c dbd5 ffbb a956 10bd 08fb 5b3c
000003a0: f335 eebc 3d53 d2bc ad0b b7bc f98d 7d3d
000003b0: b8c5 883d 384f 363d 6b57 b73c b310 8e3c
000003c0: 0796 a7bc 98ab 8abd 0141 49bb 22c2 a43d
000003d0: aa5a 9bbb 18d9 823c e914 a6bc 7a66 75bd
000003e0: 373e 7b3d d06e 8cbc 313f 8c3d 09f0 58bc
000003f0: 001b 433d ffc1 a5bb aba8 4f3c 67b6 68bc
-0.033152945 -0.05538329 0.046395767 -0.07071765 0.0069408882 0.032494664 0.03935337 -0.022713844
-0.0079343645 -0.010276663 -0.0018290185 -0.08780634 0.03181041 0.013731852 0.05540417 -0.02462463
0.012441793 -0.003966378 0.043795712 0.01581452 0.011006773 0.0300109 -0.020910855 0.058162574
0.053329047 -0.024055412 0.02642199 -0.0071687615 0.007775649 -0.068161264 0.0022028768 0.015964322
0.021267796 -0.011929446 0.056597475 0.055523876 0.018965397 -0.085535236 -0.012189607 0.004175054
-0.041792694 0.046399042 -0.0017667536 0.0069631115 0.015389195 0.013768951 0.013648775 -0.005314038
0.047228318 0.045907192 0.04773467 0.038234748 -0.021959398 -0.0413674 -0.024051828 -0.012352687
0.015103237 0.018853838 0.03984839 -0.0037722122 0.05682337 0.031716403 -0.035556547 0.005095349
-0.008452529 0.026370991 -0.008256317 -0.07845131 0.038442433 -0.0034918298 0.015923386 0.0045631654
0.030649366 -0.022238823 0.035826236 -0.024355466 -0.051712256 0.027418127 0.044378377 -0.017124275
-0.04472961 0.00552449 0.03296871 0.0014884878 -0.026007116 -0.014312002 -0.0140842805 0.031583775
-0.04377976 0.054677512 -0.045788337 0.0046504373 0.0033268319 -0.004571703 0.030614654 0.016535677
-0.0366331 -0.04853526 -0.054649755 0.07182185 -0.025317632 0.015699876 -0.03915395 -0.07659625
-0.023722004 -0.049364794 -0.07458139 0.04976249 0.016319245 -0.036640007 0.037502855 -0.014128284
-0.04042754 -0.011487623 -0.02148294 0.05008837 0.027465036 -0.06411833 -0.06051215 -0.04829389
-0.0070406515 -0.052372076 0.024817802 0.011783363 -0.0440628 -0.020547718 -0.06638709 -0.0010432072
-0.029250447 0.004617844 0.06591613 -0.06126104 -0.02091224 -0.00092246337 0.041334298 0.0056593386
-0.0023685752 -0.026246073 0.031279344 0.016375184 -0.0007507227 0.02914477 -0.02321027 -0.041405868
0.046635702 0.057624184 0.098868504 -0.029198295 0.048762206 0.009363525 -0.07328344 -0.011643892
-0.04114498 0.017198423 -0.0014814687 0.041844588 0.0054340977 -0.0230036 0.004107543 -0.010770493
0.011640132 -0.029665217 0.03036787 0.02481811 0.051427606 -0.022612989 -0.032432184 0.0007584678
-0.009582837 0.025575658 0.032704454 0.035170663 0.06887586 -0.02802092 -0.045921862 0.023803964
0.05023378 0.011228773 0.0381169 -0.032531306 -0.0007543839 -0.01081421 -0.022599798 0.006412805
0.031581566 0.06756687 0.024665408 -0.036023106 0.035111565 0.0016980481 -0.04710653 0.044110905
0.025390109 0.045665078 -0.04200319 -0.070155434 -0.0113440715 -0.0489448 0.0071075824 0.014598722
0.02794746 -0.027085055 -2.8332977e-05 0.017149573 -0.027860228 -0.029727567 -0.00083104597 -0.03452688
0.06612517 -0.015935529 -0.029523639 -0.021193847 -0.01078314 0.021897135 -0.0301993 0.02805246
-0.011185351 -0.031619117 0.01874003 0.055126075 0.015606645 0.014135545 0.026175568 -0.011240997
-0.030756438 -0.037011713 -0.04617659 -0.006053288 0.012005657 -0.007807476 -0.035238896 0.01342655
-0.02907846 -0.025674457 -0.022344435 0.061902974 0.06678337 0.044509143 0.022380551 0.017341947
-0.02045728 -0.0677101 -0.0030708911 0.080448404 -0.0047410326 0.015972659 -0.020273643 -0.059912182
0.06133863 -0.017142683 0.0684799 -0.013240823 0.04763317 -0.0050585265 0.012674491 -0.014203644

to_mean.2.bias f4 [18]
00000000: 9b32 b4bb 9a45 963d 3973 023d ec89 8bbd
00000010: 3313 193d c1fb 90bd 34c4 42bd 6aa6 bcbc
00000020: 8713 ad3b 9aa2 23bd e710 1bbd 8873 033c
00000030: 6c7b 3f3d 2612 b2bd 7e7a f9bd 8467 0c3d
00000040: 2d78 d03d 1bd7 593c
-0.0054991967 0.07337494 0.031848166 -0.06813416 0.037371825 -0.07079268 -0.047550395 -0.023028571
0.005281869 -0.03994999 -0.037857916 0.00802315 0.046748564 -0.08694868 -0.12181567 0.034278408
0.10179172 0.013295914

to_value.0.weight f4 [128, 256]
00000000: 6d37 093e fe71 a93d 81d5 f33d 88b2 da3d
00000010: a99d 7d3d 3701 76bc c761 05bd 6f7d a73d
00000020: d705 cd3d b586 523d b7cd d3bd fcc4 743b
00000030: dfdc 01bc dd15 9b3d 2f1a e8bd b71f 62bd
00000040: 13d3 1d3e 0a54 483d d874 943c 8f69 443d
00000050: 701e 233d 938b bc3d c961 983c 7ae6 733d
00000060: df3a e53c 605c 853e 9951 543d f87b 7b3d
00000070: 19b0 273d 94c7 ae3d 54e9 38be a5c1 ab3d
00000080: 5a85 743e ba1a 37bd 20fb 1d3e a712 b93d
00000090: e1fa 463e 44d8 2b3c 64fa a7bc 6a5d 323e
000000a0: 7adf 08be ee38 10bd 857b dc3d 3c16 9fbd
000000b0: e7a2 263e b54f 3abb ac14 d7bd 4fab 753d
000000c0: 607b 39be 1308 0a3e 875b 9e3d 59d5 10be
000000d0: 3c1e cebd 4a9f b63d 1d40 07bd d84b ad3d
000000e0: d301 ec3d bb09 1d3d b1b1 6cbe 1a66 0b3d
000000f0: c459 1d3e c63e 753c 12a4 81bd 4ad3 c83d
00000100: bdce d33d 8fa4 543d 38aa 5c3e d29d 9c3d
00000110: d2de e73d c3bf dd3d a4bd 4d3d f9fd 0f3d
00000120: 5ffd ca3d 2037 d33d ed8c 673d e9e5 703d
00000130: 0814 7d3c dd31 31bd c884 cf3c 0189 ad3c
00000140: 6a26 94bd ebe1 84bd bddc 1e3e 96aa 673d
00000150: 461a 753d 2b98 783d 14c9 c13c e5b5 1a3e
00000160: e4a7 843e 0a65 353e c029 1a3d b16f 8c3d
00000170: c1d9 2a3e 054c ea3d fa23 913a cf3e 993d
00000180: 0951 473d 6187 953e 68b2 97bd 946b 40be
00000190: c178 b43d 3e2b 77bd e3d3 cb3d 42cf 813d
000001a0: 0b2a 903e 9786 a1bc 95bb 93bc 11cc b73c
000001b0: 531b b9bc 0e55 623e 5ea5 d03d b05c 793c
000001c0: a777 b1bd 68ec 2cbe d240 423d b938 d33d
000001d0: 9979 f83d 8fcb 7dbc a858 febc 337d 483e
000001e0: 39d8 c53d 0fb2 24bd 3ea2 723d d2c9 143e
000001f0: 7757 babd 2f11 033e 2cd6 83bd 2c00 87bd
00000200: be2a 8d3d caa3 873d 6294 8c3d fa81 16bc
00000210: 6d4a 3e3c 4d0b 133e f009 193e 978e 113e
00000220: 432b 343d 6bb5 ee3d 0c81 d0bc fac0 4c3e
00000230: 844e 973c d783 6ebc 0afd e13d f451 fb3c
00000240: 0097 873c db34 8ebd 4db2 e6bc f457 363d
00000250: 84b5 9c3c e92a 3c3d 8cc9 253e 8e95 e03d
00000260: f913 c93d adf6 ae3d 23a8 92bd 7aa6 103e
00000270: 7acd 103d c8b5 9d3d 8346 cb3c f07a afbc
00000280: af26 d43d 2fbb bc3d 6b05 e73c 128f 5e3d
00000290: 6b91 f43d d322 5dbb 32f0 8ebd 646f 003e
000002a0: 0e94 7abd eba6 ad3d 1215 20bc 921d fa3d
000002b0: e5d4 f0bc b019 9d3c dadf 943c 53ab fa3d
000002c0: 1323 363e 3d77 ec3d dce8 883d 5ee9 3a3e
000002d0: 75b6 ce3c 0247 ad3d 318f 193e 8c5c 123a
000002e0: 92f2 6f3d fe7f 1d3d 191c 4a3d 8fcb 953c
000002f0: ac86 8b3d b587 043e 50d1 1d3e a02e 8cbd
00000300: 4f85 eb3d 344b 033d a388 423e 1b41 82bc
00000310: eaf2 593e 8701 ed3d 8900 df3c 76b6 e83d
00000320: 1818 7ebd 31a1 a1bd 0881 d9bd a01c adbc
00000330: 7f0a da3e 0129 163e e8be b5bd 835f 8a3e
00000340: 836c 5dbe 9527 23be 023c 193d 0b30 2fbd
00000350: 3aa9 8bbd 5dff f8bc 219b 2cbe 67f0 203e
00000360: fc01 b93d 6b12 cc3d bd47 4ebd 615f 083e
00000370: e2a0 e93d e0cf 873d 5a69 88bb baa6 c8bc
00000380: 0c17 323d c921 053e b272 24bb 7e62 303b
00000390: f076 183d ee1a c73d a617 7b3d 19e9 0d3e
000003a0: a128 4d3d 2980 d13d 6c99 b43d 6ded 103e
000003b0: 21a2 773d 58f2 c83d f449 f5bc e666 4bbd
000003c0: eadc e73d 9930 8dbd 51c6 503b c44e 39bc
000003d0: 1e21 943d 3fcb 863e 9ba6 12bd dfd7 e53d
000003e0: 0563 df3d 04ba 4c3e d79d ac3d 90d4 41bc
000003f0: 59de 8e3b 5aaf af3d 31d1 27bb 1ebc ccbd
0.1340005 0.082736954 0.11905957 0.106785834 0.061917935 -0.015014938 -0.03256395 0.081782214
0.100108795 0.051397998 -0.10341971 0.0037348857 -0.007926195 0.075725295 -0.11333119 -0.055206027
0.1541255 0.04890827 0.018122122 0.04795223 0.03982395 0.09206309 0.018601315 0.05954597
0.027982173 0.2604704 0.05183563 0.061397523 0.040939424 0.0853416 -0.18057758 0.08386544
0.23878995 -0.044703223 0.15427828 0.09036761 0.1943164 0.010488573 -0.020505138 0.17418447
-0.133665 -0.035210542 0.10765747 -0.07767913 0.1627308 -0.0028428857 -0.1050199 0.059977826
-0.1811347 0.13479643 0.07732301 -0.14143886 -0.100643605 0.08917101 -0.033020128 0.08461732
0.115237854 0.038339358 -0.23114659 0.03403292 0.15366274 0.01496858 -0.06330122 0.09805925
0.103421666 0.051914748 0.21549308 0.07647289 0.113217965 0.10827591 0.050229684 0.035154317
0.09911608 0.10313249 0.05653088 0.05881301 0.01544667 -0.043260444 0.02533187 0.021183493
-0.072338894 -0.06488403 0.15513892 0.056559168 0.05983951 0.060691994 0.023655452 0.1510845
0.2590934 0.17714325 0.037637472 0.06857241 0.16684629 0.11440281 0.0011073344 0.07482683
0.048661266 0.29204848 -0.07407075 -0.18791038 0.088120945 -0.060343973 0.099525236 0.063383594
0.28157076 -0.019717498 -0.018033782 0.022436174 -0.022596037 0.22102758 0.10187791 0.015219852
-0.086654 -0.16887057 0.0474251 0.10313553 0.12132568 -0.015490427 -0.031048134 0.1957901
0.09660382 -0.040208872 0.059236757 0.14530113 -0.09098714 0.12799524 -0.064373344 -0.0659183
0.06892918 0.06623037 0.06864239 -0.009186262 0.011614424 0.1435978 0.14945197 0.1421455
0.04398657 0.116556965 -0.02545216 0.1999549 0.018470056 -0.0145578 0.110345915 0.030678727
0.016551495 -0.06943675 -0.028161192 0.044517472 0.019129522 0.04593936 0.16190165 0.10966025
0.098182626 0.085431434 -0.07160976 0.14126006 0.035352208 0.07700688 0.024813896 -0.021420926
0.10358941 0.0921539 0.028200826 0.05433566 0.11941799 -0.003374268 -0.06979407 0.12542492
-0.061176352 0.08479103 -0.009770649 0.12212671 -0.029398391 0.019177288 0.018173147 0.12239709
0.17786817 0.115461804 0.066850394 0.18253085 0.025233487 0.08460809 0.1499603 0.00055832486
0.058580942 0.03845214 0.049343202 0.01828554 0.06812796 0.12942393 0.15411878 -0.068448305
0.11500036 0.03205414 0.18997435 -0.015900185 0.2128407 0.11572557 0.027221935 0.11362927
-0.062034696 -0.07892073 -0.10620314 -0.021131814 0.42586133 0.14664079 -0.08874303 0.27025995
-0.21623425 -0.15933068 0.037410744 -0.042770427 -0.06819387 -0.030395204 -0.16856052 0.15716706
0.090335816 0.099644504 -0.050361384 0.13317634 0.11407639 0.06631446 -0.0041629495 -0.024493564
0.04347901 0.1300117 -0.0025092778 0.0026914175 0.037222803 0.09721933 0.06130185 0.13858451
0.050087575 0.10229523 0.088183254 0.14153071 0.060457353 0.098118484 -0.02994249 -0.04965868
0.11321433 -0.06894035 0.0031856487 -0.011310283 0.07232879 0.2632694 -0.03580342 0.11222815
0.10907558 0.19992834 0.08428543 -0.011830464 0.004360002 0.085783675 -0.0025606866 -0.09996818
