save2_1_23/save3_AllDofs_3000.pth (torch, 325851 bytes, 11 tensors)

shared_net.0.weight f4 [256, 115]
0	0xbe35054a	-0.17677799
1	0x3cab1a48	0.020886555
2	0xbead91af	-0.3390021
3	0x3d8d7e09	0.06908805
4	0x3c0584f0	0.008149371
5	0xbdc3c796	-0.09559552
6	0xbec96812	-0.39337212
7	0x3e5a7e4b	0.2133724
8	0xbda0aace	-0.078450784
9	0xbdeac1ab	-0.114627205
10	0x3e199148	0.14996827
11	0xbf239a65	-0.6390746
12	0xbd7b9fa7	-0.061431553
13	0xbdb022fd	-0.086004235
14	0x3bb23328	0.005438227
15	0xbd1556b8	-0.036459655
16	0x3d901a40	0.07036257
17	0x3d860844	0.06544545
18	0xbd8703f4	-0.06592551
19	0xbdfb8f14	-0.12283149
20	0x3e28aea0	0.16472864
21	0x3dda0968	0.10646325
22	0xbe8e5058	-0.27795672
23	0x3ea5d263	0.32387075
24	0xbd718b71	-0.058970872
25	0xbe178618	-0.14797246
26	0x3d847252	0.06467117
27	0xbe1212b7	-0.14264952
28	0xbad3ba74	-0.001615359
29	0xbe208676	-0.15676293
30	0x3adc24dd	0.0016795654
31	0x3d904834	0.07045022
32	0xbdbb96a4	-0.09159592
33	0xbddda6a7	-0.10822802
34	0xbce99cb3	-0.028517103
35	0xbdd2a5bb	-0.10285517
36	0xbd232e53	-0.0398391
37	0x3cbcadad	0.023032034
38	0x3d0bc022	0.03411878
39	0x3dca3c1c	0.09874746
40	0xbe133ec8	-0.14379418
41	0xbdb67a6b	-0.08910068
42	0x3c80ed6a	0.015738208
43	0xbb72b22e	-0.0037032473
44	0xbcee2b41	-0.02907336
45	0xbcc21dec	-0.023695908
46	0x3d61ad8d	0.05509715
47	0x3d2311cf	0.039811905
48	0xbe3e1c75	-0.18565543
49	0x3e2e2182	0.1700497
50	0x3deaa715	0.114576496
51	0x3d785a1a	0.060632803
52	0x3d215d2d	0.0393955
53	0x3b31a28b	0.002710494
54	0x3c88b8d6	0.0166897
55	0x3cb7784b	0.022396227
56	0xbbf9b702	-0.007620693
57	0xbd4cc5c0	-0.049993277
58	0xbd8982a2	-0.06714369
59	0xb8e5eb76	-0.00010963429
60	0xbbcbc546	-0.006218585
61	0x3baafc56	0.005218069
62	0xbb364f49	-0.0027818254
63	0xbca38b24	-0.019963808
64	0x3cdf0f59	0.027228998
65	0x3ba1d38e	0.0049385494
66	0x3cdd7bfe	0.027036663
67	0x3c32436b	0.0108803315
68	0x3d913b7f	0.07091426
69	0x3da0889a	0.07838555
70	0xbd798875	-0.06092115
71	0xbd113c74	-0.035458043
72	0x3dfb33be	0.122657284
73	0x3dc984b6	0.09839766
74	0x3ccf8374	0.025331236
75	0xbd100213	-0.035158228
76	0x3e4430fd	0.19159313
77	0xbcf07cdf	-0.029356418
78	0x3b65143d	0.003495469
79	0x39fca547	0.00048188327
80	0x3c8d67a1	0.017261328
81	0x3ccc89f6	0.024968129
82	0x3ddcafea	0.107757404
83	0xbd27f1cd	-0.041002084
84	0x3d24c522	0.040227063
85	0xbba91769	-0.0051602614
86	0xbd2278e3	-0.039666068
87	0x3c845ac6	0.016156565
88	0x3ccc301d	0.024925286
89	0x3ba3f7f1	0.005003922
90	0xbd576460	-0.05258596
91	0x3d19b446	0.037525438
92	0x3caaccef	0.020849673
93	0x3d18bb90	0.03728825
94	0xbd521d6e	-0.051297598
95	0xbda6a9f4	-0.08137885
96	0x3d88a519	0.06672115
97	0x3cdba979	0.02681421
98	0xbd9b0549	-0.075693674
99	0xbd89244b	-0.066963755
100	0x3db3447b	0.08753296
101	0x3d084861	0.03327215
102	0xbd94c614	-0.07264343
103	0xbd3ddcbf	-0.046353098
104	0xbdf16a6e	-0.11787878
105	0xbcae5f57	-0.021285696
106	0xbcce003f	-0.025146602
107	0xbd705c1c	-0.058681592
108	0x3cf37a36	0.02972136
109	0x3dbb3ccb	0.09142455
110	0xbccf6886	-0.025318395
111	0x3dbc5baa	0.09197171
112	0xbd16421a	-0.036684133
113	0x3daec9b0	0.085345626
114	0xbe00b816	-0.12570223
115	0xbe07b543	-0.1325274
116	0xbe206502	-0.15663531
117	0xbd8b7139	-0.06808705
118	0x3d95aba2	0.07308127
119	0xbbc30b07	-0.0059522423
120	0x3e553cf4	0.20824033
121	0x3e45f02d	0.19329901
122	0x3acf6acc	0.0015824675
123	0xbb4817aa	-0.0030531683
124	0xbe0bc3ff	-0.13648985
125	0x3e00e45d	0.12587114
126	0x3de9cd62	0.11416127
127	0xbcf2400c	-0.029571556
128	0xbce6abcf	-0.028158097
129	0xbbf332c9	-0.0074218255
130	0xbd5ea597	-0.054357138
131	0x3d2f18e5	0.04274835
132	0xbdbcf710	-0.09226811
133	0xbe0d2821	-0.13784839
134	0x3e1882e2	0.14893678
135	0x3da7e3f7	0.08197778
136	0xbe09041e	-0.13380477
137	0xbe08403d	-0.13305755
138	0xbc36cfb4	-0.011157919
139	0xbb5d2480	-0.003374368
140	0x3cd364db	0.025804928
141	0xb9eb44a2	-0.00044873828
142	0x3d866184	0.065615684
143	0x3ae8c604	0.0017759209
144	0xbdc19372	-0.09451951
145	0xbd18819c	-0.03723298
146	0x3d6d9ebc	0.05801271
147	0xbc8b7d9f	-0.017027674
148	0xbd84a89a	-0.06477471
149	0xbda61c76	-0.08110897
150	0xbcb00c43	-0.021490222
151	0xbd88fec2	-0.06689216
152	0xbd125fa4	-0.03573574
153	0x3d24d983	0.040246498
154	0x3c4768ce	0.0121709835
155	0xbe119492	-0.14216831
156	0x3d37ed4e	0.044904046
157	0xbd8b0542	-0.06788112
158	0x3c71f47a	0.01476776
159	0xbcbd5d42	-0.023115758
160	0x3c5e033b	0.013550575
161	0xb95b4279	-0.0002091023
162	0x3dee819e	0.11645816
163	0xbdef3c0f	-0.11681377
164	0x3d2dca83	0.04242946
165	0x3d799c83	0.060940277
166	0xbd7d5ad2	-0.06185419
167	0x3d6b387e	0.057426922
168	0xbda76079	-0.081726976
169	0xbd194a7b	-0.037424546
170	0x3d934a60	0.0719192
171	0xbd0a3a46	-0.03374698
172	0x3cf531a0	0.02993089
173	0x3dd575b8	0.10422844
174	0xbd84d35c	-0.06485626
175	0x3b86abef	0.0041098516
176	0xbcb8ba2e	-0.022549715
177	0xbd1d237f	-0.03836393
178	0xbc2c3de8	-0.0105128065
179	0xbd658772	-0.056037374
180	0x3ceb2b2c	0.02870711
181	0xbc6c134d	-0.014408899
182	0xbd0a9840	-0.033836603
183	0x3c8391e5	0.016060779
184	0x3e1bb6b1	0.1520641
185	0x3c62674e	0.013818575
186	0x3b1d2b64	0.0023982162
187	0xbd11d30f	-0.03560167
188	0xbdc23218	-0.09482211
189	0x3dcb7d07	0.099359564
190	0x3e0bf28d	0.13666745
191	0x3c639a6e	0.013891799
192	0xbd29d383	-0.04146148
193	0xbd81cfbf	-0.063384525
194	0x3db3c241	0.08777285
195	0xbd3c362d	-0.045950104
196	0xbd08120d	-0.03322034
197	0x3d65e6a7	0.05612817
198	0xbdb6cf28	-0.08926231
199	0xbb3616dc	-0.0027784621
200	0x3af46872	0.001864685
201	0x3d1532d0	0.03642541
202	0xbd3b98c8	-0.0458
203	0xbcf9888d	-0.03046062
204	0xbd8023a9	-0.06256802
205	0x3de3bc4e	0.11119901
206	0xbc01b4db	-0.007916654
207	0x3da1abc6	0.07894091
208	0xbd91b945	-0.071154155
209	0x3cbe5377	0.023233159
210	0x3be1c099	0.0068894145
211	0x3d20e1ae	0.039277725
212	0xba7e8d26	-0.0009710364
213	0xbcd322ad	-0.02577337
214	0xbcc6c2b0	-0.024262756
215	0x3b88eb40	0.0041784346
216	0xbd9708dc	-0.07374737
217	0xbd83207b	-0.064026795
218	0x3dbaf4b2	0.09128703
219	0xbdaaf476	-0.083474085
220	0x3d18aff3	0.037277173
221	0x3e039e0e	0.12853262
222	0x3d155824	0.03646101
223	0x3c86be53	0.016448176
224	0xbd69f335	-0.057116706
225	0x3d9999dd	0.0750005
226	0xbd517369	-0.051135454
227	0xbd093725	-0.033499856
228	0xbc650479	-0.013978117
229	0x3d97e40d	0.07416544
230	0xbc4125e3	-0.011788818
231	0xbd141928	-0.036156803
232	0xbbc437de	-0.005988105
233	0x3c28ee29	0.010310688
234	0xbde616a3	-0.11234786
235	0xbe42f40f	-0.19038413
236	0x3dd9ba09	0.106311865
237	0xbd4fc884	-0.050728336
238	0xbcd0fd17	-0.025511308
239	0x3c48cb27	0.012255467
240	0x3d753cb9	0.059872363
241	0x3d9848e4	0.07435778
242	0xbb81a8ec	-0.0039569046
243	0xbcf455b1	-0.029826017
244	0x3d7dbdc0	0.061948538
245	0xbded4d48	-0.11587006
246	0x3dcc8294	0.09985843
247	0xbd6ddd15	-0.05807217
248	0x3d66cb58	0.056346267
249	0xbe62afdf	-0.22137402
250	0xbf31021f	-0.6914386
251	0xbda335d9	-0.07969255
252	0xbdeca812	-0.11555494
253	0x3cd63b8d	0.026151443
254	0xbdd5d6a4	-0.1044133
255	0xbd4f08e6	-0.050545596

shared_net.0.bias f4 [256]
0	0xbd81a68b	-0.06330594
1	0xbb73e844	-0.0037217299
2	0x3cf0b9a5	0.029385397
3	0x3a9edb08	0.001211972
4	0xbda5f124	-0.081026345
5	0xbd8624c0	-0.06549978
6	0xbd914992	-0.070941105
7	0x3c851f6b	0.016250333
8	0x3daabc4a	0.083366945
9	0x3a46236c	0.0007558379
10	0xbd86e056	-0.065857574
11	0xbcd4093e	-0.025883313
12	0x3d39d358	0.04536757
13	0xbdbbc83e	-0.091690525
14	0xbcd56524	-0.026049204
15	0xbd0d05ec	-0.034429476
16	0x3d057d65	0.03259029
17	0x3d5a5e8a	0.053312816
18	0xbd520789	-0.051276717
19	0xbd7b9882	-0.06142474
20	0xbd44e45e	-0.04806935
21	0x3c1e4d6e	0.009662015
22	0x3c3a5144	0.011371914
23	0xbc4c7cd2	-0.012480931
24	0x3c989565	0.018625924
25	0x3c851791	0.016246589
26	0xbd161640	-0.036642313
27	0x3ce61763	0.028087324
28	0x3b3bda14	0.002866392
29	0x3da5e526	0.08100347
30	0xbdaa0f2e	-0.083036765
31	0x3d003744	0.031302705
32	0xbc76cc7f	-0.015063404
33	0x3c42dfdf	0.011894195
34	0xbdafbd5a	-0.08581038
35	0x3dfe79d5	0.12425581
36	0xba7b21be	-0.0009579918
37	0xbd8897d3	-0.06669583
38	0x3d37444b	0.044742864
39	0xbd77b433	-0.060474586
40	0xbc5e0ae1	-0.013552398
41	0x3d03217a	0.032014348
42	0x3da85f39	0.08221287
43	0x3c8fd78d	0.017558837
44	0xbd3cde2e	-0.046110325
45	0xbc6d9e9d	-0.014503148
46	0x3cfe5015	0.031044045
47	0xbcb21b15	-0.02174143
48	0xbd8d9d63	-0.06914785
49	0xbd62785e	-0.055290572
50	0xbd45e6c4	-0.04831578
51	0xbd3e2ca7	-0.046429303
52	0x3cf79be1	0.030225696
53	0x39fca142	0.00048185332
54	0xbd109746	-0.035300516
55	0x3d0e529a	0.034746744
56	0x3d8d5ebe	0.06902836
57	0x3d80fc73	0.06298151
58	0x3d4f003d	0.050537337
59	0x3d37bcbe	0.044857733
60	0x3d187a57	0.037226047
61	0x3dbd7042	0.09249927
62	0x3be7978e	0.0070676273
63	0x3c9f71e1	0.019463481
64	0xbbebeb7c	-0.007199703
65	0x3d5094cc	0.050923154
66	0xbbd2648c	-0.0064206775
67	0x3da9e728	0.08296043
68	0xbd8fe509	-0.07026107
69	0x3d953d9d	0.072871424
70	0xbddda33d	-0.10822151
71	0xbcd91455	-0.026498953
72	0x3d2823d2	0.041049786
73	0x3d92e174	0.07171908
74	0x3d990e58	0.07473439
75	0xbd3d9ff7	-0.046295132
76	0xbcf7cc53	-0.030248797
77	0xbd2f5f86	-0.042815708
78	0xbd3a50c4	-0.04548718
79	0x3d961ff4	0.07330313
80	0x3d8a9494	0.0676662
81	0xbd171709	-0.036887202
82	0xbda002ce	-0.07813035
83	0x3da801c4	0.08203462
84	0x3a09707e	0.0005242898
85	0x3d75b342	0.059985407
86	0xbd8dfed9	-0.06933374
87	0x3c6371df	0.013882129
88	0xbc9995cd	-0.018748188
89	0x3dba7b16	0.09105508
90	0xbd08e7de	-0.03342425
91	0x3d200db0	0.039075553
92	0x3d9d64fb	0.07685276
93	0x3d9f6bd0	0.077842355
94	0x3d58f3b3	0.052966785
95	0x3dacd790	0.08439553
96	0xbd6fb7f2	-0.058525033
97	0xbd7ac902	-0.061226852
98	0xbd607934	-0.05480309
99	0xbd45d8ae	-0.048302345
100	0xbc353043	-0.01105887
101	0xbc4583f5	-0.012055387
102	0xbd1a0674	-0.03760381
103	0xbcc69b0c	-0.024243854
104	0x3d5c45a2	0.053777345
105	0x3d3432d2	0.04399378
106	0x3d9d87f3	0.07691946
107	0xbd0f638d	-0.03500705
108	0x3d4b990a	0.049706496
109	0xbd983632	-0.07432212
110	0x3d0258df	0.031823035
111	0x3d80b909	0.06285293
112	0xbc41500f	-0.011798873
113	0x3d7def7e	0.061995976
114	0x3d768e81	0.060194496
115	0x3dd3e201	0.10345841
116	0xbbd6ce77	-0.0065553742
117	0x3cb282d3	0.021790897
118	0xbd3813d2	-0.044940777
119	0xbd89869b	-0.06715127
120	0xbda81a86	-0.08208184
121	0xbcc17753	-0.023616469
122	0x3dca42b0	0.09876001
123	0xbcd2f622	-0.02575213
124	0xbd8d7999	-0.069079585
125	0x3d93d496	0.07218282
126	0xbdd9ebdc	-0.1064069
127	0xbd9c2aa3	-0.0762532
128	0xbd8527ba	-0.06501718
129	0xbc08bbfc	-0.0083456
130	0x3d3376ea	0.043814577
131	0xbd978163	-0.073977254
132	0xbdce116a	-0.10061915
133	0xbb312838	-0.002703203
134	0xbd8102ec	-0.062993854
135	0x3bdcad7e	0.006734549
136	0x3d86249e	0.06549953
137	0xbdeaaf5a	-0.11459227
138	0x3da14ae2	0.07875611
139	0xbd8e646f	-0.0695275
140	0xbcad54ad	-0.02115854
141	0xbda5943b	-0.08084913
142	0xbcc28b57	-0.023748083
143	0xbd514caa	-0.051098503
144	0xbdb2842e	-0.087166175
145	0x3d41207c	0.04715012
146	0xbcfcda4e	-0.030865815
147	0x3d9671b2	0.073459044
148	0xbde9c0cb	-0.114137255
149	0x3d226973	0.039651345
150	0x3d5928bf	0.053017374
151	0xbc4cb5d4	-0.012494523
152	0x3da00ed3	0.078153275
153	0xbc28e028	-0.010307349
154	0xbd6ecd42	-0.058301218
155	0x3dd5564f	0.10416853
156	0x3d6d4b0f	0.05793291
157	0x3d8730fd	0.06601141
158	0x3d91ebce	0.07125054
159	0xbc93d0af	-0.018043844
160	0xbd6288c1	-0.0553062
161	0x3d25ff9a	0.040526964
162	0x3dbbf075	0.09176723
163	0x3dd2183b	0.10258528
164	0xbd3a6682	-0.045507915
165	0x3d57c858	0.052681297
166	0xbd3be763	-0.045874964
167	0xbc16c38a	-0.009201894
168	0xbd9fd8c5	-0.078050174
169	0xbd8eb4af	-0.069680564
170	0x3ca58e91	0.020209583
171	0xbd2f2c2e	-0.042766742
172	0x3d8d8007	0.06909185
173	0x3d34e6bf	0.04416537
174	0x3cb3884c	0.021915577
175	0x3d4f79de	0.05065333
176	0xbd4f59df	-0.050622817
177	0x3d478b6d	0.04871695
178	0xbce29c76	-0.027662497
179	0xbd6f4d22	-0.05842317
180	0x3c7cf594	0.01543941
181	0xbd724089	-0.059143577
182	0xbca1dae0	-0.019757688
183	0xbd8570ad	-0.06515632
184	0xbd9bbef9	-0.076047845
185	0xbd8d6746	-0.069044635
186	0x3d33bfa8	0.04388395
187	0xbd83cce6	-0.06435566
188	0xba94341a	-0.0011307031
189	0x3bea9f09	0.0071600717
190	0x3dacc148	0.08435303
191	0x3da887a6	0.08228998
192	0xbd773258	-0.060350746
193	0xbd34e1cb	-0.044160645
194	0xb63c1f3d	-2.8032366e-06
195	0xbdf0671e	-0.11738418
196	0xbd90f49d	-0.07077906
197	0x3bac0261	0.005249307
198	0xbccdb79b	-0.025111964
199	0x3cf6b1ec	0.030114137
200	0x3c5906a2	0.01324621
201	0xbd054d3d	-0.032544363
202	0x3db8d389	0.09024722
203	0xbd6734e0	-0.05644691
204	0xbc1556a1	-0.009114892
205	0x3d50981f	0.050926324
206	0xbdc75a25	-0.097339906
207	0xbda14e86	-0.07876305
208	0xbd1f693d	-0.038918722
209	0xbe083840	-0.13302708
210	0x3d113230	0.035448253
211	0x3cb83527	0.022486283
212	0x3cad03e4	0.02112002
213	0xbd0ae399	-0.03390846
214	0x3c82a930	0.015949816
215	0xbc10d3b1	-0.008839534
216	0xbd17199a	-0.03688965
217	0xbd8c2457	-0.06842869
218	0xbd2190ff	-0.03944492
219	0x3d557153	0.052110028
220	0xbd5a7264	-0.053331748
221	0xbbe94089	-0.007118289
222	0x3d2a558a	0.041585483
223	0xbd912840	-0.07087755
224	0x3dc67226	0.09689741
225	0x3da605c7	0.08106571
226	0x3d67a123	0.056550156
227	0x3dca78d7	0.098863296
228	0x3d418ec9	0.04725531
229	0x3d84ab04	0.06477931
230	0xbd92ed0b	-0.071741186
231	0x3c873530	0.016504854
232	0x3d93b72d	0.072126724
233	0x3d965cc5	0.07341913
234	0x3d40bb10	0.047053397
235	0xbd692410	-0.056919158
236	0xbc5ff3f8	-0.0136690065
237	0xbdd1c347	-0.10242324
238	0xbd984513	-0.0743505
239	0xbcfa1dcf	-0.030531792
240	0xbc8357ff	-0.01603317
241	0x3d556392	0.05209691
242	0x3d6d7d6b	0.057980936
243	0x3bdd512c	0.006754061
244	0xbd2b9c66	-0.0418972
245	0xbdba2fa5	-0.09091119
246	0x3d7b94ab	0.061421078
247	0x3da0c162	0.07849385
248	0xbd2ca757	-0.042151775
249	0x3c3f758b	0.011685739
250	0xbca96c50	-0.02068153
251	0x3ddb4042	0.107056156
252	0x3d939ef6	0.07208054
253	0xbda984f9	-0.08277316
254	0x3bf219b9	0.0073883203
255	0x3d0d72cd	0.03453331

shared_net.2.weight f4 [128, 256]
0	0x3da12643	0.07868626
1	0xbcfbcf86	-0.030738603
2	0x3e3a0387	0.18165408
3	0x3cf356c7	0.029704465
4	0x3e10e2f0	0.1414907
5	0x3e0569a4	0.1302858
6	0x3cff8523	0.031191414
7	0xbc18c6e2	-0.009324761
8	0x3e34f33e	0.17670915
9	0x3e076b82	0.13224605
10	0x3ce5d251	0.028054388
11	0x3c213832	0.009840058
12	0x3e19fee8	0.15038645
13	0x3bdb8ba2	0.006699995
14	0xbcb0d483	-0.021585708
15	0x3cff7570	0.031183928
16	0x3da67fdc	0.08129856
17	0xbc2c798b	-0.010527025
18	0xbd06e337	-0.032931533
19	0x3d5e810c	0.054322287
20	0x3df0e584	0.11762527
21	0x3daf7ab1	0.085683234
22	0x3d5213b8	0.051288337
23	0xbd72e0e6	-0.05929651
24	0x3dc2a750	0.095045686
25	0xbd977c50	-0.073967576
26	0x3bf3aaa9	0.0074361158
27	0x3c98cb25	0.018651554
28	0xbc6416db	-0.013921465
29	0xbd452926	-0.048134945
30	0xbd087582	-0.03331519
31	0x3cd8ec05	0.02647973
32	0x3d93fc3d	0.07225845
33	0x3df1689e	0.11787532
34	0x3e6b0311	0.22950388
35	0xbd4d00fc	-0.050049767
36	0x3c210282	0.009827258
37	0xbd0095aa	-0.03139273
38	0xbd71c4c6	-0.05902555
39	0x3d90081d	0.070327975
40	0x3d789a06	0.060693763
41	0x3d2ad4bd	0.04170679
42	0x3ddbc1c9	0.10730321
43	0xbbf01224	-0.0073263813
44	0xbc0a3ca8	-0.008437313
45	0x3b5667f3	0.0032715767
46	0x3d980d5e	0.074244246
47	0x3d77d0c9	0.060501847
48	0x3d318f9c	0.043349847
49	0xbd7b588d	-0.061363745
50	0x3dc68b70	0.09694564
51	0x3d12ac2c	0.035808727
52	0x3cd51c28	0.026014403
53	0x3ccda15d	0.025101358
54	0x3d63291a	0.05545912
55	0x3df91534	0.12162247
56	0xbcd8e9e3	-0.026478713
57	0x3d87cca1	0.06630827
58	0xbd549ead	-0.051909138
59	0x3dbee52c	0.09321055
60	0xbd3abe45	-0.04559161
61	0x3d914074	0.070923716
62	0xbda5a83c	-0.08088729
63	0xbdab79da	-0.08372851
64	0xbdab4757	-0.08363216
65	0xbddb591a	-0.10710354
66	0x3de3aa27	0.11116438
67	0x3ce868f9	0.028370367
68	0x3deafed2	0.11474384
69	0xbd9bc51a	-0.076059535
70	0xbd107b08	-0.03527358
71	0xbd06efb8	-0.032943457
72	0x3c91a7e7	0.017780257
73	0x3b0e3508	0.002169909
74	0x3c9a0216	0.018799823
75	0x3daac357	0.08338039
76	0x3ccfb624	0.025355406
77	0xbdbfe894	-0.09370533
78	0xbd843c0f	-0.06456768
79	0xbd21fb72	-0.039546438
80	0x3de06eaf	0.10958611
81	0x3e030d8d	0.12798138
82	0x3ce8a588	0.028399244
83	0x3cd532ff	0.026025293
84	0x3cb05f23	0.02152974
85	0x3e1e6bfa	0.15470877
86	0x3dcfd132	0.10147323
87	0x3d0e959c	0.034810647
88	0x3cd93486	0.026514303
89	0x3de0d599	0.109782405
90	0x3da47a0c	0.08031091
91	0x3e33bcf4	0.17552549
92	0xbc33dbc0	-0.010977685
93	0xbdbfc3ac	-0.09363493
94	0x3de1f6c8	0.11033398
95	0x3d1d3259	0.038378093
96	0xbd1f98ff	-0.038964268
97	0x3b61d542	0.0034459387
98	0x3d878131	0.06616438
99	0x3ca3c406	0.019990932
100	0x3e2db78a	0.16964546
101	0xbd8c21c7	-0.0684238
102	0xbd9aecc6	-0.07564692
103	0xbce9e10e	-0.028549697
104	0x3e32e582	0.17470363
105	0x3d12946a	0.03578607
106	0x3d511e03	0.051054012
107	0xbe5df243	-0.21674447
108	0x3ded945f	0.11600565
109	0x3dc69d9a	0.09698029
110	0x3d34b32b	0.04411618
111	0xbd628cf6	-0.055310212
112	0xbd1379ea	-0.03600494
113	0xbe293630	-0.16524577
114	0x3cb09b7c	0.021558516
115	0xbe205cbc	-0.15660375
116	0x3e9c4ffc	0.30529773
117	0x3dc000a6	0.09375124
118	0xbda573db	-0.08078738
119	0x3e7efa51	0.24900176
120	0xbe1a8aa5	-0.15091951
121	0x3de429d5	0.11140791
122	0x3d150cfb	0.036389332
123	0x3d8a2d04	0.06746867
124	0x3d3c1ee6	0.045927905
125	0x3d543c62	0.051815398
126	0xbc3714ab	-0.011174361
127	0xbb2754cf	-0.0025532728
128	0xbc0e28df	-0.008676737
129	0xbc030c6d	-0.007998568
130	0x3d48e15e	0.049043052
131	0x3c8f375c	0.017482452
132	0xbc4b5c99	-0.012412214
133	0xbd01bbd6	-0.031673275
134	0x3cb62025	0.022232125
135	0x3dadafc5	0.08480791
136	0xbb8fb97d	-0.0043861256
137	0xbc890f19	-0.016730832
138	0xbd3ef1ea	-0.046617426
139	0x3db497d4	0.088180214
140	0xbe244477	-0.16041742
141	0xbd855e18	-0.065120876
142	0xbc93dbb3	-0.018049097
143	0x3d12edd4	0.03587134
144	0x3cd12f86	0.025535356
145	0x3df41c24	0.1191943
146	0xbd8ac0ce	-0.06775056
147	0xbd91faa2	-0.071278825
148	0xbd90a3d9	-0.070625015
149	0x3cfdc4e6	0.030977678
150	0x3ca28a8c	0.019841455
151	0xbc25df7f	-0.010124086
152	0x3d0fda07	0.035120036
153	0x3d4df4e4	0.050282374
154	0x3dc59464	0.09647444
155	0xbe089ecf	-0.1334183
156	0xbe0a10c7	-0.13482963
157	0xbd2ebced	-0.042660642
158	0x3d66f04b	0.056381505
159	0xbd423ec2	-0.04742313
160	0xbb8f792e	-0.0043784594
161	0x3cac52ad	0.021035517
162	0xbe181a00	-0.14853668
163	0xbb067c39	-0.002052082
164	0x3c589767	0.013219691
165	0x3c6170b3	0.01375978
166	0xbd7981c5	-0.060914773
167	0x3d8191d8	0.063266456
168	0xbd83379f	-0.06407093
169	0x3e2b78e4	0.16745335
170	0x3e28dbf9	0.16490163
171	0xbd75ade5	-0.059980292
172	0x3c81bf51	0.015838297
173	0xbbd890ff	-0.0066090818
174	0xbcdf6b22	-0.027272765
175	0xbb4e5d19	-0.0031488596
176	0x3da5dc94	0.080987126
177	0xbd2b313e	-0.041795008
178	0x3b4f103a	0.0031595365
179	0xbd88c615	-0.06678406
180	0x3d2f0be7	0.04273596
181	0x3c2e6faa	0.01064674
182	0x3b08b1a4	0.0020857835
183	0x3e3b500c	0.18292254
184	0xbd728e60	-0.05921781
185	0x3d22279a	0.03958855
186	0xbd239635	-0.03993817
187	0x3da6808a	0.08129986
188	0xbc971a51	-0.018445166
189	0xbcef5c72	-0.029218886
190	0x3debe79d	0.11518786
191	0xbd803fa3	-0.06262138
192	0x3b62cc3d	0.0034606599
193	0x3db40276	0.08789532
194	0x3d2c78f0	0.042107522
195	0x3d0acce7	0.033886816
196	0xbdfdb1e3	-0.12387445
197	0xbd6da0f9	-0.058014844
198	0x3ca3fb00	0.020017147
199	0x3e0a7c99	0.13524093
200	0x3c53a08e	0.012916697
201	0xbb8b0a03	-0.004243137
202	0xbd66efdb	-0.056381088
203	0x3c25c267	0.01011715
204	0x3c8a6dd4	0.016898073
205	0x3d10d704	0.035361305
206	0xbdf2fe10	-0.11864865
207	0x3b112286	0.0022145822
208	0x3be5fc4a	0.0070186006
209	0x3d420267	0.047365572
210	0xbcb6c58c	-0.022310995
211	0xbd811c3d	-0.06304214
212	0x3da0a393	0.07843699
213	0x3dbc3fe7	0.09191876
214	0x3d8a131c	0.06741926
215	0x3cc52447	0.02406515
216	0x3db1f679	0.08689589
217	0x3cb132cc	0.021630667
218	0xbc6ab080	-0.014324307
219	0x3d79f163	0.06102122
220	0xbcd65e6d	-0.026168073
221	0x3a42949a	0.0007422656
222	0x3e98cade	0.29842275
223	0x3da2e868	0.07954484
224	0xbd12fe9d	-0.03588735
225	0xbd40b8f5	-0.04705139
226	0x3deea687	0.11652856
227	0x3dea06ab	0.11427053
228	0xbc21c916	-0.009874603
229	0x3df378df	0.11888289
230	0xbda0a11a	-0.07843228
231	0xbe06345d	-0.13105913
232	0x3db6440e	0.08899699
233	0xbe13bc54	-0.1442731
234	0xbcd3f44c	-0.025873326
235	0x3dca03a7	0.09863978
236	0x3e1401e5	0.14453848
237	0xbd5c5dba	-0.053800322
238	0xbe0e2705	-0.13882072
239	0x3e05ad0a	0.1305429
240	0x3d3f74bd	0.04674219
241	0x3d6c9cf6	0.057766877
242	0xbd91cfd8	-0.07119721
243	0x3dcd9606	0.1003838
244	0x3b86f4a8	0.0041185208
245	0x3e47f2bc	0.1952619
246	0xbdc034fe	-0.093851075
247	0xbd3bb2d2	-0.045824833
248	0x3cce4f45	0.025184283
249	0xbd295a3b	-0.041345816
250	0x3d2eb830	0.042656124
251	0x3d2223be	0.039584868
252	0x3c992d47	0.018698348
253	0x3cad30bf	0.021141408
254	0x3d828e2c	0.063747734
255	0x3db3676c	0.087599605

shared_net.2.bias f4 [128]
0	0x3b816785	0.003949108
1	0xbd1ef187	-0.038804557
2	0xbd0cab1b	-0.034342866
3	0x3d01c989	0.03168634
4	0x3da572fa	0.08078571
5	0x3c51aa8e	0.012797011
6	0x3dbfe0c9	0.09369046
7	0x3d155739	0.036460135
8	0x3d042839	0.03226492
9	0x3d395e43	0.04525591
10	0x3d63da75	0.05562826
11	0x3d495166	0.049149893
12	0x3bc2440a	0.005928521
13	0xbd98747c	-0.07444093
14	0x3d202a5c	0.039102897
15	0xbc97531b	-0.018472245
16	0x3d2e9bbd	0.042628992
17	0xbca5269e	-0.020160016
18	0x3ce552a5	0.02799351
19	0xbd45b695	-0.048269827
20	0x3caf609c	0.021408372
21	0xbd164353	-0.0366853
22	0x3d847b2f	0.06468808
23	0xbcfe5f5a	-0.031051327
24	0xbd0aa011	-0.033844057
25	0x3d142c6a	0.03617517
26	0x3cf17eba	0.029479373
27	0xbd711837	-0.058860984
28	0x3d5a3c47	0.05328014
29	0x3d356b73	0.044291925
30	0xbd49b331	-0.049243156
31	0x3ce8b563	0.028406804
32	0x3d88079c	0.066420764
33	0x3d2ff8ce	0.042961888
34	0x3c6369b1	0.013880179
35	0xbd4178d1	-0.04723436
36	0x3dddc3f3	0.1082839
37	0x3d952785	0.072829284
38	0x3d4791f0	0.04872316
39	0x3d1e6dd6	0.038678966
40	0xbce9fc86	-0.028562795
41	0xbd01ce3a	-0.031690814
42	0xbb55d505	-0.003262819
43	0xbbf11c8e	-0.0073581403
44	0x3d3916b5	0.04518767
45	0x3ce32be6	0.027730893
46	0x3d4e0c2d	0.05030458
47	0x3b89196b	0.0041839383
48	0x3cbce9ba	0.023060668
49	0x3b8d2958	0.004307907
50	0x3d2b73b6	0.041858397
51	0xbbe4f94a	-0.0069877254
52	0x3ccbf002	0.024894718
53	0x3d5bb115	0.053635675
54	0xbd02d478	-0.031940907
55	0x3cb3d76f	0.021953313
56	0xbd0ebc3c	-0.034847483
57	0xbd3f1b75	-0.046657044
58	0xbd8d605f	-0.06903147
59	0xbd4a2614	-0.04935272
60	0x3d5409ff	0.051767346
61	0xbd8902eb	-0.0669001
62	0x3c94e93c	0.018177621
63	0xbd158417	-0.036502924
64	0xbd0df97d	-0.03466176
65	0xbda022d6	-0.078191444
66	0x3d239255	0.039934475
67	0x3db7cbc4	0.08974412
68	0xbd5d7195	-0.0540634
69	0x3b157665	0.0022806164
70	0x3d2befbe	0.041976683
71	0xbb7e70e7	-0.003882462
72	0xbcc6cd87	-0.024267925
73	0x3b969c68	0.004596282
74	0x3d56174b	0.052268308
75	0x3db23377	0.087012224
76	0x3dd736cf	0.10508501
77	0xbd56543e	-0.052326433
78	0x3d4244b1	0.04742879
79	0x3d51f29c	0.05125676
80	0x3c65d37b	0.014027472
81	0xbd66a4e3	-0.056309592
82	0x3d058d05	0.03260519
83	0x3d9e6d18	0.07735652
84	0xba4bdc5c	-0.00077766716
85	0x3d461026	0.048355244
86	0xbd88e309	-0.066839285
87	0xbcde980b	-0.02717211
88	0xbd1b3d6b	-0.03790037
89	0x3d0da316	0.03457936
90	0x3d825cca	0.06365354
91	0x3b4a4c57	0.0030868256
92	0xbd235d63	-0.039883982
93	0xbcde9fe6	-0.027175855
94	0x3d8794fa	0.06620212
95	0xbd54a0aa	-0.051911034
96	0x3d6a6c46	0.057232164
97	0xbd04aaa0	-0.032389283
98	0xbd73aacd	-0.05948906
99	0x3c79a7e8	0.015237786
100	0xbccd9638	-0.025096044
101	0x3ce00ddf	0.027350364
102	0x3916ffaa	0.00014400357
103	0xbb52cb1b	-0.0032164517
104	0x3b1dd96c	0.0024085892
105	0x3d5a9bad	0.05337112
106	0xbc97354b	-0.01845803
107	0xbc1aa188	-0.009437926
108	0xbcac3645	-0.021021971
109	0x3d45d8d1	0.048302475
110	0x3d13dab9	0.036097262
111	0x3d4726b3	0.04862089
112	0xbd0facbb	-0.035076838
113	0xbd0d827c	-0.034548268
114	0xbd537cc1	-0.051632646
115	0xbd471dd3	-0.048612427
116	0xbca918a5	-0.020641634
117	0xbd4b3d93	-0.04961927
118	0x3d6945bc	0.05695127
119	0xbd093741	-0.03349996
120	0x3d9c1998	0.07622069
121	0x3bacb56f	0.005270652
122	0x3d162624	0.036657467
123	0xbd901ad4	-0.07036367
124	0xbd4c2a56	-0.049845062
125	0x3d4597e9	0.048240576
126	0x3cc6350b	0.024195215
127	0xbd676fb5	-0.056503017

to_mean.0.weight f4 [64, 128]
0	0xbcb3376c	-0.021877013
1	0xbccca068	-0.024978831
2	0x3aad5420	0.0013223924
3	0x3d12529e	0.03572332
4	0x3d0b237f	0.0339694
5	0xbd8b174e	-0.067915544
6	0x3d09696e	0.03354781
7	0x3ccf055b	0.025271108
8	0x3db46c69	0.0880974
9	0xbd3b3fed	-0.04571526
10	0x3d06c6f5	0.032904584
11	0xbbe9c862	-0.007134483
12	0x3db00930	0.085955024
13	0x3cf6b30b	0.030114671
14	0x3d29b533	0.04143257
15	0x3c806ca0	0.015676796
16	0x3ca26e4e	0.019827988
17	0x3dadc92f	0.08485638
18	0xbd904fa4	-0.0704644
19	0xbd5c5b92	-0.053798266
20	0xbde0985e	-0.10966562
21	0x3d2309f4	0.039804414
22	0x3d3513f4	0.044208482
23	0xbd303597	-0.043019857
24	0xbd722a52	-0.05912239
25	0xbd5423df	-0.05179202
26	0x3c7a0cdb	0.015261854
27	0xbc9260ae	-0.017868366
28	0x3d46dc2f	0.048549827
29	0x3d244120	0.04010117
30	0x3d71fd16	0.059079252
31	0xbdb54cb1	-0.08852518
32	0xbd2ca933	-0.04215355
33	0xbd179366	-0.037005804
34	0xbd52efa0	-0.051498055
35	0xbda6d67f	-0.08146381
36	0x3db61c2b	0.08892091
37	0x3ccab9fa	0.024746884
38	0x3c8a2529	0.016863422
39	0x3d43e946	0.04782989
40	0xbd2a35fa	-0.041555382
41	0xbb6ba61b	-0.003595716
42	0xbd88ae3c	-0.066738576
43	0x3c4e8450	0.012604788
44	0x3cfe395b	0.031033209
45	0x3db67f24	0.08910969
46	0xbd95199b	-0.072802745
47	0x3cde7799	0.027156638
48	0xbda3806d	-0.0798348
49	0x3d813a9a	0.063100055
50	0x3c28da8e	0.010306014
51	0xbd43cdc7	-0.047803666
52	0x3abb1a37	0.001427478
53	0x3bba2853	0.0056810766
54	0x3cea611e	0.028610762
55	0x3cab1587	0.020884288
56	0xbdb014b5	-0.085976996
57	0x3d69f9a6	0.05712285
58	0xbdb1b64b	-0.08677348
59	0x3b18f8cf	0.002334166
60	0x3ddc569e	0.107587084
61	0x3dce0bbf	0.10060834
62	0xbd99b6fa	-0.07505603
63	0x3c3139d6	0.010817012
64	0x3d44f78f	0.048087653
65	0xbd406814	-0.046974257
66	0xbd39d9b8	-0.04537365
67	0xbd760df1	-0.06007189
68	0xbd14ecc1	-0.0363586
69	0x3dd361a2	0.10321356
70	0xbc66262f	-0.01404719
71	0x3da63977	0.08116429
72	0x3d826891	0.06367601
73	0x3dc582a2	0.09644057
74	0x3d8a6418	0.067573726
75	0x3dda8f1c	0.10671827
76	0xbcef8018	-0.029235885
77	0x3c1850c1	0.009296597
78	0x3d49ec8a	0.049297847
79	0x3c2b2ad7	0.0104472255
80	0xbd85b5ea	-0.06528838
81	0xbc903f02	-0.01760817
82	0xbc324320	-0.010880262
83	0xbda38107	-0.079835944
84	0xbd3ea320	-0.046542287
85	0xbd98710d	-0.07443438
86	0xbd217855	-0.0394214
87	0xbdbfc808	-0.09364325
88	0x3d960934	0.07325974
89	0xbd4782ef	-0.048708852
90	0x3dc5695a	0.09639235
91	0x3b700ee4	0.003662997
92	0x3d85e3b6	0.06537573
93	0xbda0dd7d	-0.078547455
94	0xbbcb1c31	-0.006198429
95	0x3d9c1332	0.07620849
96	0xbd14e2da	-0.036349155
97	0x3da2fefd	0.079587914
98	0xbd5458af	-0.051842388
99	0xbd551103	-0.052018177
100	0x3cb4bac5	0.022061715
101	0x3da524b6	0.08063643
102	0x3cdf66c1	0.027270677
103	0x3da32573	0.07966127
104	0x3d186b09	0.03721145
105	0x3de1e725	0.110304154
106	0xbd3ac55e	-0.04559838
107	0x3db4782e	0.08811985
108	0xbd9417ab	-0.07231077
109	0x3ce26cd9	0.027639793
110	0xbd597c35	-0.05309697
111	0xbd3bfb20	-0.04589379
112	0x3da6bdd7	0.08141678
113	0xbd8a726f	-0.06760108
114	0xbd15ae58	-0.03654322
115	0x3da80e95	0.08205906
116	0x3d2c34e4	0.042042628
117	0xbd1b99f9	-0.037988637
118	0x3b8376e9	0.004011978
119	0xbda83866	-0.08213882
120	0xbd749be2	-0.059718974
121	0x3daf5269	0.0856064
122	0x3db64318	0.08899516
123	0x3d49682c	0.04917161
124	0xbc9e98d4	-0.019359984
125	0xbda428c6	-0.080155894
126	0xbcf43e1c	-0.029814772
127	0x3d7dc379	0.061953995
128	0xbd3d0b55	-0.046153385
129	0xbcc05e3e	-0.023482438
130	0xbcb53426	-0.022119593
131	0x3d9090bd	0.07058857
132	0x3d99edf3	0.07516088
133	0x3d85c8ae	0.06532417
134	0xbd82391c	-0.06358549
135	0xbcf2393e	-0.02956831
136	0x3da8fc96	0.08251302
137	0xbc9f4cd4	-0.019445814
138	0x3dca1ac7	0.098683886
139	0xbdb540a0	-0.08850217
140	0x3cf8710b	0.03032734
141	0xbda62f26	-0.081144616
142	0x3d57da6f	0.05269855
143	0xbc0c0a71	-0.008547411
144	0xbd8b4e0d	-0.068019964
145	0xbc1ac7a4	-0.009447012
146	0x3d0f1533	0.034932327
147	0x3d4e6fa7	0.05039945
148	0x3d6dc47d	0.058048714
149	0x3da89e3f	0.08233308
150	0x3d669bc0	0.05630088
151	0xbc7b14ee	-0.015324814
152	0xbd008bb3	-0.031383228
153	0x3cb95978	0.02262567
154	0x3c6c37f8	0.014417641
155	0xbd567b04	-0.05236341
156	0x3d9ba495	0.07599751
157	0x3c029beb	0.007971744
158	0xbccffa9b	-0.025388053
159	0x3d713489	0.058887992
160	0xbd623aed	-0.055231977
161	0x3d51d7ae	0.05123108
162	0xbd62f142	-0.055405863
163	0xbd8e2782	-0.06941129
164	0x3dadeb4e	0.084921464
165	0x3daee38f	0.08539497
166	0xbd1754eb	-0.03694622
167	0x3cf20b21	0.029546322
168	0x3cfcefd4	0.030876078
169	0xbd84642e	-0.0646442
170	0x3bcaa1e1	0.0061838483
171	0x3d4bc17a	0.04974506
172	0xbd3e329a	-0.046434976
173	0x3d267625	0.040640015
174	0x3cb23c91	0.021757396
175	0xbca65900	-0.02030611
176	0xbd8cebad	-0.06880889
177	0xbc228006	-0.0099182185
178	0xbd565b58	-0.052333206
179	0x3d8aabba	0.067710355
180	0x3d1fb537	0.03899118
181	0xbd60b6c5	-0.054861803
182	0xbd0ba494	-0.0340925
183	0xbdb35ef8	-0.08758348
184	0xbd228d07	-0.039685275
185	0x3d87d189	0.066317625
186	0x3d98efd8	0.074676216
187	0x3d8cc574	0.06873599
188	0x3d12b776	0.035819493
189	0xbdbc38c6	-0.09190516
190	0x3d21dca6	0.039517067
191	0xbc088496	-0.008332392
192	0x3d33010d	0.043702174
193	0x3ab0a67f	0.0013477354
194	0xbd85f9b2	-0.06541766
195	0xbd52cc11	-0.051464144
196	0xbd9a1586	-0.075236365
197	0x3d10ff7e	0.035399906
198	0xbd7d69c9	-0.061868463
199	0x3d8bfe6a	0.06835635
200	0xbbb2f9f3	-0.005461925
201	0x3dd5f4c4	0.10447076
202	0x3d0b76f8	0.034049004
203	0xbc0b3fb0	-0.008499071
204	0x3dd5131b	0.10404035
205	0xbd9d9641	-0.07694674
206	0x3a8ba758	0.0010654731
207	0xbd8e24c9	-0.0694061
208	0xbbc11750	-0.0058926716
209	0x3da4aec4	0.080411464
210	0x3cc5817b	0.024109593
211	0x3d9d847f	0.07691287
212	0xbd2e0654	-0.042486504
213	0xba379b5b	-0.0007004046
214	0x3d673235	0.056444366
215	0xbd941ac8	-0.072316706
216	0xbd998aa8	-0.0749715
217	0x3d9993d1	0.07498897
218	0xbd7379a6	-0.059442185
219	0xbd19ba54	-0.037531212
220	0xbd762a0c	-0.060098693
221	0xbd181c63	-0.037136447
222	0xbd447f37	-0.047972884
223	0xbdc30102	-0.095216766
224	0xbcf32c2d	-0.02968415
225	0xbcbbe632	-0.022936914
226	0xbb67f0bc	-0.0035391292
227	0xbdaa19ea	-0.08305724
228	0xbd9ddbc7	-0.07707935
229	0xbd2b4b3b	-0.041819792
230	0xbc38ca6f	-0.011278733
231	0x3bd05751	0.006358065
232	0x3d8cb1e9	0.06869871
233	0xbd1fff14	-0.03906162
234	0xbce22968	-0.027607635
235	0xbc9328bb	-0.017963758
236	0x3dc73840	0.09727526
237	0x3d5747a0	0.05255854
238	0xbd7c4d9f	-0.061597463
239	0xbd54805f	-0.051880237
240	0x3d80202f	0.062561385
241	0xbd42799d	-0.04747926
242	0xbd9f2485	-0.077706374
243	0x3c9324dd	0.017961914
244	0xbd0547fd	-0.032539356
245	0xbd4cd56c	-0.050008222
246	0x3c103e53	0.008803922
247	0xbcb7c261	-0.022431554
248	0x3d3e9d1c	0.04653655
249	0x3cffb092	0.031212125
250	0xbdb01be4	-0.0859907
251	0xbd59b444	-0.05315043
252	0x3d9ecf35	0.07754365
253	0x3c429543	0.011876407
254	0xbcd3ed7e	-0.025870081
255	0xbc883105	-0.016624937

to_mean.0.bias f4 [64]
0	0x3c8e508e	0.017372396
1	0x3d467353	0.048449825
2	0xbc2d81b3	-0.010590005
3	0xbd008af1	-0.031382505
4	0xbd37ed76	-0.044904195
5	0xbce59517	-0.028025193
6	0x3d98e6c1	0.07465888
7	0xbc9c1731	-0.019054027
8	0xbbf7c741	-0.0075615947
9	0xbd87bffd	-0.06628416
10	0x3d9fec94	0.078087956
11	0x3d5c453e	0.053776972
12	0xbb489016	-0.003060346
13	0xbdc50d48	-0.09621674
14	0xbd227587	-0.039662864
15	0x3d3dc437	0.046329703
16	0x3d62b266	0.055345915
17	0x3d3896d5	0.04506572
18	0xbc5589be	-0.013033329
19	0x3d271c5c	0.04079853
20	0x3c39be60	0.011336893
21	0x3d35a63a	0.04434798
22	0x3b49fa92	0.0030819518
23	0xbdaf675d	-0.08564637
24	0x3ca40a20	0.02002436
25	0x3da2a180	0.0794096
26	0x3dc9d18b	0.0985442
27	0xbd38d6ec	-0.04512684
28	0xbd928f67	-0.07156258
29	0x3d29682c	0.04135911
30	0x3d2ae0c1	0.04171825
31	0xbd7a0c33	-0.06104679
32	0xbd6ae45f	-0.057346698
33	0xbd8ad8ac	-0.06779608
34	0xbdade471	-0.08490837
35	0xbdafa2f3	-0.08576002
36	0xbd81d7cf	-0.0633999
37	0xbb218556	-0.0024646125
38	0x3d9ebf87	0.07751375
39	0x3d7ee8cf	0.062233742
40	0xbdb73279	-0.08945174
41	0xbce052e5	-0.027383277
42	0xbb985616	-0.004648934
43	0xbd7c6637	-0.061620917
44	0x3ccfa6ac	0.02534803
45	0x3d11ec24	0.035625592
46	0xbd8c762c	-0.06858477
47	0xbd4c3361	-0.049853686
48	0x3d962bdd	0.07332585
49	0xbd3a2714	-0.045447424
50	0x3dab6d22	0.08370425
51	0x3daf4c16	0.08559434
52	0xbd600dea	-0.05470077
53	0xbd003e52	-0.031309433
54	0xbd25fbee	-0.040523462
55	0x3d785173	0.06062455
56	0xbc77b626	-0.015119111
57	0x3c87b29a	0.016564656
58	0xbd009905	-0.03139593
59	0xbd0f018f	-0.034913596
60	0xbc93667f	-0.01799321
61	0x3d992f0f	0.07479679
62	0xbd4f2429	-0.050571594
63	0xbdad81ce	-0.08472024

to_mean.2.weight f4 [18, 64]
0	0xbd2ec185	-0.042665023
1	0xbd2a9467	-0.041645434
2	0xbdb33fab	-0.08752378
3	0x3c77d3d0	0.015126184
4	0x3ddb61ff	0.10712051
5	0xbda64f6f	-0.081206195
6	0xbd4dc6cc	-0.050238416
7	0xbdca2adf	-0.09871458
8	0xbd4f65db	-0.050634246
9	0xbc8790f0	-0.016548604
10	0x3de22ba2	0.110434785
11	0xbdc6cb7b	-0.097067796
12	0xbd0c039f	-0.03418314
13	0xbda85909	-0.08220107
14	0x3d15a8c7	0.03653791
15	0x3dc55da7	0.096370034
16	0x3d1ba3c8	0.03799799
17	0x3d97fe7f	0.07421588
18	0xbd310e81	-0.043226723
19	0x3d6f111f	0.058365937
20	0x3d6b068b	0.057379287
21	0xbc76a9bd	-0.015055117
22	0x3d3b9bec	0.045802996
23	0x3cfb3d4b	0.030668875
24	0x3d4f5995	0.05062254
25	0xbde6bb38	-0.11266178
26	0xbdd237ae	-0.10264526
27	0x3adbc4f2	0.0016767068
28	0xbd2eaeb0	-0.042647064
29	0xbd8fb93d	-0.07017753
30	0xbc948c92	-0.018133435
31	0xbdc0f1f1	-0.09421147
32	0x3d64f5d8	0.055898517
33	0xbcaae72a	-0.02086218
34	0x3d9b8fd6	0.07595794
35	0xbc478b7e	-0.012179254
36	0x3dacc79b	0.08436509
37	0x3d392888	0.04520467
38	0xbced4bed	-0.028966868
39	0x3d201171	0.039079133
40	0xbc9f268f	-0.019427566
41	0x3da6994d	0.081347086
42	0xbd98c0d3	-0.07458653
43	0x3d77eda8	0.06052938
44	0xbe00aa1b	-0.1256489
45	0xbdb9caed	-0.09071908
46	0xbd013f44	-0.031554475
47	0xbd87fcc8	-0.06640011
48	0x3dd4595e	0.10368608
49	0xbcd1f894	-0.025631227
50	0x3d6616c5	0.05617406
51	0xbd0e2bbb	-0.034709673
52	0xbd32fec2	-0.043699987
53	0x3df43e39	0.119259305
54	0x3d3acd1c	0.045605764
55	0x3d6f258d	0.05838542
56	0xbc30453d	-0.010758695
57	0xbd29849d	-0.041386236
58	0x3d1ae00d	0.037811328
59	0xbc94b566	-0.018152904
60	0xbc73a872	-0.014871703
61	0x3dbb1399	0.09134597
62	0xbd598670	-0.053106725
63	0x3d387fba	0.045043685
64	0x3e01e873	0.12686329
65	0x3d742c7f	0.059612747
66	0xbd1592f1	-0.036517087
67	0xbcc4e530	-0.024035066
68	0x3e0e77cd	0.13912888
69	0x3d400ec4	0.04688908
70	0xbcbfc391	-0.023408683
71	0x3e028a1b	0.12747996
72	0x3dcb30a8	0.0992139
73	0xbd16120a	-0.036638297
74	0x3d922bbe	0.071372494
75	0x3d06ec89	0.03294042
76	0xbc9e3829	-0.019313889
77	0xbdc6abba	-0.09700723
78	0xbd0a07f2	-0.033698983
79	0x3db28570	0.087168574
80	0x3e0f110d	0.13971348
81	0x3e02d4d3	0.12776498
82	0xbde4e919	-0.11177272
83	0xbddb21aa	-0.1069978
84	0xbe0f149c	-0.13972706
85	0x3df169b5	0.1178774
86	0x3ddea92a	0.10872109
87	0xbdb110c6	-0.086457774
88	0xbcde027f	-0.0271008
89	0x3d0d93b4	0.03456469
90	0x3d6c78c6	0.057732366
91	0x3ca7f697	0.020503325
92	0x3dbae209	0.09125144
93	0x3d02f76f	0.031974252
94	0xbdfe865f	-0.12427973
95	0x3e12bac3	0.14329056
96	0xbbde34ec	-0.006781211
97	0x3dbeece7	0.09322529
98	0xbdfb661d	-0.12275336
99	0xbd9ef777	-0.07762044
100	0x3d3ac440	0.045597315
101	0xbd801f32	-0.0625595
102	0xbc9a6816	-0.01884846
103	0xbdfb0bdf	-0.122581236
104	0xbdcc50aa	-0.09976323
105	0xbe0e5784	-0.13900572
106	0xba105506	-0.00055058335
107	0x3db6696b	0.08906826
108	0xbd179194	-0.03700407
109	0x3d1607af	0.03662842
110	0xbc168f10	-0.009189382
111	0xbe16411c	-0.14673275
112	0x3d36ac48	0.044597894
113	0x3ddce151	0.10785163
114	0x3db6ac97	0.08919638
115	0x3c2a2ecc	0.010387134
116	0x3da41679	0.08012099
117	0xbcd9b8da	-0.026577402
118	0xbdcd5157	-0.1002528
119	0x3d84cab2	0.064839736
120	0x3aecb351	0.0018058812
121	0x3cf24022	0.029571597
122	0xbd89c5d5	-0.067271866
123	0xbdd3f986	-0.10350327
124	0xbcd90eb9	-0.026496278
125	0x3e00fb1c	0.1259579
126	0x3e0b5a60	0.13608694
127	0xbe058bf2	-0.13041666
128	0xbcb30257	-0.021851702
129	0xbd647ab4	-0.05578108
130	0xbcafbc35	-0.021452049
131	0xbda3fba9	-0.08006985
132	0x3c0bff23	0.008544716
133	0x3dcfb9dd	0.101428725
134	0x3de81652	0.11332382
135	0xbdb2e86e	-0.08735739
136	0xbdbe3f74	-0.092894465
137	0xbd25488e	-0.040352397
138	0xbc3f0a5f	-0.0116601875
139	0x3d8ca034	0.06866494
140	0x3d52d46e	0.05147212
141	0xbda4feb8	-0.08056396
142	0x3da2be87	0.079464965
143	0xbdacb109	-0.08432204
144	0xbd6d8c62	-0.057995208
145	0xbdb00f3a	-0.08596654
146	0x3ca8aa3d	0.020588988
147	0xbdecf1f9	-0.1156959
148	0xbdfdd526	-0.123941705
149	0xbde0a5fe	-0.109691605
150	0xbcdc012f	-0.026856033
151	0xbddaef39	-0.10690159
152	0x3dd0f1cb	0.10202368
153	0x3bce6242	0.0062983343
154	0x3db3b4f5	0.08774749
155	0x3cddcc43	0.027074939
156	0xbdbaac24	-0.091148645
157	0xbe0f941a	-0.1402134
158	0xbdc6bcec	-0.09704003
159	0x3d89f561	0.067362554
160	0xbdd77c89	-0.105218
161	0xbd5757dd	-0.052574027
162	0x3da2f04f	0.079559915
163	0x3c67c6a9	0.014146485
164	0xbc429ecb	-0.0118786795
165	0x3dfc2e12	0.12313475
166	0xbd4c6abe	-0.049906485
167	0x3dbc1e95	0.091855206
168	0xbcf80a4d	-0.03027835
169	0x3de89eb7	0.113583975
170	0x3dce57b4	0.10075322
171	0x3d8591a8	0.06521922
172	0x3ba26052	0.00495533
173	0xbd0415da	-0.0322474
174	0x3ca1b6be	0.019740459
175	0xbcce420c	-0.025177978
176	0x3c79ce30	0.015246913
177	0x3da86a0d	0.082233526
178	0x3b9af773	0.0047292053
179	0xbd90151c	-0.07035276
180	0xbc88d43a	-0.01670276
181	0xbd02bf17	-0.03192052
182	0xbd9b3699	-0.07578773
183	0x3dc80dd5	0.09768263
184	0xbd967cb8	-0.07348007
185	0xbc434641	-0.011918605
186	0x3db4c99e	0.08827518
187	0x3deb7906	0.11497693
188	0x3db84ba4	0.08998802
189	0xbd34e75b	-0.04416595
190	0xbdc787d3	-0.09742703
191	0x3c8ace2a	0.01694401
192	0xbb94ef3c	-0.0045451205
193	0xbe0022b3	-0.12513237
194	0xbdd028af	-0.1016401
195	0x3affe268	0.001952243
196	0x3d22633d	0.039645422
197	0x3da39047	0.07986503
198	0xbd8d3547	-0.068949275
199	0xbcbc61be	-0.022995826
200	0xbd8cd474	-0.0687646
201	0xbcc9012d	-0.024536693
202	0xbd84e0e9	-0.06488211
203	0xbdfdc245	-0.123905696
204	0xbd10a8b9	-0.035317156
205	0xbdc077d2	-0.09397854
206	0xbd3ce27e	-0.046114437
207	0x3da40b6a	0.080099896
208	0x3d1060f7	0.035248723
209	0xbdeae384	-0.114691764
210	0xbd29856a	-0.041387
211	0x3e01597b	0.1263179
212	0x3d56635d	0.052340854
213	0xbbaba73a	-0.005238441
214	0xbd071a53	-0.03298409
215	0xbd8f6e3e	-0.07003449
216	0x3c834fa4	0.016029187
217	0x3c2a1a2c	0.010382216
218	0x3c5009a4	0.012697611
219	0xbdf2970c	-0.11845216
220	0x3d23bc99	0.039974783
221	0xbc2eb7fa	-0.010663981
222	0x3d5eb5ce	0.0543726
223	0xbdef0fd4	-0.11672941
224	0xbc694eea	-0.014240006
225	0xbdd42c2a	-0.10359986
226	0x3da73d03	0.08165934
227	0xbdcc36b6	-0.09971373
228	0x3d8fb1af	0.07016312
229	0xbc0972f7	-0.008389226
230	0xbd9547fc	-0.072891206
231	0xbd7e2c2e	-0.06205385
232	0x3d297664	0.04137267
233	0x3db5121c	0.08841345
234	0xbd13afa8	-0.03605619
235	0x3d79ed49	0.06101731
236	0xbdfc4319	-0.12317485
237	0xbd0f6dcc	-0.03501682
238	0xbdd3ff2b	-0.10351404
239	0x3b32309b	0.0027189616
240	0xbd4219f6	-0.04738804
241	0x3db5793b	0.088610135
242	0x3d8b3d90	0.067988515
243	0x3d869eda	0.06573267
244	0x3d871971	0.065966494
245	0x3d74518e	0.05964809
246	0x3cf72ac7	0.030171765
247	0xbc978618	-0.018496558
248	0x3b58d0e5	0.0033083495
249	0x3da21750	0.07914603
250	0xbdad3363	-0.08457067
251	0xbddb0898	-0.106949985
252	0x3dfac419	0.12244434
253	0x3db93a34	0.090443045
254	0xbab747b9	-0.0013983167
255	0x3d4f8151	0.050660435

to_mean.2.bias f4 [18]
0	0xbbd3eae2	-0.006467209
1	0x3da32aff	0.07967185
2	0xbccba5a0	-0.02485925
3	0x3db51fb0	0.088439345
4	0x3dfcd7b3	0.12345829
5	0x3d9d9744	0.07694867
6	0x3dc67069	0.09689409
7	0x3d97e223	0.07416179
8	0xbd7ea974	-0.06217332
9	0xbd2d519b	-0.042314153
10	0xbdf0c31d	-0.11755965
11	0x3dc54d25	0.09633855
12	0x3e04d588	0.1297208
13	0x3db6bcee	0.08922754
14	0x3da05b12	0.0782987
15	0x3d156986	0.036477588
16	0xbde8e8b3	-0.11372509
17	0x3d28d4cf	0.041218575

to_value.0.weight f4 [64, 128]
0	0xbe86b3f1	-0.2630916
1	0xbe884a6f	-0.26619288
2	0x3eb68aac	0.35652673
3	0x3e25484c	0.1614086
4	0x3d4147c8	0.047187597
5	0xbc8cee0b	-0.017203351
6	0x3d9a1ef2	0.075254336
7	0x3d6a664b	0.05722646
8	0xbe57a7a3	-0.21060042
9	0x3d5c6d5e	0.05381524
10	0x3d1667fe	0.03672027
11	0x3dab1602	0.08353807
12	0x3ded52ac	0.11588034
13	0xbd8766ae	-0.066113815
14	0x3e4998a2	0.19687131
15	0xbe010b11	-0.12601878
16	0x3ce5bddc	0.028044634
17	0x3ddfcd94	0.10927883
18	0xbda833e3	-0.082130216
19	0xbd9fbe6c	-0.07799992
20	0x3e49ff19	0.19726218
21	0xbd386e3e	-0.04502701
22	0x3e0f7ad7	0.14011703
23	0xbdc452b7	-0.09586089
24	0x3d8e46ef	0.06947123
25	0x3db03543	0.08603909
26	0x3e2a960e	0.16658804
27	0xbe9b8ba8	-0.30379987
28	0x3d0103b7	0.031497683
29	0xbe056a44	-0.13028818
30	0x3eeee51b	0.4665917
31	0x3e11150c	0.14168185
32	0xbbd7692b	-0.0065738163
33	0xbe671af7	-0.2256888
34	0x3e9888c9	0.2979186
35	0xbdc948f7	-0.0982837
36	0x3e2a6de4	0.16643482
37	0x3ec8dff7	0.39233372
38	0x3ede8a32	0.4346481
39	0x3e6c360a	0.2306749
40	0x3ecc35ef	0.39884898
41	0xbe4bf178	-0.19916332
42	0x3e3e2838	0.1857003
43	0xbea48195	-0.32130113
44	0xbdd18aa2	-0.1023152
45	0xbd1104a8	-0.03540483
46	0x3d861360	0.06546664
47	0x3d3802ab	0.04492442
48	0xbb63820f	-0.0034714972
49	0x3e58b672	0.21163347
50	0x3e402356	0.1876348
51	0x3c57855a	0.013154352
52	0x3e04ac57	0.12956367
53	0xbd000757	-0.031257
54	0x3e0bbe69	0.13646854
55	0x3edfdbe6	0.43722457
56	0x3e53c9b9	0.2068242
57	0xbdba10b8	-0.0908522
58	0x3e74c544	0.23903376
59	0xbe41fbe9	-0.18943752
60	0x3e73f401	0.23823549
61	0xbe51ef78	-0.20501506
62	0x3e92e9b2	0.2869392
63	0xbdcbad64	-0.09945181
64	0x3ef63abf	0.48091695
65	0xbdb8ac61	-0.09017254
66	0x3e388164	0.18018109
67	0x3e0813c1	0.13288786
68	0xbc7ac99a	-0.015306855
69	0x3c513f6a	0.012771467
70	0x3c1afdbc	0.009459909
71	0xbcbbb257	-0.022912188
72	0x3e80f393	0.25185832
73	0x3ddc2fc5	0.10751299
74	0x39ed5e58	0.00045274454
75	0x3e032bd0	0.12809682
76	0x3e3b138f	0.1826918
77	0xbe130e3c	-0.14360899
78	0x3ea2af5d	0.31774417
79	0x3e304295	0.17212899
80	0xbce6f47f	-0.028192757
81	0xbd03a9d2	-0.032144375
82	0xbe8b0b40	-0.2715702
83	0x3ca9d14e	0.020729687
84	0x3e16e20b	0.14734666
85	0x3dcfe700	0.10151482
86	0xbdd8cc84	-0.10585883
87	0x3e620aad	0.22074385
88	0x3d185e6b	0.03719942
89	0x3d2a5be6	0.041591547
90	0x3db06fe7	0.08615094
91	0x3e0da7fc	0.13833612
92	0xbe9a687f	-0.3015785
93	0x3d178a95	0.036997396
94	0x3c2d34ff	0.010571717
95	0xbe81c831	-0.25348046
96	0x3e202ca9	0.15642036
97	0xbd85cc93	-0.0653316
98	0xbded00eb	-0.11572441
99	0x3e0de934	0.13858491
100	0x3e186c38	0.14885032
101	0x3d8dfbbc	0.0693278
102	0x3e21bd70	0.15794921
103	0xbcaf863e	-0.021426316
104	0xbe66005b	-0.22461073
105	0xbf2c0aad	-0.6720379
106	0x3cf1d182	0.029518846
107	0xbd8014e1	-0.06253982
108	0x3dcabbea	0.09899123
109	0x3de7c7b0	0.11317384
110	0xbdb9bae0	-0.09068847
111	0x3dfdd3d8	0.123939216
112	0xbce3d154	-0.027809776
113	0x3d5274fd	0.0513811
114	0x3d9a751f	0.0754187
115	0xbe7b5894	-0.24545509
116	0xbdbd9155	-0.092562355
117	0xbddc311e	-0.10751556
118	0x3c86a6a7	0.016436888
119	0xbe2a683d	-0.16641326
120	0x3d751d30	0.05984229
121	0x3e83e12d	0.25757733
122	0x3c73e396	0.014885804
123	0x3e73e156	0.23816428
124	0xbe84d4e3	-0.2594367
125	0x3e8d8631	0.27641442
126	0x3e0c8ef8	0.13726413
127	0x3b936eb8	0.0044992827
128	0xbe9aa3fc	-0.30203235
129	0xbf0683c5	-0.52544814
130	0x3ed57216	0.41688603
131	0x3d3e75c0	0.046499014
132	0x3e114e79	0.14190091
133	0xbe133a84	-0.1437779
134	0x3d973702	0.07383539
135	0x3d61abbd	0.055095423
136	0xbe06e4f3	-0.13173275
137	0x3a703065	0.0009162485
138	0x3da32a9b	0.07967111
139	0x3ca743ba	0.020418037
140	0x3e3537af	0.17697023
141	0x3c1f6f67	0.00973115
142	0x3e9aba62	0.30220324
143	0xbbb4d398	-0.005518388
144	0x3e0080bd	0.1254911
145	0x3ea586a9	0.323293
146	0xbe0619f0	-0.13095832
147	0xbe031fef	-0.1280515
148	0x3f1790bd	0.5920523
149	0x3d87864e	0.066174135
150	0x3e78dea5	0.24303682
151	0xbd9712c6	-0.073766276
152	0x3e03d59b	0.12874453
153	0x3e4d8db6	0.2007359
154	0x3e20e085	0.15710647
155	0xbed57fd2	-0.41699082
156	0x3e1bcfc7	0.1521598
157	0xbeaf4201	-0.34230044
158	0x3f181e64	0.5942137
159	0x3e7d8830	0.24758983
160	0x3e2392d5	0.1597398
161	0xbebd13dd	-0.36929217
162	0x3ef5e655	0.48027292
163	0xbe1de5a0	-0.15419626
164	0x3df1e8e7	0.11812001
165	0x3f0a465d	0.54013616
166	0x3f0a66c7	0.54063076
167	0x3e936faa	0.2879613
168	0x3f1ca009	0.61181694
169	0xbe6c22e8	-0.2306019
170	0x3d99e6c9	0.07514722
171	0xbef055a9	-0.46940354
172	0xbe2187e7	-0.15774499
173	0x3c1096b0	0.008824989
174	0x3c99f2be	0.018792506
175	0x3e2f0f70	0.17095733
176	0x3cc35e54	0.02384869
177	0x3e4d1fbb	0.20031635
178	0x3e83102d	0.2559828
179	0x3dc7c078	0.097535074
180	0x3da914f0	0.08255947
181	0xbe31ffe6	-0.17382774
182	0x3e01d133	0.1267746
183	0x3f2d4cea	0.67695487
184	0x3e1b0776	0.15139565
185	0xbe3158e5	-0.17319067
186	0x3eea6901	0.45783237
187	0xbe719277	-0.23591028
188	0x3f039d64	0.51412034
189	0xbe8dc3e1	-0.27688506
190	0x3ed33ca2	0.41257197
191	0xbd0ed786	-0.034873508
192	0x3f44d1d7	0.7688269
193	0xbde11ede	-0.109922156
194	0x3ead039f	0.33791825
195	0x3e1fbdde	0.15599772
196	0xbd9dc537	-0.07703631
197	0x3e09e84a	0.13467517
198	0x3d6e83fb	0.058231335
199	0x3cf6e3bc	0.03013789
200	0x3eb4141c	0.35171592
201	0x3e075ffc	0.13220209
202	0x3c33fe5a	0.010985935
203	0x3de63e5f	0.11242365
204	0x3d8f1254	0.06985918
205	0xbe376669	-0.1791016
206	0x3f12a6ff	0.57286066
207	0x3e358595	0.17726739
208	0x3cf2ef63	0.029655164
209	0xbd00b402	-0.03142167
210	0xbe9dfa58	-0.3085506
211	0x3d5d26be	0.053992026
212	0x3d2dc790	0.042426646
213	0x3c1f2362	0.009713026
214	0xbea31227	-0.31849787
215	0x3e42ab46	0.19010648
216	0x3db647eb	0.08900436
217	0xbdd259f4	-0.102710634
218	0x3dfdc1f1	0.12390507
219	0x3df48191	0.11938775
220	0xbeb6bc9c	-0.35690773
221	0x3c289ba9	0.0102910185
222	0x3da0b85c	0.07847664
223	0xbeb17961	-0.34662917
224	0x3db0f287	0.086400084
225	0xbda2c311	-0.07947362
226	0xbe136122	-0.14392522
227	0x3dd3ab14	0.10335365
228	0x3d2bdd3f	0.041959044
229	0x3d916889	0.071000166
230	0x3d2c156b	0.042012613
231	0xbda9437f	-0.08264827
232	0xbea5bf96	-0.3237273
233	0xbf7f71d0	-0.9978304
234	0xbc5d9bd8	-0.013525926
235	0xbe7b40aa	-0.24536386
236	0x3e198764	0.14993054
237	0x3e2be422	0.16786245
238	0xbe2c13e6	-0.16804466
239	0x3e8bbd4f	0.27292868
240	0xbdaff6db	-0.08592006
241	0x3e237569	0.15962757
242	0xbc8f56e6	-0.017497491
243	0xbe89fdd5	-0.2695147
244	0xbdd736ab	-0.10508474
245	0xbea5a75d	-0.3235425
246	0x3d8306f2	0.06397809
247	0xbe7f87ce	-0.24954149
248	0x3d85cdb5	0.06533376
249	0x3e7cfd32	0.24705961
250	0x3dda67ac	0.10664305
251	0x3f13b9fb	0.5770566
252	0xbe6d7010	-0.2318728
253	0x3f06268b	0.5240256
254	0x3e6198ae	0.22030899
255	0xbd25fedb	-0.040526252

to_value.0.bias f4 [64]
0	0xbce80f37	-0.028327568
1	0x3dae273e	0.085035786
2	0x3db2fcf6	0.08739655
3	0x3d86cc39	0.06581921
4	0x3cf7bef4	0.03024242
5	0x3ca9f6d1	0.020747574
6	0x3cd9fa19	0.026608514
7	0xbd98780c	-0.07444772
8	0xbc6f85a1	-0.014619262
9	0xbcc7b9ea	-0.024380643
10	0x3dbffa1f	0.09373879
11	0x3dd3e920	0.103471994
12	0x3d6c2d99	0.057660673
13	0xba3ee9e6	-0.00072827784
14	0x3933b86b	0.00017139471
15	0x3da172ee	0.07883249
16	0x3d239890	0.039940417
17	0xbca03dcf	-0.019560723
18	0xbd80e5cc	-0.0629383
19	0x3e04c52f	0.12965845
20	0x3de1e298	0.110295475
21	0xba235f02	-0.0006232114
22	0x3d520fb3	0.051284503
23	0xbcf73e4e	-0.030181076
24	0x3d963616	0.07334535
25	0x3d1459b2	0.036218353
26	0x3d7930ab	0.06083743
27	0xbc8d35f0	-0.017237633
28	0x3c73967c	0.014867421
29	0xbd305480	-0.043049335
30	0x3d9c3500	0.076272964
31	0x3ce63b86	0.028104555
32	0x3c066b38	0.008204274
33	0xbd8d3bb1	-0.06896151
34	0x3d29d829	0.041465912
35	0x3dab4d56	0.0836436
36	0xba896477	-0.0010482211
37	0x3d7a694a	0.061135568
38	0x3d71b5a9	0.059011135
39	0x3d990aea	0.07472785
40	0x3df7b638	0.12095302
41	0x3d64655c	0.055760726
42	0x3d90c325	0.07068471
43	0x3d64c95d	0.055856097
44	0xbcb9b098	-0.022667214
45	0x3cc2db45	0.023786196
46	0x3cb5ad0d	0.022177244
47	0x3d5e3bb7	0.054256167
48	0x3dfb7edc	0.12280056
49	0x3dbe3d44	0.09289029
50	0x3cff58ce	0.031170275
51	0xbd2de92b	-0.042458694
52	0xbbdb3f54	-0.006690899
53	0x3d29c720	0.041449666
54	0x3de61634	0.11234704
55	0xbca9553d	-0.020670528
56	0x3d2d693b	0.042336684
57	0xbdab4461	-0.083626516
58	0x3df9456e	0.12171446
59	0x3dac9762	0.084273115
60	0x3d89306d	0.066986896
61	0x3d7f178d	0.06227832
62	0xbdaee4b3	-0.08539715
63	0xbd9fb19a	-0.07797547

to_value.2.weight f4 [1, 64]
0	0xbe8ba09d	-0.27270976
1	0xbe67142f	-0.22566293
2	0xbe505340	-0.20344257
3	0x3e927ab6	0.28609246
4	0x3e855c61	0.26047042
5	0x3e884621	0.26616004
6	0xbe795d41	-0.2435198
7	0x3e8457dd	0.25848284
8	0x3eb2b812	0.3490606
9	0x3ea1eec1	0.31627467
10	0xbe84ef65	-0.25963894
11	0xbe72bee2	-0.23705629
12	0x3ead75b8	0.33878875
13	0xbe90748e	-0.28213924
14	0x3e98edaf	0.29868838
15	0xbe6a0828	-0.22854674
16	0xbe4e0968	-0.20120776
17	0x3ea9029b	0.330098
18	0x3e83d286	0.25746554
19	0xbe71577f	-0.23568533
20	0xbe8f884e	-0.2803368
21	0x3eb71e0f	0.3576512
22	0xbe7168cc	-0.23575133
23	0x3e8cb913	0.2748495
24	0xbe8eedb8	-0.2791574
25	0xbe54dfca	-0.20788494
26	0xbe97e9a5	-0.29670444
27	0x3ea744b6	0.3266961
28	0x3e869b55	0.26290384
29	0x3e975c9f	0.29562852
30	0xbe6e5383	-0.23274045
31	0x3e9e6988	0.3093989
32	0xbe93e354	-0.28884375
33	0x3e8806e5	0.2656776
34	0xbe86cd23	-0.26328382
35	0xbe6ee1f6	-0.23328385
36	0x3e8b0665	0.27153316
37	0xbe48307d	-0.19549747
38	0x3e98aecd	0.29820862
39	0xbe84107a	-0.2579382
40	0xbe810813	-0.25201473
41	0xbe7adcf5	-0.24498351
42	0xbe712da6	-0.2355257
43	0xbe678349	-0.22608675
44	0x3e857d3c	0.2607211
45	0x3e8ff987	0.28120062
46	0xbe89326b	-0.26796278
47	0x3eaddf81	0.33959582
48	0xbe41fc84	-0.18943983
49	0x3e9bc82b	0.30426154
50	0xbe8cb9bd	-0.27485457
51	0x3e8dd97e	0.27704996
52	0x3e9eb066	0.30993956
53	0x3e80bc78	0.2514379
54	0xbe8c08ad	-0.2735037
55	0xbe94ad66	-0.29038543
56	0x3ea2d69c	0.3180436
57	0x3e93e857	0.288882
58	0xbe8b5c8b	-0.27219042
59	0x3e99b161	0.30018142
60	0x3eb3c61e	0.3511209
61	0x3e8bbc81	0.27292255
62	0x3ea195c5	0.31559578
63	0x3eb13171	0.34608033
