save2_1_23/save10_Standing_27600.pth (torch, 942043 bytes, 11 tensors)

shared_net.0.weight f4 [512, 67]
00000000: b492 1abe 57f7 03bb ad99 74be 5a4e 70be
00000010: 0719 08be 6530 d43c d666 e5bd 929c c43c
00000020: de44 f7bd d9b0 d73d 6814 88be fa99 473d
00000030: 3b44 28be d2d2 843e 3723 673d f350 503d
00000040: 60a8 083f 31a7 123f 84a3 00be a7a8 10bf
00000050: f17a 993e 3ded 8bbe fbb0 14be af2e 9ebc
00000060: dfd5 64be 6a93 eb3d bba1 163e 4b2f 1abf
00000070: 7853 27be 0ae6 b23e e2d6 8fbd 9561 44bd
00000080: 2258 93bd 853b 37bd 19b4 2e3d dcdf 443d
00000090: ffe9 a43d 9586 a03c d45a 88bc 8b8f 07bd
000000a0: 6c4e da3d 940f 19bd 2754 80bd 9f1a 56bd
000000b0: 10fa 193c 4d49 81bd 04f5 0e3d ed08 0cbd
000000c0: c677 2bbe 5e5a a73d 9bdb dc3c 5a2a 523d
000000d0: c1d3 a83e 4051 873d a28f a13d f541 8dbe
000000e0: 204e 78bd 59a5 dcbd 803b dbbd b7be 8ebd
000000f0: 00e6 043e 4d96 133e b29f ab3d 29cf ce3d
00000100: f74b 013e 5d5e 2c3e 6de5 e8bd 7406 233e
00000110: 1601 243e 4a14 a53e 5711 2ebe 966b 64bc
00000120: 3879 e23d 8597 d53e fbda 553d 5a8c 6d3d
00000130: e85d a03d b56f 2abf 74fc 323e 2b25 83be
00000140: 3e8d bb3c a097 193d fe3b 453e d7de 83be
00000150: bf0a d3bc 8765 763c d528 58bd 60d9 3dbd
00000160: 5c33 3b3d a8f8 59bd 73f6 92bd bdb6 97bc
00000170: e69a 6c3e 31a4 3e3d 5c68 5fbe ef8e 2fbd
00000180: 7ae7 e9bd 2f49 b9bc 446d d3bd 482c acbc
00000190: 49bb 19bb 5499 c0bb 1e38 b53c d4c2 0abc
000001a0: 99ef 49bc 40ce a53c c6e6 babd 8cb1 31bc
000001b0: e10b 37bc e158 953c 7760 8b3b c134 863c
000001c0: 9bba 2cbd 2346 50bd 87a4 b13c e808 45be
000001d0: d9d8 803d b0f6 7f3b c942 f5bb f589 373d
000001e0: c2a3 933c 943f eebc 7367 8bbd 50b2 123d
000001f0: cae9 0abe 2d00 23bd 6466 d7bd c04c 82bd
00000200: 7eb1 2f3c 4809 d5bd db9c f43b bd6d 863c
00000210: 1ced bcbd bf11 1f3d 11ac b23e 4b72 723d
00000220: 1100 bdbd 95ff 1fbc bf81 a53c 6ba0 923d
00000230: c10a 773d 0696 713d 42e0 e73d 57a4 1d3c
00000240: de7e 77bf dba3 a1bd f35b 223e 6e46 f23c
00000250: 5ae2 42bd 46ec 84bd 0ce0 f9bd 54b9 efbd
00000260: 40e7 873d 71be e73d d972 a1bd 23cb cabd
00000270: b371 323d 6a4a 94bd 6d79 9bb9 0318 9fbc
00000280: 9aa8 b6bd 3bae 26bd 9679 e2bd 5cf2 35be
00000290: 751a af3c 4722 54bd 7f09 4ebc 9cef 12bb
000002a0: 6dcd c23c 8177 003d a7aa 423d bc25 143d
000002b0: 951e ff3c ffbd 9ebd 0378 85bd f94f 46bd
000002c0: 83c3 d73c 37de 9b3a 558b bb3c c68f f2bc
000002d0: d1e7 47bd c8d4 21bd c351 0d3e 5d2e 513d
000002e0: f229 983d 5169 8a3d d06e b2bc d448 3b3b
000002f0: bae0 a9bd 0d75 783d e148 993d 2c0a ff3c
00000300: cb28 1fbd 2a28 b6bc 977b 9ebd acd4 25bd
00000310: 168e 13be 5652 f53c 01bf 2cbd 1e51 d9bc
00000320: 525b fe3b 5a79 ee3e a79c 4b3d 71d3 9fbe
00000330: 07e6 c3be e442 b4bd 1c17 313e 86b4 b33c
00000340: 173f 3e3d e95a a73d da3a 5fbb 21af 1dbf
00000350: 7a86 7abc 1634 163d 9cf4 f33d 8070 4c3e
00000360: 45a9 09be d218 52be e182 b9bd a7af 25be
00000370: c86f a2bc f8d8 45bd 4275 46bd 85c2 08be
00000380: 7852 09be c941 9e3e 2fbd 7fbc 3cf0 813d
00000390: 624d 0abe 80ee 50bd 72ae 9bbd 8f76 8cbd
000003a0: 7d1e c9bc 9433 4b3d f0f6 68bc a924 d5bc
000003b0: 6236 213d 96bd 86bc d46c 0c3e e7d2 1a3d
000003c0: 9b59 c23d 0a72 8e3c 9be6 c43b e3d6 75bd
000003d0: 87d0 08bd fe0f 3cbd 6d01 2d3d 2439 1fbc
000003e0: 4e87 753d 1d54 a5bd a394 7f3d 501a 1c3d
000003f0: 7f6e ae3d bef1 71bd 4dfd 27be 9a1c cabd
-0.15095025 -0.002013644 -0.23886748 -0.23467389 -0.13290797 0.025901983 -0.11201255 0.02400044
-0.12073682 0.10531778 -0.2657807 0.048730828 -0.16432278 0.25942093 0.056430068 0.05085845
0.5338192 0.57286364 -0.12562376 -0.56507343 0.2997661 -0.27329436 -0.14520638 -0.01930937
-0.2234721 0.115027264 0.14710133 -0.60228413 -0.16340435 0.3494113 -0.070234075 -0.047944624
-0.071945444 -0.044734497 0.042652223 0.04806505 0.08052444 0.019595424 -0.016644873 -0.033095878
0.10659489 -0.037368372 -0.06266051 -0.05227148 0.009397998 -0.06312809 0.034901634 -0.0341882
-0.16744909 0.08171533 0.026960185 0.05130992 0.32974055 0.06607294 0.07888724 -0.27589384
-0.06062138 -0.10773725 -0.10704708 -0.0696997 0.12978363 0.14412804 0.08380069 0.100981064
0.12626635 0.16832872 -0.113718845 0.1592043 0.16016039 0.32242042 -0.16998802 -0.013941666
0.11058277 0.41717163 0.05221079 0.057995178 0.07830411 -0.665767 0.17479116 -0.25614294
0.022894498 0.037498116 0.19261166 -0.2575595 -0.02576196 0.015038854 -0.052773315 -0.046349883
0.045703277 -0.053215653 -0.07175913 -0.018519754 0.23105964 0.046543304 -0.21817154 -0.04286092
-0.11421104 -0.022617904 -0.10323575 -0.021017209 -0.0023457578 -0.005877653 0.022121485 -0.008469302
-0.012325191 0.02023995 -0.09126048 -0.010845553 -0.011172266 0.018230857 0.004253443 0.016382577
-0.04217015 -0.050848138 0.021684898 -0.19241679 0.062913604 0.003905695 -0.007484768 0.0448093
0.018022422 -0.02908305 -0.06806841 0.035814583 -0.13565746 -0.03979509 -0.10517576 -0.06362295
0.01072347 -0.10402161 0.0074649877 0.01640975 -0.092249125 0.038835283 0.348969 0.05919103
-0.09228528 -0.009765525 0.02020347 0.071595035 0.06031299 0.058980964 0.11322071 0.009621701
-0.9667796 -0.07892581 0.15855388 0.0295746 -0.047579147 -0.06490378 -0.12200937 -0.117052704
0.06635904 0.11315621 -0.078832336 -0.099020265 0.043565463 -0.07240756 -0.00029654373 -0.01942063
-0.08918877 -0.040693503 -0.11058347 -0.17768234 0.02137492 -0.051790502 -0.012575506 -0.002242065
0.023779595 0.031363968 0.047526028 0.0361688 0.031142512 -0.07751083 -0.06517031 -0.04841611
0.026338344 0.0011891787 0.022893587 -0.029609572 -0.04880506 -0.039509565 0.13800721 0.051069606
0.074298754 0.06758369 -0.021781355 0.0028577344 -0.08294816 0.060658503 0.07484604 0.03113278
-0.038857263 -0.022235949 -0.07738417 -0.040486023 -0.1440967 0.029946487 -0.042174343 -0.026527938
0.007762351 0.4657696 0.049709942 -0.31216004 -0.38261434 -0.08801821 0.17293972 0.021936666
0.046446886 0.081716366 -0.0034062178 -0.6159535 -0.015290851 0.036670767 0.1191189 0.1996479
-0.13443477 -0.2051728 -0.09058166 -0.16180287 -0.019828692 -0.04830262 -0.04845167 -0.13355453
-0.13410366 0.30909565 -0.01560907 0.06344649 -0.13506082 -0.0510087 -0.07601632 -0.06858551
-0.02455067 0.049609736 -0.014219031 -0.026018457 0.039358504 -0.016447823 0.1371339 0.03779879
0.09489747 0.017388362 0.0060089356 -0.060019385 -0.033401992 -0.04591369 0.042237688 -0.009718213
0.05994349 -0.08072684 0.06239761 0.03811103 0.08517169 -0.059068434 -0.1640522 -0.098687366

shared_net.0.bias f4 [512]
00000000: f9b6 e8bc e9ae b93d f7b6 003d 270c 943c
00000010: 3cd5 cebd bc40 0dbd e1c0 3ebe e9e9 b3bd
00000020: 521e d53c 3bfd b13d 6480 25bd 8c0d 9fbd
00000030: a29c 63be 1bda cc3b 9f4e aebc ec31 26be
00000040: c870 06be 0c76 6cbe f547 903d 39e4 8f3a
00000050: 9b1d 33bd bc0c 1d3e f6f0 723d 1298 00be
00000060: 71bc c63d ebb1 aa3c 5674 7bbe 616a 613e
00000070: 7533 e1bd 5361 85bd 117f f6bd b440 c43d
00000080: 9501 883d e224 79bd 8bf1 56be f335 193d
00000090: c642 d0bb 7c63 f63d 3358 66bd 6b46 07be
000000a0: 5043 17be 2e29 2abe 2c9e f4bd ca19 633d
000000b0: 0995 e4bc d37d 9cbd b2ae c1bc 1c80 553d
000000c0: a859 81be ca6e 24be 2653 3ebb 2589 d5bd
000000d0: 56bb b73d cc5d 283e d17c 153d 550e 57be
000000e0: a7cc 87bd 2bea 423d a6da bdbc c9e9 18be
000000f0: b573 c23d 7691 bb3d db09 97bd 5ef1 0abd
00000100: a008 d4bc e2db 09be a3c7 d23b 0683 75bd
00000110: 5387 f53d e9c7 dcbc 7190 6cbd 908c a7bd
00000120: 9f4f 7cbd ac9c 6bbd 6162 84bd 1501 ad3d
00000130: 8845 a4bd 538c d53d 3da6 12bd 474c 9d3d
00000140: f858 eabd 0570 d9bd 1678 8e3b eb5a babe
00000150: c389 633d d9e2 5d3c 135f 86bd fb4e 89be
00000160: 8953 92be 1115 8dbe 6db7 41be 8fb1 63bd
00000170: e6bb 9fbd 21ee 8ebe 145e 36bd a3cf 0dbe
00000180: 454c 2dbe dc2e 513e a4a5 14bd 3f07 eb3c
00000190: 195c f33d 05d9 aebd 83dc d73d a95d 9dbd
000001a0: da3a 68bc 03d4 1dbe c28c d23d 9392 5d3d
000001b0: 83fa 7fbe 77ca 61bb 721d a33d c752 aebd
000001c0: 2a2b e33d d8a1 1d3e 3df4 90bd 00fb 6b3d
000001d0: 3a0e 293d 869f c23c 6565 a0bd 6f4f 22be
000001e0: e950 dcbb 3ac8 47be 2be6 913d 3c22 b5bd
000001f0: 7288 d3bd 9e04 11be 218d 99bd 101f 5ebe
00000200: d8a6 953d 5af9 31be 3042 a3bd aa8b bbbd
00000210: 4469 c1bc cdcd 4b3d 2bcf a63d b25b 183d
00000220: 8161 b1bc 7389 b13b 0437 a83c f392 45be
00000230: 520f 46bd 2134 203d bafc babd 62d5 e8bd
00000240: 4883 23be 4858 19be 9c9b 8dbd 2ef7 09be
00000250: 8250 e43d 0778 f33c 2eca 613d d19e 4abd
00000260: 6a7b 45bb f39b 683d 7c6e f5ba bed4 37be
00000270: 5d6c d0bd ce8c 33be 5d8b 0abd cf04 243d
00000280: 35f7 d83d d20e bcbd b5b7 b73d 8523 763d
00000290: 1302 1d3c f753 803c 5662 a73d bef3 a03d
000002a0: ab21 0c3e 66ea 3c3d f267 91bd c1f2 e2bd
000002b0: 4975 4cbe 019b 6e3d 86f7 3d3d a0be 9ebd
000002c0: fa52 bfbd 9f29 c0bb e484 983c 8f80 913d
000002d0: e3ef aabd f937 bbbc 2171 c73d 5244 23b8
000002e0: 6eeb a33d 6f7b e7bd 735a 0ebe ab1a c1bd
000002f0: 4892 a83d ab35 d1bd 9416 2f3e ca4d d33d
00000300: 667f be3d bd56 90bd 1855 6abd f61f 613e
00000310: e61c 573d 4567 3f3e 6882 023d 2c3c d5bd
00000320: c5bb 2dbe 3c1c d4bc 9932 debd ceae 79bc
00000330: 2706 9bbd 3d9e bf3d 4171 933c 5a96 f6bd
00000340: 6115 233d 7cde 77ba 086c c7bd 6a12 fb3c
00000350: 57bb 003d 4013 e1bd 6a2c 543e 8c47 82be
00000360: 7e92 533e 8d48 e2b6 2f13 f33b d6eb 62be
00000370: ccb9 7dbe 742a 4fbd 7100 1fbe 61fe e2bd
00000380: 1efd 5ebe 898e 693d d926 f9bd 339a 383e
00000390: c6e7 06be 5ebe 8abd c5f7 30be 97ad 0fbe
000003a0: b434 78be 17b0 06be 7459 95bd 1d0e 3a3e
000003b0: 05de 70bb a716 253d cd19 64be 2046 dc3d
000003c0: 43aa 7ebd 4fbc d43d 686c 1ebd 7f48 bdbd
000003d0: 15d0 f6bd ada1 fcbd 8ece 083a 1a8e 50bd
000003e0: eec6 f1bd 18f6 c1bd 6e02 403e c829 f5bd
000003f0: 0855 303d 61b4 48be 310d 883d d1b3 38be
-0.02840756 0.090665646 0.03142449 0.018072201 -0.10099265 -0.034485564 -0.18628265 -0.08784849
0.026015434 0.08690878 -0.040405646 -0.07766256 -0.2222772 0.006251586 -0.021277724 -0.16229981
-0.1312896 -0.23091906 0.07044975 0.001097805 -0.043729406 0.15336889 0.05931183 -0.1255801
0.09703911 0.020836791 -0.24556097 0.22013237 -0.10996143 -0.06512704 -0.12035955 0.09582654
0.06640927 -0.06082619 -0.20990579 0.037404966 -0.0063556163 0.12030694 -0.056236457 -0.13210456
-0.14771771 -0.16617271 -0.119442314 0.055444516 -0.027903097 -0.076411866 -0.023642872 0.052124128
-0.25263715 -0.16057888 -0.002904126 -0.10426549 0.08971278 0.1644203 0.036495987 -0.21001561
-0.06630831 0.0475866 -0.023175549 -0.14932932 0.094947256 0.09158604 -0.07374927 -0.033921592
-0.025883019 -0.13462785 0.00643249 -0.059939407 0.11988702 -0.026950793 -0.057754938 -0.08181107
-0.06159937 -0.05752246 -0.06464077 0.08447472 -0.080210745 0.10427155 -0.03580307 0.076805644
-0.11442751 -0.10617069 0.0043478115 -0.3639749 0.0555513 0.013542854 -0.06561103 -0.2681807
-0.28579357 -0.27555135 -0.18917628 -0.055589255 -0.07799511 -0.27916053 -0.044523314 -0.13848738
-0.16923626 0.20428032 -0.03629078 0.028689979 0.118828006 -0.08537487 0.10540106 -0.0768388
-0.014174188 -0.15412907 0.10280754 0.054094862 -0.24997906 -0.0034452954 0.079646006 -0.08511882
0.11092217 0.1539377 -0.07077835 0.05761242 0.041273333 0.023757707 -0.078318395 -0.15850614
-0.0067235124 -0.19509974 0.07123979 -0.0884442 -0.10328759 -0.14161918 -0.07497621 -0.21691537
0.073072135 -0.17380276 -0.07971609 -0.09157498 -0.023609765 0.049756814 0.08144983 0.037196822
-0.021652939 0.0054179966 0.020534046 -0.19294338 -0.048354454 0.039112214 -0.09130235 -0.113688245
-0.15968049 -0.14975083 -0.06914446 -0.13473198 0.11148168 0.02972032 0.055124454 -0.049467865
-0.0030133375 0.05678935 -0.0018724944 -0.17952248 -0.10176919 -0.17534181 -0.033824313 0.04004365
0.10594026 -0.09182514 0.08970586 0.060092468 0.009583014 0.015665038 0.08173053 0.0785899
0.13684718 0.046121977 -0.07099904 -0.11081458 -0.19966616 0.058253292 0.046378635 -0.077512026
-0.093419984 -0.0058643366 0.018618055 0.07104599 -0.08346536 -0.022853838 0.097383745 -3.8925857e-05
0.08003889 -0.1130284 -0.13901691 -0.09428915 0.08231026 -0.102153145 0.17098457 0.103175715
0.09301643 -0.07047794 -0.057210058 0.21984848 0.052517794 0.18691738 0.031862646 -0.104118675
-0.1696616 -0.02589237 -0.108494945 -0.015239431 -0.07569533 0.093563534 0.01799834 -0.12040396
0.03981531 -0.0009455455 -0.09737402 0.030648429 0.03142866 -0.1099 0.20720068 -0.2544521
0.20661351 -6.743771e-06 0.0074180583 -0.22160277 -0.24777907 -0.050577596 -0.15527512 -0.11083675
-0.21776244 0.057020698 -0.12165613 0.18027572 -0.13174352 -0.06774591 -0.17282017 -0.14031063
-0.24238855 -0.1315311 -0.072924525 0.18169446 -0.0036753428 0.040304806 -0.22275467 0.10755563
-0.062174093 0.103874795 -0.038677603 -0.09242343 -0.12051407 -0.12335525 0.00052187673 -0.05091677
-0.11805521 -0.09470767 0.18750927 -0.1197086 0.043049842 -0.19600059 0.06643141 -0.18037345

shared_net.2.weight f4 [256, 512]
00000000: 5500 f63d 488e a4bb 5508 993c e55d 173e
00000010: 21e9 99bc 94cf 76bd 2612 b3bc b815 0abc
00000020: 7d68 11be de74 33bd bcca 9ebe c1d3 86bd
00000030: ed79 dfbd d00f b73d 564a 0a3e 434c 41bd
00000040: 2b55 d4bd 5508 3dbd 45e5 94bb ec36 0bbe
00000050: 88d7 e7ba a42f 073e 88f2 a9bd fa06 3abe
00000060: 6e10 3cbd b89d 313d c545 f9bd 8ee2 cebd
00000070: 00d7 52be f079 08bd 80f6 14be 1cb0 d73d
00000080: 9fae b63d 9190 c5bd 311c 993d 8df5 843d
00000090: 5f01 803d aec6 853d 8ac8 6dbb e528 433e
000000a0: 2f13 c9bd 401c 843d c2ee fabc d066 8abe
000000b0: 9dea 40be ecc8 2dbe c8a0 ccbe bad7 2c3d
000000c0: 1ce2 643e bff7 34bd 92e8 c63d 6ace 23bd
000000d0: 6384 2d3e dbfa c6bc 6366 193e 4aa4 dabd
000000e0: fddd 88be 1619 d33c 999a 293d c9ca 98bd
000000f0: dae5 13be a446 593d 68ec 05be 4646 d0bc
00000100: 41ef 62bd e797 843d 3d63 2b3e fbaf 81be
00000110: d1dd c53c 749b 86be c651 2fbe a6aa 02be
00000120: fdfe 4b3e d33a d3bc 4caf 2b3d 3d47 3fbd
00000130: 44c1 053d 3f51 47bd c48c 17be 09f5 513e
00000140: d8b7 33bd feb9 223e 79da 15be 4c9a 19be
00000150: 15ea 533d fbe4 cbbd 3a22 f53d 707f 27be
00000160: deed 413d ab91 e0bd b4b9 8bbe bd5e d6bd
00000170: e76b 053e 8352 e2bd 6a3e 77bd fdd4 0dbd
00000180: 033a 713e ac7d 3a3e f428 13bd ba1c 18be
00000190: 17b3 703c af23 0bbe b735 41bc 1fe5 c43d
000001a0: 3327 cfbd 0315 143e 1b20 02be 9538 dc3d
000001b0: c3e8 edbd dbd6 733b 9033 78bd 286b b8bc
000001c0: 53c9 e5bc e354 77bd 6949 a43e c686 81bc
000001d0: 5277 363e 7777 78bd ae1d cf3d 504f d5bd
000001e0: 16d1 063d ef1d 26be bd82 d8bd c1da b33d
000001f0: 2de2 60be 96b9 e63c 2466 74bd ce9f b33c
00000200: fb42 a8bd ac5f bfbd ce05 fd3b b215 323e
00000210: d221 80bb f06e 62be 6b6c f1bc bf3c 45bd
00000220: 6be7 173d f8ec 8d3d c4e3 0a3e 57a9 6fbd
00000230: 5582 0c3e b607 8fbe 41eb 493d 1bb2 94bd
00000240: b8dd 37be 3041 54be 62c6 cb3d 152d 5bbd
00000250: 83b3 3e3e 9664 653c 6551 833d 6f27 543e
00000260: 0b99 8abd e09e 2abb fb4f 483d e254 ec3c
00000270: 4014 9e3d 118a ec3b 316f 2dbe c46a 6d3d
00000280: 6fe9 8d3d 1f3b 56bd 3811 f2bb 5c4c 21bd
00000290: 298b 23be 0747 96bc f783 d8bd 511a 39be
000002a0: 07c7 ac3c f187 39bd 61dc b5bd 0bf8 adbd
000002b0: 5d2d 7fbd d753 95be 6a0f a23b 423f 04bd
000002c0: 5d87 6c3d ae7d b8bd d663 96bd 1c72 363d
000002d0: b85c bc3d 8831 7ebc 29e1 b3bd fc47 103e
000002e0: 51f9 a0bd 4c1c 153c 4828 8cbd 9e18 a03d
000002f0: 2a1a 483e d85e c13c 704f 1dbe 2d82 9a3e
00000300: d517 04be 53e4 1cbe 6a64 2a3d 760b 0c3e
00000310: 0891 383e 8e76 e53c 64d5 84bc 4f95 f7bd
00000320: 77ae 0b3e d229 8abc dbe2 1fbe 75fc c2bd
00000330: 0bda 493b a4b3 3dbe e217 363b b7c7 153e
00000340: 790e 873e 736a b0bd 56d7 80bd 9787 b1bd
00000350: 8c01 09bd 7359 b1bd fd7a b63d c348 efbd
00000360: 72d8 d4bd 9690 51be 44ad 1d3d 7dc8 7ebd
00000370: a557 e6bd 9120 4d3c 9b9a 763c b3ff 88be
00000380: 157e 263e c991 57bc e83d bbbd 72c9 8bbb
00000390: ddee 10bc 462f 04be 0e7d a9bd a86d febc
000003a0: 6592 fbbc 2063 5cbb 456a 46bd 7f54 b8bd
000003b0: e736 88bd 8efc 3dbc 0c38 e0bd 6b24 aa3d
000003c0: 92be 52bc fba0 c93d c70b edbd e423 e8bd
000003d0: cd60 3f3a 53f2 f2bc d9f9 04bd a644 1bbd
000003e0: f48f 2ebd b7d6 7ebd fc7d 7c3d 17fd 9c3c
000003f0: 6aa5 3c3c ed5f cbbd f9ee 86bd f659 2e3e
0.12011782 -0.005021844 0.01868073 0.14781912 -0.018787922 -0.060256556 -0.02185924 -0.00842803
-0.14200015 -0.043812625 -0.3101405 -0.065833576 -0.10911927 0.08938563 0.1350492 -0.04719187
-0.10367807 -0.046150524 -0.0045439326 -0.1359517 -0.0017688135 0.13201767 -0.08298212 -0.18166724
-0.045914106 0.043363303 -0.121715106 -0.101018056 -0.20589828 -0.033319414 -0.14547157 0.10531637
0.08920025 -0.096467145 0.0747608 0.064921476 0.062502615 0.06532036 -0.003628286 0.19058569
-0.09818112 0.06450701 -0.030631427 -0.27031565 -0.18839498 -0.16971177 -0.39966416 0.04219792
0.22351879 -0.04418158 0.09712328 -0.039991774 0.16945033 -0.02428954 0.14980464 -0.10675867
-0.26731864 0.025768798 0.0414072 -0.07460553 -0.1444315 0.053045884 -0.13078463 -0.025424134
-0.05540395 0.064742856 0.16737075 -0.25329575 0.024153622 -0.26290476 -0.17121038 -0.1276041
0.19921489 -0.025784886 0.041915223 -0.046698797 0.032655016 -0.048661467 -0.14799792 0.2050363
-0.0438765 0.15891263 -0.14634122 -0.15000266 0.05173691 -0.09955784 0.11969419 -0.16357207
0.04734599 -0.10965284 -0.27290118 -0.10467289 0.13029443 -0.11050894 -0.060362257 -0.03462695
0.23557286 0.18212003 -0.035927728 -0.14854708 0.014691136 -0.13587831 -0.011792592 0.09614014
-0.101148985 0.1446114 -0.1270756 0.1075298 -0.116166614 0.0037206921 -0.06059605 -0.022512034
-0.0280501 -0.06038369 0.32087258 -0.015811335 0.17818955 -0.060660806 0.10113083 -0.10415518
0.032914244 -0.16222356 -0.10571811 0.08781958 -0.21961279 0.028164666 -0.05966772 0.021926787
-0.082159005 -0.0934442 0.0077216392 0.17391089 -0.0039102817 -0.22112632 -0.029470643 -0.048153635
0.03708593 0.06929964 0.13563448 -0.058511104 0.13721593 -0.2793557 0.04929662 -0.072605334
-0.17955673 -0.20727992 0.09949948 -0.05350979 0.18623166 0.014001032 0.06412009 0.20718168
-0.06767472 -0.0026034638 0.0489044 0.028849069 0.07718706 0.0072186072 -0.16936947 0.057963148
0.069292895 -0.052302476 -0.0073873065 -0.039379463 -0.15971054 -0.018344415 -0.10572045 -0.18076445
0.021090997 -0.04529566 -0.088799246 -0.08494576 -0.06229912 -0.29165527 0.004945685 -0.03228689
0.05774628 -0.090083465 -0.07343261 0.044542417 0.09197372 -0.015514739 -0.0878318 0.1408996
-0.07860053 0.009100985 -0.068436205 0.07817195 0.19541231 0.023604795 -0.15362334 0.3017744
-0.12899716 -0.15321474 0.04159967 0.13676247 0.18024075 0.028010633 -0.016215034 -0.12089025
0.13640772 -0.016865645 -0.15613882 -0.095208086 0.003080013 -0.18525559 0.0027785231 0.14626966
0.2637823 -0.086140536 -0.06291072 -0.0866844 -0.03344874 -0.08659639 0.08910177 -0.116838
-0.10392846 -0.20465311 0.038495317 -0.06220292 -0.112471856 0.0125199715 0.015051509 -0.26757583
0.16259034 -0.0131573165 -0.09142667 -0.0042659575 -0.008846012 -0.12908658 -0.082758054 -0.031058148
-0.030709455 -0.003362842 -0.04844119 -0.09000491 -0.06651097 -0.011595858 -0.1094819 0.083077274
-0.012862818 0.09845158 -0.11574512 -0.113349706 0.0007300496 -0.029656565 -0.032464836 -0.037907265
-0.042617753 -0.062216487 0.061643586 0.019163651 0.011514047 -0.09930406 -0.06588549 0.17026505

shared_net.2.bias f4 [256]
00000000: 5c46 5f3d 1d76 46bd ab8d bbbd a4ea 823c
00000010: 4663 2f3d a53b 0e3e fc8e 8fbc ecff f6bd
00000020: a088 7bbd 1512 39be 751f c1bd 80c8 5a3d
00000030: 1e30 29be cfa4 d7bd 24be 80bd fba6 18bc
00000040: 6cfc b2bd e6d2 623c aa54 98bd 6575 7abd
00000050: bcf7 353d a771 87bd 2017 52be 7935 d23d
00000060: aa88 673d ff65 2bbd fbc1 cabb da41 06be
00000070: 2b63 c6bb b569 68bd 301f 21be c76a 2dbd
00000080: 8042 a0bd f535 5cbe d7ec 66bd 882a 4cbe
00000090: 1b0e d1bc fbc5 ebbd 8efe 5dbd 681b ed3d
000000a0: 20db 53be 66ab 59be bc30 63be 007c 8e3b
000000b0: 850a 41be 947d 01be 6c7b c8bc da5f 0cbe
000000c0: 7187 7dbd 70c7 81bd 1936 f5bd 5788 9f3e
000000d0: cc01 f3bd 1b54 283c ce93 56bd d6d1 d0bd
000000e0: ab8e c6bd 0993 19be bc2b a7bd 0c3d c4bd
000000f0: 527b 47be 1009 43bd 5264 353c 3758 39be
00000100: 2f65 b2bd 3dbc f8bd 8054 11be cd23 0ebd
00000110: 290d 0bbe f3d8 d03d a728 3bbe b3fa a6bd
00000120: efa4 a93d cdf0 cdbc d2b1 b0bd 45e2 78bd
00000130: 12a1 3e3d 4baa e8bb 88f9 41be 755f 033c
00000140: 6152 a4bd 0bb0 043d 7363 12be d122 533e
00000150: daba 30be df96 ab3d b42b 113e e040 56bd
00000160: 6c14 e43d b0f1 58bd b7dc d0bd 1151 5fbd
00000170: baf7 83b9 b459 3dbe 19f9 26be 0ba3 60bd
00000180: ca63 50be 7e13 08be ae9e 8ebd c32a b0bd
00000190: 3cb4 773d 731a e0bd a1f5 2ebe a1b8 febd
000001a0: 4911 e23c 71e3 b93d 6683 3fbd baca f5bc
000001b0: 65a0 55be 1923 c3bd b991 d4bd ee81 45bd
000001c0: 2bea bbbc 8023 0ebe a4f6 333d b59c 5ebd
000001d0: b4d1 aa3d 7687 b8bd 167c 06bd 40f8 ac3d
000001e0: f1a9 9a3b 0e09 cfbd 917f c7bd a252 01be
000001f0: 1f83 f53c 313b a6bd 1e01 35be 3fd9 63bd
00000200: 773e 6b3d 0692 c13c f069 28bd a570 53be
00000210: f57e 73bd 5fbd 04be 7097 033e 9fb4 e8bd
00000220: f083 13be ba62 35be 4005 863b c403 dcbd
00000230: 1e37 ebbd 8603 04be fbfb 07be fd72 13be
00000240: c2df 24be af38 853c e9b3 713e a72d 2dbd
00000250: 24a0 8abd 5730 90bd c10f 78bd c8df d03d
00000260: 89f1 3ebe 2771 26bc 285f 623b 9c49 28be
00000270: bf4e 6dbe a349 05be 725b 1abe cedc d6bd
00000280: a24d 68bd 3df5 fabd 76d4 943d e098 1b3d
00000290: 161f 11be 2ad1 04be 885a 99bd 4115 cfbd
000002a0: 46c5 243d 6f1a 16be 08c4 d53c 2118 22be
000002b0: 901b abbd eb9f aebd d7f1 abbd eab6 79bd
000002c0: 5031 32be 66c0 10bd 09cc 0b3e fea2 2cbe
000002d0: 2528 16be a87f 47be dd2b 5abd 5ab4 e1bd
000002e0: 673d ecbc df72 40bd 7e3b 32be 6774 183e
000002f0: 56a5 4fbd 1f17 f4bc cb91 933d e203 e2bd
00000300: 38f0 ff3d b145 06bc 711f 22be d6c1 cd3b
00000310: 6973 a3bd cd77 21bd 66ed 25be 959d 8dbd
00000320: 5c1c 29bd 17b3 07be bedb 5bbd 74a9 1abc
00000330: 8823 8fbd aeee 09be fd0a 6fbd 4817 25be
00000340: 4a66 60bd f318 08be a95f 2ebe c01b 20be
00000350: 04d4 693c 5b82 21be 38d6 3cbd 3779 ffbd
00000360: a112 dbbd 55a1 b9bd 9b95 b83d c391 3ebd
00000370: 54c6 50be e660 10be be13 22bd d755 683c
00000380: 2254 8d3d f585 c4bd 245d 87bd 2ceb 95bd
00000390: 54bc cbbd 6c66 acbd 3d08 c1bc 5563 87be
000003a0: 339d e83d 90bd c0bd 8694 59bd 429f 0ebe
000003b0: 3569 85bd fa2f 04be 2372 353e 06a7 d6bc
000003c0: 280b 9cbb 575c 73bc dab2 dbbd ab9c 81bc
000003d0: be51 04be b0fe 1fbe 782f 0f3e 86e2 bcbd
000003e0: c202 52be c80e 0dbd 5acc 28bd ac3b ee3b
000003f0: b929 e4bd b922 3ebe ba40 a4bc cd73 19be
0.05451046 -0.048452485 -0.091578804 0.015981026 0.042819284 0.1388994 -0.017524235 -0.12060532
-0.061409593 -0.18073304 -0.09429828 0.053413868 -0.16522262 -0.105294816 -0.062862664 -0.009317155
-0.08739552 0.013844227 -0.074380234 -0.061147112 0.04442571 -0.06613474 -0.20516634 0.10264105
0.056526817 -0.041845318 -0.006187675 -0.13111058 -0.006054302 -0.056741435 -0.15734553 -0.04233816
-0.07825184 -0.21504958 -0.05637821 -0.199381 -0.025519421 -0.11512371 -0.05419784 0.11577493
-0.20689058 -0.2125679 -0.2218656 0.004348278 -0.18851669 -0.1264556 -0.024472915 -0.1370844
-0.061896745 -0.06336868 -0.11973209 0.31158707 -0.11865577 0.010273959 -0.05238705 -0.10196273
-0.096951805 -0.14997496 -0.081626385 -0.09581956 -0.19480637 -0.047616065 0.0110712815 -0.18100058
-0.087107055 -0.121452786 -0.1419239 -0.03470211 -0.13579239 0.1019763 -0.18277226 -0.08153286
0.08283412 -0.025139237 -0.086276665 -0.060762662 0.046540327 -0.0071003786 -0.18942845 0.008018364
-0.08023525 0.03239445 -0.1429575 0.2061875 -0.17258778 0.08378386 0.14176828 -0.052307963
0.11136708 -0.052964866 -0.10198348 -0.05452067 -0.00025170838 -0.1849125 -0.1630596 -0.05484299
-0.20350567 -0.13288686 -0.069638595 -0.08601906 0.06047462 -0.10942545 -0.17085887 -0.12437559
0.027596133 0.09076584 -0.04675617 -0.030003894 -0.20861967 -0.09528179 -0.10379357 -0.048219614
-0.022938808 -0.1388073 0.043936387 -0.054348666 0.08340779 -0.09010212 -0.03283318 0.084457874
0.0047199656 -0.10109149 -0.09741128 -0.12629178 0.02996975 -0.081167586 -0.17676207 -0.055627104
0.057432618 0.0236292 -0.041116655 -0.20648439 -0.059447248 -0.12962864 0.12850738 -0.11362576
-0.14405799 -0.17713442 0.0040899813 -0.10742906 -0.11485122 -0.12891969 -0.13279717 -0.14399333
-0.16100982 0.01626238 0.23603787 -0.042279866 -0.06768826 -0.0704047 -0.0605619 0.10198933
-0.18646826 -0.010158814 0.003454158 -0.1643433 -0.2317457 -0.13016371 -0.15073946 -0.10491334
-0.05671466 -0.12253807 0.07267086 0.03798759 -0.14172015 -0.12970415 -0.074879706 -0.10111476
0.040227197 -0.14658521 0.026094452 -0.15829517 -0.083548665 -0.08526596 -0.08395737 -0.060965456
-0.17401624 -0.035339735 0.13652052 -0.16859052 -0.14663751 -0.1948229 -0.053264488 -0.110207275
-0.028837873 -0.04698455 -0.17405507 0.14888154 -0.050694786 -0.029796181 0.07205542 -0.11035897
0.1249699 -0.008195327 -0.15832306 0.0062792106 -0.07980997 -0.03942089 -0.16203842 -0.06914822
-0.04128681 -0.13251911 -0.05367636 -0.009439815 -0.06989199 -0.13469955 -0.05836009 -0.16122162
-0.05478505 -0.13290767 -0.17028679 -0.15635586 0.01427174 -0.15772383 -0.046102732 -0.12474292
-0.106969126 -0.09063975 0.0901291 -0.046525728 -0.20388156 -0.14099464 -0.03956961 0.014180622
0.06900813 -0.09595863 -0.06609562 -0.07320246 -0.0994803 -0.08417973 -0.023563499 -0.26442972
0.11358108 -0.09411156 -0.05312016 -0.1392794 -0.06514207 -0.12908927 0.17719321 -0.02620269
-0.004762072 -0.0148535585 -0.107274726 -0.015821775 -0.12921807 -0.156245 0.13982952 -0.092228934
-0.20508865 -0.034437925 -0.04121051 0.007270297 -0.111407705 -0.18567933 -0.020050395 -0.1498558

to_mean.0.weight f4 [128, 256]
00000000: 0b97 a63d 4483 c93b dc75 11bd 2d20 26bd
00000010: 4c26 a7bb 0cdf 9ebd 82cd 1c3d 9d62 87bd
00000020: d626 8dbc 7c85 31bc f3f3 223d a42c 29bd
00000030: 6e1a 223d d191 03bc 8c34 163d 98a7 afbc
00000040: 62f3 b8bc 2b24 8abc aa18 b43c aae6 f5bc
00000050: 0fca 043d f813 423d 443b 5e3d 1bce 223d
00000060: 8c10 61bd 9a45 8cbd 371c 4fbd 8e00 19bd
00000070: 3acc 30bd b2b0 9cbd d249 3a3b 44e4 a23b
00000080: e50f 773d 7e52 b0bc 4964 5fba 3c8e 3f3d
00000090: b592 4d3d 5f4c 00bd 7296 57bc 1e78 9fbc
000000a0: d21b 003d cd1f 1e3c b035 8e3d a109 97bd
000000b0: a078 bfba 0292 02bd 9cd2 5ebd c752 643d
000000c0: 1647 9dbd f3b5 9ebd 7be0 30bc 5e6a c9bc
000000d0: 61d8 a03b 9954 3dbc e19e 973d c64a bcba
000000e0: a8f3 12bc 87eb fb3b 903a e0bc e47a 043d
000000f0: ba6a fbbc 2ebc 5cbd e049 a8bc 33bc 3b3c
00000100: 7a94 073c d54a a13d 290b 4dbd f8ab 09bd
00000110: d93f 313c 0b10 1d3d 0098 43bd 7db4 7fbb
00000120: dd68 f33d e878 5d3c 5462 48bd 6b8f 46bd
00000130: b3fc 91bd 0467 b13c 8347 a4bc a637 263c
00000140: 4e28 d4bc 8bcb 9bbd 4389 813d 1eb2 143d
00000150: 6bc7 67bd 9bc6 cabc 8423 80bd c3f5 7ebc
00000160: 7ca6 7d3d 9ca4 f9bb dd39 a9bc c49d 44bd
00000170: 9b72 833d 1735 13bd e368 d9bc 1adf 913c
00000180: b744 e7bc 629a 6e3c b87a 8a3b 5214 74bc
00000190: 709b 9c3c a97b 51bd ff45 37bd a055 203d
000001a0: 2c1d 61bb d94f abbd 8f99 07bd 4a39 65bd
000001b0: df12 323b bdf9 e1bc fb9a 8d3c 8021 32bd
000001c0: 0d38 b2bd cec5 0e3d 70d0 9a3d aaa2 a6bc
000001d0: 3901 a4bb 530a d13c 984a efbc 2c62 6a3d
000001e0: 2aff 1ebd 2487 3f3d 9caa 98bc 65d8 6dbd
000001f0: ddbc 54bd 1605 12bc cf94 4e3c 56c1 90bd
00000200: 5aa2 c2bd 4980 c53d 02cf 3fbc 7f5f 3f3c
00000210: c471 143d 009f 59bc 2abf 19bd 6f67 243c
00000220: 2c73 60bc 5811 d5bc 57d5 5a3c 2e23 27bb
00000230: e109 77bb 68bc 313c 4557 36bd dfa8 89bc
00000240: 6098 dc3c b02b aebb 8542 bcbd 1973 e4bc
00000250: 9c43 63bd 0cf6 60bc f24d e2bd 4357 333d
00000260: 5da3 323d 28a0 56bd f14d 88bc 28bf 413c
00000270: b308 823c 6576 83bc 8f33 17bd 40f1 603c
00000280: a487 c0bc 2ebf 18bd 289b e03c 8635 033d
00000290: c283 53bb e2ff b03d 4fe9 cebc fe11 a53b
000002a0: 2639 d9bc 6f64 fd3b 4835 2b3c 3522 dbbd
000002b0: d13d ec3c 484b c7bc f9dc c43a 7c3b 05bd
000002c0: 326c 893d 6fa0 3cbc 22c1 fe3c ba1d 1e3d
000002d0: 9207 403d 1a43 a53c 041a 98bc c76a 713c
000002e0: 30b0 39bb e1f1 713c 5a1e 8e3d a567 1dbd
000002f0: eace a13b 0f3a ce3d fcd9 323d fc2d 4b3d
00000300: ce6b afbd 9570 c4bc 49b3 80bd cb88 69bd
00000310: 5a99 52bd c3cf ee3c c905 6bbd 8a37 c9bc
00000320: d444 233d 4cef 4bbc a594 993c 93bd 6a3a
00000330: 6490 813c af90 acbc 361b c63c 6216 1b3d
00000340: a23f dfbb 413e f0bb fdee 8abc 8dd2 f53c
00000350: e60b cebd 04a6 0b3d 2d3b 3c3d 5a55 82bd
00000360: 2046 863c 48ad b33d 8c44 0dbd f181 97bd
00000370: 238f 8b3c c68c 6cbc 4726 b6bd b621 353d
00000380: 7b38 2b3d 04b6 133d 9353 f93c 6899 e4bc
00000390: 8932 edbc d68f 8e3d 0c81 13bd ff05 a7bd
000003a0: c537 a7bd aeee 09bc a68f b23c 3d82 a03a
000003b0: 7051 ae3c 3691 5fbd daed 203d 952a 9fbb
000003c0: b35f 0dbd c52d e63c 90be 11bd 7037 543d
000003d0: e1e1 533d c7c2 a93d 7ce2 c73c 9fe9 4bbd
000003e0: f399 663c 3de0 8abd 65dc 35bc 3687 9cbd
000003f0: d9f8 623c c471 893b d90c 87bd bfb0 a4bc
0.08134278 0.0061496813 -0.03551279 -0.04055803 -0.005101001 -0.077573866 0.038281925 -0.06610606
-0.017230432 -0.010835048 0.03978343 -0.04130234 0.039575987 -0.008030371 0.036671206 -0.02144222
-0.022576991 -0.01686295 0.021984417 -0.030017216 0.03241926 0.047382325 0.05425574 0.03974734
-0.05494742 -0.06849213 -0.050564017 -0.037354045 -0.043163516 -0.076508895 0.0028425348 0.004971059
0.060317893 -0.02152371 -0.00085217186 0.046766505 0.05018874 -0.031322833 -0.013158428 -0.019466456
0.03127653 0.009651137 0.06943834 -0.073748834 -0.0014608093 -0.031877525 -0.05440007 0.055743005
-0.07679574 -0.07749548 -0.010795708 -0.024586853 0.004908607 -0.011555814 0.074033506 -0.0014365546
-0.008969225 0.007687989 -0.027371675 0.03234376 -0.03069054 -0.0538904 -0.020543039 0.011458444
0.008275146 0.07875601 -0.05005947 -0.033611268 0.010818445 0.038345378 -0.04775238 -0.0039017492
0.118852355 0.013517596 -0.048921898 -0.048476618 -0.07128277 0.021655567 -0.02005363 0.010145104
-0.025898125 -0.07607182 0.06325009 0.03630268 -0.056586664 -0.024752906 -0.06256774 -0.015561524
0.06192635 -0.0076185 -0.020657474 -0.04800202 0.06418344 -0.035939302 -0.026539272 0.017806578
-0.028231008 0.014563175 0.004226055 -0.014897423 0.019117087 -0.051143322 -0.044744488 0.03914416
-0.0034349663 -0.08364839 -0.03310543 -0.05596284 0.0027171893 -0.027584905 0.017285815 -0.04348898
-0.08702097 0.03485661 0.075592875 -0.020341236 -0.0050050286 0.025517618 -0.029210374 0.05722253
-0.038817562 0.04675974 -0.01863604 -0.058067698 -0.051937927 -0.008912345 0.012608721 -0.07068126
-0.09503622 0.09643609 -0.011707069 0.011680483 0.036241308 -0.013282537 -0.037535824 0.010034426
-0.013699334 -0.026009247 0.013356528 -0.0025503146 -0.0037695097 0.010848142 -0.04451682 -0.016804157
0.026928127 -0.0053152665 -0.09192375 -0.027886914 -0.0554844 -0.013730537 -0.11050023 0.04378439
0.043612827 -0.05239883 -0.016638728 0.01182536 0.015873289 -0.016047666 -0.036914404 0.0137293935
-0.023502178 -0.0372917 0.027417734 0.032033466 -0.0032274579 0.08642556 -0.025257735 0.005037545
-0.026516508 0.00773292 0.010449715 -0.10699884 0.02883807 -0.02432789 0.0015019468 -0.03252743
0.0671009 -0.01151286 0.031097952 0.03860257 0.04688222 0.020173598 -0.018567093 0.01473493
-0.0028333776 0.014767141 0.06939383 -0.03842892 0.004937996 0.100696675 0.043664917 0.0496044
-0.08565484 -0.023979465 -0.06284196 -0.05701522 -0.05141578 0.029151803 -0.057378564 -0.024562616
0.03986056 -0.01244719 0.018747637 0.00089546404 0.015815921 -0.021065084 0.024182897 0.037863143
-0.0068130055 -0.00733164 -0.016959662 0.030007625 -0.10060863 0.03409387 0.045954872 -0.06363936
0.01639086 0.08773285 -0.0344892 -0.07397831 0.017036026 -0.01443786 -0.088940196 0.044221602
0.04180191 0.036062256 0.03043536 -0.027905181 -0.028954761 0.06961028 -0.03601174 -0.081554405
-0.08164934 -0.008418722 0.021797013 0.0012245845 0.021279067 -0.054581843 0.039289333 -0.004857371
-0.034515094 0.028097996 -0.035582125 0.05181068 0.051729087 0.08289104 0.024399988 -0.049783345
0.01407479 -0.06781051 -0.011099909 -0.07642977 0.013853275 0.00419447 -0.06594247 -0.02010381

to_mean.0.bias f4 [128]
00000000: a55c 4b3d 2c4c 6abb ae3a 5abc 2e2b 8ebd
00000010: 10a0 74bd 2328 d9bc 4944 a6ba e2aa 0b3d
00000020: dec2 bf3b ba1f 62bc 1bc9 97bd be31 bfbd
00000030: 9d88 6ebd b5f5 223d 76e8 b3bc 5a88 3dbd
00000040: 9e11 1f3d 57ac efbc 690f 383d 9a6c a5bd
00000050: f073 af3c 7fea 69bc 6fa8 273d bbad ae3a
00000060: 2d1a b4bd 82f6 833c ecd9 f9ba e761 88bc
00000070: be35 5c3c 680d 4cbd b447 5abd d305 283c
00000080: cc9e 04bd 507a 0f3c 79c3 b8bd 5495 5ebd
00000090: 0db3 793c 190a 97bd e6de 84bd 0cea 9cbd
000000a0: abe1 3b3d 2b96 753d 9a8d a7bd 238a 42bd
000000b0: 7583 353d 98df b9ba 1e52 0ebc 7592 853c
000000c0: e176 67bd ef6e aebc 1867 363d 0bf7 09bd
000000d0: 52ac 653d 4345 48bd 5cc8 99bd ed85 57bd
000000e0: 805a d43c f559 adbd 7d76 af3c 105b 7dbd
000000f0: 8cef 433d c175 a7bc 6eb2 5ebc 5ca5 69ba
00000100: ba2d d1bd ec11 a83c 2a32 8a3d b395 e1bd
00000110: ede9 9dbc 4210 0abb 49e1 2ebd 5800 12bd
00000120: f410 b03c 203c 58bd cd70 d4bd 3540 093d
00000130: 814d 33bd 41d5 7abd 99b5 433b 663f 39bd
00000140: 49e5 f03c f41e dd3b acca 2738 24f2 63bc
00000150: e28f 983b c0c9 27bd a377 533a 8fd4 2cbd
00000160: b834 2a3d 4813 d5bc be45 283c fdd9 edbc
00000170: 94d6 a1bd b421 a7bd 7e42 dabb 77e9 32bc
00000180: 8325 bdbb ddbb f4bc 99de a9bc e39f 953c
00000190: 0adc bfbd e731 923d de72 39bd 45e4 cb3c
000001a0: e602 d5bc 006c a1bd 8f10 8abd 7c65 8dbd
000001b0: 493c 993d e1d9 243d 3b3b 873c accf 71bd
000001c0: a4b6 0f3d d035 62bd 568d 13bd d02a 0e3d
000001d0: 875c 953c a721 5fbd ca94 04bd a036 0d3d
000001e0: 7f49 e63c 1c49 a7bd 2873 25bd 33f7 e33c
000001f0: 0c3d 193d 21a3 71bc a4d1 b73c 17ea 863c
0.0496489 -0.0035750968 -0.013319654 -0.069418296 -0.05972296 -0.026508396 -0.0012685145 0.034098513
0.0058520874 -0.0138015095 -0.07411405 -0.093356594 -0.058235753 0.039785106 -0.021961432 -0.046272613
0.03883516 -0.029256983 0.04493657 -0.08077355 0.021417588 -0.0142771 0.040932115 0.0013326922
-0.08794055 0.016108755 -0.0019062138 -0.016648246 0.0134405475 -0.049817473 -0.053291038 0.010255295
-0.032378003 0.008757189 -0.090216585 -0.05434163 0.015240443 -0.07374973 -0.06487827 -0.076618284
0.04586951 0.059957664 -0.08181305 -0.04749502 0.04431482 -0.0014181016 -0.00868657 0.016305188
-0.056509856 -0.021293132 0.04453191 -0.033682864 0.05607254 -0.048894178 -0.07508919 -0.052617956
0.02592206 -0.084644236 0.021418804 -0.061854422 0.04783587 -0.020441892 -0.013592346 -0.0008912885
-0.102138 0.020516358 0.06747849 -0.11014881 -0.019276584 -0.002106682 -0.042695317 -0.03564486
0.021492459 -0.052791715 -0.103730775 0.0335085 -0.043775085 -0.06123853 0.002986288 -0.045226477
0.029406207 0.0067480747 4.0004656e-05 -0.013912711 0.004655824 -0.04096389 0.00080668385 -0.0421949
0.041554183 -0.02601017 0.010270534 -0.029034609 -0.07902256 -0.08160725 -0.0066607585 -0.01091992
-0.005772294 -0.029874736 -0.020736026 0.018264716 -0.09368141 0.07138424 -0.04527556 0.02488912
-0.026002359 -0.078819275 -0.067414396 -0.06904122 0.074822016 0.040246848 0.016507735 -0.059035942
0.03508629 -0.0552271 -0.03602346 0.034708798 0.018232597 -0.054475453 -0.03236846 0.034475923
0.028111218 -0.081682414 -0.040393025 0.027827835 0.037411734 -0.014748366 0.022438832 0.016469045

to_mean.2.weight f4 [18, 128]
00000000: 0707 c2bc ffc8 bd3b 9fa6 d93c 5f50 76bd
00000010: aa47 13bd d57a 36bd 8184 e8bc 0ec2 10bd
00000020: c1ea e5bc 27ec 1a3b bb06 aebc c3d5 1abd
00000030: 2d58 b1bc faba 01bb ae18 d5bc 303c 1a3c
00000040: dfb0 d9bc 954b 10bd 3509 19bd 29d8 763b
00000050: 2268 32bd 69ca 33bd 7b09 62bd d6c0 2f3d
00000060: 6f6c 55bc dee1 203d b4a4 f7bc 888a 11bd
00000070: 0ce0 bbbc e767 12bd 0bd8 e53c 64a6 dbbc
00000080: 828f 40bc c88e f6bc 5021 d7bc 50f3 f33b
00000090: ce0d 64bc 5be5 8ebc 2c41 c3bc 4991 b6bc
000000a0: 4bca dbbc 7185 57bd ce57 d33b 8125 05bd
000000b0: 95f8 a9bc d2b4 7dbd dd75 a2bc 09f8 28bd
000000c0: 39a4 2ebd 9e4a f7bb ee78 c3bc ec4a c3bc
000000d0: 0373 d7bc 2b6b f1bc b006 2cbd 308a 2cbc
000000e0: 8e63 bb3c 528d 9fbc b5c0 46bd da03 abbc
000000f0: cd4f d0bd 3c2c 35bd 8f13 16bd 14ab 1abd
00000100: 8e38 7dbd 6fad 01bd 720a ebbc 1197 3bbd
00000110: 9eff 00bd 3e2e 2bbb ff1e 93bc 20ca df39
00000120: 922d 69bd dbe6 27bd b5ce dcbb 812a 1ebb
00000130: 6c57 e4bc 2976 15bd 4bca 03bd 6258 24bd
00000140: 4d9e d1bb 4346 063d e058 d0bc 3447 66bd
00000150: c1c3 d8bc 4c98 dfbc f93b 08bd 6369 003d
00000160: 1f51 54bd bffb b8bc 3d13 87bd 18ce bcbc
00000170: 39ac 2bbd 0511 b5bc 55d5 c23c ca0f 24bd
00000180: 86bc 8b3a 1c89 493b 1f6b 46bd 5496 4fbd
00000190: 6c37 e2bc 81cf 04bd b637 8abc 2c44 f43c
000001a0: 05a2 64bc 108d aebc 300a 98bc db01 24bd
000001b0: ff0b f53c 206e d1bc 9fd6 11bc 8b13 0bbd
000001c0: 2a89 adbc 3c42 dabc b055 a4bc 924d d6bc
000001d0: 1f64 afbc eaaa 13bd c69b 66bd ef67 edbc
000001e0: 7551 8fbb f417 a3bc c2b6 0bbc a1a7 c0bc
000001f0: 2fde 6dbd 458b 47bd bf28 163d 3a2c 31b8
00000200: 049f 583d ab4d 143c b128 0d3d 1dee cb3b
00000210: 81fe 223d 26cf de3c f31f f63c 5afb 9c3c
00000220: 9e7c 1d3d 05fe c3bc f1b4 093d 7b59 913d
00000230: cc1e 19bd 1d5a 163d 1cfb 0abd bfa8 cc3c
00000240: 8dc0 ffbb 56af 6dbc a1e2 fb3c 2aa9 023d
00000250: f3b8 133d 9391 483c f28a 743d b380 033d
00000260: 5d2a 39bc 2112 c7bc 6bff 4f3c 1674 6f3c
00000270: 7f5a 31bc 52fd 9a3c 2e9d bb3c 789f cc3b
00000280: 760b c03c fd7b 373d fb12 543d c662 fa3c
00000290: 5603 463d db49 57bc 2cce 3b3d 0815 863c
000002a0: ce50 463d a956 a73c 942a d43c 9aba b9bb
000002b0: e3f8 28bd b774 9cbc d86f 0c3d 2ce0 183d
000002c0: 65a2 ce3c cc35 2a3d a17b dd3c 3b21 573d
000002d0: 656f 3b3d 043a 573c 59d5 c03c 663e cb3c
000002e0: 61c8 5dbd 94cd 1bbc 2ba9 353d 4420 f83c
000002f0: 531d f13c f010 333d ddfe 76bc 53e8 213d
00000300: 1e90 fa3c 2d18 083d c4c5 173d dd57 3bba
00000310: 5a4a 0f3d 8355 933c efaf cb3c 05f4 413d
00000320: eae9 133d 46d0 2f3d 05c6 edbb 0400 6f3d
00000330: 6b13 8d3d 7aee 783c 34b2 40bc 9ce9 d53c
00000340: 7d00 243d 7dcc ecbb e98c 363d 0f74 c0bc
00000350: 3c56 683d 8186 523d 1672 f23c ed0a 6fbc
00000360: 69fa 8c3c 8324 8cbc b1af 883d 3758 f73b
00000370: 1497 173d e40e eb3c 46e2 c93c 3fb9 b33c
00000380: cb92 1abd 6387 0abd 0b83 c0bc a454 5dbd
00000390: 482e 2c3d 8b91 643c 7b51 90bc 64f9 0dbd
000003a0: 4c07 cc3b da58 bd3c e355 3ebc 3cd3 753d
000003b0: cf82 8cbc 542d f13c 467e ea3c 1f6d 833d
000003c0: 0094 1d3d 6be0 4e3d c4c2 163d cd74 033d
000003d0: 8e5f 213d 8ee5 b53c c193 aabd 969f 543d
000003e0: 0855 e53c f25f 453c c578 65bd df4e 74bc
000003f0: 795d cf3c bc72 2f3d 71b4 2d3c 4ea5 503d
-0.023684992 0.005791783 0.026568709 -0.06013524 -0.035957016 -0.044550736 -0.028383495 -0.035341315
-0.028066041 0.0023639293 -0.021243444 -0.037801515 -0.02164849 -0.0019795285 -0.026012745 0.009413764
-0.026573597 -0.03522833 -0.037362296 0.0037665463 -0.04355634 -0.043894205 -0.055184823 0.042908512
-0.013026341 0.039277904 -0.030229904 -0.035532504 -0.022933982 -0.03574362 0.028057119 -0.02681274
-0.011752965 -0.03009738 -0.026261002 0.0074447766 -0.013919307 -0.01744335 -0.023834787 -0.022286074
-0.02682986 -0.052617494 0.006449676 -0.03250647 -0.020748416 -0.06194002 -0.019831592 -0.04125217
-0.042637084 -0.007546737 -0.023861375 -0.023839436 -0.026299959 -0.029470047 -0.041998565 -0.010530993
0.02287462 -0.019476566 -0.048523623 -0.02087586 -0.10171471 -0.04423164 -0.036639746 -0.03776081
-0.061821513 -0.03165954 -0.028691504 -0.045798365 -0.031493776 -0.0026120092 -0.017959116 0.0004268447
-0.056928225 -0.040991645 -0.0067385086 -0.002413422 -0.027873717 -0.03648964 -0.032175343 -0.04012335
-0.0063970448 0.03278185 -0.025433004 -0.05622025 -0.02646053 -0.0272943 -0.03326032 0.031350505
-0.051835176 -0.02258098 -0.06595466 -0.023047492 -0.04191229 -0.022102842 0.023783365 -0.04005412
0.0010661043 0.003075189 -0.048442002 -0.050680473 -0.027614318 -0.032424454 -0.016872268 0.029817663
-0.013954644 -0.021307498 -0.018559545 -0.040040832 0.029912947 -0.025565207 -0.008901267 -0.033954185
-0.021183569 -0.026642911 -0.02006039 -0.026160035 -0.021410046 -0.03605167 -0.0563009 -0.028980223
-0.004373724 -0.019908883 -0.00852746 -0.023517432 -0.05807322 -0.048716802 0.036659952 -4.2241278e-05
0.052886024 0.009051721 0.034462634 0.0062234537 0.039793495 0.027198385 0.030044531 0.019162823
0.038448922 -0.023924837 0.033619825 0.07097145 -0.037382886 0.036707032 -0.033930883 0.024982808
-0.0078049363 -0.014507135 0.030747714 0.03189961 0.036065053 0.012241739 0.05970282 0.03210516
-0.011301604 -0.024300637 0.012695174 0.014615079 -0.010824799 0.01891962 0.022902098 0.006244596
0.023442965 0.04479598 0.051775914 0.030564677 0.048343025 -0.013140167 0.045850918 0.01636745
0.048416905 0.020427065 0.02589921 -0.0056679966 -0.041252982 -0.019098623 0.03428635 0.037323162
0.02522392 0.04155521 0.02703649 0.052521925 0.04576053 0.013136391 0.023539232 0.024810027
-0.054146174 -0.009509463 0.044350784 0.030288823 0.029432928 0.043717325 -0.015075413 0.039528202
0.030586299 0.03322618 0.03705384 -0.00071465765 0.034983017 0.017985111 0.024864165 0.047351856
0.03611175 0.042923234 -0.007256272 0.058349624 0.06888469 0.015193576 -0.011761237 0.02611237
0.04003953 -0.0072265253 0.044567976 -0.023492841 0.056722865 0.051397804 0.029595416 -0.014590007
0.017209249 -0.017107254 0.066741355 0.007548358 0.037009314 0.028693624 0.024644028 0.021938918
-0.03773765 -0.03382052 -0.023499986 -0.054035798 0.042036325 0.013950716 -0.017616978 -0.034661666
0.006226456 0.023113657 -0.011617157 0.060015902 -0.017152218 0.02944056 0.028624665 0.064172976
0.038471222 0.05050699 0.036806837 0.03209381 0.03939777 0.022204187 -0.08328963 0.051910006
0.027994648 0.012046801 -0.056023378 -0.014911382 0.025313126 0.04283403 0.010602103 0.050938897

to_mean.2.bias f4 [18]
00000000: 8ea3 563c dd3d d63c ba7c ecbb 25e5 94bd
00000010: d290 703d e1db cebd 4883 8abd 1fd4 acbc
00000020: 05e2 823d 039f 7fbc a262 933b 7056 a93b
00000030: 2b02 463d e7ff 1abe f588 afbd 7218 033d
00000040: b62d d03d 20fb 723d
0.013100518 0.026152546 -0.007217017 -0.07270268 0.05873186 -0.10100532 -0.06763321 -0.021097241
0.06390766 -0.015601876 0.004497842 0.005167775 0.04834191 -0.15136681 -0.08571044 0.032005735
0.10164969 0.059321523

to_value.0.weight f4 [128, 256]
00000000: 5fd1 0fbe 6fa8 bbbd 4990 cd3c d6ae f1bd
00000010: 0b75 91bc e371 523c 8c7f c4bc cdca 853c
00000020: 92ce 67be 99ec 1e3e d053 26bc 7ceb a6bd
00000030: 4ba3 86bc 0511 17be 07c3 bbbc aad8 143e
00000040: 6da8 72be 83ca 6dbe 9e00 2cbe 3ca8 a13d
00000050: 1033 77be 1967 8dbe 1d14 743e bd53 46be
00000060: 1e8c 4ebe 1ef0 89bd ec50 02bd c827 bc3c
00000070: e3e9 ecbd e23e 58bd 80e0 463e 1376 debd
00000080: 4feb 483d d78d 1b3e eb7f 2cbd 0fbf 153e
00000090: 0640 223d a352 373e 83b7 12be 6bd0 ff3d
000000a0: e647 79bc f0f9 813b 2fdc bf3d fb8a 70bd
000000b0: 8873 893e 5a93 ef3d 5dbf 313e 485b 18bd
000000c0: b2ca 95bd 0e39 38bc 0208 883c ae3c 283d
000000d0: 6fdf a8bd af2c 20bb 28fe ef3d 0008 c63d
000000e0: 67dd 2b3e cba2 243e 898c d03d f6cd 313d
000000f0: 3b58 b93c 4968 eebd 9739 edbd 1685 7d3d
00000100: a282 40be 6cc3 ed3d 54b6 913d c6a8 34bd
00000110: f3a4 02be f932 f33c da54 e4bc 4363 b9bd
00000120: 6e1b 823d e1a7 e53d 5163 043e 5156 06bd
00000130: d017 cd3b 1cf8 593d af28 9bbd 28d6 e73d
00000140: 9903 14be a0c6 a5bd f91e 9abd fde2 4ebd
00000150: b9af d5bd b481 babd b477 823d 90a1 033e
00000160: 4d8e 74be 1901 d23d 7468 a43d 1948 8cbd
00000170: 34d1 7a3c 0bc8 a53e 9d3e c1bc e206 6c3e
00000180: ff2d 5c3d 5820 e23d d7bc 8dbd 31ca 1cbe
00000190: 06ac cebd 4d9c 94bb d0d4 173e 463d 803d
000001a0: 2831 193e 4614 51be 421a 0e3d 2182 0ebe
000001b0: 7cd3 25bb 8ca7 eb3d 9049 263d c8ac f9bb
000001c0: 3c69 6f3d 1887 bdbd d004 5bbd b38e c4be
000001d0: ef01 073e bed5 52be 111c fc3c 7cd4 4d3d
000001e0: a68e c23c a5fb 793d 58b6 06be 688c 0abf
000001f0: 33d0 edbd 7689 573d acc2 7bbe 148c ff3a
00000200: 6990 853d 2d71 3d3c cd46 bebc 0ddc 993b
00000210: f4d1 2d3e 0e33 af3c 7e6a 633d bdd5 1dbe
00000220: 0d60 2a3d 5ae2 ae3d 559d edbd e198 f53b
00000230: 5e3b 013e 94b7 3fbc 9519 533e 7a62 413d
00000240: af10 44be b6ce f2bd d8cc 01bd eb57 5cbe
00000250: 83a5 393d 50bd 94be c36a 13be c587 d7bd
00000260: 9376 ad3d 03c6 5b3d 247d 33bd aaeb 243d
00000270: fdb0 cdbd 5534 b9bd 8a89 81bd 0a13 903c
00000280: ad21 01be a12e e63b b120 a2bd bf7d da3c
00000290: 083e ea3d 28d1 d4bd 2882 5bbe 4d4b e0bd
000002a0: ecff 95bb df93 afbd ae14 743d 8ce9 2a3e
000002b0: f549 3dbd 3d2b 6ebe 0c38 ff3d 9cb0 94be
000002c0: dd47 a8bd 5820 b53d 3f4d d6bb dfb0 58bd
000002d0: 6c16 1d3e 1d31 983d c5ea 1fbb f85b 45be
000002e0: 2a83 64be c092 aebe a477 463d 5f67 c2bd
000002f0: b195 283e 2cab 0e3e 3ed8 a4bd 85d1 083c
00000300: f340 09bd 65e1 6fbd 69e8 203e 37cb de3c
00000310: 7bf1 073e 4990 d23d fe19 89bc f4ef 043e
00000320: 26f1 d8bc 3a07 cf3d b342 65b9 e038 aebd
00000330: 8b69 5ebd c89f 993b 15bc 40bd aa16 1e3e
00000340: 284c dbbb 7845 083e 480c a13d 4f58 29be
00000350: 0607 113e 064d 593e cf38 18be 83ae 253d
00000360: f87d 073c 2994 05bd 5e75 d4bd fe70 22be
00000370: 610a ae3c 546b 69be 7cb3 aa3c 9a2c 56bc
00000380: 0305 aebd 8e31 27bc 8d1d a63c 68cb 223e
00000390: 867f 24be 5e72 bf3d 16bd df3c 37fd c33a
000003a0: da9f 3bbe ae74 e5bd 2ce4 4b3e 1e75 bcbc
000003b0: 06e8 a73b 725c 7a3d d7e1 8d3d ec43 633d
000003c0: fd09 8bbd 26f9 423e 053a 7abe 6265 89bd
000003d0: cb27 e73d c211 bf3d fdb2 ddbd 050a 1f3d
000003e0: 9e14 f63c 5c48 3f3e d30a 233e 2c06 68be
000003f0: 4f97 60bd 993a 18bd 20b9 adbd 1ed1 b13c
-0.14044712 -0.091629855 0.025093215 -0.118009254 -0.017756006 0.0128445355 -0.0239866 0.016332055
-0.22637394 0.15519942 -0.010151818 -0.08150384 -0.016435286 -0.14752586 -0.022920145 0.14535776
-0.23697062 -0.23221783 -0.1679711 0.07893416 -0.24140573 -0.2761772 0.23835798 -0.19367881
-0.20170638 -0.06735252 -0.031815454 0.022968188 -0.11568048 -0.052794345 0.19421577 -0.108623646
0.049052533 0.15190826 -0.04211418 0.14623664 0.03961184 0.17902617 -0.14327817 0.124909244
-0.015214896 0.0039665624 0.093681686 -0.058726292 0.26845956 0.11698027 0.17358156 -0.037196428
-0.07314052 -0.011244072 0.01660538 0.041073494 -0.082457416 -0.0024440696 0.11718398 0.09669495
0.16783677 0.16077726 0.10183055 0.04340931 0.02262508 -0.116409846 -0.1158325 0.0618945
-0.18799832 0.116095394 0.071148545 -0.044106267 -0.12758236 0.029687392 -0.027872492 -0.09052136
0.06352888 0.11213661 0.12928511 -0.03279716 0.006258942 0.05321513 -0.07576119 0.11320144
-0.14454497 -0.08094525 -0.07525439 -0.05050944 -0.10433907 -0.0910677 0.06370488 0.128546
-0.23882408 0.102541156 0.08027735 -0.06849689 0.015308667 0.32379183 -0.023589427 0.230495
0.053754803 0.11041325 -0.06920784 -0.15311505 -0.100914046 -0.004535234 0.14827275 0.06261687
0.14960158 -0.2041789 0.03469301 -0.13916828 -0.0025303056 0.115065664 0.0405975 -0.007619474
0.05844997 -0.09254283 -0.053471386 -0.3839012 0.13184331 -0.20589349 0.030775102 0.05025147
0.02374966 0.061031003 -0.13155496 -0.5412049 -0.116119765 0.052621327 -0.2458598 0.0019496703
0.06521685 0.011562628 -0.02322712 0.0046954216 0.16974622 0.02138665 0.05552148 -0.15413566
0.041595507 0.08539267 -0.11602274 0.007495031 0.12620303 -0.011701483 0.20615228 0.047213055
-0.1914699 -0.11855833 -0.031689495 -0.21517913 0.04532386 -0.29050684 -0.14396195 -0.10523943
0.08469882 0.053655636 -0.043820515 0.04026381 -0.100435235 -0.09043185 -0.063250616 0.017587204
-0.12610503 0.0070246016 -0.07916392 0.026671289 0.11437613 -0.10391456 -0.2143637 -0.109518625
-0.0045776274 -0.08573126 0.059590034 0.16690654 -0.04621311 -0.23258682 0.12461862 -0.29040992
-0.08216832 0.0884406 -0.00653997 -0.052903052 0.15340585 0.074312426 -0.0024401408 -0.19273365
-0.2231566 -0.34096336 0.048453942 -0.09492373 0.16463353 0.13932484 -0.080490574 0.008350735
-0.033509206 -0.058564562 0.15713657 0.02719651 0.13275711 0.102814265 -0.016736027 0.1298216
-0.026482176 0.101088 -0.00021863989 -0.08506942 -0.054299872 0.004688237 -0.04705437 0.15438333
-0.006692428 0.1330775 0.078636706 -0.16537593 0.14162835 0.21220788 -0.14865421 0.04044963
0.008269779 -0.032612 -0.103739485 -0.15863416 0.021245183 -0.22794849 0.020837538 -0.013072157
-0.0849705 -0.010204686 0.020277763 0.15897906 -0.16064271 0.09347986 0.027311843 0.0014952783
-0.18322697 -0.112038955 0.1991126 -0.023005065 0.005124095 0.06112332 0.06927841 0.055484697
-0.067890145 0.19040355 -0.24436195 -0.0670879 0.11286887 0.09329559 -0.10825155 0.038827915
0.030039128 0.18679947 0.15922098 -0.22658604 -0.0548318 -0.037165258 -0.084825754 0.02170616
