save2_1_23/save10_Standing_59400.pth (torch, 942043 bytes, 11 tensors)

shared_net.0.weight f4 [512, 67]
00000000: f6a1 c3be 0856 553e 1110 a7bd da52 1bbe
00000010: b680 5c3d f9af 11be 3c64 46bd 8d32 1fbe
00000020: db13 d6be e2d5 913e 3a39 32bf 3e06 95be
00000030: d8c8 6f3e 9c8b f53e 02de 153f 31b9 343e
00000040: ac18 023f 7385 243f ff88 8bbe 2f1f 40bf
00000050: 2627 3c3f 4ca1 2abe d03a 57be fb91 2fbe
00000060: 3df2 0cbe 6ce5 32be 763e ae3e 505b 80be
00000070: ddad afbe 07a5 053f ce27 9dbc 308c b0bd
00000080: e2e3 553c 7f30 d8bc d082 693d ee0f 08bd
00000090: 18ba 0c3c cbef ccbd 5785 383c 4d9c 1cbe
000000a0: 51ae ce3d 0bf1 9b3d f12a 8ebd c1d4 863d
000000b0: 47b0 afbd bc97 94bc ef8c 37bd 982f 84bd
000000c0: 4537 e93d cf71 993e c81d 7c3e 1299 59be
000000d0: eb23 1a3f 1e43 f13d 1b12 14be a0aa 16be
000000e0: 10e9 893e 6470 833d 3e94 383e f516 3bbe
000000f0: 959e eb3e f1fe 413d 3367 ea3d b465 9c3e
00000100: ae9e 753d 18f5 313e f115 85be 3169 8e3e
00000110: dc83 1f3d 9f83 fc3e f338 68be 4791 edbd
00000120: e1f1 31be b830 0e3f a183 893d 57a0 4f3c
00000130: 2fab 813d 6abd 71bf d4a5 9e3d cace 15bf
00000140: aae3 09bb dd28 ca3d 2f81 2c3e 7086 8abe
00000150: 5511 a8bd 33b1 0cbd 8a42 54bd fad1 ebbd
00000160: 5a82 683d 8934 aebc 7de8 a9bd 2596 18be
00000170: d200 133e f2fb d13b 9620 1abe b72d a43d
00000180: 92ac 58be 0691 64bd 2eb1 54bd 4157 58bd
00000190: b465 e4bc f7e0 9abc 9bb5 fdbb 897f b63d
000001a0: 3357 4fbd d486 c1bc 2510 853d 8c04 e73d
000001b0: 2ff1 913c 51c2 203d 8642 bf3c e26f 9c3c
000001c0: d64f 83bc bbd9 f1bd f2d3 4ebb c2cb 71be
000001d0: a7be 6c3d 4bb5 213d 1a46 843b 922a 163d
000001e0: 82fe 1fbc ef59 d1bc 36f4 9fbd f56f fd3c
000001f0: a20f 00be cd77 f5bb 4c2f d8bd b581 08be
00000200: a187 8ebd f6bd f5bd 9adc ff3b 636c 9e3d
00000210: 0cee f6bd d4ce 3b3d 16d3 e13e 451f aa3d
00000220: d852 adbd 022f e03c f0c8 ab3b 7f93 333c
00000230: 9f47 ba3d ce80 2f3d da03 b43d 3b8d d23c
00000240: 32b5 a3bf 875c d4bd 46c1 1d3e 9eb8 833d
00000250: 7e91 6abd e186 bbbd 1c25 99bd 0245 2abe
00000260: 189f 793d 4629 ab3d e2c9 00be bb58 d9bd
00000270: 83bb 1c3d 85bd aebd b7ea 0abd 23ab abba
00000280: 6bcf cabd 38e0 6abd 0e2c aebd 0053 82be
00000290: 2a09 94bc 3805 283c 071f 0ebc 3d0b b13d
000002a0: c608 d73c 0389 e53c 7509 e23c b38d d0bc
000002b0: 895d 2dbb e9c1 9d3d 18bb 5abe 10ed 1cbe
000002c0: fc9a bf3c a9ab 073d 3024 153d a589 65bd
000002d0: ae43 2dbd 9834 e8bc bd77 b73d 7040 913d
000002e0: f828 c43c 9db0 993d 39b8 953b 6337 cfbc
000002f0: f473 a5bd 921f 5c3d 7bd3 583d e38a 0d3d
00000300: 2859 30bd d1be 19bd aae2 86bd 5300 01bd
00000310: 10a7 1fbe 89b4 2d3d 553e a2bc 0e98 5bbd
00000320: 6788 c2bb e8e8 423f 62d6 443e c366 41be
00000330: 68e4 0cbf 47ef 783d a8ee 913e c7c8 96bc
00000340: 54c8 0ebc cbe9 493d 065c 533d aefe 65bf
00000350: 681e 8abe 873c bc3d ec54 cc3d 4b06 ca3d
00000360: f478 67bc 5a13 50be 1281 1dbe 532d 94be
00000370: cbd4 47bc 531e 41be 00af 9ebd b485 70be
00000380: 490c adbd cb73 0a3f 5371 223f 5dbd 1d3d
00000390: 9fc0 5cbe e950 5d3d 899f e5bd 6870 ce3c
000003a0: 9117 a5bc 293d e63c d822 673d 5754 863c
000003b0: 53f4 433d 99ea 00bb 3f20 0d3d 6360 fabb
000003c0: 95d1 8e3d bbbb 693d 5ba3 5f3c 9e0a 02bc
000003d0: b8c7 d6bc 83bf bebc fe79 69bd b8b3 91ba
000003e0: 2cc1 b33b 439f 92bc 1d9c 263d a330 91bd
000003f0: cc85 d23d c9b6 aabd c5ca 6abe 8e65 aebd
-0.38209504 0.208336 -0.08157361 -0.15168324 0.053833686 -0.14227284 -0.048435435 -0.15546627
-0.41812024 0.28483492 -0.6961857 -0.29106325 0.2341646 0.47958076 0.5854188 0.1764877
0.50818896 0.6426613 -0.27252957 -0.7504758 0.73497236 -0.16663092 -0.21018529 -0.17145531
-0.13764282 -0.1747033 0.3403203 -0.25069666 -0.34312335 0.52204937 -0.01918402 -0.08620489
0.01305482 -0.026390312 0.05700952 -0.033218317 0.00858929 -0.100066744 0.011262259 -0.15293999
0.10091842 0.07614335 -0.06941784 0.06583548 -0.08578544 -0.018138759 -0.04481214 -0.0645439
0.11387495 0.29969642 0.24620736 -0.21249798 0.60211056 0.1178038 -0.14460032 -0.14713526
0.26935625 0.06417921 0.180253 -0.18270476 0.46019426 0.04736227 0.11445465 0.30546343
0.059965782 0.17378652 -0.25993302 0.2781463 0.03894411 0.4931917 -0.22677974 -0.11599975
-0.17377426 0.5554309 0.06714559 0.012672505 0.06331479 -0.9442965 0.07746473 -0.5851866
-0.002104024 0.09871075 0.16846155 -0.27055693 -0.08206431 -0.034348678 -0.05182127 -0.11514659
0.056764938 -0.021265285 -0.08296297 -0.14901026 0.14355782 0.006408208 -0.15051493 0.08016532
-0.2115958 -0.055802368 -0.051926784 -0.052817587 -0.027880527 -0.0189061 -0.0077425963 0.08911044
-0.05062027 -0.023623861 0.0649722 0.11280164 0.0178152 0.039247815 0.02334715 0.019096319
-0.01602928 -0.11809107 -0.0031559435 -0.23612884 0.057799008 0.039479535 0.004036677 0.036661692
-0.009765269 -0.025555579 -0.078102514 0.030937174 -0.12505963 -0.007491088 -0.10555896 -0.1333073
-0.06959463 -0.11999123 0.00780828 0.07735517 -0.120571226 0.045851544 0.44106358 0.083067454
-0.08463067 0.027366165 0.0052424595 0.010960459 0.09095692 0.042847447 0.08789797 0.02570211
-1.2789671 -0.10369211 0.15405759 0.06431697 -0.05726766 -0.091565855 -0.07477781 -0.16627887
0.06094274 0.08357482 -0.12577012 -0.10612627 0.038264763 -0.08532242 -0.033915248 -0.0013097267
-0.09902843 -0.057342738 -0.085044965 -0.2545395 -0.018070776 0.0102551505 -0.00867439 0.08644722
0.0262493 0.028019434 0.0275924 -0.025458192 -0.0026453456 0.07703001 -0.21360433 -0.15324807
0.023389332 0.033122692 0.036411464 -0.05603947 -0.042300873 -0.028345391 0.08958385 0.070923686
0.023945317 0.075043894 0.00456908 -0.025294965 -0.08078757 0.053741045 0.05293606 0.03455628
-0.043053776 -0.037535492 -0.065862015 -0.03149445 -0.15591073 0.0424085 -0.019805113 -0.053611808
-0.0059366706 0.76136637 0.19222406 -0.18886857 -0.5503602 0.060775068 0.28502393 -0.018406285
-0.008714754 0.049295228 0.051601432 -0.89841735 -0.26976323 0.09191232 0.09977135 0.098644815
-0.014127959 -0.20319882 -0.15381268 -0.2894083 -0.01219673 -0.18859224 -0.07748222 -0.23488504
-0.08449609 0.54082936 0.6345417 0.03851067 -0.21557854 0.05403224 -0.112120695 0.025200084
-0.020152839 0.028105335 0.056429714 0.016397638 0.047840428 -0.001967108 0.03445458 -0.0076408847
0.06973568 0.0570638 0.013649787 -0.007937102 -0.02621828 -0.02328468 -0.057001106 -0.0011116182
0.0054856744 -0.017898208 0.040676225 -0.07089355 0.10279426 -0.08335645 -0.22928913 -0.08515464

shared_net.0.bias f4 [512]
00000000: 7c88 adbe ec4c da3d c030 2f3d 922a 213d
00000010: 318b 1dbe ce46 6fbd 5e08 e7bd 64fc 94bd
00000020: 8835 8f3d a83f c43d 3177 acbd 9e99 eebd
00000030: b0d1 52bf ec0c 25bd 34b0 1fbd 1a04 4fbe
00000040: 3b04 2fbe 1fb6 8ebe 986c 90be d72a f03a
00000050: 73d4 3bbe 1ffb 4d3e 0c6a 033d fea1 f5bd
00000060: ded9 c23d 8a7b 353c ef95 dabe f8c9 843e
00000070: a81c 29be 776a 7ebd 7078 55be 6030 9a3d
00000080: 8ad4 193d 6f7a b2be 44d3 77be d6d4 3b3c
00000090: 72a5 b8bd 6348 1d3e 3637 f8bb b9a5 20be
000000a0: 8378 37be 7bcf 47be 8b02 ddbe be82 943d
000000b0: 1bd6 2ebc 36d5 8ebd 6ef4 15bd d934 863d
000000c0: 1dc0 dcbe 05e1 61be 57cc 3fbd 9c9d edbd
000000d0: 9247 663d 41c9 4d3e ccb7 573c 6bdf 81be
000000e0: 856d dabd 334d 273d 7a36 d5bc 8f3e 35be
000000f0: 7511 b73d 6d11 873d f576 01be 7ad8 7fbd
00000100: a198 27bd 7546 fdbd e6c1 dabd 28e9 a8bc
00000110: b59a 903d 9b26 d9bc 260d 01bf fb56 d0bd
00000120: fbcb 95bd 8446 dabb cc9f 72be a7e2 d93d
00000130: 89a6 c0bd 3f3c 083e 2338 61bd 6117 813d
00000140: fc0f fabe 817b 65bd 0dda 1dbd fad9 debe
00000150: f4a3 a43d 33ca f93c 640b 8bbd d987 f7be
00000160: be0c f1be 245d d7be 1310 6fbe 7e35 a2bd
00000170: 7006 e3bd 58ec 26bf 6b89 9dbb 93aa 2dbe
00000180: d245 83be 6da0 6a3e 4a3a c5bc 3a25 0cbd
00000190: 08f5 d13d 6acd d6bd 2f1d 073e a921 1ebe
000001a0: 065c bbbc a44e 57be 6b61 763c 5017 743d
000001b0: a9af 8fbe 99ac a7bc b924 ae3d 1179 c7bd
000001c0: 9496 4e3d 445b 3b3e 5dda b0bd ad8b d83b
000001d0: 0abb a93d 7f1c 3ebc c59b 20be 6ee5 58be
000001e0: 45a2 a83c 8e84 6ebe 87d5 143d 129e 4abd
000001f0: 1b96 18be 79c9 08be ee46 6abd 606e 85be
00000200: d08a 413d d0ce e5be 5554 99bd d21a dabd
00000210: 4775 c2bc 6cfe 9d3d c4d6 a33d 30ec 9d3c
00000220: 40bf 08bc 906d b03b b6f1 0d3d 86e8 96be
00000230: 7ad0 b4bd 5fb2 853d f358 07be 7176 2fbe
00000240: dbed 45be 4ec8 14be 38d6 2cbb 8c74 29be
00000250: 0871 293e b0c6 3c3d 6120 fd3c fb96 d1bc
00000260: 3eaf 473c 876b 543c 3262 13bd 70fa 81be
00000270: d3ba 24be ca59 9bbe 0255 a7bd ad8f 993d
00000280: 6e90 023e 6868 08be b001 033e 6b19 693d
00000290: 8211 3c3d 7c04 ec3b da42 5c3d 6214 133e
000002a0: 3457 223e e03a 5a3c e064 cbbd 4d30 8dbd
000002b0: 49df a3be 2a1b 893d e2d6 863c ab90 a8bd
000002c0: 2258 c4bd 98b8 b0bc cd90 0c3e 105c a83d
000002d0: 7864 e6bd 848c ebbb a8d7 f33d 856f c53c
000002e0: dd20 113e 5381 38be 3018 1bbe e783 fabd
000002f0: 8807 bd3d fe42 15bf 23bb 403e b97f 0f3e
00000300: 0750 f53d d4bb dfbd 43ba c9bd 513f 873e
00000310: f0d4 e1bc e16b 05be 8d45 c33c 246f 2cbe
00000320: f2a6 4dbe 5446 953c 5c69 0abe 5793 35bd
00000330: b996 10be 5c16 de3d 7d61 4bbd aaa0 c2bd
00000340: a49d 64be fa4a 0b3d c8df d3bd b308 8a3d
00000350: 2e69 5cbc 8e0a eebd 87d3 893e 5e1b 7cbe
00000360: b7f7 8b3e 65c9 af3c 8225 86bd 51fd b5be
00000370: 15ef 96be c0f6 25bd 531f 3abe 7855 22be
00000380: ba59 26bf 1177 473d b46a 3ebe 8bd1 443e
00000390: bf2d 94be 5ca0 2b3d e826 11bf 5242 49be
000003a0: 8ce3 96be bf67 21bd 8e54 99bd 51c9 643e
000003b0: d7ec ecbc b179 413c 3774 a0be 21ed f53d
000003c0: dc56 0cbd 6750 023e 23c0 81bd 2177 debd
000003d0: ade1 1bbe d16c 24be 6555 003c 83bc 4cbd
000003e0: a77a dfbd 9125 eebd 0801 583e 121d 33be
000003f0: 8d8a 833c e57b 68be 628b 3e3d 1ae0 77be
-0.33893192 0.10659203 0.0427711 0.03934724 -0.15385129 -0.058417134 -0.11280893 -0.07274702
0.06992632 0.09582454 -0.084211715 -0.11650394 -0.8235121 -0.040295526 -0.0389864 -0.20216408
-0.17091458 -0.27873322 -0.2820785 0.0018323314 -0.18342762 0.20115326 0.032083556 -0.11993788
0.09514211 0.011076817 -0.42692515 0.2593534 -0.16514838 -0.06211325 -0.20846725 0.07528758
0.03755621 -0.34859034 -0.24201685 0.011464318 -0.09015931 0.15359645 -0.007574941 -0.15688218
-0.17917065 -0.19512741 -0.43166003 0.072514996 -0.010671164 -0.069742605 -0.03661006 0.06553049
-0.4311532 -0.22058494 -0.046825733 -0.11602327 0.0562206 0.20096304 0.013166379 -0.25365767
-0.106654204 0.040845107 -0.026026953 -0.17699645 0.089388765 0.065951206 -0.12643035 -0.062462308
-0.040917043 -0.12366954 -0.106815144 -0.02061899 0.07060758 -0.026507666 -0.5041069 -0.1017284
-0.07314297 -0.006661238 -0.2369377 0.10638934 -0.09406764 0.13304232 -0.054985177 0.06303287
-0.4884032 -0.056025986 -0.038538028 -0.43525678 0.08039084 0.030491924 -0.06789282 -0.4834583
-0.47080034 -0.42063248 -0.23345976 -0.07920359 -0.11085212 -0.6520438 -0.0048076413 -0.169596
-0.25639206 0.2291276 -0.024075646 -0.03421519 0.10251814 -0.104883984 0.13194726 -0.15442528
-0.022871029 -0.21026093 0.015037875 0.059592545 -0.28063706 -0.020468043 0.08503098 -0.097398885
0.05043657 0.18296534 -0.086353995 0.0066084475 0.08287628 -0.011603474 -0.15684421 -0.2118127
0.020585189 -0.23292753 0.036336448 -0.049467154 -0.1490101 -0.13358106 -0.05719655 -0.26060772
0.047251523 -0.44884348 -0.07486788 -0.10649647 -0.023737563 0.07714543 0.07999948 0.019277662
-0.008346379 0.0053841546 0.03465434 -0.29474276 -0.08828826 0.06528162 -0.13217525 -0.17135026
-0.19329016 -0.14529535 -0.0026372802 -0.16548365 0.16547024 0.04608792 0.030899229 -0.025584688
0.012187777 0.01296509 -0.03598232 -0.2538638 -0.16086893 -0.3034194 -0.08170511 0.07498107
0.12750408 -0.13321078 0.12793612 0.056909006 0.045915134 0.007202683 0.053774692 0.14363244
0.15853578 0.013319701 -0.0993135 -0.06893978 -0.3200629 0.06694634 0.016459886 -0.08230718
-0.095871225 -0.021572396 0.13727112 0.082206845 -0.11249632 -0.0071883816 0.119063675 0.024101028
0.14172693 -0.18018083 -0.15145946 -0.122321896 0.09229952 -0.58305347 0.18821387 0.14013566
0.11978155 -0.10924497 -0.0984998 0.26415494 -0.027567357 -0.13029434 0.023836875 -0.16839272
-0.20083216 0.018222012 -0.13516754 -0.044329967 -0.14119996 0.108441085 -0.04965352 -0.095033005
-0.2232576 0.03400705 -0.10345417 0.067399405 -0.013452811 -0.11623107 0.26919195 -0.24619815
0.2733743 0.021458337 -0.06550123 -0.35544828 -0.2947928 -0.040518522 -0.18176012 -0.15852916
-0.6498066 0.048697535 -0.18595392 0.1922056 -0.28941151 0.041900977 -0.5669999 -0.19654205
-0.2947048 -0.03940558 -0.07486831 0.22342421 -0.028921528 0.011808799 -0.31338665 0.120081194
-0.034262523 0.12725984 -0.06335475 -0.10862566 -0.15222807 -0.16057135 0.00783286 -0.049984466
-0.10912066 -0.11628259 0.21094143 -0.17491558 0.016057277 -0.22703512 0.046519645 -0.24206582

shared_net.2.weight f4 [256, 512]
00000000: 7b3a 403e c0a8 88bd 3ad2 f9bd ffe8 913d
00000010: 5cdb b7be 9c2c 3cbe 61a2 b93d e81d e83d
00000020: cada 133e 0505 46be 13e7 9cbe 578c e2bc
00000030: 2934 8cbd 0047 99be e92d b93d 768a 23bc
00000040: 2dc1 9bbd 48ad fe3c 6ce9 1d3d 333e 02be
00000050: bde2 0b3d 8d92 353e ad28 9bbd 759f 87bd
00000060: c7e2 803d 15c1 233a 6f26 a9bd 04bf 6dbe
00000070: 2a68 35be 2029 3ebe b8f2 d8bd 2966 003e
00000080: 6b32 68bc c063 3cbd eda5 f93b 186d 8abd
00000090: 61f7 be3d f338 1abe b102 0dbe d5e3 1b3f
000000a0: 5d86 733d fa4f 90bb 1fab 233d 53a8 003d
000000b0: 1dee b6bd d2d0 89bd c513 a1be ea16 9e3e
000000c0: ab85 903e 7b43 5cbe 416f 483d 5332 9a3c
000000d0: 441d ed3d b4bd 0abe b094 9c3e 794b 03bf
000000e0: 888c 09bf 156a 1c3e 09f3 1cbd 7c9a ccbd
000000f0: 0d57 63be fa28 7c3d 88f3 d0be 25c6 9ebe
00000100: bbfc 39be 08cc 71bd 3258 f83c aedd 69be
00000110: 38c4 84be 2bf0 99be ce4d 03be 7bce 28be
00000120: 1356 6d3e ff02 333e 5bb5 b43d c2e9 dd3d
00000130: 0110 0e3d 8b13 b63d b63b d1bd 93fc 563e
00000140: f9f8 543b 2586 f43d af91 e1bd 5785 c1bd
00000150: eb44 b4bd 719b c23d f686 663e c89d efbd
00000160: f199 ec3d 0c4c 94bd d00b cbbe 8b80 c1bc
00000170: 1f61 883e 635c 8abd 4272 07be ce53 68be
00000180: 6373 353e 95d9 66bd a4a7 97be 47aa 97be
00000190: 05d7 0bbe 8b07 23be 2ecc 7abe 886c 7abe
000001a0: c480 533e 9c0e 8ebd b046 9e3b 8c7d 333e
000001b0: f820 0cbe 41f6 1fbe 9f97 313d 7329 223e
000001c0: ffa1 a83d 3a2d 3bbe 0319 a93e b21f d0be
000001d0: 9096 193d 0d45 ebbc 2565 a53e 567b 33be
000001e0: 9173 693e 19cf 0bbe d1d0 253d fe1a 93bd
000001f0: 1491 73be fa2f 86bd 4f36 793b 6b1c dabd
00000200: 5193 f8bc 73de 49bd 2058 d63b 9c9c 01bc
00000210: f182 2e3e c959 61be 305d 5e3e 79af bb3e
00000220: 3163 963d 0cee 633e 4fa6 2abf bc0f 983d
00000230: 6a6b d93d 71b3 93be 8591 ce3d ec1c 03bf
00000240: 9ce5 20be 8321 9cbe 3764 fabc 683e 8fbc
00000250: d717 293e b8a7 c7ba d083 3e3e c47a 5f3e
00000260: 6447 78bd ce48 a2bc 1cc0 d23d a6b3 a039
00000270: d2c0 43be 5355 c43d 07c0 dcbd f309 1d3d
00000280: 1b37 8f3e 228b 8a3d 05ca 84bd 2530 093d
00000290: 90e8 0a3e e1d0 103e bd1c 95bd 337a d43d
000002a0: 4d8b e83d ecaf 97bc 4d0c 2ebb f5d2 17be
000002b0: b273 fcbc 80b4 43be 8171 7cbe ee12 66be
000002c0: 552f fd3d 3450 8e3d eaf1 a43d 71c2 9d3d
000002d0: 8ca7 f6be 1d0c 2dbe d47e 453d 846f b63d
000002e0: ed6a 1cbd 4fcc 0f3c 68d8 12be ec7b c23d
000002f0: 4216 113e dd4c 853d eda2 033d d6b0 3d3e
00000300: 0b05 3f3e a693 42bd ab80 72bd 26dc f6bd
00000310: eac2 933e 9ffe 4b3d 6ee3 4dbe f092 85bd
00000320: d90f 8bbd 4b0e 33be 6ed1 b63c 7fda 8cbe
00000330: 4dae 91be bb81 aa3b 07a6 613e c0e4 993d
00000340: c349 9e3e 38fa 9c3d 16a6 76be d6c1 3cbe
00000350: 6586 f3bd ff76 38bd 95bc 833e 78d2 f3ba
00000360: 167a 12bd 4833 45be 8c88 f73c 7507 f23c
00000370: 9cb0 b7bc 4506 60be 143d 853b 81e4 0bbd
00000380: 9958 543e ad78 1dbd 7619 2ebe babd 63bd
00000390: 6ac9 b33d 3f07 39be 26bb debc f063 c0be
000003a0: 4159 ab3c 14cc 443d e355 0d3d a8b1 26be
000003b0: 4379 76bc cab3 683d 3a27 5bbe 3fd9 943d
000003c0: 9b95 75be fbef b0bd e0b5 10be 3c44 dcbe
000003d0: 89d8 c83d 2f6b 84bd ff73 953d 363f e1bb
000003e0: f329 e3bb b87a e73c ecc5 3a3e e214 333c
000003f0: d596 163e 4eb9 a23e aba2 833c 86ff 8e3e
0.18772309 -0.066728115 -0.12198301 0.071245186 -0.35909545 -0.18376392 0.090641744 0.11333829
0.1443893 -0.19337852 -0.30645046 -0.02765481 -0.06845886 -0.2993698 0.0904196 -0.009981742
-0.07605205 0.031088486 0.038552687 -0.1271904 0.03415178 0.17731686 -0.07576118 -0.06622211
0.06293254 0.0006246728 -0.08259284 -0.23217398 -0.17715517 -0.18570375 -0.1059317 0.12538971
-0.014172177 -0.045993567 0.007618657 -0.06759089 0.093245275 -0.15060787 -0.13770558 0.6089452
0.05945431 -0.004404065 0.039958116 0.031410526 -0.08932135 -0.067292824 -0.31460395 0.30876857
0.2822698 -0.21510117 0.048934225 0.018822825 0.115778476 -0.13548928 0.3058219 -0.5128704
-0.5373006 0.15274842 -0.038317714 -0.09990403 -0.22201176 0.061562516 -0.408108 -0.31010547
-0.18162815 -0.05903247 0.030315492 -0.2283847 -0.25930953 -0.30066046 -0.12822649 -0.16485016
0.23177366 0.17481612 0.08823653 0.108356014 0.03468323 0.08890446 -0.10216467 0.20994787
0.0032497032 0.119396485 -0.11014115 -0.09449261 -0.088022076 0.09502304 0.22512421 -0.11700016
0.115527995 -0.07241067 -0.3965745 -0.023620864 0.26636598 -0.067559026 -0.1322718 -0.22688219
0.17719798 -0.056359846 -0.29620087 -0.296221 -0.13656242 -0.15920846 -0.24491951 -0.24455464
0.20654589 -0.0693638 0.004830204 0.17528361 -0.13684452 -0.15621282 0.043357488 0.15836124
0.08234023 -0.18278971 0.33026895 -0.40649182 0.037497103 -0.02871945 0.3230373 -0.17527518
0.22797991 -0.1365322 0.040482346 -0.07182883 -0.23785812 -0.065521196 0.0038026755 -0.106499515
-0.030343683 -0.04928441 0.006541267 -0.007910874 0.17042138 -0.22006907 0.21715236 0.36657313
0.07343138 0.22258776 -0.66660017 0.07424876 0.10616191 -0.2884784 0.100863494 -0.51216006
-0.15712589 -0.30494317 -0.030565364 -0.017485812 0.16513 -0.0015232479 0.1860497 0.21824175
-0.06061496 -0.019810107 0.10290548 0.00030651427 -0.19116524 0.09586587 -0.10778814 0.038339566
0.2797173 0.06764819 -0.06483845 0.03349318 0.13565278 0.14142181 -0.07280872 0.1037487
0.113546945 -0.018516503 -0.0026557625 -0.14826567 -0.030816887 -0.19111824 -0.24652673 -0.22468159
0.123625435 0.06948891 0.08053954 0.077031024 -0.48174703 -0.16899152 0.048216656 0.08907989
-0.03818791 0.008776738 -0.14340365 0.094962925 0.14168647 0.06508801 0.0321378 0.18524489
0.18654267 -0.04750409 -0.05920474 -0.12053709 0.28859645 0.049803372 -0.20106289 -0.06522167
-0.06790132 -0.17485921 0.02231666 -0.2751045 -0.28453293 0.0052034534 0.2203599 0.07514334
0.3091565 0.07664913 -0.24086794 -0.18433318 -0.11890868 -0.04503536 0.25729814 -0.0018602153
-0.03576096 -0.19257843 0.030216478 0.029544571 -0.022423081 -0.21877392 0.004066119 -0.034153465
0.20736922 -0.038445164 -0.170019 -0.05560086 0.08778651 -0.1806917 -0.027188849 -0.37576246
0.020916583 0.048046187 0.034505736 -0.16278708 -0.0150435595 0.056812085 -0.21401682 0.07267999
-0.23982851 -0.08639523 -0.1413188 -0.4302081 0.09806926 -0.06465756 0.07297515 -0.0068739904
-0.006932491 0.028256759 0.18239564 0.010930272 0.14705975 0.31782 0.016068777 0.27929324

shared_net.2.bias f4 [256]
00000000: 21b7 403c d0b4 60bd f1c8 d0bd 3bd1 4c3d
00000010: cd90 ab3c 55d8 213e 51f7 bfbd 8c0b 4dbe
00000020: 17e9 73be ebbb 8bbe 8ff7 31be fc32 703d
00000030: 02d9 96be c77a 4cbe d45c c9bd dd00 89bd
00000040: 7795 0fbe 490f 323d 7068 ddbd dcb8 14be
00000050: 2493 a73d e5c6 86bd 7d4e a8be 93a3 743e
00000060: ba75 6c3d a692 abbd c8c5 0abd 1b05 9cbe
00000070: be47 273c fec1 19be 5650 a1be 6679 7fbd
00000080: ee24 fabd 1517 8fbe 957a 1abe 7200 8abe
00000090: 3885 21bd fd11 5abe e0b2 03be 9069 853e
000000a0: e360 acbe fda0 6cbe 095d 9fbe 4cd9 e5bc
000000b0: 0d5d 86be 9d0a 98be 29f8 8ebd d5aa 4ebe
000000c0: b3ab dfbd 37ab 5fbd f72d 50be 3a3c 093f
000000d0: a3fa 34be c30f 173c 00d0 93bd d812 62be
000000e0: b39b 36be 545f 6abe 610a 35be 63dd 33be
000000f0: 97f6 8bbe 6daa b0bd 2a59 f6bb f567 86be
00000100: 6620 91bd 771b 8cbe e574 45be 0af3 18bd
00000110: 2093 36be cddb c93d 54d6 9abe 8786 aebd
00000120: dca8 d8bb e79d 7abd 38a4 08be 52c7 5abd
00000130: b2f8 8d3d c40f 28bd ac24 bbbe 2edb ffbc
00000140: b928 30be b1b9 003c d50c 3ebe 1b7f af3e
00000150: d9c4 88be 39e9 653e 9115 2d3e d1d6 1cbe
00000160: acbc 8d3e 18df eebd cf1d 63be b25f bebd
00000170: 2f6b 23bd 24a4 96be c114 8bbe 8194 f8bd
00000180: 6945 94be 7049 bcbe bde6 d7bd 24ff dcbd
00000190: aac4 033d f9c2 0dbe 4657 9fbe 88f1 25be
000001a0: 5158 4b3c 115b 5b3e 947b 11be 6ab6 86bd
000001b0: d7b9 aebe b6ad 45be 1aa9 45be 0708 82bd
000001c0: 9fe8 d9bd 52d5 84be dbbc 1f3d fd04 23be
000001d0: 94f7 033e be7b 4ebe 549e 89bd b131 103e
000001e0: 9066 813d c9da 59be 83ac 1cbe b829 53be
000001f0: 1c4f e33d df8e 4ebe 1ee5 66be 43cb 25be
00000200: cff1 203d 95ef dfbc 6fb7 f3bb 168a cabe
00000210: be42 12be 9bf4 5abe 125b 8f3e 58e7 6fbe
00000220: 4ca5 72be 6550 93be 4c21 d8bc 29d6 4bbe
00000230: 8b98 88be 1e48 99be 943b 5bbe 34f9 5dbe
00000240: c012 1fbe ce6f 68bc 36da d63e 856b 9abd
00000250: 7085 36be 0822 1ebe 5512 a9bd 55bc 703e
00000260: 13a5 91be c781 09bd 45e0 62bd f358 97be
00000270: 74c3 a7be 0bd2 53be f33b 88be 880d 03be
00000280: 96f8 16be bc80 2fbe 4728 b63d 68bb 3e3c
00000290: 52da 57be fa68 70be 13cf 21be fef6 3abe
000002a0: b7b8 a23d 9ec9 abbe 2275 aebc 9be9 71be
000002b0: 4055 32be 5382 a8bd e845 43be 25b0 65be
000002c0: 9fe3 66be 7a93 3fbd 3ddc 2e3e b2fe adbe
000002d0: 4b85 91be 0627 96be e89b 1fbe 922b e9bd
000002e0: 7df3 10be df5e 36bd 975a 80be 475f 203e
000002f0: accd 77bd e9f2 16bd 6df1 af3d fd78 1cbe
00000300: 3114 883e 5721 80bd 4a31 88be 8a2a 6dbc
00000310: 89b3 04be fe77 dfbd 3d90 6ebe 9a3b cdbd
00000320: 8051 2bbe 44f5 6dbe dc19 bebd 1798 3ebd
00000330: 3c9b 58be a22e 53be 44b7 a7bd 6fd8 87be
00000340: 652c 19bd f1ad 1abe d159 81be 7636 94be
00000350: e182 61bd 46ba 76be 7176 0abe 875f a7be
00000360: 2bce 73be b192 6dbe 7c3f b13d 6198 5cbd
00000370: 0f0b 98be e827 59be e6f1 cfbd 697a ab3c
00000380: f7a6 843d 08b7 2abe c3e0 2dbe b550 f8bd
00000390: 546c 30be 54fc 18be 071c 71bd dead b5be
000003a0: 40e0 483e f61e 66be 3073 1abe ec0c 93be
000003b0: aaae cabd 4945 5abe 1c5f 5b3e 7722 75bd
000003c0: 5720 803b a93e 343c d799 0cbe 15fa 83bd
000003d0: 2bf3 3ebe a5a0 7abe d2f3 313e 6b23 ccbd
000003e0: 96ab 93be a1a3 c3bd 6bbc 1dbe 30f1 233b
000003f0: ecef 3cbe 586b 75be a99f dabc 1b8f 4abe
0.011762411 -0.054859936 -0.101945765 0.050004225 0.02094307 0.1580518 -0.09373344 -0.20023936
-0.23819385 -0.27291808 -0.17379592 0.058642372 -0.2946244 -0.19968711 -0.09832159 -0.06689618
-0.1402186 0.04347161 -0.108109355 -0.14523643 0.08182362 -0.06580905 -0.32872382 0.23890524
0.05772946 -0.0837758 -0.033880025 -0.30472645 0.010209976 -0.15015408 -0.31506604 -0.062371634
-0.12214075 -0.27947298 -0.15085824 -0.26953465 -0.039433688 -0.21295924 -0.12861204 0.260571
-0.3366767 -0.23108287 -0.31125668 -0.028057717 -0.26242867 -0.29695597 -0.069809265 -0.20182355
-0.10921421 -0.054606643 -0.20330034 0.53607523 -0.17673735 0.0092200665 -0.07217407 -0.22077501
-0.17832832 -0.22887927 -0.1767974 -0.17564921 -0.2733657 -0.08626256 -0.0075179534 -0.26251188
-0.07086258 -0.27364704 -0.19282873 -0.037341155 -0.17829561 0.09856377 -0.30241644 -0.08521753
-0.0066119265 -0.061185744 -0.13343894 -0.053412743 0.069322005 -0.04103066 -0.36551416 -0.031232443
-0.17203034 0.007856772 -0.18559583 0.3427666 -0.26712683 0.22452249 0.16902758 -0.15316321
0.27683008 -0.116636455 -0.2217934 -0.09295596 -0.03989714 -0.29422104 -0.2716427 -0.121377
-0.28959206 -0.36774778 -0.10542057 -0.10790852 0.032169975 -0.13843907 -0.31121272 -0.16205418
0.012411193 0.21421458 -0.14207298 -0.065777615 -0.3412616 -0.19304547 -0.19302788 -0.06349187
-0.10640072 -0.25944 0.038998466 -0.15919872 0.12887412 -0.20164391 -0.06719652 0.14081456
0.0631839 -0.21274866 -0.15300183 -0.20621383 0.11099073 -0.20171688 -0.22548339 -0.1619082
0.039293107 -0.027335921 -0.0074376385 -0.39558476 -0.14283273 -0.21382372 0.2799917 -0.23428094
-0.23695868 -0.28772274 -0.026383065 -0.19905914 -0.2667888 -0.29937834 -0.21409446 -0.21677095
-0.15534496 -0.014186813 0.41963357 -0.07540039 -0.1782434 -0.1544267 -0.0825545 0.23509343
-0.28446254 -0.03357103 -0.05538966 -0.2956005 -0.32766306 -0.20685594 -0.26608238 -0.1279813
-0.14743266 -0.17138952 0.08894401 0.011641361 -0.21079376 -0.23477545 -0.15801649 -0.18258283
0.07945388 -0.3355226 -0.021296088 -0.2362427 -0.17415333 -0.08227982 -0.19069636 -0.22430475
-0.22547768 -0.046771504 0.17076202 -0.3398338 -0.28422007 -0.29326648 -0.15586817 -0.113852635
-0.14155383 -0.04452407 -0.25069115 0.15661345 -0.06049888 -0.03685275 0.0859097 -0.15280528
0.26577905 -0.06256359 -0.26600105 -0.014475474 -0.12959112 -0.109115586 -0.2329721 -0.10021134
-0.16730309 -0.23238093 -0.09282276 -0.046531763 -0.21152967 -0.20623258 -0.08189252 -0.26532313
-0.037395854 -0.15105416 -0.25263837 -0.289478 -0.055056456 -0.24094495 -0.13521744 -0.3269007
-0.23809116 -0.2320049 0.08654687 -0.053856257 -0.29695937 -0.2120663 -0.1015356 0.020932393
0.064771585 -0.16671383 -0.16980271 -0.12124769 -0.17228824 -0.14940006 -0.05886462 -0.35484213
0.19616795 -0.22472748 -0.15083003 -0.28720796 -0.09896596 -0.21315493 0.21423 -0.05984732
0.003910105 0.0110012675 -0.1373056 -0.06444184 -0.18647449 -0.24475344 0.17378166 -0.09967693
-0.28841847 -0.09552694 -0.15403907 0.0025015585 -0.18450898 -0.2396673 -0.02668746 -0.19781153

to_mean.0.weight f4 [128, 256]
00000000: 0b97 a63d 4483 c93b dc75 11bd 2d20 26bd
00000010: 4c26 a7bb 0cdf 9ebd 82cd 1c3d 9d62 87bd
00000020: d626 8dbc 7c85 31bc f3f3 223d a42c 29bd
00000030: 6e1a 223d d191 03bc 8c34 163d 98a7 afbc
00000040: 62f3 b8bc 2b24 8abc aa18 b43c aae6 f5bc
00000050: 0fca 043d f813 423d 443b 5e3d 1bce 223d
00000060: 8c10 61bd 9a45 8cbd 371c 4fbd 8e00 19bd
00000070: 3acc 30bd b2b0 9cbd d249 3a3b 44e4 a23b
00000080: e50f 773d 7e52 b0bc 4964 5fba 3c8e 3f3d
00000090: b592 4d3d 5f4c 00bd 7296 57bc 1e78 9fbc
000000a0: d21b 003d cd1f 1e3c b035 8e3d a109 97bd
000000b0: a078 bfba 0292 02bd 9cd2 5ebd c752 643d
000000c0: 1647 9dbd f3b5 9ebd 7be0 30bc 5e6a c9bc
000000d0: 61d8 a03b 9954 3dbc e19e 973d c64a bcba
000000e0: a8f3 12bc 87eb fb3b 903a e0bc e47a 043d
000000f0: ba6a fbbc 2ebc 5cbd e049 a8bc 33bc 3b3c
00000100: 7a94 073c d54a a13d 290b 4dbd f8ab 09bd
00000110: d93f 313c 0b10 1d3d 0098 43bd 7db4 7fbb
00000120: dd68 f33d e878 5d3c 5462 48bd 6b8f 46bd
00000130: b3fc 91bd 0467 b13c 8347 a4bc a637 263c
00000140: 4e28 d4bc 8bcb 9bbd 4389 813d 1eb2 143d
00000150: 6bc7 67bd 9bc6 cabc 8423 80bd c3f5 7ebc
00000160: 7ca6 7d3d 9ca4 f9bb dd39 a9bc c49d 44bd
00000170: 9b72 833d 1735 13bd e368 d9bc 1adf 913c
00000180: b744 e7bc 629a 6e3c b87a 8a3b 5214 74bc
00000190: 709b 9c3c a97b 51bd ff45 37bd a055 203d
000001a0: 2c1d 61bb d94f abbd 8f99 07bd 4a39 65bd
000001b0: df12 323b bdf9 e1bc fb9a 8d3c 8021 32bd
000001c0: 0d38 b2bd cec5 0e3d 70d0 9a3d aaa2 a6bc
000001d0: 3901 a4bb 530a d13c 984a efbc 2c62 6a3d
000001e0: 2aff 1ebd 2487 3f3d 9caa 98bc 65d8 6dbd
000001f0: ddbc 54bd 1605 12bc cf94 4e3c 56c1 90bd
00000200: 5aa2 c2bd 4980 c53d 02cf 3fbc 7f5f 3f3c
00000210: c471 143d 009f 59bc 2abf 19bd 6f67 243c
00000220: 2c73 60bc 5811 d5bc 57d5 5a3c 2e23 27bb
00000230: e109 77bb 68bc 313c 4557 36bd dfa8 89bc
00000240: 6098 dc3c b02b aebb 8542 bcbd 1973 e4bc
00000250: 9c43 63bd 0cf6 60bc f24d e2bd 4357 333d
00000260: 5da3 323d 28a0 56bd f14d 88bc 28bf 413c
00000270: b308 823c 6576 83bc 8f33 17bd 40f1 603c
00000280: a487 c0bc 2ebf 18bd 289b e03c 8635 033d
00000290: c283 53bb e2ff b03d 4fe9 cebc fe11 a53b
000002a0: 2639 d9bc 6f64 fd3b 4835 2b3c 3522 dbbd
000002b0: d13d ec3c 484b c7bc f9dc c43a 7c3b 05bd
000002c0: 326c 893d 6fa0 3cbc 22c1 fe3c ba1d 1e3d
000002d0: 9207 403d 1a43 a53c 041a 98bc c76a 713c
000002e0: 30b0 39bb e1f1 713c 5a1e 8e3d a567 1dbd
000002f0: eace a13b 0f3a ce3d fcd9 323d fc2d 4b3d
00000300: ce6b afbd 9570 c4bc 49b3 80bd cb88 69bd
00000310: 5a99 52bd c3cf ee3c c905 6bbd 8a37 c9bc
00000320: d444 233d 4cef 4bbc a594 993c 93bd 6a3a
00000330: 6490 813c af90 acbc 361b c63c 6216 1b3d
00000340: a23f dfbb 413e f0bb fdee 8abc 8dd2 f53c
00000350: e60b cebd 04a6 0b3d 2d3b 3c3d 5a55 82bd
00000360: 2046 863c 48ad b33d 8c44 0dbd f181 97bd
00000370: 238f 8b3c c68c 6cbc 4726 b6bd b621 353d
00000380: 7b38 2b3d 04b6 133d 9353 f93c 6899 e4bc
00000390: 8932 edbc d68f 8e3d 0c81 13bd ff05 a7bd
000003a0: c537 a7bd aeee 09bc a68f b23c 3d82 a03a
000003b0: 7051 ae3c 3691 5fbd daed 203d 952a 9fbb
000003c0: b35f 0dbd c52d e63c 90be 11bd 7037 543d
000003d0: e1e1 533d c7c2 a93d 7ce2 c73c 9fe9 4bbd
000003e0: f399 663c 3de0 8abd 65dc 35bc 3687 9cbd
000003f0: d9f8 623c c471 893b d90c 87bd bfb0 a4bc
0.08134278 0.0061496813 -0.03551279 -0.04055803 -0.005101001 -0.077573866 0.038281925 -0.06610606
-0.017230432 -0.010835048 0.03978343 -0.04130234 0.039575987 -0.008030371 0.036671206 -0.02144222
-0.022576991 -0.01686295 0.021984417 -0.030017216 0.03241926 0.047382325 0.05425574 0.03974734
-0.05494742 -0.06849213 -0.050564017 -0.037354045 -0.043163516 -0.076508895 0.0028425348 0.004971059
0.060317893 -0.02152371 -0.00085217186 0.046766505 0.05018874 -0.031322833 -0.013158428 -0.019466456
0.03127653 0.009651137 0.06943834 -0.073748834 -0.0014608093 -0.031877525 -0.05440007 0.055743005
-0.07679574 -0.07749548 -0.010795708 -0.024586853 0.004908607 -0.011555814 0.074033506 -0.0014365546
-0.008969225 0.007687989 -0.027371675 0.03234376 -0.03069054 -0.0538904 -0.020543039 0.011458444
0.008275146 0.07875601 -0.05005947 -0.033611268 0.010818445 0.038345378 -0.04775238 -0.0039017492
0.118852355 0.013517596 -0.048921898 -0.048476618 -0.07128277 0.021655567 -0.02005363 0.010145104
-0.025898125 -0.07607182 0.06325009 0.03630268 -0.056586664 -0.024752906 -0.06256774 -0.015561524
0.06192635 -0.0076185 -0.020657474 -0.04800202 0.06418344 -0.035939302 -0.026539272 0.017806578
-0.028231008 0.014563175 0.004226055 -0.014897423 0.019117087 -0.051143322 -0.044744488 0.03914416
-0.0034349663 -0.08364839 -0.03310543 -0.05596284 0.0027171893 -0.027584905 0.017285815 -0.04348898
-0.08702097 0.03485661 0.075592875 -0.020341236 -0.0050050286 0.025517618 -0.029210374 0.05722253
-0.038817562 0.04675974 -0.01863604 -0.058067698 -0.051937927 -0.008912345 0.012608721 -0.07068126
-0.09503622 0.09643609 -0.011707069 0.011680483 0.036241308 -0.013282537 -0.037535824 0.010034426
-0.013699334 -0.026009247 0.013356528 -0.0025503146 -0.0037695097 0.010848142 -0.04451682 -0.016804157
0.026928127 -0.0053152665 -0.09192375 -0.027886914 -0.0554844 -0.013730537 -0.11050023 0.04378439
0.043612827 -0.05239883 -0.016638728 0.01182536 0.015873289 -0.016047666 -0.036914404 0.0137293935
-0.023502178 -0.0372917 0.027417734 0.032033466 -0.0032274579 0.08642556 -0.025257735 0.005037545
-0.026516508 0.00773292 0.010449715 -0.10699884 0.02883807 -0.02432789 0.0015019468 -0.03252743
0.0671009 -0.01151286 0.031097952 0.03860257 0.04688222 0.020173598 -0.018567093 0.01473493
-0.0028333776 0.014767141 0.06939383 -0.03842892 0.004937996 0.100696675 0.043664917 0.0496044
-0.08565484 -0.023979465 -0.06284196 -0.05701522 -0.05141578 0.029151803 -0.057378564 -0.024562616
0.03986056 -0.01244719 0.018747637 0.00089546404 0.015815921 -0.021065084 0.024182897 0.037863143
-0.0068130055 -0.00733164 -0.016959662 0.030007625 -0.10060863 0.03409387 0.045954872 -0.06363936
0.01639086 0.08773285 -0.0344892 -0.07397831 0.017036026 -0.01443786 -0.088940196 0.044221602
0.04180191 0.036062256 0.03043536 -0.027905181 -0.028954761 0.06961028 -0.03601174 -0.081554405
-0.08164934 -0.008418722 0.021797013 0.0012245845 0.021279067 -0.054581843 0.039289333 -0.004857371
-0.034515094 0.028097996 -0.035582125 0.05181068 0.051729087 0.08289104 0.024399988 -0.049783345
0.01407479 -0.06781051 -0.011099909 -0.07642977 0.013853275 0.00419447 -0.06594247 -0.02010381

to_mean.0.bias f4 [128]
00000000: a55c 4b3d 2c4c 6abb ae3a 5abc 2e2b 8ebd
00000010: 10a0 74bd 2328 d9bc 4944 a6ba e2aa 0b3d
00000020: dec2 bf3b ba1f 62bc 1bc9 97bd be31 bfbd
00000030: 9d88 6ebd b5f5 223d 76e8 b3bc 5a88 3dbd
00000040: 9e11 1f3d 57ac efbc 690f 383d 9a6c a5bd
00000050: f073 af3c 7fea 69bc 6fa8 273d bbad ae3a
00000060: 2d1a b4bd 82f6 833c ecd9 f9ba e761 88bc
00000070: be35 5c3c 680d 4cbd b447 5abd d305 283c
00000080: cc9e 04bd 507a 0f3c 79c3 b8bd 5495 5ebd
00000090: 0db3 793c 190a 97bd e6de 84bd 0cea 9cbd
000000a0: abe1 3b3d 2b96 753d 9a8d a7bd 238a 42bd
000000b0: 7583 353d 98df b9ba 1e52 0ebc 7592 853c
000000c0: e176 67bd ef6e aebc 1867 363d 0bf7 09bd
000000d0: 52ac 653d 4345 48bd 5cc8 99bd ed85 57bd
000000e0: 805a d43c f559 adbd 7d76 af3c 105b 7dbd
000000f0: 8cef 433d c175 a7bc 6eb2 5ebc 5ca5 69ba
00000100: ba2d d1bd ec11 a83c 2a32 8a3d b395 e1bd
00000110: ede9 9dbc 4210 0abb 49e1 2ebd 5800 12bd
00000120: f410 b03c 203c 58bd cd70 d4bd 3540 093d
00000130: 814d 33bd 41d5 7abd 99b5 433b 663f 39bd
00000140: 49e5 f03c f41e dd3b acca 2738 24f2 63bc
00000150: e28f 983b c0c9 27bd a377 533a 8fd4 2cbd
00000160: b834 2a3d 4813 d5bc be45 283c fdd9 edbc
00000170: 94d6 a1bd b421 a7bd 7e42 dabb 77e9 32bc
00000180: 8325 bdbb ddbb f4bc 99de a9bc e39f 953c
00000190: 0adc bfbd e731 923d de72 39bd 45e4 cb3c
000001a0: e602 d5bc 006c a1bd 8f10 8abd 7c65 8dbd
000001b0: 493c 993d e1d9 243d 3b3b 873c accf 71bd
000001c0: a4b6 0f3d d035 62bd 568d 13bd d02a 0e3d
000001d0: 875c 953c a721 5fbd ca94 04bd a036 0d3d
000001e0: 7f49 e63c 1c49 a7bd 2873 25bd 33f7 e33c
000001f0: 0c3d 193d 21a3 71bc a4d1 b73c 17ea 863c
0.0496489 -0.0035750968 -0.013319654 -0.069418296 -0.05972296 -0.026508396 -0.0012685145 0.034098513
0.0058520874 -0.0138015095 -0.07411405 -0.093356594 -0.058235753 0.039785106 -0.021961432 -0.046272613
0.03883516 -0.029256983 0.04493657 -0.08077355 0.021417588 -0.0142771 0.040932115 0.0013326922
-0.08794055 0.016108755 -0.0019062138 -0.016648246 0.0134405475 -0.049817473 -0.053291038 0.010255295
-0.032378003 0.008757189 -0.090216585 -0.05434163 0.015240443 -0.07374973 -0.06487827 -0.076618284
0.04586951 0.059957664 -0.08181305 -0.04749502 0.04431482 -0.0014181016 -0.00868657 0.016305188
-0.056509856 -0.021293132 0.04453191 -0.033682864 0.05607254 -0.048894178 -0.07508919 -0.052617956
0.02592206 -0.084644236 0.021418804 -0.061854422 0.04783587 -0.020441892 -0.013592346 -0.0008912885
-0.102138 0.020516358 0.06747849 -0.11014881 -0.019276584 -0.002106682 -0.042695317 -0.03564486
0.021492459 -0.052791715 -0.103730775 0.0335085 -0.043775085 -0.06123853 0.002986288 -0.045226477
0.029406207 0.0067480747 4.0004656e-05 -0.013912711 0.004655824 -0.04096389 0.00080668385 -0.0421949
0.041554183 -0.02601017 0.010270534 -0.029034609 -0.07902256 -0.08160725 -0.0066607585 -0.01091992
-0.005772294 -0.029874736 -0.020736026 0.018264716 -0.09368141 0.07138424 -0.04527556 0.02488912
-0.026002359 -0.078819275 -0.067414396 -0.06904122 0.074822016 0.040246848 0.016507735 -0.059035942
0.03508629 -0.0552271 -0.03602346 0.034708798 0.018232597 -0.054475453 -0.03236846 0.034475923
0.028111218 -0.081682414 -0.040393025 0.027827835 0.037411734 -0.014748366 0.022438832 0.016469045

to_mean.2.weight f4 [18, 128]
00000000: 0707 c2bc ffc8 bd3b 9fa6 d93c 5f50 76bd
00000010: aa47 13bd d57a 36bd 8184 e8bc 0ec2 10bd
00000020: c1ea e5bc 27ec 1a3b bb06 aebc c3d5 1abd
00000030: 2d58 b1bc faba 01bb ae18 d5bc 303c 1a3c
00000040: dfb0 d9bc 954b 10bd 3509 19bd 29d8 763b
00000050: 2268 32bd 69ca 33bd 7b09 62bd d6c0 2f3d
00000060: 6f6c 55bc dee1 203d b4a4 f7bc 888a 11bd
00000070: 0ce0 bbbc e767 12bd 0bd8 e53c 64a6 dbbc
00000080: 828f 40bc c88e f6bc 5021 d7bc 50f3 f33b
00000090: ce0d 64bc 5be5 8ebc 2c41 c3bc 4991 b6bc
000000a0: 4bca dbbc 7185 57bd ce57 d33b 8125 05bd
000000b0: 95f8 a9bc d2b4 7dbd dd75 a2bc 09f8 28bd
000000c0: 39a4 2ebd 9e4a f7bb ee78 c3bc ec4a c3bc
000000d0: 0373 d7bc 2b6b f1bc b006 2cbd 308a 2cbc
000000e0: 8e63 bb3c 528d 9fbc b5c0 46bd da03 abbc
000000f0: cd4f d0bd 3c2c 35bd 8f13 16bd 14ab 1abd
00000100: 8e38 7dbd 6fad 01bd 720a ebbc 1197 3bbd
00000110: 9eff 00bd 3e2e 2bbb ff1e 93bc 20ca df39
00000120: 922d 69bd dbe6 27bd b5ce dcbb 812a 1ebb
00000130: 6c57 e4bc 2976 15bd 4bca 03bd 6258 24bd
00000140: 4d9e d1bb 4346 063d e058 d0bc 3447 66bd
00000150: c1c3 d8bc 4c98 dfbc f93b 08bd 6369 003d
00000160: 1f51 54bd bffb b8bc 3d13 87bd 18ce bcbc
00000170: 39ac 2bbd 0511 b5bc 55d5 c23c ca0f 24bd
00000180: 86bc 8b3a 1c89 493b 1f6b 46bd 5496 4fbd
00000190: 6c37 e2bc 81cf 04bd b637 8abc 2c44 f43c
000001a0: 05a2 64bc 108d aebc 300a 98bc db01 24bd
000001b0: ff0b f53c 206e d1bc 9fd6 11bc 8b13 0bbd
000001c0: 2a89 adbc 3c42 dabc b055 a4bc 924d d6bc
000001d0: 1f64 afbc eaaa 13bd c69b 66bd ef67 edbc
000001e0: 7551 8fbb f417 a3bc c2b6 0bbc a1a7 c0bc
000001f0: 2fde 6dbd 458b 47bd bf28 163d 3a2c 31b8
00000200: 049f 583d ab4d 143c b128 0d3d 1dee cb3b
00000210: 81fe 223d 26cf de3c f31f f63c 5afb 9c3c
00000220: 9e7c 1d3d 05fe c3bc f1b4 093d 7b59 913d
00000230: cc1e 19bd 1d5a 163d 1cfb 0abd bfa8 cc3c
00000240: 8dc0 ffbb 56af 6dbc a1e2 fb3c 2aa9 023d
00000250: f3b8 133d 9391 483c f28a 743d b380 033d
00000260: 5d2a 39bc 2112 c7bc 6bff 4f3c 1674 6f3c
00000270: 7f5a 31bc 52fd 9a3c 2e9d bb3c 789f cc3b
00000280: 760b c03c fd7b 373d fb12 543d c662 fa3c
00000290: 5603 463d db49 57bc 2cce 3b3d 0815 863c
000002a0: ce50 463d a956 a73c 942a d43c 9aba b9bb
000002b0: e3f8 28bd b774 9cbc d86f 0c3d 2ce0 183d
000002c0: 65a2 ce3c cc35 2a3d a17b dd3c 3b21 573d
000002d0: 656f 3b3d 043a 573c 59d5 c03c 663e cb3c
000002e0: 61c8 5dbd 94cd 1bbc 2ba9 353d 4420 f83c
000002f0: 531d f13c f010 333d ddfe 76bc 53e8 213d
00000300: 1e90 fa3c 2d18 083d c4c5 173d dd57 3bba
00000310: 5a4a 0f3d 8355 933c efaf cb3c 05f4 413d
00000320: eae9 133d 46d0 2f3d 05c6 edbb 0400 6f3d
00000330: 6b13 8d3d 7aee 783c 34b2 40bc 9ce9 d53c
00000340: 7d00 243d 7dcc ecbb e98c 363d 0f74 c0bc
00000350: 3c56 683d 8186 523d 1672 f23c ed0a 6fbc
00000360: 69fa 8c3c 8324 8cbc b1af 883d 3758 f73b
00000370: 1497 173d e40e eb3c 46e2 c93c 3fb9 b33c
00000380: cb92 1abd 6387 0abd 0b83 c0bc a454 5dbd
00000390: 482e 2c3d 8b91 643c 7b51 90bc 64f9 0dbd
000003a0: 4c07 cc3b da58 bd3c e355 3ebc 3cd3 753d
000003b0: cf82 8cbc 542d f13c 467e ea3c 1f6d 833d
000003c0: 0094 1d3d 6be0 4e3d c4c2 163d cd74 033d
000003d0: 8e5f 213d 8ee5 b53c c193 aabd 969f 543d
000003e0: 0855 e53c f25f 453c c578 65bd df4e 74bc
000003f0: 795d cf3c bc72 2f3d 71b4 2d3c 4ea5 503d
-0.023684992 0.005791783 0.026568709 -0.06013524 -0.035957016 -0.044550736 -0.028383495 -0.035341315
-0.028066041 0.0023639293 -0.021243444 -0.037801515 -0.02164849 -0.0019795285 -0.026012745 0.009413764
-0.026573597 -0.03522833 -0.037362296 0.0037665463 -0.04355634 -0.043894205 -0.055184823 0.042908512
-0.013026341 0.039277904 -0.030229904 -0.035532504 -0.022933982 -0.03574362 0.028057119 -0.02681274
-0.011752965 -0.03009738 -0.026261002 0.0074447766 -0.013919307 -0.01744335 -0.023834787 -0.022286074
-0.02682986 -0.052617494 0.006449676 -0.03250647 -0.020748416 -0.06194002 -0.019831592 -0.04125217
-0.042637084 -0.007546737 -0.023861375 -0.023839436 -0.026299959 -0.029470047 -0.041998565 -0.010530993
0.02287462 -0.019476566 -0.048523623 -0.02087586 -0.10171471 -0.04423164 -0.036639746 -0.03776081
-0.061821513 -0.03165954 -0.028691504 -0.045798365 -0.031493776 -0.0026120092 -0.017959116 0.0004268447
-0.056928225 -0.040991645 -0.0067385086 -0.002413422 -0.027873717 -0.03648964 -0.032175343 -0.04012335
-0.0063970448 0.03278185 -0.025433004 -0.05622025 -0.02646053 -0.0272943 -0.03326032 0.031350505
-0.051835176 -0.02258098 -0.06595466 -0.023047492 -0.04191229 -0.022102842 0.023783365 -0.04005412
0.0010661043 0.003075189 -0.048442002 -0.050680473 -0.027614318 -0.032424454 -0.016872268 0.029817663
-0.013954644 -0.021307498 -0.018559545 -0.040040832 0.029912947 -0.025565207 -0.008901267 -0.033954185
-0.021183569 -0.026642911 -0.02006039 -0.026160035 -0.021410046 -0.03605167 -0.0563009 -0.028980223
-0.004373724 -0.019908883 -0.00852746 -0.023517432 -0.05807322 -0.048716802 0.036659952 -4.2241278e-05
0.052886024 0.009051721 0.034462634 0.0062234537 0.039793495 0.027198385 0.030044531 0.019162823
0.038448922 -0.023924837 0.033619825 0.07097145 -0.037382886 0.036707032 -0.033930883 0.024982808
-0.0078049363 -0.014507135 0.030747714 0.03189961 0.036065053 0.012241739 0.05970282 0.03210516
-0.011301604 -0.024300637 0.012695174 0.014615079 -0.010824799 0.01891962 0.022902098 0.006244596
0.023442965 0.04479598 0.051775914 0.030564677 0.048343025 -0.013140167 0.045850918 0.01636745
0.048416905 0.020427065 0.02589921 -0.0056679966 -0.041252982 -0.019098623 0.03428635 0.037323162
0.02522392 0.04155521 0.02703649 0.052521925 0.04576053 0.013136391 0.023539232 0.024810027
-0.054146174 -0.009509463 0.044350784 0.030288823 0.029432928 0.043717325 -0.015075413 0.039528202
0.030586299 0.03322618 0.03705384 -0.00071465765 0.034983017 0.017985111 0.024864165 0.047351856
0.03611175 0.042923234 -0.007256272 0.058349624 0.06888469 0.015193576 -0.011761237 0.02611237
0.04003953 -0.0072265253 0.044567976 -0.023492841 0.056722865 0.051397804 0.029595416 -0.014590007
0.017209249 -0.017107254 0.066741355 0.007548358 0.037009314 0.028693624 0.024644028 0.021938918
-0.03773765 -0.03382052 -0.023499986 -0.054035798 0.042036325 0.013950716 -0.017616978 -0.034661666
0.006226456 0.023113657 -0.011617157 0.060015902 -0.017152218 0.02944056 0.028624665 0.064172976
0.038471222 0.05050699 0.036806837 0.03209381 0.03939777 0.022204187 -0.08328963 0.051910006
0.027994648 0.012046801 -0.056023378 -0.014911382 0.025313126 0.04283403 0.010602103 0.050938897

to_mean.2.bias f4 [18]
00000000: 8ea3 563c dd3d d63c ba7c ecbb 25e5 94bd
00000010: d290 703d e1db cebd 4883 8abd 1fd4 acbc
00000020: 05e2 823d 039f 7fbc a262 933b 7056 a93b
00000030: 2b02 463d e7ff 1abe f588 afbd 7218 033d
00000040: b62d d03d 20fb 723d
0.013100518 0.026152546 -0.007217017 -0.07270268 0.05873186 -0.10100532 -0.06763321 -0.021097241
0.06390766 -0.015601876 0.004497842 0.005167775 0.04834191 -0.15136681 -0.08571044 0.032005735
0.10164969 0.059321523

to_value.0.weight f4 [128, 256]
00000000: 5115 e1bd f72e b6bc 3462 173d 9ec4 24be
00000010: 0f46 0abd 16ed 403d a675 033b a98c d33a
00000020: 4d42 1bbe 1ebb 643e 623e 89bd 7d42 f6bd
00000030: 76f2 6a3d 885e 9cbd fa22 31bd 3789 f33d
00000040: 2fc9 8dbe 6449 80be 5e1f 0ebe 1294 0f3e
00000050: 419a 88be 8a73 63be b33a 9f3e cb5a 6dbe
00000060: c997 6abe ec5f 703c 884d 53bb afbd c13d
00000070: b086 2ebd 4928 fdbc f126 873e 255e 3abd
00000080: aa3c b43d f394 3d3e f3b0 59bd d6c2 043e
00000090: 329e b03d 539f 813e 6449 cabd 829b c33d
000000a0: ff45 793d 092e 9e3d 78c0 293e 805d 2cbd
000000b0: 0272 ac3e b117 433e 1172 463e be97 133d
000000c0: c020 eabd 2e75 9b3d 0ef3 d03c 8c72 febb
000000d0: b7b6 dcbb a3f8 923d 9395 8d3d 2889 2e3e
000000e0: 6675 413e 132b 3b3e ec66 143e 9b8d ef3d
000000f0: 5894 bb3d 7a9c 2dbd 6d19 0bbe a7b4 063e
00000100: 0954 56be d9ce 403e b5a1 893d 0775 b5bc
00000110: 99e4 5fbd 3a56 1c3d bb55 1c3d b24c 97bd
00000120: 29a8 e83d 5e47 fc3d 6dae 4e3e 3cd8 ad3c
00000130: fa14 4bbc ad6b bf3d 2942 083a c9ff 013e
00000140: 18c3 16be f4b8 60bb 5f36 a9bd 787f 29be
00000150: 0c67 f7bc f19d aebd c63a f13b 5b50 673e
00000160: 8941 abbe 3a71 253e 9473 0b3e ca66 e53b
00000170: f557 953b 8816 9b3e 989d 283d d497 623e
00000180: 19ca 8e3d 9441 3e3e a63b 52bd 825e 0dbe
00000190: f233 68bd d21f 523d 6d30 633e 3654 0c3e
000001a0: fd57 303e 5de3 50be 9ca0 d83c 91e8 9dbd
000001b0: 8a5d 923d ee5c 1f3e d0cb eb3d f9a3 973c
000001c0: d7b6 983d eb39 97bd a5e5 00bd b8bd 9dbe
000001d0: 828d d23d 1fa2 28be 77ca c63d c006 8a3d
000001e0: d555 2c3d d2c5 073e d298 6dbd d205 08bf
000001f0: 34f7 20be 46a6 903d 953b 2ebe 29a1 853d
00000200: 2116 7a3d 1bf9 b03d 3f3e 333d 7ec3 a33d
00000210: b648 783e 4017 313b d957 2f3d 1122 73bd
00000220: c54d ab3d 930e c53d 103d 39bd 1749 a43d
00000230: 2041 4c3e e7e5 a23d 754a 8d3e 2f7f e03d
00000240: f192 44be ee00 0cbe 5940 7abd 0a5f 70be
00000250: 29e6 d53d dc76 5ebe c102 70be a6e2 f5bd
00000260: 082f 223e 9450 e13d 332d abbc 2510 e93d
00000270: ab69 a1bd 4263 9ebc 439d 08bd 9142 953c
00000280: 01bd 54bd 6ff8 4bbc 8a37 4abd 9c76 d03c
00000290: 927b 403e a7d5 90bd d24c 17be 5d8b 6ebd
000002a0: 89b1 b5bd 8ee9 19bc 097c 543d 7ea3 413e
000002b0: 6499 bc3c 4ea3 3cbe 790c e43d 8ddd 65be
000002c0: d2d6 5dbd d427 a73d 8668 c93c acbc 843c
000002d0: 34bb 1e3e 6695 173e 8d0c ccbc 06cc 20be
000002e0: 55e7 16be afeb 89be 1f32 bf3d e37d c4bd
000002f0: eeb0 5e3e 5727 053e 2f19 b0bd 5aba c13a
00000300: 9b93 3abd 468b b1bd dcb7 6c3e d789 aa3c
00000310: e895 503e f6bf 1f3e fafb 6f3d 30d7 4b3e
00000320: a165 193d aa9d 303e 6c40 11bd 83cd 08bd
00000330: 2e21 57bd 6ffd 1a3d f051 b3bd e3f5 693e
00000340: 9cee 9fba 5486 123e 77f8 1b3e 4d40 b6bd
00000350: 902d 493e e14e 923e f27a f6bd 17e9 e93d
00000360: bc57 a83d 74ac 273d 7c4c 34bd 0f94 11be
00000370: 1dbf c03d 71f8 6dbe 7e23 ad3d 729c f2bc
00000380: 0634 01be e472 babc d1d2 bc3d 8d27 4a3e
00000390: 2b64 1dbe f253 d13d 57a3 463d d963 0bbd
000003a0: c061 7fbe b428 16bd 3e68 443e ac5a 513d
000003b0: 2152 0f3d 0020 a33d 19b4 6e3c 4197 993d
000003c0: 19da ddbd 98bf 1f3e f08a 56be 8011 3cbd
000003d0: b8ed 3e3e 07d8 263e a962 06be a0db 593d
000003e0: 668f a43d 89ea 823e 8644 6a3e bf07 84be
000003f0: cb0b 993c 5026 a6bd bb58 06bd 2521 c33d
-0.10990394 -0.022239191 0.03695889 -0.16090629 -0.03375822 0.047101103 0.0020059138 0.0016139942
-0.1516201 0.22337005 -0.06701352 -0.120244004 0.057360135 -0.07635218 -0.043246247 0.11891406
-0.27692553 -0.25055993 -0.13879153 0.14021328 -0.26680186 -0.22212043 0.3109947 -0.23179166
-0.22909464 0.014671307 -0.0032242257 0.094600074 -0.042608917 -0.030902999 0.26396897 -0.04549994
0.08800633 0.18513851 -0.053147268 0.12964949 0.08623923 0.25316867 -0.098772794 0.09551145
0.06085777 0.07723624 0.16577327 -0.042081356 0.3368073 0.19052006 0.1937945 0.036033385
-0.11432028 0.075907096 0.025506523 -0.00776512 -0.0067356485 0.0717633 0.06913295 0.17044508
0.1889244 0.1827815 0.14492387 0.11696931 0.09159154 -0.042385556 -0.13583918 0.13154851
-0.20930494 0.18828906 0.06720296 -0.02215053 -0.054661367 0.03816817 0.038167696 -0.07387675
0.11360199 0.123183 0.20183726 0.021221273 -0.012395138 0.093467094 0.0005197847 0.1269523
-0.1472286 -0.0034289928 -0.082623236 -0.16552532 -0.030200504 -0.08526219 0.0073617427 0.22589247
-0.33448437 0.16156474 0.13618308 0.007000779 0.0045576044 0.30290627 0.041165918 0.2212823
0.06972141 0.18579704 -0.051326416 -0.13805583 -0.056690164 0.051299877 0.22186442 0.13703999
0.17221065 -0.20399232 0.026443772 -0.07710374 0.071467474 0.15562794 0.115134835 0.018510805
0.07456749 -0.07384094 -0.031469006 -0.30808806 0.10280897 -0.16468094 0.09706586 0.06739569
0.042074043 0.13259056 -0.05800707 -0.5313388 -0.157193 0.07062964 -0.17014916 0.065248795
0.06105626 0.08641263 0.043760534 0.079962716 0.24246487 0.0027021915 0.042808387 -0.05935866
0.08364443 0.096219204 -0.04522425 0.08021753 0.19946718 0.07954007 0.2759587 0.10961758
-0.19196679 -0.1367223 -0.061096523 -0.23473755 0.1044429 -0.21725029 -0.2343855 -0.120061204
0.15838253 0.11001697 -0.020895576 0.113800324 -0.07881483 -0.01933444 -0.0333531 0.018220218
-0.05193806 -0.012449368 -0.049369372 0.025447182 0.18797138 -0.07072001 -0.14775398 -0.058238376
-0.08871753 -0.009394063 0.0518761 0.18910024 0.023022361 -0.18421671 0.111351915 -0.22447796
-0.054159947 0.081618935 0.024585973 0.016203247 0.155011 0.14803085 -0.024908328 -0.15702829
-0.14736684 -0.26937625 0.09335732 -0.095943235 0.21747181 0.13003288 -0.085985534 0.0014780269
-0.045550924 -0.086691424 0.23117012 0.02081768 0.20369685 0.15600571 0.058589913 0.19906306
0.037450437 0.17247644 -0.035461828 -0.033399116 -0.052521877 0.03783935 -0.08755863 0.22847705
-0.0012201848 0.14309055 0.152315 -0.08898983 0.19646287 0.28575805 -0.12035169 0.114214115
0.08219859 0.04093595 -0.044018254 -0.14216636 0.09411452 -0.23239304 0.08454035 -0.029615615
-0.12617502 -0.022759862 0.092198975 0.1974165 -0.15370242 0.102210894 0.048495617 -0.03403077
-0.24939632 -0.03665991 0.1918039 0.051111862 0.034990434 0.07965088 0.014569306 0.074995525
-0.108326145 0.15600431 -0.20951438 -0.045915127 0.1864537 0.16293345 -0.13123573 0.053187966
0.080351636 0.2556956 0.22877702 -0.2578716 0.018682381 -0.08112776 -0.032799464 0.09527806
