save7_1_23/save4_walk_18dofs_1800.pth (torch, 282843 bytes, 11 tensors)

shared_net.0.weight f4 [256, 73]
00000000: cda6 12bc e785 a53e c9a1 fcbd 8453 b6bd
00000010: 9ddf 06bd 98dc 223e f170 4b3d 710f 883d
00000020: f6f4 b4bc e3d4 6a3d 33ab 2fbe b05b 17bc
00000030: f485 18bd 21ee 9bbe 4386 24be 18e5 563d
00000040: 0587 9d3d 0f64 553e dcab 113e 3443 cf3c
00000050: 90f5 9c3d 7b6f 893e 1a07 dbbe 3926 c73d
00000060: d673 87bd 783b 513e 87d5 143e fc91 d3be
00000070: 69d1 423e b7fe 31be 0e32 23be c2f8 c33d
00000080: 6741 c4bd 5882 bdbd cecc 37bd 1da1 71bd
00000090: 0e67 d4bd cac6 ac3d dc45 7a3d f193 20bd
000000a0: 2d8b 51bc 1843 75bc c77d ca39 4b4d acbd
000000b0: 0afc 1b3c fbcc f2bd 6937 0f3d aecc 433d
000000c0: 905a f9bd c359 c53b 0388 c63d 5df8 d53d
000000d0: ea02 673d e031 8d3d f92e 763d 8074 4ebd
000000e0: 6648 633c 6588 bfbd c890 93bd a730 14bd
000000f0: b3f6 903d ae09 a03d 07c3 60bd 7ab0 1f3d
00000100: 72a8 9c3d 7623 6fbc ab80 223c d234 123d
00000110: 7bb9 123d f5af 073e 6e04 d4bd 3db7 06be
00000120: 17ce 053d 5733 1a3e aca1 d93d b027 8f3e
00000130: 0a65 6bbd b22e 02be 7cb4 483d 71af 32be
00000140: 349c 44be 5e24 c63d 10df 2f3e 9c7f 42be
00000150: d4ad c3bc fda6 753e 2c2d 1f3d 2c4e bd3d
00000160: 9b11 a13c 69d1 14be 5419 093e eeac c83c
00000170: 8657 a8bc 0c71 c13d 03be 3b3d d830 183e
00000180: 6f19 853e d9ad 2b3e 786e a6be a167 e1bd
00000190: 7084 79bd 476d 79bd cbac 663e b060 5cbd
000001a0: 7163 a5bd 9925 b1bd 01c2 febd 490c fabd
000001b0: 7a37 8f3c 1ed3 d3bb f39b d3bd 6f15 833d
000001c0: 4e69 cd3c 400b 653e 2af9 bf3c d1df 83bd
000001d0: c467 39bd 0d87 2c3b 3667 973d 2916 8e3b
000001e0: dcfe c53d 9586 3bba 028d 60bd d5d4 a13d
000001f0: 7e8a f2bd 509a 77bd 1462 c13c 2e4f 4fbd
00000200: 91a1 4cbd c8f9 9bbd 8570 103e a9fd cd3c
00000210: 266b 91bd 041a e33a 0a2d 7e3d 0b44 6fbc
00000220: 0d65 a6bb 7109 7eb8 29e9 413d 260a 193e
00000230: e950 c83d bffb 3e3e 3978 d93d 3cb5 8bbd
00000240: 5d46 c1bd 1c81 673c 099c 813d fc85 0ebe
00000250: 3569 40bd b0d7 15be 2fc1 dabd f0ff 4fbe
00000260: c408 af3c 5354 36bb 4462 1e3d 8423 3cbd
00000270: a033 b23d b7b7 36be 1bf9 2fbe 8a0a 813d
00000280: 7be2 0abe 0132 00be 0a81 96be 2dc8 08be
00000290: 802d 8abe efac 4fbe 79ef 31be 9c58 02bc
000002a0: 769f 763e 0a18 debd 0afc 0f3e 3f33 a6be
000002b0: c65c ca3d 1db0 183e d24b a7be afd3 ac3e
000002c0: e79f 853b 3d31 f7bd c1da 153d b3b8 c9bd
000002d0: 2f78 e93d badc a13c 090c f8ba 0d23 b43d
000002e0: 8945 f13d 426b 333d d5de b6bd 7aeb d2bd
000002f0: d547 8ebd 9384 413d ff0e d83d 43c3 4a3e
00000300: 8263 cc3c e184 43bd b24f d5bd c863 8ebd
00000310: 5e0a ebbd 10bb da3c 2f67 35bd dcf9 ebbb
00000320: abbe bbbc 619b c33d 37fd b4bd e70c 4fbe
00000330: 4bb4 7dbd 5ce8 d83d 21a1 ecbc 2de0 a93d
00000340: 2fcc 063d 9e5e f63c 8f7d 183c 3262 04bd
00000350: b6b1 373d ba98 a2bc 82c0 a0bd 25e8 2c3e
00000360: 18f9 0cbe e5ef 2ebe 558d 323e 4cd8 98bd
00000370: aec8 74bd 4e80 5a3e 5892 4b3d c5ca b5bd
00000380: 71a2 9fbe e530 003e e23a 99bd 8d76 bc3b
00000390: 9de0 43bd 9c76 7bbc ef4a 1fbd 2086 7b3c
000003a0: 9bf8 37be 9723 a43d 0ee7 263e a53b b6bd
000003b0: 6364 703d a7b5 d3bd d5f9 c4bd d369 e63d
000003c0: a1b8 6bbc 8217 063e 3bec eabd 57ca 1e3e
000003d0: 9539 02be e23f d2bd c9b9 d53c 5720 43be
000003e0: 5d3d aabd 0b5b 70bd 7c5b 273d e43a f43d
000003f0: fe16 9d3d 2743 b1bd 7c0a 5bbd ac65 34be
-0.008950901 0.32328722 -0.123355456 -0.08902648 -0.032928098 0.15904462 0.049668256 0.0664357
-0.022089463 0.05733193 -0.17155151 -0.009238169 -0.037237123 -0.30455115 -0.16066842 0.052464575
0.076917686 0.2083895 0.14225715 0.0253006 0.07664025 0.26842865 -0.42778856 0.09724087
-0.06613891 0.20432842 0.14534579 -0.41322315 0.19025196 -0.17382322 -0.15937063 0.09568931
-0.09582787 -0.09253377 -0.04487305 -0.05899154 -0.103712186 0.084363535 0.06110178 -0.039203588
-0.01278953 -0.01496961 0.00038622154 -0.0841318 0.00952054 -0.11855503 0.034964953 0.04780262
-0.121754766 0.0060226633 0.09693911 0.10447762 0.056399263 0.068942785 0.06010339 -0.05040407
0.013872242 -0.09352187 -0.07205349 -0.03617921 0.07078304 0.07814346 -0.054873493 0.03898666
0.07649316 -0.014595857 0.009918372 0.035694905 0.03582142 0.13250716 -0.103524074 -0.13155837
0.032667246 0.15058647 0.106265396 0.27959967 -0.057469405 -0.12713125 0.04900025 -0.17449738
-0.19200212 0.09674905 0.17174935 -0.18993992 -0.023886599 0.23989482 0.03886144 0.09243426
0.019661715 -0.14533009 0.13388568 0.024496522 -0.020549547 0.0944539 0.045835506 0.14862382
0.25995967 0.16765536 -0.32506156 -0.11006094 -0.060917318 -0.06089523 0.22526853 -0.053803146
-0.080756076 -0.08649749 -0.12439347 -0.122093745 0.017482508 -0.006464376 -0.10332479 0.064005725
0.025074627 0.22367573 0.02343424 -0.06439174 -0.045264974 0.0026325614 0.07392733 0.004336138
0.09667751 -0.0007153538 -0.054821976 0.079019226 -0.118428215 -0.0604499 0.023606338 -0.05061262
-0.04995877 -0.07616001 0.14105423 0.025145369 -0.07100515 0.0017326479 0.06205467 -0.014603625
-0.005077964 -6.0567112e-05 0.0473415 0.14945278 0.097810574 0.18650721 0.10618634 -0.06821677
-0.09437249 0.014129903 0.063285895 -0.13918298 -0.046975333 -0.1463306 -0.10681378 -0.20312476
0.021366484 -0.0027821257 0.038667932 -0.045932308 0.08701253 -0.17843519 -0.1718487 0.06300838
-0.13562958 -0.12519075 -0.29395324 -0.13357611 -0.2698784 -0.20280813 -0.17376508 -0.007955696
0.24084267 -0.10844429 0.14060989 -0.32460973 0.098809764 0.14910932 -0.32675034 0.33755252
0.0040778997 -0.12069938 0.036585573 -0.09849682 0.11399876 0.019758571 -0.0018924485 0.08795748
0.11780841 0.04380346 -0.089292206 -0.1029882 -0.069472946 0.047245573 0.10549735 0.19801049
0.024949793 -0.047734145 -0.10415591 -0.069526255 -0.11476587 0.026700526 -0.044287857 -0.0072014164
-0.022918066 0.095511205 -0.088373594 -0.20219766 -0.06193952 0.10591194 -0.028885426 0.08294711
0.03290957 0.030074414 0.009307279 -0.03232021 0.044847213 -0.019848216 -0.07849218 0.16885431
-0.13766897 -0.170837 0.17436726 -0.0746313 -0.059761696 0.21338007 0.04970011 -0.08876566
-0.3117862 0.12518652 -0.07481934 0.005751437 -0.04782163 -0.015348103 -0.03888982 0.015351802
-0.17965929 0.08014601 0.16299078 -0.08898095 0.058689486 -0.10337382 -0.09617964 0.11250653
-0.014387281 0.13094905 -0.11470839 0.15506874 -0.12717278 -0.10266091 0.026089566 -0.19055305
-0.08312485 -0.058680575 0.04085873 0.11925295 0.07670401 -0.086553864 -0.053476796 -0.1761691

shared_net.0.bias f4 [256]
00000000: ffe8 5b3c 3da8 6b3d 431f a7bc c781 e73c
00000010: 8550 52bc e564 73bd 2713 d33d 4aec 2d3d
00000020: edd6 f3bd f1b7 babd a89f 80bd e932 fdbd
00000030: 3782 f13d a3b3 8cbd ff22 d93b 9b43 9a3d
00000040: 3163 d1bb c05c 853d 6dd5 7abd bcfd bbbd
00000050: 5b1c 793c cde0 853d 88b4 e23d 1a9d c6bd
00000060: c44a 9bbd 42d6 b8bd bfd2 da3d 43f9 a13d
00000070: a1f3 a33d bbe6 9e3d 22d6 dd3b fe65 253d
00000080: 345a 89bd b2f2 9fbc 020b a2bd f4e1 a2bd
00000090: 302a 05be 9463 383d e8b9 e73d 8e18 92bd
000000a0: d0fe 0cbe fccb 42bd 195b e13c 2777 cb3d
000000b0: 657d b33d ec15 e7bc 10e1 003e 966b 933d
000000c0: 4a08 0b3c 0ec6 6fbd d349 cfbd 7bff 42bb
000000d0: 7b65 de3c 58f3 1ebd 45b4 4a3d 686c 843d
000000e0: 84d0 123c d8cc a33c 109c 19be e272 c13d
000000f0: f25d c13c 917c 67bd 8e81 7abd 66d1 a3bc
00000100: 08a2 16bc ad4a 32bc 819f 0d3c 2ca0 853d
00000110: b914 773d fb85 d13d 366d 30be b7cd 523c
00000120: 1d9b 06be b896 69bd d510 d3bd 8873 963d
00000130: 281a 8e3c 27bc 033e 5c36 ff3d 6a9e 2c3b
00000140: 24a3 2ebd ebe5 993d 427a 6e3d 9a09 503d
00000150: 3807 ddbc 3ab0 003d adf0 87bd 1f18 ea3d
00000160: a485 dc3d fb1e dcbb 4bef 88bc ae9e 8fbc
00000170: 0c2e 3d3d 063f c9bb 6b96 a0bd 8ead 97bc
00000180: a697 14bd 9a0e a53d 8dfd 70bd 8013 9dbd
00000190: b54c f23d 72c7 c9bd e8fe 513d 7a18 51bc
000001a0: 1685 d5bd 52ce c3bd c9b5 703b 3dd9 a2bc
000001b0: 1d49 5c3d a646 583d 5df4 17bd 4d93 d43d
000001c0: 5949 b83b 3fce 303d 82e2 3ebd 7094 24bd
000001d0: a134 32bd ceab a5bd ee9c 9bbd 80fc 293d
000001e0: 1d3a ba3d 5ce7 7b3d 6a1c f7bd de62 bd3c
000001f0: 494a dcbd a5f2 73bd 141b 30bd 32b7 7a3d
00000200: abe4 46bd 9ad6 1d3d 4f3e 5a3d 7f1f a9bc
00000210: 3819 d13d fde7 35bd 38b9 0d3c bdf1 a3bd
00000220: 40b8 e03c b0c2 05bd 1aa5 f3bd 26bb aa3d
00000230: 27e9 4b3d 5100 e6bc cc57 c9bd 82f8 2cbd
00000240: 8a50 803d 3844 01be 4c33 5cbd 4d6c c0bd
00000250: 9b1b 143e 5d42 943d b716 10be 80b5 02be
00000260: 3ccf 8fbd 8f63 d63d 3ac2 b53d f4cf b13d
00000270: 8f35 313d 7357 a9bd b6a7 c23c e1fd ce3d
00000280: 0045 ccbd 79c9 cebd 4b17 9e3d b968 0cbc
00000290: c6b0 8cbd 7c61 7ebd 6326 99bd 9533 19be
000002a0: a80c d93a d4c9 1ebd b1f1 9f3d e253 46bd
000002b0: e225 f9bc 9716 e3bd 382b 073e e726 95bb
000002c0: a143 89be eed8 8d3d 68d9 8a3d c93d e33d
000002d0: 1c35 e33d 2fad 0abd 02b7 023d 28ca c53d
000002e0: f679 cd3c b900 abbc 3ae6 90bb 7ced cebd
000002f0: 3faa bb3d 9d8d 463d 32ac 903d c75a 563d
00000300: f467 903d 8fd3 c23c ba6d 99bc f5c9 b0bc
00000310: 4fe2 4c3d f545 81bd ed22 113e a4e1 f73d
00000320: 2307 69bd aafc 59bd 1526 603c 112f a7bd
00000330: 85b6 1f3d b897 9c3d f6c8 853d 0f76 c03c
00000340: 26d8 68bd 37c4 e6bd ee90 e93c deb7 b83d
00000350: 45bc 7ebc 5623 f4bc a954 a5bd b86f 6a3c
00000360: 2184 2dbd bc8f a5bd 0ac3 9b3c 2faf a0bd
00000370: a297 1bbe 95a0 dcbd 6f7a 63bd 1d1e be3c
00000380: 9a85 bfbd c0e0 31bc 4889 70bd 00d5 503d
00000390: 892f 7e3d 41a5 c3bc 2398 d2bd 47f4 81bc
000003a0: ab0a c3bd 5f28 1cbc 3e27 d4bd a06a babd
000003b0: c747 ae3d fe01 0ebd 704b 1a3d 96f6 e03d
000003c0: 7d07 cebd ce20 e1bd 01d1 c8bd 04fe a63d
000003d0: 8a74 f33d 8335 943c ee18 a3bd 74c3 7abd
000003e0: d4b0 34bd 6147 1bbe ee31 573d bba3 cb3d
000003f0: 35ec 853d 3a5c c2bd 9e7f 273d d5e4 8cbc
0.01342225 0.05753349 -0.020400649 0.028260125 -0.01283658 -0.059422392 0.103063874 0.04246167
-0.11906228 -0.09117115 -0.06280452 -0.12363226 0.11792415 -0.068702005 0.0066264863 0.07532426
-0.0063899984 0.06511831 -0.061238695 -0.09179255 0.015204514 0.06537018 0.1106959 -0.096979335
-0.0758262 -0.090252414 0.10684728 0.07908871 0.08005453 0.07758852 0.0067699114 0.04038047
-0.06706658 -0.019524906 -0.07912256 -0.079532534 -0.13004375 0.04501684 0.11314756 -0.0713359
-0.13769078 -0.047557816 0.027509259 0.09934836 0.087641515 -0.028208695 0.12585855 0.07198255
0.008485863 -0.05853849 -0.10121503 -0.002975433 0.027147999 -0.03880629 0.049488325 0.06465989
0.008960847 0.019995138 -0.1500094 0.0944574 0.023604367 -0.05651528 -0.06115871 -0.01999731
-0.009193905 -0.010882062 0.008643986 0.06524691 0.060322497 0.10230633 -0.1722916 0.012866429
-0.13145109 -0.057028502 -0.10305945 0.073462546 0.017346457 0.12864743 0.1246154 0.002633954
-0.04263605 0.075145565 0.058222063 0.050790407 -0.026980981 0.031418063 -0.06637702 0.11430382
0.107676774 -0.0067175603 -0.016715666 -0.017531719 0.04618649 -0.006141546 -0.0784119 -0.018515375
-0.036277436 0.08059426 -0.058835555 -0.07669735 0.11831037 -0.09852494 0.05126849 -0.012762183
-0.10425775 -0.09560837 0.0036729446 -0.019878978 0.053780664 0.05280175 -0.037098277 0.10379658
0.005623978 0.04316544 -0.046602733 -0.040180624 -0.043507222 -0.0808941 -0.07598291 0.04150057
0.090931155 0.06149994 -0.120659664 0.023118433 -0.10756356 -0.059557576 -0.042994574 0.061209865
-0.04855792 0.038534738 0.05328208 -0.020644901 0.10209888 -0.044410694 0.008650117 -0.08005092
0.027431607 -0.03265637 -0.11896725 0.08336477 0.0497829 -0.028076323 -0.09831199 -0.042229183
0.062653616 -0.1262368 -0.053759858 -0.09395657 0.14463656 0.0723922 -0.14071165 -0.1276455
-0.07021949 0.10468208 0.088749364 0.08682242 0.043263968 -0.08268633 0.023761611 0.10107017
-0.09974098 -0.100970216 0.077192865 -0.00856989 -0.06869654 -0.062104687 -0.07478025 -0.14961083
0.0016559558 -0.038766697 0.07809771 -0.04841984 -0.030413572 -0.11088293 0.1320008 -0.0045517567
-0.2680941 0.06926142 0.06779748 0.11095769 0.11094114 -0.033856567 0.03191281 0.09657699
0.02508257 -0.020874368 -0.0044219764 -0.1010389 0.09163331 0.048474897 0.07064094 0.052332666
0.070510775 0.02378252 -0.01872908 -0.021580676 0.050020512 -0.06312171 0.1417348 0.121035844
-0.05689157 -0.053219475 0.013680954 -0.08163274 0.038992424 0.076461256 0.06532471 0.023493795
-0.05684676 -0.11267894 0.02851149 0.09019445 -0.015547817 -0.029802006 -0.08072788 0.014308862
-0.042362336 -0.08084056 0.0190139 -0.078459136 -0.15194562 -0.10772816 -0.055536684 0.023207719
-0.09351654 -0.010856807 -0.05872467 0.050984383 0.06205705 -0.02388251 -0.10282924 -0.01586355
-0.09523519 -0.00953111 -0.10359047 -0.09102368 0.08509784 -0.03466987 0.0376696 0.109845325
-0.10060022 -0.10992585 -0.09805489 0.081539184 0.118874624 0.018091923 -0.07963739 -0.061221555
-0.04411395 -0.15163948 0.05253785 0.099433385 0.065391935 -0.09490247 0.04089319 -0.01719896

shared_net.2.weight f4 [128, 256]
00000000: fa2a c5bd ceef 08bd 7ec8 bc3d e619 ee3b
00000010: 37d9 8a3d b9c8 06bd 8207 963d 80d5 45bb
00000020: b309 3c3c 32c7 a33c b74b 35bd a7cd 843d
00000030: cae2 7b3c 98b1 38ba a55c 53bd 7cfa 28bc
00000040: 5ee2 883d 5b2f 833c aea1 1bbd 127b 453d
00000050: 3566 97bd 0ab0 453d e049 b8bb 958f 123c
00000060: fc01 b93c baca 64bd 65a6 48bd 8b63 343d
00000070: 8bfc a53d 33b4 ff3d 6c37 913d c14d 843d
00000080: 0184 55bb 9013 edbd b9de fcbd ff4c 45bb
00000090: f228 733c 8163 abbd e512 94bd 5d5e 6dbc
000000a0: 24c3 aabd d8ec 863c c28c acbc a962 443d
000000b0: 77c7 be3c 6806 8b3c cd05 ecbc 320c 703c
000000c0: b2db cfbd e88d f83c 2d53 863d 5c10 3dbd
000000d0: 7fe8 903d 36b5 e7bc 7ab7 79bd 113a 35bd
000000e0: 2d09 303d ac0b acbd dfe3 17bd e9ea 4c3c
000000f0: 648d 60bd d264 973d 9b86 a1bb 3a33 8b3d
00000100: e789 9f3d 6fc6 48bb 5a67 543d 7020 3b3d
00000110: ccb5 bd3d a588 3d3c d08b a03d 8aa3 bbbd
00000120: 284d 143d dd49 813d 0c78 7b3c e712 633d
00000130: 2138 62bc 4f70 923d 4786 f9b9 3fb2 b13c
00000140: 59c0 17bd b3f9 633d acd4 a8bd eed2 f2bc
00000150: 950a b73c 1869 bd3d 7275 a63c b06f c33b
00000160: a532 5db9 6761 2cbd a087 ecbc c4c3 d13c
00000170: 3599 ddbc ea9a eebc 8a87 38bb 4c0e e6bc
00000180: 4488 86bd 32bc e5bc f041 29bc 2bbd b3bc
00000190: 9e1f 89b9 2ba2 13bd c7ce b13d e46c a1bd
000001a0: cc16 0bbd 77c2 443d c997 f3bc 597b 09bd
000001b0: b508 813d a23f 06bc c372 183c 0e72 75bd
000001c0: b2a4 f8bb f043 7c3d 1d06 f3bb 5d9e 183c
000001d0: 1e30 09bc 855c b43d 7156 42bd 7384 bbbc
000001e0: 2eb6 963d 3a19 913c 8bf8 d1bd 0ee2 f43c
000001f0: f68b 2ebd 572c b9bc 1d54 2abd b087 87bd
00000200: e3b8 3e3d 0583 09bb bf06 82bd 03db c3bd
00000210: 8412 7cba 97dc 8d3d 46a2 28bd afc9 ad3d
00000220: 7750 02bd 954f 8c3c 2992 44bd c6a4 5abd
00000230: 1ae4 ea3c fe37 7e3d 2cd7 0ebd c7ce 933d
00000240: cd3e 533c 660e acbd bc57 a63c 4ff0 a1bc
00000250: d245 613a 529f 953b a416 983c a29b bb3d
00000260: 367a 4abb 1167 0ebd 71fd 55bc e63c b1bd
00000270: 059e 80bc 5ffb 55bb 3c94 b43b 72b5 27bc
00000280: 7f92 38bd 86a2 2fbd f771 67bd 4e60 993d
00000290: 089a 5cbc 2339 6b3c 590e aebc a352 1d3d
000002a0: bd38 d2bd 906a e93b 137e 873d 32de af3d
000002b0: d22a 343c 6376 f4bb 4b17 5cbd 250a b2bd
000002c0: 7b20 a1bc 9dfe e6bb 76aa 923d 26aa b73c
000002d0: 395d 0dbd dd1d 1fbd 14eb 933c ff61 083b
000002e0: 36f7 353d 3121 41bd 3887 0abd 1c53 1e3c
000002f0: 3691 2dbc d6b0 023e 3016 c83c 92cf 17bc
00000300: ce5b 443d 56bf 93bc ea1e 9abc f8c4 23bd
00000310: d91f d9bc e546 a5bd b60c b13d 98b3 6abd
00000320: a47f 3c3d f71f 823c e28a bb3c 9362 b83c
00000330: 6d31 7b3c c3ff 60bd 1287 68bd 3600 d3bd
00000340: 5cdc 9c3d 878e 1e3d a795 fb3d 19a6 b53c
00000350: 2f0c 94bc 4775 3a3d 3788 2737 789c 3d3d
00000360: 29a6 433d 2fc8 2d3d dfbf f13c c62b e4bc
00000370: 0bfd c93c 406a 7dbd 098c 123d 4abb 3a3d
00000380: 73ea 203d e54c 47bc 5fb6 813d a50d 7bbc
00000390: 33f5 1abd 2e16 82bc 1af0 c63c d62e 7c3c
000003a0: 880d 9abd 0fa3 a5bd f210 a3bd a844 56bd
000003b0: b321 723d 33a4 203d 7bb4 943d 308f 91bd
000003c0: ad44 113d 257b 0d3b 3f6c d0bc 7a78 b13d
000003d0: 7899 3b3d 9013 a9bd 862a b23c 75ab 8b3d
000003e0: c492 cbbc 207a b33c 483b 22bb 3ac7 03bd
000003f0: fdc0 793d 0ff2 96bc cb62 a3bc 4104 38bd
-0.09627338 -0.03343182 0.09217928 0.007266271 0.06779712 -0.032906268 0.07325651 -0.003018707
0.011476922 0.019992445 -0.04426166 0.064845376 0.015373895 -0.00070455065 -0.051602025 -0.010313626
0.06683801 0.016013792 -0.037995987 0.048213072 -0.07392541 0.048263587 -0.005624041 0.008945365
0.022583954 -0.055857398 -0.04898681 0.044040244 0.081048094 0.12485542 0.07090649 0.06460143
-0.00325799 -0.11575997 -0.123471685 -0.0030105708 0.014841305 -0.08368588 -0.07230166 -0.01448783
-0.08338001 0.016470358 -0.021063212 0.047945652 0.023288472 0.016970828 -0.02881136 0.014651345
-0.101493254 0.030341104 0.06558833 -0.04615818 0.07075595 -0.02828465 -0.060965993 -0.04424483
0.0429775 -0.08400664 -0.03708255 0.012507179 -0.05482234 0.07392277 -0.0049293763 0.0679688
0.07789975 -0.0030635854 0.051856376 0.04568523 0.092631906 0.011568223 0.07839167 -0.09162052
0.036206394 0.063129164 0.015348446 0.05543795 -0.0138073275 0.071503274 -0.00047593025 0.02169144
-0.03704867 0.055658054 -0.08243689 -0.029641595 0.022343913 0.09248561 0.020319674 0.005964242
-0.00021095069 -0.042085078 -0.028873265 0.025606044 -0.027050594 -0.029126603 -0.002815696 -0.02808299
-0.06568959 -0.02804384 -0.010330662 -0.021940788 -0.00026154233 -0.036043327 0.08682018 -0.07882097
-0.033957288 0.04803702 -0.029735463 -0.0335649 0.06300489 -0.008193882 0.009304705 -0.059923224
-0.0075879926 0.061588228 -0.0074165002 0.0093151005 -0.008373288 0.08806709 -0.04744572 -0.022890305
0.07358967 0.017712224 -0.10252484 0.029892948 -0.042613946 -0.02260415 -0.041584123 -0.06617677
0.04656304 -0.0020982635 -0.06348943 -0.095632575 -0.0009615796 0.0692684 -0.04117038 0.08485734
-0.03181502 0.017127791 -0.04799095 -0.053379796 0.02867322 0.062065117 -0.034873173 0.07217174
0.012893391 -0.08401184 0.020305507 -0.019767908 0.0008593473 0.0045661116 0.018565483 0.09160544
-0.0030895597 -0.03476626 -0.013060913 -0.086541936 -0.01570035 -0.003265105 0.005510835 -0.010236131
-0.045061585 -0.042879604 -0.05650517 0.07489072 -0.013464458 0.014356884 -0.021247076 0.038408887
-0.10264728 0.007123299 0.066158436 0.08587302 0.010996537 -0.007460402 -0.05373315 -0.08693341
-0.019668808 -0.0070493952 0.07161419 0.02242 -0.034512732 -0.03884684 0.01805643 0.0020810363
0.04442521 -0.047150794 -0.03382036 0.0096633695 -0.010593703 0.1276277 0.024424642 -0.009265797
0.047939114 -0.018035572 -0.01881357 -0.039982766 -0.026504444 -0.08070163 0.086450025 -0.05730018
0.046020165 0.015884383 0.022893373 0.022507941 0.015331608 -0.054931413 -0.056769438 -0.103027746
0.07659218 0.038710143 0.12284403 0.022173928 -0.018072216 0.045522 9.985691e-06 0.0462918
0.047765885 0.042427238 0.029510437 -0.027852904 0.024656793 -0.061868906 0.03577808 0.04558877
0.03928609 -0.012164329 0.06333613 -0.015323077 -0.037831496 -0.015879717 0.024284411 0.015392026
-0.07522112 -0.080877416 -0.079622164 -0.05231157 0.05911417 0.039219093 0.072609864 -0.07107389
0.035465885 0.0021588292 -0.02544224 0.08665557 0.045800656 -0.082556844 0.021748792 0.06819812
-0.024850257 0.02190882 -0.0024754573 -0.03217242 0.060975064 -0.01842597 -0.01994457 -0.04492593

shared_net.2.bias f4 [128]
00000000: 6001 fabc d909 12be 6615 b4bc 825b d3bc
00000010: cb52 dcbb 1f45 643d 552f 1c3b 9988 6a3d
00000020: 59d2 4c3d d14b 053d 5fbe ac3c f100 2fbe
00000030: 9b8d 31be d4b4 fabc 5abf 2cbe ed02 b7bd
00000040: 1542 74bd 98cf b63c ea94 a3bc ba4b 5a3d
00000050: 050d 943d a4af 7e3d dfb5 50bd 673b 96bc
00000060: 792d 073d 4667 88bd 6abc b33c 79fc 83bd
00000070: 80af 44bd 55ee 413b 3c4b b2bc 254b 793d
00000080: a507 8739 e5ed 363d c760 f23c 16f7 f3bc
00000090: c2c6 0c3d 00f4 93bd 03ea 303d e7bb d7bd
000000a0: 32cc a0bd 1dfc 283c 095f a53c be9c 90bd
000000b0: 34ca ae3d 1eda cfbd 7977 f23c a05c 5f3d
000000c0: b22c bcbc a8c0 033d 2aec f0bc 4f99 4e3d
000000d0: 3883 23be d735 363d 6efa e7bd 938e 7bbd
000000e0: 0611 07be 4061 96bc 78c8 29ba 3c8c 25be
000000f0: ca0b e53c 539e f63b f7fc 39bd 8385 f7bd
00000100: c32f c2bd 6dd9 eebd 2276 333d 1488 e2bc
00000110: db4c 06bd 568a 9dbd cee2 4bb9 7605 b63c
00000120: 1f28 7c3d 41ca af3d bb8c fabd b562 943d
00000130: 5dc0 4ebd d04e f4bb d36f 30bd 1caf 56bd
00000140: 5ee8 d73d 9bd5 d2bd 6684 9ebb c610 bbbd
00000150: e6b3 8d3d 8f09 27bd 9f4b 4f3d d530 a4bd
00000160: d46a 0dbb acc1 b9bd b3fe 3b3d 1959 293d
00000170: 9daa cabd 24eb 51bd a178 90bd 68b2 5d3d
00000180: e83a d1bd 477b 093d 0ef9 9a3d f9eb 9fbd
00000190: eafc b0bc 50b2 58bd a5ed 1ebd 296d 5bbd
000001a0: 1cd8 bcbd 0adf abbd 43af 57bd 6127 9ebd
000001b0: 29f8 b33d 2fdb 2d3d 1644 2dbe f613 29bd
000001c0: 5b7a c9bd 622b a0bc 5765 2b3c 958a 6bbc
000001d0: 9ae6 2ebe ed77 21be 2b3b b2bd f850 25bd
000001e0: e366 b5bc 0d12 0dbe 15aa 23bd 07ee 83bd
000001f0: 28c0 b53d ef33 02be 6067 813d eb61 9d3d
-0.030518234 -0.14261569 -0.02198286 -0.02580047 -0.006723737 0.05572998 0.0023831923 0.057259176
0.05000529 0.032543007 0.02108687 -0.17090203 -0.17339174 -0.030603804 -0.1686987 -0.08936105
-0.059633333 0.022315785 -0.019968469 0.053294875 0.07229046 0.062179223 -0.050954696 -0.018338872
0.03300235 -0.06660323 0.021940429 -0.0644464 -0.048018932 0.002959152 -0.02176439 0.06086268
0.00025754902 0.044660468 0.029587163 -0.029780906 0.034369238 -0.07224274 0.04319192 -0.105338864
-0.07851447 0.010314015 0.020186918 -0.07061146 0.08534661 -0.101490244 0.029597985 0.054531693
-0.022970531 0.032166153 -0.029409487 0.050439175 -0.15968025 0.04448494 -0.113270625 -0.061415266
-0.13190088 -0.01835692 -0.00064767106 -0.16166776 0.027959723 0.007526198 -0.04540726 -0.12086012
-0.09481766 -0.116625644 0.043813832 -0.027652778 -0.03278814 -0.07692401 -0.0001944408 0.0222194
0.0615617 0.08583499 -0.122338735 0.07245389 -0.05047642 -0.0074556842 -0.043075394 -0.05241309
0.105423674 -0.10294648 -0.0048375605 -0.09134059 0.069190785 -0.0407806 0.050609227 -0.080171265
-0.0021578567 -0.09070143 0.045897197 0.041344736 -0.09895823 -0.05124964 -0.07054258 0.05412522
-0.102163136 0.033564832 0.07567035 -0.0780868 -0.021604974 -0.052904427 -0.038800854 -0.0535709
-0.09220907 -0.08392151 -0.052657377 -0.07722355 0.08787567 0.042445358 -0.16920504 -0.0412788
-0.098377906 -0.019551937 0.010461173 -0.014376302 -0.17080155 -0.15768404 -0.08702692 -0.04036042
-0.022143787 -0.13776417 -0.039957125 -0.064418845 0.088745415 -0.12715124 0.06318545 0.07684692

to_mean.0.weight f4 [64, 128]
00000000: 32e4 f03a 2e8d 773d 0b88 2a3d fab8 b53c
00000010: fea5 fbbc b20b 19bd 65bc 2fbc f958 0abd
00000020: 3970 52bd 9b8f 1cbd 6453 63bc ff8d 3e3d
00000030: 2427 51bd 15f9 d3bd a59f 4bbd 6049 bf3d
00000040: 4fc5 f13c b46a 5cbd fbfb 1cbc dc53 0f3d
00000050: 387d 703b a2c6 38bd 59e9 733c ffcf 2b3d
00000060: d92d 15bd c3d4 9cbc b425 f83a c385 6a3d
00000070: 170f 46bd f180 59bc 62a8 903c 77dd 4abd
00000080: 4f5a cd3c 7274 dc3b a30b ac3c 9e5c 6a3c
00000090: bad1 9bbc fc94 73bc 3b1c 97bd 7ab3 48bd
000000a0: e14e 283c 09fb babc 43bb ab3c d25f 163d
000000b0: 0e0e dd3c c2f2 153d e41c 31bd 7923 79bd
000000c0: d22c 3cbd 662a 63bd a059 06bd 857b d23d
000000d0: 2b66 1e3d 109b af3c 2b68 073d f46b 12bd
000000e0: 95bb 9abc efab af3d a73c 9abd 6a49 933d
000000f0: 43d2 443d 3142 a53b bd72 29bd ce60 74bd
00000100: 83c7 62bd b9ef 6cbd 6e7c c03d 92a9 693d
00000110: e236 183c 652c aebc 8111 153c 0d69 3cbb
00000120: d96b 3b3c 76bd 44bd 307e b83b e56d e93c
00000130: 1842 90bd f6d9 edbc 29ed cbbc 0c37 f1bc
00000140: 9dbf 9a3d c652 b03d 2789 7dbd 8a67 243d
00000150: 76ba e5bd 909c afbd cdc7 bd3d 1cb8 4f3c
00000160: 5b51 943b 6a21 c1bd 5b01 07bc 5599 c6bc
00000170: 9f60 08bd 1839 d13c 3101 a23c 1a92 ce3b
00000180: eb2b 913c 90a3 a5bd a732 133c ff4d 7b3d
00000190: bf7f 6bbd 4043 e33c 6979 cabc 2188 cf3c
000001a0: 715c 44bd 9053 05bd bf00 babc d9f4 4fbd
000001b0: 2c44 21bd ad1c 73bd 9251 49bd 28a7 4f3c
000001c0: 7063 f6bc a5fb 89bc 253e 23bd a176 88bd
000001d0: e7bb 373d bec2 753d 0dfd 69bd c9af 7ebc
000001e0: fc0e edbc 0d8f 623d ef5f 21bd f2eb 603d
000001f0: 17d2 c8bb 7374 883d b412 62bd 966d 5f3d
00000200: b8f9 813d f9be 393c 195f a73c 9ccb bb3c
00000210: 7308 0e3d aa71 123c 2172 dc3c 3fce cb3b
00000220: e395 cd3d faf6 523d dd4c 413d 5784 8abd
00000230: cb09 a83a e5bb efbd 194e a0bd 3f40 86bd
00000240: 2a72 b3bc fffe c23d 21fd e0bb adbb 5dbd
00000250: 3e93 843c 3558 d2bc 8290 6fbc 7fa9 b4bc
00000260: eddc 0cbd b1d5 b93c 7861 5f3c ace7 12bd
00000270: 9724 9dbd 274f 283d 6f10 18bd 2b2d 2abc
00000280: 2d45 9d3d c471 0cbc a3e8 0fbd 3340 edbc
00000290: ac3d 18bd 4290 cd3b 55c1 e7bc c2be 993d
000002a0: 8ad9 9cbc f508 97bd 4d21 f13c 2fd9 3e3d
000002b0: 3708 e13c 442e c2bc 23ef 94bd b5ec f73c
000002c0: 9746 44bd 1c57 033d 991c 883c 7e40 e3bc
000002d0: e2c7 a83d 170d 32bd d8cf 3b3c 9954 493b
000002e0: a96f 20bd aa5d 79bd 9f34 57bc 58b5 9dbd
000002f0: 6ea6 b3bc 054d 163d a362 1d3d d748 ad3c
00000300: e3b7 a8bd 2c98 f53c 9746 103d ffef 7e3d
00000310: 4d53 3bbc 7c05 b33c c883 90bd 4daf 01bd
00000320: c761 ee3c 0c13 4dbc 5672 7fbd 33df 093c
00000330: 6767 bbbd dcf9 16bc 6791 92bd 6ddf babb
00000340: ba31 013d 6e84 69bd 8567 40bc 4413 903d
00000350: b4fc e4bc 5096 2ebd 3a11 cfbb 45fd 2abd
00000360: e455 49bd af5c e6bc cd2e 34bd 75aa a73d
00000370: ca8e 78bc 4417 b63d c6f5 cfbc bd5a 39bd
00000380: d501 d7bc be0c 923d a20b 26bd ff12 7e3d
00000390: 714a 913d acc9 653d b4d0 98bd 3cb5 873d
000003a0: 5aa2 873d e289 9d3d 9977 953b d241 7b3c
000003b0: 5f77 d1bc 777e e63c 5d69 a83d beab 0cbd
000003c0: 67b4 83bd e17f a83d 5ca9 cbbb 3602 913b
000003d0: 65b3 53bd 4c35 39bd 326b 21bd 541f 983b
000003e0: 0481 1bbd ebad b8bb 5350 a1bc e806 a4bc
000003f0: c4f5 efbb c07c d93c d5e4 9ebd 7e9e 09bc
0.0018378554 0.060437374 0.041633647 0.02218293 -0.0307188 -0.03736467 -0.010726069 -0.033776257
-0.051376555 -0.03822289 -0.013874862 0.046522137 -0.051062718 -0.10350243 -0.049712796 0.09340167
0.02951303 -0.053812698 -0.009581561 0.034992084 0.003669573 -0.045111306 0.014887177 0.041946407
-0.036420677 -0.019144421 0.0018932135 0.05725647 -0.048354235 -0.013275371 0.017658416 -0.04952761
0.025067477 0.0067277486 0.021001643 0.014304308 -0.019020904 -0.014867064 -0.073784314 -0.048999287
0.010272712 -0.022824781 0.020963317 0.036712475 0.02698424 0.036608465 -0.043240443 -0.060824845
-0.04594118 -0.055460356 -0.032800317 0.10277466 0.038671654 0.021436244 0.033058327 -0.035747483
-0.018888274 0.085777156 -0.075311 0.07191737 0.048052084 0.005043291 -0.04136919 -0.059662633
-0.05536605 -0.057845805 0.09398733 0.05704648 0.009290429 -0.021261403 0.009098412 -0.0028749139
0.011439287 -0.048032247 0.005630277 0.028494785 -0.070438564 -0.029034596 -0.02489336 -0.029445194
0.075560786 0.08609538 -0.061898377 0.040137805 -0.11217205 -0.08574784 0.092666246 0.012678172
0.0045263 -0.09430201 -0.008240069 -0.024243036 -0.03329527 0.02553992 0.019775959 0.0063040378
0.017721137 -0.08087838 0.008984244 0.06135368 -0.057494875 0.027742028 -0.024716096 0.025333466
-0.04793972 -0.032550395 -0.022705434 -0.050770614 -0.039371654 -0.05935352 -0.049150057 0.0126741305
-0.030076712 -0.016843626 -0.039854188 -0.06663252 0.044856932 0.060000174 -0.057126094 -0.01554484
-0.02893781 0.055312205 -0.03939813 0.054912515 -0.0061285603 0.06662836 -0.055193618 0.05454787
0.06346458 0.011337035 0.020431088 0.022924237 0.034676027 0.008938232 0.02690989 0.006219655
0.10038354 0.051505066 0.047192443 -0.06763523 0.0012820301 -0.1170576 -0.07827396 -0.06555223
-0.021905024 0.09521293 -0.006866113 -0.05413406 0.016183492 -0.025676826 -0.014621856 -0.022053478
-0.03439038 0.022684904 0.013634078 -0.03586547 -0.076729946 0.04109111 -0.037125047 -0.010386745
0.0767921 -0.008572046 -0.03513397 -0.028961277 -0.03716819 0.0062733004 -0.02829043 0.07507087
-0.0191467 -0.07374755 0.029434824 0.04659384 0.027469737 -0.023703702 -0.07272174 0.030264238
-0.047918882 0.032065496 0.016615199 -0.027740713 0.082412496 -0.043469515 0.011463128 0.003072059
-0.039168987 -0.06088034 -0.013135104 -0.07700604 -0.021929946 0.036694545 0.038424145 0.021152897
-0.082381986 0.029979788 0.03522357 0.062240597 -0.011433435 0.021853201 -0.07056385 -0.03166132
0.029099358 -0.012516748 -0.0623649 0.008415031 -0.09150582 -0.009214845 -0.071566395 -0.005702904
0.031541564 -0.05701106 -0.011743431 0.070349246 -0.02795253 -0.042623818 -0.0063191922 -0.041745443
-0.049154177 -0.028120367 -0.043989945 0.08186809 -0.015170762 0.08891156 -0.025385749 -0.04525255
-0.02624599 0.07131337 -0.040538438 0.062029835 0.07094277 0.056100532 -0.07461682 0.066263646
0.06622763 0.07692315 0.0045613763 0.015335517 -0.025569616 0.028136475 0.082232215 -0.034343474
-0.064308934 0.08227516 -0.0062152576 0.0044253124 -0.051684756 -0.045216843 -0.03940887 0.0046424065
-0.037964836 -0.005635967 -0.019691622 -0.020022824 -0.0073229987 0.026548743 -0.0775849 -0.008399604

to_mean.0.bias f4 [64]
00000000: 0184 12bc bab1 a4bd 03bd ab3d ffe4 f1bc
00000010: c9bc 19bd 94db 3dbd 0f7f 813d 4bfb 16bc
00000020: 3ffc 83bd f8c7 e0bc 9e1a 05bd 3061 933c
00000030: 2aec 3a3d c9ce 0f3d 9271 923c 2b0c 8ebd
00000040: 44a9 4e3d 407b 553d 364e af3a 8adf 073d
00000050: 9f0d 683b a43a e2bc 1580 81bc c202 523d
00000060: 6232 63bd fcc9 5f3c 23b8 c7bd 813a 5ebc
00000070: 45fa cb3a 5eaf 743d c4f2 a13d 03a8 4d3a
00000080: 7957 d8bc ade4 01bd 01a0 803d 9f43 003d
00000090: 00d9 093d f75f 903d db84 8dbd bb12 15bc
000000a0: 6747 983d 5211 fc3b 9d2b 74bc 05ac 783d
000000b0: 6fc4 cd3d cd73 8dbd 2f6b 78bd 8bee 48bd
000000c0: 119c d23c 97e9 783c f6e3 a8bd 7eb3 37bd
000000d0: 21e0 5fbd f644 1dbd ba8c 5abd 3149 b5bd
000000e0: 9878 0f3d b809 8a3d 7c95 813d c53a b1bd
000000f0: 541e 493c ade8 a1bd cfd8 f73c b3c2 403d
-0.008942605 -0.08041711 0.083856605 -0.02952814 -0.037533555 -0.046351984 0.06323063 -0.009215186
-0.064445965 -0.027439103 -0.032496087 0.017990679 0.04563538 0.035109315 0.01787642 -0.069359146
0.050454393 0.052119493 0.0013374749 0.033172168 0.003540851 -0.027615853 -0.015808145 0.05127216
-0.05546797 0.013658997 -0.09751918 -0.013563753 0.0015562257 0.059737556 0.07907632 0.0007845165
-0.026408898 -0.031712223 0.06280518 0.03131449 0.033654213 0.07049554 -0.06910106 -0.009098704
0.07435494 0.0076924944 -0.014902976 0.060710926 0.10047232 -0.06906853 -0.060649093 -0.049055617
0.025709184 0.015192411 -0.08246605 -0.04484891 -0.054657105 -0.038395844 -0.053356864 -0.08851851
0.035027117 0.06740135 0.0632734 -0.086537875 0.012275297 -0.079057075 0.03025475 0.04706068

to_mean.2.weight f4 [18, 64]
00000000: 20de b1bc fe24 473c c76e 64bc 3c32 17bb
00000010: 6a9d 19bc a28d 88bc 1c83 a53c 6b35 15bc
00000020: 4b1e 303b 9180 0d3b a32c d33b 1711 e73b
00000030: 7e4c 8dbc b279 b23a 577d 3b3b 4440 3e3a
00000040: b6b2 a2b9 f4c6 e7bb c542 8b3b 6095 5d3b
00000050: a3bc 8fbc 7d55 263c d82c 153c 2d2b 053c
00000060: 6a6c 273b a7a2 963b dd0d 8a3c 6cd1 c7bb
00000070: 5fa9 473c 2a50 09bc 82df 17bb e339 8dbb
00000080: ffce dfbb 1664 7fbc 16df 9b3b 38c3 1f3c
00000090: 6a42 283c 9214 94bb 3177 beb9 8fa1 53bc
000000a0: 9840 d53b 0781 af3c 80f9 4d3a 8b8a f93b
000000b0: 46c1 48ba d01d 953b 66e4 babb c606 483c
000000c0: 6351 443c 8788 58bc 9889 613c 489c 043b
000000d0: 44ba f03b 9137 9dbc 4a1d 3a3d 8ff6 9bbc
000000e0: 9150 583b 6f80 4d3b 632f f23b aded 3cbc
000000f0: e1ea b23a e794 e8ba 20ca 0dbc b511 e33b
00000100: e3d0 733d b170 c63c 6e89 a338 6c85 a03b
00000110: 7601 f7bb b01c 4d3c 387e f839 d6a4 ffbb
00000120: 6e2d 3c3c fdde 193a 9a96 293c 6508 28bb
00000130: 2a48 0e3c 93ec 3b3c b650 673b 737b 783c
00000140: 3197 773b 0150 c4bc a562 303c d850 10bb
00000150: c1bd 993d 3731 943c 15b7 663c 37cb e2bc
00000160: 4438 99bb 9bd5 07bc 6525 223d 2e8d aa39
00000170: b16a 863b 5c73 07bc db9e 81ba 6853 3f3b
00000180: 1c9e 203b 9c58 d43c 4337 02bc 96ee d1bb
00000190: 58f4 c8ba 958d 233b 91f1 e43b 882d 94bb
000001a0: 2384 6139 f93f 5d3c 5f1a 9c3b ac15 a73b
000001b0: 68f8 ff3b 93cd d23b 0920 9aba 0ef6 d63c
000001c0: 7e22 133c 5410 bb3c b8f4 7f3c f85d 583c
000001d0: fa4c a7bc 2015 eabb e904 123d 7de2 ae3a
000001e0: 9c1d 163c 9837 113c fb7f 66b9 eb07 cfbb
000001f0: 7ad2 9ebb ba2f c23b 7f12 023c 06e9 e4bb
00000200: 908d 353c 72e7 3ebc 233c 1ebc a2b8 b73b
00000210: d41a b43b 1801 d93c cf86 f13b db03 38ba
00000220: 766d 05bd d6bc 3a3c 507f c93b cc52 e43b
00000230: 17f6 a93c eb5b a23b d45c 9dba 7ed0 243c
00000240: a320 753a 1f7b cabb 6e9f dd3b c8a2 94bb
00000250: 384f 2cbd 86df 993c 1f74 e5bb 7b70 96bc
00000260: 6e10 77bb 7b38 12b8 c235 813c d08f 9cbb
00000270: 7d3e cebc bea6 8dbc df92 133c 82ad 46bb
00000280: 21d4 033c c1b8 d7bc c7a6 d93a b8d9 14bb
00000290: 744d 113c ffa7 4c3c 237f f8bb 5767 d63a
000002a0: 50bd 36bb 47e9 4d3c 5e18 09bb 7fa6 5e3a
000002b0: fce0 263b 7e1a 093c 8a6c 0aba 67b7 d4bc
000002c0: 4b54 db3b 380a 8abc 2800 d3bb 1133 98ba
000002d0: 0107 c5bb b79b e73b 0376 8ebd e0f5 86bc
000002e0: 0287 683b 53ac 61bb d116 ec3a 527d 553c
000002f0: 5b63 783b 776d 193a 0f4b 073b 254f 70bc
00000300: 930b f83b 79f7 a3bc fb79 963b 96df 893b
00000310: 92ce 6b3b 58b4 a83c e868 6ebc 2273 0a3c
00000320: 54f5 ad3c 2ae5 273a 8a0f 47bc 99f1 6fbb
00000330: 2e1e bd3c 03cd 79bb 1fb5 2fbb 8198 9dbb
00000340: a686 a93a 6ead 853b e847 59bc 116b 29bc
00000350: 9aff babc ebfe b8bc f628 fe3b b71a a63c
00000360: bebf dbbb 2620 373b d24b 19bc accd 073c
00000370: f566 863c 9483 343c 1c75 85ba d714 693c
00000380: 0a00 eb3a cbc1 013d d006 b1bb cadc 373a
00000390: 2699 15bb 390d 013c a56b 9bbb 7c75 bb3a
000003a0: d3a4 f3bb 9121 4b3d 77c8 a7bb edfb bbbb
000003b0: b24b 9cba 33c4 8e3b 11fd d53b 4b92 1a3d
000003c0: 93a3 b33a b299 7b3c 2ed5 a5bb b3be 84ba
000003d0: 4f36 06bc 6901 5bbc e83b 48bd 04b2 083c
000003e0: f531 c43b e447 47bb 58a1 8c3b 718b d33a
000003f0: 0c17 443b 6796 f03a fc9f 483a c324 08bc
-0.021712363 0.012154816 -0.013942427 -0.0023070714 -0.009375909 -0.016669098 0.02020412 -0.009106974
0.0026873525 0.0021591524 0.00644453 0.007051598 -0.017248388 0.001361659 0.0028608644 0.0007257501
-0.00031032198 -0.0070732776 0.004249903 0.0033810958 -0.017546004 0.010152218 0.00910493 0.00812797
0.0025546798 0.0045970264 0.016852314 -0.006097963 0.012186377 -0.008380929 -0.0023173993 -0.004309879
-0.006830096 -0.015587827 0.0047568185 0.009751134 0.010269741 -0.0045190537 -0.00036328429 -0.012916937
0.0065079443 0.02142383 0.0007857308 0.0076153926 -0.00076581945 0.004550673 -0.0057034967 0.012208646
0.011982295 -0.013216144 0.013765715 0.0020234752 0.0073464233 -0.019191535 0.04543809 -0.019038467
0.0033007006 0.003135707 0.007390903 -0.011531276 0.0013650322 -0.0017744572 -0.008654147 0.006929601
0.05952538 0.024223657 7.798044e-05 0.0048987176 -0.007538016 0.012519047 0.00047396286 -0.0078016324
0.011485441 0.00058697147 0.010350848 -0.002563977 0.008684197 0.011469978 0.003529591 0.015166151
0.0037779326 -0.02396393 0.010765706 -0.0022020843 0.07506896 0.018089874 0.014081736 -0.027684791
-0.004675897 -0.008290674 0.039586443 0.00032530114 0.004102074 -0.00826725 -0.0009889262 0.0029194
0.0024508303 0.025921158 -0.007947746 -0.0064066155 -0.0015331609 0.0024956216 0.006986805 -0.0045220293
0.00021506897 0.013504022 0.004763886 0.005099019 0.0078115948 0.0064331978 -0.0011758815 0.026240375
0.008980392 0.022834934 0.01562231 0.013205998 -0.020422447 -0.0071436316 0.035649214 0.0013342645
0.009162333 0.008863352 -0.00021982186 -0.0063180826 -0.004846868 0.0059260996 0.00793898 -0.0069857864
0.011081114 -0.011651861 -0.009657892 0.0056067267 0.005496362 0.02648978 0.0073708068 -0.00070196175
-0.032575093 0.011397561 0.00614921 0.006967878 0.020747228 0.004954805 -0.0012005814 0.010059474
0.00093508716 -0.006179228 0.0067633903 -0.0045360066 -0.042067736 0.018783342 -0.007002368 -0.018364182
-0.0037699002 -3.4861714e-05 0.015772704 -0.004777886 -0.025176281 -0.017291423 0.009007185 -0.003031582
0.008046181 -0.026333215 0.001660549 -0.0022712778 0.008868564 0.012491225 -0.0075835153 0.0016357702
-0.0027883835 0.012567825 -0.0020919065 0.0008493438 0.002546369 0.008368133 -0.0005280456 -0.02596636
0.006693398 -0.016850576 -0.0064392276 -0.0011611899 -0.006012798 0.007068123 -0.06956103 -0.016474664
0.0035480862 -0.0034434989 0.0018012171 0.013030367 0.0037901017 0.00058527983 0.0020644104 -0.014667307
0.007569739 -0.020015465 0.004592178 0.0042075617 0.003598128 0.020593807 -0.014551379 0.008450301
0.021235146 0.00064046925 -0.012149701 -0.003661251 0.02308568 -0.0038116581 -0.0026810837 -0.0048094396
0.0012933805 0.0040795123 -0.013261773 -0.010340468 -0.022826958 -0.022582492 0.007756348 0.02027641
-0.006706207 0.0027942746 -0.009356456 0.008288782 0.016406516 0.011017699 -0.0010181996 0.01422616
0.0017929089 0.031678956 -0.0054024234 0.0007013796 -0.002282688 0.007876688 -0.004743057 0.0014301981
-0.00743542 0.04959256 -0.005120333 -0.005736819 -0.0011924414 0.004356885 0.006530412 0.037737172
0.0013705365 0.015356468 -0.0050608134 -0.0010127634 -0.008191659 -0.013367035 -0.048885256 0.0083432235
0.0059874007 -0.003040784 0.0042916946 0.0016139579 0.0029920964 0.001835537 0.0007653234 -0.008309546

to_mean.2.bias f4 [18]
00000000: 974c 1e3d 1e92 3b3d 405f 77bd fcc4 7a3d
00000010: 3786 dd3d 7098 983d 3666 f53c 7845 ad3d
00000020: 94a1 f53d 3c12 583d 7a06 283d 5dc6 1c3d
00000030: 2694 00bd d59f 743d 00e7 6a3c bd5b 6d3c
00000040: 8a54 973d dee1 9ebd
0.03864726 0.045793645 -0.06039357 0.061223015 0.10816615 0.0745095 0.029955965 0.08460516
0.11993709 0.052751765 0.0410218 0.03827511 -0.031391285 0.05972274 0.014337301 0.014487204
0.073891714 -0.077579245

to_value.0.weight f4 [64, 128]
00000000: 8b89 eebc 773c a03e eb9c e6bd c5cc 8e3d
00000010: 3d40 cbbd 5088 0b3d ee6a 99bd 0fdc d6bb
00000020: 5ab4 d5bd f985 853d be41 bfbd 3e17 3e3e
00000030: 849b 2c3e ccdf ac3d fc31 823e 831f 7e3e
00000040: a0f4 8d3e 6209 873d 23ce 2d3e b979 f43c
00000050: ec26 9bbd 580a 92be 4a4d c53d a830 123c
00000060: dd5e febd c209 3a3e 8005 7dbb 7301 583e
00000070: 471b 4d3e 7cd1 98bd b056 13bd ea50 3abe
00000080: 5a27 bd3d 0a63 13be c641 903d ebf8 d9bd
00000090: e479 1abd a868 31be 93b2 07be 134f 873e
000000a0: c944 3b3e 2ac7 d5bd 4ce8 d9bb 8e25 bbbd
000000b0: 00c2 25be 7cca ef3c b1f4 0bbe 56d8 78bc
000000c0: 5e50 66bd 1b67 58be 5a78 2cbd 71d0 4ebd
000000d0: 4627 fe3d e7cf 1b3e c766 3a3d 582a 78bd
000000e0: f460 0c3e abbf 113e dad9 9a3c 6b7d 4f3e
000000f0: 7f1c 7bbd 5338 64be 23be cf3d 997b 5c3e
00000100: 4e20 ce3d 1bc1 4f3d ec57 483d cf9a 623e
00000110: 44ea fabc 3c84 453e 9a6d 8a3c c97a fbbd
00000120: 771a d0bd 98f8 babc 9ffd 3e3e daf7 633c
00000130: a0fd 94bd b37f 9abd 3c54 18bc 1c06 d23d
00000140: c608 96be b094 823e 2775 ffbc 34dc 0a3e
00000150: 4d92 afbe 1f53 59bc 9450 19bd ceb4 493e
00000160: 102f feba 37e0 6a3e 5ca7 033e ebec 50bd
00000170: 30d8 af3d 81ac 743e 26b6 edbd 2660 473c
00000180: f8de be3d 7665 90be 681a 523e da5e 223e
00000190: 2849 41bd 0273 b93d 49dc 42bd 2d14 7f3e
000001a0: 7cae 133e c7fe 7b3e 6d94 10bd 55fc 0f3d
000001b0: 93da adbd 043a 20bd 0396 573e 64a4 bc3d
000001c0: c4ff 123e 3d2e 333e 9480 a03d 10d0 363a
000001d0: 928f 723e 245f 4b3e 3fe9 503e 853b 313d
000001e0: d430 2c3d 6cd3 873e 25a8 393e be6a 843d
000001f0: 21dd 223d 5903 c53e fdec 0d3d de12 2d3d
00000200: 8d15 40bd f664 ab3c eda6 423e d715 87bc
00000210: b71c edbc bdfa 543e 8e23 523e e3ce 2a3f
00000220: e757 8a3b 9b22 56bd 4a86 0c3c 5bbe 5ebd
00000230: 7470 4b3c b559 303d 4878 ad3d 384b 9fbc
00000240: ab8e 9abd 8b1f 193e 0177 d43d c7bf a63d
00000250: 4ee9 9a3e 670c e43d 06cf e2bd 0f90 a63c
00000260: b930 59bc 1c20 543c 8f9f 25be 82ee 7abe
00000270: 964d c33d cae5 e43d ef26 913e 7dae 173d
00000280: 44a2 f03e 9b0b d6bd 2f8d 3c3d bcfb 673b
00000290: f36f ac3e 4a0a 81be ac9a ef3d 7e63 00bd
000002a0: a242 cebd fb58 4e3e e162 02bd 6206 673c
000002b0: e5f7 0e3e 978a 503d 94e5 f83c 885f 7f3e
000002c0: 3ad4 c2bd dc86 4abe 0008 2a3b d5c2 6b3e
000002d0: 1e68 5a3d 621d a53b 13e3 44bd a050 0f3c
000002e0: c77a 0e3d 1cc4 d63e 6fb8 14be 58f5 843b
000002f0: ea26 423e bc7a 673b acf9 a1bd a4a8 a13b
00000300: 176a ebbd 0bfb dcbc 6735 833e f555 9ebd
00000310: 53de 31be 7f3e 51bd a9f8 3f3e 38ad 9dbd
00000320: aa5c b53c 6745 633d 0fce 663d f74a 883e
00000330: e3b5 f3bd a1fa 0bbe 02fc 5fbe 915d c3bb
00000340: 9148 d93c 10f4 2d3d 9895 983d bffc c63d
00000350: 9654 0bbd 1281 fe3e 74c1 4f3e fc55 883b
00000360: 30f4 6f3e 6a11 923c d3ad 773d 9246 363d
00000370: f752 973b eb93 db3c 7508 22bc 220e 923e
00000380: 5073 6a3c e5a8 adbd 5b90 ae3e 8612 9cbc
00000390: fb93 67be 8758 3dbe 96e5 333e f122 84bc
000003a0: c50f 1fbd 22f0 51bd 5106 8e3d b862 c63d
000003b0: 8940 493e 038e 3f3e d56a 2ebd 62a0 e9bd
000003c0: 998d 85be 88ab b93e 81a2 dd3b 5f8e b93c
000003d0: ca8b e53c 036c 95bd 7ca9 cebc e360 3bbe
000003e0: 4131 1a3e 86f2 33bd de81 f4bd a65a e23d
000003f0: 9331 a13e 6fdc 373d 9e97 223e 77e2 b73e
-0.02911832 0.3129613 -0.112603985 0.069726504 -0.09924362 0.034065545 -0.07491098 -0.0065569947
-0.1043479 0.06519694 -0.09338711 0.18563554 0.168562 0.08441123 0.2542876 0.24816708
0.27725697 0.065935865 0.16973166 0.029843198 -0.07575783 -0.28523517 0.09633882 0.008922733
-0.124204375 0.18167785 -0.0038608015 0.21094303 0.20029937 -0.07461831 -0.035971344 -0.18194929
0.09236021 -0.14393249 0.07043795 -0.106431805 -0.0377139 -0.1732508 -0.13251714 0.26427516
0.18287958 -0.10438378 -0.0066500064 -0.09138022 -0.16187286 0.029271357 -0.13667561 -0.015188297
-0.056228988 -0.21133082 -0.042106964 -0.050491754 0.124098346 0.15216027 0.045508172 -0.060587257
0.1370886 0.14233272 0.018902708 0.20262687 -0.061306473 -0.22287111 0.101436876 0.21531524
0.100647554 0.05072127 0.048911974 0.22129367 -0.030629285 0.19288725 0.016897965 -0.12279279
-0.10161298 -0.022823617 0.18651436 0.013914073 -0.07274938 -0.07543888 -0.009297427 0.102550715
-0.2930357 0.25504065 -0.031183792 0.13560563 -0.34291306 -0.0132644465 -0.03743036 0.19697878
-0.0019392688 0.22937094 0.12856811 -0.051007193 0.08586156 0.2389393 -0.11607008 0.01216892
0.09319872 -0.2820241 0.20517886 0.15856495 -0.047188908 0.09055139 -0.04757336 0.2491004
0.1442203 0.24608909 -0.0352978 0.035152752 -0.08488955 -0.039117828 0.21053319 0.092110425
0.1435538 0.17498107 0.07837024 0.0006973753 0.2368758 0.19860512 0.20401476 0.043269653
0.042038754 0.2652849 0.18130548 0.06465672 0.039761666 0.38479117 0.034649838 0.04225432
-0.046895552 0.020922165 0.1900899 -0.016489906 -0.028944356 0.20798774 0.20521376 0.66721934
0.0042219046 -0.052279096 0.008576939 -0.054380756 0.012416948 0.0430543 0.084702075 -0.019445047
-0.07546743 0.14953439 0.10374261 0.081420474 0.30256122 0.11135178 -0.11074643 0.020332364
-0.013256245 0.012947109 -0.16174148 -0.24505046 0.09536283 0.11176641 0.28350016 0.03703164
0.469988 -0.10451432 0.04603308 0.0035397848 0.3367916 -0.25203162 0.11699423 -0.031344883
-0.10071303 0.20151131 -0.03183258 0.014100643 0.13961752 0.05091342 0.030382909 0.24938786
-0.09513135 -0.19778007 0.002594471 0.23023541 0.05332195 0.005038903 -0.048068117 0.00874725
0.03478506 0.41946495 -0.14523481 0.0040575676 0.18960157 0.0035320958 -0.07908949 0.0049334336
-0.114948444 -0.026975175 0.2562668 -0.07731239 -0.17369966 -0.05108499 0.187472 -0.076990545
0.022138912 0.05548611 0.056348857 0.26619694 -0.118999265 -0.13669826 -0.21873477 -0.0059620817
0.02652386 0.042469084 0.07450408 0.09716176 -0.034016214 0.49707848 0.2028864 0.0041606408
0.23432994 0.01783057 0.060468506 0.044500895 0.0046180445 0.026803931 -0.009889712 0.28526407
0.014309719 -0.0847948 0.3409451 -0.019051801 -0.22615044 -0.18490802 0.17568049 -0.016129943
-0.0388334 -0.0512544 0.069347985 0.09686798 0.19653524 0.18706517 -0.04258235 -0.11407544
-0.26084593 0.3626368 0.0067637567 0.022650896 0.028020758 -0.07295992 -0.0252273 -0.18298678
0.15057851 -0.04393246 -0.11938833 0.11052446 0.31483135 0.044887956 0.1587815 0.35914966

to_value.0.bias f4 [64]
00000000: dc41 48be 4b54 f0bc 95bb 533e e28d 813e
00000010: 95d2 bf3e 92b2 8abe 75f6 97be 84f4 b43e
00000020: 0c95 5c3e b069 bc3e 66a8 81be 6331 92be
00000030: 7918 503e 6145 bd3e aed3 813e 69da 683e
00000040: 9684 4ebe 6a74 37be f3c0 c33e 4462 3bbe
00000050: e696 19be b87b 573e d322 743e 56e3 8dbe
00000060: d6d6 ae3e 08b1 b4be 176f 753e 1df5 7e3e
00000070: 29d0 33be 0ff1 4b3e 88db 9f3e 792b 9c3e
00000080: 02b8 543e 8095 af3e 4a88 8ebe 3b82 7fbe
00000090: 1cd4 8d3e c326 b33d 3fdf 4cbe e0e6 8b3e
000000a0: 9250 8d3e 84bd 51be 6737 9d3e 1db1 08be
000000b0: 490b c13e 1c8f 88be bc59 02be aed6 953e
000000c0: 1431 743e ef91 8fbe e274 6a3e 0e26 ffbd
000000d0: 9d2c b5be 57d1 a1be 246a c3be 8260 b33e
000000e0: aaa5 ad3e 0845 53be 88f7 3ebe 5f6e 5dbe
000000f0: 4986 b5be d613 a83e b303 c93e 2612 a7be
-0.19556373 -0.029337069 0.20677026 0.2530356 0.3746535 -0.27089363 -0.2968022 0.353428
0.21541232 0.36799383 -0.2532379 -0.28553304 0.20321836 0.36966994 0.2535681 0.22739567
-0.20167765 -0.17915502 0.38233146 -0.18299204 -0.1499897 0.21043289 0.2384141 -0.27712506
0.34148282 -0.35291314 0.23968159 0.24898191 -0.17559876 0.19916175 0.31222177 0.30501917
0.20773318 0.34293747 -0.27838355 -0.24952023 0.2770089 0.087476276 -0.20007037 0.2732458
0.27600533 -0.2048245 0.3070633 -0.13348813 0.37703922 -0.26671684 -0.12729543 0.2926535
0.23846847 -0.28041026 0.2289615 -0.1245843 -0.353856 -0.31605026 -0.38166916 0.35034567
0.33915454 -0.20631802 -0.18649113 -0.21624134 -0.35454014 0.32827634 0.39260635 -0.32631034

to_value.2.weight f4 [1, 64]
00000000: f942 aabe 1154 613e eef2 4c3e 3c89 933e
00000010: e99f 883e 4dc2 6dbe cd9d 89be 83b2 653e
00000020: 91d5 763e 579f 853e c272 80be b44a a9be
00000030: 9a52 553e b553 713e 34a1 983e 09d4 873e
00000040: c7cc 95be a3df a9be 5018 7a3e f136 9abe
00000050: 8418 8fbe 5435 7c3e dc19 a13e 2228 4abe
00000060: f6c3 4e3e 652d 9ebe 02b6 8f3e 6e2c 3b3e
00000070: 15d4 96be 5c25 8d3e fc3b a33e e1e7 6d3e
00000080: df03 753e 287f a63e b39c b8be 3d30 a5be
00000090: d18a 873e 3a80 acbd b2f8 b0be 6b1f 613e
000000a0: cb74 903e 76d6 aebe d030 563e 01a1 c1be
000000b0: 852b a13e d0f4 86be 0fd6 b4be 6118 4e3e
000000c0: f861 823e 4401 8fbe 9a8e 383e ac06 a2be
000000d0: 814d a1be 9e39 9cbe b628 86be dcd6 ae3e
000000e0: b392 8a3e 96d9 afbe 5b43 a2be 0480 96be
000000f0: 9536 8ebe 4759 a23e 874a 6b3e d58c 89be
-0.3325422 0.22004725 0.20014545 0.2881564 0.26684502 -0.23218651 -0.26878205 0.22431378
0.24104907 0.2609813 -0.25087553 -0.33064806 0.20832291 0.23567088 0.29810488 0.26528957
-0.29257795 -0.33178434 0.24423337 -0.30120042 -0.2794839 0.24629718 0.31465042 -0.19741872
0.2019194 -0.30894008 0.28068548 0.18278667 -0.2945868 0.27567565 0.31881702 0.23232986
0.23927258 0.32518888 -0.36057052 -0.32263365 0.26473096 -0.08422895 -0.3456474 0.21984641
0.28214106 -0.34147996 0.20917058 -0.3781815 0.31478515 -0.26358652 -0.35319564 0.20126487
0.2546537 -0.27930653 0.18023148 -0.31645715 -0.31504443 -0.30512708 -0.26202935 0.341483
0.27065048 -0.34345692 -0.31692013 -0.29394543 -0.27776018 0.31708738 0.22977649 -0.2686526
