save7_1_23/save4_walk_18dofs_.pth (torch, 282843 bytes, 11 tensors)

shared_net.0.weight f4 [256, 73]
000000 a7 32 42 bd 30 6d a4 3e 00 e5 9e bd e7 8f 11 be
       -0.047411587 0.32114553 -0.07758522 -0.1421505
000010 a0 c3 f8 bc 86 7a 9d 3d ff c7 84 bb bd 7f 87 3d
       -0.030366719 0.07689385 -0.0040521617 0.06616161
000020 e4 e6 1e 3b d6 04 6c 3d 92 98 5c be 42 47 b1 bd
       0.0024246508 0.0576218 -0.21542576 -0.086561695
000030 f4 2b 4e be 50 64 96 be 98 ab 6d bd ed cd 4c 3d
       -0.20133954 -0.29373407 -0.058024973 0.050001074
000040 a3 47 11 bd 7c 31 4b 3e 04 7a d3 3d 76 92 01 be
       -0.03546871 0.19843096 0.10326007 -0.12653527
000050 cd 38 34 3d eb ac 8d 3e 95 24 ac be 6e 53 31 3e
       0.043999482 0.27670988 -0.3362166 0.17316982
000060 e7 fe c9 bc 88 91 93 3e fe 0d 2f 3e da 5f b4 be
       -0.02465768 0.2882197 0.17095181 -0.3522938
000070 89 08 91 3e 0b 1d a8 bd ea 46 d6 bd 35 a0 f4 3d
       0.28326824 -0.082086645 -0.104627445 0.119446196
000080 64 1f 02 be 7b 17 93 bd 9b db da bd d2 80 ae bd
       -0.12707287 -0.07182213 -0.10686418 -0.08520664
000090 c3 d3 eb bd c8 bd ef 3d f3 ac bb 3c a4 ed 02 3d
       -0.11515 0.1170612 0.022909617 0.031964913
0000a0 b6 a0 c9 bd 27 c2 f9 bc c1 2d 35 bd 07 7c cc bd
       -0.09845106 -0.030488087 -0.044233087 -0.09984594
0000b0 4a fe ef bc 19 f2 a7 bd 6b f5 fb 3d e7 1b 50 3d
       -0.02929606 -0.08200473 0.12302669 0.05080786
0000c0 10 4d f9 bd 70 b9 1d 3d 6e 8e 91 3d e3 24 b7 3d
       -0.12172902 0.038506925 0.071072444 0.089425825
0000d0 1d 7b 74 3d be 20 82 3d 70 22 2c 3d bd da 01 bd
       0.059687722 0.06353901 0.04202503 -0.031702746
0000e0 6b 58 8b 3b 31 df 20 be e6 20 57 bd 85 e3 11 bd
       0.0042524836 -0.15710141 -0.05252161 -0.03561737
0000f0 de cf ad 3d 66 11 bd 3d 29 65 78 bd 0d e8 81 3d
       0.08486913 0.09231834 -0.06064335 0.06343088
000100 ac cd bf 3d ac 9d 00 3c 65 e3 0d bc 7b 74 6a 3d
       0.09365401 0.007850092 -0.008660172 0.05723999
000110 21 c4 b5 3d 20 9e 1f 3e 2e 04 e5 bd 40 5a 2c be
       0.08875299 0.15587664 -0.11182438 -0.16831303
000120 3a 4a 82 b9 bc 55 39 3e f8 48 ea 3d fb ce 96 3e
       -0.00024850835 0.18099111 0.11439699 0.2945479
000130 02 0a 52 bd 1d aa 98 be 0f e6 73 3c 12 12 cd bd
       -0.051279075 -0.29817286 0.014886393 -0.10013212
000140 16 c3 97 be 7d 07 1e 3e 2d 54 8d 3e ea 86 5c be
       -0.29641026 0.15432544 0.27603284 -0.2153584
000150 7a 58 0c 3d c1 36 c0 3e 42 38 fe bd a8 91 a2 3d
       0.034264065 0.37541774 -0.12413074 0.07937938
000160 b8 c6 fd bb b6 9e 7f be 2e a1 7b 3e 6d 7b 24 be
       -0.0077446364 -0.24962887 0.24573204 -0.16062708
000170 ce d1 f4 bd 29 de 0b 3e c3 6d 09 3e 1b 81 16 3e
       -0.119540796 0.13658966 0.13420777 0.14697687
000180 04 c8 84 3e 95 cd 5b 3e 0d 0b e1 be f8 49 8c bc
       0.2593385 0.21465142 -0.43953744 -0.017125115
000190 92 37 0e bd e5 ac d1 bd 09 36 92 3e 23 ae 34 bd
       -0.034720965 -0.10238055 0.2855685 -0.044111382
0001a0 44 8e 90 bc 21 f8 c4 bd 24 77 19 be f8 7b ca bd
       -0.017645963 -0.09617639 -0.14986855 -0.098869264
0001b0 19 d2 47 3b a6 a2 14 3d 5b 8e 8e bd ff d5 59 3d
       0.0030490218 0.036287926 -0.06960746 0.0531826
0001c0 c9 8f 67 3d a9 e2 81 3e 50 03 26 3c d0 ae b8 bd
       0.05653361 0.2536824 0.010132626 -0.09017718
0001d0 00 04 37 3d 87 38 9a ba c1 c1 40 3d 55 d0 f7 3d
       0.04468155 -0.0011766114 0.047059778 0.12100283
0001e0 32 4e 9d 3d c6 64 bd bc cb 35 a3 bd a2 90 75 3d
       0.0768093 -0.023119342 -0.079692446 0.059952386
0001f0 26 76 e3 bd 38 fa 88 bd 90 21 2e 3d 7c 9b 33 bd
       -0.111065194 -0.066883504 0.042512476 -0.043849453
000200 42 e0 5f bd f2 9b 84 bd f9 6a fb 3d 64 e4 aa bb
       -0.05465723 -0.06475057 0.12276263 -0.0052152146
000210 92 e7 9a bd 9f a0 8c bb 39 75 5c 3d 69 38 10 38
       -0.075637 -0.0042916085 0.05382273 3.438481e-05
000220 12 f3 7c bc ed 4f 57 3b 27 b7 c8 3c 74 42 e7 3d
       -0.015438812 0.0032854036 0.024501396 0.11291972
000230 9b b7 bd 3d bb d1 2f 3e 01 64 13 3e 51 d2 ba bd
       0.092635356 0.1716985 0.14393617 -0.09122146
000240 ef 21 b8 bd 98 8f e3 bc b4 25 a9 3d e9 7b 52 be
       -0.08990847 -0.027778432 0.082591444 -0.2055508
000250 83 c3 7a bd 6b e4 63 be 4d 6b a6 bd af b9 8b be
       -0.06122161 -0.22255103 -0.08125935 -0.27290103
000260 7b 68 04 3e a0 fc 05 3c 99 e1 70 3d b2 0d 69 bd
       0.12930481 0.008177906 0.058808897 -0.056897826
000270 f0 6c fc 3d be 8e 38 be fc 2f 95 bd e3 1a 01 3e
       0.12325466 -0.18023202 -0.07284543 0.12607913
000280 3f ba 45 be f1 78 1e be ab 32 bc be 56 ac df bb
       -0.19309328 -0.15475823 -0.36757407 -0.006825964
000290 c9 87 a8 be 35 1b ae be d0 38 2d be 77 12 e7 bd
       -0.32916096 -0.34005132 -0.16916203 -0.11282819
0002a0 4c ef 43 3e 4a 68 62 be ce fd cd 3d a0 17 b5 be
       0.19134253 -0.22110096 0.10058175 -0.35369587
0002b0 4f 32 a2 3d 8f 87 38 3e bf 9c c1 be 21 a7 84 3e
       0.07919752 0.18020461 -0.378149 0.2590876
0002c0 df b8 97 bb f7 68 09 be ca 06 56 3c cd 44 a7 bd
       -0.0046301926 -0.13418947 0.013063142 -0.081674196
0002d0 ad 54 c5 3d 09 89 0a 3d 94 72 ff 3c 08 04 26 3e
       0.09635291 0.033822093 0.031182565 0.16212475
0002e0 5e 11 ad 3d 69 6b c6 38 fc f1 e9 bd 21 de b8 bd
       0.08450578 9.4613824e-05 -0.11423108 -0.09026743
0002f0 6c 9b 89 bd af 5f 0e bb 24 1a 9b 3d d9 b4 ae 3d
       -0.067190975 -0.0021724512 0.07573345 0.08530588
000300 69 88 09 3d a0 90 d1 bd 89 49 b6 bd ed 3d 9c bd
       0.033577356 -0.10232663 -0.089007445 -0.07628999
000310 c6 6b da bd ee fb eb 3c f5 25 56 bd 8c 53 7d 3b
       -0.106650874 0.028806653 -0.052282292 0.0038654534
000320 92 44 88 bc 1d 20 cf 3d 48 1f ca bd c2 dc 61 be
       -0.01663426 0.10113547 -0.09869248 -0.22056869
000330 18 fa 9a bd 8e cb f2 3d 18 11 0a bd a5 24 af 3d
       -0.07567233 0.11855231 -0.033707708 0.08551911
000340 75 c5 04 3d bb e4 a4 3c f9 81 6e 3b af 72 ce bc
       0.032414872 0.020128598 0.0036393388 -0.02520117
000350 49 2a 81 3d 3c d2 13 bd 65 ca d8 bd 85 d8 38 3e
       0.063068934 -0.036089167 -0.10585479 0.18051346
000360 bf 24 3f be 47 6f 27 be 87 a9 fb 3d 2e 88 5c bd
       -0.18666361 -0.16351043 0.12288194 -0.05384081
000370 7a 00 e5 bc e8 27 8c 3e 03 49 ad 3d a8 90 bb bd
       -0.027954329 0.27374196 0.084611915 -0.0915845
000380 02 b7 e7 be f4 cf 31 3e 4e da b7 bd 2a 0c 25 bc
       -0.4525681 0.17364484 -0.08977185 -0.010073701
000390 e9 b2 06 bd 44 d7 4a bd c6 62 e2 bd b7 57 37 3d
       -0.032885466 -0.0495217 -0.11053996 0.044761386
0003a0 b6 8b 46 be e2 32 3d 3e 6b b8 40 3e 82 77 37 be
       -0.19389233 0.18476442 0.1882035 -0.17916682
0003b0 28 91 84 3e 8a e5 18 be 14 e0 03 be d6 e0 31 3e
       0.25891995 -0.14931312 -0.12878448 0.17370924
0003c0 92 da 88 3d 06 fe 91 3d 4a c7 90 bd 84 90 68 3e
       0.06682314 0.07128529 -0.07069261 0.22711378
0003d0 e2 0c 40 be 86 39 18 bd 27 89 49 be 0e 45 72 be
       -0.18754914 -0.037164234 -0.19681226 -0.23659155
0003e0 d8 93 08 be e0 64 60 bb 04 08 ad 3d 45 6e 55 3d
       -0.13337648 -0.0034239814 0.084487945 0.052107114
0003f0 ea 11 cd 3d 57 25 3b bd bb da 0d be e6 8b 85 be
       0.100131825 -0.045689907 -0.1385297 -0.26083297

shared_net.0.bias f4 [256]
000000 7a b3 01 3b 0e 5d 88 3d 3f f6 a3 bc a5 65 00 3d
       0.0019790814 0.06658374 -0.02001488 0.031346936
000010 50 64 47 bc 18 ce 8e bd c0 57 d2 3d d4 2f 23 3d
       -0.012169912 -0.06972903 0.10270643 0.039840534
000020 1b 05 ba bd 33 39 c7 bd bf a1 77 bd b5 28 d4 bd
       -0.09083005 -0.09727707 -0.060456987 -0.10359327
000030 65 6f f1 3d 81 49 81 bd bd 37 2a bc d0 26 ab 3d
       0.11788825 -0.06312848 -0.010389266 0.08357012
000040 02 66 11 3c 34 4c 88 3d cd ef 98 bd d1 e0 b1 bd
       0.008874418 0.066551596 -0.07467613 -0.086854585
000050 79 69 9b 3c b6 4c 7c 3d 38 0a 00 3e 7e ea bf bd
       0.018971192 0.061596595 0.12503898 -0.09370898
000060 99 96 8e bd 41 d1 b3 bd 87 68 a8 3d 56 3e 97 3d
       -0.06962318 -0.087801464 0.08223062 0.073849365
000070 2b 1f 86 3d 74 83 8b 3d 07 4f 81 3c 09 bb de 3c
       0.065489136 0.06812182 0.015784753 0.027188795
000080 35 8c a8 bd 87 3a 96 bc 56 0e 9d bd 6a 38 8b bd
       -0.08229867 -0.018338455 -0.0766875 -0.067978695
000090 e0 ab 07 be 91 10 42 3d b0 dd c9 3d 70 71 88 bd
       -0.13249159 0.04737908 0.09856737 -0.066622615
0000a0 ac e4 00 be f5 cc 62 bd 15 54 27 3d 4d b6 da 3d
       -0.12587231 -0.055371244 0.04085167 0.10679302
0000b0 82 2d b2 3d 22 2d 88 bc 7a d4 01 3e fb 27 9b 3d
       0.08700086 -0.016623084 0.1267871 0.07575985
0000c0 ed ae 0d ba bf ea e9 3b 45 b4 cb bd f1 ec 49 bc
       -0.0005404789 0.0071385796 -0.09946493 -0.012324558
0000d0 67 00 9d 3c 1e 3b 2c bd 91 a1 56 3d 23 ef 74 3d
       0.01916523 -0.042048566 0.052400175 0.05979837
0000e0 5d 0c 12 3c c3 00 8b 3c f6 f6 1c be 3e a6 b9 3d
       0.00891408 0.016968137 -0.15328583 0.09064911
0000f0 44 ff 55 3c da ab 8a bd 7f ab 60 bd 02 1d c6 bc
       0.013061348 -0.06771059 -0.05485105 -0.024183754
000100 a9 5a 3c bc 7e 18 5c bc 2c 96 91 3c d4 68 85 3d
       -0.011496224 -0.013433574 0.017771803 0.06514135
000110 11 b7 81 3d 32 bf ec 3d 6b 9f 17 be d4 aa a6 3c
       0.06333745 0.11559905 -0.14806907 0.02034513
000120 b4 ac fb bd 2d 06 89 bd 80 32 d8 bd 71 ad 77 3d
       -0.122888 -0.06690631 -0.10556507 0.06046814
000130 52 bd 9c 3c fe 21 08 3e 78 c4 de 3d 3a 1d 5d bb
       0.019133244 0.13294217 0.10877317 -0.0033739344
000140 a3 43 2a bd d9 86 92 3d 62 71 94 3d 72 79 39 3d
       -0.04156841 0.071546264 0.072481886 0.045281835
000150 5d 6b fd bc f4 78 0a 3d 59 2d 78 bd eb be 06 3e
       -0.030934984 0.033806756 -0.060590122 0.13158767
000160 b2 76 d6 3d 0a 57 4e bc 30 f9 28 3c 01 00 04 bd
       0.10471858 -0.012593994 0.010313317 -0.032226566
000170 12 d2 46 3d 2a 67 b3 bb c4 a4 b8 bd 1e d5 81 bc
       0.048540182 -0.0054749446 -0.090158015 -0.015848693
000180 02 00 45 bd 68 3b bf 3d ce a5 85 bd 3c 2d ab bd
       -0.04809571 0.09337503 -0.06525765 -0.08358237
000190 cf 60 d8 3d 3b 7e cc bd 25 53 4f 3d aa 80 b1 bc
       0.1056534 -0.09985014 0.050616402 -0.021667797
0001a0 2c e2 e0 bd e8 23 bd bd 9a 48 b8 3b 48 39 13 bd
       -0.10980639 -0.09235364 0.005623889 -0.0359433
0001b0 d6 b9 38 3d 2f fd 3d 3d 0d 1e 38 bd f0 6c ca 3d
       0.045099102 0.046384033 -0.044950534 0.098840594
0001c0 2b dc df ba 18 2e 2e 3d 4f 21 22 bd 31 b9 32 bd
       -0.0017079165 0.042524427 -0.039582547 -0.043633644
0001d0 77 24 72 bd be aa 9b bd fc b4 9f bd ed 96 11 3d
       -0.059116807 -0.07600926 -0.07798192 0.035544325
0001e0 1d b3 ab 3d ff bf 55 3d 7a 33 0d be c9 18 ad 3c
       0.083837725 0.052185055 -0.13789168 0.021129983
0001f0 b6 de ef bd 7a 15 23 bd ad 3c 57 bd c9 9d 58 3d
       -0.117124006 -0.039815404 -0.0525481 0.05288485
000200 3b 46 54 bd 76 71 49 3d c1 ff 60 3d b2 dd b1 bc
       -0.05182479 0.04918047 0.054931406 -0.021712158
000210 69 9a de 3d dd 3b 65 bd 5b 29 51 3c 4b 87 a8 bd
       0.10869295 -0.055965293 0.012766208 -0.0822893
000220 36 8b f0 3c b2 c0 11 bd 3f b6 dc bd 9d e1 90 3d
       0.029363256 -0.03558416 -0.10776948 0.07074282
000230 ea ac f6 3c b7 5a d0 bc e2 57 cc bd b9 05 5e bd
       0.030111749 -0.025433881 -0.099777 -0.054204676
000240 02 5f 9c 3d 89 c9 fe bd c6 27 8a bd 18 80 bd bd
       0.07635309 -0.124407835 -0.067458674 -0.092529476
000250 9a 5a 17 3e d7 b7 89 3d 8e f9 11 be a4 5b 02 be
       0.14780656 0.06724518 -0.14255354 -0.1273027
000260 6a fa 88 bd 8c 78 c7 3d 4a 75 cb 3d 85 22 ab 3d
       -0.06688388 0.09739789 0.099344805 0.083561935
000270 2b 88 37 3d e8 73 b3 bd 8e e5 63 3c da e9 cd 3d
       0.044807594 -0.08762342 0.013909711 0.10054369
000280 eb ef e5 bd 80 0c 97 bd 47 ad bb 3d eb 03 7b 3b
       -0.11227401 -0.07375431 0.091639094 0.0038301896
000290 dc 48 9a bd 90 b6 86 bd 27 43 a3 bd 76 fe 10 be
       -0.07533428 -0.0657779 -0.07971793 -0.14159569
0002a0 65 9e ee 3b 9c 65 1e bd 49 24 a4 3d 4b e7 06 bd
       0.0072820657 -0.03867112 0.08014733 -0.032935422
0002b0 be cd 08 bd 8d 7c d7 bd 7e f8 03 3e 73 4e 62 b9
       -0.033399336 -0.10521803 0.12887761 -0.00021582264
0002c0 e8 92 1d be 5f 6b 88 3d 18 0d 90 3d 0e b2 e1 3d
       -0.15388072 0.066611044 0.070337474 0.11020289
0002d0 49 3c db 3d a4 b2 09 bd ba 45 b3 3c 86 b0 9c 3d
       0.10704858 -0.03361763 0.021883834 0.07650857
0002e0 d9 53 d0 3c 33 b5 01 bd 1a 83 06 bc e4 d3 d8 bd
       0.025430607 -0.031666946 -0.008209968 -0.1058729
0002f0 8b c6 a9 3d fa 46 3e 3d 0a be 99 3d b9 13 26 3d
       0.08289822 0.046454407 0.0750695 0.040546153
000300 eb 5e a4 3d 0b 32 29 3c 36 6e a2 bc 51 c3 f7 bc
       0.08025917 0.010326873 -0.019827943 -0.030244501
000310 ee 29 78 3d db 83 98 bd f7 09 0e 3e af 49 fd 3d
       0.060586862 -0.074470244 0.13870989 0.1236757
000320 7b 1e 94 bd 41 ed 5c bd 36 67 95 3c 93 7b ab bd
       -0.07232376 -0.0539372 0.018237691 -0.08373179
000330 82 51 3f 3d fb 79 7f 3d c0 70 56 3d 31 ef 9b b9
       0.04670859 0.06237219 0.05235362 -0.00029742115
000340 cd 4e 7a bd f2 a1 d6 bd 25 e0 d2 3c cb 7e 9a 3d
       -0.061110307 -0.10480107 0.025741646 0.07543715
000350 4b 8b 74 bc a0 f5 15 bd dc 00 c1 bd 1e 98 de 3a
       -0.014925788 -0.0366112 -0.09423992 0.001698259
000360 cf f8 24 bd 32 ed 9a bd e7 21 a6 ba 15 a0 b0 bd
       -0.040276345 -0.07564773 -0.0012674899 -0.08624283
000370 47 17 07 be bd 1a ef bd 1f a2 62 bd c4 b7 e1 3c
       -0.13192473 -0.11675022 -0.055330392 0.027553447
000380 92 75 bd bd c6 c6 9f bc 8e 6e 6e bd 92 ef 6b 3d
       -0.092509404 -0.019503962 -0.058210902 0.05760152
000390 c4 36 59 3d d0 76 18 bd c8 f2 e2 bd 6d 7b f1 bb
       0.053030744 -0.037222683 -0.11081463 -0.00736945
0003a0 2b d9 db bd 5f 3a b3 bc 56 3d ef bd c8 f0 d3 bd
       -0.10734781 -0.02187842 -0.11681621 -0.1034866
0003b0 e0 a5 a9 3d 99 4a 16 bd 5d fc 5a 3d 43 a9 f8 3d
       0.08283591 -0.036692236 0.05346333 0.12141659
0003c0 77 99 f3 bd cd 1d db bd 1e c8 c5 bd 38 ae a7 3d
       -0.118945055 -0.106990434 -0.0965731 0.081875265
0003d0 ad 7a 04 3e 6c ac a0 3c 41 4f 91 bd 85 80 64 bd
       0.12937422 0.019613467 -0.070951946 -0.05578663
0003e0 04 16 1c bd b3 06 1e be 6d 26 80 3d 57 35 ee 3d
       -0.038106933 -0.15432243 0.06257329 0.116312675
0003f0 6e 0b 3b 3d 0b e1 c6 bd 97 88 62 3d 09 80 c1 bc
       0.045665197 -0.09710892 0.055306043 -0.023620622

shared_net.2.weight f4 [128, 256]
000000 2f a2 60 bd 3b 94 e9 bc e7 01 cd 3d 55 19 8f 3c
       -0.05484217 -0.028513065 0.100101285 0.017468134
000010 c4 6e 9c 3c 6e 35 93 bd f9 86 f0 3c 13 27 75 ba
       0.019095786 -0.07187925 0.029361235 -0.0009351831
000020 f1 c7 b2 3c ac 60 b3 bc bd fa d3 39 e9 e8 9f 3d
       0.021823855 -0.021896683 0.0004043187 0.07808096
000030 c4 ad d7 3d f5 12 cf bd 91 d6 df ba e7 f3 31 bc
       0.1053119 -0.10111038 -0.0017077496 -0.0108613735
000040 36 98 ee 3d 3a 1e 0b bc 8c d1 06 be 6e 1e 7a 3d
       0.11650126 -0.008491093 -0.13165873 0.061064176
000050 b6 99 44 bd 39 2f b3 3d eb f1 0c bd 69 d2 ac bd
       -0.047998153 0.087492414 -0.0344104 -0.0843857
000060 bf 27 cb 3c 75 ec b1 bd c3 ee 89 bd 62 2c eb 3c
       0.024799226 -0.08687679 -0.06734993 0.028707687
000070 9e 91 74 3d 15 2b b8 3d 86 63 71 3d 89 8a 8e bb
       0.059709184 0.08992592 0.058932804 -0.004350011
000080 84 eb df 3a 79 b0 2b be f8 75 3e be 55 8c ab 3c
       0.0017083739 -0.16766538 -0.18599689 0.020940939
000090 6e af 0f bd 1b 56 e6 bd 50 a1 03 be b2 d4 1c 3b
       -0.035079412 -0.11246892 -0.12854505 0.0023930487
0000a0 b5 59 ba 3b 2c 05 5c bd 3b 47 f2 3d 54 f4 50 3c
       0.0056869634 -0.05371587 0.118299924 0.012753565
0000b0 6c 5f 06 3d f8 e6 9f 3c 4f c3 a3 3c 51 c3 ae 3b
       0.032805845 0.019519314 0.019990591 0.005333342
0000c0 43 d7 be bd 89 5a 25 3d 6b 8c 06 3d e7 0e 4e bd
       -0.09318402 0.040369544 0.032848757 -0.05030718
0000d0 fc 8b 5b 3b 22 3b 0c bd c6 24 52 be 41 9a 6e bc
       0.0033500185 -0.03423608 -0.2052184 -0.014563144
0000e0 7a a2 97 3c ea 7d 17 be e9 05 c7 bc 34 e6 02 3d
       0.018510092 -0.14794126 -0.02429481 0.03195782
0000f0 75 68 64 bd 84 59 80 3d 9c 5f 00 3c ef 56 42 3c
       -0.05576368 0.06267074 0.007835295 0.011861547
000100 18 ff c3 3d af 2c b6 3d 40 e0 80 3d 3b 47 51 3c
       0.0957014 0.088952415 0.06292772 0.01277333
000110 1e bb c6 3d b2 db a2 3d 7b 81 c1 3d 03 47 6b bd
       0.097036585 0.0795206 0.094485246 -0.05744077
000120 a9 8d 3c 3d f4 90 e1 3d 49 e8 dd 3d 77 52 5c bc
       0.046033535 0.11013976 0.108353205 -0.0134473955
000130 8b 70 84 3b 0c c7 a1 3d 9b e6 b7 bc 1a c7 22 bc
       0.0040417365 0.07899293 -0.022448828 -0.009935165
000140 52 ad ea bc 26 f1 11 3d 6b 60 16 bd 19 40 33 bd
       -0.028647099 0.035630368 -0.036713045 -0.0437623
000150 c7 70 df 3c 87 32 8a 3d e5 5e e6 3c 0c d9 48 bd
       0.027275456 0.067479186 0.028121421 -0.049035117
000160 a7 6a 1e 3d 8d 80 95 bd 54 c9 38 bd ad 01 1a 3d
       0.03867593 -0.0729991 -0.045113876 0.037599254
000170 ae 61 14 3e c5 90 4a bd e9 fb aa bd 1f d2 3a bd
       0.14490387 -0.04945447 -0.08348829 -0.045610543
000180 0b 4d a4 bd 03 d4 0e 3d 81 97 70 bd 3b 8b f1 bd
       -0.08022507 0.03487016 -0.058738235 -0.11794134
000190 73 5e fe bb 74 90 a2 bc 91 7f 96 3d e0 8a 95 bd
       -0.007762724 -0.019844271 0.0734855 -0.07301879
0001a0 69 81 ef bc b3 cd 89 3d 12 7f 53 bd d9 b4 9c bd
       -0.029236512 0.06728687 -0.051634856 -0.076516815
0001b0 9d a8 aa 3d 98 13 55 bc c4 2e 7e bc 55 f4 13 bd
       0.08332942 -0.01300516 -0.0155140795 -0.036121685
0001c0 fd 60 3f bc e6 04 2a 3d 93 23 14 3c 70 76 c8 bc
       -0.011680839 0.041508578 0.009041685 -0.024470538
0001d0 e3 fa 2f bc 7b 56 0a 3e 5f e7 0f bc bf bc 44 bc
       -0.010740968 0.13509552 -0.0087831905 -0.012007891
0001e0 99 2e c0 3c 40 73 8e 3c 7e aa 16 be 08 97 a1 3c
       0.02345972 0.01738894 -0.14713475 0.019725338
0001f0 85 dd 82 bc 4e d0 ec bb c0 65 f6 bc 07 b0 d9 bd
       -0.01597477 -0.0072269803 -0.030077815 -0.10629278
000200 01 f4 46 3d 4f d4 cb bb df 1d b5 bd 46 2b a2 bd
       0.048572544 -0.0062203775 -0.08843588 -0.0791841
000210 bb cd 44 bd 41 b1 33 3b de f0 9d bd 55 e9 65 3d
       -0.048047762 0.0027418884 -0.077119574 0.056130726
000220 55 e2 f8 bc 2e af cc 3c fb 20 d9 bd f1 5f a0 bd
       -0.030381361 0.024985876 -0.10601994 -0.07830799
000230 21 ae fb ba 06 0a 77 3d 91 7a ae bd e8 e3 70 3d
       -0.0019201675 0.060312293 -0.085194714 0.0588111
000240 77 87 33 3d 21 b2 ea bd e1 4f 11 3e f1 df 1c bd
       0.04383036 -0.11459757 0.14190628 -0.038299505
000250 b5 3d 0f bd de a9 45 3d 69 10 1c bd 7d fa ab 3d
       -0.034970958 0.0482577 -0.038101587 0.08397386
000260 20 81 86 bd ca 02 95 bd 84 85 86 3c 66 0c ca bd
       -0.065675974 -0.072759226 0.016421087 -0.09865646
000270 14 6c 37 bb e5 6d ab 3d cf d1 3f 3c 09 4d e3 bd
       -0.0027988004 0.0837057 0.011707737 -0.11098678
000280 68 6e 48 bd 23 63 f8 bc 99 70 1f bd 7c 85 97 3d
       -0.048933417 -0.03032071 -0.03892574 0.07398507
000290 8b ed 5b bd 63 37 c9 3c 0f c3 50 bc e4 17 92 3d
       -0.053693336 0.024562543 -0.012741818 0.07133463
0002a0 de d2 cc bd d3 19 33 b9 dc b9 23 3e 58 59 ac 3b
       -0.10001157 -0.0001708039 0.15988868 0.005259674
0002b0 19 41 9c bd 9c 96 4e bd 14 77 06 be 14 13 d1 bd
       -0.07629604 -0.0504366 -0.13131362 -0.10208717
0002c0 81 ab 0c bc 50 6d 6e 3c 45 e1 9b 3d 07 60 19 bd
       -0.008585812 0.014552429 0.07611326 -0.037445094
0002d0 0e cf 46 bd 77 0b 32 bd c0 65 e0 bc c2 1a 7f 3d
       -0.048537306 -0.043467965 -0.027392268 0.062281378
0002e0 4b 94 19 3d 91 d2 76 bd ac c4 c1 bd 80 a2 3e 3c
       0.03749494 -0.060259406 -0.0946134 0.011635423
0002f0 68 21 a3 3c 96 f2 d5 3d 4e 3d 22 3d 97 1c 79 bb
       0.01991339 0.1044666 0.039609246 -0.0038011426
000300 68 37 e6 3d 72 b4 dc bb bc 02 9b bd fd 74 03 ba
       0.11241037 -0.006735378 -0.07568881 -0.0005014686
000310 bb 6d 2b bd 67 2d 90 bd 7d 9f 01 3e bc 79 96 bd
       -0.041852694 -0.0703991 0.12658496 -0.07347438
000320 25 c8 a7 3c 87 01 99 bc c6 9f d6 3a c4 e2 cb bb
       0.020481179 -0.018677486 0.001637452 -0.006222101
000330 60 1c 59 3d 38 c8 9c bd bf 45 0d be ed 28 13 be
       0.053005576 -0.07655376 -0.13796137 -0.1437108
000340 7d 2e 93 3c 46 0a 25 3d e9 25 da 3d b2 dd 85 bd
       0.017966503 0.040293 0.10651762 -0.06536426
000350 84 b9 3c 3c b9 16 ac 3d ec b4 c7 3c da c6 e1 3c
       0.01151884 0.084027715 0.024378262 0.02756064
000360 0f ec a6 3d c2 92 8a 3d d3 3f 06 3c 0b 75 79 bd
       0.08150493 0.06766273 0.008193928 -0.060902636
000370 9a 9b 10 3d b1 f5 c9 bd ae e2 88 3d 89 4c 09 3d
       0.035304643 -0.09861315 0.06683861 0.033520255
000380 c4 4a 75 3d aa 03 2e bd 5c 34 cb 3d 59 c7 67 bd
       0.059885755 -0.042483963 0.09922096 -0.056586597
000390 4b cb db bd 73 13 94 3b 60 32 0c 3c 65 6f bb 3d
       -0.107321344 0.00451892 0.008556932 0.09152106
0003a0 0a 4a cc bd 64 9a 91 bd de 40 0d be 00 57 9d bd
       -0.09975059 -0.07109526 -0.13794276 -0.076826096
0003b0 66 41 93 bb 32 01 a1 3d 5d 9c ae 3d e1 9d 35 bd
       -0.00449388 0.07861556 0.08525918 -0.04434002
0003c0 c9 b8 80 3c 35 6e a1 bd ef 90 1f bb 1f dc 95 3d
       0.015713112 -0.078823484 -0.0024347862 0.073173754
0003d0 b6 42 a6 3d ba 05 99 bd ca 0b 7c bc 42 92 97 3d
       0.08118193 -0.074717954 -0.01538367 0.07400943
0003e0 43 60 26 bd f2 22 19 3c 9a 03 a1 3c 60 2c e0 3c
       -0.040619146 0.0093467105 0.019655038 0.02736491
0003f0 88 e0 b4 3c ed 34 9f bc 38 90 1b bc 58 87 58 bd
       0.022079721 -0.019434417 -0.009494834 -0.05286345

shared_net.2.bias f4 [128]
000000 bd 72 33 bd ad 1d 12 be 60 df 09 bd a6 0d e1 bc
       -0.043810595 -0.14269133 -0.033660293 -0.027472328
000010 4d c9 aa bc 4f 45 7f 3d 1b b9 a5 3a 47 17 1e 3d
       -0.02084794 0.062321957 0.0012643667 0.038596418
000020 05 4a 66 3d ca 16 00 3d 61 04 da 3b af ca 2b be
       0.056222934 0.031271733 0.006653354 -0.16776536
000030 43 94 28 be 27 36 30 bd e6 ed 3d be 77 e0 c3 bd
       -0.16462807 -0.043020394 -0.18547782 -0.09564298
000040 78 5b 82 bd c4 b1 bd 3c f7 a8 09 bd 50 2a 59 3d
       -0.063651025 0.023156054 -0.033608403 0.053018868
000050 93 5a 93 3d 62 8f 63 3d 8a 7a 6d bd 0c 3c 05 bd
       0.0719501 0.055556662 -0.05797819 -0.03252797
000060 cf 5a 1a 3d e0 4b a2 bd 7f ab 6f 3c d3 1b 9b bd
       0.037684258 -0.07924628 0.01462829 -0.075736664
000070 ba ca 7b bd a9 ac 42 bb 1f 5d 28 bd bc 95 97 3d
       -0.061472632 -0.0029704964 -0.041104432 0.074016064
000080 dc b7 c7 3b 93 9f 25 3d cd 3e a1 3c 45 d4 29 bd
       0.006094916 0.040435385 0.019683266 -0.0414622
000090 df 47 f9 3c 82 6e af bd 3d 52 ff 3c cf 1e f7 bd
       0.030429779 -0.085659996 0.031167144 -0.12066423
0000a0 24 76 c9 bd 5e d5 f4 3c 79 2a 99 3c 0c f3 b2 bd
       -0.09836987 0.029886898 0.01869701 -0.08737764
0000b0 68 96 9f 3d cf 89 d3 bd 0b e6 86 3c d0 fc 51 3d
       0.077923596 -0.10329019 0.016467115 0.05126649
0000c0 df f1 fc bc 34 99 96 3c 2c ad 47 bd 10 5a 5c 3d
       -0.030877052 0.0183836 -0.048749134 0.053796828
0000d0 ae 07 32 be d3 34 0e 3d fb 9e 00 be 08 76 75 bd
       -0.17385742 0.034718346 -0.12560646 -0.059927016
0000e0 93 0b 19 be 9c d8 c6 bc f8 a5 cd bb ee 8e 32 be
       -0.14945821 -0.02427321 -0.0062758885 -0.17437336
0000f0 cb 41 86 3c 7f b3 43 bb 3e 04 5b bd 49 68 05 be
       0.016388794 -0.0029861627 -0.053470843 -0.13028063
000100 25 fb e6 bd 2f 5b e9 bd 5b d9 f0 3c 96 97 41 bd
       -0.11278371 -0.11394345 0.029400518 -0.047263704
000110 a1 9e 19 bd 33 18 c7 bd a2 c5 15 bc d5 fe b8 3c
       -0.037504796 -0.097214125 -0.009141358 0.02258245
000120 b0 54 74 3d 30 82 b1 3d 22 e0 03 be 33 20 92 3d
       0.059651077 0.086674094 -0.12878469 0.07135048
000130 e2 7c 87 bd a7 c9 d9 bb a2 74 62 bd 5d f4 36 bd
       -0.066156164 -0.0066463533 -0.05528701 -0.044666637
000140 86 f3 f3 3d dc e1 ec bd be d7 f0 bb 6b 63 cf bd
       0.11911683 -0.11566517 -0.007349937 -0.10126384
000150 25 da 44 3d bb df 5d bd 9f a1 11 3d cb bf 97 bd
       0.0480596 -0.054168444 0.035554525 -0.074096285
000160 e2 c6 cf bb 01 15 cb bd 09 c2 49 3d 17 67 12 3d
       -0.0063408474 -0.099161156 0.049257312 0.035742845
000170 d4 fd da bd 36 12 71 bd e5 3d b0 bd 6e 20 38 3d
       -0.10692945 -0.058855258 -0.086055554 0.044952802
000180 96 55 ee bd 2d 86 f2 3c f1 27 b7 3d 29 10 e1 bd
       -0.11637418 0.029604996 0.08943165 -0.109894104
000190 68 7f fb bc 75 9a 51 bd 58 6f 3a bd 43 d0 27 bd
       -0.0307004 -0.051172692 -0.045516342 -0.0409701
0001a0 45 b9 d7 bd 8c c4 c5 bd b6 c7 91 bd 8a 4a a3 bd
       -0.10533384 -0.09656629 -0.0711817 -0.079732016
0001b0 d9 e5 97 3d db a5 1f 3d a7 19 28 be 21 9c 85 bd
       0.07416887 0.03897653 -0.16416036 -0.0652392
0001c0 5a f5 e1 bd 9a f9 16 bd fc 48 a6 bb cf 5c 24 bd
       -0.11033125 -0.036859132 -0.0050746184 -0.04012757
0001d0 6f 13 42 be 72 a2 34 be 77 68 cf bd 44 de 3b bd
       -0.18952726 -0.17640093 -0.10127347 -0.045866266
0001e0 41 ee c9 bc 9b 33 1b be 6f 36 5a bd d5 67 9e bd
       -0.024649741 -0.15156405 -0.05327457 -0.07734648
0001f0 74 8c a6 3d 3f 16 0f be b2 a5 5a 3d 2f c4 b0 3d
       0.08132258 -0.1397333 0.053380676 0.08631169

to_mean.0.weight f4 [64, 128]
000000 e0 5f f0 3c 83 bd 73 3d 70 ef 18 3d bf f0 ea 3c
       0.029342592 0.059506904 0.03733772 0.02867925
000010 d3 2f a5 bc eb c9 04 bd 8c 5c a7 bc 98 5c 2b bd
       -0.020164406 -0.032419126 -0.020429872 -0.04183635
000020 f5 aa dc bc f8 54 88 bd 94 de b5 3b 0d 91 37 3d
       -0.026936987 -0.066568315 0.005550215 0.044816066
000030 36 1e 65 bd a3 a6 0e be ea a7 4f bd 90 89 b0 3d
       -0.055937015 -0.13930754 -0.050697245 0.08619988
000040 77 ac b2 3c 88 05 96 bd 37 1a 7a 3c 07 a8 21 3d
       0.021810753 -0.07325274 0.015265039 0.039466884
000050 d3 e5 55 3b 6b 1a 8a bd 06 74 68 3c 7c 75 86 3d
       0.0032638207 -0.0674332 0.014187818 0.06565377
000060 4a 1d cd 3b 27 60 85 bc 99 58 5a 3c 23 92 8d 3d
       0.006259595 -0.0162812 0.013326787 0.06912639
000070 da 49 60 bd 19 35 70 bc a9 e9 2c 3c 80 b8 61 bd
       -0.05475793 -0.014661097 0.010553756 -0.055107594
000080 64 f9 cc bb 22 dd 03 bb ff c4 8f 3c ab 17 97 3b
       -0.0062553156 -0.002012082 0.01754999 0.0046109757
000090 0f 67 55 bd 67 2a 7e bc 4f 3e c1 bd 9b da 87 bd
       -0.052100237 -0.015513039 -0.094357125 -0.066334926
0000a0 a8 0f a1 3c 5d be c6 bc 17 4a df 3b b7 d2 17 3d
       0.019660786 -0.024260694 0.006814252 0.037066188
0000b0 e9 7e dd 3c 29 5f 6a 3d 16 8e 7b bd ea 01 36 bd
       0.027038055 0.057219658 -0.0614148 -0.04443542
0000c0 7f 50 29 bd 7a 27 0c bd 13 65 4a bd c8 83 da 3d
       -0.041336533 -0.034217335 -0.049412798 0.106696665
0000d0 55 8a 13 3d cb 6d 5b 3c 69 29 da 3c 8c e6 03 bd
       0.036020596 0.013392876 0.026631074 -0.03220229
0000e0 2f e7 67 bc af a7 8b 3d 2b 7c 77 bd a7 18 75 3d
       -0.01415424 0.068190925 -0.06042115 0.059837963
0000f0 3f 73 46 3d a0 ef 7e bc 33 f7 04 bd 4e 75 78 bd
       0.04844975 -0.015560061 -0.03246231 -0.060658745
000100 27 e0 27 bd df ff 5a bd bf 40 d8 3d 42 ac 8a 3d
       -0.040985253 -0.053466674 0.10559224 0.06771137
000110 b1 eb 24 3d 95 f7 83 bc bf de 88 bb 1e fe ee 3b
       0.040263835 -0.016109267 -0.004176944 0.0072934767
000120 70 d2 d0 3b 65 ee 96 bd 31 9e b3 3b 43 23 88 3c
       0.0063727424 -0.07369689 0.0054815044 0.016618377
000130 5a 8d bc bd 78 58 d0 bb 1a 40 4e bc 91 64 13 3c
       -0.09206648 -0.0063582025 -0.012588525 0.008996145
000140 2b a6 73 3d df 3d 88 3d e1 4f a3 bd 21 a9 89 3d
       0.059484642 0.06652426 -0.0797422 0.06721712
000150 ce e5 12 be 5e 63 ab bd 57 83 e4 3d ce df c8 bb
       -0.14345476 -0.08368562 0.111578636 -0.006130195
000160 87 20 4e 3c ef 85 d2 bd 32 8d 90 bc 92 2d 20 bd
       0.012580997 -0.10279452 -0.017645452 -0.03910596
000170 08 fe be bc 5a 7c d4 3c da 30 33 3d 65 b5 20 bd
       -0.02331449 0.025938202 0.04374776 -0.03923549
000180 fe d4 a5 3c f1 8a 78 bd 93 25 9f bc 55 19 78 3d
       0.020243164 -0.06067938 -0.019427096 0.060571034
000190 72 7b 11 bd b9 21 ce 3c 62 30 f8 ba 03 fc a4 3c
       -0.035518117 0.025162565 -0.0018935318 0.0201397
0001a0 ac f5 4d bd 2f 1d 3b bd a0 ca 04 bd a5 a6 4d bd
       -0.05028312 -0.04568213 -0.0324198 -0.050207753
0001b0 49 79 dd bc cf 12 2e bd a6 8d 59 bd 5f 54 df 3c
       -0.027035372 -0.042498406 -0.053113602 0.027261911
0001c0 32 b5 1e bd b0 c8 2a bd c3 ac 7c bd 33 36 5d bd
       -0.03874702 -0.041695297 -0.061688196 -0.054006767
0001d0 46 65 fb 3c 03 6e 2f 3d 7f d4 8a bd 58 2e 52 bc
       0.03068794 0.042829525 -0.06778812 -0.012828432
0001e0 16 2d d2 bc f0 6d 3e 3d 8e 0b 7a bd a6 9e 48 3d
       -0.025656264 0.046491563 -0.061046176 0.048979424
0001f0 39 66 21 bc 05 98 20 3d 08 46 82 bd 25 24 45 3d
       -0.009851032 0.039207477 -0.06361014 0.048130173
000200 dd 54 96 3d 06 c5 a2 3b e6 93 f2 3c 40 65 0a 3d
       0.07340405 0.0049673347 0.02961154 0.033787966
000210 de ea f9 3c dd 04 66 3b df 75 08 3d 90 62 a2 bb
       0.030507501 0.0035098114 0.033315536 -0.004955597
000220 62 df d1 3d b5 a3 93 3c d0 12 3d 3d ed 30 be bd
       0.10247685 0.018022398 0.04616052 -0.092866756
000230 2c bd b9 bc 95 70 10 be fd a0 a7 bd 45 57 20 bd
       -0.022673212 -0.14105447 -0.08185003 -0.039145727
000240 6d 45 fb bc 72 a9 dd 3d 8f d3 9a 3b 15 c9 a0 bd
       -0.030672753 0.10823335 0.004724927 -0.07850853
000250 40 37 9c 3c 86 39 e3 bd 1f 83 da 3b 83 5a 81 bd
       0.019069314 -0.11094956 0.006668463 -0.06316092
000260 6a 02 76 bd 2f 9a ec 3c c4 cf 9e bc 99 fd 2e bd
       -0.060060896 0.028882114 -0.01938618 -0.04272232
000270 eb 90 9d bd bc e6 4a 3d 70 8a b7 bc 81 14 13 bc
       -0.076936565 0.04953645 -0.02240488 -0.0089770565
000280 30 51 98 3d 71 41 35 bc 46 b3 3c bd 3f ba 32 bd
       0.0743736 -0.011062966 -0.046069406 -0.04363465
000290 7a 99 4f bd b7 ad c1 3c a0 71 02 bd fc e5 9c 3d
       -0.050683476 0.023642404 -0.031846642 0.076610535
0002a0 c6 37 2d bc d3 40 1f bd b6 ba aa 3c 0a 8f 6f 3c
       -0.010572379 -0.03888018 0.020840984 0.0146215055
0002b0 48 d7 29 bb 17 72 e2 bc 9a 27 8e bd c8 ab 56 3d
       -0.002591567 -0.027642293 -0.06941147 0.052409917
0002c0 a8 d9 eb bc 33 09 d9 3b 30 a8 0c 3d 40 a2 7b bd
       -0.02879031 0.006623411 0.034340084 -0.06143403
0002d0 aa 08 9d 3d 38 ef 45 bd b1 14 e9 3a 92 1c a1 3c
       0.07667668 -0.04832384 0.0017782656 0.019666944
0002e0 eb 78 bc bc 0c d9 38 bd 4d 18 42 3c 90 69 a9 bd
       -0.023006877 -0.045128867 0.011846614 -0.082720876
0002f0 ae fa f9 bc fc 0f 76 bd fb 4e e3 3c 39 e6 03 3d
       -0.030515041 -0.060073838 0.027747622 0.03220198
000300 38 ca 9e bd 15 79 40 3d af f6 f6 3c a0 16 9d 3d
       -0.07753414 0.046990473 0.030146925 0.07670331
000310 2d cd e1 3c 2d 64 4c 3c 3c e0 9d bd d0 db ba ba
       0.027563656 0.012475056 -0.07708785 -0.0014256183
000320 74 8d ff 3b 28 90 14 bd cf 5e 6d bd 2e c6 ad 3c
       0.007798845 -0.03627029 -0.057951745 0.021212664
000330 a3 69 f9 bd ef 22 b0 3c e3 b2 55 bd 10 78 18 bb
       -0.12178352 0.021501033 -0.052172553 -0.0023264922
000340 48 94 d0 3c 6e 73 81 bd e6 1f b5 3b da ea 99 3d
       0.025461331 -0.063208446 0.005527484 0.075154975
000350 72 78 c4 bc fd 6a 92 bc af d0 d2 bb 49 34 c3 bd
       -0.023983214 -0.017873282 -0.0064335684 -0.09531457
000360 e6 69 79 bb af 48 26 3c 32 9d 0b bd 0f 9d e1 3d
       -0.0038057505 0.010149165 -0.03408546 0.11016285
000370 0b da af 3c 4c 52 98 3d 3a e4 78 3c a6 9b 36 bd
       0.021466276 0.07437572 0.015191132 -0.04458203
000380 12 71 ec bc 93 a8 c4 3c b2 a9 ee bc 94 04 49 3d
       -0.02886251 0.024006164 -0.029133651 0.04907663
000390 e8 09 9e 3d 3c fe ba 3d 0a 6e 08 bd 19 32 8f 3d
       0.07716733 0.091305226 -0.033308066 0.06991977
0003a0 f2 7c 54 3d b3 4c 78 3d a5 96 8e bc fe 8e 08 3d
       0.05187697 0.06062002 -0.017405817 0.033339493
0003b0 24 47 9a bb f1 80 cb 3b f8 d7 aa 3d ec ee 08 bd
       -0.0047081877 0.0062104394 0.08341974 -0.03343098
0003c0 64 09 60 bd 6e 90 ef 3d 62 23 28 3c f8 b2 02 3d
       -0.054696456 0.1169747 0.010262342 0.03190896
0003d0 97 a8 86 bd 2c 21 92 bc 45 d3 4d bd 5b b8 d5 bc
       -0.06575125 -0.017838083 -0.05025031 -0.026088884
0003e0 4a c8 d8 bc b7 0c 93 bc 9e fd 06 bd ca 8a 81 bc
       -0.026462693 -0.017950399 -0.032956712 -0.01581325
0003f0 da 27 04 3d c2 2f c2 3c 82 ac 6e bd 5e 7b 6c bc
       0.032264568 0.023704413 -0.058269985 -0.01443371

to_mean.0.bias f4 [64]
000000 07 5e 3e bc dc 77 b4 bd 8e 67 99 3d 0d f7 28 bd
       -0.011619098 -0.08811924 0.074904546 -0.04125123
000010 5f a4 20 bd 62 7d 32 bd bf 39 72 3d b9 bc 1e bc
       -0.039219256 -0.043576606 0.059137102 -0.00968855
000020 61 f7 86 bd 5c 1f 5c bc f6 b8 c9 bc 91 ae 4b 3c
       -0.065901525 -0.013435211 -0.024624329 0.012431757
000030 fc 7c 5e 3d 29 c8 0c 3d ef ea 4e 3c 42 78 92 bd
       0.054318413 0.034370575 0.012629255 -0.071518436
000040 7d 77 69 3d 14 b8 54 3d 97 a5 b0 3b 93 2b f4 3c
       0.05699872 0.051933363 0.0053908336 0.029805934
000050 5a c2 89 bc 42 3c e4 bc 2d d5 c8 bc 81 64 fe 3c
       -0.016816307 -0.027860764 -0.024515713 0.031053783
000060 12 35 5d bd 64 8b 1b 3c b0 75 e2 bd 2a 52 e1 bc
       -0.05400569 0.0094936825 -0.11057603 -0.027505
000070 59 ab 91 bb d8 8d 85 3d 09 b8 99 3d ce 5d a0 3b
       -0.004445475 0.06521195 0.07505805 0.004893995
000080 3a bb e5 bc 60 a4 07 bd e9 9d 56 3d b6 da 0c 3d
       -0.028043378 -0.033115745 0.05239669 0.034388267
000090 27 96 08 3d 7e 7d 9b 3d e9 97 81 bd 06 a9 0a bc
       0.03334632 0.07592295 -0.06327803 -0.00846315
0000a0 cc a7 9c 3d 98 67 33 3c 13 5e ec bb 61 ce 64 3d
       0.07649192 0.010949992 -0.007213363 0.05586088
0000b0 9a 1f d9 3d ea ed 89 bd 3d 54 8b bd 1b 60 6f bd
       0.10601731 -0.06734832 -0.068031766 -0.058441263
0000c0 26 0b ea 3c 13 66 3b 3c d7 36 9b bd 41 ec 58 bd
       0.02856977 0.011437911 -0.07578819 -0.052959684
0000d0 c5 f2 63 bd 97 ca 31 bd 38 d0 74 bd 1e 50 b0 bd
       -0.055651445 -0.043406095 -0.059768885 -0.08609031
0000e0 5b 18 d8 3c 57 bf 8d 3d 7b 80 7a 3d 2d 89 ad bd
       0.026378801 0.06921261 0.061157685 -0.0847343
0000f0 30 95 cb 3a 39 35 97 bd 34 0f f1 3c 10 fe 4c 3d
       0.0015532132 -0.07383198 0.029426195 0.05004698

to_mean.2.weight f4 [18, 64]
000000 0e 41 df bc d7 2e 22 3c 26 a0 c4 3a f9 03 d8 bb
       -0.0272527 0.009898863 0.0015001341 -0.0065922705
000010 44 9c cb ba 0e 07 3e 3c 6b 5c d5 3c 42 13 b8 bb
       -0.0015534242 0.011598362 0.026045045 -0.00561753
000020 55 18 ba bb 3b 9e 24 3c 0e 0f 2a 3c b5 81 24 bb
       -0.00567917 0.010047491 0.010379566 -0.0025101725
000030 8c 99 67 bb 23 fb a7 3b 3b cc 23 3b db 65 04 ba
       -0.0035339324 0.0051263734 0.0024993557 -0.0005050578
000040 8c 83 a7 3a 02 d0 ce b9 01 90 c8 3b 8c 11 45 bb
       0.0012780293 -0.0003944636 0.006120682 -0.0030070273
000050 9c 88 69 bc c9 8d c7 3c 16 f9 b3 3c 1b f4 84 3b
       -0.014253762 0.0243596 0.02196936 0.00405742
000060 2f d6 e0 b9 26 78 c7 39 37 24 29 3b 72 5f 98 3a
       -0.0004288419 0.00038045755 0.002580894 0.0011625125
000070 f2 df 38 bb 87 de ba bc b3 8a 29 3b b2 67 41 3b
       -0.0028209654 -0.022811187 0.0025870025 0.002951127
000080 fd 87 92 3b d5 35 d8 3b f8 41 7b 3a 2b 03 2c bb
       0.0044717775 0.006598214 0.000958472 -0.0026247005
000090 ab 8c 49 3b ab cc a0 bb b9 b3 06 bb 5d a0 e3 ba
       0.003075401 -0.004907211 -0.00205539 -0.0017366518
0000a0 81 06 70 bb fd 15 d9 3c 83 c6 a3 3b 99 c1 f4 3a
       -0.003662497 0.026499743 0.0049980297 0.0018673419
0000b0 0b cc 6a ba e3 9e ea ba c1 22 31 bc 56 4a a0 3c
       -0.00089567964 -0.0017900135 -0.010811509 0.019566696
0000c0 cd 43 3b bb e9 bb 6a bc 43 53 3e 3c 0e 3c b1 3c
       -0.0028574348 -0.014327028 0.011616531 0.021635082
0000d0 1b e8 00 3b dd 66 56 ba 1d 3c 63 3c fa 15 92 bc
       0.0019669596 -0.000817878 0.013869313 -0.017832745
0000e0 b2 81 3f 3a b3 9a 11 ba b0 b6 0d bb 9a bc 08 bc
       0.0007305398 -0.0005554363 -0.0021623783 -0.008345747
0000f0 7d 53 c0 3b 63 18 a8 3a de ab 33 3b 32 80 9b 3b
       0.0058693276 0.0012824651 0.0027415673 0.0047455067
000100 0f a8 81 3d 6b 51 1e 3c 7f 25 63 3a 6b 00 d7 3a
       0.06330883 0.009662966 0.000866495 0.0016403323
000110 eb 7b 1b bc 64 69 41 3c 85 74 70 3b f8 88 2c 3c
       -0.009489994 0.011804912 0.0036690545 0.010530703
000120 8a cd d6 3c 7a 2e fa ba 28 11 9a 39 27 b7 5e ba
       0.026221056 -0.0019087337 0.0002938595 -0.000849592
000130 da ce d1 ba 14 12 da 3b 9b fd 12 bc 03 a9 89 3c
       -0.0016007081 0.006654987 -0.008971597 0.016804224
000140 9b 55 88 3b a8 33 ea 3b d2 4a 03 bb 17 e3 5e 3a
       0.0041605956 0.007147271 -0.002003361 0.0008502467
000150 0b 55 42 3d a7 d7 c1 3a b1 80 1e 3b 79 a1 19 bd
       0.047444385 0.0014789001 0.0024185593 -0.037507508
000160 bf df 15 bc ff 12 06 3b bb 75 15 3d ea a2 aa 3b
       -0.0091475835 0.00204581 0.03648923 0.005207409
000170 55 33 a2 bc a2 b9 1a bc e7 aa 98 bb 5b 3d 73 ba
       -0.019799868 -0.009443672 -0.004659045 -0.0009278857
000180 dd b0 94 bb d1 c0 1d ba d6 eb 0b bc ad 3a 5c bc
       -0.0045376853 -0.00060178066 -0.008540114 -0.013441724
000190 e6 14 b5 3b 66 2f bd 3b 38 cc bf bb 06 f0 8c bb
       0.005526173 0.0057734726 -0.005853202 -0.004301074
0001a0 36 e1 f9 3a 0a c4 e3 3c bf 0d 82 bb 83 99 7b 3a
       0.001906431 0.02780344 -0.003968924 0.0009597765
0001b0 38 3c 22 b9 5f ba 90 3b 84 ff f7 3b c6 2a 6c 3c
       -0.00015471957 0.0044167484 0.0075683016 0.014414495
0001c0 ed c9 9d 3b 2a 0c 7d 3c 9e b2 2c 3b b8 ca 2d 3c
       0.004815331 0.015444795 0.0026351581 0.010607414
0001d0 e6 67 7e bc 70 7b bb bb 0b 10 95 3c e9 93 7b bb
       -0.015527701 -0.005721502 0.018196126 -0.0038387722
0001e0 c9 b3 24 3c 04 2d 86 3b c7 ae 12 3a f7 ad 99 bb
       0.01005263 0.0040947217 0.0005595502 -0.0046899277
0001f0 cd 10 d8 3a 1f 99 41 bb 71 0e 2a 3c 1f f8 7d bb
       0.0016484499 -0.002954073 0.01037942 -0.0038752628
000200 53 a2 39 3b 00 1a 76 bc ff 89 28 3b 6f 18 19 bb
       0.0028325513 -0.015020847 0.0025717018 -0.002336051
000210 fa 34 d1 bb 9b 07 35 3c 62 46 53 3c 91 d2 41 bb
       -0.006384489 0.011049177 0.012895199 -0.002957497
000220 f3 60 81 bc b2 a1 61 ba 45 84 1c 3c a8 98 1b bb
       -0.0157933 -0.00086071633 0.00955302 -0.0023742113
000230 f3 99 78 3b 7e ea 48 3b 4a bc 13 ba 4a 60 e0 3c
       0.0037933558 0.0030657346 -0.0005635662 0.027389664
000240 fd 16 92 bc 23 a2 cd 3b 3a 7a 37 3b 33 a7 39 3a
       -0.017833227 0.0062754317 0.0027996437 0.00070821046
000250 ac 72 03 bd bd 62 d1 3c b2 4e 6c bc 8e 6c 1b bd
       -0.03209178 0.025559777 -0.014423059 -0.037945323
000260 51 d3 20 3c 5b 98 83 3b 6a 03 79 bb 30 a6 67 bb
       0.009816007 0.004015965 -0.003799642 -0.0035346858
000270 de 85 2e bd a9 a4 2b bc ef cf 27 39 36 26 ff 3a
       -0.042608134 -0.01047627 0.00016003822 0.0019466344
000280 71 87 36 bb 0c 26 a2 bc 1e 02 31 ba 47 ff 8d ba
       -0.0027851725 -0.019793533 -0.00067523296 -0.0010833525
000290 a6 4f 5f ba 62 01 86 bb 8d 04 1d 3b 69 fc 4b 3b
       -0.00085186434 -0.0040895203 0.0023959011 0.003112579
0002a0 21 43 68 bc 2b 4a bb 3c d8 44 48 3b fc 3e c3 ba
       -0.014176161 0.022862514 0.0030558612 -0.001489609
0002b0 dc ad f5 3b 32 a9 9f 3b 2d b5 f9 bb cb 3f 6a bc
       0.0074975323 0.0048724646 -0.007620475 -0.014297436
0002c0 60 16 f1 3a ff 6e 9b bc bc d9 a0 3a 9d e4 2c ba
       0.0018393509 -0.018973825 0.0012271921 -0.00065953453
0002d0 f6 f2 e5 bb d1 10 db 3b cf 0f 42 bd e0 a7 24 bb
       -0.0070174886 0.0066853543 -0.047378357 -0.0025124475
0002e0 37 ac 9c 3b ff 9b 26 ba 73 29 79 3a 36 b2 13 ba
       0.004781272 -0.00063556427 0.00095047726 -0.00056341605
0002f0 b2 12 e4 ba 7f 0e bc bb d3 d7 be 3b ed 1d e3 bb
       -0.0017400591 -0.0057390328 0.005824068 -0.0069310577
000300 1f e3 22 3b 48 35 62 bc b4 2e 9f 3b 48 bc 45 3c
       0.0024854613 -0.013806649 0.0048578624 0.0120688155
000310 8e 2c 29 3c 28 69 33 3d ca b1 fb 3a 12 4b 20 bb
       0.010325564 0.043801457 0.0019202766 -0.0024458808
000320 eb ac 68 3c 2c c7 d0 bb e7 39 75 bc 10 70 b3 37
       0.014201383 -0.0063713994 -0.014967418 2.1390646e-05
000330 fa eb 0a 3c 66 6f 17 3b a5 29 ad 3b ce 12 db 3b
       0.008479113 0.002310717 0.0052845054 0.0066855913
000340 26 67 84 bc a0 f3 88 b8 f4 9f ce bb 50 7a 9e ba
       -0.016162466 -6.530364e-05 -0.006305689 -0.0012090895
000350 e0 3d 10 bd d2 ce 29 bd 1b 2d 53 bb 3a 95 0b bc
       -0.03521526 -0.041457005 -0.003222293 -0.008519465
000360 30 d6 db 3a f3 91 89 b8 f7 ae 06 bc f4 50 bf 39
       0.0016772207 -6.559854e-05 -0.008220426 0.00036490674
000370 4a e3 9a bb 5d 0e d1 3b 24 80 ee 3b 51 f7 07 3b
       -0.004726802 0.006379886 0.007278459 0.0020746777
000380 db d3 1a 3b 1d 6f fc 3c 42 35 67 39 41 78 4f 3b
       0.002362481 0.030814702 0.00022049717 0.003165737
000390 4d cb 43 ba a2 52 88 bb 15 90 53 38 c1 f7 67 ba
       -0.0007468954 -0.004160241 5.0440507e-05 -0.0008848869
0003a0 a1 f3 5c bc c6 67 2d 3d 5b e6 ea ba e1 30 5d bb
       -0.01348582 0.042335294 -0.0017921434 -0.0033751058
0003b0 2f 91 23 3b 6b 4c 15 3b b6 1c 99 bb b1 5e 34 3d
       0.0024958362 0.0022781144 -0.004672612 0.044035617
0003c0 96 39 2b 3b 5b 5b b0 3c 85 bb 11 3c 68 d0 0e 3c
       0.0026126853 0.021527937 0.008894806 0.00871668
0003d0 fb bf 06 3b 0e f5 75 bb 99 73 1b bd b4 c1 82 3c
       0.0020561207 -0.0037530097 -0.03795204 0.015961505
0003e0 f0 5e 9b 39 e2 52 30 bb d6 87 d4 3b db 1d b2 ba
       0.00029634638 -0.002690487 0.0064859195 -0.001358922
0003f0 f5 d3 9d 3b 3b 65 f1 3a 09 44 ad bb 21 ca 2f bc
       0.004816527 0.001841701 -0.0052876514 -0.010729344

to_mean.2.bias f4 [18]
000000 55 2c 1c 3d 5c cd 85 3d 65 44 14 bd 75 a1 93 3d
       0.038128216 0.0653331 -0.03619804 0.0720853
000010 32 11 c9 3d ca 78 58 3d 85 5a 05 3d 37 e4 bd 3d
       0.09817733 0.05284957 0.03255703 0.09272044
000020 39 ba ed 3d 4f 53 a4 3d f9 3e 70 3d b5 88 81 3d
       0.11607785 0.08023702 0.058653805 0.06324903
000030 05 a8 2b bd d5 56 9d 3d c3 87 80 3a 35 6f 30 3b
       -0.041908283 0.076825775 0.0009806085 0.0026921753
000040 04 59 91 3d b6 f1 67 bd
       0.070970565 -0.056626998

to_value.0.weight f4 [64, 128]
000000 04 2c 24 be f7 37 ea 3e 23 14 11 bc c1 fc f9 bd
       -0.16032416 0.45745823 -0.008854899 -0.12206412
000010 1f 69 5c be 63 c2 d9 bd ec cf 8b 3d 81 aa 08 3e
       -0.21524476 -0.106327794 0.06826767 0.13346292
000020 6b e6 bb bc 3d df b8 3e 60 a0 74 be b3 11 ed 3e
       -0.02293702 0.36107817 -0.23889303 0.46302566
000030 0e b7 d7 3e d5 df 3a 3e 43 a9 85 3e 0f 35 4e 3e
       0.42131847 0.18249448 0.261057 0.20137428
000040 04 f3 52 3e 80 58 95 3e 1a 30 09 3e 3b 83 4f be
       0.20600516 0.29169083 0.13397256 -0.20264904
000050 3b f6 1d 3c c6 ac a4 be 4e 80 c5 bd e0 4d e7 bb
       0.009641225 -0.32163066 -0.09643613 -0.007058844
000060 94 60 ae 3c c0 2f c2 3d 52 e0 4b be 78 18 be 3d
       0.021286286 0.09481764 -0.1990979 0.09282011
000070 ed 03 90 3e b4 d1 3c be 68 30 36 3d 57 d6 8b bd
       0.28127995 -0.1843937 0.044479758 -0.068279915
000080 ed 68 e1 bc 73 34 4b be 50 0a b2 3b 0e c5 84 3d
       -0.027515853 -0.19844227 0.0054333583 0.06482898
000090 18 d4 8f 3e ea dd ae be 25 fd 80 be 09 a0 af 3e
       0.28091502 -0.34153682 -0.25193134 0.34301785
0000a0 10 da e0 3d 8b 8a 88 3d a6 d9 54 3e 5c 88 aa be
       0.10979092 0.0666705 0.20786151 -0.3330716
0000b0 d7 e5 e9 3e 1d 69 a6 bd 00 b8 ac 3d af f1 66 bb
       0.45683166 -0.081255175 0.08433533 -0.003523927
0000c0 73 f4 92 bd 30 54 bc be bd 95 67 3d 20 5f 95 3d
       -0.07175531 -0.3678298 0.056539286 0.07293534
0000d0 e5 10 3e 3e 00 99 b1 3e 17 0d 53 3e f4 63 f4 bd
       0.18561132 0.34687042 0.20610462 -0.11933127
0000e0 c5 9f be 3e 3d 3d 15 3e 7f 6f 96 bd d9 a1 50 3e
       0.3723127 0.14574142 -0.07345485 0.2037424
0000f0 92 4a 9f bc 24 d8 a1 be 6b fe 0d 3e 36 39 cd 3e
       -0.019444738 -0.31610215 0.13866584 0.4008271
000100 45 8f e7 bd be 75 44 3d ad f6 8f 3d bc 5e 7e 3e
       -0.11306623 0.04796385 0.070294715 0.24840826
000110 e2 5f 53 be 2d 39 de 3d 90 7f 3d 3e 7e 9b 93 be
       -0.20642045 0.10850749 0.18505692 -0.2882957
000120 10 ee 27 be 92 94 56 be ae a3 d4 3d 04 3b 51 3e
       -0.16399407 -0.20955113 0.10382782 0.20432669
000130 ff 72 cc 3d 0f 34 3d 3e 33 3b 6f be 63 33 4e 3c
       0.09982871 0.1847689 -0.23362426 0.012585494
000140 e4 df 7e be 7e 64 4d 3e 36 21 07 bc cd 1b b0 3d
       -0.24890095 0.20057866 -0.008247664 0.085990526
000150 18 e1 31 be 77 d3 87 bd 1e 57 88 be 87 73 6e bd
       -0.17371023 -0.066321306 -0.26628965 -0.058215644
000160 96 ed 4c be 5a 89 6d bd a3 3c e2 3e 41 ba 94 3e
       -0.20012507 -0.057992317 0.44186887 0.2904835
000170 88 fb 28 bc f4 8e 09 3e 82 40 ce be 5b ea 4d bd
       -0.010313876 0.13433439 -0.4028359 -0.050272327
000180 41 da de 3d 40 2d 02 be ba 42 b4 3e 41 13 13 3f
       0.108814724 -0.12712574 0.35207158 0.57451254
000190 4a 2b 80 be a5 09 6a be 42 7e 5e 3e 07 f1 8b 3e
       -0.25033027 -0.22855242 0.21727851 0.27332327
0001a0 65 4b 2d 3f fb 0f 21 3f 87 a8 c6 3d 4d 78 48 bc
       0.6769317 0.6291501 0.09700113 -0.012235713
0001b0 af 91 ed 3c 29 90 22 be 12 1a a9 3e 18 7c 1d be
       0.029000131 -0.15875305 0.33027703 -0.1537937
0001c0 dc 11 c9 bb f3 d8 6b bd 28 ec 42 3d cc 2a a2 bd
       -0.006136162 -0.057579946 0.047588497 -0.07918319
0001d0 ab b3 04 3f f6 b0 57 3e 49 5e 97 3e 4c 11 85 be
       0.5183665 0.21063599 0.2956412 -0.2598976
0001e0 38 32 d5 3e e3 49 2e 3f 56 f0 0b 3f 30 ca a1 3e
       0.41639876 0.6808149 0.546636 0.3159957
0001f0 30 30 11 3e 59 05 85 3f 59 24 e6 3e 8c ed 68 bd
       0.14178538 1.0392257 0.44949606 -0.056867167
000200 54 e8 8f be d4 ca 26 bd 7f ca e4 3e 09 d3 91 3d
       -0.2810694 -0.040720776 0.44685742 0.0712033
000210 31 c1 80 be b7 9d 10 3f 14 ae ee 3e 0a d4 9a 3f
       -0.25147393 0.56490654 0.46617186 1.2095959
000220 6b e3 01 bd f1 61 26 be 20 57 28 be 32 37 1d be
       -0.031711023 -0.16248299 -0.16439486 -0.15353087
000230 f0 97 49 be 2a 27 0f 3e c5 59 ee 3c 6e d9 07 be
       -0.19686866 0.13979784 0.02909554 -0.13266537
000240 d4 45 3b be 16 7b ee 3e cc 23 dd bd a1 7b 69 3e
       -0.18288356 0.46578282 -0.10797843 0.22801067
000250 cd 93 68 3f aa c9 f9 3e bb 85 27 be 6e f9 8b 3d
       0.90850526 0.4878667 -0.16359608 0.06834684
000260 22 56 bd 3e 52 03 38 bd da 78 d0 be 1a 39 c6 be
       0.36979777 -0.04492504 -0.40717202 -0.3871544
000270 fe 25 47 3d 89 37 8c bc 52 2f 9e 3f 28 97 d9 3d
       0.048620217 -0.017116325 1.2358191 0.10624534
000280 75 ed 7b 3f 96 f4 8b be 61 91 15 3e ec 92 3a 3f
       0.98409206 -0.27335042 0.14606239 0.72880435
000290 45 cd 6b 3f 8a 11 a9 be 86 80 fa 3e 3e e4 55 bd
       0.9211009 -0.33021194 0.4892618 -0.05221962
0002a0 9f c1 37 be 1e be e6 3e b1 60 eb 3d 5f ee 31 be
       -0.17944954 0.45066923 0.11493052 -0.17376088
0002b0 b1 4d ed 3e 96 df 0f 3d 8e d0 02 3e 7d ba 07 3f
       0.46348336 0.035125338 0.1277487 0.53018934
0002c0 ea bc 1d be d8 1e 42 bf 58 2b de 3b 3f 44 00 3f
       -0.15404096 -0.75828314 0.0067800693 0.50104135
0002d0 d7 80 2a 3c ef 09 91 3e 02 54 8c bd cc af 77 3c
       0.010406694 0.2832789 -0.06851961 0.015117597
0002e0 be 80 9c 3b 3d 5d 5f 3f 3b ed a4 be ca 57 51 bd
       0.0047760895 0.87251645 -0.32212242 -0.051109113
0002f0 1a c0 17 3f d2 e6 fb bc ba 2f 25 be 11 17 1f bd
       0.592775 -0.030749712 -0.16131487 -0.038840357
000300 66 e9 b1 be 86 f0 ba bd 58 01 62 3f b7 9d 1a be
       -0.3474838 -0.091279075 0.882833 -0.15099226
000310 c4 0e cf be 2f bd f0 bd 81 b2 3c 3e 2e 43 55 be
       -0.40440953 -0.11754834 0.18427469 -0.20826408
000320 66 0d 1d 3e 87 2b 9d 3e e5 22 7b bc 26 66 2d 3f
       0.15337142 0.3069727 -0.015328144 0.6773399
000330 93 65 19 be 94 f4 56 be a6 c2 a6 be 59 3f a1 3d
       -0.14980154 -0.20991737 -0.3257038 0.07873411
000340 64 e8 04 3e c5 6e f9 bc 39 62 74 3d e6 06 a5 3d
       0.12979275 -0.030448327 0.059663985 0.080579564
000350 62 26 37 3e 9b 1c 91 3f 95 14 01 3f 6c c4 1e 3f
       0.17885736 1.1336855 0.5042203 0.62018466
000360 41 f7 5e 3f 19 16 1b bd ca 49 63 3e 38 1e a5 3d
       0.8709603 -0.03786287 0.22196117 0.080624044
000370 34 ea a9 bd 72 cc 71 be 77 ad 73 be de e8 46 3f
       -0.08296624 -0.23613146 -0.2379664 0.7769908
000380 fb 8c 1b bd 20 47 1e 3a 39 68 4c 3f a9 03 a5 bd
       -0.037976246 0.000603782 0.7984653 -0.08057339
000390 2c 4c be be ca 4f 9d be 5b 5a b5 3e 76 3b b1 bd
       -0.3716749 -0.30724937 0.35420498 -0.086539194
0003a0 2a c1 f0 bd ff 4b c5 bd b3 98 ad 3d fb b9 d7 3d
       -0.11755593 -0.09633636 0.08476391 0.1053352
0003b0 ee 42 07 3f 97 c6 c1 3e 07 af b2 bd 81 fb 51 be
       0.528365 0.37846825 -0.0872479 -0.20506097
0003c0 19 18 de be 59 64 7d 3f 19 11 18 3e a4 ec a4 bb
       -0.4337776 0.98981243 0.14850272 -0.0050330926
0003d0 e1 36 87 bd 5d ce 3a be 1c 26 14 bd 6f f6 04 bf
       -0.06602264 -0.18242784 -0.036169156 -0.5193853
0003e0 50 2a a7 3e f0 3d e6 bd 5e 94 1e be d5 aa ce 3d
       0.3264947 -0.112422824 -0.15486285 0.100911774
0003f0 db 1e 4f 3f 37 fc be bc 22 ef 13 3f 20 0a 40 3f
       0.80906457 -0.023313625 0.5778676 0.7501545

to_value.0.bias f4 [64]
000000 6c a6 29 be 1c 7d 22 bc dd 6c 7a 3e ae 74 94 3e
       -0.16567391 -0.009917524 0.2445559 0.2899527
000010 04 9c d2 3e 14 31 45 be c7 33 5b be 51 fc c7 3e
       0.41134655 -0.19257003 -0.2140647 0.3905969
000020 6e 63 81 3e 0c c9 cf 3e 22 75 ef bd 4c 6a 3b be
       0.2527117 0.40583074 -0.11692263 -0.18302268
000030 5c f2 77 3e 24 c6 d0 3e ae 02 95 3e 91 45 87 3e
       0.24213547 0.4077617 0.29103607 0.26420262
000040 fa 2f ef bd 34 58 df bd ad fb d6 3e 6a d9 e9 bd
       -0.11679073 -0.10905495 0.41988888 -0.114184216
000050 9e 23 dd bd 06 1e 7e 3e bc 00 8d 3e 1e bc 6b be
       -0.10797809 0.2481614 0.27539623 -0.2302098
000060 af 78 c2 3e f0 09 25 be 9a 84 8d 3e 3b 3e 93 3e
       0.379827 -0.16117072 0.2764023 0.28758416
000070 ac 89 7a be dc dc 71 3e a6 85 b2 3e 74 c8 af 3e
       -0.2446658 0.23619407 0.3486759 0.3433262
000080 70 a4 7b 3e 00 a4 c2 3e 7c bc 60 be ad b6 10 be
       0.24574447 0.38015747 -0.21946901 -0.14132185
000090 0c c5 a0 3e 0c 75 c9 3d bd e2 f9 bd 48 81 9f 3e
       0.31400335 0.09836778 -0.1220145 0.3115332
0000a0 c2 be a0 3e 4a 56 d8 bd 32 cb b0 3e 95 26 2e be
       0.31395537 -0.10563333 0.34530026 -0.17006905
0000b0 21 c2 d3 3e 27 0a 46 be 6e d0 da 3c 7b f2 a8 3e
       0.41359046 -0.1933981 0.026710715 0.32997498
0000c0 63 de 8c 3e 39 e8 5f be db 49 88 3e 6f e7 1e bd
       0.27513418 -0.2186593 0.26618847 -0.03879493
0000d0 63 a9 5a be 9a ad 7b be 41 3d 82 be 9a cf c5 3e
       -0.21353678 -0.24577942 -0.25437358 0.3863495
0000e0 7e 8b c0 3e 61 f7 da bd 57 b4 de bd 36 60 17 be
       0.37606424 -0.10691715 -0.10874241 -0.14782795
0000f0 30 0a 3d be d7 de ba 3e aa 6c dc 3e e3 87 73 be
       -0.18460917 0.36498138 0.43051654 -0.23782305
