saves/save4_1_23/save8_Standing_NewLegRew12300.pth (torch, 914331 bytes, 11 tensors)

shared_net.0.weight f4 [512, 55]
-0.073575735 0.08965482 -0.1433306 -0.062173985 -0.096609965 0.064171694 0.0629462 0.06900654
-0.014997467 0.07360316 -0.10878272 -0.09588386 -0.16079593 -0.13648996 -0.01718926 -0.012733908
0.08878239 0.05751812 -0.1695812 -0.05815966 -0.032146342 0.21661133 -0.014167948 0.13744892
0.013313256 -0.039354317 0.17364168 -0.11957583 -0.040279023 0.0023331537 -0.008307123 0.12854901
-0.055674348 -0.009352459 -0.12354066 -0.06576031 -0.013743404 0.04967557 0.11265316 0.0015442815
0.06914964 -0.09227307 0.07527869 -0.17772031 -0.039426304 -0.042665455 0.16534212 0.06700779
-0.11309548 -0.05355424 0.032862265 0.050876893 -0.12020158 -0.022106439 0.080445044 -0.19880803
0.05499787 -0.118072 -0.08075011 -0.11233626 0.062319476 0.000393674 -0.07987291 0.00017603002
0.07407175 -0.09340751 -0.07515893 0.008395821 0.12855871 -0.022342961 -0.03547201 -0.12648125
-0.07012738 -0.2157812 0.08540009 -0.0401305 0.18314743 -0.2722885 -0.2765468 0.0009951207
-0.13898651 0.09793607 0.052900393 -0.11311331 0.087795146 -0.04990821 -0.00569432 0.0050091064
0.093349695 -0.025862938 0.07318317 0.16966206 0.05735963 0.09106424 -0.18378216 -0.03572307
0.014063141 0.03608958 -0.23326576 0.016262371 0.15412664 0.20359598 -0.18817785 -0.10220043
-0.17247228 0.016581379 -0.3654135 -0.59368896 0.076130815 0.014492691 -0.1150106 0.20167609
0.032125175 0.12832254 0.013468436 -0.065634586 -0.002136274 -0.016799452 -0.07165238 0.054874975
0.0123052085 -0.037922885 0.0076378724 0.023768634 -0.15367225 -0.15758559 -0.14453721 -0.08947463
-0.1512745 -0.04944516 0.023535708 0.19339867 -0.06314234 0.14018928 0.029010903 0.05133291
-0.01966987 -0.08105249 -0.012248362 0.08499406 0.15363938 0.21932103 0.17506206 -0.0042592157
-0.06384438 -0.09617411 0.16136461 -0.01221038 -0.053280983 -0.20354392 -0.1153201 -0.19103141
-0.0001751784 0.030446619 0.13023539 -0.102740265 0.15158659 -0.26296622 -0.06621144 -0.18638355
-0.16300607 -0.37583262 -0.22275268 -0.20028384 -0.0147726545 0.051579688 -0.15440738 0.05774431
-0.12679051 -0.057944775 0.08397211 -0.11794549 0.104578234 0.031298645 -0.10453914 0.09504742
-0.0073162084 -0.05672134 -0.0052789 0.11226852 -0.2619948 0.14761521 0.22968778 0.19388255
0.22920139 0.18058625 -0.08587528 0.24891697 0.10195725 -0.047652498 0.12640981 0.13471486
-0.118596345 0.071282685 -0.06603312 0.025122698 -0.036889628 0.042661726 -0.096106045 -0.038250577
0.026993893 0.08791514 -0.10042777 -0.08304381 -0.12441964 0.12821944 0.024527876 0.163418
0.14267202 0.025108762 -0.06746454 -0.0321084 0.07374215 -0.035322722 -0.05493162 -0.11153734
0.32598662 0.30524316 0.07601414 -0.17004919 0.07334385 0.18492173 -0.0033177915 0.045688067
-0.075785354 0.16800445 0.020103633 -0.021315789 -0.040831015 -0.036952198 0.05161773 0.16475904
0.036505908 0.091031484 0.22374292 -0.2510283 0.13299732 0.04731407 0.20679119 -0.038682304
0.11475071 -0.009896387 -0.13803771 0.18208577 -0.014719704 -0.20951639 0.17952779 -0.112349145
0.05329682 -0.008211602 -0.08773397 -0.01687327 0.024523463 -0.053478003 -0.11975906 -0.031607885
00000000: e0ae 96bd f29c b73d 42c5 12be 26aa 7ebd
00000010: 72db c5bd 736c 833d f0e9 803d 4d53 8d3d
00000020: f0b7 75bc 41bd 963d 7ac9 debd c25e c4bd
00000030: b0a7 24be 06c4 0bbe 7ed0 8cbc e2a1 50bc
00000040: 8bd3 b53d 1f98 6b3d b2a6 2dbe d338 6ebd
00000050: e2ab 03bd 5ccf 5d3e ae20 68bc 69bf 0c3e
00000060: d81f 5a3c fe31 21bd 20cf 313e 2ce4 f4bd
00000070: 9efb 24bd d3e7 183b 991a 08bc 5aa2 033e
00000080: c90a 64bd 0e3b 19bc e302 fdbd 57ad 86bd
00000090: 042c 61bc 9c78 4b3d b3b6 e63d 7d69 ca3a
000000a0: 549e 8d3d aaf9 bcbd b72b 9a3d 50fc 35be
000000b0: 7a7d 21bd f9c1 2ebd 724f 293e 613b 893d
000000c0: 9a9e e7bd b15b 5bbd 959a 063d 4a64 503d
000000d0: 3f2c f6bd 9018 b5bc 5fc0 a43d 5594 4bbe
000000e0: 7245 613d bccf f1bd 5060 a5bd 8e10 e6bd
000000f0: b542 7f3d 0866 ce39 6994 a3bd b394 3839
00000100: eeb2 973d 704c bfbd edec 99bd a08e 093c
00000110: e5a4 033e 9608 b7bc 194b 11bd 4d84 01be
00000120: f29e 8fbd bff5 5cbe 3ee6 ae3d e15f 24bd
00000130: 008b 3b3e 6669 8bbe 8b97 8dbe b66e 823a
00000140: 7b52 0ebe b592 c83d 15ae 583d f3a7 e7bd
00000150: f1cd b33d 8d6c 4cbd 6b97 babb 6e23 a43b
00000160: 202e bf3d 83de d3bc 0fe1 953d e4bb 2d3e
00000170: eef1 6a3d e37f ba3d 6431 3cbe 5b52 12bd
00000180: 1769 663c abd2 133d 38dd 6ebe aa38 853c
00000190: 60d3 1d3e 777b 503e b2b1 40be 764e d1bd
000001a0: 939c 30be acd5 873c 7a17 bbbe 00fc 17bf
000001b0: 79ea 9b3d c072 6d3c ad8a ebbd 2d84 4e3e
000001c0: b095 033d fc66 033e b7aa 5c3c 6d6b 86bd
000001d0: bb00 0cbb 019f 89bc 7cbe 92bd 95c4 603d
000001e0: c99b 493c 0755 1bbd 1e47 fa3b 70b6 c23c
000001f0: 425c 1dbe 1e5e 21be 9001 14be 7a3e b7bd
00000200: b4e7 1abe 0287 4abd f5cd c03c 4d0a 463e
00000210: c550 81bd c78d 0f3e 46a8 ed3c 7542 523d
00000220: b522 a1bc d9fe a5bd 5bad 48bc 5e11 ae3d
00000230: a453 1d3e b195 603e 7843 333e e490 8bbb
00000240: d8c0 82bd eff6 c4bd c43c 253e 0c0e 48bc
00000250: 293d 5abd d16d 50be f22c ecbd bd9d 43be
00000260: 18b0 37b9 306b f93c 6d5c 053e 7d69 d2bd
00000270: 8439 1b3e 82a3 86be dd99 87bd 54db 3ebe
00000280: 10eb 26be 226d c0be 4719 64be 3517 4dbe
00000290: 0109 72bc 3945 533d f81c 1ebe 4c85 6c3d
000002a0: 5fd5 01be 8057 6dbd 92f9 ab3d 688d f1bd
000002b0: 1d2d d63d 0233 003d 9e18 d6bd 39a8 c23d
000002c0: cebc efbb a354 68bd 9ffa acbb 0aed e53d
000002d0: 2f24 86be 7128 173e 4633 6b3e 2689 463e
000002e0: c5b3 6a3e 9aeb 383e 61df afbd 17e4 7e3e
000002f0: f6ce d03d 442f 43bd 9371 013e b1f2 093e
00000300: a4e2 f2bd a8fc 913d 5f3c 87bd 1ece cd3c
00000310: 9419 17bd 10be 2e3d 3fd3 c4bd a3ac 1cbd
00000320: 4c22 dd3c da0c b43d 13ad cdbd e012 aabd
00000330: b9cf febd f54b 033e afee c83c 0c57 273e
00000340: 9d18 123e e4b0 cd3c d92a 8abd 1984 03bd
00000350: 2006 973d 8fae 10bd faff 60bd b06d e4bd
00000360: b8e7 a63e d548 9c3e 4dad 9b3d 6021 2ebe
00000370: 4d35 963d 1f5c 3d3e 4e6f 59bb 6923 3b3d
00000380: 5a35 9bbd 5c09 2c3e 60b0 a43c 739e aebc
00000390: 6c3e 27bd 305b 17bd 1d6d 533d 98b6 283e
000003a0: 3887 153d b76e ba3d dd1c 653e c886 80be
000003b0: 7330 083e 66cc 413d 12c1 533e 5671 1ebd
000003c0: 6c02 eb3d 7524 22bc c259 0dbe b174 3a3e
000003d0: ea2a 71bc 778b 56be 22d6 373e 4f17 e6bd
000003e0: c44d 5a3d f589 06bc dead b3bd d039 8abc
000003f0: 6ee5 c83c c00b 5bbd 3d44 f5bd 4577 01bd

shared_net.0.bias f4 [512]
0.05145147 -0.020430319 -0.18203107 -0.029876499 0.14304607 -0.18154064 -0.109146506 0.0418372
0.12497189 -0.13614601 -0.024048608 -0.15911573 -0.12617779 -0.0046556857 0.07422063 -0.015439719
-0.09058696 -0.12943888 -0.09369068 -0.17771034 -0.16658325 0.15649176 -0.055222526 -0.09250296
-0.051750217 0.119177446 -0.13461924 -0.08082611 -0.0042126267 0.11882849 -0.04071712 -0.09529428
-0.022898477 0.07981438 0.025691116 -0.09692122 0.11213839 0.0628996 -0.07155532 0.04477603
-0.018096615 -0.068345495 -0.028995473 -0.008417509 -0.06434728 -0.16362 -0.15878099 0.0012641165
-0.021252325 -0.044817824 -0.109090395 -0.00011168961 0.031253632 -0.11700974 -0.09062611 -0.07698749
-0.0079584 -0.0029644803 0.122336365 0.14006221 0.051858246 0.07059442 -0.22099775 -0.069784544
0.015570577 -0.11548875 -0.06263381 -0.06654043 -0.009411749 0.04523762 -0.093934886 -0.20828879
-0.14342876 -0.09914166 -0.09663944 0.05700537 0.014347315 0.09636495 -0.105772905 -0.08706393
0.11827523 -0.18160476 -0.17624922 -0.12401248 -0.050285682 0.053672593 -0.017202709 -0.100165695
-0.0059017693 -0.11401402 -0.029819483 0.12238934 -0.1585149 -0.027423032 -0.19110814 -0.041256715
-0.049180362 -0.07566221 -0.057661515 0.046343636 0.08962154 -0.0033672205 0.04701129 -0.14086908
-0.06138974 -0.01774361 -0.06852441 -0.06481754 -0.08133965 -0.117771424 -0.017014679 -0.079575114
0.12314147 -0.02490064 -0.13643378 -0.0954775 -0.09428427 -0.12526739 -0.017862903 -0.06268036
0.048646517 -0.18750452 -0.06899554 -0.060748365 0.008139159 -0.14800619 -0.046589565 0.05969488
0.08896121 -0.049505603 0.07722556 -0.139667 -0.058403913 -0.10228553 -0.001242596 -0.13063544
-0.09334075 0.015138798 -0.123640925 0.035787255 -0.104417756 0.057209913 -0.030586846 -0.1467001
-0.04518917 -0.14821155 -0.11474078 -0.04588825 -0.002143289 0.04053159 -0.026568025 -0.17101605
0.030197904 -0.09162486 0.0724562 0.025174847 0.041046627 -0.15480897 -0.025181632 0.021397637
0.13379577 -0.086185835 -0.12976284 0.104401074 -0.0018357987 -0.08503387 -0.02381972 0.05521593
-0.09809143 -0.06312021 0.0010129267 0.02916957 -0.13720872 0.055777676 -0.06466786 0.111201346
-0.12377031 -0.096519575 0.16304016 0.013281435 -0.08520603 -0.10123631 0.12435112 -0.061155386
-0.13505921 0.065977454 0.07507743 -0.05244388 0.030804325 -0.19037506 -0.08041077 0.12808913
0.06589077 -0.04821681 -0.034585007 -0.051378652 0.027926695 0.14771648 -0.15640862 -0.17786168
0.05684653 0.018704424 0.032294173 -0.12287872 0.003555021 -0.005575252 -0.04591956 0.09196047
0.15192516 0.093938924 0.07609255 -0.16619387 -0.038389795 -0.14078343 -0.1287947 -0.07459129
-0.05013819 -0.1257418 -0.091442026 0.020750448 -0.06608745 -0.13852687 -0.22424977 0.0045683146
-0.08496375 -0.0022501429 -0.08919672 -0.11825755 -0.02005011 -0.0033802902 -0.08035482 0.04936748
0.026093133 -0.0360114 0.04023018 -0.10755648 -0.026433263 -0.09759564 0.117533006 -0.047796696
0.01362984 0.042947963 -0.008547204 -0.08528069 0.05155771 -0.12190386 -0.14031789 -0.18493944
-0.10549017 -0.0030483156 -0.02684939 -0.029292086 -0.22797059 -0.05422846 0.12588766 -0.0068305675
00000000: c7be 523d 7c5d a7bc 5a66 3abe 8fbf f4bc
00000010: ab7a 123e cae5 39be 3488 dfbd 7c5d 2b3d
00000020: 43f1 ff3d dc69 0bbe 9601 c5bc 3cef 22be
00000030: c034 01be b98e 98bb fc00 983d e0f6 7cbc
00000040: a885 b9bd a08b 04be e6e0 bfbd b3f9 35be
00000050: cd94 2abe 603f 203e 0431 62bd 3172 bdbd
00000060: 09f8 53bd 4e13 f43d a0d9 09be 2988 a5bd
00000070: 130a 8abb 5a5c f33d ffc6 26bd a629 c3bd
00000080: 9695 bbbc b975 a33d 2d76 d23c a27e c6bd
00000090: d0a8 e53d 81d1 803d 988b 92bd 1267 373d
000000a0: 5a3f 94bc b9f8 8bbd ea87 edbc 97e9 09bc
000000b0: 82c8 83bd 008c 27be 7c97 22be b6b0 a53a
000000c0: 5b19 aebc e592 37bd c96a dfbd e73a eab8
000000d0: cf03 003d cda2 efbd 2f9a b9bd 9eab 9dbd
000000e0: f363 02bc ba47 42bb 7d8b fa3d 786c 0f3e
000000f0: 5069 543d cf93 903d 3c4d 62be 33eb 8ebd
00000100: bc1b 7f3c 5e85 ecbd 2846 80bd 5946 88bd
00000110: bd33 1abc 154b 393d ef60 c0bd a849 55be
00000120: fdde 12be c80a cbbd e6ea c5bd 767e 693d
00000130: 0011 6b3c fd5a c53d 779f d8bd 934e b2bd
00000140: 493a f23d 99f6 39be ad7a 34be 41fa fdbd
00000150: 5cf8 4dbd cbd7 5b3d b2ec 8cbc ac23 cdbd
00000160: a163 c1bb 2f80 e9bd fd47 f4bc 43a7 fa3d
00000170: bb51 22be 44a6 e0bc dab1 43be cdfc 28bd
00000180: 5971 49bd caf4 9abd 7b2e 6cbd d3d2 3d3d
00000190: 7f8b b73d 96ac 5cbb e98e 403d fc3f 10be
000001a0: cf73 7bbd 0c5b 91bc 8756 8cbd 0fbf 84bd
000001b0: 6795 a6bd 2532 f1bd 5e62 8bbc 47f8 a2bd
000001c0: 9831 fc3d 6dfc cbbc 4cb5 0bbe b589 c3bd
000001d0: 1d18 c1bd 1846 00be 3955 92bc 905e 80bd
000001e0: 9241 473d 2f01 40be 894d 8dbd 47d3 78bd
000001f0: 1b5a 053c ef8e 17be b3d4 3ebd 9e82 743d
00000200: 4b31 b63d 63c6 4abd 6f28 9e3d de04 0fbe
00000210: f138 6fbd 137b d1bd 9ade a2ba 4cc5 05be
00000220: 6f29 bfbd b908 783c 7437 fdbd a895 123d
00000230: fad8 d5bd f154 6a3d 4491 fabc 8d38 16be
00000240: 4718 39bd c5c4 17be 37fd eabd 51f5 3bbd
00000250: 6c76 0cbb 7404 263d 30a5 d9bc d51e 2fbe
00000260: 9861 f73c d1a5 bbbd eb63 943d 7b3b ce3c
00000270: 8220 283d 3e86 1ebe b649 cebc 194a af3c
00000280: c201 093e 3382 b0bd 8de0 04be 3bd0 d53d
00000290: 2f9f f0ba 3d26 aebd 9321 c3bc 192a 623d
000002a0: 29e4 c8bd 2b45 81bd 2ec4 843a 06f5 ee3c
000002b0: 7180 0cbe 2277 643d 9570 84bd 88bd e33d
000002c0: 4a7b fdbd 0eac c5bd 00f4 263e 609a 593c
000002d0: 8080 aebd fc54 cfbd cdab fe3d 127e 7abd
000002e0: f64c 0abe 301f 873d 32c2 993d 65cf 56bd
000002f0: 5a59 fc3c aef1 42be 67ae a4bd cc29 033e
00000300: bdf1 863d fd7e 45bd 02a9 0dbd 6c72 52bd
00000310: 86c6 e43c fd42 173e 9529 20be 5f21 36be
00000320: e8d7 683d 053a 993c e546 043d d7a7 fbbd
00000330: 5bfb 683b 9bb0 b6bb 2616 3cbd c555 bc3d
00000340: 4592 1b3e 0d63 c03d 69d6 9b3d ba2e 2abe
00000350: 9e3e 1dbd 8829 10be c2e2 03be 51c3 98bd
00000360: b45d 4dbd 75c2 00be f545 bbbd d8fc a93c
00000370: db58 87bd fdd9 0dbe bba1 65be cdb1 953b
00000380: 7901 aebd 2277 13bb c5ac b6bd 0431 f2bd
00000390: 2140 a4bc dc87 5dbb 1191 a4bd 8e35 4a3d
000003a0: 44c1 d53c b180 13bd 67c8 243d 9246 dcbd
000003b0: 928a d8bc 39e0 c7bd 25b5 f03d 78c6 43bd
000003c0: b14f 5f3c 34ea 2f3d 9209 0cbc a4a7 aebd
000003d0: 2d2e 533d bba8 f9bd 7eaf 0fbe c460 3dbe
000003e0: 3b0b d8bd 40c6 47bb 40f3 dbbc f5f5 efbc
000003f0: 1f71 69be a91e 5ebd b2e8 003e f4d2 dfbb

shared_net.2.weight f4 [256, 512]
0.019912545 0.014634667 0.10776278 -0.036903076 -0.047281727 0.022813099 -0.021903051 0.01172178
-0.07552166 -0.0103934975 -0.03097503 -0.06139393 -0.01645721 0.016341215 0.049798608 0.048847176
0.05484512 0.059111893 0.004790026 -0.043052766 0.034216847 -0.011020496 -0.026929902 0.028859468
-0.032540716 0.0009464634 -0.06847085 -0.035603102 0.020738913 -0.004072303 0.014819102 0.040324416
0.017275693 0.0321088 0.067910835 0.034752216 -0.04570614 0.0007277779 -0.04513142 0.0048889127
0.074006744 -0.004746078 -0.028064474 0.006345463 -0.007166827 -0.004684294 0.012021632 -0.022853896
-0.0024523733 -0.06599464 -0.016845498 0.05719437 0.019672193 -0.08934024 -0.02425006 0.054947853
-0.008965148 -0.03548743 -0.04809215 -0.07853666 0.026496788 0.01089788 0.08016693 -0.044797212
-0.014892891 0.07087801 0.015431138 0.1392639 -0.07519521 -0.020241637 0.087856494 0.020843646
0.040436313 0.07218419 -0.0010586138 0.045376852 -0.06562246 -0.020139433 0.065903544 0.042713657
0.021935659 -0.040193215 0.019352874 0.03940913 0.05834196 0.011002539 0.011689286 0.08227202
0.08468987 -0.063044235 0.014507347 -0.017219486 0.060481638 0.039635297 0.080727 -0.018769553
-0.074799426 -0.06824601 0.023276687 -0.06799273 -0.0797659 0.008480001 0.029384993 0.04137496
-0.04019509 -0.02033115 -0.027932597 -0.016335707 -0.0091642905 0.057877876 0.021289963 -0.065838166
0.024391 -0.036457777 -0.067151986 0.06742371 0.062442925 -0.013651485 -0.034029793 -0.05580376
0.014745745 0.033554386 -0.01636622 0.056674752 -0.015314563 -0.047151264 0.029579235 -0.009888264
0.007338218 -0.020902855 -0.035637155 0.019774787 -0.015261335 -0.00022526285 0.003809661 0.050642975
0.04257252 0.014103113 -0.0011527633 0.0027482728 0.04897305 0.031363618 0.021486666 -0.0038234547
0.04936913 -0.010428752 0.035057772 -0.051891252 0.07533494 -0.061006367 -0.012142328 0.048779912
-0.0739648 -0.030451676 -0.0046124044 0.02503404 -0.01769009 0.06140758 0.048803736 -0.020382527
-0.03765315 -0.042423517 0.020047827 -0.03350777 0.0058204136 -0.009080785 0.053198658 0.038599696
0.11422366 -0.0002462326 -0.05845959 -0.09556712 -0.024290403 0.015593373 0.035829943 -0.07716444
0.0031341335 -0.031099586 -0.08238627 -0.00038954473 -0.029391313 0.08419695 0.014636797 -0.030948482
-0.020773754 -0.02545212 0.023644332 0.033215255 -0.0016857028 0.043539796 0.05063907 -0.06364561
-0.11962099 0.04700006 -0.009490556 0.02859807 -0.0066609457 -0.052224662 0.05587594 -0.043935664
-0.028997019 -0.089209795 -0.009577041 -0.017645512 -0.029384432 0.056041926 -0.028279347 0.032195587
0.040024478 0.003767494 -0.07342957 -0.004636032 0.017269922 -0.020747142 -0.055223476 0.09803328
0.033909123 0.0586725 -0.042342328 0.004497054 0.027354643 -0.019222101 0.056119032 0.07470791
-0.022868412 -0.003381453 0.051556505 -0.0028805286 0.0025210546 -0.074397616 0.0080954945 -0.023934094
0.02952723 -0.012432398 -0.040467955 0.053694338 -0.021044208 -0.052752316 -0.018392958 0.064579606
0.033511527 0.061355878 -0.05695947 0.04134479 -0.06132465 -0.020515708 0.056323454 0.021585265
0.003403862 -0.03478038 0.013118415 -0.006519135 0.09930899 -0.003932408 -0.03193812 -0.048621487
00000000: a21f a33c 3ec6 6f3c bbb2 dc3d ae27 17bd
00000010: 7caa 41bd 89e2 ba3c 076e b3bc b50c 403c
00000020: 1aab 9abd 7d49 2abc 59bf fdbc 3478 7bbd
00000030: 45d1 86bc 03de 853c a0f9 4b3d fa13 483d
00000040: 47a5 603d 501f 723d a7f5 9c3b 1958 30bd
00000050: f726 0c3d 4f8f 34bc 199c dcbc b16a ec3c
00000060: 6a49 05bd 151c 783a 723a 8cbd 8fd4 11bd
00000070: a7e4 a93c f470 85bb d2cb 723c 372b 253d
00000080: c185 8d3c 8484 033d d614 8b3d 5758 0e3d
00000090: 5d36 3bbd 59c8 3e3a b9db 38bd 2c33 a03b
000000a0: d990 973d fd84 9bbb 78e7 e5bc 9aed cf3b
000000b0: b4d7 eabb b57e 99bb 61f6 443c 1838 bbbc
000000c0: ffb7 20bb 3328 87bd 92ff 89bc a544 6a3d
000000d0: 9427 a13c 04f8 b6bd 10a8 c6bc 0011 613d
000000e0: 8ee2 12bc 445b 11bd 46fc 44bd d4d7 a0bd
000000f0: cb0f d93c 068d 323c 8f2e a43d 487d 37bd
00000100: 5001 74bc 7d28 913d e2d2 7c3c 329b 0e3e
00000110: f2ff 99bd cad1 a5bc 1bee b33d 4bc0 aa3c
00000120: 8ca0 253d 4ed5 933d 2fc1 8aba 14dd 393d
00000130: 1165 86bd 74fb a4bc 70f8 863d 84f4 2e3d
00000140: 69b2 b33c a4a1 24bd eb89 9e3c 786b 213d
00000150: fbf7 6e3d fe43 343c 6b84 3f3c 3c7e a83d
00000160: e271 ad3d 561d 81bd 39b0 6d3c e10f 8dbc
00000170: 98bb 773d 9f58 223d 3354 a53d 9bc2 99bc
00000180: 7130 99bd 90c4 8bbd c0ae be3c c63f 8bbd
00000190: 4e5c a3bd b4ef 0a3c ccb8 f03c ca78 293d
000001a0: 9ba3 24bd 838d a6bc e7d2 e4bc 76d2 85bc
000001b0: d225 16bc 5a11 6d3d 4a68 ae3c 29d6 86bd
000001c0: a2cf c73c c054 15bd fb86 89bd 7115 8a3d
000001d0: 27c4 7f3d 7aaa 5fbc d362 0bbd 7c92 64bd
000001e0: 2398 713c 5370 093d 7312 86bc c923 683d
000001f0: efe9 7abc af21 41bd 2750 f23c 6302 22bc
00000200: 6f75 f03b 773c abbc 44f8 11bd bcfe a13c
00000210: ae0a 7abc 8934 6cb9 81ab 793b 026f 4f3d
00000220: 8660 2e3d be10 673c 5118 97ba 5e1c 343b
00000230: f797 483d 2377 003d ce04 b03c ed92 7abb
00000240: 4937 4a3d 5bdd 2abc bd98 0f3d ec8b 54bd
00000250: 3449 9a3d d0e1 79bd 9df0 46bc 72cd 473d
00000260: db7a 97bd cb75 f9bc a723 97bb 3014 cd3c
00000270: cfea 90bc 8486 7b3d 6de6 473d 42f9 a6bc
00000280: 303a 1abd 48c4 2dbd 573b a43c 723f 09bd
00000290: 2bb9 be3b 93c7 14bc d6e6 593d b71a 1e3d
000002a0: 18ee e93d c818 81b9 5373 6fbd b2b8 c3bd
000002b0: abfc c6bc 597b 7f3c 6bc2 123d 6408 9ebd
000002c0: 0966 4d3b 8fc4 febc 22ba a8bd cf3b ccb9
000002d0: 0dc6 f0bc 736f ac3d 2dcf 6f3c ac87 fdbc
000002e0: b82d aabc f780 d0bc c2b1 c13c b80c 083d
000002f0: cdf2 dcba c956 323d ea6a 4f3d a158 82bd
00000300: d9fb f4bd 2383 403d 477e 1bbc 8046 ea3c
00000310: 1044 dabb 87e9 55bd 2bde 643d e2f5 33bd
00000320: 288b edbc a0b3 b6bd 05e9 1cbc 528d 90bc
00000330: 9fb7 f0bc 388c 653d 17aa e7bc 85df 033d
00000340: b5f0 233d 10e8 763b 3e62 96bd dbe9 97bb
00000350: a779 8d3c e9f5 a9bc 0332 62bd acc5 c83d
00000360: 4be4 0a3d 9352 703d 266f 2dbd 065c 933b
00000370: d816 e03c ab77 9dbc 12dd 653d 7600 993d
00000380: 8956 bbbc 5e9b 5dbb ea2c 533d 40c7 3cbb
00000390: 4738 253b c75d 98bd f7a2 043c 6f11 c4bc
000003a0: 17e3 f13c 42b1 4bbc bac1 25bd 98ee 5b3d
000003b0: e764 acbc d012 58bd d4ac 96bc 5042 843d
000003c0: 6243 093d 4d50 7b3d 554e 69bd 2859 293d
000003d0: 8e2f 7bbd 8f10 a8bc 6cb3 663d 95d3 b03c
000003e0: 5413 5f3b df75 0ebd 9fee 563c 789e d5bb
000003f0: 8362 cb3d 6edb 80bb 8cd1 02bd 5327 47bd

shared_net.2.bias f4 [256]
-0.06680389 -0.08199503 -0.048125926 0.006341894 -0.03946753 -0.040739965 -0.072810076 -0.068703316
-0.039357223 -0.011955256 -0.021722347 -0.07488183 -0.06584009 -0.11661082 -0.061735813 -0.006611786
0.02222347 -0.005115807 -0.051440164 -0.014265044 -0.018730193 -0.014298576 -0.1380287 -0.031272795
-0.009991822 0.020560687 -0.060182158 -0.050696112 -0.054416105 -0.059260726 -0.050343405 -0.054766636
-0.03286381 -0.08087225 -0.0111110555 -0.070068456 -0.101662874 -0.06892009 -0.030156696 -0.0131965615
-0.07567984 -0.090579174 -0.055527538 -0.08344632 -0.10670104 -0.07965788 -0.09159206 -0.0022945772
-0.02680993 -0.0526146 -0.050770912 -0.01084259 -0.11824313 0.03125978 -0.052152913 0.03097026
-0.011196053 -0.017651182 -0.042582646 -0.11687093 -0.04681694 -0.11397805 -0.06502717 -0.043162867
-0.06418463 -0.0060127047 0.013861167 -0.050347403 0.022183215 -0.06656433 -0.10369449 -0.06610855
-0.020425431 -0.044076055 -0.03688338 -0.04962106 -0.061719712 0.038152535 -0.057808094 -0.043099433
-0.05123703 -0.031209977 -0.10277628 0.052944295 -0.04358544 0.009585312 -0.010907785 -0.06056237
-0.019405339 -0.089454114 -0.024076404 -0.038076002 -0.0365986 -0.06479955 -0.06816824 -0.03375092
-0.09167847 -0.07880322 -0.029826717 -0.11582597 -0.08150239 -0.09244064 0.019580645 -0.04243259
-0.10192706 -0.039288037 -0.11856957 -0.07163793 0.016978506 -0.040771466 -0.068513885 -0.033985466
0.0049368762 -0.053447813 -0.051640343 -0.044193193 -0.0066980813 0.0036609618 -0.044864383 -0.120623
-0.02789907 -0.037793264 -0.054708607 -0.01653414 -0.0049660946 -0.024328297 -0.11286655 -0.044730563
-0.053574122 -0.08880537 -0.04747568 -0.03747394 -0.03672831 -0.057259273 0.02212795 -0.096996665
-0.061580967 -0.054585177 -0.04853006 -0.10328091 -0.08535234 -0.08557172 -0.08999579 -0.031720918
-0.034549974 -0.056030836 -0.032145802 -0.06300082 -0.075666696 -0.066113226 -0.0629275 -0.03264353
-0.0788512 -0.080545135 -0.024975454 -0.010396526 0.032730494 -0.06668827 -0.06553438 -0.045573134
-0.016541447 -0.11320691 -0.01650605 -0.047738556 -0.01993912 -0.028455371 -0.07017336 -0.016945738
-0.07289732 -0.0665337 -0.114724584 -0.060942218 -0.062465135 -0.08637562 0.024981244 0.004067266
-0.022258986 -0.039141957 -0.06008663 -0.03251286 -0.054734156 0.0039757686 -0.06963406 -0.104343854
-0.045847982 0.000532515 -0.050863422 -0.039387293 -0.016549397 -0.017380008 -0.04826658 -0.07365097
-0.07359403 -0.045610543 -0.028570289 -0.08699415 -0.014220875 -0.00031543657 -0.054545123 -0.036131404
-0.026766095 -0.029636094 0.0011068903 0.008045902 0.003967122 -0.039306246 -0.038615942 -0.108375244
-0.094321504 -0.04935534 -0.027369117 -0.061549157 -0.05164944 -0.04992573 -0.061771497 -0.0065919184
-0.06783109 0.014970296 -0.012261472 0.039580807 -0.04090282 0.0016902817 -0.06906305 0.01470758
0.017372178 -0.043759637 -0.09936629 -0.06879984 -0.060595706 -0.02549041 -0.08847782 -0.065165885
-0.005060843 0.0041934527 -0.03188877 -0.09305548 0.015817406 -0.016482864 -0.032313034 -0.05914059
0.008506144 -0.021267714 -0.024672436 -0.048350636 -0.032189056 -0.04414546 -0.03431611 -0.020392662
-0.038229425 -0.010698032 -0.017516756 -0.008576716 -0.011260682 -0.021460947 -0.07778926 -0.0076582003
00000000: 7ad0 88bd 03ed a7bd b11f 45bd aacf cf3b
00000010: b4a8 21bd f3de 26bd 731d 95bd 53b4 8cbd
00000020: 0a35 21bd fadf 43bc 10f3 b1bc a55b 99bd
00000030: 2bd7 86bd a7d1 eebd b1de 7cbd aea7 d8bb
00000040: ff0d b63c 80a2 a7bb ecb2 52bd eeb7 69bc
00000050: 1070 99bc 9344 6abc 6557 0dbe e717 00bd
00000060: bdb4 23bc e36e a83c 9181 76bd baa6 4fbd
00000070: 6ce3 5ebd 60bb 72bd e334 4ebd fb52 60bd
00000080: 349c 06bd 5aa0 a5bd 250b 36bc 0d80 8fbd
00000090: a034 d0bd fa25 8dbd 2d0b f7bc 6436 58bc
000000a0: 08fe 9abd 9381 b9bd d870 63bd e7e5 aabd
000000b0: 1386 dabd ac23 a3bd 9e94 bbbd 9e60 16bb
000000c0: 80a0 dbbc 6882 57bd 29f5 4fbd 1ea5 31bc
000000d0: 7429 f2bd 410a 003d 4b9e 55bd 58b5 fd3c
000000e0: a66f 37bc 3699 90bc 246b 2ebd 075a efbd
000000f0: 1fc3 3fbd 536d e9bd f72c 85bd 8ccb 30bd
00000100: 3b73 83bd 3906 c5bb f319 633c 1439 4ebd
00000110: 93b9 b53c e152 88bd c75d d4bd eb63 87bd
00000120: 3c53 a7bc 1889 34bd 0713 17bd 743f 4bbd
00000130: cfcd 7cbd d545 1c3d 2ec8 6cbd 0889 30bd
00000140: ecdd 51bd 11ac ffbc 5f7c d2bd 1edc 583d
00000150: a586 32bd b60b 1d3c 91b6 32bc 3f10 78bd
00000160: f2f7 9ebc b833 b7bd e13b c5bc 95f5 1bbd
00000170: 6ae8 15bd a0b5 84bd ca9b 8bbd 683e 0abd
00000180: ecc1 bbbd 9563 a1bd 2957 f4bc 2b36 edbd
00000190: baea a6bd 8551 bdbd 9767 a03c cccd 2dbd
000001a0: 22bf d0bd 7eec 20bd 9ad4 f2bd e8b6 92bd
000001b0: 8216 8b3c fbff 26bd 0251 8cbd 5834 0bbd
000001c0: 85c5 a13b 18ec 5abd d384 53bd ec03 35bd
000001d0: 947b dbbb bfec 6f3b b7c3 37bd 3109 f7bd
000001e0: 978c e4bc 1ccd 1abd 2216 60bd 9b72 87bc
000001f0: 9fba a2bb 234c c7bc 9426 e7bd 6537 37bd
00000200: 8a70 5bbd 97df b5bd dc75 42bd 467e 19bd
00000210: 6d70 16bd b388 6abd ad45 b53c 30a6 c6bd
00000220: 533c 7cbd b594 5fbd 75c7 46bd f184 d3bd
00000230: 35cd aebd 3a40 afbd b64f b8bd cbed 01bd
00000240: 4684 0dbd 9780 65bd 51ab 03bd 9306 81bd
00000250: 24f7 9abd 5f66 87bd 22e0 80bd 39b5 05bd
00000260: bd7c a1bd d9f4 a4bd 5399 ccbc 3156 2abc
00000270: 6910 063d dc93 88bd e436 86bd e5aa 3abd
00000280: ee81 87bc 06d9 e7bd b237 87bc 8189 43bd
00000290: 5e57 a3bc 3d1b e9bc 0db7 8fbd cad1 8abc
000002a0: 314b 95bd d242 88bd b9f4 eabd 8c9e 79bd
000002b0: 71db 7fbd b3e5 b0bd 77a5 cc3c b346 853b
000002c0: 7a58 b6bc 5153 20bd 661d 76bd 342c 05bd
000002d0: ec30 60bd 2a47 823b 4d9c 8ebd 3bb2 d5bd
000002e0: 18cb 3bbd 7a98 0b3a 2a56 50bd 9254 21bd
000002f0: 9a92 87bc 8560 8ebc 2db3 45bd 52d6 96bd
00000300: 78b8 96bd 1fd2 3abd 3d0c eabc fd29 b2bd
00000310: acfe 68bc 2e61 a5b9 b56a 5fbd 86fe 13bd
00000320: 9244 dbbc 65c7 f2bc 1315 913a f5d2 033c
00000330: a2fe 813b 96ff 20bd c02b 1ebd d7f3 ddbd
00000340: a22b c1bd d328 4abd 3335 e0bc f81a 7cbd
00000350: 5d8e 53bd ec7e 4cbd 1c04 7dbd 0501 d8bb
00000360: 07eb 8abd f945 753c 57e4 48bc 7c1f 223d
00000370: b789 27bd 718c dd3a ee70 8dbd 10f8 703c
00000380: 1950 8e3c 4e3d 33bd 8e80 cbbd eee6 8cbd
00000390: 3433 78bd 44d1 d0bc dc33 b5bd b175 85bd
000003a0: 6ed5 a5bb 3b69 893b cd9d 02bd df93 bebd
000003b0: 8193 813c 1207 87bc ac5a 04bd 673d 72bd
000003c0: 5b5d 0b3c a139 aebc d91d cabc 510b 46bd
000003d0: acd8 03bd dfd1 34bd 0d8f 0cbd 830e a7bc
000003e0: 7596 1cbd cc46 2fbc 4d7f 8fbc 5b85 0cbc
000003f0: b97e 38bc dece afbc fa4f 9fbd a4f1 fabb

to_mean.0.weight f4 [128, 256]
0.07024881 0.07175238 0.017628059 -0.031069804 0.017027263 -0.0027114393 -0.016049037 -0.024086678
0.05087944 -0.016781976 0.067183174 0.044161327 0.022003327 0.015235869 0.06022778 0.063998185
0.050007615 0.022460856 -0.01215631 0.07362887 0.0721703 -0.049053054 0.076650195 0.009714127
0.00052877155 0.0029811068 0.06455513 0.0015370812 0.07922516 0.029593451 0.034257837 0.07360567
0.016697485 0.022928948 0.08281104 0.06925459 0.044496167 0.023375116 -0.049528252 -0.047469165
0.07119619 0.08118031 0.055881668 0.10669841 0.094396666 0.008208845 0.021534262 0.060611688
0.026501298 0.03095526 0.087963514 0.050956544 0.030156787 0.018909499 0.0059595327 0.06267672
0.06332598 0.023309976 0.07902672 0.00636061 0.024689915 0.06657259 0.013850931 0.010814446
0.0823062 0.043671396 0.0759515 -0.006262144 -0.0105752535 0.001211709 0.088023335 0.020159822
0.05847217 0.038243786 -0.028556488 0.026139569 0.08628301 0.03692332 0.0030961933 0.09113637
-0.001191768 0.053274058 0.0476732 -0.004708626 0.057335198 -0.055620816 0.084368676 0.1001039
9.4538125e-05 0.055192925 0.04994187 0.0077090273 0.075767174 0.040182926 0.059625626 -0.011423579
0.06597953 -0.008559524 -0.020183716 -0.014736694 0.026448876 0.003223634 0.0065536946 0.08487098
-0.011099056 0.03510607 0.048671912 0.03605469 0.025799522 -0.020917933 0.07237765 0.022469405
0.032256737 0.023204565 -0.014108414 -0.02119366 -0.0072082384 0.055397086 0.055421855 0.046765678
0.082640864 0.082399465 0.06730692 0.02013987 -0.007949972 -0.014447522 0.055415902 0.050493766
-0.011360391 0.016487287 0.014550975 0.015220461 0.01099857 0.049544305 0.08426994 0.029128002
-0.019841757 -0.004850734 0.0018480298 0.06048565 0.049971834 -0.019141398 0.06388674 0.09497195
0.080326915 -0.00995374 -0.0018063083 0.048333358 0.07255322 0.012422409 0.0963398 0.09043294
0.08637561 0.037810456 -0.0016205276 -0.010572006 -0.04639716 0.085370705 0.042629294 0.07072822
0.012021037 0.019566167 0.07001599 0.008544979 0.00041679328 0.03304529 0.07475681 0.027352607
0.0061840983 -0.02279683 0.009011215 0.07043167 -0.014600773 0.00074364024 0.015055248 0.010811755
0.054847095 -0.00023573948 -0.004678623 -0.03029701 -0.008454631 -0.014273284 0.05151975 0.046791114
-0.00757674 0.008575325 0.07436407 0.078793995 0.0646249 -0.0076336204 0.06814526 0.044090007
-0.017196972 0.0064577623 0.07185718 0.08086343 0.034148715 0.06385419 0.056576062 -0.008497249
-0.015921703 0.045742854 -0.025144223 0.03675513 -0.05302851 -0.0637829 0.03717408 -0.0095481975
0.08674197 0.07005692 0.088211425 0.022614233 0.055292696 0.015689425 0.0067184954 0.08315035
0.079751 -0.004054729 0.038493223 0.021236766 0.025206735 -0.0040465826 -0.0008260155 0.01897394
-0.002372516 0.008079521 0.09506482 0.083933614 -0.055964846 0.057017937 0.048413627 0.09484646
-3.0433224e-05 0.040871896 0.021386623 0.059348624 0.065931804 -0.043451477 -0.0061459383 -0.017025277
0.05596083 0.023318814 0.001199901 0.010125069 0.021687333 -0.02213247 0.07597114 -0.019335285
-0.013307069 0.05307711 0.015094948 -0.028055834 0.058615156 0.013416412 0.006034992 0.012624283
00000000: 9cde 8f3d e9f2 923d b868 903c 1a86 febc
00000010: c27c 8b3c 67b2 31bb 4579 83bc 6d51 c5bc
00000020: f666 503d 5b7a 89bc 5597 893d 82e2 343d
00000030: 5240 b43c de9f 793c 68b1 763d 7b11 833d
00000040: c9d4 4c3d d4ff b73c 422b 47bc bcca 963d
00000050: 06ce 933d dbeb 48bd c7fa 9c3d 0028 1f3c
00000060: 429d 0a3a ac5e 433b 7b35 843d e377 c93a
00000070: cd40 a23d f76d f23c f251 0c3d 92be 963d
00000080: 2ac9 883c 7dd5 bb3c d698 a93d 5ad5 8d3d
00000090: 9d41 363d 2c7d bf3c 23de 4abd 076f 42bd
000000a0: 4fcf 913d dd41 a63d 2de4 643d b284 da3d
000000b0: 0a53 c13d 647e 063c 9f68 b03c f643 783d
000000c0: 4019 d93c e395 fd3c 3726 b43d cfb7 503d
000000d0: 5e0b f73c 18e8 9a3c 2f48 c33b a75c 803d
000000e0: 0db1 813d 90f4 be3c c3d8 a13d aa6c d03b
000000f0: 8142 ca3c 3657 883d 04ef 623c 132f 313c
00000100: 2790 a83d c7e0 323d 768c 9b3d ac32 cdbb
00000110: d443 2dbc 35d2 9e3a 9445 b43d 3626 a53c
00000120: 8480 6f3d 84a5 1c3d 4cef e9bc a622 d63c
00000130: 26b5 b03d e83c 173d 81e9 4a3b b5a5 ba3d
00000140: 1935 9cba e635 5a3d f944 433d d14a 9abb
00000150: 50d8 6a3d a7d2 63bd 7cc9 ac3d 4603 cd3d
00000160: c542 c638 fa11 623d d98f 4c3d 029c fc3b
00000170: d22b 9b3d da96 243d 003a 743d f729 3bbc
00000180: 4720 873d 3f3d 0cbc 5258 a5bc 2d72 71bc
00000190: 50ab d83c 9b43 533b 60c0 d63b d6d0 ad3d
000001a0: d1d8 35bc 62cb 0f3d 335c 473d 15ae 133d
000001b0: 8559 d33c 165c abbc bc3a 943d c211 b83c
000001c0: a41f 043d 8017 be3c fa26 67bc 549e adbc
000001d0: 1633 ecbb 0ee8 623d 0702 633d 5e8d 3f3d
000001e0: 9d3f a93d 0dc1 a83d 36d8 893d 5efc a43c
000001f0: 9940 02bc 4db5 6cbc c9fb 623d 8dd2 4e3d
00000200: ef20 3abc 5910 873c 3667 6e3c 3e5f 793c
00000210: 5933 343c f8ee 4a3d b895 ac3d d99d ee3c
00000220: 2e8b a2bc e8f2 9ebb 9739 f23a cdbf 773d
00000230: 44af 4c3d 6cce 9cbc 0dd7 823d a780 c23d
00000240: 7082 a43d 0315 23bc a6c1 ecba 33f9 453d
00000250: c896 943d 5c87 4b3c cd4d c53d e834 b93d
00000260: b2e5 b03d 23df 1a3d e267 d4ba 3536 2dbc
00000270: f30a 3ebd d6d6 ae3d 0e9c 2e3d f5d9 903d
00000280: e2f3 443c 3a49 a03c 8b64 8f3d 3d00 0c3c
00000290: 0c85 da39 7f5a 073d 191a 993d 9312 e03c
000002a0: faa3 ca3b 6bc0 babc c6a3 133c 7b3e 903d
000002b0: 1538 6fbc daf0 423a 49aa 763c ca23 313c
000002c0: 59a7 603d d630 77b9 224f 99bb 6f31 f8bc
000002d0: 4b85 0abc 7eda 69bc 6006 533d 0aa8 3f3d
000002e0: 4d46 f8bb 857f 0c3c 314c 983d bf5e a13d
000002f0: 0f5a 843d 7323 fabb be8f 8b3d b997 343d
00000300: aae0 8cbc a39b d33b db29 933d ba9b a53d
00000310: 86df 0b3d fcc5 823d 4dbc 673d 0c38 0bbc
00000320: 3b6e 82bc dc5c 3b3d 42fb cdbc 8c8c 163d
00000330: 6c34 59bd 9ca0 82bd d943 183d 0b70 1cbc
00000340: c6a5 b13d 017a 8f3d 31a8 b43d 7c41 b93c
00000350: 987a 623d 1c87 803c d326 dc3b bb4a aa3d
00000360: 7e54 a33d 88dd 84bb 12ab 1d3d baf8 ad3c
00000370: 5b7e ce3c 3299 84bb f688 58ba 3c6f 9b3c
00000380: 377c 1bbb f85f 043c 58b1 c23d 63e5 ab3d
00000390: 653b 65bd a48b 693d 5e4d 463d dc3e c23d
000003a0: da4a ffb7 4a69 273d 0033 af3c 8b17 733d
000003b0: 4107 873d 2dfa 31bd de63 c9bb 9878 8bbc
000003c0: 2f37 653d 1907 bf3c ff45 9d3a 9ee3 253c
000003d0: a2a9 b13c 274f b5bc c296 9b3d 0865 9ebc
000003e0: e505 5abc 6267 593d cd50 773c 59d5 e5bc
000003f0: 7216 703d 83d0 5b3c 2fc1 c53b 15d6 4e3c

to_mean.0.bias f4 [128]
-0.037071194 -6.4041496e-06 -0.01612987 -0.05783718 -0.008750294 -0.010587534 -0.07960029 -0.046027936
0.03865328 -0.019195208 -0.084159896 0.03566683 -0.0009578764 -0.039360438 -0.06854191 -0.031446956
-0.05289245 -0.036954485 0.025470708 -0.00059275166 -0.06615994 0.002957146 -0.035024844 -0.060895283
-0.0034504628 0.023255225 -0.020547315 -0.042160448 0.042600073 -0.039088905 0.005764531 0.054805353
0.061972033 -0.07584813 -0.040959906 0.05816592 0.002116992 -0.016496276 -0.023136677 0.021370312
0.03814984 0.032924317 0.029956546 0.011354674 0.010257548 -0.019743789 -0.017111959 -0.062486283
-0.024996135 0.027441815 0.04235712 0.070412025 -0.0056298366 -0.010245399 0.018070467 -0.09140594
0.00047021447 0.090080306 0.03119575 0.029872717 -0.017484186 -0.06347376 -0.04039084 -0.03340748
-0.060222957 -0.039330415 -0.041118257 0.046558022 -0.021410128 0.0004231694 0.049857546 -0.0038076236
-0.03813018 0.036552638 -0.014932379 0.06462531 0.026187744 -0.003131276 0.009102685 -0.014623865
0.020821702 -0.0122309765 0.0143106 -0.04764464 -0.035935123 0.019069053 -0.021877987 -0.08943681
-0.03459314 -0.03748588 0.062237732 -0.01716526 -0.07130461 0.034753293 -0.014032762 -0.008335858
0.020582419 -0.07699616 0.03183193 -0.010763214 0.0069594816 -0.05442575 -0.053381532 0.048123065
-0.015914734 0.030751873 -0.0057696495 -0.046972364 0.0035055066 -0.075136945 -0.036580354 0.00046020895
0.03783219 -0.085403174 0.02449847 0.06671185 0.021492457 -0.0067693763 -0.014957921 -0.06445916
-0.0027905086 -0.055270854 -0.00053577137 0.0793377 -0.07098054 0.046714228 0.042977203 -0.020110155
00000000: f7d7 17bd 3ae3 d6b6 ca22 84bc aee6 6cbd
00000010: 655d 0fbc 5677 2dbc 7a05 a3bd ca87 3cbd
00000020: e752 1e3d 453f 9dbc 065c acbd 6217 123d
00000030: ff19 7bba 6938 21bd b35f 8cbd 86ce 00bd
00000040: c1a5 58bd 965d 17bd f2a7 d03c e462 1bba
00000050: dd7e 87bd adcc 413b 3676 0fbd 556d 79bd
00000060: 2921 62bb be81 be3c d852 a8bc 6fb0 2cbd
00000070: 6a7d 2e3d b01b 20bd 64e4 bc3b 947b 603d
00000080: 63d6 7d3d 4456 9bbd 93c5 27bd 633f 6e3d
00000090: 3bbd 0a3b 3323 87bc 2189 bdbc cb10 af3c
000000a0: 0243 1c3d a6db 063d 6e67 f53c f408 3a3c
000000b0: 460f 283c babd a1bc 612e 8cbc 9ef1 7fbd
000000c0: b2c4 ccbc a8cd e03c a97e 2d3d 2e34 903d
000000d0: 7e7a b8bb 51dc 27bc 8408 943c 0a33 bbbd
000000e0: 1e87 f639 067c b83d 3b8e ff3c a1b7 f43c
000000f0: ff3a 8fbc 88fe 81bd de70 25bd 48d6 08bd
00000100: 59ac 76bd ee18 21bd 9e6b 28bd a0b3 3e3d
00000110: 4b64 afbc d6dc dd39 6d37 4c3d 5389 79bb
00000120: 642e 1cbd 38b8 153d f0a6 74bc 465a 843d
00000130: ae87 d63c 1836 4dbb 6e23 153c ef98 6fbc
00000140: 4692 aa3c 6f64 48bc 0277 6a3c 0727 43bd
00000150: b530 13bd b436 9c3c 7739 b3bc a52a b7bd
00000160: 89b1 0dbd cb8a 19bd feec 7e3d 299e 8cbc
00000170: 2708 92bd 7859 0e3d abe9 65bc 1f93 08bc
00000180: 769c a83c 2ab0 9dbd 3362 023d 3158 30bc
00000190: 5d0c e43b 89ed 5ebd 98a6 5abd b11c 453d
000001a0: 9e5f 82bc 5aeb fb3c 540f bdbb 1866 40bd
000001b0: a4bc 653b 66e1 99bd 48d5 15bd 3348 f139
000001c0: edf5 1a3d dce7 aebd 04b1 c83c 39a0 883d
000001d0: f310 b03c a5d1 ddbb 1112 75bc 2a03 84bd
000001e0: f7e0 36bb b163 62bd 0273 0cba ce7b a23d
000001f0: 3f5e 91bd 6b57 3f3d dd08 303d 0dbe a4bc

to_mean.2.weight f4 [12, 128]
-0.05520947 -0.08060895 0.061638076 0.04379477 0.04134062 -0.045878068 0.05900819 0.07837985
0.07608919 0.001424773 -0.009206795 0.044140935 -0.0019248386 -0.023867492 0.00096767803 0.016354134
0.03564532 -0.016378008 0.023880882 -0.042841062 0.05518742 0.054390594 0.045803145 0.07296274
-0.022717716 -0.058252998 0.022763986 0.023651632 0.040211234 0.04578505 0.03331097 -0.106020525
0.022353053 -0.051986016 -0.00320797 -0.04909021 -0.008264342 0.006964136 0.025355615 0.036838852
0.027648423 0.020232227 -0.037977666 -0.022944048 -0.053151444 -0.065919265 0.0030641735 0.012423108
-0.0034345868 -0.0110366335 0.039008703 -0.054875128 -0.027692674 0.025859099 0.056608118 -0.038519826
0.06710663 -0.08249345 0.01853563 -0.06313214 0.051752344 -0.021651775 -0.026530245 0.062528946
0.010015212 0.0475739 0.035218325 -0.045741756 0.05138393 0.00079799356 -0.02403748 -0.01913435
0.04680715 0.055713236 -0.04776467 -0.072046 0.09098613 -0.028223203 -0.040644526 0.027119586
-0.008621162 -0.045065627 -0.002574239 -0.053598247 -0.045030683 0.0075646034 0.062482286 0.011374856
-0.04016093 -0.025732515 -0.10479478 -0.024100127 0.051216986 0.042633213 0.08911067 -0.049473714
-0.032531172 0.039362937 0.04608021 -0.0019819813 -0.06507079 0.06980086 -0.022072164 0.023987805
-0.055291977 -0.06508969 0.055113148 0.056236327 -0.020086985 0.0048585767 -0.026590327 -0.0068495874
0.043113004 -0.03556891 0.0032535004 -0.04000195 -0.06265427 0.037373967 0.0038587386 0.023829952
-0.030139757 0.057867467 -0.00087574037 -0.01722869 0.0051344037 0.046740957 0.028343482 0.06751667
-0.059523173 -0.04207362 -0.033601582 -0.040113732 0.024824934 -0.050294332 -0.06976558 -0.0697042
-0.064789176 -0.05572143 0.0097206365 -0.015393174 0.003096531 -0.05598711 -0.006874084 0.061873615
0.0005729487 -0.03759489 -0.038859613 -0.011579241 -0.022518221 -0.10401593 -0.03365017 -0.083091654
-0.0406603 0.05702541 -0.021478165 -0.049702853 -0.0012317715 -0.06358987 0.012117653 0.070454724
0.0151279755 0.0015915147 -0.04545043 -0.011775049 -0.07025471 -0.037810218 -0.04046676 -0.037797187
-0.036592115 0.041074067 -0.09402329 0.060235795 0.058595162 0.045734473 -0.018277412 -0.04684045
0.0013236707 0.013168058 0.036943357 0.023369808 0.04382783 -0.024567153 -0.019097695 -0.018208066
-0.028046593 0.08524468 -0.073234156 0.06882159 -0.001334945 -0.03298415 0.04040871 0.006324427
0.023814112 -0.06504059 -0.012232458 0.03584299 -0.00876907 0.0133377 -0.048042107 0.044584725
-0.09148499 -0.07742463 0.06751566 0.006557999 0.031098463 0.03023287 -0.04257337 0.023003245
-0.07601722 -0.08892219 -0.025179975 0.010690177 -0.016915249 0.03936694 0.030999323 -0.07132817
0.012066407 -0.053395726 0.017518109 0.0032754845 -0.061397284 -0.0248579 -0.052148137 -0.013258464
-0.005789659 0.071722895 -0.004441362 0.023229439 0.03979365 -0.098717354 0.05285398 -0.024237208
0.028278941 -0.0591628 -0.018469147 -0.012857235 -0.05203427 0.014059912 -0.03265529 -0.09535201
-0.03373747 0.013412245 0.027710514 -0.00092061475 -0.04736984 0.019591168 -0.034228913 -0.06603316
-0.029297296 -0.007835146 -0.03757324 0.058415893 -0.07788744 -0.07256302 -0.03103119 -0.09823621
00000000: 5323 62bd 4e16 a5bd 3578 7c3d 2562 333d
00000010: c854 293d a4ea 3bbd 92b2 713d 9d85 a03d
00000020: a6d4 9b3d 73bf ba3a 19d8 16bc 20cd 343d
00000030: de4a fcba c285 c3bc c6ab 7d3a 1bf9 853c
00000040: d400 123d 2c2b 86bc d7a1 c33c 1c7a 2fbd
00000050: 340c 623d acc8 5e3d 149c 3b3d 7d6d 953d
00000060: 811a babc b29a 6ebd 8a7b ba3c 11c1 c13c
00000070: 89b4 243d 1b89 3b3d 1571 083d 4a21 d9bd
00000080: c01d b73c 4aef 54bd ce3c 52bb d112 49bd
00000090: 2a67 07bc 6833 e43b 94b6 cf3c 56e4 163d
000000a0: f27e e23c 0ebe a53c 788e 1bbd 28f5 bbbc
000000b0: 54b5 59bd ae00 87bd 4dd0 483b 4b8a 4b3c
000000c0: ce16 61bb ffd2 34bc 97c7 1f3d bec4 60bd
000000d0: bfdb e2bc 76d6 d33c eadd 673d f7c6 1dbd
000000e0: 336f 893d 53f2 a8bd 09d8 973c 6c4b 81bd
000000f0: 44fa 533d 105f b1bc f555 d9bc 2d0f 803d
00000100: d816 243c dadc 423d 1741 103d b55b 3bbd
00000110: f577 523d 7130 513a 40ea c4bc a4bf 9cbc
00000120: dbb8 3f3d 9033 643d e3a4 43bd da8c 93bd
00000130: f056 ba3d 5934 e7bc e07a 26bd e529 de3c
00000140: c63f 0dbc bc96 38bd 90b4 28bb d689 5bbd
00000150: 1872 38bd 7ee0 f73b 6ded 7f3d 9b5d 3a3c
00000160: ca7f 24bd ffcc d2bc a59e d6bd a16d c5bc
00000170: e7c8 513d 2aa0 2e3d a87f b63d f3a4 4abd
00000180: 683f 05bd 083b 213d 9abe 3c3d 21e4 01bb
00000190: d643 85bd c1f3 8e3d afd0 b4bc 1382 c43c
000001a0: d779 62bd be4d 85bd 53be 613d 1058 663d
000001b0: 768d a4bc b234 9f3b f5d3 d9bc 8172 e0bb
000001c0: 4397 303d b5b0 11bd ae38 553b 16d9 23bd
000001d0: e250 80bd 7215 193d e4e2 7c3b 0837 c33c
000001e0: a7e7 f6bc 7006 6d3d f191 65ba 2f23 8dbc
000001f0: 803e a83b 7273 3f3d 9730 e83c 2e46 8a3d
00000200: 92ce 73bd 6355 2cbd d0a1 09bd 4c4e 24bd
00000210: a95d cb3c 6e01 4ebd 42e1 8ebd 13c1 8ebd
00000220: 30b0 84bd 273c 64bd 4e43 1f3c a733 7cbc
00000230: 2bef 4a3b bd52 65bd ff3f e1bb 306f 7d3d
00000240: f031 163a 19fd 19bd 422b 1fbd dbb6 3dbc
00000250: 2278 b8bc 4e06 d5bd c3d4 09bd f52b aabd
00000260: 6a8b 26bd 7a93 693d faf2 afbc 3895 4bbd
00000270: 6573 a1ba 683b 82bd 1f89 463c 914a 903d
00000280: 54db 773c 5f9a d03a 3b2a 3abd 23ec 40bc
00000290: b4e1 8fbd e3de 1abd 79c0 25bd 39d1 1abd
000002a0: 9de1 15bd 483d 283d 488f c0bd cfb9 763d
000002b0: 7b01 703d 1254 3b3d 83ba 95bc c6db 3fbd
000002c0: 057f ad3a d7be 573c eb51 173d 0a72 bf3c
000002d0: d084 333d 0e41 c9bc c572 9cbc 1529 95bc
000002e0: f8c1 e5bc c394 ae3d cafb 95bd 55f2 8c3d
000002f0: 52f9 aeba 631a 07bd 9a83 253d 243d cf3b
00000300: d015 c33c 0034 85bd a66a 48bc 19d0 123d
00000310: 25ac 0fbc 5e86 5a3c cdc7 44bd 799e 363d
00000320: 7c5c bbbd ce90 9ebd a645 8a3d 7ce4 d63b
00000330: 34c2 fe3c ecaa f73c 6a61 2ebd 4d71 bc3c
00000340: ebae 9bbd d61c b6bd 3c46 cebc da25 2f3c
00000350: d991 8abc 3a3f 213d 4bf2 fd3c 8114 92bd
00000360: 2eb2 453c 7ab5 5abd 2382 8f3c 83a9 563b
00000370: b87b 7bbd cba2 cbbc 4999 55bd 073a 59bc
00000380: 2eb7 bdbb 74e3 923d d888 91bb aa4b be3c
00000390: abfe 223d 532c cabd 6a7d 583d 1c8d c6bc
000003a0: 3da9 e73c b154 72bd 9c4c 97bc 27a7 52bc
000003b0: e321 55bd 8c5b 663c 8ec1 05bd ea47 c3bd
000003c0: 4d30 0abd 08bf 5b3c 2901 e33c 6955 71ba
000003d0: e106 42bd a87d a03c 9e33 0cbd 653c 87bd
000003e0: e200 f0bc fc5e 00bc 66e6 19bd 8145 6f3d
000003f0: 7383 9fbd ec9b 94bd 1f35 febc 1130 c9bd

to_mean.2.bias f4 [12]
-0.051519066 0.03359935 0.021953987 0.067933 -0.08904791 -0.08414049 0.0014142581 -0.053836145
-0.06477235 -0.038197458 0.03788681 -0.031618368
00000000: a805 53bd 799f 093d d9d8 b33c 7520 8b3d
00000010: c05e b6bd d951 acbd a15e b93a 4a83 5cbd
00000020: 5ea7 84bd f074 1cbd 332f 1b3d 4382 01bd

to_value.0.weight f4 [128, 256]
-0.024347633 -0.0017304478 -0.017245606 0.0040767724 0.04871607 -0.08532374 -0.048341323 -0.06528934
-0.017465394 -0.050814193 0.045885887 -0.0813872 -0.020529987 -0.016449686 -0.0035656397 0.015099647
0.022056721 -0.04400658 0.06720795 -0.04325446 -0.044456046 0.03684931 -0.005315803 -0.026744004
-0.0016309367 -0.012531069 -0.056469798 -0.08613867 -0.04842355 0.07148141 0.020629013 -0.091980785
-0.0837082 -0.016392244 -0.06134302 0.07317054 -0.099231474 0.027760224 -0.062960945 0.06218963
-0.035664838 -0.07723037 -0.05302333 -0.04324572 -0.08786395 -0.02316388 -0.009205242 0.026992684
0.017578932 0.054698803 0.039442673 0.06497221 -0.040627163 -0.014316473 -0.048782095 0.009493828
-0.044341467 0.018611366 0.019607501 -0.019881027 -0.057689205 0.07090521 -0.081923455 -0.039384857
0.0037563753 -0.027715914 -0.01480515 0.018355515 -0.014722293 -0.07002438 -0.04136006 0.05171657
0.05439438 -0.023490416 -0.052401513 -0.06894119 0.0029220227 0.051553003 0.005542899 0.0054523977
0.023673423 0.0014808609 -0.06655527 0.048756607 0.050159506 0.079857275 -0.005121142 0.053852543
0.02751099 -0.06720675 -0.040266585 -0.046366856 0.0091310805 0.017946705 -0.0146622835 0.04731691
-0.004950548 -0.055174544 0.053288285 -0.024424827 0.035977256 0.0015857826 0.023011947 -0.07260157
-0.018945094 -0.04351993 -0.0143968705 -0.071166955 -0.0099006435 -0.03593956 -0.006654645 -0.06254316
0.060269006 -0.028651526 -0.06443837 -0.03855797 0.038986027 -0.042956814 -0.03564298 -0.094170935
-0.08952282 0.053865638 -0.018733865 -0.030061288 0.027622517 0.05480983 -0.085613035 -0.001243974
-0.00669208 -0.08298655 0.050621126 -0.012739138 -0.033382423 0.031093543 0.008690895 -0.0047050817
0.0009901981 -0.009869432 0.020280633 -0.08629238 -0.0007712051 -0.011529219 -0.049920566 -0.09330495
-0.094497085 0.028841259 -0.020444114 -0.022836415 0.025452686 -0.0006848481 0.02123393 -0.038983263
0.014314392 -0.02545376 -0.0486352 0.0011756173 0.0041895416 -0.019021513 -0.024130821 -0.018621681
0.008831506 -0.0925734 -0.032309353 0.008491532 0.032814287 0.009296184 -0.10851457 0.02472709
0.031647082 -0.03160715 -0.006032573 -0.081588075 -0.0017999752 -0.07891139 -0.017580964 0.04849957
0.0039649913 0.008543531 -0.059503835 -0.059453283 0.0017134562 0.010958332 -0.011984455 0.00091831
-0.09096224 -0.021881135 -0.04965027 0.039750103 -0.079854675 -0.034300357 -0.0064045466 -0.028287161
0.12441236 0.00798119 0.060619902 -0.04275324 0.010444962 0.009040492 -0.103977114 0.045987822
-0.043046772 -0.042433966 0.070531316 0.019504495 0.016265582 0.079427525 -0.10755517 0.008636619
0.05692914 -0.07335015 0.045099486 0.005756626 -0.13983159 -0.052188855 -0.022348734 0.037911024
0.07444762 -0.030211557 -0.052317645 0.025665017 -0.025331488 -0.010178912 0.011957638 -0.014693063
0.036328293 0.043184202 -0.09643611 -0.059912335 0.057090864 0.05094148 0.027313394 -0.0017843769
0.025630275 0.048903234 -0.046193354 0.0039792266 -0.026766485 -0.049391553 -0.0838814 -0.03589897
0.032939557 -0.019974614 0.086863495 0.053805124 -0.010587722 -0.0027182086 -0.035441775 0.023494143
0.08641513 0.03754728 0.052473757 0.040765997 -0.021986362 0.037437513 -0.025804423 0.065455206
00000000: b074 c7bc 31d0 e2ba a846 8dbc 7296 853b
00000010: 808a 473d 37be aebd 8d01 46bd 6bb6 85bd
00000020: 9613 8fbc 8b22 50bd d7f2 3b3d 55ae a6bd
00000030: 812e a8bc 7ec1 86bc 82ad 69bb 8364 773c
00000040: 4cb0 b43c 3e40 34bd 52a4 893d 972b 31bd
00000050: 8b17 36bd 4def 163d 3030 aebb 3e16 dbbc
00000060: 28c5 d5ba 1d4f 4dbc e04c 67bd 7969 b0bd
00000070: c657 46bd d864 923d 2dfe a83c 6c60 bcbd
00000080: 346f abbd 0749 86bc d242 7bbd 70da 953d
00000090: df39 cbbd 6969 e33c abf1 80bd 8eba 7e3d
000000a0: 4b15 12bd f52a 9ebd fe2e 59bd 6d22 31bd
000000b0: 04f2 b3bd 2dc2 bdbc 95d1 16bc c31f dd3c
000000c0: b101 903c da0b 603d a48e 213d 2610 853d
000000d0: ab68 26bd a48f 6abc bccf 47bd 008c 1b3c
000000e0: 669f 35bd dd76 983c e99f a03c 89dd a2bc
000000f0: 844b 6cbd c036 913d 7cc7 a7bd 0452 21bd
00000100: 852d 763b 7c0c e3bc 4d91 72bc 4e5e 963c
00000110: c635 71bc f168 8fbd 2b69 29bd c1d4 533d
00000120: a4cc 5e3d f96e c0bc f8a2 56bd 0a31 8dbd
00000130: 687f 3f3b 3e29 533d 35a1 b53b 07aa b23b
00000140: c4ee c13c 7219 c23a 214e 88bd 02b5 473d
00000150: 0e74 4d3d 368c a33d 41cf a7bb 7c94 5c3d
00000160: ba5e e13c b1a3 89bd 93ee 24bd 2ceb 3dbd
00000170: 879a 153c f804 933c 133a 70bc 60cf 413d
00000180: 3538 a2bb b4fe 61bd d144 5a3d 9316 c8bc
00000190: e35c 133d 09da cf3a 8d83 bc3c 22b0 94bd
000001a0: be32 9bbc f441 32bd dae0 6bbc fbbf 91bd
000001b0: 4f36 22bc 5c35 13bd 350f dabb a116 80bd
000001c0: a2dc 763d 9bb6 eabc 44f8 83bd f6ee 1dbd
000001d0: d0af 1f3d 7cf3 2fbd 60fe 11bd b1dc c0bd
000001e0: be57 b7bd 37a2 5c3d c377 99bc 1743 f6bc
000001f0: 9e48 e23c 4680 603d e355 afbd d70c a3ba
00000200: 3c49 dbbb daf4 a9bd 1958 4f3d d1b7 50bc
00000210: 02bc 08bd e3b7 fe3c 4164 0e3c 162d 9abb
00000220: 89c9 813a 66b3 21bc 9223 a63c 0fba b0bd
00000230: b32a 4aba 0de5 3cbc 8279 4cbd aa16 bfbd
00000240: b087 c1bd 8144 ec3c 6a7a a7bc 6f13 bbbc
00000250: 2782 d03c 6187 33ba c7f2 ad3c eaac 1fbd
00000260: e986 6a3c 6784 d0bc b435 47bd 2c17 9a3a
00000270: 6c48 893b 01d3 9bbc 00ae c5bc 7f8c 98bc
00000280: 05b2 103c 1f97 bdbd d056 04bd 1120 0b3c
00000290: 4668 063d 064f 183c e33c debd 7790 ca3c
000002a0: 5fa0 013d 8076 01bd e4ac c5bb a617 a7bd
000002b0: 25ed ebba 4b9c a1bd f405 90bc 7ca7 463d
000002c0: c2ec 813b 2bfa 0b3c 4bba 73bd 4985 73bd
000002d0: 0d96 e03a 938a 333c 735a 44bc beba 703a
000002e0: 694a babd 1140 b3bc 155e 4bbd 01d1 223d
000002f0: d98a a3bd 887e 0cbd 3bdd d1bb 7aba e7bc
00000300: e8cb fe3d 8ac3 023c 934c 783d 051e 2fbd
00000310: 5921 2b3c 921e 143c f4f1 d4bd ba5d 3c3d
00000320: d051 30bd 3dcf 2dbd b972 903d e4c7 9f3c
00000330: 663f 853c e6aa a23d e345 dcbd 9b80 0d3c
00000340: 882e 693d 9a38 96bd 3dba 383d 14a2 bc3b
00000350: 0330 0fbe fbc3 55bd b114 b7bc 9748 1b3d
00000360: fe77 983d 3a7e f7bc 074b 56bd 713f d23c
00000370: fb83 cfbc 74c5 26bc f8e9 433c 2cbb 70bc
00000380: facc 143d ebe1 303d 4c80 c5bd a366 75bd
00000390: 1cd8 693d 03a8 503d 57c0 df3c c1e1 e9ba
000003a0: 95f6 d13c c24e 483d 3e35 3dbd 2c64 823b
000003b0: 6345 dbbc cc4e 4abd 03ca abbd cc0a 13bd
000003c0: a1eb 063d cda1 a3bc 7de5 b13d c362 5c3d
000003d0: 2078 2dbc f923 32bb 652b 11bd ca76 c03c
000003e0: 6afa b03d 2dcb 193d b9ee 563d 3ffa 263d
000003f0: be1c b4bc 1458 193d cc63 d3bc 610d 863d
