saves/save4_1_23/save5_Standing_NewLegRew600.pth (torch, 947675 bytes, 11 tensors)

shared_net.0.weight f4 [512, 70]
000000 78 65 ac bc 81 4a b0 3d b3 8e a3 bd 90 f0 85 bd
       -0.021044478 0.086079605 -0.07986202 -0.06540024
000010 a8 0b 8a bd 68 eb 62 3d 00 19 f2 bb c3 db 97 3d
       -0.067405045 0.055400282 -0.007388234 0.07414963
000020 6f 03 85 bc c5 ff 55 3d 28 5e 6d bd a3 b4 39 bd
       -0.016236989 0.052245874 -0.057951123 -0.045338284
000030 74 37 b6 bd 1e fe c0 bd 5a ca 9f bd b9 74 a2 bc
       -0.088972956 -0.09423469 -0.078022674 -0.019831048
000040 d2 fa 03 3d 67 0a c2 3d 32 26 da bd 1f a9 0b bd
       0.032221623 0.0947464 -0.106518164 -0.034096833
000050 1c 0c 89 3d 53 18 f1 3d fe 78 19 bd a5 e4 73 3d
       0.06691763 0.117722176 -0.037468903 0.059544224
000060 0b 6a 89 3b 3c 2e 17 3d db aa 13 3e dc 12 ac bd
       0.0041935495 0.036909327 0.14420645 -0.08402035
000070 23 bb 44 bd 77 66 c8 bb bd 9d 1d bd 75 1a 97 3d
       -0.04803003 -0.0061157304 -0.03848051 0.07378093
000080 4e db 94 bd bc dd 20 bd d9 bc 74 bd 96 09 fd bd
       -0.072683915 -0.039273962 -0.05975041 -0.12355344
000090 06 b1 49 bd e4 b4 fc 3d 93 44 a1 3d 50 f6 a6 3d
       -0.04924109 0.1233919 0.078744076 0.08152449
0000a0 d9 1e b2 bc ea 74 1d bd 26 a4 ab 3c 1e ed c1 bd
       -0.021743225 -0.038441576 0.020952296 -0.09469055
0000b0 62 3f 8b bd 01 b9 35 bd 9e 82 87 3d de 57 bb 3d
       -0.06799199 -0.044365887 0.0661671 0.09147619
0000c0 6e f4 a5 bd 16 e9 cd bc f3 76 cf 3d e6 f3 0f 3e
       -0.08103262 -0.025135558 0.1013011 0.14057884
0000d0 9e 70 d9 3c 9d f1 1c 3d be 97 c9 3d 51 2f bf bd
       0.026542958 0.038316358 0.09843396 -0.09335197
0000e0 d4 ea 38 3d 65 70 f1 bd 64 2f 74 bd 22 15 97 bd
       0.045145825 -0.11789016 -0.059615508 -0.07377078
0000f0 e7 ba 9f 3d 2e c2 91 3d 42 6a 93 bd 67 82 59 3c
       0.07799321 0.07117115 -0.071980014 0.013275719
000100 7e 6f 22 3d 4c 6e 32 bd 3b 0f 6f 3c 20 3d a5 bb
       0.03965711 -0.04356222 0.014591034 -0.005042687
000110 98 98 4d 3d bf fb db 3d ce 29 b5 bd 90 44 7b bc
       0.050194353 0.10741376 -0.08845864 -0.015336171
000120 86 82 99 3d d1 bf c6 3d c9 d8 c8 3d c9 93 f2 3d
       0.074955985 0.09704555 0.098069735 0.11844594
000130 b7 9b 0a 3d 98 5d c9 bd 4b 40 12 3b 5e a1 a4 bd
       0.033839907 -0.09832305 0.0022316154 -0.08038591
000140 03 2e da bd 4e 56 e3 3d 83 6a ab 3d c2 a7 f0 bd
       -0.10653307 0.11100446 0.08369925 -0.11750747
000150 af f8 f5 3c 29 de 4c bc a5 ba 70 bc c0 1b 66 bd
       0.030025808 -0.012504139 -0.014692937 -0.05617881
000160 e7 3c 5e 3d 6f 01 a3 bd b1 4c 1b 3d 0b d6 64 3d
       0.0542573 -0.07959258 0.037914935 0.05586819
000170 0a d6 aa 3d 86 24 31 3d 59 84 f2 bd b8 93 ac bd
       0.08341606 0.043247722 -0.118416496 -0.084266126
000180 8c c9 41 3d 00 92 c3 3b f1 b0 c5 bd 38 7c 9f bd
       0.04731135 0.0059683323 -0.096528895 -0.07787365
000190 13 2d 05 3e 27 ca b3 3d fd a6 58 bd 3a e7 07 bd
       0.13005476 0.08778792 -0.052893627 -0.0331795
0001a0 51 ea d1 bd dd 89 09 3c 67 fd cc bd 03 47 cd bd
       -0.102497704 0.008394686 -0.1000927 -0.1002331
0001b0 16 72 34 bd d3 0a 88 3c ed 45 49 bd 5a c8 93 3d
       -0.044054113 0.016606724 -0.049138952 0.072159484
0001c0 66 8b 8c bd b7 9e f8 3d 03 12 9f 3d 1a 57 bf bd
       -0.06862526 0.121396475 0.07767107 -0.09342785
0001d0 5d a3 31 bd 64 66 fd 3b 7b 28 e8 3c 3f a1 06 3d
       -0.043368686 0.007733153 0.028339615 0.03286862
0001e0 41 3e 36 3d 47 09 dd 3c a7 8f 50 bd 04 52 46 3d
       0.044492964 0.026981963 -0.050918248 0.04841806
0001f0 e2 ee 01 be 5d eb e2 bd 92 4e 0e bd 0f 00 65 bd
       -0.12688783 -0.11080048 -0.0347429 -0.05590826
000200 58 c9 35 bd b8 2f bc bd b3 6c ee bc ca f2 9e 3c
       -0.04438147 -0.09188789 -0.029104566 0.01940288
000210 1b 5a 81 bd 78 0b 6f bb d7 74 ac 3d bf a9 05 3c
       -0.063160144 -0.0036475342 0.08420723 0.008158146
000220 5c aa fd 3b a9 04 cf 3a c9 86 35 3c bd 0c f6 3d
       0.0077412557 0.0015794236 0.011079499 0.120141484
000230 f6 a4 d6 3d 29 e5 95 3d 68 b3 d0 3d cb 27 4c bb
       0.104806826 0.073190995 0.10190469 -0.0031151648
000240 ac 66 b4 bd a6 b0 5f bd 0f 17 ce 3d cf 68 30 bc
       -0.088086456 -0.054611824 0.10062992 -0.010767176
000250 71 56 90 bd d3 1d a7 bd 67 57 f4 bd eb de dd bd
       -0.070477374 -0.081599854 -0.11930733 -0.10833534
000260 ad 88 77 bc 90 cf 63 3d 75 67 99 3d ef e6 f8 bd
       -0.01510827 0.05561787 0.07490436 -0.12153422
000270 d2 b5 92 3d 34 49 b0 bd 8d 22 e0 bc 4a 2e 38 bd
       0.07163586 -0.086077124 -0.027360225 -0.04496602
000280 9f 89 c2 bc 68 1c 97 bc 6b 82 f3 bd 2e 3d d1 bd
       -0.023747263 -0.018446162 -0.1189011 -0.10216747
000290 be 7c 11 bd 2e c2 cc 3b f4 c8 70 bd 18 3e 97 3c
       -0.035519354 0.006248734 -0.058785394 0.018462226
0002a0 d0 4b f6 bd 59 5f b0 bb 81 61 c4 3d da 2b 2c bd
       -0.12026179 -0.00538246 0.0958891 -0.042034008
0002b0 9b 61 b9 3d e9 e1 8b 3d 38 cd c5 bd 1d d7 98 3d
       0.0905182 0.06830198 -0.09658283 0.074629046
0002c0 08 39 8c bc d5 54 3d bd ac 5a be 3d ea 4d ea bd
       -0.017117038 -0.04622348 0.09294638 -0.11440642
0002d0 e8 ec ac 3c ee 63 92 bc f0 1a 82 3d 5a 8c 10 3d
       0.02110906 -0.017869916 0.06352794 0.0352901
0002e0 ad 03 7f 3d 97 e5 41 3d cd 2f 4d bd ad dd c8 bc
       0.062259365 0.047338095 -0.050094415 -0.024519766
0002f0 eb ed c2 bd 24 9f 65 3d ff 3f e1 3d fd 7d c1 3d
       -0.095180355 0.05605997 0.109985344 0.094478585
000300 c3 31 b8 bd fb e4 2e 3c f0 bf a4 bd 16 93 92 bd
       -0.08993866 0.01067471 -0.08044422 -0.07156961
000310 1e 95 92 bd 9e db 28 3d 52 53 84 bd 50 02 8d bc
       -0.07157348 0.04122507 -0.064612046 -0.017213017
000320 91 9d 3a 3c be d9 ad 3d 57 55 ce bd a2 a9 b3 bd
       0.011390106 0.08488797 -0.10074871 -0.08772589
000330 b1 2a 9c bd e4 cb bb 3d 53 00 bf bc e9 b7 e5 3d
       -0.0762533 0.091697484 -0.023315584 0.11216719
000340 d4 91 1c 3d 84 01 cf 3b 10 da 02 bc a8 98 40 bc
       0.03822501 0.0063173193 -0.00798656 -0.011755146
000350 c1 a4 8a 3c 22 a9 92 bc cd 6f 97 ba 96 0c e2 3c
       0.016924264 -0.017902914 -0.0011553705 0.027593892
000360 9f 5c d5 bd b8 53 94 bd 5d 76 cb 3d 1a a0 b2 bd
       -0.10418057 -0.072425306 0.099346854 -0.08721943
000370 09 7a 89 bc d2 5b e1 3d 34 ff 50 3d b9 a6 e1 3a
       -0.016781824 0.110038415 0.05102463 0.0017215825
000380 89 6c 01 be 61 4e 47 3d 32 28 b8 bd 80 a5 cd bc
       -0.12639059 0.048658732 -0.08992042 -0.02510333
000390 da 9f 51 bd 1b 5f 40 bc 78 7d 43 3c 37 53 cc 3d
       -0.051177837 -0.011741425 0.01193177 0.099768095
0003a0 2b d5 51 3c c7 e7 ce 3d f3 ca a9 3d bd 09 87 bd
       0.012807171 0.10102802 0.082906626 -0.06593654
0003b0 aa 04 8a 3d 21 3c 8c bd 46 61 27 bd 52 53 74 3d
       0.06739171 -0.06847406 -0.04086425 0.059649773
0003c0 f6 20 48 3d d5 bb 9a 3d db 65 10 bd d3 90 d1 bb
       0.04885956 0.07555357 -0.035253387 -0.006395438
0003d0 6b d2 9e 3d b0 85 fc bd d7 54 c9 3d 9e 14 c1 bd
       0.07754978 -0.12330186 0.09830635 -0.094277605
0003e0 ec cc 25 bd bf 6f 64 ba 40 1a 67 bd a7 b0 8b 3c
       -0.04047863 -0.0008714161 -0.05642152 0.017052008
0003f0 22 46 d7 3d bf 2c e1 bc 76 01 a3 bd 65 c7 1e bd
       0.10511424 -0.027487157 -0.07959263 -0.038764376

shared_net.0.bias f4 [512]
000000 6c f1 86 bd 4f dd fd bc 10 7c b6 bd 9d 83 e1 bd
       -0.06589016 -0.030989317 -0.08910382 -0.11011431
000010 a4 d4 df 3b fd 0f 94 bd e7 2a f4 bc e0 c2 8b bd
       0.0068307687 -0.07229612 -0.029805614 -0.06824279
000020 22 f5 e9 bd da aa 84 3d c1 6d 98 3c bf 58 11 bd
       -0.114237085 0.064779 0.018607022 -0.035485025
000030 c5 69 00 bd 1e 67 b8 3d 85 a6 e9 bd 84 09 20 bd
       -0.03135087 0.09004043 -0.11408714 -0.039071575
000040 bc 5a 42 bc ad 71 3e bc f9 87 b7 bd ff b8 49 bd
       -0.011862453 -0.011623782 -0.089614816 -0.04924869
000050 1d 00 c3 3d 0d 28 b4 bd 9e 57 ba bc eb af 9a 3d
       0.09521506 -0.087967016 -0.022746857 0.07553085
000060 1a 34 d4 bd c1 cb b6 3c bb c7 ff 3d 66 62 c4 bb
       -0.103615 0.022313954 0.124892674 -0.0059931753
000070 03 62 81 bd 8f 6b 2b bd 9b 49 7e 3d e1 8a b4 3d
       -0.063175224 -0.041850623 0.062081914 0.088155515
000080 1a b8 cd bc 49 37 a6 bd 1d 4c 9c 3d ee 1b 4d bd
       -0.0251122 -0.081160136 0.07631705 -0.050075464
000090 72 6f 99 bc b9 ba 71 3d 7e ba 72 bc 85 25 dd 3d
       -0.0187299 0.059015963 -0.014814971 0.10798172
0000a0 d1 bb d0 bd df c4 fc bd 10 31 92 3d 76 c1 ea 3d
       -0.10192073 -0.12342238 0.07138264 0.11462681
0000b0 f8 26 0f bd c4 cd 03 3d 40 28 05 bd db 53 a7 bc
       -0.034949273 0.032178655 -0.03250909 -0.020425728
0000c0 e7 bd be bd 9a fb 0f bc 96 0f 8e 3d dd d6 4e 3d
       -0.09313565 -0.008788014 0.069365665 0.05049788
0000d0 c6 dd b3 3d 4d eb a1 3d ec b0 ac 3d 1d 85 7b 3c
       0.08782534 0.07906208 0.08432183 0.015351561
0000e0 7c 48 37 bd 18 41 d8 bd 4a 1d c2 3d eb 63 ff bd
       -0.04474686 -0.10559291 0.09478243 -0.1247023
0000f0 17 21 b0 bd 85 57 88 3d ea f7 de 39 3a 42 17 b6
       -0.086000614 0.06657318 0.0004252785 -2.2539302e-06
000100 98 09 13 3d da be 96 3d 10 2e 28 3d fc bf 95 3c
       0.03589782 0.07360621 0.041059554 0.018280022
000110 59 00 2a 3d 88 90 9c bd a0 47 17 bd 6d 5b be 3d
       0.041504238 -0.07644755 -0.03693354 0.09294782
000120 81 1d 04 bd a0 6e 45 bd 6f 48 85 bc af 8a d4 3d
       -0.0322547 -0.048201203 -0.01626989 0.10378014
000130 e6 6e 0a 3d 56 db d4 3c 6a a8 6a bd 6e 6a c4 3c
       0.033797167 0.025983494 -0.05728952 0.02397653
000140 2e 34 96 3d fd 02 bb bc b3 48 60 bd 9f 9f c1 3d
       0.07334171 -0.022828573 -0.05475683 0.094542734
000150 28 17 86 3c a0 31 d0 bc 30 3f 9e bd 53 98 a2 bd
       0.016368464 -0.025414288 -0.07726896 -0.0793921
000160 2a 8b a9 3d d9 98 59 3d e4 d9 fb 3c 3e 6f c1 3d
       0.082784966 0.053124283 0.030743547 0.09445046
000170 76 23 5b 3c 82 2a c8 3d af f7 90 3d 14 f9 c6 3d
       0.013375154 0.09773733 0.07078492 0.09715477
000180 15 7c 70 bd c3 70 ab 3d b7 a1 9a 3d c8 14 07 bd
       -0.058712084 0.08371117 0.07550376 -0.032978803
000190 6a a6 b5 bc 17 65 ad 3d 4b 44 d9 bb a3 53 7b 3d
       -0.022174079 0.08466547 -0.0066304556 0.06135906
0001a0 cc b2 ba bd 40 df fa ba b6 25 75 bd 1e 79 d9 3d
       -0.09116134 -0.001914002 -0.059850417 0.106188044
0001b0 e8 0d 2e 3d 70 5f 8b bc be 4a 88 bd 46 28 4a 3d
       0.04249373 -0.017013282 -0.06654881 0.049354814
0001c0 9b 06 30 3d 00 75 97 bd 08 51 08 3d 39 2e c0 3d
       0.04297505 -0.07395363 0.033280402 0.09383816
0001d0 67 43 8f 3b be 1a 8d bd 55 38 67 3d ff 7f bc bc
       0.0043720487 -0.06889866 0.056450207 -0.023010252
0001e0 11 02 06 bd e8 8b 9c 3c 37 89 82 3d 5a 01 08 3d
       -0.032716814 0.019109681 0.06373828 0.033204414
0001f0 72 75 18 3d 34 54 6d bd 18 5f db bd 6e d9 92 bd
       0.03722138 -0.05794163 -0.10711497 -0.07170378
000200 65 a0 8c 3d c0 47 d5 3d 0e f9 ff bd 9a b2 31 bd
       0.0686653 0.10414076 -0.12498675 -0.04338322
000210 41 40 d2 bd 16 9a a0 bd 94 e1 e3 bd 39 b0 92 bd
       -0.10266162 -0.078418896 -0.1112701 -0.07162518
000220 55 d0 e5 bd 8e 38 f2 3d ec 77 06 be 2a c4 a4 3c
       -0.11221377 0.11827193 -0.13131684 0.02011307
000230 07 ae d5 3d 04 89 bd 3b be 34 10 ba 68 a9 e8 bd
       0.10433584 0.005784156 -0.0005501023 -0.11360437
000240 5a 3c 94 3d f7 53 cc 3d ad 2b 06 bd db a3 f3 3c
       0.07238074 0.099769525 -0.032756496 0.029741218
000250 73 8a 8a 3d 9f 3d 9e 3d 48 d3 82 3d e6 40 de 3d
       0.06764688 0.07726597 0.06387955 0.10852222
000260 43 3c 36 3d 99 f6 88 3d 65 e8 cf bd 65 27 a5 3d
       0.044491064 0.0668766 -0.101517476 0.080641545
000270 b0 1d 4e 3d 51 5b ba bd 22 85 70 b7 4e 19 14 3c
       0.05032128 -0.090994485 -1.4336112e-05 0.009039236
000280 54 68 ef bc 4a ab 0f bd b5 17 bf 3d f2 97 7e 3d
       -0.029224552 -0.035075463 0.09330694 0.062156625
000290 14 0e 20 bd e7 95 0e 3d a8 6d 2d 3d f4 4a c3 bd
       -0.039075926 0.034810927 0.042340904 -0.095357805
0002a0 2e 08 f5 bd 13 0b bc 3c 0d 1c 7a bd d9 b4 a9 3d
       -0.11964451 0.0229545 -0.061061908 0.08286447
0002b0 e6 8f 0f bd ea 2a 16 bd 9e ea 92 3d 7b ae bf 3d
       -0.03504934 -0.03666202 0.07173656 0.093594514
0002c0 d3 af 2c bd 74 dc 0e bb 0d 51 ab bd 45 b3 e0 bd
       -0.042159867 -0.002179888 -0.083650686 -0.10971693
0002d0 90 ac ee bd 3f 3e c8 bc 54 a3 3b bc 03 ab c2 3d
       -0.116540074 -0.024443744 -0.011452515 0.09505274
0002e0 b3 26 ad 3d 8f 8a 0a 3d 29 38 b7 3d 24 6f 96 bd
       0.08454647 0.033823546 0.089462586 -0.07345417
0002f0 ce 34 9c 3d 90 8b 99 3c 44 30 1e bd f0 82 95 bd
       0.07627259 0.018743306 -0.03862025 -0.07300365
000300 06 d5 ee 3d 04 ea 1d bd 86 70 53 3d ea c5 47 bd
       0.11661725 -0.038553253 0.051620983 -0.04877273
000310 5f e8 a0 3d 87 b2 d6 bd 21 e0 9c 3d 9f d7 c7 3a
       0.07856821 -0.1048327 0.07659937 0.0015246755
000320 4c ce 85 bd 1a 20 3a 3d 3c 93 3f 3d 6d d3 90 3d
       -0.06533489 0.04544077 0.046771273 0.07071576
000330 5d 4f 52 bb 49 a4 c3 3a 0b 80 32 bd a3 55 d4 3d
       -0.0032090761 0.001492628 -0.043579143 0.103678964
000340 aa aa d7 bd ef 24 97 bd a3 f9 da bd c4 48 7c 3d
       -0.105305985 -0.073800914 -0.10692146 0.061592832
000350 50 26 ba bd 3a a6 15 bd 2a b1 d5 3c e2 a5 d9 3d
       -0.09089339 -0.03653548 0.026085455 0.10627343
000360 53 26 8b bd 80 c8 75 3c 55 12 a1 bd bf 1a a8 bd
       -0.06794419 0.015001416 -0.07864825 -0.082082264
000370 be 09 58 bd 89 60 80 bd d3 53 f1 bb e5 e3 05 be
       -0.052743666 -0.062684126 -0.007364729 -0.13075216
000380 25 9b 85 3d cf 89 db bd c4 f4 57 bc d3 4c e4 3c
       0.06523732 -0.10719644 -0.013180915 0.027868664
000390 bb b3 d3 bd 5f 9b 51 3d c1 96 cc 3d b9 66 9a bd
       -0.10337015 0.051173564 0.099896915 -0.07539124
0003a0 61 e7 e2 3d 19 52 d4 bd a3 c3 d8 bb 5a 6e f3 bd
       0.11079288 -0.103672214 -0.0066151186 -0.11886282
0003b0 ab 72 2b bc 25 91 06 bd 0c e6 76 3d e3 83 12 3c
       -0.010464351 -0.032853264 0.060277984 0.008942577
0003c0 2d e6 f8 bc 3e 1e 3c bd 75 c3 4b 3d cb 8b f2 bc
       -0.030383194 -0.04592728 0.04974695 -0.029607674
0003d0 67 e7 f8 bd a3 10 62 3d 45 39 3a bc 05 8e a8 3c
       -0.121535115 0.055191647 -0.011366193 0.020575533
0003e0 54 48 8b bd 4c 59 c4 bb a8 0f 29 bd a1 cb 43 3c
       -0.06800905 -0.0059920903 -0.041274697 0.011950404
0003f0 7a 21 91 3d 64 2f c6 3d 39 17 04 3c d1 5e fa 3d
       0.07086463 0.09677008 0.008062177 0.12225116

shared_net.2.weight f4 [256, 512]
000000 07 0b 9f 3c ab e0 5e bc 70 d5 32 bd 3b 0c f2 bc
       0.019414438 -0.01360337 -0.04366058 -0.029546848
000010 8b 04 67 3d d8 e1 d5 bc 6b 94 63 3c 3a e0 45 bd
       0.056400817 -0.026108667 0.013890366 -0.048309542
000020 b1 7b ca bc 0c 6d ab 3c a1 9d 95 3c 72 b5 f2 3c
       -0.024717184 0.020926021 0.01826364 0.029627535
000030 5e d0 95 bc 75 ba c5 bc 21 18 44 bd 9d 4a 37 3c
       -0.018287834 -0.024136761 -0.047874574 0.011187223
000040 37 99 0a 3d a3 33 90 3c f4 0f a4 3c ab 57 5f 3d
       0.033837523 0.017602747 0.020027138 0.054526966
000050 6f 74 7d bc 2e 20 61 bc 59 c9 e9 3c d5 2c b5 3c
       -0.015469654 -0.013740582 0.028538393 0.022116104
000060 f0 72 cf bc 27 df f6 bc c0 36 1d 3d d0 8e 8f bb
       -0.025323361 -0.030135704 0.03838229 -0.0043810382
000070 9d 35 f3 bc 84 e5 3f 3d 09 06 b9 3c 70 44 f0 bc
       -0.02968865 0.046849743 0.022585886 -0.029329509
000080 25 78 17 bc f6 ce c9 bc 83 f4 c0 3c 7e 2a 39 bd
       -0.009244953 -0.02463482 0.023554092 -0.04520654
000090 8b dc 6f 3c c2 83 35 bd 28 83 56 3b 18 a0 23 3c
       0.014639984 -0.044315107 0.0032731984 0.0099869
0000a0 1e 29 12 bc fc a6 74 3c fb 48 02 bd 3d a6 ea bc
       -0.008920936 0.01493239 -0.03180788 -0.028643722
0000b0 a2 55 b6 3c 89 3d e1 bc 71 73 9f 3c c9 47 16 bd
       0.02225763 -0.027495163 0.019464226 -0.036689553
0000c0 ab bb cb 3c b6 95 e3 bb e5 89 bd 3c ee b1 2b bc
       0.02486976 -0.006945337 0.023137042 -0.010479433
0000d0 38 2c 1c 3d 50 ff df 3c df 80 c0 3c c1 2a 73 3c
       0.038128108 0.027343422 0.02349895 0.014841736
0000e0 c1 22 0c bd 19 73 a7 3c f3 1f f5 bc 15 a5 62 bb
       -0.03421283 0.020440625 -0.029922461 -0.003458326
0000f0 cb 37 8d bc 0e ff da 3c 05 5e f6 bc fa 73 7e 3b
       -0.017238518 0.026732948 -0.030074129 0.0038826452
000100 9b 71 25 3d 4e 81 55 3c 23 c3 ac 3c 55 65 d3 3b
       0.040391546 0.013031317 0.021089142 0.0064512887
000110 c0 e1 54 bd 79 00 74 bc f5 fc 75 3b 47 2c a2 bc
       -0.051973104 -0.014892691 0.0037534807 -0.019796504
000120 82 82 79 3b 08 f7 1a 3c cd a4 17 bc 8e 78 7c 3c
       0.0038072173 0.009458311 -0.0092556 0.015409602
000130 23 a4 56 bb ef e1 30 bd 71 91 fa 3c 61 8c 6b bc
       -0.0032751642 -0.043184217 0.03058693 -0.014376731
000140 43 9f 73 3c 52 b4 cf bb 0e f6 cb ba 62 90 0b 3c
       0.014869514 -0.0063386345 -0.0015561001 0.00851831
000150 6d 28 8e 3c 1f 17 5e bd 68 81 19 bd e1 8e 25 bd
       0.01735326 -0.05422127 -0.037476927 -0.040419463
000160 d6 13 e0 bc d3 51 2b bc 91 e7 ac 3b 57 a2 a4 3b
       -0.027353209 -0.01045652 0.0052766283 0.005024235
000170 c9 dd 25 3d 1e 1e 02 bc 98 f8 b2 bb d5 8c b7 3c
       0.040494714 -0.007941751 -0.0054617636 0.022406021
000180 f6 c2 06 3d 57 bd 21 bc d2 fc 1c bc 67 f7 04 3d
       0.032900773 -0.009871802 -0.009581761 0.032462504
000190 79 7d ea bc 76 00 74 bd fe 3c a8 bc 16 e8 b0 3c
       -0.028624283 -0.059570752 -0.020536896 0.021595042
0001a0 24 2f e3 3c 44 5d 78 3c 51 71 b8 bc 75 96 ae 3c
       0.02773244 0.015158955 -0.022514971 0.021311978
0001b0 47 2b 2f 3c ab d1 b4 bc 79 67 08 bc e0 ea 14 bd
       0.0106914705 -0.022072634 -0.008325451 -0.036356807
0001c0 72 f6 0e 3d ed 96 c0 3c c8 93 bb bc f6 4c 2c bb
       0.034902997 0.023509467 -0.022897616 -0.002629099
0001d0 bb 9c 63 3c f8 2a 94 bc db d4 d0 3b c9 23 17 3b
       0.013892348 -0.018086895 0.0063730306 0.00230621
0001e0 31 b6 5c 3b 35 17 20 3d 9f 83 d3 bc 24 1f ea 3c
       0.003367793 0.039084632 -0.025819598 0.028579302
0001f0 f7 c2 e2 bc b5 c5 8a bc b2 47 9d bc 21 b1 9f bc
       -0.027680857 -0.016939977 -0.019199226 -0.019493641
000200 a8 31 fa bb 0b 69 fa 3a 3b a0 9e bb 40 03 21 bd
       -0.007635314 0.0019104792 -0.0048408783 -0.03930974
000210 25 15 0a 3d 71 ce 00 bc 54 b8 c0 bc 6e bf db 3c
       0.03371157 -0.0078617195 -0.023525394 0.02682468
000220 f8 12 df bc 89 9c d5 3c 84 6b 72 bc 80 68 36 3d
       -0.027230725 0.026075618 -0.014796142 0.044533253
000230 e5 5f cd bc e5 bb b4 b9 fe 9e 42 bd 08 e1 41 3c
       -0.02507014 -0.00034472268 -0.047514908 0.011833437
000240 ec 97 eb bc 29 c8 ea 3c fe 8b 15 bd 0f 58 09 bd
       -0.028758965 0.028659897 -0.03651046 -0.033531245
000250 20 68 42 3c 71 49 a9 3c 27 b5 7a bc 2e fa f1 3c
       0.011865646 0.020664902 -0.015301979 0.02953824
000260 8c 66 fa 3c 7a 93 19 bd 93 70 30 bd 24 98 02 bd
       0.030566476 -0.03749416 -0.04307611 -0.031883374
000270 bd 9e 48 3d b0 83 73 3c c7 22 db 3c 7c e1 d1 bc
       0.04897951 0.01486294 0.026749982 -0.025620215
000280 53 c2 5a 3c 6b a3 1f bd 31 c7 08 3d f1 04 3a 3d
       0.013351995 -0.038974207 0.03339309 0.04541487
000290 53 fe 3a bd 50 7a 54 3b ca d1 b6 bc 23 a7 0b 3d
       -0.0456527 0.0032421537 -0.022316832 0.03409494
0002a0 09 3e 7e bc 6d de 35 bd 60 17 8a 3c ff ae e3 3c
       -0.01551772 -0.044401575 0.01685685 0.027793406
0002b0 ea 16 1e bd 1b 40 b1 3c 1a 09 46 3c 70 26 f9 bc
       -0.03859607 0.021637013 0.012087131 -0.030413836
0002c0 fe d9 e1 3c 6c d0 28 bd 2c e9 3b 3d d4 03 35 bc
       0.027569767 -0.04121439 0.045876667 -0.011048276
0002d0 15 a1 15 3d 1a 6a 06 bd 3b ff 6a bc cd 4e 10 3d
       0.036530573 -0.03281603 -0.014343078 0.0352314
0002e0 63 b9 02 3d ed 23 74 bc 26 24 e3 3c ce b4 f1 bc
       0.03191508 -0.0149011435 0.027727198 -0.02950516
0002f0 f2 d4 86 bc 3a 60 95 3c 93 ca b4 3c 73 ef e2 3c
       -0.016458962 0.018234361 0.022069251 0.027702069
000300 a6 bc 09 bd 84 74 22 3b 73 f1 5f bc 2e 31 03 bd
       -0.033627175 0.0024788687 -0.013668406 -0.032029323
000310 f3 ef 84 3c 8b e3 3e 3d 2f 0c 7a 3c 1f ed e6 bb
       0.016227698 0.04660372 0.015261694 -0.00704731
000320 a2 f0 fb ba 42 61 64 bd c7 9b e1 bc 6a 41 03 3d
       -0.0019221494 -0.055756815 -0.0275401 0.032044806
000330 b9 56 c3 ba ae b2 22 bd 6d ed e4 bc 45 51 93 bc
       -0.0014903165 -0.039721183 -0.027945245 -0.017983088
000340 3b 49 89 bc d5 4d fe bc d0 7e f1 3c 3a 18 73 bd
       -0.016758552 -0.031042973 0.029479414 -0.059349276
000350 0c 6f bd 3c 7c 80 0e bc bc 2d e5 bc 3b d0 69 3c
       0.02312424 -0.008697625 -0.02797591 0.014270837
000360 b8 94 e9 3c 68 13 27 bd c3 35 f5 bb 54 9f 5c bd
       0.028513297 -0.04078999 -0.0074832155 -0.053862885
000370 ab 02 14 3d 7d 39 dc 3b da 91 d2 bc e2 2d b8 3c
       0.036135357 0.0067207203 -0.025704313 0.022482816
000380 15 1c 81 3c 9b 20 91 3b bc 6a 29 bc 3f 9a e1 3c
       0.01576046 0.0044289357 -0.010340389 0.02753937
000390 a4 92 03 bd 08 93 4c bd 26 60 0a bc 3b 54 dc bc
       -0.03212227 -0.049944907 -0.008445775 -0.026895633
0003a0 83 5a 2c 3d ac 0c 27 bd c7 b5 fb bc ee 6e e7 bc
       0.042078506 -0.04078357 -0.030726327 -0.028251138
0003b0 2a 6f 26 3c da 90 95 3c 81 1b 69 bc 7b 2a c6 bc
       0.0101583395 0.018257547 -0.014227749 -0.024190178
0003c0 b8 3f 9f bc 1b 79 09 bd 25 c1 d7 bc 50 fe 03 bd
       -0.019439563 -0.03356276 -0.026337216 -0.032224953
0003d0 01 fd b5 bc 08 68 f9 3c cc 64 25 bd de b1 d1 bc
       -0.022215368 0.030445114 -0.04037933 -0.025597509
0003e0 d9 3d 42 bc aa 7c 7a 3c ee 30 f0 bb d2 56 96 bc
       -0.011855566 0.015288511 -0.0073300516 -0.018351946
0003f0 21 79 9d 3c 9f 38 71 bb 9c 2f 05 bc f1 1f 53 bc
       0.019222798 -0.003680743 -0.008129027 -0.012886033

shared_net.2.bias f4 [256]
000000 4a b9 3f bd 06 29 86 3b bb 3f c7 bc 88 27 97 3c
       -0.046807565 0.004094246 -0.024322381 0.018451467
000010 c1 f3 a3 3b a1 7c 2d 3b ef 80 96 bb 21 60 0d 3d
       0.005003423 0.002647199 -0.004593007 0.034515504
000020 1c 76 e5 3a ce b4 09 3c c8 fe 49 3c bf d1 24 bc
       0.0017506513 0.008404924 0.012328811 -0.010059773
000030 0b 50 db 3c 20 65 5f bd 5f f6 33 bd 38 29 d4 3c
       0.026771566 -0.0545398 -0.04393613 0.02589856
000040 68 65 58 bd f2 7c 4d 3c 4e 75 c3 bc ee 81 cf bc
       -0.052831084 0.012541996 -0.023859646 -0.02533051
000050 13 95 59 bc 16 d6 25 bd fa 99 39 bd 48 3a 1e bd
       -0.013280171 -0.04048737 -0.04531286 -0.0386298
000060 24 00 03 bd 82 d6 0b bd c7 33 f0 bc c5 a2 19 bd
       -0.031982556 -0.034140117 -0.029321564 -0.037508745
000070 16 a5 ff bb 56 00 d4 bc 9e fb 22 bc a1 9c 1e 3c
       -0.007801662 -0.025879066 -0.0099476855 0.009680898
000080 80 db 27 bd 8e dc ba 3c 7a 33 3a bc 13 a6 66 3c
       -0.040980816 0.022810247 -0.011364812 0.014077681
000090 12 80 0a bc fb b8 d2 bc b1 1d 9d 3c f0 fc c1 bb
       -0.008453386 -0.025722971 0.019179197 -0.005920045
0000a0 59 99 07 3d 8e bb 4f bc 4c cc 9e 3c a5 29 5e bd
       0.033105228 -0.012678994 0.019384526 -0.054238934
0000b0 c0 b8 2f bc 83 1b 32 bd 6b 35 d8 3c 55 64 47 3c
       -0.0107252 -0.04348327 0.02639266 0.012169917
0000c0 77 df 3d bc 53 bf ff bb 7b e6 3e bd ec fd 48 bc
       -0.011588923 -0.00780479 -0.046606522 -0.012267571
0000d0 b3 5f ae bc 53 26 12 bd b7 9b 63 3c 8b 61 69 bb
       -0.021285867 -0.03568108 0.013892106 -0.0035611119
0000e0 1f 34 d2 bc 8d 59 34 3c 1a eb 30 bd 44 85 88 3b
       -0.025659619 0.011007679 -0.04319296 0.004166277
0000f0 e5 5e 95 bc a9 b1 27 bc d0 b9 6b bb 2e a2 96 3c
       -0.018233726 -0.010235229 -0.0035968907 0.01838788
000100 d8 72 24 bc 19 26 07 3d b3 f4 e8 3c ac 5d ad 3c
       -0.0100371465 0.032995317 0.028436994 0.02116283
000110 b4 e3 fd 3b ea 9b c3 bc 43 07 2a 3c 2a 35 0a bd
       0.0077480916 -0.023878057 0.010377708 -0.033742107
000120 6d da 65 3c 44 9a eb 3b 3c 63 b7 bc 13 ec 1f bd
       0.014029128 0.0071900208 -0.022386186 -0.039043497
000130 a1 f3 38 bd b4 35 02 bc f9 e0 96 3b bb e5 09 bd
       -0.045154218 -0.007947374 0.0046044555 -0.033666354
000140 c6 ec a7 3b 0e 94 86 3c 8d 10 ca 3b b3 35 2e 3d
       0.005124661 0.01642802 0.006166524 0.04253168
000150 bc 34 1d 3c 03 a9 44 3c 65 a9 1c 3c e3 6b 27 bc
       0.009595092 0.012003186 0.009561871 -0.010218593
000160 d7 ae 16 bc 11 4f 55 b9 34 46 12 bc 6e 97 b0 3b
       -0.0091969585 -0.00020342717 -0.008927871 0.0053891456
000170 fc 31 17 bd bb 98 c7 bb ae 06 e4 bc 07 70 1d bd
       -0.036912903 -0.006091205 -0.027835216 -0.038436916
000180 d7 85 53 3c 64 fc 07 3d 2a ba d5 bb 1f 9d 06 3d
       0.012910328 0.033199683 -0.0065224366 0.032864686
000190 a2 69 a5 bc 80 bb 86 bc bb 1c 20 bd ca 98 f9 bc
       -0.020191971 -0.016446829 -0.0390899 -0.030468363
0001a0 60 ae 3d bc e8 f3 52 bd 72 0b 05 3d 67 4c 6e bc
       -0.011577219 -0.05150214 0.03248162 -0.014544583
0001b0 6c b1 92 3a f5 65 53 bc f9 cc 3f 3c 90 90 80 bb
       0.0011191792 -0.012902726 0.011706584 -0.003923483
0001c0 40 3b 23 bd cd 61 d9 bc a6 bb c0 bc e7 8c cc bc
       -0.039851427 -0.026535893 -0.023526978 -0.024969531
0001d0 65 07 71 3b a0 12 16 3d 0b 9a 56 bd 4d dd 5c 3c
       0.003677809 0.036638856 -0.052393 0.013480497
0001e0 1b cc 3b bd 81 e2 88 3c c4 b5 01 bd 4f 5f 83 bc
       -0.045848947 0.016709568 -0.031667486 -0.016036658
0001f0 a3 db 04 bd 75 73 5b bc ac 02 87 3c 39 fc 0c bd
       -0.032436024 -0.013394226 0.016480766 -0.034420226
000200 f9 61 61 3c 6a bc 1a 3d 24 3a cf bc 88 d5 b2 3c
       0.013756269 0.037777342 -0.025296278 0.021830335
000210 70 ed fa 3c 8d 8d 37 3c da 99 d7 bc 78 d6 2b bd
       0.030630797 0.011203182 -0.02631848 -0.04195258
000220 f7 67 ad 3c dc c9 c5 bb 08 6c a3 3c c7 12 4b bd
       0.021167738 -0.0060360264 0.019948974 -0.049578454
000230 06 e3 d8 3c 6a 88 01 bd d9 79 c6 3c 8b 26 df ba
       0.02647544 -0.031624235 0.024228023 -0.0017025037
000240 38 ab ba 3b fb a7 9b bb 2e bb 03 3d b6 6d b3 bc
       0.0056966804 -0.0047502494 0.03216093 -0.0219029
000250 2c 20 1e 3d f3 a4 33 bc 57 d9 91 bb d2 9b cc bc
       0.0386049 -0.01096462 -0.0044509578 -0.024976645
000260 f7 bc 64 bc 70 7e 14 3c 21 4a 11 bd f0 d8 b2 3c
       -0.013961068 0.009063348 -0.035471085 0.02183196
000270 6c e5 d7 3c 01 f1 11 3d 2a 23 92 3c e0 94 f4 3c
       0.026354514 0.03563023 0.017839033 0.029856145
000280 4b 66 56 3c 03 9f 95 3b 30 11 e3 bc 72 bf da 3c
       0.013085912 0.004566075 -0.027718157 0.026702616
000290 7d c7 21 bd f0 97 13 bc 79 e4 5d 3c 04 83 05 3d
       -0.039496887 -0.009008393 0.013543242 0.03259565
0002a0 32 eb 34 bd a0 c4 93 ba 46 8c cb bc 33 9e cc 3c
       -0.044169612 -0.0011273809 -0.024847161 0.024977779
0002b0 ae f3 f4 bc 59 ad b5 bc 35 c0 03 3c 9f 37 3b bd
       -0.029901352 -0.022177385 0.008041431 -0.04570734
0002c0 d5 0b 1a bc de 1d bf bc 69 6b fc bc 12 72 3f bd
       -0.009402235 -0.023329671 -0.030812936 -0.046739645
0002d0 13 3a 6b bd a9 b9 86 3c a7 34 e0 bc 7b 53 aa bc
       -0.05742843 0.016445952 -0.027368857 -0.02079176
0002e0 f4 26 75 bc bc 34 5e bc 97 1d 34 bd 12 3c 9a bc
       -0.0149629 -0.013562378 -0.04397353 -0.018827472
0002f0 9e 74 2a bd 33 54 14 3c 4a 5b f9 3b 2b db cd 3c
       -0.04161512 0.009053278 0.0076097595 0.025128921
000300 63 3e 3c 3c 89 44 cb 3a 25 4c 1a 3d fc cc 73 bc
       0.0114894835 0.0015508096 0.037670273 -0.014880415
000310 86 3f c5 3b 67 63 7c 3c 62 9e 31 3c 7d ab 79 ba
       0.0060195355 0.015404559 0.010840984 -0.000952415
000320 f9 5a 40 3c 5a ee 0f bb 90 f7 17 bd e9 3b 1a 3d
       0.01174044 -0.0021962137 -0.03710133 0.03765479
000330 45 52 2e 3d 47 ea cf bb 2d 4f 16 3d 1e a0 0f bc
       0.042558927 -0.0063450667 0.0366966 -0.008766202
000340 47 90 bd 3a 6c af b8 3c 58 c0 22 bd b0 0d 93 bb
       0.0014462554 0.022544585 -0.039734215 -0.0044877157
000350 3e 65 38 3d 04 fa da bc fa a9 77 bc 41 3d 1a bd
       0.045018427 -0.026730545 -0.015116209 -0.037656073
000360 8d e0 5a bc 04 a6 14 bc 68 fb e7 bc 20 3d 1c bb
       -0.013359201 -0.009072784 -0.028318122 -0.0023840144
000370 41 ab 02 bd 8c 06 19 bc 77 2a 3c 3c 88 6b 0f bd
       -0.0319016 -0.00933994 0.011484734 -0.03501466
000380 b2 e5 02 3d 86 2c 31 bc 34 aa db 3c 03 18 24 bd
       0.031957336 -0.010813838 0.026814558 -0.04006196
000390 e8 bd df bc 5b 0a af 3c c1 02 0e 3d 61 20 88 3b
       -0.027312234 0.021367243 0.034670595 0.0041542505
0003a0 b0 03 0e bd 60 e7 43 bd 1a 86 68 bc 33 59 69 3c
       -0.034671485 -0.04782808 -0.014192129 0.014242458
0003b0 b5 b4 ec 39 f5 e9 47 3c a4 af c4 3c 05 50 ef 3c
       0.00045148065 0.012201776 0.024009533 0.029212961
0003c0 47 a3 b1 3b 0b 22 2c bd 98 0e f8 3a 36 70 ae bc
       0.0054210755 -0.042024653 0.0018925248 -0.02129374
0003d0 73 c8 b4 3c 02 6b b9 3b b7 9f cd 3c 28 67 0f 3d
       0.022068238 0.0056585083 0.025100572 0.035010487
0003e0 8f 76 98 3c da 21 9b bc 69 39 36 3c d9 a4 17 bd
       0.01861122 -0.01893704 0.011122086 -0.037022445
0003f0 03 50 47 3a ca 14 94 3b 85 85 c6 3c 55 49 81 bb
       0.000760317 0.00451908 0.024233589 -0.0039455094

to_mean.0.weight f4 [128, 256]
000000 79 81 10 bd be bd 3a 3d 7e e7 9f bb 01 37 71 bd
       -0.035279725 0.04559111 -0.004879891 -0.058890346
000010 d0 79 06 3d 4b ab 3b bb be 7d 1a bd 06 46 97 3c
       0.032831013 -0.0028636034 -0.037717573 0.018466007
000020 65 19 38 bd 1c ff 50 3d ef a1 1c 3d d1 7d 3c bd
       -0.044946093 0.05102454 0.03824037 -0.046018425
000030 8b 53 f1 3b ef ba 7f bc b0 37 65 3d b8 7a fe 3c
       0.0073646954 -0.015608533 0.05596131 0.031064376
000040 5c 46 69 ba c4 7f a9 3c b4 73 e8 bc 98 08 ad bb
       -0.0008898729 0.020690806 -0.028375484 -0.0052805655
000050 37 38 ed bc fc d5 3f bd ad 40 0d 3c fd 20 1c 3d
       -0.02895747 -0.04683493 0.008621377 0.038117398
000060 48 f2 9e 3d 5c 83 41 bd f2 0b 7f 3d 9e c8 a4 3c
       0.07761055 -0.047244415 0.06226725 0.020115193
000070 7d 0f 5f 3b 70 e7 4c bb 01 6c 1e bc 5f 3d 53 bc
       0.0034036331 -0.0031265877 -0.009669305 -0.01289305
000080 e9 88 1e bc a8 7d 01 3c 42 6d 4a bc f2 59 19 3d
       -0.009676197 0.007903494 -0.012355151 0.037439294
000090 a4 4d 38 bd 6d 1f 83 3c a9 bf 73 bd c0 61 00 3d
       -0.04499592 0.016006196 -0.059508953 0.03134322
0000a0 14 01 70 3d 3c 5e cf 3c 8d 95 51 bc 5c da 8a 3d
       0.05859478 0.02531349 -0.012792003 0.0677993
0000b0 53 e3 07 3c 7e a3 84 bc fb e1 1e 3d 6d fe f1 bc
       0.008293944 -0.01619124 0.03878973 -0.029540265
0000c0 6f 1d ee bb 3e 7e 1e 3d f6 b0 40 3d 72 61 ca 3b
       -0.0072666924 0.038694613 0.047043763 0.006176167
0000d0 71 9e 08 bc 4c f7 41 3c ee eb 17 bd 6f 31 4b bd
       -0.008338557 0.011838745 -0.037090234 -0.04960769
0000e0 63 eb 3a 3a 10 9a 98 bc dd 95 7c 3d 5e 39 79 3d
       0.0007130412 -0.01862815 0.06166636 0.060845725
0000f0 a1 af 9f bb 10 85 5f 3d 8e bd 41 3d e5 79 81 3d
       -0.0048732315 0.054570258 0.047299914 0.06322078
000100 f1 d5 02 bd 20 4f 19 3d 72 2d 25 3d b6 da dc 3c
       -0.03194231 0.037428975 0.040326543 0.026959758
000110 c7 c9 c5 bc 58 18 78 3d 74 ba 2c bd 49 0a e9 3c
       -0.024144066 0.06057009 -0.042170003 0.028447287
000120 76 a6 21 bc e1 b3 f3 3c f2 9d b7 3c fc 43 c4 3c
       -0.009866348 0.029748859 0.022414181 0.023958199
000130 6f bb 88 3d d8 3a 3f 3d a2 f7 70 bc fd 33 4a bd
       0.06676375 0.046686977 -0.014707478 -0.049365986
000140 93 80 cc bc 91 7f 15 bd 0e 74 3c 3d 2f 07 20 bd
       -0.024963653 -0.03649861 0.046009116 -0.03906935
000150 d2 eb e7 3c f1 6a bf 3b e6 10 dd bb 67 b6 7f 3d
       0.02831069 0.005841606 -0.006746399 0.06242981
000160 e9 73 a9 3c 5d 1b 6a bd 45 1f 77 3b c9 36 20 3d
       0.020685153 -0.057155002 0.0037707847 0.039114747
000170 c7 7a 11 bd 30 fd ed bb 3e b4 4b bd ab 85 cf 3c
       -0.03551748 -0.0072628483 -0.04973244 0.025332293
000180 52 79 d9 3b 17 87 1f bd 60 55 bd 3b 07 05 af 3b
       0.006636777 -0.03894719 0.0057779998 0.0053411755
000190 e4 52 ec 3c ff 37 b3 bc 74 5c 48 3d 12 15 c2 3c
       0.02884812 -0.021877287 0.048916295 0.023691688
0001a0 71 f4 be bc a9 bd 1f bd a7 e3 54 3b 8f 1a 86 3c
       -0.023309918 -0.038999233 0.0032484324 0.016370086
0001b0 66 13 7f 3b 08 4f f6 3b c3 e3 82 bc 34 b7 aa bc
       0.0038921474 0.0075167455 -0.015977746 -0.020839311
0001c0 67 47 9d bc 79 6a 49 3d df 81 67 bc ec f5 f2 bc
       -0.019199086 0.049173806 -0.014130085 -0.02965828
0001d0 10 aa 70 3d 3d 16 90 bc 84 af 78 bc c1 99 a5 bc
       0.058755934 -0.017588729 -0.015178565 -0.020214917
0001e0 4d 29 0b 3d 90 fd 0e 3d c9 04 11 bd a0 60 26 bd
       0.033974934 0.034909785 -0.035404954 -0.040619493
0001f0 6e ae e0 3c 56 ab 08 bc e2 c9 21 bd e4 a1 ea 3b
       0.027426925 -0.008341631 -0.03949917 0.007160412
000200 d9 10 5a 3c 31 19 39 3d 29 ae fc 3c 24 74 44 3d
       0.013309681 0.04519004 0.030844765 0.047962323
000210 ef c9 81 bc 3f bf 18 bd b8 92 fc bc e4 15 0d bc
       -0.01584336 -0.03729176 -0.03083168 -0.008611176
000220 07 f7 41 bd 3b 2c c9 bc 26 bf 88 bd 99 6f da bc
       -0.047354724 -0.024557224 -0.06677084 -0.026664542
000230 7a 9e 53 3c d9 fa 90 3c 85 24 8a 3d c4 02 3c 3c
       0.012916202 0.017697738 0.06745247 0.011475269
000240 5c c8 fe 3a 3a f6 50 bd 25 1d bc bb a0 77 85 3d
       0.0019438374 -0.05101607 -0.005740779 0.06516957
000250 cb ff c7 3c fb 6a 18 3d cb 10 31 3d e0 12 c5 3c
       0.024413964 0.0372114 0.043228906 0.024056852
000260 d0 3c 95 3d fd 4a 19 bb fa d6 75 bd 7e 98 8c 3d
       0.0728699 -0.0023390644 -0.06001947 0.06865023
000270 3d e4 64 bd 59 1e 60 3d 82 6d 2d 3d 52 b9 e3 3b
       -0.055881727 0.05471644 0.042340763 0.006949582
000280 86 6d 7b bd d8 fa f7 ba c2 f2 bf bb ab 26 d2 3c
       -0.061383747 -0.0018919362 -0.0058577964 0.025653204
000290 cd 29 32 bd 64 8d 02 bd 55 e3 9a bc a2 68 85 3d
       -0.043496896 -0.03187312 -0.018907228 0.06514098
0002a0 cd bf df bc 5f 10 3d bc 8e 60 1f bd 1c 57 11 3d
       -0.027313137 -0.011539548 -0.03891044 0.035483465
0002b0 20 7b af bc 49 76 26 3d 1d cc 47 bc 02 4c 39 bd
       -0.021421015 0.04064015 -0.0121946605 -0.045238502
0002c0 7f 36 35 3d 1b 9f b5 3c 23 db 87 bd 0a cc 51 bc
       0.044241425 0.022170594 -0.06633594 -0.012804994
0002d0 03 13 3c 3c d3 65 08 3d e4 86 39 3d 1b ec 87 bb
       0.011479142 0.033300232 0.045294657 -0.004148019
0002e0 44 66 d8 3c 6a 9f 69 3d 2f c6 f9 3c 38 3c 8d 3c
       0.026415952 0.057036795 0.03049001 0.017240629
0002f0 45 d6 11 bd 31 f7 ef bb 7e c4 aa 3b c0 21 f4 3c
       -0.035604734 -0.0073231687 0.005211412 0.02980125
000300 f2 49 e6 3a 01 b4 6e 3d 55 bb 9a bc 96 49 9d bc
       0.0017569645 0.058277134 -0.018888155 -0.019200128
000310 7f 02 04 bd 59 ff 1d 3d 71 f2 09 bd 84 78 80 3c
       -0.032228943 0.038573597 -0.033678476 0.015682466
000320 e8 9c 5e 3d 1b 38 19 3d 63 01 19 3d c8 7f cd 3c
       0.054348856 0.037407022 0.037354838 0.025085345
000330 ea 77 2e 3c 19 4f 35 3b aa 89 9a 3c c7 a1 53 bd
       0.010648707 0.0027665554 0.018864471 -0.051667955
000340 59 0e 11 3d 8d c9 03 3d 89 8b 27 bd df 06 ae 3b
       0.035414074 0.032174636 -0.040904555 0.0053108777
000350 df ad 92 3b c7 ea a3 3c b0 6f 21 3d 1e 4c 80 bd
       0.0044762935 0.020009411 0.039413154 -0.06264518
000360 d0 5f 81 3d 5b 3e 4f bd f4 6c 8d bd df 1d b0 bc
       0.06317103 -0.050596576 -0.06905547 -0.021498619
000370 a2 ce bb 3c ab 39 21 3d 71 26 cc 3c 7c 7c 0d bd
       0.022925679 0.039361637 0.024920674 -0.034542546
000380 ba 9c aa 3c 1a 8e 5a bc 93 3e 2c bd ea 9f 4d 3d
       0.020826686 -0.013339544 -0.042051863 0.050201334
000390 cc 97 36 3d d5 8f 1c 3d b3 ac b3 3c a9 45 1e 3d
       0.04457836 0.038223106 0.021932935 0.03864065
0003a0 13 6f 10 3d 53 c2 fe 3c 43 83 7c bc 62 4a 80 bc
       0.03526218 0.03109852 -0.015412155 -0.015660468
0003b0 f0 d4 0d 3d fc d0 98 bc b9 47 3b 3d 1d 1d 76 bd
       0.0346269 -0.018654339 0.045722697 -0.06008636
0003c0 45 2d 90 bc 8b 9e 2a bd 6b 35 68 bd ff ea 1d bd
       -0.017599711 -0.041655105 -0.05669157 -0.038554188
0003d0 a6 ed 4b bb 02 3a 0d bb 22 31 e4 bc a0 59 94 3b
       -0.0031116991 -0.0021549468 -0.02785546 0.0045272857
0003e0 7b 19 7e 3d 8f 33 1e 3c 27 7c 76 3d 79 ba f2 3c
       0.06203602 0.009655847 0.060176995 0.029629933
0003f0 57 ca e6 3c 31 73 38 bd f7 f5 ef 3b 04 52 44 bb
       0.028172655 -0.04503173 0.0073230225 -0.0029956112

to_mean.0.bias f4 [128]
000000 93 60 4b 3d 12 f0 ae bc 0e 01 a0 bc 63 59 db bc
       0.049652647 -0.021354709 -0.019531753 -0.026776021
000010 cc 60 63 3d fa fa b0 bc fc 12 8a bc 89 4f d9 bc
       0.055512235 -0.02160405 -0.016854756 -0.026527183
000020 d7 c4 96 3c 2a fc 8d 3b aa 66 c3 3c 49 e7 84 bd
       0.018404407 0.004333039 0.023852665 -0.06489427
000030 42 a2 4a bd 6a 15 48 3c 77 b2 40 bd e6 b8 56 bd
       -0.049471147 0.012212137 -0.047045197 -0.052422427
000040 b2 48 92 3c 27 c6 45 bd f4 be 0b bd db a3 d1 3a
       0.01785693 -0.048284676 -0.034117654 0.0015994267
000050 76 5c 17 bd c1 ff 36 bd 20 ac 4a bd 60 76 2c 3c
       -0.036953412 -0.0446775 -0.049480557 0.01052627
000060 9d a7 3f 3c 37 1e 79 3c e0 06 97 bc 3c 2c 20 3d
       0.011697677 0.015204958 -0.018435895 0.039104685
000070 8b d1 0d bd 79 74 b5 bc 5d 56 e5 bc 5a 6a 6c bd
       -0.034623664 -0.022150265 -0.027995283 -0.057718612
000080 34 9c fa 3c 54 6f 77 3d 71 d3 4b bc a0 97 4f bd
       0.030592062 0.060408905 -0.012440548 -0.05068171
000090 9c 2f 35 bd ed 3e ef bc 6a b8 ab bc 82 31 90 bd
       -0.044234857 -0.02920481 -0.020961959 -0.07040693
0000a0 5b ce ae bc 00 1d 58 3d 6e 02 a4 3b 58 55 0a bd
       -0.021338632 0.05276203 0.0050051725 -0.033772796
0000b0 14 7b 1c 3d 68 89 79 bd 11 2b 2e bd 07 53 b8 3b
       0.038203314 -0.060922056 -0.04252154 0.005625132
0000c0 05 0f be 3b 7a 10 e8 3c 84 ab 47 bd b5 e3 70 3c
       0.0058001303 0.02832817 -0.048747554 0.014702727
0000d0 5c 1f b1 bc 63 92 4c bd 49 78 b9 bb 62 ca bc bc
       -0.021621399 -0.049944293 -0.005660091 -0.023045722
0000e0 20 ee 7b bd 06 ae 8c b9 58 92 b5 3c 91 5b 8b bd
       -0.06150639 -0.00026832538 0.022164509 -0.06804574
0000f0 40 8e 21 bd 24 f9 38 bd 6b 8b 53 3d 3e c4 9b 3c
       -0.0394423 -0.045159474 0.05164663 0.019014474
000100 34 c2 28 bd 20 fc f0 bc 45 1b 89 3c 70 c2 3b 3d
       -0.04120083 -0.029417098 0.016736636 0.045839727
000110 ec 98 f7 bc 41 d9 b6 3c d8 a4 cd bc cf d9 20 3d
       -0.030224286 0.022320392 -0.025103018 0.03927022
000120 14 12 07 3d 13 bc 1e 3d 6d 47 7a bb ac b2 a2 3a
       0.032976225 0.03875358 -0.0038189546 0.0012412868
000130 2c 43 22 bd ce 9d fd 3b 13 e0 bf bb 9a 50 d9 3c
       -0.03961484 0.007739759 -0.005855569 0.026527692
000140 5f 74 86 bc 11 e9 2e 3d 50 f0 35 bd 11 23 15 3d
       -0.016412912 0.04270274 -0.044418633 0.036410395
000150 7e 2d 1f 3c c9 69 3e 3d 7e 84 1c 3b 54 96 da bc
       0.009715436 0.046487603 0.0023882682 -0.02668301
000160 d8 99 cf 3c c6 d1 d8 3b f1 f0 a8 bc 76 6e 6d bd
       0.025341913 0.006616804 -0.020622702 -0.057966672
000170 a4 08 90 3c cf 67 0d 3d 31 c1 02 bd d8 a0 13 3d
       0.017582245 0.034522828 -0.031922523 0.036042064
000180 6e c9 53 3c 29 ce ae 3b 4b fe de bb 45 3d ac 3c
       0.012926443 0.005334635 -0.0068052164 0.02102531
000190 8c 6e 66 3c 9e 2f 0b bd 1a 90 77 bc 18 13 38 bd
       0.014064442 -0.03398096 -0.01511004 -0.044940084
0001a0 0b 86 0b 3d c9 3b cc bc 19 20 2d bd 83 a2 b3 3c
       0.03406338 -0.024930852 -0.04226694 0.021928078
0001b0 b8 5a 5f bd ed 42 be 3b 36 15 78 bd 63 81 02 bc
       -0.054529876 0.005806318 -0.060567103 -0.0079654185
0001c0 c1 83 cf 3c cb 24 ac bb cb b3 74 bd 00 dd 10 bd
       0.02533138 -0.0052534095 -0.059741776 -0.035367012
0001d0 02 b4 44 3d e5 aa 55 bd 7a 3b c1 3b cb 23 21 3d
       0.04802323 -0.05216493 0.0058969827 0.039340775
0001e0 91 d2 4d bd e8 42 1a bd 71 86 92 bd 1c e2 2b 3d
       -0.05024964 -0.037661463 -0.07154549 0.04196368
0001f0 02 03 50 3c bb 24 01 3d 11 a3 f8 3c 31 ca 2f bd
       0.01269603 0.03152917 0.030351194 -0.042917434

to_mean.2.weight f4 [17, 128]
000000 62 09 0a bd 4d b6 0e bc 71 ab e1 3c c3 d8 20 bd
       -0.033700354 -0.008710456 0.02754757 -0.03926922
000010 d7 ef 1d 3d 8f a4 28 bd eb eb f3 bc 71 cd 93 bd
       0.038558807 -0.04117256 -0.02977558 -0.07216919
000020 06 13 97 3d 2b 02 c4 3c ae ed b1 bd 55 9e 3d bd
       0.07376675 0.023926815 -0.08687912 -0.046293575
000030 d2 43 54 bd eb 89 ab 3d ad 31 23 3c 18 28 6b 3c
       -0.05182249 0.08375915 0.009960574 0.014352821
000040 cd 4a 6a bc 38 62 3c bd 0b 67 41 3c bc 82 0c 3c
       -0.01430006 -0.045992106 0.0118043525 0.008576091
000050 41 43 21 bd b3 c6 b3 3c fc aa 96 3c 7a ff 13 3d
       -0.03937078 0.021945333 0.018392079 0.036132313
000060 27 ac 70 bd 18 0c 96 bd 55 b8 48 bd 81 d6 35 3d
       -0.058757927 -0.073265254 -0.049003918 0.04439402
000070 b8 de da 3c 91 08 ba bb 04 3b 83 bc 93 ac 2b 3d
       0.026717529 -0.0056772907 -0.016019352 0.041912626
000080 bd 45 94 3c c1 58 2d 3c 0d b0 46 3d 8e 4f 55 3c
       0.01809966 0.010580243 0.04850774 0.013019456
000090 b6 ae 97 bd 34 7d 87 3d 7e 11 76 bd 2b d5 93 3c
       -0.0740637 0.066156775 -0.060075276 0.018045982
0000a0 5e d1 79 bc 4a 18 58 3d dc 97 83 3d b9 9f 19 3d
       -0.015247671 0.05275754 0.06425449 0.03750584
0000b0 8d 31 c2 bb 7f 69 1d bd 57 66 7e 3d 20 99 94 3d
       -0.005926317 -0.038430687 0.062109318 0.07255769
0000c0 26 be 0c bd b8 2a 5a 3d ae 6c bb bc 65 43 a2 3d
       -0.034361027 0.053263396 -0.022878971 0.07923011
0000d0 45 2c 3c bd cb 02 3a bc e5 49 d9 3b d1 19 fc 3c
       -0.045940656 -0.011353205 0.0066311234 0.030774029
0000e0 b9 5f 9a 3d ba c5 91 bd ea 2e 0b 3c d7 48 69 bc
       0.07537789 -0.071177915 0.008495072 -0.014238558
0000f0 16 d7 35 3c 8f 1a 39 3c 28 cb fc bc 28 7e c4 bc
       0.011098644 0.011297836 -0.030858591 -0.023985937
000100 11 5a 6e bd a4 e1 f9 bc 98 a0 3d 3d d4 c9 9b 3c
       -0.058191363 -0.030503102 0.046295732 0.019017138
000110 be 1d 2a 3d fd 02 f8 bb a3 db 6b bd 25 92 98 3d
       0.04153227 -0.0075687156 -0.05758251 0.0744975
000120 e6 db 64 bc fb f9 5e bb 04 e1 84 3d 19 12 a7 3c
       -0.0139684435 -0.0034023512 0.06488231 0.020394372
000130 73 24 92 bd fe 94 1d bd 20 7f 92 3d 67 56 5a bc
       -0.071358584 -0.03847217 0.071531534 -0.013326264
000140 5d 9f 5f 3d a3 d3 a2 bd 3d 5e a6 3c 8f c9 89 3d
       0.05459534 -0.07950523 0.020308608 0.067278974
000150 06 93 ad bc f2 db 88 3d 51 33 00 bd 43 65 a0 bd
       -0.02118827 0.06682576 -0.03129894 -0.07831814
000160 5e db b9 bc 42 6f 53 bc 15 70 b7 bb 22 7d 0e bd
       -0.02268761 -0.012904944 -0.005598078 -0.034787305
000170 b2 b6 97 bd 57 f4 fa bb dd 7e 12 bd 23 e0 45 3c
       -0.07407893 -0.007658522 -0.035765518 0.012077364
000180 e3 e6 7c bd e2 37 47 bd d8 0b fb 3c e7 8b 8c 3c
       -0.06174363 -0.04863728 0.030645296 0.017156554
000190 34 b0 18 bb e6 12 fb 3b cc 8a 55 bd 8a 75 17 3d
       -0.0023298385 0.007662165 -0.05213432 0.03697733
0001a0 66 51 5e bc be 29 0c 3d 1c 0a 88 bd 48 39 58 3d
       -0.013569212 0.034219496 -0.06642553 0.052789003
0001b0 b8 a9 22 3d 3f 07 89 3d 39 06 ec 3c 11 6d f2 bc
       0.039712638 0.06690835 0.028811561 -0.029593023
0001c0 47 64 58 bd 20 61 22 bd 73 8b 39 3d a2 53 96 3d
       -0.052830007 -0.039643407 0.045299005 0.073401704
0001d0 f1 df 47 3c cc 82 94 bd e4 78 9a 3d 5b 63 39 bc
       0.012199388 -0.0725151 0.07542589 -0.011315192
0001e0 40 b3 6d bd 09 bb 07 3d 7d 77 6a 3d f6 cc 2b bc
       -0.058032274 0.033137355 0.05724286 -0.010485878
0001f0 b7 dd e1 bb 2e e0 96 3c f9 d4 76 bd 00 1d db bc
       -0.0068928855 0.018417444 -0.0602617 -0.026747227
000200 eb 19 80 bc e8 42 0e 3d bd 72 94 3b ab f8 67 bd
       -0.015637359 0.034731776 0.0045302794 -0.056633633
000210 66 af 17 bd 27 90 36 3d c5 dc 9f 3c ab f9 d1 3c
       -0.037032507 0.04457107 0.01951445 0.025631746
000220 bd d4 1d bd 4b 29 8d 3b 3f dd 4c bb c1 04 ac 3d
       -0.03853296 0.004307901 -0.0031259803 0.08399344
000230 c4 b7 09 3d 76 fa 99 bd ba 82 8a 3d 92 fc 73 bd
       0.03362252 -0.07518475 0.06763215 -0.05956704
000240 9d d7 0e 3d c5 19 b4 3b ff 47 1b 3d 02 a8 6b bd
       0.034873594 0.005496236 0.037910458 -0.05753327
000250 f1 b3 d0 bc c6 b2 b8 bc 54 cf 5a bd 5e 84 75 bc
       -0.025476428 -0.022546183 -0.05342038 -0.014985172
000260 96 fb 14 3d 96 ca 0c bc 78 85 35 ba c1 91 8a 3d
       0.036372744 -0.008593222 -0.00069244904 0.067660816
000270 03 70 e3 3c 7c c5 41 3d 85 55 1e bd 6e 54 5a 3d
       0.027763372 0.047307476 -0.038655777 0.053303175
000280 68 34 e9 3a 45 20 3b bd 02 e7 37 3d 02 1e 41 3c
       0.0017792108 -0.04568507 0.04489804 0.01178694
000290 ab e4 87 3c 5a 1b 1f 3d 45 03 4a 3d b7 91 27 bc
       0.01658853 0.038844444 0.049319524 -0.010227612
0002a0 0a db e8 bb 47 cd 88 3d 90 25 7f bd b2 da 41 bd
       -0.0071061896 0.066797785 -0.06229168 -0.047327705
0002b0 83 19 92 bd a8 90 32 3d c4 12 96 3c 4e aa 33 bd
       -0.07133772 0.043594986 0.018319495 -0.043863587
0002c0 77 9b 35 bd 09 56 81 bd 9d 00 17 bd 09 52 dd 3c
       -0.044337716 -0.06315238 -0.03686582 0.027016656
0002d0 0c 09 4a 3c df fc ee 3c 92 11 28 3d 28 e7 22 bd
       0.0123312585 0.029173313 0.04103238 -0.03977123
0002e0 6c c6 3f 3d 2b cd 41 3c cf 5e 68 bd 65 d8 7e 39
       0.04682009 0.011828701 -0.05673104 0.00024303941
0002f0 3d 48 8b 3d 99 7f 13 3c 5c b5 8a bd e9 6a 1b bd
       0.06800888 0.00900259 -0.06772873 -0.037943754
000300 16 54 01 bd 42 d9 28 bd 7c 88 2b bc 5e c5 86 3d
       -0.03157433 -0.04122282 -0.010469552 0.065806136
000310 ef fa 85 bd 79 17 49 3d 4f 3d 7e 3d 78 76 85 3d
       -0.065420024 0.04909465 0.062070187 0.06516737
000320 b9 ac 5a bd f9 94 ff 3c d2 dd 3d 3d b7 0c 0a bd
       -0.053387377 0.031198965 0.046354122 -0.033703532
000330 dd 9e 89 bd 05 ba 42 3d 9f 6e 1d 3d 2e 09 37 bd
       -0.06719754 0.047540683 0.038435575 -0.04468649
000340 d9 49 57 3d 0d eb d9 3c 0a a6 b7 3c 0e ef 0f bd
       0.05256066 0.026601339 0.02241804 -0.03514009
000350 d2 03 b0 bd 61 4f 1f 3d b8 3f 92 bd 1e 4a ea 3c
       -0.08594479 0.03889406 -0.0714106 0.028599795
000360 2b 8b 96 bd 9f b0 af bc a7 57 44 bc ed 12 24 bd
       -0.07350763 -0.021446524 -0.011983789 -0.04005711
000370 b3 96 0c 3d d6 56 63 3d cb dd 83 bd 02 bf 87 bc
       0.034323405 0.055502735 -0.06438788 -0.016570572
000380 3e 6d 48 3d a1 a4 17 bd 8d 80 53 bd c5 4f 5c 3d
       0.048932306 -0.037022237 -0.051636267 0.05378701
000390 9c fe 67 3d 84 f7 7b bd 4c 78 e9 3c 4a c5 59 bd
       0.0566393 -0.061515346 0.028499745 -0.053166665
0003a0 8a 31 12 3d d0 7c 5a 3d dc eb 83 3c db e2 6b bd
       0.035691775 0.053341687 0.016103677 -0.057589393
0003b0 35 8a b2 3c 0d 27 20 3d 9b a3 fe 3c c5 a1 35 bd
       0.021794418 0.03909974 0.031083873 -0.04434373
0003c0 f0 f2 51 bd b4 03 b1 bc 40 2e 80 bd 83 01 19 3d
       -0.051257074 -0.021608211 -0.062588215 0.037354957
0003d0 e5 60 4b bd 9a 48 25 bd cd aa f8 3c b5 4d 46 bd
       -0.049652953 -0.04035244 0.030354882 -0.04841395
0003e0 08 a1 89 3c 9b ca 5b 3d fd a3 30 bd 2a a6 a3 bd
       0.016800418 0.053660017 -0.04312514 -0.07990678
0003f0 43 5c 18 bc 76 20 4f bd b5 d4 02 bd 16 8d 88 3d
       -0.009299341 -0.050568067 -0.031941134 0.06667535

to_mean.2.bias f4 [17]
000000 93 01 ad 3d e8 ad ab bc dd ca 50 3c 84 d0 0c 3a
       0.08447566 -0.020956948 0.012743679 0.00053716474
000010 6c bf 61 3b cf dd b3 bd 4e ca 32 3d 67 42 5b 3b
       0.0034446372 -0.08782541 0.043649964 0.0033456327
000020 5b a2 07 bc 77 71 69 3b 4a 9f 1d 3d 45 ce 80 bc
       -0.008278455 0.0035620609 0.038481988 -0.015723357
000030 8a 15 ae bd 88 9a 5f 3d 13 e3 7c 3d fe 2e 46 bd
       -0.08500202 0.05459073 0.061739992 -0.04838466
000040 34 68 ca 3c
       0.024707891
